models/v17.1/model_99500_target.pt (torch, 729938 bytes, 10 tensors)

conv.0.weight f4 [16, 2, 3, 3]
00000000: be87 443e 5fab d63c f378 95bd e029 7d3c
00000010: 0c25 3fbd f4fb d13b 0310 c1bc 31d6 50bd
00000020: 75b1 e53d cb7c 50be 4315 af3d 26e1 ab3d
00000030: 6bfc d63c 78a0 b8bc aa09 bb3d 298d 843d
00000040: c619 ae3d 5777 8bbd 2ed0 f13d a5e8 6c3e
00000050: 03d3 63bd a610 f3bd f063 16be 0ed7 173e
00000060: 57d4 49be abd1 a1be 0dd8 1bbe 1677 4fbd
00000070: ae81 f2bc b5c3 e7bb a494 c73d b6e1 49be
00000080: 7e56 573d 8856 663e 53b3 0a3e 38e3 243e
00000090: 71a6 a83d e74f 963e 32e7 7f3b 66b9 58bd
000000a0: 17f9 ee3d 255c 953e d31d 663e b484 e13e
000000b0: 3902 603d 3228 c1bd 9dfb 8dbe 2b61 d03b
000000c0: d608 273d f6ce 77bd 6126 aabe e0fc 46be
000000d0: e9d8 e3be 7172 7cbd 396d 4a3d 4171 1ebc
000000e0: b5eb 873d a194 2dbd 6003 563d 9823 a9bf
000000f0: 6e3d 8e3c 8a24 6dbd 62b2 003d e5f6 71bd
00000100: 2ef3 9abc 5142 88bd 7a4f 173d 489a 1abd
00000110: 6464 4b3d fffd 3dbc e896 7d3d 5e38 c0bc
00000120: f67d 163d cb5a a6bd f480 0cbe 6626 8fbd
00000130: e176 0bbe 7690 123f 0055 943c 3836 083d
00000140: c7f2 febd 7449 14bd 2ac0 b63d e20d 0d3e
00000150: 4ed8 aa3d e76a f73d 4034 903e be52 84bc
00000160: 24a4 23bc 444e db3d 2486 943d 420f 54bd
00000170: 987f ea3e 0981 30bd 28f9 f3be dfd9 80bc
00000180: d046 183d e20b 30be 83f6 cebd 0964 9abd
00000190: 108b 0d3d 2bd0 8b3a 213e 823d d4ae d33b
000001a0: 9178 c5bb f3e4 31bd c32a 1c3e fb8c d13d
000001b0: 368f b0be b180 d3be a094 67bc 3bc8 9f3c
000001c0: 9751 e63c b672 33bf 66eb d6be 6537 eabe
000001d0: b2a5 48bd e1d6 3b3e bba6 6e3e 21a4 8d3c
000001e0: d428 92bc 1395 823b 9b98 b43e 9741 383e
000001f0: bce5 3e3e f9d9 2f3d 2d3c 09bf 6202 07bf
00000200: f5a6 933d a07d aebd e65c bd3d 7ecd 1a3e
00000210: 8579 36bf 74e1 d0bd c921 d5bc 9ff0 703e
00000220: 948d 743e 17bf 92bd 50c8 823c 9578 62bd
00000230: 2414 f13d eab2 3d3e 6828 cf3c b357 063d
00000240: a89f a83d d1eb ad3d d2f3 233d 772a d03d
00000250: cb17 4e3e a9d4 d5bc 4946 21be be9d 98be
00000260: bc27 9dbe ec12 20be 132f df3d 9146 9d3a
00000270: af2d 073d 4921 6a3d 69a8 1f3e cedb 12be
00000280: 0a1b d63d 59fb c03a 0d5f eebb 348f 95bd
00000290: f4cf e83d 8f00 1a3d 00c0 dbbc 57c3 253f
000002a0: f9e9 4ebc a9f8 26be 3e58 5abd 8f23 8b38
000002b0: 8075 6d3d 2870 b7bd acf0 e3bc 23c5 4d3d
000002c0: 5ecb 33bf 0601 8f3c 63e2 1e3e a1c1 9a3d
000002d0: 29e4 923c 16c9 41bb 1f78 4d3c 2226 adbd
000002e0: c0cb 0c3f db30 c5bd 9a5a 273b 34a9 9ebd
000002f0: 2079 3c3d 8b2d 99bc 8d92 173c d07c f93a
00000300: 2351 ad3d 393a bc3e a93c 933d a63f 863b
00000310: 1f8f a73d a4c6 52bd 93dd f2bc da53 263d
00000320: 6d13 c1bd a354 bdb8 9b60 433f 5a96 fa3c
00000330: e900 e0bd 43cf ab3c 24c5 fdbd d8f3 c03c
00000340: 4c42 84bd 3619 bf3d c96c 32bc 91e0 8ebd
00000350: 5a64 87bd f720 e83d 8573 12bd 5199 f53d
00000360: b318 c6bd a4ee 69be 2c4b 86bd f65d 04be
00000370: 0fc5 c5bf 1d28 6f3d 6fcf ecbd 0067 39be
00000380: 6071 3abe 616d 053e 4bef 1a3e 33d8 913d
00000390: a36a db3d f43f 0a3e 6c44 f0bd ff5c 193e
000003a0: 032a cc3d 5471 3e3e 87aa 8bbc 7032 c3bd
000003b0: 6c59 3ebd 181d 53bd 1344 b6be 891a 41bf
000003c0: f790 5c3e f741 e1bd cde6 b3bd af24 23bd
000003d0: 8700 6e3d 83e7 773c c061 f03b 7ac9 883d
000003e0: b197 923e 108d 0e3e b9ac 003e 5e74 b23d
000003f0: d671 16bf dd4e 0bbf 2035 61bf 62bf 10be
0.19192407 0.026204763 -0.0729846 0.015451878 -0.04666619 0.006408209 -0.023567205 -0.05098552
0.11215488 -0.20360105 0.08548977 0.08392553 0.02624341 -0.022537455 0.09132703 0.06472237
0.0850101 -0.06809872 0.11807285 0.23135622 -0.05562116 -0.1186841 -0.1468656 0.1482813
-0.19709907 -0.31605276 -0.15219136 -0.05065068 -0.029602852 -0.0070728906 0.09745148 -0.19715008
0.05257272 0.22493947 0.1354497 0.16102302 0.08234871 0.29357836 0.0039047715 -0.052911185
0.11668604 0.29171863 0.22472315 0.44046557 0.05468962 -0.09431495 -0.27731028 0.0063592396
0.04077991 -0.060500108 -0.33232406 -0.19432402 -0.44501427 -0.061632577 0.04942057 -0.0096705565
0.066367544 -0.04237807 0.052249312 -1.3213987 0.017363276 -0.057896174 0.03142012 -0.059073348
-0.018914785 -0.06653274 0.03694103 -0.03774479 0.049656287 -0.011596202 0.061911494 -0.023464378
0.03674122 -0.08122786 -0.13721067 -0.06989746 -0.13619567 0.5725168 0.018106937 0.033254832
-0.1244865 -0.036202863 0.08923371 0.13774827 0.08342038 0.12080937 0.28164864 -0.016152736
-0.009987865 0.10708287 0.07252148 -0.051772363 0.4580047 -0.043091808 -0.4765103 -0.015728889
0.037176907 -0.17192033 -0.10105612 -0.075386114 0.03455645 0.0010666897 0.063595064 0.00646005
-0.0060263355 -0.043431234 0.15250687 0.10231968 -0.3448426 -0.4130912 -0.014134556 0.019504657
0.028115077 -0.7009691 -0.4197647 -0.45745388 -0.048986144 0.18343689 0.2330579 0.017290177
-0.017841734 0.003985056 0.3527268 0.1799377 0.18642324 0.042932484 -0.53607446 -0.5273801
0.07209579 -0.08520055 0.092462346 0.15117452 -0.71279174 -0.10199252 -0.026017087 0.2352929
0.23882133 -0.07165354 0.015964657 -0.055290777 0.1177142 0.18525282 0.025287822 0.03279848
0.08233577 0.08492244 0.040027447 0.101643495 0.20126264 -0.02610238 -0.15749468 -0.29807848
-0.30694377 -0.15632218 0.108976506 0.001199918 0.03300255 0.05716065 0.15591587 -0.14341661
0.10454376 0.0014723345 -0.0072745145 -0.073027045 0.11367789 0.03759819 -0.026824951 0.6475119
-0.012629026 -0.16305794 -0.05330681 6.63466e-05 0.057973385 -0.08956939 -0.027824722 0.050236832
-0.7023219 0.017456543 0.15516047 0.07556463 0.01793106 -0.002956932 0.012540846 -0.08454539
0.549984 -0.09628459 0.002553618 -0.07747117 0.04601395 -0.018698474 0.009251249 0.0019034389
0.08462741 0.3676317 0.071893044 0.004096943 0.08181595 -0.05145897 -0.02964667 0.04060731
-0.09427533 -9.027987e-05 0.76319283 0.030589271 -0.109376736 0.020972854 -0.12391117 0.023553774
-0.064579576 0.093309805 -0.010890194 -0.069764264 -0.066109374 0.113344125 -0.0357547 0.119921334
-0.0967268 -0.2284494 -0.06557307 -0.12926468 -1.5450763 0.058387864 -0.11563002 -0.18105698
-0.18207312 0.13030006 0.15130346 0.07121315 0.10713699 0.13500959 -0.117318004 0.14976881
0.099689506 0.18597919 -0.017049087 -0.095311046 -0.046471998 -0.051541418 -0.35598812 -0.75431114
0.21539675 -0.1099891 -0.08784256 -0.039829906 0.05810597 0.01513088 0.0073358715 0.066790536
0.28631356 0.13920999 0.12565888 0.087136015 -0.5876745 -0.5441721 -0.8797169 -0.14135507

conv.0.bias f4 [16]
00000000: d4f3 02bc 0da9 3abe 189a c5bd 0693 1d3f
00000010: 1009 0dbf bea9 81be 7b7b c03d e3a1 2abe
00000020: 07f0 bdbe e6c5 42bd 0df6 20bf 9a89 c4be
00000030: 933f a13e 6268 61be c93b 2ebc 763d 83be
-0.0079927035 -0.1822855 -0.09648532 0.61552465 -0.55091953 -0.25324816 0.09398552 -0.16663317
-0.3709719 -0.047552012 -0.62875444 -0.38386232 0.31493816 -0.22012475 -0.010634371 -0.25632828

conv.2.weight f4 [32, 16, 3, 3]
00000000: e48d 6abd c966 663c 77e5 08bd 5be8 b1bc
00000010: da3b 87bd 908c 7dbc 3e71 b13d 8948 9ebc
00000020: eb36 c4bd bdba 983d 45d4 d13d 6492 ad3d
00000030: 7857 103e e96c de3d 7e92 fc3c ac40 483d
00000040: 14ee 20bd 6d16 2ebd f1ba 333e e5f9 0bbd
00000050: 5ec1 57bd ff2e 03bd 40c6 c5bb 2674 67be
00000060: 6b4e fabd 672f 79be 3fdc 3cbe f969 5c3c
00000070: 73e9 1cbd c4a1 04be d24d 373c ee8c 87bd
00000080: e23e 95bd bce8 573d e113 eabd a0c1 b3be
00000090: c7c7 9b3d 2833 f23d 5f79 8ebe 70c7 12be
000000a0: 8e95 25be a641 abbe aa7e eb3d b793 f7bd
000000b0: 3086 32be c7bd 413d 2570 d93c 4ac8 b5bd
000000c0: 10b1 293e f16c c13d 77e5 83be 4438 a33d
000000d0: 6cb3 8f3d f1ce 02be 0f4b 353d 0d7c 3f3e
000000e0: 875f 5e3c 9af6 1e3e 8065 3f3d d1a7 34bd
000000f0: aab1 8a3d 53f6 ab3c 86ed 34be b99f 45be
00000100: 9453 18bd d804 983c 860e 89bd 586d 8cbc
00000110: 73e1 2abd ec03 a1bd c9dd a5bd 522b 07be
00000120: 99ab bf3d 93da 873d 7f4d 283d fab0 91bd
00000130: 76ff 173e 6460 04be fd2d ca3d b4f8 42bd
00000140: 3574 1ebe 7acc c43d 165b 71be 8768 1b3d
00000150: e72c de3d 5f59 1dbe d55a 21bd 3e46 2dbe
00000160: 8800 6abe 2c88 c13c 3c44 4a3d 5490 303b
00000170: 2ff2 fabd 58a9 e5bc a9f3 de39 833a 17be
00000180: 0dc3 9bbd a73b fdbc eace 92bd ce0d 123c
00000190: 656c 85bb f7f6 8cbd 4de1 16be caee 52be
000001a0: b4dd 11be e50d 00be 23e3 0dbe 4713 c43b
000001b0: 4d9a 923c bc75 2e3d 73aa f03c f574 05be
000001c0: ea1b a3bb 27ff cb3c 09cf 09be ef88 19be
000001d0: 73e3 e6bc 5d77 b6bb 1d24 5e3c 6e21 523d
000001e0: cfd4 853d ce13 993c d10f b4bc 801f 15bd
000001f0: 30c4 2ebd 0b8d aa3c 73e7 bd3c 8c1a 503b
00000200: 6158 e9bb 925c 02bd 603f 34be cc00 c2bd
00000210: 44d3 06bd 7d87 2cbd 6b73 b23d 0b6e 06be
00000220: 81da 5abc 383e b5bd 68d0 d0bd 0540 da3d
00000230: b6f4 243c cf0e b5bd 1785 1abe 7881 8fbd
00000240: 5811 823e 5858 4dbd 1d78 4d3e 6674 a03d
00000250: 9afe 103e fd64 e93c f477 9a3c 02ce e43c
00000260: 7cb8 38bd 0722 ad3c 2100 08bd 9226 8b3e
00000270: 609a 2bbe fc6f 473e de2d c63d bdad 4d3e
00000280: 8f8f 51be 6500 763d ef04 2ebe f045 573e
00000290: 4bfe 293e 63ef 7f3e 3a93 8cbe b719 acbc
000002a0: 0798 713e ccd9 d43c f4b3 723d d94e f5bf
000002b0: 602d 8b3c 2eb4 b2bd 66de 82bd 6433 3dba
000002c0: 08cf 2e3d ac37 29bc 2cd8 3bbd ecca d0bc
000002d0: f595 8bbf a39a c93e 6f86 75bd c64d e4bc
000002e0: 789d 773d 24e5 883d 6940 8039 e847 e5bc
000002f0: b2bb 96bc 4259 85be 7062 e6be fb64 943c
00000300: 2352 b3be d620 823d 807d 4bbe 1898 15be
00000310: 5c89 2e3d dbf3 d7bc 4a03 efbc 4096 b0be
00000320: b57f 14be 7976 853d 31c2 d6bd 0dcf b7bd
00000330: 367c 173d df84 7e3c 15aa c5bc ab05 9e3d
00000340: 8f3e a9bd 26ff f4bd 5331 8f3d a323 bfbd
00000350: 6215 73be 5d52 9e3e e1db d53b c9d2 713d
00000360: 8c37 1b3e 7757 f7bd cf76 f63d 3b1d 223d
00000370: b0ca 863e 75c9 d6bb 5695 283e 62d3 d23d
00000380: f927 c8bd cd0f 293e 3f5e 7dbe 8ea4 87bd
00000390: e072 d6ba 427d edbd 0141 68be d153 de3e
000003a0: 0971 aabd 1c17 c0bd 943d 4ebd ba09 18bf
000003b0: f607 d33e 7c8a c93d 777a 05be 22b4 eebc
000003c0: 0170 1cbc 4881 85bd 7c5e aabb 2d6a 393e
000003d0: 7a20 1abf f663 483e 12f2 ce3d 7b81 c4bd
000003e0: a5aa b2bd 8afc 15bd ab61 acbc e648 e53c
000003f0: 85d1 973d 5f32 8fbf fc4e 21bf 94b8 5b3e
-0.057264224 0.014062592 -0.03342196 -0.021717241 -0.06603213 -0.015475407 0.08664177 -0.019321697
-0.09580787 0.074574925 0.10245565 0.084751874 0.14095867 0.10860617 0.030831572 0.0488898
-0.03928955 -0.042501856 0.17551781 -0.034173865 -0.052674644 -0.03202724 -0.006035596 -0.22602901
-0.12221988 -0.24334489 -0.18443392 0.013453 -0.038308572 -0.12952334 0.011187987 -0.06618677
-0.072873846 0.052712187 -0.11429573 -0.35108662 0.07606464 0.118261635 -0.27826974 -0.14333892
-0.16170332 -0.33448523 0.11498769 -0.12088721 -0.17434001 0.047300126 0.026542732 -0.08876093
0.1657145 0.09444607 -0.25761005 0.07969716 0.07016644 -0.12774254 0.044261035 0.18699665
0.01357258 0.15523759 0.046727657 -0.044105355 0.06772168 0.02099148 -0.17668733 -0.1929921
-0.03718908 0.018556997 -0.06692223 -0.017141983 -0.04171891 -0.07862076 -0.08098943 -0.13200119
0.093589015 0.066334866 0.04108953 -0.07113834 0.14843544 -0.12927395 0.09872053 -0.047600463
-0.15474017 0.09609313 -0.23569903 0.037941482 0.10848408 -0.15366124 -0.039393265 -0.16921327
-0.22851765 0.023624502 0.04938148 0.0026941495 -0.12253224 -0.028034851 0.0004252468 -0.14768414
-0.07605562 -0.030912234 -0.07168372 0.008914424 -0.0040717595 -0.06883042 -0.14734383 -0.20598903
-0.1424473 -0.125053 -0.13856177 0.0059837434 0.017895842 0.04259275 0.029378152 -0.13032897
-0.004977693 0.02490194 -0.13457884 -0.14993642 -0.028184628 -0.0055684284 0.013558415 0.051301412
0.06534731 0.018686201 -0.021980198 -0.036406994 -0.042667568 0.020819208 0.023181653 0.0031754104
-0.0071211313 -0.031826563 -0.176023 -0.09472808 -0.032916322 -0.0421214 0.087134205 -0.13127916
-0.013357759 -0.08849758 -0.10196 0.10656742 0.010068109 -0.08840715 -0.15089832 -0.07007116
0.25403857 -0.05013308 0.20065351 0.07834701 0.14159623 0.028490538 0.018856026 0.027930263
-0.045097813 0.02113439 -0.033203248 0.27177864 -0.16758108 0.19476312 0.09676717 0.20085807
-0.2046492 0.06005897 -0.1699407 0.21022773 0.16600911 0.24993663 -0.27456075 -0.021008356
0.2359315 0.02598276 0.059253648 -1.9164687 0.01698941 -0.08725773 -0.063900754 -0.00072174356
0.04267791 -0.010328215 -0.045860454 -0.025487386 -1.0905138 0.3937579 -0.05994266 -0.027869117
0.06045291 0.0668433 0.00024462052 -0.02798839 -0.018400047 -0.2604466 -0.44996977 0.018114557
-0.35023603 0.06353919 -0.19872093 -0.146088 0.042611465 -0.026361397 -0.029176373 -0.34489632
-0.14501841 0.065167375 -0.10486258 -0.08975039 0.03698369 0.015534609 -0.024128953 0.07715925
-0.08263885 -0.11962728 0.0699183 -0.09332969 -0.23738626 0.30922213 0.0065264557 0.05903891
0.15157908 -0.120772295 0.1203438 0.039578658 0.26326513 -0.0065547773 0.16463217 0.10294224
-0.09773249 0.16509934 -0.24742983 -0.06623183 -0.001636114 -0.11596157 -0.22681047 0.43423322
-0.08322341 -0.09379408 -0.050351694 -0.5938984 0.4121701 0.09840867 -0.13034998 -0.029138628
-0.009548188 -0.06518799 -0.0051992517 0.18106909 -0.60205805 0.19569382 0.10104765 -0.09595009
-0.08723954 -0.036617793 -0.021042665 0.027988862 0.074130096 -1.1187247 -0.63011146 0.2145713

conv.2.bias f4 [32]
00000000: 93cd af3c 9197 3a3d 9bc6 76bd fb90 7d3b
00000010: 1e3f 203c ae50 28bd 022a 343e 42de 93bd
00000020: e9dc 4bbe 5718 9abe b934 d73d fce1 743e
00000030: 6130 e3bd c378 8b3d dc21 d23d ea77 c3bd
00000040: 294f aa3c 2552 853d bee8 373e 33e3 dfbd
00000050: 0021 24bc 3dff a7bc 13f8 febc b69d 0cbe
00000060: 47e4 b3bd f488 833e 9a2b a03d 6073 02be
00000070: f62c 0fbd facd 1a3d f3ff 8fbd 156d 953d
0.02146033 0.0455547 -0.060248 0.0038691151 0.009780673 -0.041092567 0.1759415 -0.07220127
-0.1990849 -0.30096695 0.10508103 0.23914331 -0.11093212 0.06810143 0.102603644 -0.09544356
0.0207897 0.065098085 0.17959878 -0.10932007 -0.010017633 -0.02050745 -0.03112415 -0.13732037
-0.08783775 0.25690424 0.07820816 -0.12739325 -0.034954987 0.03779409 -0.0703124 0.07296196

conv.4.weight f4 [64, 32, 6, 6]
00000000: 3a01 49bc 0ed1 6dbd 9cf2 7d3d 01fd 7bbc
00000010: a328 2b3d eedb 7fbc e268 f8bc 8286 253d
00000020: 312f ef3c 1f68 ba3c 3570 88bc c6f4 1f3d
00000030: 9854 a939 26bb d23c 8aed c0bc 31b2 30bd
00000040: 4e5d 01bb 990b ec3c d1e5 893c dc05 a13d
00000050: feed 753b 6593 42bd e935 44bd 1343 a33d
00000060: 18db f23c fbd7 433b 5f2e 58bd ee44 123d
00000070: 029e f1ba be70 18bb 095f 3a3c 7235 89bc
00000080: abb2 05bd a084 8d3b d126 27bd 8385 b3bb
00000090: f283 5fbd 7e4a a5be bf67 b53c f29c 62be
000000a0: 5f39 d9be 9895 64be 58ae b13a 7c85 53bc
000000b0: 1852 68bd a18c 8ebe c082 a8be e049 4b3e
000000c0: f6dc 92be b613 0c3e a01d 203c af21 383d
000000d0: 8297 463d d088 793d e31c c33c 752c 00be
000000e0: c389 b13c 2fbf 93bd cf79 5abc 02cd 543d
000000f0: d028 8abd cb19 42bc a7e2 f43a f30d 9d3a
00000100: b4fe 88bd 1202 523d b6a6 8bbe 64d5 153d
00000110: 4e3f 053e 41b6 8c3d b833 d53d 63b8 e7be
00000120: 32b5 28bc 4b04 21bd d4ab bbbc e775 46bd
00000130: f722 7d3c 71c6 cbbc 5e1c 09bc 45a1 a13b
00000140: 0b02 dcba 3152 743c 1f8b de3c 7b0e 7c3c
00000150: 9b34 273c 9fe3 11bc 58e3 e4bc 90cf c43c
00000160: 50be 9e3c 746f b5bb b87d b3bc 85d4 c93c
00000170: a669 abbc 0e97 823c 2a68 09bd 46d7 17bc
00000180: 2483 09bb b28f 193d c08d 153b 989e b73c
00000190: 583d 1fbc 78b6 f93c f513 e43c 9e44 073d
000001a0: c3a9 2d3d 8656 323c 33b1 94bb 5d81 703b
000001b0: c90b babd ee21 893d 82c0 093c 8fb4 86be
000001c0: 48cd e1be d1b7 473e f678 b4bc 89f1 8f3e
000001d0: c5c6 c63d 78aa cd3b 3a03 923e 8f5b 9ebe
000001e0: e1cd 773e c10f 5c3e 83e1 413e 4140 df3d
000001f0: 759b 8a3e 7d62 6e3e eb91 503e b464 923e
00000200: 8b51 583e e521 0e3d 0afe 983e 0fe5 7a3e
00000210: 47e7 5dbc f829 7e3e 6bdf 6b3e 2bf4 5d3e
00000220: d0a6 9d3e 55fe 06bf 0014 bf3c 39ff 90be
00000230: cf9f aebe d8ae 62bd 9ed2 6a3e d500 87be
00000240: 3d44 39bd 3484 4ebe ba67 f7bd 6899 c03b
00000250: efcd 353e fd1d bd3c 77eb 463e a762 323e
00000260: 9d2e b5be ff23 88be 8a7b c8be 0a4b 37be
00000270: 1266 c8bd 6b42 313c 17ad 9abe 0301 bdbd
00000280: 7eb0 b33d fba2 c3be 0017 1b3e 13b1 92bd
00000290: 04ca 06be 2593 13be d9ee 98be a627 d2bd
000002a0: 5fa9 543e 1031 f7bd 1e12 26bd d0ee 4ebd
000002b0: bd73 d2bc 453a b83d e19b 53bd d57b bc3d
000002c0: 15c1 853d c8b3 b0bd 2497 0fbd 145a ecbe
000002d0: 833c 223e dbc0 eb3d 7627 ef3d bb7e d33d
000002e0: c722 58bd 3d4e e13b b809 273e 9fdf 533d
000002f0: fe29 0a3e f900 053d 0be6 aebd bc04 b03b
00000300: 01ba 653e 8ed6 403b d5ab 023e d24c 463e
00000310: cc59 103d cd53 d0bc 10d8 6a3e d64c d93d
00000320: d905 353e 8fb0 283e a1ee 8a3c d6c6 0dbd
00000330: 9ea6 58bd 2cec 323e 8b60 403e 8e1a 833d
00000340: 9026 75bc b9fc 66bd 7e42 2ebd e7e7 133e
00000350: 403c f23d 0d2a d53b db26 953d cd9d 483d
00000360: 3e64 24bd 70ca 6f3c da12 683e 4a45 e83d
00000370: 8e16 dd3d 6f18 3d3b 604a 143e 14bb c93d
00000380: 973d f73d 05ff 1d3e ad7c 8e3d ca06 8c3d
00000390: e57f 733e 8dae 19bd 045e 1e3e 542e 0c3e
000003a0: 3391 003e 99bd 1c3e d1ff 993c 2965 2ebd
000003b0: 67cc af3d 12cf 203e 77ee 203e ac0f 883c
000003c0: 93f4 183e 8893 103e 2b46 be3c b89d 363e
000003d0: 1e05 8e3d 468c 9e3c 5de0 b73c 0b05 21be
000003e0: 5acf 5d3c ab09 313e f5c1 93bd 6d73 6fbe
000003f0: 5c49 843c 73f0 8a3c d6d8 67bc b474 ba3c
-0.012268359 -0.0580607 0.06199895 -0.015380145 0.0417868 -0.0156164 -0.03032345 0.04041148
0.029197307 0.022754727 -0.016655067 0.039051794 0.0003229722 0.025724005 -0.023550767 -0.043138687
-0.0019739452 0.028814124 0.016833218 0.07862446 0.0037525888 -0.047503848 -0.047902975 0.07971778
0.029645488 0.0029883373 -0.052778598 0.035710268 -0.0018433931 -0.002326056 0.011375197 -0.016749118
-0.032641094 0.0043187886 -0.040808503 -0.0054785623 -0.054569192 -0.32283396 0.022144197 -0.22130182
-0.42426583 -0.2232269 0.0013555987 -0.012910243 -0.056718916 -0.27841666 -0.32912254 0.198524
-0.28684205 0.13679394 0.009772688 0.044954 0.048484333 0.06092149 0.023817485 -0.12516959
0.021672135 -0.072142 -0.0133347055 0.051953323 -0.067460656 -0.01184697 0.001868327 0.0011982307
-0.06689206 0.051271506 -0.27275628 0.03658046 0.1301243 0.068707 0.10410255 -0.45257863
-0.010297107 -0.039310735 -0.022909082 -0.048452284 0.015450231 -0.024874898 -0.00836858 0.004932555
-0.0016785277 0.014912174 0.027165947 0.015384312 0.010205413 -0.008904367 -0.027940437 0.024024755
0.019377857 -0.005536968 -0.021910533 0.02463747 -0.0209244 0.01594117 -0.033546604 -0.009267634
-0.0020982707 0.037490554 0.0022820085 0.02241449 -0.009719215 0.030482516 0.027841548 0.033024423
0.042398226 0.010884887 -0.0045377254 0.00366982 -0.09084279 0.06695925 0.008407714 -0.2630963
-0.4410193 0.19503714 -0.022030335 0.28113964 0.09705881 0.006276425 0.28518087 -0.3092923
0.2419963 0.21490385 0.18933682 0.10900927 0.2707173 0.23279758 0.20368163 0.28592455
0.21124856 0.034700293 0.29881316 0.24501441 -0.01354391 0.24820697 0.23034446 0.21675174
0.3079133 -0.5273183 0.023324966 -0.2831972 -0.341063 -0.055342525 0.22931907 -0.26367822
-0.045231093 -0.20167619 -0.12080331 0.0058776625 0.17754339 0.023085589 0.1942576 0.17420445
-0.35387126 -0.26589963 -0.39156753 -0.17899719 -0.09785093 0.010819058 -0.30210182 -0.092287086
0.087738976 -0.38210282 0.15145493 -0.071626805 -0.13163 -0.144116 -0.29869726 -0.102614686
0.20767735 -0.12069905 -0.04054462 -0.050520718 -0.025689954 0.08995489 -0.05166233 0.092033066
0.06530968 -0.086280406 -0.03505625 -0.46162474 0.15843396 0.11511394 0.116774485 0.10326906
-0.05276754 0.006875782 0.16312301 0.051726934 0.13492581 0.03247163 -0.08539971 0.005371658
0.22434236 0.002942476 0.12760861 0.19365242 0.035241887 -0.025430584 0.22933984 0.106103584
0.17678012 0.16473602 0.01695949 -0.034613453 -0.052893274 0.17472905 0.18786828 0.06401549
-0.014962807 -0.05639336 -0.04254388 0.14443932 0.11827898 0.006505257 0.07282802 0.048978616
-0.04013466 0.014635667 0.22663441 0.11341341 0.107953176 0.0028853675 0.14481497 0.098501354
0.12072294 0.15429313 0.06957374 0.068372324 0.23779257 -0.03751998 0.15465552 0.13689548
0.12555389 0.15306701 0.01879874 -0.042576943 0.085839085 0.15703991 0.15715967 0.016609035
0.14937048 0.14118779 0.023226818 0.17833602 0.0693457 0.019353997 0.022445852 -0.1572458
0.013538206 0.17288844 -0.07214729 -0.23383875 0.016148262 0.016960358 -0.014150819 0.022760727

conv.4.bias f4 [64]
00000000: 77a3 10be 02b4 db3c 8e1c 8cbe 9d0d 2fbe
00000010: d1d9 81bd 25fa 54be b78a 87bd c21f 0ebe
00000020: b861 56be c110 32bd 139c e4bd 3245 70bd
00000030: c467 3dbd 76ac a7be d7ed a1be 7920 63be
00000040: ed30 1dbe b79a 2d3e 0b88 5cbd 566c abbd
00000050: 3c41 82be 5ed3 cdbd 866a cb3e 5217 1fbe
00000060: f4ce 4ebe 325d 56be 41d4 8bbe 03e6 32be
00000070: 470f 85be 7684 86be afa0 77be a6c6 373e
00000080: b6d4 79be bffc a03e 2ca4 26bd 85c7 87be
00000090: d053 42be be64 6c3e cb5a 0fbe eb55 11be
000000a0: 3136 89be c60f a6be 0d6d 51bd c11c 9bbe
000000b0: 8891 95bd be09 87bc 47a1 8a3e 0a9c 9ebe
000000c0: eeaa ccbd 0749 3bbe 82c8 08be 44d9 31be
000000d0: 1914 30bd 719f 91bd 5d11 13be bce7 96be
000000e0: 6cea 91be 6b49 41be 4f9c 34be 610f 163e
000000f0: e5b1 8ebe dd39 c7bb 9e94 59be ad24 00be
-0.14124857 0.026819233 -0.27365535 -0.17095037 -0.06340373 -0.20798548 -0.06618255 -0.13879302
-0.20935714 -0.04347301 -0.11162581 -0.05865974 -0.046241537 -0.32748765 -0.3162677 -0.22180356
-0.15350695 0.1695355 -0.05384068 -0.08370273 -0.25440395 -0.10050081 0.39729708 -0.1553624
-0.20196134 -0.20933989 -0.27310374 -0.17470555 -0.25988218 -0.26272935 -0.2418239 0.17946872
-0.24397549 0.3144283 -0.04068391 -0.2651941 -0.18977284 0.23085305 -0.13999479 -0.14192931
-0.26799157 -0.3243391 -0.05112939 -0.30295375 -0.073031485 -0.016484138 0.2707617 -0.30978423
-0.0999354 -0.18289576 -0.13357738 -0.17368037 -0.042987917 -0.07110489 -0.14362092 -0.29473674
-0.28499162 -0.18875663 -0.17637752 0.14654304 -0.27870098 -0.006079896 -0.21248099 -0.1251399

fc.1.weight f4 [64, 1600]
00000000: 3bfb b53b beab f8ba 67ab 89bc 759e 8f3c
00000010: 5664 d73a 1a45 c6bc e919 09bc 7243 1d3c
00000020: 5029 a23c eb63 30bb cb89 b3bc 9793 993c
00000030: cce3 11bb f2bc aebc eaab 7fbc b9d5 c8bc
00000040: d379 45bc 37b6 a5bb cd5b a0bc 2ef5 cabb
00000050: 9125 8abc 40a2 29bc 50f4 3b3a e13d 57bc
00000060: 2577 02bc 96d3 b2bb bc30 8e3c c64b 433c
00000070: 5fb1 893c ae5b 223c 9fe8 ae3c e156 39bc
00000080: c2cf a83c 0475 89bc 7efd 383c 464c dc3b
00000090: f593 8ebc 8fee be3b 0163 47bc 5b7f 263c
000000a0: ff4e b0bc d1d5 f3bb 5380 b73c 0503 bfbc
000000b0: ce4f 1c3c 1b53 59bc ee76 9d3b ca3e 0ebb
000000c0: 1246 e6bb f4dc 943c 0e10 a13c 04db 9a3c
000000d0: 6c25 65bc 6e54 d23c cfc8 443b 2006 8bbc
000000e0: b9ae c2bc 78a0 33bc 8f47 ea3c 3eb8 9dbc
000000f0: 5db8 3e3c b5d7 1ebc fc0a b63c c3b0 f3bb
00000100: 1ecd 96bc a5f0 2a3c baf8 83bc be88 07bc
00000110: 800f 8bbc ab1c b2bb ae01 f23a 622e a43c
00000120: 803f f2bb fa20 f73c 4ec0 b13c 4da8 ed3b
00000130: c14d 5f3c 12bb 4d3b 3fa8 04bb bdfd 773b
00000140: 654c 3abc 966f a33c 81dd 1bbc 6f98 aabb
00000150: 8e09 e8bb 60ed b1bc 3c55 21ba 3845 a4bc
00000160: 6156 043c 33ec 553b 5827 aebc 0f0b 373c
00000170: c790 b8bc 22f9 1b3c 956d 733b a8de 2c3c
00000180: b791 b2bc 0b2e 53ba 73cb eeba 625e db3b
00000190: 12db 213c ac84 c4bb 2dca 1ebc b579 c03b
000001a0: 60f1 87bb 5309 5dbc 82a9 5a3c d0c5 9d3b
000001b0: 8744 ae3c 61b5 b03b c9d7 e0bb 150c a83b
000001c0: 4cdc eebb a6e5 b23c 2beb a83c 137b a73c
000001d0: c97f ddbc 7a69 283b 0444 043c fd71 cfbc
000001e0: a808 eebb a70d ed38 8f5b 47bc c5f0 9a3b
000001f0: da52 9ebc 03b4 93bb 0ac1 5c3c 5eb9 e3bc
00000200: ba6b 08bd e77b cbbc eddb b13b d0ae 28bc
00000210: b133 cc3b 4362 9f3c 475e a3bc 0baf 423c
00000220: 3afc 92bc f66e 98bb 902e 82bc fe06 b2bb
00000230: e8ba 0a3c 9d8c 973c 66d0 af3c 07cd 933b
00000240: 85de 9b3b cd26 08bb 0dc7 c7bc d5af 86bc
00000250: 098d 7f3a 8c00 31bc 864b 06bd 0801 953b
00000260: 1cae 08bb 0872 77bc 1428 3cbc febd c1bc
00000270: ca5f 30bd 2cf0 90bc c1a8 27bd b578 1abd
00000280: ab86 b3bc 1c9d 1bbd b097 b9bc ebcd 8cbc
00000290: fe7e 973a b936 a7bc 8e4b 8e3b 694d debc
000002a0: 2f0b 02bd 494e 16bd 9890 38bc 5514 09bc
000002b0: a10c 0bbd 73c5 0cbd 938b 343b d13b 9f3c
000002c0: 80ce eb3b 8187 c8bb 9838 d4bc 7e3e 573c
000002d0: e2f5 b8bc 598d a3bc d05f 84bb bf01 00bd
000002e0: 705a fc3a c2f7 6b3c 37e2 803c 447f 043c
000002f0: b18f a6bc 1e18 8b3a eb72 9dbb 3229 ad3c
00000300: e26b e7bc a001 30bc 2769 cfbc d18a f03b
00000310: fb3b 793c 92b6 ea3b 9818 1a3b e76f a93b
00000320: 985b 073c ca59 3f3c acd4 abbc c6db 76bc
00000330: 8893 8dbc 69ec 61bb 646d 3f3c 711c e5bc
00000340: 37e5 353c 7062 afbb b114 c43c 64c7 6c3c
00000350: 0ac8 e1bb 7ca1 95bc a526 09bc 712b 443c
00000360: 89c5 5f3c 4bf1 4d3c 7385 863b 79bf 8d3c
00000370: b1a9 afbc 1259 5abc 0c3f 91bb e604 85bc
00000380: ef64 bdbc 3255 043a c678 1dbc c427 403c
00000390: 9d3b a83b c6a0 58bb 8a45 f139 873d 91bc
000003a0: fbc4 94ba 3273 57bc fd02 f2bb 4673 b03c
000003b0: 7894 5fbc 698e 863b 5d09 1dbc 7c25 883a
000003c0: 8cea 77bc 318f 28bb 55f3 84bb c507 51bc
000003d0: 6985 d33a ee69 46bc 03f8 c7b9 fd8e 013c
000003e0: f925 d1bb 347a 3c3c 325d cc3b 2875 053c
000003f0: 3fdf 0fbc 897a 253c f27e f639 3d9a 3cbc
0.0055536306 -0.0018972082 -0.016805364 0.017531613 0.0016433101 -0.024202872 -0.008367994 0.0095986
0.01979509 -0.0026915025 -0.02191629 0.018747134 -0.0022261022 -0.02133033 -0.015604952 -0.024515973
-0.012052971 -0.005057122 -0.019575024 -0.0061937785 -0.016863616 -0.010353625 0.0007169889 -0.013137312
-0.007962977 -0.005457352 0.017357223 0.011919921 0.01680821 0.009909553 0.021351157 -0.011312217
0.02060688 -0.01677943 0.011290906 0.0067229597 -0.017404536 0.0058267782 -0.0121696 0.0101622
-0.021522043 -0.0074412604 0.022400057 -0.02331687 0.009540511 -0.013264443 0.0048054373 -0.0021704906
-0.007027396 0.018171765 0.019660976 0.018903263 -0.013985973 0.025675025 0.0030026918 -0.016970694
-0.023764955 -0.010963552 0.028598575 -0.019252893 0.011640635 -0.009694983 0.022222035 -0.007436843
-0.018408354 0.010433351 -0.016109813 -0.008272348 -0.016975164 -0.0054355464 0.0018463635 0.020041648
-0.0073928237 0.030167092 0.021698143 0.007252729 0.013629378 0.003139202 -0.0020241884 0.0037840449
-0.011370753 0.01995067 -0.00951326 -0.00520616 -0.007081217 -0.021719635 -0.00061543635 -0.020052537
0.008077235 0.0032642006 -0.021258995 0.01117207 -0.022529973 0.009519847 0.0037144173 0.010551132
-0.021797998 -0.0008055872 -0.0018218592 0.006694601 0.009878891 -0.005997261 -0.009691757 0.0058738836
-0.004148647 -0.013490993 0.013346078 0.004814841 0.02127291 0.005392716 -0.006861661 0.0051283934
-0.007289445 0.02183802 0.02061995 0.020444429 -0.027038472 0.0025697635 0.008072857 -0.025322909
-0.0072642155 0.000113035836 -0.012167825 0.004728409 -0.019326616 -0.004507543 0.0134737585 -0.02779835
-0.03330586 -0.024839355 0.0054278285 -0.010295585 0.006231748 0.019456035 -0.019942416 0.011882554
-0.017942537 -0.0046518994 -0.015891343 -0.0054329624 0.0084674135 0.018499667 0.021461677 0.004510525
0.004756751 -0.002077508 -0.024386907 -0.016441265 0.0009748494 -0.010803353 -0.03278687 0.004547242
-0.002085573 -0.015102871 -0.011484165 -0.023650166 -0.0430601 -0.017692648 -0.04093242 -0.03771277
-0.0219148 -0.037991628 -0.022655338 -0.017188033 0.0011558232 -0.020411836 0.004342503 -0.027136521
-0.031748947 -0.036695752 -0.011264943 -0.008366664 -0.03394759 -0.03436799 0.0027549013 0.019437702
0.0071962476 -0.006119669 -0.025905892 0.013137458 -0.022578184 -0.01996486 -0.004039742 -0.031251665
0.0019253027 0.014402332 0.015732868 0.008086983 -0.02033219 0.0010612046 -0.004804959 0.021137808
-0.028249685 -0.010742575 -0.025318695 0.007340767 0.015212054 0.0071628774 0.0023513194 0.0051708105
0.008261584 0.011679122 -0.020975433 -0.0150670465 -0.017282262 -0.0034473187 0.011683796 -0.027967663
0.011102012 -0.005352311 0.023935648 0.014451835 -0.0068903016 -0.018265478 -0.00837103 0.011973248
0.013657936 0.012569736 0.004105264 0.017303215 -0.02144322 -0.0133269 -0.0044325646 -0.016237687
-0.023119418 0.00050480955 -0.009611314 0.011728231 0.0051340596 -0.0033054813 0.00046018913 -0.017729534
-0.0011350209 -0.013150023 -0.00738561 0.021539342 -0.013646238 0.004106332 -0.009584752 0.0010387148
-0.015131604 -0.0025720114 -0.0040573278 -0.0127582 0.0016137782 -0.012110217 -0.0003814102 0.007907626
-0.0063827005 0.011503745 0.0062366957 0.008145608 -0.008781253 0.010100015 0.00047015358 -0.011511383

fc.1.bias f4 [64]
00000000: c80c 4a3c a0fd b93d 272c 0abd 0280 fa3b
00000010: 8104 be3e 2e4f 553e 9dfe 17bd c611 17bc
00000020: ec6c 673c 1507 a43e b0c1 a73e a633 613e
00000030: 70c6 643c dd17 4d3d af54 043e f970 213f
00000040: 8ca6 14b9 3d24 cf3b 57f1 24bd f7a5 debc
00000050: 1d02 cd3b e4d5 2b3b e7c3 c8bc 0862 1c3e
00000060: 219a 373c f984 b5bc 2e3f eebc e763 01bd
00000070: 606a b13d 5fd9 f93d 22d9 1c3b d85b e7bc
00000080: 3141 08bc d964 bb3e d999 adbb 0cd0 9b3e
00000090: 1c28 8cbc 9e3d c93e 5857 7a3c 326a cf3c
000000a0: 6435 efbc bbda 3e3e 3562 893b c3f7 113e
000000b0: 3f44 a13d 3b49 8d3c 6178 2c3d 4f41 27bb
000000c0: 1d74 84bc 7570 ba3c f396 d43c 60db 61ba
000000d0: 13c8 803e 054b a63e 7ae4 3c3b 2adb 333c
000000e0: 7343 95bc 52cb 0ebd f518 4ebd cd0d be3e
000000f0: 18e7 a2bb 01b6 b8bc 49db 033e ff25 3e3e
0.012332149 0.09081578 -0.033733513 0.0076446543 0.3711281 0.20830986 -0.037108053 -0.009220546
0.01412509 0.32036653 0.3276496 0.21992359 0.013963327 0.050071586 0.12922929 0.6306301
-0.00014176423 0.0063214586 -0.040269222 -0.027178748 0.0062563554 0.0026220018 -0.024507476 0.15271771
0.011206181 -0.022158133 -0.02908286 -0.031589415 0.086628675 0.12199663 0.0023933132 -0.028242037
-0.008316324 0.36600378 -0.005297881 0.30432165 -0.01710897 0.39304823 0.015279613 0.025319193
-0.029200263 0.18638127 0.0041926154 0.1425467 0.07874345 0.017246833 0.04210699 -0.0025521105
-0.016168648 0.022758702 0.025950884 -0.0008615758 0.25152645 0.3247911 0.0028822706 0.010977546
-0.018220639 -0.03486187 -0.05031677 0.37119904 -0.004971396 -0.022547724 0.1287662 0.18569182

fc.3.weight f4 [4, 64]
00000000: 9b01 843c b3bd 553e d04c 3d3c 6212 9c3d
00000010: 66bc 7dbe ea8c 2c3e db15 bc3d fc19 bebd
00000020: ac2d bf3d c0ef 923d 65ca 003d f9e8 6cbf
00000030: 9534 3d3d 9f1f 163d de31 b0bf 4199 ce3e
00000040: 198f 3c3d 37d1 72be fc9f cf3d 1e79 fe3c
00000050: 5698 6a3e c1b5 943c 2eee 7bbd eb75 cebe
00000060: 809f 7fbc 8405 0fbc 128f d5bd 79fb 6fbd
00000070: c413 353c 50d0 d13d 274a 883d eb3f 583c
00000080: bf79 a53d aeb6 3cbf e5f4 d1bd 130e e63d
00000090: 204c 293d 9ecd 4fbe f2fe 16bc 58a2 ba3d
000000a0: c20e 1f3d aa84 81bd ed25 2bbd efd1 133e
000000b0: 2e8b 2fbe 7f23 77be f34e 913e 5de4 f03d
000000c0: ef90 2b3d 02a1 6b3e 0059 893e 8d80 35bd
000000d0: 72cb a1bf c6bf 7bbc 124e 03bd d63a be3d
000000e0: 250a e4bc fcaf 5e3d a099 aabd 9282 dfbd
000000f0: a327 bb3c b8b7 84bd 1e40 803e d39a fd3d
00000100: 2d25 2abc a95a 90be 2175 da3d 3c1c a9bd
00000110: d290 0dbf 3814 3c3e 0224 4fbd d4ba b93c
00000120: 54b9 debc bb96 733d e585 97bf bb0d 58bd
00000130: 557a 053d 205c 88bf 7800 c13d d545 aa3e
00000140: b26f 80bc 9bad 1ebe d746 dc3c f8cc 603d
00000150: a685 c43d c0da 923d 61dc fe3d 529b 74bd
00000160: c1e6 323d c85a aebd 7094 a93d c5c1 16bd
00000170: bade adbf 9c2a 72be 5bae d23d 34b8 bcbd
00000180: c7ce 2d3c 2762 c53c 3401 ea3c ef12 64bd
00000190: f76a 54bd 7e93 0dbe f6ba 09bc 8517 ec3d
000001a0: f9d9 debd 434c 0abd 72a3 fa3a f296 a73d
000001b0: 6bd5 683e 5677 bfbe 43d5 e3be a12a e4bd
000001c0: 5e5f 81bd 152c b23e 7644 973e 60c4 7fbd
000001d0: 0c9e 2a3d dc2f 1bbe 12a3 a8bd 615a 7fbb
000001e0: cb4a c4bc 20d7 87bb 0f53 58bd 7117 8e3d
000001f0: bb92 333d beda d63d 9576 853e b0e7 e33c
00000200: 81e1 c7bc d258 83be ba50 823d 8823 9f3d
00000210: 2d44 f8be c66b d63e 6bc2 af3d c773 353c
00000220: cd0d f23d 8ab5 3cbf c075 6e3c 8489 2b3e
00000230: b8a4 c73d 1b58 c23d 1843 663d 3165 9c3e
00000240: 7e6a 673d 09f2 36be 50d3 af3d 3404 c83d
00000250: a539 6fbd d9f2 3b3c 0f36 8c3d d4cb 283e
00000260: a6ed 863d be73 6b3c 4b2b d63c 8387 0640
00000270: 0d2a c0bc d881 163e 63f2 c73d 866e a9bd
00000280: 615e b9bd 2930 ad3c 8fd2 3d3d bfa4 a4bf
00000290: 7680 72bd 8e6f 11be 66a4 7d3d f692 80bf
000002a0: f07e c43d 39ab c8bd 676c 363d a683 0b3e
000002b0: 830c a53d df50 643e a302 9c3e 69e0 a43d
000002c0: 8f18 18bc e3bf c5be 3b6d 333e 88f4 3f3d
000002d0: f04c e9bd ff99 02be 481b b8bc aef9 2e3c
000002e0: a759 c1bd b841 cd3d 83b4 363d 689f 9dbf
000002f0: d17c 453d 44d3 473c 0e53 853e f543 82be
00000300: bcb1 1dbc 62bd 51bd 650c 21bd ea2c 5cbd
00000310: 7c93 993d 0caa d23d cbe7 1cbd e268 9d3d
00000320: 8234 bbbd 8fe7 0abe 2e4b b5bc f3b8 01be
00000330: a164 d3bd 7b98 113e 821b a73d e197 a63e
00000340: 4ab4 43bd 7753 acbe d81c 113c 5acd e1bd
00000350: 9643 acbd 1cf3 75bd 14da 9abd f22c 95be
00000360: 329d 143d 88b7 ecbc 0532 4fbd ddc0 0fbc
00000370: d7b6 bc3b 6ad0 953e 914d d9bd 9eeb ea3d
00000380: d4ef f53d 758c acbd 41dc 3f3c eb08 82bd
00000390: 2d74 99bd cd55 43bf 751d f1bb fe43 043e
000003a0: 3066 7cbd ec3b c8bf 3621 a33d bb8f e0bf
000003b0: 0990 8d3e adce ae3e b7bd 893e 0140 f5bd
000003c0: 8fda f53d aa5b cd3e b69f 00bf 0b7b 9abc
000003d0: b422 053e fabb 83bf a4df f43c baf0 e2bb
000003e0: 0235 dcbd cef2 f33d ea63 a63b bf60 f23c
000003f0: 7550 df3d 0467 1bbd 0ec6 85bf 4542 bf3d
0.016114047 0.20873146 0.011553958 0.07620694 -0.247789 0.1685063 0.09183856 -0.092823
0.09334883 0.07174635 0.03144302 -0.9254299 0.046192724 0.03665125 -1.3765218 0.40351298
0.046034906 -0.23712622 0.101379365 0.031063613 0.22909674 0.018153073 -0.061506443 -0.4032434
-0.015601993 -0.008729342 -0.10427679 -0.058589432 0.011052076 0.102448106 0.066547684 0.013198833
0.08079862 -0.7371625 -0.10251788 0.11233153 0.041332364 -0.2029328 -0.009216057 0.09112996
0.038832434 -0.06324132 -0.041784216 0.14435552 -0.17142937 -0.24134634 0.28380546 0.11762307
0.041886266 0.23010638 0.26825714 -0.04431205 -1.2640212 -0.015365547 -0.032056876 0.09288566
-0.027836869 0.05436705 -0.08330083 -0.10913576 0.022846049 -0.06480354 0.25048918 0.12383046
-0.01038484 -0.28194168 0.10666872 -0.082573384 -0.55299103 0.18367088 -0.05057145 0.022672094
-0.02718798 0.05946992 -1.1837736 -0.05274747 0.032587368 -1.0653114 0.094239175 0.33256403
-0.01567826 -0.15495913 0.026889248 0.054882973 0.09595804 0.071706295 0.12444378 -0.059718437
0.043677095 -0.08513409 0.08280265 -0.036805887 -1.3583596 -0.23649067 0.10287162 -0.092148215
0.010608382 0.024094654 0.028565027 -0.05568212 -0.051859822 -0.13825795 -0.008406391 0.115279235
-0.10881419 -0.033764135 0.0019122197 0.081830874 0.22737662 -0.37395734 -0.44498643 -0.11140943
-0.06317018 0.34799257 0.2954442 -0.062443137 0.04165463 -0.15154976 -0.08234228 -0.0038963782
-0.023961445 -0.004145518 -0.052813586 0.06938065 0.043841105 0.104909405 0.26067033 0.027820438
-0.02439952 -0.25653702 0.063630536 0.07770449 -0.48489514 0.418791 0.08582004 0.011074967
0.118190385 -0.73714507 0.014554441 0.16751677 0.097482145 0.09489461 0.05621633 0.30545953
0.056498043 -0.17865767 0.085852265 0.09766427 -0.058404583 0.011471474 0.06846248 0.16484004
0.065882966 0.014370857 0.02614369 2.102021 -0.023457551 0.14697969 0.097630285 -0.08273034
-0.090512045 0.021141129 0.046343382 -1.2862777 -0.05920454 -0.14202711 0.06192436 -1.0044849
0.09594524 -0.09798283 0.044536974 0.13624439 0.08059027 0.22296475 0.30470762 0.08050615
-0.009283199 -0.3862296 0.17522137 0.046864063 -0.11391628 -0.12754057 -0.022473946 0.010679645
-0.09440928 0.100223005 0.044605743 -1.2314272 0.048214737 0.012196366 0.26039928 -0.25442472
-0.009624895 -0.051206 -0.03931846 -0.05375377 0.074988335 0.1028634 -0.038306993 0.076860204
-0.091408744 -0.13564895 -0.022130575 -0.12668209 -0.10321928 0.14218323 0.081595436 0.3253775
-0.04777936 -0.3365743 0.008856975 -0.11025496 -0.084113285 -0.0600463 -0.07561126 -0.29135853
0.036282726 -0.028896108 -0.05058481 -0.0087740095 0.005759101 0.2926057 -0.10610498 0.11470722
0.12008634 -0.084252276 0.0117102275 -0.06349357 -0.07492862 -0.76302797 -0.007358248 0.12916562
-0.06162089 -1.5643287 0.07965319 -1.7543863 0.27648953 0.34142056 0.26902553 -0.119750984
0.12004577 0.40108997 -0.502437 -0.0188575 0.1300152 -1.0291741 0.029891796 -0.0069256695
-0.10752298 0.11911546 0.0050778287 0.029587148 0.10904018 -0.03794004 -1.0451066 0.09338812

fc.3.bias f4 [4]
00000000: 9b01 d33e 4ba5 df3e 355f e13e ffe0 df3e
0.41212162 0.43680796 0.4401795 0.43726346
