models/v17.1/model_31000.pt (torch, 729840 bytes, 10 tensors)

conv.0.weight f4 [16, 2, 3, 3]
000000 42 f0 31 3e ec 3f df 3d 3c 6c ec bd e4 40 96 3d
       0.17376807 0.10900864 -0.115440816 0.07336596
000010 d9 b2 20 bd d2 b2 f2 3c 74 63 c9 bd 49 25 dc 3b
       -0.039233062 0.029626284 -0.09833422 0.006718312
000020 16 9e f4 3d 3d 64 7b be ce 84 07 3e cb b5 ba 3d
       0.11944215 -0.24549957 0.13234255 0.091167055
000030 14 d2 a5 3d 2b 41 3f 3d 95 55 cd 3d a8 b9 15 3d
       0.0809671 0.04669301 0.10026089 0.03655401
000040 c4 5d 96 3d e7 1d 96 bd bf e9 a6 3d 01 13 43 3e
       0.07342103 -0.07329922 0.08150052 0.19050218
000050 0d d7 8c bd 4d 87 11 be e3 3f 40 be d0 60 12 3e
       -0.06876955 -0.1421177 -0.18774371 0.14294744
000060 d9 6b 74 be 55 f7 6d be e4 c5 04 be 37 53 73 bd
       -0.23869266 -0.23238881 -0.12966114 -0.05940553
000070 4e 7a da 3b bb e2 59 bd 37 fc 26 3e c4 56 c6 bd
       0.006667412 -0.053194743 0.1630715 -0.09684518
000080 d3 c4 a6 3d 7a 1c 46 3e d5 e6 3f 3e d4 72 13 3e
       0.0814301 0.193468 0.18740399 0.14399272
000090 39 9c e8 3d b5 30 7c 3e 19 4d dc bb c0 b5 a4 bd
       0.11357922 0.24627955 -0.006723058 -0.080424786
0000a0 93 7a 83 3d af ee 64 3e 45 c8 47 3e 59 cd c4 3e
       0.064198636 0.22356676 0.1950999 0.38437918
0000b0 f1 76 83 3d b5 70 04 be 8e 78 ce bd 25 7c 6f bc
       0.06419171 -0.1293362 -0.10081588 -0.014617001
0000c0 2b 92 aa 3d 8c c2 ac bd 96 bb 83 be 6a d9 53 be
       0.083286606 -0.08435544 -0.25729054 -0.20688406
0000d0 81 a5 cb be c5 6f 85 bd bb 03 0c 3e c3 fc 17 3d
       -0.39774707 -0.06515459 0.13673298 0.037106287
0000e0 a2 ee c1 3d 86 04 89 bd d9 86 43 3e c7 92 8c bf
       0.09469344 -0.06690316 0.19094409 -1.0982293
0000f0 57 18 aa 3d eb 23 0a be 5c 54 8d 3d 67 46 03 be
       0.08305424 -0.13490264 0.06900856 -0.12819825
000100 d4 6d cd bc f7 13 a8 bd 35 da a9 3d ad 82 3c be
       -0.025076784 -0.08206933 0.08293573 -0.18409224
000110 e6 c8 20 3c 31 d1 a5 bd 59 11 10 3e e8 e5 82 bd
       0.009813523 -0.08096541 0.14069118 -0.063915074
000120 58 b8 04 3e 52 01 cd bd 89 ff 0d be 8b 70 f0 bd
       0.12960947 -0.100100175 -0.1386701 -0.11740216
000130 c6 fa d7 bd fa 99 e0 3e dc 93 c0 3d 36 05 0d 3e
       -0.10545878 0.43867475 0.09403202 0.13771519
000140 53 3b de bd 73 a0 0a be 21 28 e5 3d bb 7a 14 3e
       -0.10851159 -0.13537769 0.111892946 0.14499943
000150 be 62 05 3e bf 50 c4 3d 2a c4 95 3e 96 a0 cf bd
       0.13025948 0.095857136 0.29251224 -0.10138051
000160 b7 cb 09 be 5d 9a c8 3d f6 d6 db 3d 60 87 f2 bc
       -0.13456617 0.097950675 0.1073436 -0.029605567
000170 87 6d b6 3e a9 3e 03 3d f3 d9 63 be c3 af 1b bc
       0.35630438 0.03204218 -0.2225111 -0.009502354
000180 02 8c ff 3d 36 9c 1d be df 31 66 be b2 91 eb bd
       0.12477876 -0.15391621 -0.22479962 -0.115023986
000190 e3 c5 47 bc 4f e0 2a 3e bc b1 b1 bc d7 0b 75 3c
       -0.012193176 0.1668713 -0.021691196 0.014956436
0001a0 93 b9 a8 3c 30 e1 eb bd 1d af 0d 3e 9c c1 06 3e
       0.020596301 -0.115175605 0.13836332 0.13159794
0001b0 cb cc d1 be b6 e6 e6 be 3b 15 91 bb 17 b3 20 bc
       -0.40976557 -0.45097893 -0.0044275797 -0.009808323
0001c0 79 eb 71 b8 72 3e 13 bf 12 96 f0 be 7d 2a cd be
       -5.767818e-05 -0.5751716 -0.46989495 -0.40071478
0001d0 88 91 4f bd ec e9 34 3d fe ff d0 3d 30 df 73 bc
       -0.0506759 0.044168398 0.10205077 -0.014884755
0001e0 d8 60 ce bc fb 53 11 bd 39 13 05 3e 08 74 ac 3d
       -0.025192663 -0.03548048 0.12995614 0.08420569
0001f0 33 ec 84 3d 96 3f 33 3d 5e e4 df be 3e 85 c4 be
       0.06490364 0.043761812 -0.43728918 -0.38382906
000200 52 dd 00 3e 3e 91 65 bd 30 1a ff 3d cb e4 e0 3d
       0.12584427 -0.056046717 0.12456167 0.10981139
000210 2c f9 69 be c6 68 a7 3d f3 dc d4 3b 16 fb 77 3d
       -0.22848958 0.08174281 0.0064960658 0.06054219
000220 ef f1 32 3e ee 77 04 be 11 57 a9 3d b0 fd a0 bd
       0.17475103 -0.12936375 0.0826856 -0.07860887
000230 af ab c6 3d 18 23 5c bd 22 16 db 3d f6 bf 0f bd
       0.09700715 -0.053744406 0.10697581 -0.035095178
000240 19 b8 9d 3d d9 3c 9d 3d b2 13 c7 3d c3 f4 12 3e
       0.077011295 0.076776214 0.097205535 0.14351182
000250 bd 7f 56 3e 31 74 04 be 6a 2d 4f 3d c8 e9 02 be
       0.20947166 -0.12934949 0.05058042 -0.12784493
000260 b8 01 4a bd 5d 0c 7e be 70 ec ee 3d f1 4f b1 bd
       -0.049318045 -0.24809404 0.116661906 -0.08657826
000270 14 76 46 3d b8 06 36 3d 3d 52 c6 3d eb 30 b4 bd
       0.04845245 0.04444 0.096836545 -0.08798393
000280 8e 04 ee 3d 34 98 ae 3c f7 c7 95 3a 27 9f 16 be
       0.116219625 0.02131281 0.0011427392 -0.1470915
000290 85 46 01 3e 02 dd 11 3d ec d4 35 3d 58 ed 23 3f
       0.12624557 0.03561116 0.04439251 0.6403403
0002a0 e6 23 96 bb d0 59 2b be df 5b 13 bd 66 56 c8 3b
       -0.004581916 -0.1673348 -0.035976287 0.006113815
0002b0 88 f9 c3 3d 82 d8 b6 bd e0 24 06 bd 2b 35 86 bb
       0.09569079 -0.08928014 -0.03275001 -0.0040956936
0002c0 96 a3 30 bf 25 29 32 3b 40 04 1a 3e 4b 4b e6 3c
       -0.6899961 0.0027185169 0.15040684 0.028112074
0002d0 87 25 cb 3c 9c 4c b8 3c 30 8e 5f 3c b3 d9 26 bd
       0.024798168 0.022497468 0.01364474 -0.040734958
0002e0 2c 57 de 3e 0f 3d d9 bc 22 c0 35 3c 0a 70 88 bd
       0.43425882 -0.026518373 0.011093171 -0.06661995
0002f0 60 f5 92 ba 80 b5 c6 bc 1a a1 e2 bc 2c c9 38 bb
       -0.0011212043 -0.024256468 -0.02766471 -0.002819608
000300 7d cd 8f 3d 88 94 b2 3e d3 29 a5 3c 72 69 e7 bb
       0.07021616 0.34878945 0.020161545 -0.0070621306
000310 15 45 c7 3d 8d 64 71 bb ca 18 3b bd 30 01 3a 3d
       0.09729973 -0.0036833615 -0.045677938 0.04541129
000320 db eb 0b be 11 cf 87 bd c8 28 e4 3e 5e 7d 91 3d
       -0.1366419 -0.06631292 0.44562364 0.0710399
000330 90 b2 16 be ce e4 45 bd 50 f5 2e be 87 9b 67 3d
       -0.14716554 -0.04831391 -0.17085767 0.056544807
000340 0d d6 94 bd ce 1f 1b 3e fa 7d a9 3c 5f 1f 36 3e
       -0.072673894 0.15148851 0.020689953 0.17785405
000350 d9 dd 10 be 6b c9 21 3e c6 33 83 bc 86 27 30 3e
       -0.14147128 0.15799491 -0.016015898 0.17202577
000360 62 78 06 be 67 91 53 be 8b 71 23 bc 2c 27 f4 bd
       -0.1313186 -0.20660935 -0.009975801 -0.11921534
000370 21 bc 22 bf a1 ab 52 3e 5b 67 1a be 58 76 29 be
       -0.6356831 0.20573284 -0.1507849 -0.16549051
000380 bf c2 5d be 34 7e 10 3e 9c ee 66 3e c9 f1 19 3d
       -0.21656321 0.14110643 0.2255196 0.0375841
000390 42 9f 10 3e 1c 0e f9 bc 41 98 36 be 99 ab 19 3e
       0.14123252 -0.030402236 -0.17831518 0.15006866
0003a0 95 75 26 3e d3 81 6f 3e 78 b4 f4 3d 80 6d 23 bd
       0.16255791 0.23389368 0.11948484 -0.03989935
0003b0 12 1e 4b bb 24 96 c6 bd 07 74 80 be 44 ea a4 be
       -0.0030993265 -0.09696606 -0.25088522 -0.3220998
0003c0 99 f2 62 3e 1f a7 10 be 59 d8 f7 bd 7b 8a 17 be
       0.22162856 -0.14126252 -0.12101812 -0.1479892
0003d0 67 a7 e9 bb 23 8b 26 bd 27 52 75 3d 7c 22 90 3d
       -0.0071305516 -0.040660035 0.0598928 0.070378274
0003e0 41 b5 2b 3e 02 bc 26 3e 6e 49 d4 3d b9 40 96 3d
       0.16768362 0.16282657 0.10365568 0.073365636
0003f0 af 89 c9 be 85 59 98 be ed a0 12 bf 13 30 8f bd
       -0.39362857 -0.29755798 -0.57276803 -0.06991591

conv.0.bias f4 [16]
000000 47 a0 8c 3d e7 b4 fa bd f6 e1 3f bd e4 5b 03 3f
       0.06866508 -0.12241536 -0.046846353 0.5131209
000010 c5 b3 ee be 10 48 9e be 82 a8 5d 3e e0 52 25 be
       -0.46621528 -0.30914354 0.21646312 -0.16144896
000020 b9 c7 94 be 9d fc c2 bc 37 1a 08 bf db 1b b9 be
       -0.29058626 -0.023802096 -0.53165 -0.36154065
000030 65 6d 71 3e 78 ae 41 be ea e6 c5 bd 75 8a 63 be
       0.23576887 -0.18914211 -0.09663184 -0.22220786

conv.2.weight f4 [32, 16, 3, 3]
000000 5b 38 57 bd 67 9a 9b 3c 23 78 e9 bc 0e 3b 89 bc
       -0.05254398 0.018994523 -0.028499668 -0.016751792
000010 99 9a 7a bd 02 56 2b bc f6 62 bb 3d 54 04 6a bc
       -0.061182592 -0.010457518 0.09149735 -0.0142832585
000020 56 28 ba bd 83 f5 a2 3d 45 d4 d1 3d b2 f3 b1 3d
       -0.09089725 0.07956984 0.10245565 0.08689059
000030 94 88 0b 3e f1 f0 e7 3d 7e 92 fc 3c ac 40 48 3d
       0.13626319 0.11325253 0.030831572 0.0488898
000040 14 ee 20 bd 6d 16 2e bd f1 ba 33 3e e5 f9 0b bd
       -0.03928955 -0.042501856 0.17551781 -0.034173865
000050 3d e4 42 bd f4 b9 f7 bc 44 f4 a3 ba 26 74 67 be
       -0.047580946 -0.030240037 -0.001250871 -0.22602901
000060 6b 4e fa bd 67 2f 79 be 3f dc 3c be f9 69 5c 3c
       -0.12221988 -0.24334489 -0.18443392 0.013453
000070 79 f5 08 bd c4 a1 04 be 53 97 83 3c e1 26 7b bd
       -0.033437226 -0.12952334 0.016063368 -0.061316375
000080 26 3d 8b bd c1 e6 6b 3d ec 11 e0 bd a0 c1 b3 be
       -0.067987725 0.05759311 -0.10940918 -0.35108662
000090 a5 cb a5 3d 28 33 f2 3d 5f 79 8e be 70 c7 12 be
       0.08095483 0.118261635 -0.27826974 -0.14333892
0000a0 8e 95 25 be a6 41 ab be aa 7e eb 3d b7 93 f7 bd
       -0.16170332 -0.33448523 0.11498769 -0.12088721
0000b0 a6 77 2d be c7 bd 41 3d 25 70 d9 3c 4a c8 b5 bd
       -0.16940174 0.047300126 0.026542732 -0.08876093
0000c0 19 c2 2e 3e f1 6c c1 3d 77 e5 83 be 44 38 a3 3d
       0.1706623 0.09444607 -0.25761005 0.07969716
0000d0 6c b3 8f 3d f1 ce 02 be 0f 4b 35 3d 1e 8f 44 3e
       0.07016644 -0.12774254 0.044261035 0.1919522
0000e0 87 5f 5e 3c 9a f6 1e 3e 80 65 3f 3d d1 a7 34 bd
       0.01357258 0.15523759 0.046727657 -0.044105355
0000f0 aa b1 8a 3d 53 f6 ab 3c 86 ed 34 be 73 82 40 be
       0.06772168 0.02099148 -0.17668733 -0.18799762
000100 94 53 18 bd d8 04 98 3c 86 0e 89 bd 58 6d 8c bc
       -0.03718908 0.018556997 -0.06692223 -0.017141983
000110 73 e1 2a bd ec 03 a1 bd c9 dd a5 bd 52 2b 07 be
       -0.04171891 -0.07862076 -0.08098943 -0.13200119
000120 99 ab bf 3d a8 f3 88 3d 7f 4d 28 3d fa b0 91 bd
       0.093589015 0.06687099 0.04108953 -0.07113834
000130 76 ff 17 3e 64 60 04 be fd 2d ca 3d b4 f8 42 bd
       0.14843544 -0.12927395 0.09872053 -0.047600463
000140 35 74 1e be 7a cc c4 3d cb 10 6a be 89 6d 2f 3d
       -0.15474017 0.09609313 -0.22857969 0.04282907
000150 e7 2c de 3d 5f 59 1d be d5 5a 21 bd 3e 46 2d be
       0.10848408 -0.15366124 -0.039393265 -0.16921327
000160 88 00 6a be 2c 88 c1 3c 0f 87 4a 3d 2b 31 f8 3b
       -0.22851765 0.023624502 0.04944521 0.0075742207
000170 2f f2 fa bd 58 a9 e5 bc a9 f3 de 39 83 3a 17 be
       -0.12253224 -0.028034851 0.0004252468 -0.14768414
000180 0d c3 9b bd a7 3b fd bc ea ce 92 bd 79 ec 12 3c
       -0.07605562 -0.030912234 -0.07168372 0.008967512
000190 e2 7b 4e 3a f7 f6 8c bd 4d e1 16 be ca ee 52 be
       0.00078767363 -0.06883042 -0.14734383 -0.20598903
0001a0 b4 dd 11 be e5 0d 00 be 23 e3 0d be 47 13 c4 3b
       -0.1424473 -0.125053 -0.13856177 0.0059837434
0001b0 d7 8c bb 3c bc 75 2e 3d 4c 50 0c 3d 9d 86 00 be
       0.022894306 0.04259275 0.034256265 -0.12551351
0001c0 d0 c4 a3 b8 27 ff cb 3c 60 6d 04 be 8c c6 14 be
       -7.809105e-05 0.02490194 -0.12932348 -0.14528865
0001d0 49 8b bc bc 5d 77 b6 bb 1d 24 5e 3c 6e 21 52 3d
       -0.023015635 -0.0055684284 0.013558415 0.051301412
0001e0 cf d4 85 3d ce 13 99 3c d1 0f b4 bc 80 1f 15 bd
       0.06534731 0.018686201 -0.021980198 -0.036406994
0001f0 30 c4 2e bd 0b 8d aa 3c a1 72 be 3c 7d cd 04 3c
       -0.042667568 0.020819208 0.023248019 0.008105633
000200 61 58 e9 bb 92 5c 02 bd 60 3f 34 be cc 00 c2 bd
       -0.0071211313 -0.031826563 -0.176023 -0.09472808
000210 f2 be e4 bc 7d 87 2c bd 6b 73 b2 3d 0b 6e 06 be
       -0.027923081 -0.0421214 0.087134205 -0.13127916
000220 81 da 5a bc 38 3e b5 bd 68 d0 d0 bd 05 40 da 3d
       -0.013357759 -0.08849758 -0.10196 0.10656742
000230 b6 f4 24 3c cf 0e b5 bd 17 85 1a be 78 81 8f bd
       0.010068109 -0.08840715 -0.15089832 -0.07007116
000240 45 bd c6 3d 48 b8 4e bd 7c 03 bc 3d 8a 87 5e bd
       0.09704069 -0.050468713 0.09180352 -0.05432848
000250 0f 08 62 bc a0 c1 f8 3d 09 1d 22 ba 42 5b aa bc
       -0.013795867 0.12146306 -0.0006184136 -0.020795468
000260 2e 09 0e bd 3d c7 59 bd b4 6c 9c 3c 6b c4 59 3d
       -0.034676723 -0.053168524 0.019094802 0.053165834
000270 cd ba e0 3d 49 f0 df 3d 4e f1 c4 3d 4a c9 98 bc
       0.109731294 0.10934503 0.09616338 -0.01865067
000280 78 ea 8f bd a2 46 80 bc 74 e9 74 bd 27 c2 69 be
       -0.07027143 -0.01565868 -0.05979295 -0.2282797
000290 9a fc 08 bb e2 d3 23 bd 14 33 52 be a7 36 5a 3e
       -0.0020902515 -0.03999699 -0.20527297 0.2130991
0002a0 60 5f fe 3c a7 99 42 be 84 02 ac 3d e3 5c 67 bf
       0.031051338 -0.19003926 0.08398917 -0.9037611
0002b0 da 17 43 be ca 23 75 bd 95 a0 2e bd ad d7 06 bb
       -0.19052067 -0.059848584 -0.04263361 -0.002057533
0002c0 b9 5c de 3d 33 be ab bd 51 e9 5b bd 7b aa f8 bb
       0.10857529 -0.08385887 -0.053689305 -0.007588682
0002d0 6a 35 40 bf 4f bf 92 3e 39 6f 16 be a9 81 3e be
       -0.75081503 0.28661582 -0.14690866 -0.18604149
0002e0 94 8f 6f 3c 9e f7 00 3e 31 99 8d bc 29 48 92 bd
       0.014621634 0.12594458 -0.017284961 -0.0714267
0002f0 62 04 9a bd 6a ee 29 be fd f8 22 bd 87 20 9b bc
       -0.07520367 -0.16594854 -0.039788235 -0.018936409
000300 e4 25 8c be 95 26 1c 3e 20 05 0c bd 83 c0 86 be
       -0.27372658 0.15249093 -0.034184575 -0.2631875
000310 99 64 93 bb 7c 5e 0d bb 15 63 a8 be 77 7f 6b 3d
       -0.004498076 -0.002157121 -0.32888094 0.057494607
000320 55 ad 70 be b2 d1 d9 3d 85 8b 87 be 6a 48 17 be
       -0.23503621 0.10635699 -0.26473632 -0.14773718
000330 9f f5 06 bc 21 5c 40 bd 1e a5 b9 bd 1d 75 6b bd
       -0.008237272 -0.04696286 -0.09064697 -0.057484735
000340 9a b5 64 3d 94 28 10 3c a8 f4 9c 3d 83 b0 62 be
       0.05583725 0.008798737 0.07663852 -0.22137646
000350 f5 aa 2a be e8 4d 68 bc 81 77 25 3d fb 69 90 bd
       -0.16666777 -0.014178731 0.04039717 -0.07051464
000360 a6 c0 45 3d 05 08 38 be 02 7f c1 3d 39 06 87 3d
       0.048279427 -0.17971809 0.09448053 0.06592984
000370 20 de 4a 3d 59 46 58 3e 46 ae cd bc ca 1e 0b be
       0.04952824 0.21120586 -0.025107514 -0.13585964
000380 d9 d6 fe 3c 81 e4 02 3f 17 36 f7 bd 81 1c 91 3d
       0.031108307 0.5112992 -0.12070864 0.07085515
000390 27 84 df bd 45 ea 98 be 8e d0 fd bd df 0f 17 be
       -0.10913878 -0.29866233 -0.12393294 -0.14752148
0003a0 b6 77 8f bd f6 78 00 bd 95 32 1a 3d c5 3a 9c be
       -0.07005255 -0.031365357 0.037645895 -0.30513588
0003b0 40 95 96 3e 6a 2f 9b 3d 67 b5 3b be a3 9c 8f bc
       0.29410744 0.07577403 -0.18330918 -0.017530745
0003c0 ba 29 56 3a 58 14 81 bd a9 30 2c bd 71 d0 33 3e
       0.000816967 -0.063027084 -0.042038593 0.17559983
0003d0 17 c7 49 be 07 fb 88 3e db e9 30 bc 90 79 ac be
       -0.19704853 0.2675402 -0.010797943 -0.33686495
0003e0 c2 62 db bd db 8d f0 3c c3 e7 9c bd 48 9e 91 bb
       -0.10712196 0.029364517 -0.076613925 -0.0044439174
0003f0 14 6c 1a 3e a3 b7 f0 be 4b 35 8e be 48 5d f6 3d
       0.15080291 -0.47015104 -0.27775034 0.12029511

conv.2.bias f4 [32]
000000 9c 8c d7 3c a6 2b 5c 3c 3d 1e 41 bd 88 04 d4 bd
       0.026312165 0.013438141 -0.047147978 -0.10352427
000010 67 13 d6 bc ee 52 c8 bd 8f 9c a1 3d 42 de 93 bd
       -0.026132299 -0.097814426 0.07891189 -0.07220127
000020 8e 4e 9f bd fd 32 45 be 79 a3 1d bd 4c 1e 0c 3e
       -0.07778655 -0.19257732 -0.038485978 0.13683432
000030 b5 56 d6 bd bd 93 d8 3d f4 8d af 3d de 44 67 3c
       -0.10465757 0.10575054 0.08571997 0.01411554
000040 e0 91 2e 3d ae e2 6b 3d e9 35 cd 3d 4b a7 d5 bd
       0.042619586 0.057589225 0.10020048 -0.10432299
000050 fc 79 e5 bd 22 f5 1e 3d 6c b2 76 bd 3d 17 1e be
       -0.11204907 0.038807996 -0.06022875 -0.15438552
000060 67 af 88 bb d4 b7 ba 3d e9 ab cd bd 95 ab fa bd
       -0.0041713 0.09117094 -0.10042555 -0.12239758
000070 f6 2c 0f bd fa cd 1a 3d d6 af 0b bd 68 dc 5b bd
       -0.034954987 0.03779409 -0.034103237 -0.053676993

conv.4.weight f4 [64, 32, 6, 6]
000000 37 01 49 bc 0f d1 6d bd 9e f2 7d 3d f4 fc 7b bc
       -0.012268356 -0.058060702 0.061998956 -0.015380133
000010 0a 8e 17 3d eb db 7f bc e4 68 f8 bc 83 86 25 3d
       0.037000693 -0.015616397 -0.030323453 0.040411483
000020 2e 2f ef 3c e1 4d e2 3c 34 70 88 bc 33 ea 0b 3d
       0.029197302 0.027625026 -0.016655065 0.034158897
000030 94 54 a9 39 2b bb d2 3c 99 61 c7 bc 2f b2 30 bd
       0.00032297208 0.025724014 -0.02433853 -0.04313868
000040 39 5d 01 bb cf 39 c4 3c d3 e5 89 3c dd 05 a1 3d
       -0.0019739403 0.023953347 0.016833222 0.078624465
000050 f6 16 37 3b 66 93 42 bd e6 35 44 bd 9b 2e 99 3d
       0.002793727 -0.04750385 -0.047902964 0.074795924
000060 18 db f2 3c 14 d8 43 3b 2f 65 6c bd ef 44 12 3d
       0.029645488 0.0029883431 -0.057713684 0.03571027
000070 05 9e f1 ba cf a7 ec bb 06 5f 3a 3c 72 35 89 bc
       -0.0018433934 -0.007222153 0.011375194 -0.016749118
000080 e9 a2 09 bd ba 84 8d 3b cf 26 27 bd 81 85 b3 bb
       -0.03360263 0.0043188008 -0.040808495 -0.0054785614
000090 59 95 8e bc f9 4e 83 bd 47 0f 81 bc 92 b2 6c bd
       -0.017405199 -0.06411547 -0.015754355 -0.057787485
0000a0 18 a2 ca bc 57 ad 29 3c 4f ea 2c bb 9b d0 33 3c
       -0.024735495 0.010356269 -0.0026384776 0.010975028
0000b0 5f c0 04 3d 9e 54 33 bd 16 ba f2 bd 2e 1a a1 3d
       0.032410022 -0.04378187 -0.11851899 0.078663215
0000c0 40 b4 39 3d 75 90 95 3c 92 32 ea 3c ee 6c 97 3d
       0.045337915 0.018257359 0.028588567 0.073938236
0000d0 9e 0b a1 bd e7 4e 00 3d 30 85 a2 bd fb 50 e9 bc
       -0.07863544 0.031325247 -0.0793556 -0.028480997
0000e0 9d c5 dc 3b 4e 32 aa 3b 4e c8 c6 bd 30 a1 31 3c
       0.0067374245 0.005193985 -0.09706174 0.010841653
0000f0 68 7b 33 3d f4 c7 8e bd 5c 7c cd bd 8b 8c 07 3d
       0.04381886 -0.06971732 -0.10033485 0.033093017
000100 b2 25 b7 bc 33 4f e4 bc d4 a4 78 3d 7a 21 8c bc
       -0.022356842 -0.027869796 0.060704067 -0.017105807
000110 d9 22 8a 3c dc c7 f1 3b 55 e6 2d bd 85 52 74 bd
       0.01686232 0.0073785614 -0.04245599 -0.05964901
000120 1e 6a 9c 3c c9 5f c2 bb 05 0d 49 3c 15 55 e7 3b
       0.01909357 -0.0059318286 0.0122711705 0.007059703
000130 77 40 03 3d 4e 9a 7c 3c 18 a8 a1 bc ab ee 3c 3b
       0.0320439 0.0154176485 -0.019733474 0.002882878
000140 94 85 3d 3c 3a cc df 3c db 31 52 3c 5f 4b 88 3c
       0.011567492 0.027319063 0.012829269 0.016637502
000150 51 94 ae bb 68 10 3b 3a a5 50 80 bc 81 71 9f 3c
       -0.0053277393 0.00071359286 -0.015663454 0.019463303
000160 0d 0e be 3c da aa 4a bc 11 a7 d1 bc e0 db b7 3c
       0.02320006 -0.012369836 -0.025592359 0.022443712
000170 e6 c6 fa bc ba 1f 68 3c ef 55 07 bd ce ac 5c bc
       -0.03061242 0.01416772 -0.033040937 -0.013468934
000180 9a 05 4d bc 58 0d e0 3c bd db a2 bb 83 66 d0 3c
       -0.012513543 0.027350113 -0.0049700425 0.025439506
000190 f0 3f 0c 3c b4 cb 07 3d 59 ab 9d 3c bb 12 b5 3c
       0.008560166 0.03315325 0.019246744 0.022103658
0001a0 11 d0 d1 3c 1e 49 0f bc b7 b9 04 bc ac 4a 9e 3b
       0.02561191 -0.00874546 -0.0081009185 0.004830679
0001b0 5d 11 ca 3c 7d 3e 66 3c f7 70 8b 3d d1 1d 90 3c
       0.024666483 0.014052984 0.06808656 0.017592343
0001c0 26 88 20 bd 3f de fe 3a 39 6c 97 bc f8 7e 00 bc
       -0.03919234 0.0019444897 -0.018484222 -0.007842772
0001d0 c2 82 1f bd 43 18 b0 bc 4f 1c 3b bd b0 84 8c bd
       -0.03894306 -0.021495944 -0.045681294 -0.06861246
0001e0 e8 e0 47 bd 56 87 c5 bc 17 9c a9 bb 0a 69 3b 3b
       -0.04879847 -0.024112385 -0.005176078 0.0028596544
0001f0 08 c7 36 3d 1a 6c bd 3d dd 0b 84 bd 17 08 48 bd
       0.044623405 0.09249134 -0.06447575 -0.04883584
000200 15 c7 c4 bc a5 60 41 3d d2 e3 c7 3c 17 97 42 3c
       -0.024020711 0.047211308 0.024400625 0.011876843
000210 b9 af 80 3d 53 fb 43 3c 76 2a 81 3d 21 70 56 bb
       0.062835164 0.011961776 0.06306927 -0.0032720643
000220 2c 42 86 bc 75 a9 d3 bd 15 44 47 3d 59 1c 85 bc
       -0.016388975 -0.10335056 0.048648912 -0.016248869
000230 85 a8 4a bb 65 a5 09 bc fb 3c ab bb d1 c3 19 bc
       -0.00309232 -0.00840125 -0.0052257753 -0.009385065
000240 e1 92 24 3d 88 f2 16 bd 68 51 9a bc 7d 6a cd bd
       0.040179137 -0.03685239 -0.018837646 -0.10030077
000250 94 2b 24 3d 92 ad 2d bd 4a 47 8b 3d 78 66 b1 3d
       0.04008062 -0.042401858 0.06800707 0.086621225
000260 7a 6d 09 be 9d f6 5b be 7c 48 04 be 01 c2 29 be
       -0.13420668 -0.21480794 -0.12918276 -0.16577913
000270 e4 c2 8a bd 91 cd 27 3d 70 95 b0 bd 63 fe b5 bd
       -0.06775454 0.040967528 -0.08622253 -0.08886411
000280 3e 9b 89 3b 95 84 ef bd e2 b0 a1 bd 7e cf f2 bd
       0.0041994145 -0.1169521 -0.07895066 -0.11855982
000290 2e 70 cf bb 3e ec b9 bd 6e e7 53 be 67 2e c0 bc
       -0.0063305115 -0.09078263 -0.20693752 -0.023459626
0002a0 72 54 d5 3a c8 8d b6 bd e1 15 f0 bd a6 23 81 bd
       0.0016275777 -0.089137614 -0.11722923 -0.063056275
0002b0 3d b7 a1 bd 00 86 e4 3c 19 ef 8c bc e1 b0 0c bd
       -0.07896278 0.027895927 -0.017203854 -0.034348372
0002c0 ee 84 9f 3c f9 03 9d bd fc 86 86 bd 00 b1 e1 bc
       0.019472566 -0.07666773 -0.06568715 -0.02755022
0002d0 be 01 bc 3c f4 6b 8f bc f0 9e 52 3c 81 13 9d 3c
       0.02295005 -0.01750753 0.012855276 0.01917434
0002e0 1c 4b 98 bc 2c 83 80 3c 9e 06 c9 3b f5 e2 99 bc
       -0.018590502 0.015687548 0.006134822 -0.01878498
0002f0 cb c8 08 bc 58 25 14 bd 9a 04 91 3c d8 b9 b3 3b
       -0.008348654 -0.036168426 0.01770239 0.005484801
000300 df dd 35 3c 00 07 b1 3c 70 9a 74 3c f9 46 ef 3c
       0.0111002615 0.021609783 0.014929399 0.029208647
000310 d1 33 73 3c 46 59 af bc fe 89 0a 3d 20 00 39 3c
       0.014843897 -0.021404874 0.033823006 0.011291534
000320 19 2c 0a bc 6c 54 25 bc 45 e2 fa 3c 8f 6a 32 3c
       -0.008433365 -0.0100909285 0.030625472 0.010889663
000330 c6 19 7a 3c b6 a3 ee bb 57 c7 a0 3c 46 31 f3 bc
       0.015264934 -0.0072826995 0.019626303 -0.029686581
000340 26 b2 01 bb 9c 4b f8 3b 13 f2 63 b9 19 db 99 3c
       -0.0019790023 0.0075773727 -0.00021738587 0.018781232
000350 b0 2f e0 ba 68 16 9d 3a 88 ac a4 3c 40 39 48 bc
       -0.0017104056 0.0011984827 0.0201018 -0.012220681
000360 1c ae ae bc 12 3b 17 bd 24 0b 06 3e bb 78 62 3d
       -0.021323256 -0.03692157 0.13090187 0.05529092
000370 aa 26 bd 3d 74 1c 9b 3d 42 b8 b8 bd fc cc 67 bd
       0.0923589 0.075737864 -0.090195194 -0.056591973
000380 f8 1c 04 3d 11 40 eb 3d 47 e6 a8 3d e7 c2 d8 3d
       0.03225419 0.11486829 0.08247047 0.1058405
000390 de 23 07 3d 6b 04 e2 bd da 32 cd 3d fe 04 fa 3c
       0.03299319 -0.11035999 0.10019465 0.030519959
0003a0 ef 1a a4 3d 88 95 7c 3d f7 ff 8b 3c 6a 87 bf bc
       0.0801295 0.06166604 0.017089827 -0.02338
0003b0 9b fd 78 3d c4 a0 aa 3d 2a 4d e4 3c 5a 65 40 bd
       0.060788732 0.08331445 0.027868826 -0.046971656
0003c0 87 18 58 3c 7b 2f ad 3d b9 20 a9 bc c3 6b 70 3c
       0.0131894415 0.08456322 -0.020645486 0.01467413
0003d0 f2 5b 12 3d 34 fe 26 3d 94 d8 6d 3c 6b 63 29 bb
       0.035732217 0.04076977 0.014516968 -0.0025846611
0003e0 4e ae 26 3d c5 11 54 3d a3 cd 89 bc 55 ee 2c bd
       0.040693574 0.05177476 -0.016821688 -0.04221948
0003f0 5c 49 84 3c 73 f0 8a 3c d6 d8 67 bc b4 74 ba 3c
       0.016148262 0.016960358 -0.014150819 0.022760727

conv.4.bias f4 [64]
000000 38 3c c9 bc d6 67 a0 3c 5b c9 c7 bd 49 6a 36 bd
       -0.024564847 0.019580763 -0.097552024 -0.044534955
000010 76 90 5d 3c d0 fe 4b bd 89 df cc 3c db bb 00 bd
       0.013523212 -0.049803555 0.025008934 -0.031429153
000020 1e be 1a bd 5f e1 09 bd 28 db 6f bc 68 f0 5b bc
       -0.037778966 -0.033662196 -0.014639653 -0.013424017
000030 bf 83 08 bd ab f6 a0 bd 21 d4 83 bd 9c 75 18 bd
       -0.033328768 -0.07859548 -0.06436945 -0.037221536
000040 ba e8 9b bd b0 b0 a4 3d b4 46 1f bd 50 62 05 bd
       -0.076127484 0.08041513 -0.038885787 -0.03256446
000050 36 15 8d bd 77 b8 cc bc c8 ed 45 3e 49 75 d3 bc
       -0.06888811 -0.024990303 0.19328988 -0.025812762
000060 37 76 87 bd e9 0c ab bd 98 c7 a9 bd 02 6d b3 bd
       -0.066143446 -0.08352072 -0.082900226 -0.08761026
000070 ff 33 10 bd 10 72 9f bd b5 0d 10 bd f3 1b 06 3d
       -0.035205837 -0.077854276 -0.035169322 0.0327415
000080 b4 c1 79 bd 2e bb 24 3e 27 c9 3f bc f6 69 2d bd
       -0.060975745 0.16087028 -0.011705673 -0.04233738
000090 08 68 21 bd 7c 30 f2 3d 6e 00 90 bd 82 c7 17 3b
       -0.039405853 0.11825654 -0.07031332 0.0023159687
0000a0 10 71 e0 bd 61 6a 85 bd ca 74 12 bd 81 20 2b be
       -0.10959065 -0.06514431 -0.03575591 -0.16711618
0000b0 84 81 45 bd 1e 2b 31 bd 08 23 f5 3d 8b ec 9e bd
       -0.04821922 -0.04325401 0.11969572 -0.07759961
0000c0 03 2e 0b bd 2b c4 38 bd 71 c3 f6 bc 4b fc b3 bd
       -0.033979427 -0.045108955 -0.03012249 -0.087883554
0000d0 6b ce 34 bd b5 33 a2 bd cc 26 d8 bc cc 20 43 bd
       -0.044142168 -0.079200186 -0.026385687 -0.0476387
0000e0 03 73 17 be 53 51 77 bd 13 20 31 bd ad f5 ad 3d
       -0.14789967 -0.06038029 -0.04324348 0.084941246
0000f0 17 90 0e bd dd f9 0a bd dd 74 85 bd ae 74 28 bd
       -0.034805384 -0.033929694 -0.065164305 -0.0411269

fc.1.weight f4 [64, 1600]
000000 3b fb b5 3b be ab f8 ba 67 ab 89 bc 75 9e 8f 3c
       0.0055536306 -0.0018972082 -0.016805364 0.017531613
000010 56 64 d7 3a 1a 45 c6 bc e9 19 09 bc 72 43 1d 3c
       0.0016433101 -0.024202872 -0.008367994 0.0095986
000020 50 29 a2 3c eb 63 30 bb cb 89 b3 bc 97 93 99 3c
       0.01979509 -0.0026915025 -0.02191629 0.018747134
000030 cc e3 11 bb f2 bc ae bc ea ab 7f bc b9 d5 c8 bc
       -0.0022261022 -0.02133033 -0.015604952 -0.024515973
000040 d3 79 45 bc 37 b6 a5 bb cd 5b a0 bc 2e f5 ca bb
       -0.012052971 -0.005057122 -0.019575024 -0.0061937785
000050 91 25 8a bc 40 a2 29 bc 50 f4 3b 3a e1 3d 57 bc
       -0.016863616 -0.010353625 0.0007169889 -0.013137312
000060 25 77 02 bc 96 d3 b2 bb bc 30 8e 3c c6 4b 43 3c
       -0.007962977 -0.005457352 0.017357223 0.011919921
000070 5f b1 89 3c ae 5b 22 3c 9f e8 ae 3c e1 56 39 bc
       0.01680821 0.009909553 0.021351157 -0.011312217
000080 c2 cf a8 3c 04 75 89 bc 7e fd 38 3c 46 4c dc 3b
       0.02060688 -0.01677943 0.011290906 0.0067229597
000090 f5 93 8e bc 8f ee be 3b 01 63 47 bc 5b 7f 26 3c
       -0.017404536 0.0058267782 -0.0121696 0.0101622
0000a0 ff 4e b0 bc d1 d5 f3 bb 53 80 b7 3c 05 03 bf bc
       -0.021522043 -0.0074412604 0.022400057 -0.02331687
0000b0 ce 4f 1c 3c 1b 53 59 bc ee 76 9d 3b ca 3e 0e bb
       0.009540511 -0.013264443 0.0048054373 -0.0021704906
0000c0 12 46 e6 bb f4 dc 94 3c 0e 10 a1 3c 04 db 9a 3c
       -0.007027396 0.018171765 0.019660976 0.018903263
0000d0 6c 25 65 bc 6e 54 d2 3c cf c8 44 3b 20 06 8b bc
       -0.013985973 0.025675025 0.0030026918 -0.016970694
0000e0 b9 ae c2 bc 78 a0 33 bc 8f 47 ea 3c 3e b8 9d bc
       -0.023764955 -0.010963552 0.028598575 -0.019252893
0000f0 5d b8 3e 3c b5 d7 1e bc fc 0a b6 3c c3 b0 f3 bb
       0.011640635 -0.009694983 0.022222035 -0.007436843
000100 1e cd 96 bc a5 f0 2a 3c ba f8 83 bc be 88 07 bc
       -0.018408354 0.010433351 -0.016109813 -0.008272348
000110 80 0f 8b bc ab 1c b2 bb ae 01 f2 3a 62 2e a4 3c
       -0.016975164 -0.0054355464 0.0018463635 0.020041648
000120 80 3f f2 bb fa 20 f7 3c 4e c0 b1 3c 4d a8 ed 3b
       -0.0073928237 0.030167092 0.021698143 0.007252729
000130 c1 4d 5f 3c 12 bb 4d 3b 3f a8 04 bb bd fd 77 3b
       0.013629378 0.003139202 -0.0020241884 0.0037840449
000140 65 4c 3a bc 96 6f a3 3c 81 dd 1b bc 6f 98 aa bb
       -0.011370753 0.01995067 -0.00951326 -0.00520616
000150 8e 09 e8 bb 60 ed b1 bc 3c 55 21 ba 38 45 a4 bc
       -0.007081217 -0.021719635 -0.00061543635 -0.020052537
000160 61 56 04 3c 33 ec 55 3b 58 27 ae bc 0f 0b 37 3c
       0.008077235 0.0032642006 -0.021258995 0.01117207
000170 c7 90 b8 bc 22 f9 1b 3c 95 6d 73 3b a8 de 2c 3c
       -0.022529973 0.009519847 0.0037144173 0.010551132
000180 b7 91 b2 bc 0b 2e 53 ba 73 cb ee ba 62 5e db 3b
       -0.021797998 -0.0008055872 -0.0018218592 0.006694601
000190 12 db 21 3c ac 84 c4 bb 2d ca 1e bc b5 79 c0 3b
       0.009878891 -0.005997261 -0.009691757 0.0058738836
0001a0 60 f1 87 bb 53 09 5d bc 82 a9 5a 3c d0 c5 9d 3b
       -0.004148647 -0.013490993 0.013346078 0.004814841
0001b0 87 44 ae 3c 61 b5 b0 3b c9 d7 e0 bb 15 0c a8 3b
       0.02127291 0.005392716 -0.006861661 0.0051283934
0001c0 4c dc ee bb a6 e5 b2 3c 2b eb a8 3c 13 7b a7 3c
       -0.007289445 0.02183802 0.02061995 0.020444429
0001d0 c9 7f dd bc 7a 69 28 3b 04 44 04 3c fd 71 cf bc
       -0.027038472 0.0025697635 0.008072857 -0.025322909
0001e0 a8 08 ee bb a7 0d ed 38 8f 5b 47 bc c5 f0 9a 3b
       -0.0072642155 0.000113035836 -0.012167825 0.004728409
0001f0 da 52 9e bc 03 b4 93 bb 0a c1 5c 3c 5e b9 e3 bc
       -0.019326616 -0.004507543 0.0134737585 -0.02779835
000200 ba 6b 08 bd e7 7b cb bc ed db b1 3b d0 ae 28 bc
       -0.03330586 -0.024839355 0.0054278285 -0.010295585
000210 b1 33 cc 3b 43 62 9f 3c 47 5e a3 bc 0b af 42 3c
       0.006231748 0.019456035 -0.019942416 0.011882554
000220 3a fc 92 bc f6 6e 98 bb 90 2e 82 bc fe 06 b2 bb
       -0.017942537 -0.0046518994 -0.015891343 -0.0054329624
000230 e8 ba 0a 3c 9d 8c 97 3c 66 d0 af 3c 07 cd 93 3b
       0.0084674135 0.018499667 0.021461677 0.004510525
000240 85 de 9b 3b cd 26 08 bb 0d c7 c7 bc d5 af 86 bc
       0.004756751 -0.002077508 -0.024386907 -0.016441265
000250 09 8d 7f 3a 8c 00 31 bc 86 4b 06 bd 08 01 95 3b
       0.0009748494 -0.010803353 -0.03278687 0.004547242
000260 1c ae 08 bb 08 72 77 bc 14 28 3c bc fe bd c1 bc
       -0.002085573 -0.015102871 -0.011484165 -0.023650166
000270 ca 5f 30 bd 2c f0 90 bc c1 a8 27 bd b5 78 1a bd
       -0.0430601 -0.017692648 -0.04093242 -0.03771277
000280 ab 86 b3 bc 1c 9d 1b bd b0 97 b9 bc eb cd 8c bc
       -0.0219148 -0.037991628 -0.022655338 -0.017188033
000290 fe 7e 97 3a b9 36 a7 bc 8e 4b 8e 3b 69 4d de bc
       0.0011558232 -0.020411836 0.004342503 -0.027136521
0002a0 2f 0b 02 bd 49 4e 16 bd 98 90 38 bc 55 14 09 bc
       -0.031748947 -0.036695752 -0.011264943 -0.008366664
0002b0 a1 0c 0b bd 73 c5 0c bd 93 8b 34 3b d1 3b 9f 3c
       -0.03394759 -0.03436799 0.0027549013 0.019437702
0002c0 80 ce eb 3b 81 87 c8 bb 98 38 d4 bc 7e 3e 57 3c
       0.0071962476 -0.006119669 -0.025905892 0.013137458
0002d0 e2 f5 b8 bc 59 8d a3 bc d0 5f 84 bb bf 01 00 bd
       -0.022578184 -0.01996486 -0.004039742 -0.031251665
0002e0 70 5a fc 3a c2 f7 6b 3c 37 e2 80 3c 44 7f 04 3c
       0.0019253027 0.014402332 0.015732868 0.008086983
0002f0 b1 8f a6 bc 1e 18 8b 3a eb 72 9d bb 32 29 ad 3c
       -0.02033219 0.0010612046 -0.004804959 0.021137808
000300 e2 6b e7 bc a0 01 30 bc 27 69 cf bc d1 8a f0 3b
       -0.028249685 -0.010742575 -0.025318695 0.007340767
000310 fb 3b 79 3c 92 b6 ea 3b 98 18 1a 3b e7 6f a9 3b
       0.015212054 0.0071628774 0.0023513194 0.0051708105
000320 98 5b 07 3c ca 59 3f 3c ac d4 ab bc c6 db 76 bc
       0.008261584 0.011679122 -0.020975433 -0.0150670465
000330 88 93 8d bc 69 ec 61 bb 64 6d 3f 3c 71 1c e5 bc
       -0.017282262 -0.0034473187 0.011683796 -0.027967663
000340 37 e5 35 3c 70 62 af bb b1 14 c4 3c 64 c7 6c 3c
       0.011102012 -0.005352311 0.023935648 0.014451835
000350 0a c8 e1 bb 7c a1 95 bc a5 26 09 bc 71 2b 44 3c
       -0.0068903016 -0.018265478 -0.00837103 0.011973248
000360 89 c5 5f 3c 4b f1 4d 3c 73 85 86 3b 79 bf 8d 3c
       0.013657936 0.012569736 0.004105264 0.017303215
000370 b1 a9 af bc 12 59 5a bc 0c 3f 91 bb e6 04 85 bc
       -0.02144322 -0.0133269 -0.0044325646 -0.016237687
000380 ef 64 bd bc 32 55 04 3a c6 78 1d bc c4 27 40 3c
       -0.023119418 0.00050480955 -0.009611314 0.011728231
000390 9d 3b a8 3b c6 a0 58 bb 8a 45 f1 39 87 3d 91 bc
       0.0051340596 -0.0033054813 0.00046018913 -0.017729534
0003a0 fb c4 94 ba 32 73 57 bc fd 02 f2 bb 46 73 b0 3c
       -0.0011350209 -0.013150023 -0.00738561 0.021539342
0003b0 78 94 5f bc 69 8e 86 3b 5d 09 1d bc 7c 25 88 3a
       -0.013646238 0.004106332 -0.009584752 0.0010387148
0003c0 8c ea 77 bc 31 8f 28 bb 55 f3 84 bb c5 07 51 bc
       -0.015131604 -0.0025720114 -0.0040573278 -0.0127582
0003d0 69 85 d3 3a ee 69 46 bc 03 f8 c7 b9 fd 8e 01 3c
       0.0016137782 -0.012110217 -0.0003814102 0.007907626
0003e0 f9 25 d1 bb 34 7a 3c 3c 32 5d cc 3b 28 75 05 3c
       -0.0063827005 0.011503745 0.0062366957 0.008145608
0003f0 3f df 0f bc 89 7a 25 3c f2 7e f6 39 3d 9a 3c bc
       -0.008781253 0.010100015 0.00047015358 -0.011511383

fc.1.bias f4 [64]
000000 c8 0c 4a 3c 4c bd f1 bc d1 62 eb bc 02 80 fa 3b
       0.012332149 -0.02950921 -0.028733643 0.0076446543
000010 ac e1 ee 3d 90 0e af 3c ca 46 a3 bc 94 f2 93 3a
       0.11664137 0.021369249 -0.019931216 0.0011287504
000020 ec 6c 67 3c 0d ab ee 3d e4 70 59 3c a9 f6 1c 3e
       0.01412509 0.11653719 0.013271544 0.15328468
000030 ef 12 01 3c 3c 75 90 bc 0e 72 a7 3d 26 55 be 3e
       0.007878049 -0.017634027 0.08176051 0.37174338
000040 8c a6 14 b9 29 b3 99 3d 4c 79 10 bd 20 b1 b5 bc
       -0.00014176423 0.07504875 -0.035271928 -0.022179186
000050 0d 11 3a bd e4 d5 2b 3b e7 c3 c8 bc e2 75 6a 3d
       -0.045426417 0.0026220018 -0.024507476 0.057241328
000060 21 9a 37 3c db 21 4d bc 4e 4a c5 bc 99 c3 0f be
       0.011206181 -0.012520279 -0.024083283 -0.14039458
000070 3f 3c c7 bc 58 76 4f 3d 22 d9 1c 3b d8 5b e7 bc
       -0.02432072 0.05064997 0.0023933132 -0.028242037
000080 31 41 08 bc 78 5f 93 3d d9 99 ad bb e1 9e 17 3e
       -0.008316324 0.071959436 -0.005297881 0.14806701
000090 b3 68 46 bc 1c da ec 3d 58 57 7a 3c bc 9c b2 bc
       -0.012109923 0.115650386 0.015279613 -0.021803252
0000a0 69 41 c6 bc 4a 7f 26 3d 35 62 89 3b c3 55 ed 3b
       -0.024201112 0.040648736 0.0041926154 0.0072428896
0000b0 2f e4 0b bc 4f 4a 8a bb b7 33 a6 bc 4f 41 27 bb
       -0.00853829 -0.004220284 -0.020288331 -0.0025521105
0000c0 1d 74 84 bc c8 d0 b5 bc a2 d5 f2 39 fe 98 87 3b
       -0.016168648 -0.022194281 0.00046317006 0.004138111
0000d0 f4 1e d4 3d 30 5b ca 3d 7a e4 3c 3b 21 e2 82 3c
       0.10357466 0.09880674 0.0028822706 0.015976967
0000e0 5f a1 58 bc a5 a2 f4 bc 51 5b 03 bd dc b4 05 3e
       -0.013222068 -0.029862711 -0.032069508 0.13057274
0000f0 18 e7 a2 bb 01 b6 b8 bc 39 c5 81 3b 03 87 b7 3d
       -0.004971396 -0.022547724 0.0039602784 0.08961298

fc.3.weight f4 [4, 64]
000000 9b 01 84 3c fb be 75 3d d0 4c 3d 3c 62 12 9c 3d
       0.016114047 0.059996586 0.011553958 0.07620694
000010 7a be 28 be cd 04 53 3e bd 06 9d 3d d5 7f bc bd
       -0.16478911 0.206073 0.07667301 -0.092040695
000020 ac 2d bf 3d 91 9f 68 bd c9 59 cd 3d 40 75 07 bf
       0.09334883 -0.0567928 0.10026891 -0.52913284
000030 10 28 99 3d 14 3e ad 3d 1e 79 2a bf f0 57 94 3e
       0.074783444 0.08459106 -0.6659106 0.2897334
000040 19 8f 3c 3d ff 1d 53 be fc 9f cf 3d 1e 79 fe 3c
       0.046034906 -0.20616911 0.101379365 0.031063613
000050 ae 2e d5 3e c1 b5 94 3c 2e ee 7b bd e1 87 26 be
       0.41637176 0.018153073 -0.061506443 -0.16262771
000060 80 9f 7f bc 85 c1 01 bc 12 8f d5 bd 7f 4a 3c 3d
       -0.015601993 -0.007919674 -0.10427679 0.045969483
000070 cf bc 41 3d 5e b1 2d 3e 27 4a 88 3d eb 3f 58 3c
       0.047299203 0.16962191 0.066547684 0.013198833
000080 bf 79 a5 3d 35 88 ca be e5 f4 d1 bd 4f 64 f6 3d
       0.08079862 -0.39557043 -0.10251788 0.12030851
000090 20 4c 29 3d b3 c0 e9 bd f2 fe 16 bc 8a e6 66 3e
       0.041332364 -0.114137076 -0.009216057 0.22548881
0000a0 a0 76 33 3d c9 42 ff bb ed 25 2b bd e6 47 33 3e
       0.0438143 -0.007789944 -0.041784216 0.17507896
0000b0 42 8d 67 be 37 db 3f bd 6e 1a d9 3d 5d e4 f0 3d
       -0.2261248 -0.04683992 0.10600744 0.11762307
0000c0 ef 90 2b 3d ea 47 b0 3e 25 5e 36 3d 8d 80 35 bd
       0.041886266 0.34429866 0.044523377 -0.04431205
0000d0 2f 13 52 bf d8 28 78 bd 12 4e 03 bd c9 70 c8 3d
       -0.8206052 -0.060585827 -0.032056876 0.09787137
0000e0 25 0a e4 bc fc af 5e 3d 86 84 c6 bd 27 7a 30 be
       -0.027836869 0.05436705 -0.096932456 -0.17234097
0000f0 a3 27 bb 3c b8 b7 84 bd 19 6c 48 3d 6a 36 50 3d
       0.022846049 -0.06480354 0.048931215 0.050833143
000100 2d 25 2a bc 19 2f c1 bc 8e ae e4 3d 3c 1c a9 bd
       -0.01038484 -0.023582028 0.11166106 -0.082573384
000110 99 13 dd bd 24 2b 18 3e d6 7e 86 bd 99 aa 0f 3d
       -0.107947536 0.14860207 -0.06567161 0.035074804
000120 54 b9 de bc d0 79 06 3e 2f 61 32 bf fd 41 2f bd
       -0.02718798 0.13132405 -0.6967954 -0.04278754
000130 c5 cc d6 3c d4 b1 0a bf 97 b2 29 3e d1 23 8a 3e
       0.026220689 -0.54177594 0.16572033 0.2698045
000140 b2 6f 80 bc ed e7 80 be e8 8b 02 3d f8 cc 60 3d
       -0.01567826 -0.25176945 0.031871706 0.054882973
000150 aa 1a 82 3b c0 da 92 3d 61 dc fe 3d 2f 48 91 be
       0.0039704638 0.071706295 0.12444378 -0.28375384
000160 c1 e6 32 3d 30 f4 b1 bd 70 94 a9 3d 47 83 9c 3d
       0.043677095 -0.08689153 0.08280265 0.07642227
000170 2e e5 4b bf 45 10 b1 be 5b ae d2 3d 34 b8 bc bd
       -0.79646575 -0.34582725 0.10287162 -0.092148215
000180 c7 ce 2d 3c cf 48 37 3d 34 01 ea 3c cb 15 f6 bc
       0.010608382 0.04474717 0.028565027 -0.030039689
000190 f7 6a 54 bd 1e 8d 76 bd f6 ba 09 bc d3 ec 61 3e
       -0.051859822 -0.060193174 -0.008406391 0.22062998
0001a0 f9 d9 de bd 7d 89 c1 bc 72 a3 fa 3a d4 c4 0d 3e
       -0.10881419 -0.02362513 0.0019122197 0.13844615
0001b0 78 27 7e 3e 01 d0 97 bd bc e1 02 bd a1 2a e4 bd
       0.24819744 -0.074127205 -0.03195356 -0.11140943
0001c0 5e 5f 81 bd 81 eb 9a 3d a0 41 ea 3d 60 c4 7f bd
       -0.06317018 0.0756445 0.11438298 -0.062443137
0001d0 9b 80 14 3e 4e 2e c9 bd 12 a3 a8 bd 61 5a 7f bb
       0.14502184 -0.09823285 -0.08234228 -0.0038963782
0001e0 19 27 ed bc 20 d7 87 bb 78 2f 3e bd ac 89 2a 3e
       -0.028949307 -0.004145518 -0.04643199 0.1665408
0001f0 bb 92 33 3d be da d6 3d 9a 8f a5 3d 6d 72 40 be
       0.043841105 0.104909405 0.080840304 -0.1879365
000200 81 e1 c7 bc 38 20 82 bd ba 50 82 3d 88 23 9f 3d
       -0.02439952 -0.063538015 0.063630536 0.07770449
000210 e2 67 35 be dd 2d bc 3e f5 a5 d6 3d 7d 2d c4 3b
       -0.1771541 0.3675374 0.104808725 0.005986868
000220 cd 0d f2 3d 69 7a 31 be 2d 5b bb 3d 76 49 97 3e
       0.118190385 -0.17331852 0.0914825 0.29548234
000230 92 c6 a9 3d 5b 6f 72 3e 5e a5 23 3e 60 d5 7e 3e
       0.082898274 0.23675291 0.15981051 0.24886084
000240 7e 6a 67 3d 7b 60 b6 be 50 d3 af 3d 34 04 c8 3d
       0.056498043 -0.35620484 0.085852265 0.09766427
000250 63 f7 c5 3d d9 f2 3b 3c 0f 36 8c 3d 2b f1 4f 3d
       0.09666326 0.011471474 0.06846248 0.050767105
000260 a6 ed 86 3d b1 b4 b3 3c 4b 2b d6 3c f6 72 6f 3f
       0.065882966 0.021936746 0.02614369 0.9353479
000270 e2 a0 03 3e af d9 09 3e 63 f2 c7 3d 86 6e a9 bd
       0.1285434 0.13461946 0.097630285 -0.08273034
000280 61 5e b9 bd 92 21 6d 3c 8f d2 3d 3d b0 5c 3a bf
       -0.090512045 0.014473336 0.046343382 -0.7279768
000290 76 80 72 bd de 6a 06 be 66 a4 7d 3d a0 de f1 be
       -0.05920454 -0.13126704 0.06192436 -0.47240162
0002a0 f0 7e c4 3d b2 3a 5b bd 67 6c 36 3d 41 21 11 3e
       0.09594524 -0.053522773 0.044536974 0.14172842
0002b0 ae b2 19 3d ec 26 85 bd 72 4f ba 3d 69 e0 a4 3d
       0.037523918 -0.065015644 0.09097184 0.08050615
0002c0 8f 18 18 bc 93 c6 2c be 33 cb 24 bb 62 6b 54 3d
       -0.009283199 -0.16872625 -0.002514553 0.05186022
0002d0 5a da 98 bd 47 90 7b bd 48 1b b8 bc ae f9 2e 3c
       -0.07463522 -0.06141689 -0.022473946 0.010679645
0002e0 a7 59 c1 bd b1 75 d7 3d 93 6d 7e 3a 74 3d 15 bf
       -0.09440928 0.10520495 0.0009705659 -0.58296895
0002f0 d1 7c 45 3d 44 d3 47 3c 09 29 f1 3d 1a 01 b0 be
       0.048214737 0.012196366 0.11775405 -0.3437584
000300 bc b1 1d bc fd 27 c6 bd 65 0c 21 bd ea 2c 5c bd
       -0.009624895 -0.09675596 -0.03931846 -0.05375377
000310 6b 52 7f 3d df a6 97 3c 54 80 50 bd 6f f6 97 3d
       0.06233446 0.018512188 -0.050903633 0.0742005
000320 82 34 bb bd f5 18 31 bd 5d f6 96 bd 13 59 e9 bd
       -0.091408744 -0.04323669 -0.07371209 -0.11393943
000330 73 ce c6 bd d1 9b 8f 3e 0f a3 65 3e 90 33 5e 3e
       -0.09707346 0.28048566 0.22425483 0.21699357
000340 4a b4 43 bd 36 12 95 be d8 1c 11 3c 4c 07 ec bd
       -0.04777936 -0.29115456 0.008856975 -0.11524829
000350 16 aa bd bd 1c f3 75 bd 14 da 9a bd ae 3d 80 be
       -0.09260957 -0.0600463 -0.07561126 -0.25047058
000360 32 9d 14 3d 99 74 33 bd b8 95 63 bd ca 9b 3c 3e
       0.036282726 -0.043812368 -0.055562705 0.18418804
000370 81 9b 41 bc d5 78 b1 3e 91 4d d9 bd 9e eb ea 3d
       -0.01181686 0.346625 -0.10610498 0.11470722
000380 d4 ef f5 3d 0d 63 12 be 41 dc 3f 3c 63 e1 4b bd
       0.12008634 -0.14295597 0.0117102275 -0.049775492
000390 b2 9f a3 bd 5f a1 35 be 75 1d f1 bb fe af 47 3e
       -0.07989444 -0.1773734 -0.007358248 0.1950073
0003a0 30 66 7c bd 11 3b 6c bf 36 21 a3 3d 7d e8 84 bf
       -0.06162089 -0.9227763 0.07965319 -1.038345
0003b0 dc 21 89 3e 47 16 d8 3d 25 b2 1f 3d 01 40 f5 bd
       0.26783645 0.10551124 0.03898825 -0.119750984
0003c0 8f da f5 3d 1f 6b a6 3d e5 13 22 bd 0b 7b 9a bc
       0.12004577 0.081259005 -0.039569754 -0.0188575
0003d0 90 d0 91 3e d1 0f 07 be a4 df f4 3c ba f0 e2 bb
       0.28479433 -0.13189627 0.029891796 -0.0069256695
0003e0 02 35 dc bd ce f2 f3 3d d0 ea 75 bb d0 79 59 3d
       -0.10752298 0.11911546 -0.0037523992 0.053094685
0003f0 75 50 df 3d 04 67 1b bd 0a f1 46 bd 7d 24 e2 3c
       0.10904018 -0.03794004 -0.048569717 0.02760529

fc.3.bias f4 [4]
000000 cd ee 3e 3e 24 cd 39 3e 24 39 68 3e 3f 30 94 3e
       0.18645783 0.18144661 0.22678047 0.2894306
