models/v17.1/model_46000.pt (torch, 729840 bytes, 10 tensors)

conv.0.weight f4 [16, 2, 3, 3]
00000000: a318 443e e75e b73d 45f3 ccbd f515 3f3d
00000010: 47ca 2abd dbd8 ca3c 0db4 6fbd 7dc6 65bc
00000020: cf09 fd3d 44be 65be 945b 0b3e 2dcb e23d
00000030: f42d 963d c6e4 4b3d 98de ec3d 9795 803d
00000040: 900e a03d e2ca 82bd fc1d 8d3d 76b9 5f3e
00000050: 4cef 76bd cf69 e2bd 2201 05be 8b83 d83d
00000060: 6272 62be 4663 72be 4cb0 0dbe e186 8ebd
00000070: 4668 973c 135a 26bd 9171 323e b7f8 36bd
00000080: 16e7 233d a8ce 483e e2ef 4e3e bf81 1d3e
00000090: 188b c83d a40d 8d3e ab3f 583c 0ea8 88bd
000000a0: 64c6 a93d 10d1 853e 58f9 543e fe3a d33e
000000b0: 4823 893d f624 eabd e0a3 1dbe e119 eabc
000000c0: cff3 b23d 1480 b8bd 5a82 85be 46d4 47be
000000d0: 7ab6 d9be 42c4 85bd ec40 a33d 9eca 543c
000000e0: e964 b23d 204b 3dbd 541a 033e edd9 a1bf
000000f0: f292 723d b3ee a7bd 5698 803d dc16 bebd
00000100: cba4 89bc ef94 90bd 46a8 5c3d d53d ccbd
00000110: ffcd 183c 8766 35bd 5b89 9f3d 4481 5fbd
00000120: 6578 993d b582 a8bd 732c 21be 0e1e b2bd
00000130: 23d3 f2bd f4e1 043f 1baf 603d 063e c23d
00000140: 2715 f2bd 34f8 85bd 9175 8c3d 368d 193e
00000150: c207 a23d 5812 e43d 60a8 933e 381d 86bd
00000160: ffe3 abbd 20a4 c93d 5d18 c83d df46 03bd
00000170: dd25 b93e 9abf 60bb c759 aebe 02cc 043b
00000180: 81d6 ac3d 83e1 11be 9675 0abe 1452 ecbd
00000190: b098 303c ec71 193e ca43 c43c 1f0e 27bd
000001a0: 7915 e53c a8ce abbd cfbb 1a3e 2e3a 0a3e
000001b0: e58f dcbe 6e9d e5be dae0 373c c58a 8f3c
000001c0: ac3c f43b 7de6 26bf 2c33 f5be eadb c2be
000001d0: c214 8cbd f308 de3d cb27 ca3d 274c 433b
000001e0: c2e2 0cbd 3cd5 19bc 4c65 513e e8e7 0c3e
000001f0: 1798 b43d 0922 063d 029b 06bf 1bdc d5be
00000200: 7369 fb3d 5a0f 73bd 7848 d73d fb5c 0b3e
00000210: c60b a1be 3bde 5a3c 39ee 0ebc 8380 8f3d
00000220: 25c9 523e 52b6 b2bd 9453 663d 7cbc 8abd
00000230: fdda ea3d 9402 1bbd e7fb 913d 814a 53bd
00000240: 30d4 933d 790f 903d 6079 f83d e457 ed3d
00000250: cfb5 513e 060f b5bd 74fb 243d c82d 16be
00000260: d2ed cbbd 6b9d 5bbe f5e0 c83d 2401 28bd
00000270: 4d50 183d 1860 503d 72a7 073e 5dc3 4abd
00000280: 7956 cd3d 3830 dc3c 7f92 723b 1e97 efbd
00000290: af83 2c3e afd2 653c a911 1c3b 759f 2b3f
000002a0: 7dcb 93bb 3499 23be 957b 1bbd b4ec 313b
000002b0: 32ae c43d 3947 1cbe c940 3fbc e0f5 0a3c
000002c0: f032 2ebf 0d62 253c 0cfb 203e 9643 6b3d
000002d0: 3d83 d23c 29e3 ce3b d174 a43c 70b0 57bd
000002e0: d539 053f 1075 83bd 4905 88bb c442 b5bd
000002f0: 2513 c33c 94db 23bd d592 b1bb 7ba2 a4bc
00000300: b14b ae3d 1f82 b73e 6d21 493d 19b6 743b
00000310: 0c12 ce3d c98d 1fbd e66b 02bd d5da 8f3c
00000320: 241e edbd 71f8 90bd 2b0c 013f 732f 2d3d
00000330: 8e04 0bbe 61cf 33bd b7db 21be 44c1 bf3c
00000340: 06bd 60bd 6405 0f3e f768 ae3d 0349 093e
00000350: c704 ebbd 7f4a 203e 5ec2 28bb bb62 3b3e
00000360: 5ec6 03be 6f67 55be 3664 4ebd e236 2abe
00000370: 422c 62bf 3f1b 1b3e dd0f f9bd a07d 3fbe
00000380: 0e12 57be 926e 0f3e 1113 473e 7caa 2c3d
00000390: 0ecc 3b3e 952f 79bd e6f0 0bbe c550 f73d
000003a0: 49f0 483e edef 533e 2fef c83d 2a44 54bd
000003b0: 03d9 02bc 3ad6 d9bd 9ac5 8dbe 9a9f c9be
000003c0: 1a95 6b3e 5bdb e9bd 1f2b d0bd f2ea 0bbe
000003d0: 7b3a c03c bbde 8c3b 0437 8d3d 09d4 233d
000003e0: 234c 033e 9713 263e 429a b23d d164 c73d
000003f0: 29b1 e7be e795 bcbe 9d85 1fbf 54dd d4bd
0.19150023 0.08953648 -0.100073375 0.0466518 -0.041696813 0.024761608 -0.05852132 -0.014024374
0.123553865 -0.22435862 0.13609153 0.11073909 0.073329836 0.049778722 0.11565894 0.06278532
0.078152776 -0.06386353 0.06890485 0.21848091 -0.060286805 -0.11055338 -0.12988713 0.10571965
-0.22113946 -0.23670682 -0.13836783 -0.0695932 0.018482339 -0.040613245 0.17426135 -0.044670787
0.040015303 0.19610083 0.20208696 0.15381525 0.09792155 0.2754947 0.013198773 -0.06672679
0.08289793 0.26136065 0.20798242 0.41255945 0.066961825 -0.11432831 -0.15394545 -0.028576793
0.08737909 -0.09008804 -0.26076013 -0.1951457 -0.4252203 -0.06531574 0.07971367 0.012987761
0.08710653 -0.046214223 0.12803012 -1.2644631 0.05922217 -0.08199825 0.06279056 -0.09281704
-0.016802212 -0.07059657 0.053871416 -0.09972731 0.009326457 -0.04428723 0.0778987 -0.054566637
0.074936666 -0.082280554 -0.15739612 -0.08697139 -0.118566774 0.5190728 0.054854494 0.09484486
-0.11820441 -0.065414816 0.068583615 0.14995274 0.07911636 0.11136311 0.28839397 -0.06548542
-0.08393096 0.098457575 0.09770272 -0.03205001 0.361617 -0.003429389 -0.3405287 0.00202632
0.08439351 -0.14246182 -0.13521418 -0.11539093 0.010778591 0.14984864 0.023958106 -0.04078495
0.02796434 -0.08389026 0.15110706 0.13498756 -0.43078533 -0.44846672 0.011223042 0.017522225
0.0074535217 -0.6519545 -0.47890604 -0.38058406 -0.06839897 0.10841551 0.09870871 0.002980003
-0.03439594 -0.009389218 0.20448798 0.1376034 0.08818071 0.032747302 -0.52580273 -0.4176949
0.12275972 -0.059340812 0.10511869 0.13609688 -0.31454295 0.013358648 -0.008723789 0.070069335
0.20584543 -0.08726181 0.05623205 -0.06774232 0.1146755 -0.037844256 0.07128125 -0.051584724
0.07218206 0.07034201 0.121325254 0.115890294 0.2047951 -0.08840756 0.040278867 -0.14665902
-0.0995747 -0.21446769 0.09808532 -0.041016713 0.037185956 0.050872892 0.13247469 -0.04950272
0.10026259 0.026878461 0.0037013588 -0.11698745 0.16847108 0.014027282 0.0023814237 0.6704019
-0.0045103417 -0.15976411 -0.037959654 0.0027149143 0.096035376 -0.15261544 -0.011673161 0.008481473
-0.68046474 0.010094178 0.15720767 0.0574375 0.025697345 0.0063137007 0.020075234 -0.0526585
0.5204137 -0.06418812 -0.0041510207 -0.08850625 0.02381284 -0.040004328 -0.005419115 -0.020097008
0.08510531 0.35841462 0.049104143 0.0037339984 0.10062036 -0.038953576 -0.03184118 0.017560402
-0.115780145 -0.070786364 0.5040919 0.04228158 -0.13575956 -0.043898944 -0.15806471 0.023407586
-0.054867767 0.139669 0.08516114 0.13406758 -0.114755206 0.15653418 -0.0025750617 0.18299381
-0.1286864 -0.20840238 -0.050388537 -0.16622499 -0.8834878 0.15147112 -0.12161229 -0.18700266
-0.21002981 0.14007023 0.19440867 0.042154774 0.1833956 -0.060836393 -0.13666114 0.120759524
0.19622912 0.20696993 0.09811246 -0.05182282 -0.00798631 -0.106365636 -0.2768982 -0.3937958
0.23006096 -0.11418792 -0.10164475 -0.13663843 0.023465386 0.0042990125 0.06895259 0.039997134
0.12822013 0.1621841 0.087208286 0.09736026 -0.4525235 -0.36833116 -0.6231325 -0.103937775

conv.0.bias f4 [16]
00000000: 24f1 3a3d da3d 15be 4283 74bd c2cb 123f
00000010: 8bc0 01bf 2f08 a3be fc98 153e 3868 26be
00000020: 1c5e aebe 8d72 1bbd 887c 0fbf 6229 aebe
00000030: c94b 8a3e 83f1 4ebe 6dd4 c0bd c630 5cbe
0.045640126 -0.14574376 -0.05969549 0.5734216 -0.5068442 -0.3184218 0.1460914 -0.16250694
-0.34056175 -0.03795104 -0.56049395 -0.34015948 0.27010944 -0.20209317 -0.09415517 -0.2150298

conv.2.weight f4 [32, 16, 3, 3]
00000000: 5b38 57bd 679a 9b3c 2378 e9bc 0e3b 89bc
00000010: 999a 7abd 0256 2bbc f662 bb3d 5404 6abc
00000020: 5628 babd 83f5 a23d 45d4 d13d b2f3 b13d
00000030: 9488 0b3e f1f0 e73d 7e92 fc3c ac40 483d
00000040: 14ee 20bd 6d16 2ebd f1ba 333e e5f9 0bbd
00000050: 3de4 42bd f4b9 f7bc 44f4 a3ba 2674 67be
00000060: 6b4e fabd 672f 79be 3fdc 3cbe f969 5c3c
00000070: 79f5 08bd c4a1 04be 5397 833c e126 7bbd
00000080: 263d 8bbd c1e6 6b3d ec11 e0bd a0c1 b3be
00000090: a5cb a53d 2833 f23d 5f79 8ebe 70c7 12be
000000a0: 8e95 25be a641 abbe aa7e eb3d b793 f7bd
000000b0: a677 2dbe c7bd 413d 2570 d93c 4ac8 b5bd
000000c0: 19c2 2e3e f16c c13d 77e5 83be 4438 a33d
000000d0: 6cb3 8f3d f1ce 02be 0f4b 353d 1e8f 443e
000000e0: 875f 5e3c 9af6 1e3e 8065 3f3d d1a7 34bd
000000f0: aab1 8a3d 53f6 ab3c 86ed 34be 7382 40be
00000100: 9453 18bd d804 983c 860e 89bd 586d 8cbc
00000110: 73e1 2abd ec03 a1bd c9dd a5bd 522b 07be
00000120: 99ab bf3d a8f3 883d 7f4d 283d fab0 91bd
00000130: 76ff 173e 6460 04be fd2d ca3d b4f8 42bd
00000140: 3574 1ebe 7acc c43d cb10 6abe 896d 2f3d
00000150: e72c de3d 5f59 1dbe d55a 21bd 3e46 2dbe
00000160: 8800 6abe 2c88 c13c 0f87 4a3d 2b31 f83b
00000170: 2ff2 fabd 58a9 e5bc a9f3 de39 833a 17be
00000180: 0dc3 9bbd a73b fdbc eace 92bd 79ec 123c
00000190: e27b 4e3a f7f6 8cbd 4de1 16be caee 52be
000001a0: b4dd 11be e50d 00be 23e3 0dbe 4713 c43b
000001b0: d78c bb3c bc75 2e3d 4c50 0c3d 9d86 00be
000001c0: d0c4 a3b8 27ff cb3c 606d 04be 8cc6 14be
000001d0: 498b bcbc 5d77 b6bb 1d24 5e3c 6e21 523d
000001e0: cfd4 853d ce13 993c d10f b4bc 801f 15bd
000001f0: 30c4 2ebd 0b8d aa3c a172 be3c 7dcd 043c
00000200: 6158 e9bb 925c 02bd 603f 34be cc00 c2bd
00000210: f2be e4bc 7d87 2cbd 6b73 b23d 0b6e 06be
00000220: 81da 5abc 383e b5bd 68d0 d0bd 0540 da3d
00000230: b6f4 243c cf0e b5bd 1785 1abe 7881 8fbd
00000240: f132 e43d 1065 0fbd 9f7d b03d 44d3 32bc
00000250: 01aa d03c 99f3 b83d b642 e03b f3fb 36b9
00000260: 664d dabc ae57 8abd 9315 3fbd 8789 7cbb
00000270: 0a59 b83d 4584 113e 9e9a ac3c 4847 3ebd
00000280: 366a 44bb 9782 cc3c 0408 f3bd c77c 51be
00000290: f654 1d3d 6b5c 4c3d 955b 85be 2949 623e
000002a0: 8ae3 bf3d f970 e6bd 0f5b b53d 1e57 aebf
000002b0: abf5 25be 7f9f 62bd 068f a7bd ce7d 1abd
000002c0: 1eaf 963d 6faf 00bc 72a8 a6bc 98ba 8cbc
000002d0: 18be 67bf b639 bc3e 8ba1 35be 5815 babd
000002e0: bab7 2b3d 2187 1e3d a6a4 08bb 3bf2 23bd
000002f0: 0135 0cbd 30f0 2cbe bc66 9cbe 55f4 4a3d
00000300: a7a6 6bbe 014b bc3d 44f2 b2bd 759d b3bd
00000310: f9a4 243c 17df 63bd 46ae d4be 9301 dcbd
00000320: 59af a3be 85d5 c93d 816b 92be f5a1 81be
00000330: 6d67 803d 5bf8 283c 7464 4cbd f654 05be
00000340: 0888 583d 24ac 82bd ddfb c93d b264 73be
00000350: 05d5 68be ad55 983d bd57 283d 7738 813a
00000360: 004a f03c f30c 78be 97de dd3d 93a3 e53d
00000370: 6ef2 0a3d f6f7 be3d 1071 8c3d db4d 05bd
00000380: e9a9 f13c c76a c93e d04e 91bd 4669 123d
00000390: b682 06be 4a97 0fbe 929b ebbd 4b73 ba3d
000003a0: 9c89 9abd 633f 96bc 7d78 5f3d c1ec 02bf
000003b0: a691 ae3e b8f5 003e 5a5a efbd 03e5 c8bb
000003c0: 3de0 673b 8543 85bd 6a8e 90bb e623 633e
000003d0: 5d22 bfbe 856d 8e3e 008a 683d 2704 61be
000003e0: 51ee b2bd 8814 1d3c 95bc 9bbd 81af ad3c
000003f0: f349 273e 4f6c 54bf 1b00 f4be 2c6f 473e
-0.05254398 0.018994523 -0.028499668 -0.016751792 -0.061182592 -0.010457518 0.09149735 -0.0142832585
-0.09089725 0.07956984 0.10245565 0.08689059 0.13626319 0.11325253 0.030831572 0.0488898
-0.03928955 -0.042501856 0.17551781 -0.034173865 -0.047580946 -0.030240037 -0.001250871 -0.22602901
-0.12221988 -0.24334489 -0.18443392 0.013453 -0.033437226 -0.12952334 0.016063368 -0.061316375
-0.067987725 0.05759311 -0.10940918 -0.35108662 0.08095483 0.118261635 -0.27826974 -0.14333892
-0.16170332 -0.33448523 0.11498769 -0.12088721 -0.16940174 0.047300126 0.026542732 -0.08876093
0.1706623 0.09444607 -0.25761005 0.07969716 0.07016644 -0.12774254 0.044261035 0.1919522
0.01357258 0.15523759 0.046727657 -0.044105355 0.06772168 0.02099148 -0.17668733 -0.18799762
-0.03718908 0.018556997 -0.06692223 -0.017141983 -0.04171891 -0.07862076 -0.08098943 -0.13200119
0.093589015 0.06687099 0.04108953 -0.07113834 0.14843544 -0.12927395 0.09872053 -0.047600463
-0.15474017 0.09609313 -0.22857969 0.04282907 0.10848408 -0.15366124 -0.039393265 -0.16921327
-0.22851765 0.023624502 0.04944521 0.0075742207 -0.12253224 -0.028034851 0.0004252468 -0.14768414
-0.07605562 -0.030912234 -0.07168372 0.008967512 0.00078767363 -0.06883042 -0.14734383 -0.20598903
-0.1424473 -0.125053 -0.13856177 0.0059837434 0.022894306 0.04259275 0.034256265 -0.12551351
-7.809105e-05 0.02490194 -0.12932348 -0.14528865 -0.023015635 -0.0055684284 0.013558415 0.051301412
0.06534731 0.018686201 -0.021980198 -0.036406994 -0.042667568 0.020819208 0.023248019 0.008105633
-0.0071211313 -0.031826563 -0.176023 -0.09472808 -0.027923081 -0.0421214 0.087134205 -0.13127916
-0.013357759 -0.08849758 -0.10196 0.10656742 0.010068109 -0.08840715 -0.15089832 -0.07007116
0.11142529 -0.03500849 0.0861771 -0.010914627 0.02547169 0.090308376 0.00684389 -0.00017450731
-0.026648235 -0.06755005 -0.046651434 -0.003853412 0.09001358 0.14210613 0.021069821 -0.046454698
-0.0029970533 0.024964614 -0.11866763 -0.20457755 0.038411103 0.049892824 -0.26046434 0.22098221
0.093695715 -0.112520166 0.08855259 -1.3620336 -0.16206996 -0.05532789 -0.081815764 -0.037717633
0.0735762 -0.007854327 -0.020343993 -0.017178819 -0.90524435 0.3676278 -0.17737405 -0.09086102
0.041923262 0.038703088 -0.0020850091 -0.04002593 -0.034230236 -0.168885 -0.3054713 0.04954942
-0.23012792 0.09193993 -0.08737615 -0.08770267 0.010049098 -0.055632677 -0.4153921 -0.10742488
-0.31969717 0.09855179 -0.28597644 -0.25318876 0.06269727 0.010313119 -0.049900487 -0.13020691
0.052864105 -0.063804895 0.09862492 -0.23768881 -0.2273751 0.07438216 0.0410993 0.0009858747
0.029332161 -0.2422369 0.10833471 0.1121284 0.033922605 0.093246385 0.068575025 -0.032544952
0.029499965 0.39339277 -0.070951104 0.035744928 -0.131358 -0.14022556 -0.11504282 0.09104022
-0.07545778 -0.018340772 0.054558266 -0.5114251 0.34095496 0.12593734 -0.11687155 -0.006130816
0.003538146 -0.06507019 -0.0044115083 0.22181663 -0.37330905 0.27817932 0.056772232 -0.2197424
-0.087368615 0.009587415 -0.076043285 0.02120185 0.16336803 -0.82977766 -0.4765633 0.19476002

conv.2.bias f4 [32]
00000000: 9c8c d73c 55e8 413c 2898 55bd 3c55 86bd
00000010: 1b6c b7bc ee52 c8bd bca8 d43d 42de 93bd
00000020: a7ee bebd 9dc6 64be 5545 99bc cfb6 343e
00000030: 1bf5 09be a4c6 d73d 22c5 c63d 65a3 bebb
00000040: 7a29 4b3d e70d 973d a83a ff3d 4ba7 d5bd
00000050: 1e1e a1bd 2bb9 a13c f8d2 36bd 5239 11be
00000060: 0197 84bc 634b 123e a85f 1ebd 95ab fabd
00000070: f62c 0fbd facd 1a3d fcac fabc c4bc aebb
0.026312165 0.011835177 -0.05214706 -0.06559226 -0.022390416 -0.097814426 0.10383746 -0.07220127
-0.09322863 -0.2234139 -0.018709818 0.17647861 -0.13472407 0.105359346 0.09705569 -0.005817818
0.049600102 0.073756985 0.1246236 -0.10432299 -0.078670725 0.019741615 -0.04463479 -0.14182022
-0.016185286 0.1428657 -0.038665444 -0.12239758 -0.034954987 0.03779409 -0.030600064 -0.005332561

conv.4.weight f4 [64, 32, 6, 6]
00000000: 3701 49bc 0fd1 6dbd 9ef2 7d3d f4fc 7bbc
00000010: 0a8e 173d ebdb 7fbc e468 f8bc 8386 253d
00000020: 2e2f ef3c e14d e23c 3470 88bc 33ea 0b3d
00000030: 9454 a939 2bbb d23c 9961 c7bc 2fb2 30bd
00000040: 395d 01bb cf39 c43c d3e5 893c dd05 a13d
00000050: f616 373b 6693 42bd e635 44bd 9b2e 993d
00000060: 18db f23c 14d8 433b 2f65 6cbd ef44 123d
00000070: 059e f1ba cfa7 ecbb 065f 3a3c 7235 89bc
00000080: e9a2 09bd ba84 8d3b cf26 27bd 8185 b3bb
00000090: 09f2 06be 7ef4 60be 06ce ca3c 9bac 14be
000000a0: 1239 85be 61dd 7dbe afb7 5cbd 73ec 9dbd
000000b0: faa8 c03c 8a43 b7bd d1d3 95be 65f6 db3d
000000c0: 472a 2ebe 325c fc3b 6f50 a1bd 4e2a 833c
000000d0: efa7 a0bd 2c1b febd 2770 16be 2908 3dbe
000000e0: 9489 2dbe 4634 3fbe edf5 39be 2164 90bd
000000f0: 91e9 6bbd 9acc 6ebe 9728 6cbe 8bc7 1abe
00000100: 4d73 28be 8c96 f4bc 46a8 9abd 418c 68bd
00000110: edf2 c1bb 443c f3bd fb31 7ebd 79e3 98be
00000120: 2e6a 9c3c f604 1ebc b4e5 8c3c a9d1 443c
00000130: 7b40 033d 6e9a 7c3c 14a8 a1bc b6ee 3c3b
00000140: 9285 3d3c 3bcc df3c e531 523c 604b 883c
00000150: 6394 aebb ce10 3b3a 9e50 80bc 8571 9f3c
00000160: 0b0e be3c daaa 4abc 12a7 d1bc e4db b73c
00000170: e6c6 fabc b21f 683c f055 07bd cdac 5cbc
00000180: a305 4dbc 520d e03c b9db a2bb 8066 d03c
00000190: f53f 0c3c b2cb 073d 58ab 9d3c b512 b53c
000001a0: 13d0 d13c 0449 0fbc b3b9 04bc b34a 9e3b
000001b0: edcb a53d 5058 6a3d dfd6 993d 91a1 dfbc
000001c0: 7f22 10be 4c73 f23c eb4a babb e30c cc3d
000001d0: cdeb 53bd 1d58 76bd c74f 863d 7472 8bbe
000001e0: 19cd f43c 9dd0 1a3d 4560 64bc 2ab9 ddbc
000001f0: 6d3d d03d 9879 b13d 4a8b 963d cb77 33bd
00000200: 2405 013c 85a9 ebbc 2267 a23d 6c6c d73d
00000210: 6346 e03d 0637 2a3e 3fa5 c73d dee5 34bc
00000220: 87a0 153e 1df8 81be c13f 473d 0647 c5bd
00000230: a2e9 57bd 8bf0 56bd e69a 2b3e fcc2 10be
00000240: 8b96 15be 12f3 81be c7d2 efbc fb12 e8bd
00000250: 8c08 99bc cf3d 22bd e269 113d 4bb4 c33c
00000260: 9d17 aebe 7991 31be 5ed8 b4be 538c 20be
00000270: fe67 efbd 618e 45bd c3e2 32be d4cd 09be
00000280: 6f78 13bd 6752 4abe b199 b33c ca9c 7dbd
00000290: cb99 41bd 714b c9bd 63f3 90be e50e 2cbd
000002a0: 7364 bb3d 4a14 2dbd c442 07bd 6977 7bbd
000002b0: 8d2a 99bd 20d3 fb3b 3c2f 50bd a7e9 9abd
000002c0: d8c7 143c 6b1c ebbd b0ea 82bd b18b 95bd
000002d0: be01 bc3c f46b 8fbc f09e 523c 8113 9d3c
000002e0: 1c4b 98bc 2c83 803c 9e06 c93b f5e2 99bc
000002f0: cbc8 08bc 5825 14bd 9a04 913c d8b9 b33b
00000300: dfdd 353c 0007 b13c 709a 743c f946 ef3c
00000310: d133 733c 4659 afbc fe89 0a3d 2000 393c
00000320: 192c 0abc 6c54 25bc 45e2 fa3c 8f6a 323c
00000330: c619 7a3c b6a3 eebb 57c7 a03c 4631 f3bc
00000340: 26b2 01bb 9c4b f83b 13f2 63b9 19db 993c
00000350: b02f e0ba 6816 9d3a 88ac a43c 4039 48bc
00000360: f908 9d3c bba1 643d 4602 873e 86ee 223e
00000370: d25b b23d 1a79 d63d 5014 f73d f126 ed3d
00000380: 9c65 423e c262 803e 1d49 2b3e 5161 6c3e
00000390: 1153 4f3e 577c 883d 1bed 803e 44ef 073e
000003a0: 7862 a43d a34c 053e d4b3 9bbb fc95 8bbc
000003b0: 0235 f33d a784 283e 824c 943d df38 333d
000003c0: a72e 3fbc 3967 ca3d 7406 3e3c bdee dc3d
000003d0: 547c e73b b2c6 683d 3ce7 81bd 20dd f1bd
000003e0: 368e af3d 46cd f23d 2ee6 9ebd 1a14 d8bd
000003f0: 5c49 843c 73f0 8a3c d6d8 67bc b474 ba3c
-0.012268356 -0.058060702 0.061998956 -0.015380133 0.037000693 -0.015616397 -0.030323453 0.040411483
0.029197302 0.027625026 -0.016655065 0.034158897 0.00032297208 0.025724014 -0.02433853 -0.04313868
-0.0019739403 0.023953347 0.016833222 0.078624465 0.002793727 -0.04750385 -0.047902964 0.074795924
0.029645488 0.0029883431 -0.057713684 0.03571027 -0.0018433934 -0.007222153 0.011375194 -0.016749118
-0.03360263 0.0043188008 -0.040808495 -0.0054785614 -0.13178267 -0.21968266 0.024756443 -0.14518969
-0.26020104 -0.2479148 -0.05388611 -0.07711115 0.023518074 -0.08948429 -0.29263166 0.107403554
-0.17008315 0.00770142 -0.078766696 0.016011383 -0.07844531 -0.124075264 -0.1469122 -0.18460144
-0.16947013 -0.18672284 -0.1816022 -0.07050348 -0.057595793 -0.23320237 -0.23062359 -0.15115182
-0.16450234 -0.029856943 -0.07551627 -0.05677438 -0.0059188516 -0.11876729 -0.062059384 -0.29861048
0.0190936 -0.0096447375 0.017199375 0.0120128775 0.032043915 0.015417678 -0.019733466 0.0028828806
0.01156749 0.027319064 0.012829279 0.016637504 -0.0053277477 0.0007135988 -0.015663441 0.01946331
0.023200056 -0.012369836 -0.02559236 0.02244372 -0.03061242 0.014167713 -0.03304094 -0.013468933
-0.012513551 0.027350102 -0.0049700406 0.0254395 0.00856017 0.033153243 0.019246742 0.022103647
0.025611913 -0.008745436 -0.008100915 0.004830682 0.080955364 0.057213128 0.075116865 -0.02729872
-0.14075659 0.029595993 -0.0056852004 0.099633954 -0.05173855 -0.060142625 0.06558185 -0.27235758
0.029882954 0.037796605 -0.013938968 -0.027065832 0.10167966 0.0866577 0.07350786 -0.043815415
0.007874761 -0.028767357 0.07929827 0.10518727 0.10950925 0.16622552 0.09748315 -0.011041133
0.14612018 -0.25384608 0.048644785 -0.09632687 -0.052713044 -0.052475493 0.16758308 -0.1413688
-0.14608209 -0.2538076 -0.029275311 -0.11331745 -0.018680833 -0.039609727 0.03550137 0.023889681
-0.3400239 -0.1734065 -0.35321325 -0.1567853 -0.11689757 -0.048231486 -0.17469315 -0.13457423
-0.036003526 -0.19757996 0.021923872 -0.061917104 -0.04726581 -0.098288424 -0.2831069 -0.042006392
0.091500185 -0.042255677 -0.033022657 -0.061393175 -0.07478819 0.00768508 -0.050826296 -0.07564097
0.00908085 -0.1148003 -0.06392419 -0.07302035 0.02295005 -0.01750753 0.012855276 0.01917434
-0.018590502 0.015687548 0.006134822 -0.01878498 -0.008348654 -0.036168426 0.01770239 0.005484801
0.0111002615 0.021609783 0.014929399 0.029208647 0.014843897 -0.021404874 0.033823006 0.011291534
-0.008433365 -0.0100909285 0.030625472 0.010889663 0.015264934 -0.0072826995 0.019626303 -0.029686581
-0.0019790023 0.0075773727 -0.00021738587 0.018781232 -0.0017104056 0.0011984827 0.0201018 -0.012220681
0.019169318 0.0558183 0.26368922 0.15911302 0.087089196 0.10472317 0.12064421 0.11579693
0.18984073 0.25075346 0.16727109 0.23083998 0.20246531 0.06664341 0.25180897 0.13274866
0.08026594 0.13017516 -0.004751662 -0.017039292 0.11875345 0.16456853 0.07241155 0.04375541
-0.011668838 0.098829694 0.011598218 0.10787723 0.0070643816 0.056830116 -0.063429326 -0.11809754
0.085720465 0.11855559 -0.07758747 -0.10550709 0.016148262 0.016960358 -0.014150819 0.022760727

conv.4.bias f4 [64]
00000000: 9985 9ebd 8055 173d 0512 1bbe 1821 9abd
00000010: b181 0a3d d52e c6bd f8f4 afbc aabf 65bd
00000020: 5c13 c6bd 5fe1 09bd ec11 24bd 7e2b 43bd
00000030: f6fc 1cbd 35d3 22be 89cd f4bd eb9e a8bd
00000040: ce80 d1bd 4eb3 013e 0b88 5cbd 4a6d 31bd
00000050: 8b56 fabd ff47 8fbd 1428 883e 6aa1 aabd
00000060: b81a b6bd 5479 08be a619 eebd 88db e0bd
00000070: 8826 e1bd 1f11 05be bc68 9cbd 31cf f33d
00000080: a077 ecbd 1c43 693e 73b2 5abc 9bb3 d1bd
00000090: 9e1a 88bd 1b70 183e 20b3 b9bd d99b 39bd
000000a0: a061 20be a220 03be 0d6d 51bd 97ab 57be
000000b0: 04f6 59bd fbeb 7fbd b3be 483e 5928 26be
000000c0: e457 6fbd 60e3 a5bd 9aab 86bd 90f1 f9bd
000000d0: 6647 49bd c3e9 a7bd 1100 2dbd ab50 f8bd
000000e0: bc70 54be d2d7 85bd 8430 89bd 5c41 db3d
000000f0: d3f1 0cbe a39c fabc 0bc1 f9bd 553d 8ebd
-0.077403255 0.036946774 -0.15143593 -0.075258434 0.03381509 -0.09676901 -0.021479115 -0.05609099
-0.09671661 -0.033662196 -0.040056154 -0.0476489 -0.03832718 -0.15900882 -0.11953265 -0.08233436
-0.10229646 0.12666056 -0.05384068 -0.043317117 -0.12223538 -0.06996154 0.26593077 -0.083315685
-0.08891815 -0.13327533 -0.11625986 -0.10979372 -0.109936774 -0.12994812 -0.07637164 0.11904753
-0.11546254 0.22779506 -0.01334821 -0.10239335 -0.06645702 0.14886515 -0.090673685 -0.045314644
-0.15662241 -0.12805417 -0.05112939 -0.2106155 -0.053213134 -0.062480908 0.19603996 -0.16226329
-0.05843343 -0.08100009 -0.06575699 -0.122042775 -0.049140356 -0.081988834 -0.04223639 -0.12124761
-0.2074613 -0.06535305 -0.06698707 0.10705826 -0.13764124 -0.030592268 -0.12195023 -0.06945292

fc.1.weight f4 [64, 1600]
00000000: 3bfb b53b beab f8ba 67ab 89bc 759e 8f3c
00000010: 5664 d73a 1a45 c6bc e919 09bc 7243 1d3c
00000020: 5029 a23c eb63 30bb cb89 b3bc 9793 993c
00000030: cce3 11bb f2bc aebc eaab 7fbc b9d5 c8bc
00000040: d379 45bc 37b6 a5bb cd5b a0bc 2ef5 cabb
00000050: 9125 8abc 40a2 29bc 50f4 3b3a e13d 57bc
00000060: 2577 02bc 96d3 b2bb bc30 8e3c c64b 433c
00000070: 5fb1 893c ae5b 223c 9fe8 ae3c e156 39bc
00000080: c2cf a83c 0475 89bc 7efd 383c 464c dc3b
00000090: f593 8ebc 8fee be3b 0163 47bc 5b7f 263c
000000a0: ff4e b0bc d1d5 f3bb 5380 b73c 0503 bfbc
000000b0: ce4f 1c3c 1b53 59bc ee76 9d3b ca3e 0ebb
000000c0: 1246 e6bb f4dc 943c 0e10 a13c 04db 9a3c
000000d0: 6c25 65bc 6e54 d23c cfc8 443b 2006 8bbc
000000e0: b9ae c2bc 78a0 33bc 8f47 ea3c 3eb8 9dbc
000000f0: 5db8 3e3c b5d7 1ebc fc0a b63c c3b0 f3bb
00000100: 1ecd 96bc a5f0 2a3c baf8 83bc be88 07bc
00000110: 800f 8bbc ab1c b2bb ae01 f23a 622e a43c
00000120: 803f f2bb fa20 f73c 4ec0 b13c 4da8 ed3b
00000130: c14d 5f3c 12bb 4d3b 3fa8 04bb bdfd 773b
00000140: 654c 3abc 966f a33c 81dd 1bbc 6f98 aabb
00000150: 8e09 e8bb 60ed b1bc 3c55 21ba 3845 a4bc
00000160: 6156 043c 33ec 553b 5827 aebc 0f0b 373c
00000170: c790 b8bc 22f9 1b3c 956d 733b a8de 2c3c
00000180: b791 b2bc 0b2e 53ba 73cb eeba 625e db3b
00000190: 12db 213c ac84 c4bb 2dca 1ebc b579 c03b
000001a0: 60f1 87bb 5309 5dbc 82a9 5a3c d0c5 9d3b
000001b0: 8744 ae3c 61b5 b03b c9d7 e0bb 150c a83b
000001c0: 4cdc eebb a6e5 b23c 2beb a83c 137b a73c
000001d0: c97f ddbc 7a69 283b 0444 043c fd71 cfbc
000001e0: a808 eebb a70d ed38 8f5b 47bc c5f0 9a3b
000001f0: da52 9ebc 03b4 93bb 0ac1 5c3c 5eb9 e3bc
00000200: ba6b 08bd e77b cbbc eddb b13b d0ae 28bc
00000210: b133 cc3b 4362 9f3c 475e a3bc 0baf 423c
00000220: 3afc 92bc f66e 98bb 902e 82bc fe06 b2bb
00000230: e8ba 0a3c 9d8c 973c 66d0 af3c 07cd 933b
00000240: 85de 9b3b cd26 08bb 0dc7 c7bc d5af 86bc
00000250: 098d 7f3a 8c00 31bc 864b 06bd 0801 953b
00000260: 1cae 08bb 0872 77bc 1428 3cbc febd c1bc
00000270: ca5f 30bd 2cf0 90bc c1a8 27bd b578 1abd
00000280: ab86 b3bc 1c9d 1bbd b097 b9bc ebcd 8cbc
00000290: fe7e 973a b936 a7bc 8e4b 8e3b 694d debc
000002a0: 2f0b 02bd 494e 16bd 9890 38bc 5514 09bc
000002b0: a10c 0bbd 73c5 0cbd 938b 343b d13b 9f3c
000002c0: 80ce eb3b 8187 c8bb 9838 d4bc 7e3e 573c
000002d0: e2f5 b8bc 598d a3bc d05f 84bb bf01 00bd
000002e0: 705a fc3a c2f7 6b3c 37e2 803c 447f 043c
000002f0: b18f a6bc 1e18 8b3a eb72 9dbb 3229 ad3c
00000300: e26b e7bc a001 30bc 2769 cfbc d18a f03b
00000310: fb3b 793c 92b6 ea3b 9818 1a3b e76f a93b
00000320: 985b 073c ca59 3f3c acd4 abbc c6db 76bc
00000330: 8893 8dbc 69ec 61bb 646d 3f3c 711c e5bc
00000340: 37e5 353c 7062 afbb b114 c43c 64c7 6c3c
00000350: 0ac8 e1bb 7ca1 95bc a526 09bc 712b 443c
00000360: 89c5 5f3c 4bf1 4d3c 7385 863b 79bf 8d3c
00000370: b1a9 afbc 1259 5abc 0c3f 91bb e604 85bc
00000380: ef64 bdbc 3255 043a c678 1dbc c427 403c
00000390: 9d3b a83b c6a0 58bb 8a45 f139 873d 91bc
000003a0: fbc4 94ba 3273 57bc fd02 f2bb 4673 b03c
000003b0: 7894 5fbc 698e 863b 5d09 1dbc 7c25 883a
000003c0: 8cea 77bc 318f 28bb 55f3 84bb c507 51bc
000003d0: 6985 d33a ee69 46bc 03f8 c7b9 fd8e 013c
000003e0: f925 d1bb 347a 3c3c 325d cc3b 2875 053c
000003f0: 3fdf 0fbc 897a 253c f27e f639 3d9a 3cbc
0.0055536306 -0.0018972082 -0.016805364 0.017531613 0.0016433101 -0.024202872 -0.008367994 0.0095986
0.01979509 -0.0026915025 -0.02191629 0.018747134 -0.0022261022 -0.02133033 -0.015604952 -0.024515973
-0.012052971 -0.005057122 -0.019575024 -0.0061937785 -0.016863616 -0.010353625 0.0007169889 -0.013137312
-0.007962977 -0.005457352 0.017357223 0.011919921 0.01680821 0.009909553 0.021351157 -0.011312217
0.02060688 -0.01677943 0.011290906 0.0067229597 -0.017404536 0.0058267782 -0.0121696 0.0101622
-0.021522043 -0.0074412604 0.022400057 -0.02331687 0.009540511 -0.013264443 0.0048054373 -0.0021704906
-0.007027396 0.018171765 0.019660976 0.018903263 -0.013985973 0.025675025 0.0030026918 -0.016970694
-0.023764955 -0.010963552 0.028598575 -0.019252893 0.011640635 -0.009694983 0.022222035 -0.007436843
-0.018408354 0.010433351 -0.016109813 -0.008272348 -0.016975164 -0.0054355464 0.0018463635 0.020041648
-0.0073928237 0.030167092 0.021698143 0.007252729 0.013629378 0.003139202 -0.0020241884 0.0037840449
-0.011370753 0.01995067 -0.00951326 -0.00520616 -0.007081217 -0.021719635 -0.00061543635 -0.020052537
0.008077235 0.0032642006 -0.021258995 0.01117207 -0.022529973 0.009519847 0.0037144173 0.010551132
-0.021797998 -0.0008055872 -0.0018218592 0.006694601 0.009878891 -0.005997261 -0.009691757 0.0058738836
-0.004148647 -0.013490993 0.013346078 0.004814841 0.02127291 0.005392716 -0.006861661 0.0051283934
-0.007289445 0.02183802 0.02061995 0.020444429 -0.027038472 0.0025697635 0.008072857 -0.025322909
-0.0072642155 0.000113035836 -0.012167825 0.004728409 -0.019326616 -0.004507543 0.0134737585 -0.02779835
-0.03330586 -0.024839355 0.0054278285 -0.010295585 0.006231748 0.019456035 -0.019942416 0.011882554
-0.017942537 -0.0046518994 -0.015891343 -0.0054329624 0.0084674135 0.018499667 0.021461677 0.004510525
0.004756751 -0.002077508 -0.024386907 -0.016441265 0.0009748494 -0.010803353 -0.03278687 0.004547242
-0.002085573 -0.015102871 -0.011484165 -0.023650166 -0.0430601 -0.017692648 -0.04093242 -0.03771277
-0.0219148 -0.037991628 -0.022655338 -0.017188033 0.0011558232 -0.020411836 0.004342503 -0.027136521
-0.031748947 -0.036695752 -0.011264943 -0.008366664 -0.03394759 -0.03436799 0.0027549013 0.019437702
0.0071962476 -0.006119669 -0.025905892 0.013137458 -0.022578184 -0.01996486 -0.004039742 -0.031251665
0.0019253027 0.014402332 0.015732868 0.008086983 -0.02033219 0.0010612046 -0.004804959 0.021137808
-0.028249685 -0.010742575 -0.025318695 0.007340767 0.015212054 0.0071628774 0.0023513194 0.0051708105
0.008261584 0.011679122 -0.020975433 -0.0150670465 -0.017282262 -0.0034473187 0.011683796 -0.027967663
0.011102012 -0.005352311 0.023935648 0.014451835 -0.0068903016 -0.018265478 -0.00837103 0.011973248
0.013657936 0.012569736 0.004105264 0.017303215 -0.02144322 -0.0133269 -0.0044325646 -0.016237687
-0.023119418 0.00050480955 -0.009611314 0.011728231 0.0051340596 -0.0033054813 0.00046018913 -0.017729534
-0.0011350209 -0.013150023 -0.00738561 0.021539342 -0.013646238 0.004106332 -0.009584752 0.0010387148
-0.015131604 -0.0025720114 -0.0040573278 -0.0127582 0.0016137782 -0.012110217 -0.0003814102 0.007907626
-0.0063827005 0.011503745 0.0062366957 0.008145608 -0.008781253 0.010100015 0.00047015358 -0.011511383

fc.1.bias f4 [64]
00000000: c80c 4a3c 4cbd f1bc 272c 0abd 0280 fa3b
00000010: 8ada 1b3e e786 973d ca46 a3bc c611 17bc
00000020: ec6c 673c 3070 0d3e 3bfc b53d 9cf3 343e
00000030: ef12 013c c7b6 a03b ec2b de3d 2582 f03e
00000040: 8ca6 14b9 b2fa 583d 4c79 10bd f7a5 debc
00000050: 2658 92bc e4d5 2b3b e7c3 c8bc 38bb 563d
00000060: 219a 373c f984 b5bc 2e3f eebc 80b9 edbd
00000070: 9033 153d cc8b ae3d 22d9 1c3b d85b e7bc
00000080: 3141 08bc c6b7 073e d999 adbb fea3 513e
00000090: b368 46bc 0982 0f3e 5857 7a3c 6aca 1cb9
000000a0: 6435 efbc cfba bd3d 3562 893b 5d7a 633d
000000b0: 828b 2d3d b9ec 003b b733 a6bc 4f41 27bb
000000c0: 1d74 84bc 9656 5fbc a2d5 f239 60db 61ba
000000d0: 84cb 2b3e 83a0 1d3e 7ae4 3c3b 21e2 823c
000000e0: 7343 95bc 52cb 0ebd f0fe 2dbd 64e8 493e
000000f0: 18e7 a2bb 01b6 b8bc 2112 2e3a c52d ec3d
0.012332149 -0.02950921 -0.033733513 0.0076446543 0.15220085 0.073987775 -0.019931216 -0.009220546
0.01412509 0.13812327 0.08886 0.17671055 0.007878049 0.0049046013 0.10848221 0.46974292
-0.00014176423 0.052973457 -0.035271928 -0.027178748 -0.017864298 0.0026220018 -0.024507476 0.05242464
0.011206181 -0.022158133 -0.02908286 -0.11607647 0.036426127 0.08522758 0.0023933132 -0.028242037
-0.008316324 0.13253698 -0.005297881 0.20472714 -0.012109923 0.14014448 0.015279613 -0.00014952724
-0.029200263 0.092641465 0.0041926154 0.055536617 0.042369373 0.0019672348 -0.020288331 -0.0025521105
-0.016168648 -0.013631484 0.00046317006 -0.0008615758 0.16776854 0.15393262 0.0028822706 0.015976967
-0.018220639 -0.03486187 -0.042479455 0.19717556 -0.004971396 -0.022547724 0.00066402747 0.11532167

fc.3.weight f4 [4, 64]
00000000: 9b01 843c fbbe 753d d04c 3d3c 6212 9c3d
00000010: 3c24 63be 9eac 273e bd06 9d3d fc19 bebd
00000020: ac2d bf3d dafd 263d bae6 d83d 5f36 3bbf
00000030: 1028 993d 0554 753d 229c 61bf 21ec ac3e
00000040: 198f 3c3d 5ab7 40be fc9f cf3d 1e79 fe3c
00000050: c9c1 a43e c1b5 943c 2eee 7bbd 6b66 5fbe
00000060: 809f 7fbc 8405 0fbc 128f d5bd 1059 0fbd
00000070: 660b 123d db74 203e 274a 883d eb3f 583c
00000080: bf79 a53d a690 17bf e5f4 d1bd a80a 073e
00000090: 204c 293d a12c 30be f2fe 16bc 71fb 7d3e
000000a0: c20e 1f3d 4fa6 48bd ed25 2bbd 9872 413e
000000b0: 7b9e 65be 8896 86bd 6e1a d93d 5de4 f03d
000000c0: ef90 2b3d 87ce 973e 255e 363d 8d80 35bd
000000d0: a43d 88bf e79d 15be 124e 03bd c970 c83d
000000e0: 250a e4bc fcaf 5e3d a099 aabd 9d11 3bbe
000000f0: a327 bb3c b8b7 84bd 02ee d53c efff b33d
00000100: 2d25 2abc 192f c1bc 2175 da3d 3c1c a9bd
00000110: 9358 0bbe f289 263e d67e 86bd d4ba b93c
00000120: 54b9 debc e54e 503e 7be0 71bf 33bf 82bd
00000130: c5cc d63c ff78 30bf 0c6b 213e 8212 9c3e
00000140: b26f 80bc 0418 51be e88b 023d f8cc 603d
00000150: 5e8c 993d c0da 923d 61dc fe3d d598 3bbe
00000160: c1e6 323d c85a aebd 7094 a93d 5627 9c3b
00000170: d5aa 84bf 7eae a6be 5bae d23d 34b8 bcbd
00000180: c7ce 2d3c de52 f13c 3401 ea3c f235 7ebd
00000190: f76a 54bd f191 d1bd f6ba 09bc b065 253e
000001a0: f9d9 debd b93b b2bb 72a3 fa3a e585 343e
000001b0: 7025 633e f077 6ebd bce1 02bd a12a e4bd
000001c0: 5e5f 81bd 333c b33d a041 ea3d 60c4 7fbd
000001d0: e554 ce3d 6b14 c5bd 12a3 a8bd 615a 7fbb
000001e0: cb4a c4bc 20d7 87bb 8720 5fbd 86e2 0b3e
000001f0: bb92 333d beda d63d 61a3 9f3d f516 18be
00000200: 81e1 c7bc 3820 82bd ba50 823d 8823 9f3d
00000210: 8565 87be 2b8a ce3e f5a5 d63d c773 353c
00000220: cd0d f23d f19e bbbe 7b7b 313d 1aaf b03e
00000230: 92c6 a93d 85d2 593e f30b 113e 7b91 8f3e
00000240: 7e6a 673d 054c c9be 50d3 af3d 3404 c83d
00000250: 9d6f 8b3c d9f2 3b3c 0f36 8c3d dd30 0f3e
00000260: a6ed 863d be73 6b3c 4b2b d63c fcac a53f
00000270: 6d7e a13d df0e 0b3e 63f2 c73d 866e a9bd
00000280: 615e b9bd 8bb5 a9bc 8fd2 3d3d 6ac2 73bf
00000290: 7680 72bd 08c6 47be 66a4 7d3d d7bc 24bf
000002a0: f07e c43d 57e2 a7bd 676c 363d 39e5 493e
000002b0: 3d41 903d bc27 5bbd 724f ba3d 69e0 a43d
000002c0: 8f18 18bc 3007 5fbe 33cb 24bb 88f4 3f3d
000002d0: 80a2 20be 8a98 8cbd 481b b8bc aef9 2e3c
000002e0: a759 c1bd b841 cd3d bc2d 4b3d f19c 50bf
000002f0: d17c 453d 44d3 473c 944a 0a3e 7b27 9bbe
00000300: bcb1 1dbc fd27 c6bd 650c 21bd ea2c 5cbd
00000310: b5a4 8e3d 0842 8e3d 5480 50bd e268 9d3d
00000320: 8234 bbbd 53b3 8fbd e11f 89bd 3ab3 12be
00000330: 73ce c6bd 0feb 963e 1e8d 613e 33c5 833e
00000340: 4ab4 43bd bc5b b2be d81c 113c 5acd e1bd
00000350: 96f1 b7bd 1cf3 75bd 14da 9abd 20ee 8cbe
00000360: 329d 143d 88b7 ecbc 0532 4fbd 56e2 913d
00000370: 0384 5b3c 8c68 c73e 914d d9bd 9eeb ea3d
00000380: d4ef f53d d825 41be 41dc 3f3c 5065 a2bd
00000390: b29f a3bd 906d 71be 751d f1bb b0e2 4e3e
000003a0: 3066 7cbd 2224 93bf 3621 a33d d6f9 9fbf
000003b0: eb16 913e fc3e 0d3e 25b2 1f3d 0140 f5bd
000003c0: 8fda f53d ad90 1a3e e513 22bd 0b7b 9abc
000003d0: 331c 783e deba 9dbe a4df f43c baf0 e2bb
000003e0: 0235 dcbd cef2 f33d ea63 a63b 0b72 183d
000003f0: 7550 df3d 0467 1bbd b479 93bd 4415 f13d
0.016114047 0.059996586 0.011553958 0.07620694 -0.22181791 0.16374442 0.07667301 -0.092823
0.09334883 0.040769435 0.105908826 -0.7312984 0.074783444 0.05989458 -0.88128865 0.33773902
0.046034906 -0.18819943 0.101379365 0.031063613 0.32179096 0.018153073 -0.061506443 -0.21816413
-0.015601993 -0.008729342 -0.10427679 -0.034997046 0.0356554 0.15669577 0.066547684 0.013198833
0.08079862 -0.5920509 -0.10251788 0.13187659 0.041332364 -0.17204525 -0.009216057 0.24802949
0.038832434 -0.04898673 -0.041784216 0.1889137 -0.22423737 -0.0657168 0.10600744 0.11762307
0.041886266 0.29649755 0.044523377 -0.04431205 -1.0643811 -0.14611016 -0.032056876 0.09787137
-0.027836869 0.05436705 -0.08330083 -0.18268438 0.022846049 -0.06480354 0.026114468 0.0878905
-0.01038484 -0.023582028 0.10666872 -0.082573384 -0.13608007 0.1626356 -0.06567161 0.022672094
-0.02718798 0.20342596 -0.94483155 -0.063841246 0.026220689 -0.68934625 0.15763491 0.3048287
-0.01567826 -0.20419317 0.031871706 0.054882973 0.07497476 0.071706295 0.12444378 -0.1832002
0.043677095 -0.08513409 0.08280265 0.0047654314 -1.0364634 -0.32555002 0.10287162 -0.092148215
0.010608382 0.02945846 0.028565027 -0.062063165 -0.051859822 -0.10232914 -0.008406391 0.16152072
-0.10881419 -0.0054392484 0.0019122197 0.17629202 0.2218225 -0.05821985 -0.03195356 -0.11140943
-0.06317018 0.087517165 0.11438298 -0.062443137 0.10074786 -0.09623035 -0.08234228 -0.0038963782
-0.023961445 -0.004145518 -0.05447438 0.1366063 0.043841105 0.104909405 0.07794834 -0.14852507
-0.02439952 -0.063538015 0.063630536 0.07770449 -0.2644464 0.4033979 0.104808725 0.011074967
0.118190385 -0.366447 0.04333065 0.34508592 0.082898274 0.21271713 0.14164715 0.2804068
0.056498043 -0.3931581 0.085852265 0.09766427 0.017020995 0.011471474 0.06846248 0.13983484
0.065882966 0.014370857 0.02614369 1.2943416 0.07885442 0.13579892 0.097630285 -0.08273034
-0.090512045 -0.02071645 0.046343382 -0.9521853 -0.05920454 -0.19509137 0.06192436 -0.64350647
0.09594524 -0.08197468 0.044536974 0.19716348 0.07043693 -0.05350469 0.09097184 0.08050615
-0.009283199 -0.21780086 -0.002514553 0.046864063 -0.15686989 -0.06865032 -0.022473946 0.010679645
-0.09440928 0.100223005 0.049604163 -0.81489474 0.048214737 0.012196366 0.13505012 -0.3030356
-0.009624895 -0.09675596 -0.03931846 -0.05375377 0.06965009 0.06946188 -0.050903633 0.076860204
-0.091408744 -0.07016625 -0.066955335 -0.14326182 -0.09707346 0.2947621 0.22026488 0.2573639
-0.04777936 -0.34835613 0.008856975 -0.11025496 -0.08981626 -0.0600463 -0.07561126 -0.27525425
0.036282726 -0.028896108 -0.05058481 0.07123248 0.013398173 0.3894695 -0.10610498 0.11470722
0.12008634 -0.18862092 0.0117102275 -0.0792948 -0.07989444 -0.23576951 -0.007358248 0.20203662
-0.06162089 -1.1495402 0.07965319 -1.2498119 0.28337798 0.13793558 0.03898825 -0.119750984
0.12004577 0.15094252 -0.039569754 -0.0188575 0.24229507 -0.3080663 0.029891796 -0.0069256695
-0.10752298 0.11911546 0.0050778287 0.037218135 0.10904018 -0.03794004 -0.072009474 0.11771634

fc.3.bias f4 [4]
00000000: a62c 873e 2257 873e 20ed 953e 7a79 bb3e
0.26401252 0.26433665 0.29282475 0.36616117
