models/v17.1/model_164500_target.pt (torch, 729952 bytes, 10 tensors)

conv.0.weight f4 [16, 2, 3, 3]
00000000: 196f 453e d503 bd3b a8d3 64bd 37a6 a93c
00000010: 7a62 bd3a 7215 b5bd 7c29 443b f211 3bbd
00000020: be67 df3d 3a71 4fbe 5727 6d3d e218 dc3d
00000030: b7a5 ba3c f04e 53bd d565 7c3d 2258 a53d
00000040: 8df2 c03d 4ca2 79bd 5a9b f13d 569e 873e
00000050: 2dfa 6ebd 10dc 53bd ea7b 76be 0a6f 0f3e
00000060: c3a3 28be d60e 50be af4f 03be 974d 4fbd
00000070: 40cf 0dbd 6967 21bc 7d94 bd3d 1051 a7be
00000080: 117d 043d 97bd 603e 2e16 c83d d496 2d3e
00000090: 1f7e 8c3d 90f1 953e 9675 ecbc 702a 673b
000000a0: 7187 c03d e58e 613e d181 2b3e 9339 d73e
000000b0: 9db9 2a3d 3275 94bd f470 a3be 8147 b83c
000000c0: 20ee 4b3c 3c36 96bd 1dcb 8dbe e383 10be
000000d0: 842a e1be 9eee bbbc c064 6a3c 5f0c c9bc
000000e0: 3c26 743d ad68 0dbd 8b9c 563c df0b 9dbf
000000f0: f63f 2c3c 3650 85bd df58 503c a706 97bc
00000100: b818 623a 51f2 83bd 92d3 0a3d 5ecc 3fbc
00000110: 819f d53d 5b44 50bc 506e 563d ed9c d9bc
00000120: ed62 c93c 1ed9 cbbd 22c4 03be 0de9 69bd
00000130: ab39 1ebe 4d11 1e3f 2ff4 b93a 7d72 19ba
00000140: a401 16be bc1c 48bc 3f03 9b3d 703a 043e
00000150: 103a 243d 87ac f23d 6779 993e a1b1 87bb
00000160: 46d4 f6bb fbc6 f63d 0b38 a73c bc90 98bd
00000170: b1e2 f13e 60a0 21bd f8a9 23bf cb03 17bd
00000180: aeff 393c 5aa5 0fbe 6acf b6bd cfea 2abd
00000190: 0e7a c03c 1fdd 0dbb 1c56 723d 0e8f 19bd
000001a0: f36d 393c caa9 a5bc 36a4 053e da43 963d
000001b0: e4c8 84be ba58 aabe 389f 25bb 4212 fc3b
000001c0: 4b63 8b3c 1e08 3ebf 52a7 b2be 863b c3be
000001d0: ed67 aebd 5549 803e 4dea a03e 3dee 3f3c
000001e0: 9ac1 bfbc ca1f f63c e64f 073f 8a84 5b3e
000001f0: 385c b43e ba0d f23c fcb3 e6be f3f3 11bf
00000200: 2b92 073d acf8 febd ba5e e43d 0487 f53d
00000210: 1aa3 8ebf 47e6 81bd dac8 4ebd b4af 713e
00000220: 3bae 743e c6d8 85bd a687 863c 43a1 bbbc
00000230: eeb9 9f3d 40ff 923e 17ce b63d 66a4 253d
00000240: 22b1 703d 8773 3b3d 7003 883c 279d 863d
00000250: b771 613e e987 59bb 5ac1 9fbe 7019 efbe
00000260: a689 f5be e922 94bd e604 a93d 8f32 2f3d
00000270: 6afa 303d 71d4 753d 39b1 003e 673d 02be
00000280: bcb8 7d3e e2a9 88bb 9f3f 103b 840f 3cbd
00000290: e499 0b3d 0683 963c 40d5 8bbd a963 ea3e
000002a0: a9e6 86bb 66f1 01be 0aaf b4bd 1d67 2bba
000002b0: df31 033d 86a0 abbc b9c7 79bc 0adc 943d
000002c0: 8190 fabe 3e70 9c3c 015d 073e 0110 8f3d
000002d0: 1878 c33c 8f14 92bc ce9b 1dbb 609a a2bd
000002e0: 50e0 103f f65b c3bd 216a 7c3c 0698 80bd
000002f0: ac56 2c3d 3769 52bc ee4a d33c e9f4 5839
00000300: 9700 9c3d 8c70 c43e 3ab0 9f3d 1c8a cabb
00000310: 675f 753d beca 7ebd 7fad bbbc cc38 493d
00000320: 7344 86bd 5a7e 0d3c b9e4 553f d149 293c
00000330: 4ba3 85bd 0383 003d 39ed 9fbd 9f80 383c
00000340: 3bf1 89bd d1ac 813d 418e f5bc 8b2d 9cbd
00000350: cfab 1ebd a52f 933d 33dd 3abd 8e0c 9a3d
00000360: f935 9fbd aa83 24be 8e11 acbd d9ee 93bd
00000370: 3af3 24c0 bac7 1e3c 7c13 d3bd e045 efbd
00000380: b8cb 07be f691 dd3d de1a c93d 6209 b23d
00000390: 322b 7b3d 98d7 143f 83df 8fbd 95c4 0a3e
000003a0: 6689 423d 1a60 2d3e 83d3 0fbd 65e6 71bd
000003b0: f8c2 83bd f6e7 99bd c5c6 c1be f4fe 6fbf
000003c0: d84f 373e 8fb4 e8bd 9b27 a4bd a97e 823b
000003d0: 7233 993d a89c f13c 6fb5 a5bc c4fc 923d
000003e0: 2d59 033f 28a8 db3d af48 0f3e 912e a53d
000003f0: 09aa 0cbf 81be 0fbf 0fb3 78bf f7b6 e8bd
0.19280662 0.005768279 -0.055865914 0.02070914 0.0014448904 -0.08841981 0.0029931953 -0.04567141
0.10908459 -0.20258036 0.057898846 0.107469335 0.022784097 -0.051588953 0.061620552 0.080734506
0.09421263 -0.060945794 0.11797209 0.26487988 -0.058344055 -0.05172354 -0.24070707 0.14007202
-0.1646872 -0.2031816 -0.12823366 -0.050611105 -0.034621477 -0.009851315 0.092568375 -0.32679033
0.032345835 0.21947323 0.097698554 0.16952068 0.06859993 0.2928586 -0.028864663 0.0035273097
0.094008334 0.22027166 0.1674874 0.42036113 0.04168092 -0.07248916 -0.31922114 0.022495033
0.01244691 -0.07334563 -0.27694026 -0.14112811 -0.4397775 -0.02294093 0.014306247 -0.024542032
0.059606776 -0.034523655 0.013098846 -1.2269248 0.010513296 -0.0650944 0.012716501 -0.01843579
0.0008624899 -0.064427026 0.033893175 -0.01170644 0.104308136 -0.01271161 0.052351296 -0.026564086
0.024583304 -0.09953521 -0.12867787 -0.05710702 -0.15451686 0.6174515 0.0014187152 -0.0005853547
-0.14649063 -0.012213882 0.075689785 0.12912917 0.040094435 0.11849313 0.29975435 -0.004141048
-0.007532629 0.12049671 0.020412466 -0.07449481 0.47243264 -0.039459586 -0.63931227 -0.03686885
0.011352463 -0.1402792 -0.0892628 -0.041727837 0.0234957 -0.002164669 0.05916415 -0.037489943
0.011317718 -0.020222563 0.13050923 0.073371604 -0.25934517 -0.33270818 -0.0025271904 0.007692606
0.01701512 -0.74231136 -0.3489328 -0.3813135 -0.08515916 0.25055948 0.31428757 0.011714515
-0.023407746 0.030044455 0.5285629 0.21437278 0.35226607 0.029547561 -0.45059192 -0.5701286
0.03309838 -0.12449774 0.1115088 0.11988643 -1.1143525 -0.0634275 -0.050484516 0.23602182
0.23894589 -0.06535487 0.016422104 -0.022904044 0.07799135 0.28710365 0.08926027 0.040439986
0.058762677 0.045764472 0.016603202 0.06572943 0.22016035 -0.003319258 -0.31202203 -0.46699095
-0.4795658 -0.07233221 0.082528874 0.042772826 0.043207563 0.060017053 0.12567605 -0.12718736
0.24777502 -0.0041706422 0.0022010577 -0.045913234 0.03408231 0.018373024 -0.068277836 0.4577916
-0.0041168523 -0.12689742 -0.088224486 -0.00065384974 0.032029983 -0.020950567 -0.0152453715 0.072685316
-0.48938373 0.01909649 0.13219072 0.069854744 0.023860976 -0.017832069 -0.0024049166 -0.07939601
0.56592274 -0.095390245 0.0154061625 -0.06278996 0.042074844 -0.012842468 0.025792565 0.00020690601
0.076173 0.38367116 0.077972844 -0.0061810147 0.059905436 -0.06220507 -0.022909878 0.04912643
-0.065560244 0.008636082 0.8355213 0.010332541 -0.06525286 0.031374943 -0.078089185 0.011261134
-0.06735464 0.0633179 -0.029975059 -0.07625874 -0.03873807 0.07186822 -0.04562111 0.07521926
-0.07773966 -0.16065851 -0.08401786 -0.07223291 -2.5773454 0.009691173 -0.10306451 -0.116832495
-0.13261306 0.108188555 0.09819578 0.08693196 0.06132049 0.5814147 -0.07025053 0.13551553
0.047494315 0.16931191 -0.035113823 -0.059057612 -0.06433672 -0.07514946 -0.37846962 -0.937484
0.17901552 -0.11362564 -0.08015367 0.003982384 0.074805155 0.029493645 -0.020228116 0.071771175
0.51307946 0.10725433 0.1399257 0.080655225 -0.54946953 -0.5615006 -0.9714822 -0.11363023

conv.0.bias f4 [16]
00000000: ceb1 c2bd 3304 8fbe 8cf7 06be 3411 0c3f
00000010: fcce 15bf d126 8cbe 2d09 abbb 4f39 3cbe
00000020: 8d83 cdbe 17f2 94bd 2850 2ebf 47ef d3be
00000030: 2889 9b3e 09de 7abe 800a 06bd cc09 28be
-0.0950657 -0.2793289 -0.13180369 0.5471375 -0.5851896 -0.27373365 -0.0052195997 -0.18381236
-0.40139428 -0.072727375 -0.6809106 -0.41393492 0.3037808 -0.24498762 -0.032724857 -0.16409987

conv.2.weight f4 [32, 16, 3, 3]
00000000: bee0 88bd 31ae 6b3c 4d59 1dbd 48f5 88bc
00000010: 86b4 8fbd a7b6 a7bc 9d04 a83d 4032 edbc
00000020: d31f c6bd 077e 8e3d 45d4 d13d 6492 ad3d
00000030: 7857 103e 5aa2 de3d 7e92 fc3c ac40 483d
00000040: 14ee 20bd 6d16 2ebd f1ba 333e a008 efbc
00000050: 9447 43bd ff2e 03bd 40c6 c5bb 2674 67be
00000060: 6b4e fabd 672f 79be a4f9 41be f969 5c3c
00000070: 05d1 1cbd 58b4 09be 8084 e93b 46c9 8fbd
00000080: 7802 9dbd 3e72 473d 7630 f2bd a0c1 b3be
00000090: 5c8c 933d 37f6 e73d 6d08 91be 70c7 12be
000000a0: 8e95 25be a641 abbe aa7e eb3d b793 f7bd
000000b0: 7286 37be 6f45 2d3d 2570 d93c 4ac8 b5bd
000000c0: d65e 253e e930 b73d 77e5 83be 4438 a33d
000000d0: 6cb3 8f3d f1ce 02be 0f4b 353d 1b6d 3a3e
000000e0: 875f 5e3c 9af6 1e3e 8065 3f3d d1a7 34bd
000000f0: aab1 8a3d 53f6 ab3c 86ed 34be b99f 45be
00000100: 9453 18bd d804 983c 860e 89bd 586d 8cbc
00000110: 73e1 2abd ec03 a1bd c9dd a5bd 522b 07be
00000120: 60d6 b63d a71e 893d f5d3 133d fab0 91bd
00000130: 76ff 173e 6460 04be fd2d ca3d b4f8 42bd
00000140: 3574 1ebe 7acc c43d 165b 71be 1fe3 2f3d
00000150: e72c de3d 5f59 1dbe d55a 21bd 3e46 2dbe
00000160: 8800 6abe 8495 983c d168 4a3d f4dd a3ba
00000170: 7397 02be 58a9 e5bc a9f3 de39 833a 17be
00000180: 0dc3 9bbd a73b fdbc eace 92bd a1bd 123c
00000190: 29df 03bc d533 97bd 4de1 16be caee 52be
000001a0: b4dd 11be e50d 00be 23e3 0dbe 4713 c43b
000001b0: 9f4f 533c bc75 2e3d 9b06 f13c 4ecb 09be
000001c0: d51e 11bc 27ff cb3c 09cf 09be ef88 19be
000001d0: 73e3 e6bc 5d77 b6bb 1d24 5e3c 6e21 523d
000001e0: cfd4 853d ce13 993c d10f b4bc 801f 15bd
000001f0: 30c4 2ebd 0b8d aa3c dbe8 a53c fad6 dfba
00000200: 6158 e9bb 925c 02bd 603f 34be cc00 c2bd
00000210: ab43 1bbd 7d87 2cbd 6b73 b23d 0b6e 06be
00000220: 81da 5abc 383e b5bd 68d0 d0bd 0540 da3d
00000230: b6f4 243c cf0e b5bd 1785 1abe 7881 8fbd
00000240: 1019 3b3e 2601 dcbd 6015 303e 782a 623d
00000250: e02a cd3d b8bc 9bbd 953b 76bc 97d2 633d
00000260: bf70 0ebd bdfb 153e 85ca ac3c 3402 793e
00000270: 9b53 44be 1009 553e 451a cf3d 5a4d 763e
00000280: 9681 32bd ef33 473d 0502 0b3d ab62 823e
00000290: 9423 473e e0b7 b23e 4d5b 60be 63b9 4fbe
000002a0: 53f1 b43e b663 6b3d dbf2 ad3d 961d 12c0
000002b0: df17 f53d 5f64 c2bd 0a76 4dbb f942 3fbd
000002c0: 61d4 ed3c 1dd8 bfbc 101f 48bd 428d 93bc
000002d0: e744 79bf b697 b63e 7f1a 9abc ff8d 133c
000002e0: 1c59 a93d 24b5 813d 8836 223d a393 36bd
000002f0: fbd2 f0bc 5176 60be e939 68bf 3691 c8bc
00000300: bb0f 98be f881 23bd 0613 44be f24a b3bd
00000310: ca70 52bd e89f 23bc b324 743d d316 ab3c
00000320: 953b e4bd d0b0 113e 3102 97bd e666 eabd
00000330: 1258 353e 2599 ee3b 1a9f 353c d999 033e
00000340: ee28 c9bd 6252 5fbe 5653 283e 9fa3 a6bd
00000350: eb2e 54be dff9 b23e 7e7f 95bd 45f0 da3d
00000360: 3008 183e 0f96 45be 8e71 493e 1256 6c3d
00000370: 1bb8 ae3e d326 6b3d f589 473e 9e85 203e
00000380: a327 04be e9dd 953d d1bd d6be bab4 78bd
00000390: 6d70 173e d1c9 363d a023 31be 1895 023f
000003a0: 1a7f 6a3d 862f c4bd 49ea b3bd 6f9b f0be
000003b0: 8ecb da3e b435 6c3d 302b 3cbe ae91 1b3c
000003c0: 9588 e7bc 63d0 10bd d51a 4e3b cd6f 073e
000003d0: 140b ffbe 785e 3e3e cc05 db3d 4bed a5bd
000003e0: 9575 1bbd 3f0e 53bd f9a1 1b3d ff39 123c
000003f0: 5098 983d 91b1 94bf 9cbe 29bf e88a 443e
-0.06683491 0.014384792 -0.038415242 -0.016718522 -0.07016854 -0.020472838 0.08204005 -0.028954625
-0.09674039 0.069576316 0.10245565 0.084751874 0.14095867 0.1087081 0.030831572 0.0488898
-0.03928955 -0.042501856 0.17551781 -0.029178917 -0.047675684 -0.03202724 -0.006035596 -0.22602901
-0.12221988 -0.24334489 -0.18942887 0.013453 -0.038285274 -0.13447702 0.007126391 -0.07020812
-0.076664865 0.048692934 -0.118256494 -0.35108662 0.07204506 0.11326259 -0.2832674 -0.14333892
-0.16170332 -0.33448523 0.11498769 -0.12088721 -0.1792238 0.042302545 0.026542732 -0.08876093
0.16149458 0.08944876 -0.25761005 0.07969716 0.07016644 -0.12774254 0.044261035 0.18205683
0.01357258 0.15523759 0.046727657 -0.044105355 0.06772168 0.02099148 -0.17668733 -0.1929921
-0.03718908 0.018556997 -0.06692223 -0.017141983 -0.04171891 -0.07862076 -0.08098943 -0.13200119
0.089276075 0.066952996 0.03609081 -0.07113834 0.14843544 -0.12927395 0.09872053 -0.047600463
-0.15474017 0.09609313 -0.23569903 0.04294121 0.10848408 -0.15366124 -0.039393265 -0.16921327
-0.22851765 0.018625982 0.049416367 -0.001250206 -0.12753086 -0.028034851 0.0004252468 -0.14768414
-0.07605562 -0.030912234 -0.07168372 0.008956344 -0.008048811 -0.07382933 -0.14734383 -0.20598903
-0.1424473 -0.125053 -0.13856177 0.0059837434 0.012897401 0.04259275 0.029422095 -0.13456461
-0.008857449 0.02490194 -0.13457884 -0.14993642 -0.028184628 -0.0055684284 0.013558415 0.051301412
0.06534731 0.018686201 -0.021980198 -0.036406994 -0.042667568 0.020819208 0.020252636 -0.0017077618
-0.0071211313 -0.031826563 -0.176023 -0.09472808 -0.03790633 -0.0421214 0.087134205 -0.13127916
-0.013357759 -0.08849758 -0.10196 0.10656742 0.010068109 -0.08840715 -0.15089832 -0.07007116
0.1827128 -0.107424065 0.17195654 0.055216283 0.100179434 -0.076043546 -0.015028854 0.055620756
-0.03477549 0.14646812 0.021092663 0.24317247 -0.19172518 0.20804238 0.101124324 0.24052945
-0.043580614 0.048633512 0.033937473 0.25465903 0.19447166 0.3490591 -0.21909828 -0.20285563
0.35340366 0.05746814 0.08493587 -2.2830558 0.11967444 -0.094918005 -0.0031350874 -0.04669473
0.029031934 -0.02341848 -0.04885775 -0.018011693 -0.9737076 0.3566262 -0.018811462 0.0090060225
0.082689494 0.06333378 0.039602786 -0.04457439 -0.029397478 -0.21920134 -0.90713364 -0.024483304
-0.296995 -0.03991887 -0.19147882 -0.08754529 -0.051377095 -0.009986855 0.05960531 0.020884907
-0.11144177 0.14227605 -0.07373465 -0.114454076 0.17709377 0.00728144 0.011085296 0.12851657
-0.0982226 -0.2180877 0.1643804 -0.08136677 -0.20721023 0.34956262 -0.07299708 0.10690359
0.14846873 -0.19295524 0.19672224 0.05769927 0.34124836 0.057410073 0.1948622 0.15675971
-0.12905745 0.07317717 -0.41941693 -0.06071923 0.14788981 0.04462606 -0.17298746 0.5100875
0.05725012 -0.09579377 -0.08784921 -0.46993586 0.42733425 0.057668403 -0.1837585 0.009495182
-0.02826337 -0.035354983 0.0031449099 0.13226242 -0.4981314 0.18590724 0.10694465 -0.08101901
-0.03795393 -0.051527258 0.037996266 0.00892496 0.07450926 -1.1616689 -0.6630647 0.19193614

conv.2.bias f4 [32]
00000000: 4256 8e3c 920b 123d 59dd 8fbd c759 ab3d
00000010: d8cf 063d a42c 42bd 134d 683e 42de 93bd
00000020: ec43 71be 4ecb a5be 74cd 183e 4873 873e
00000030: 2b4f bdbd 54d1 c53c 9a77 aa3d 8dbb 26be
00000040: 27ac 2c3c 30a8 b0bc a58b 4f3e 6620 eabd
00000050: 5789 083e e272 a7bd fec9 0dbc 7cfc 90bd
00000060: 2db7 19be 976e a03e f7b5 de3d 6073 02be
00000070: f62c 0fbd 50b1 e33c f78b d7bd 90dc 013e
0.017375115 0.035655566 -0.070246406 0.08366733 0.03291306 -0.047405854 0.22685651 -0.07220127
-0.23561066 -0.32381672 0.14922124 0.2645514 -0.09243616 0.024147667 0.083235934 -0.16282482
0.010539091 -0.021564573 0.20268114 -0.11431961 0.13333641 -0.08176209 -0.008654116 -0.070794076
-0.15011282 0.31334373 0.10874551 -0.12739325 -0.034954987 0.02779451 -0.10524743 0.12681794

conv.4.weight f4 [64, 32, 6, 6]
00000000: 4d01 49bc 11d1 6dbd d0f9 883d 03fd 7bbc
00000010: 4bc7 3e3d 04dc 7fbc 8862 05bd 7f86 253d
00000020: 282f ef3c 5365 b33c 3370 88bc c8f4 1f3d
00000030: 95b5 5cbb cac9 c53c 6767 d1bc ae88 34bd
00000040: ab6e e2bb 950b ec3c 9c3f 433c aad9 963d
00000050: 3159 9fba 74f1 55bd ef35 44bd 1043 a33d
00000060: 4848 ca3c 56b0 dfbb 2b1f 80bd 6812 d63c
00000070: 099e f1ba cd71 18bb 07c3 d83b 7335 89bc
00000080: d877 17bd f91d 6a3a ce26 27bd 7885 b3bb
00000090: 19a4 92bd 64dc 9a3c f882 bc3e 189b 8fbd
000000a0: 44b9 9ebe ac43 f7bc f7a4 ec3c 5d85 093e
000000b0: 9cbd c03d 2b6d c7be 3a57 51be 2248 dd3e
000000c0: 3a1c 1bbf 82bf 303e 4f26 6ebd 63d7 dc3d
000000d0: cb87 693e 2322 943e 61ff 933d 45e9 dabd
000000e0: b43f 4bbd aad3 0dbe 0f79 26bd b2aa 653e
000000f0: cef0 0c3e 6c5d 103e 1868 a23d b8cd 3a3e
00000100: 4300 8e3d 8f7d 653e 16ff 84be 7972 ab3e
00000110: adb0 a73e 4f24 533e be04 9d3e a9f0 19bf
00000120: 39b5 28bc 0f61 35bd d4ab bbbc ea75 46bd
00000130: e1cd 2b3c 6fc6 cbbc 8662 5abc 38a1 a13b
00000140: 7d03 dcba 1652 743c 3fd5 b53c c4dc 2a3c
00000150: e8bd b03b 61e4 62bc 59e3 e4bc 84cf c43c
00000160: bd76 6d3c 7906 2bbc c57d b3bc 6829 a13c
00000170: a869 abbc 1997 823c 996e 1dbd 4ad7 17bc
00000180: 2b83 09bb af8f 193d de8d 153b 939e b73c
00000190: 4e3d 1fbc 7cb6 f93c f413 e43c 9e44 073d
000001a0: c3a9 2d3d 7d56 323c 4ab1 94bb 3381 703b
000001b0: 811f 24be aabb 6b3e 0d4e d8bb 18f7 88be
000001c0: 06c7 d5be 8c38 843e 2647 ccbb 970e 863e
000001d0: 0604 de3d 599b e43c 8d15 f53e 9cd0 c6be
000001e0: af02 b53e 4c84 593e 6144 fb3d 709e a03d
000001f0: 9aa6 263e b107 ac3e 501c 9d3e fbf5 943e
00000200: 37a5 353e 5dd9 413c b92d aa3e b56e a93e
00000210: 1688 a4bb ea80 c43e d5c6 a33e 017d 783e
00000220: d7b4 e13e 7332 07bf 6008 e43c b8c9 0cbf
00000230: cc02 0ebf 5da4 81be 2e4b 603e b2c1 c2be
00000240: f3ee be3c 6df6 963d 798e bebd d905 533e
00000250: 27cc a33e 8538 c7bd a834 c43e ff4b a63e
00000260: e9e5 cebe 4715 e8be 7460 32bf 112a 2cbd
00000270: f54f acbe 80fd cf3d a9d5 b1be 00aa 57bc
00000280: d95e 343e e722 d6be 1cbd 923e f470 48be
00000290: d225 9fbe 1482 84be 0fab b0be 6c0e 9b3d
000002a0: 9f13 b33e 5ca0 3ebc 611f 58bc 633a b5bd
000002b0: e071 5b3d f790 813e 7ace 0cbe 1f17 113e
000002c0: fce5 563d 9162 a1bd 629d b63c a631 43bf
000002d0: 7d5c 813d 3a17 103c f67b b13d 436b 113d
000002e0: f587 993d 9b93 f3bc 9a2d f43e 7788 6c3e
000002f0: 3127 883e c9b8 f63d 6baa b63d 60a9 333e
00000300: 6233 0e3f abda 863e 3a0b 163e 7038 883e
00000310: 68a1 c23d 7483 c93d 34dd 9f3e 4ada 353e
00000320: 5947 553e 224c 503e 608e 863d 7941 c4bd
00000330: ecdf 2bbb 21ef 9d3e fdad 9d3e 5a9b d33d
00000340: 3628 c53d 215c 2bbe 3e14 e7bd 024e 863d
00000350: 17c6 0b3e d7c5 823d 8f8b 993d 5565 033e
00000360: 1700 af3c 3fb3 a13d a05b 363e 3b4a bb3d
00000370: 71e0 053e f97b 593c a765 4c3e 3da6 173e
00000380: 108c 0f3e 9f06 193e c87d 9d3d e47b 67bd
00000390: ae23 613e 339c 043d cc73 4e3e 4e84 153e
000003a0: 7a36 033e a2d5 c43c d07e 853d 83a0 67bd
000003b0: 6cd8 af3d d56e 113e c8fc 383e 3163 333d
000003c0: 3a4f 123e fcdf f63d b418 3e3d d7ae 243e
000003d0: 1a89 b13d 9d43 5a3c d440 e63d aec6 c9bd
000003e0: 7288 4e3c d2df 1f3e e8a1 22bd 8d98 a3bd
000003f0: 5c49 843c 73f0 8a3c d6d8 67bc b474 ba3c
-0.012268377 -0.05806071 0.06688273 -0.015380147 0.04657678 -0.015616421 -0.03256467 0.04041147
0.02919729 0.021898901 -0.016655063 0.0390518 -0.0033677567 0.024144072 -0.025562001 -0.04407566
-0.0069101653 0.028814116 0.011917021 0.07365735 -0.0012157318 -0.05223222 -0.047902998 0.079717755
0.02469267 -0.006826441 -0.06255945 0.026131824 -0.0018433939 -0.002326119 0.006615046 -0.01674912
-0.036979526 0.0008930858 -0.04080849 -0.005478557 -0.071602054 0.018903919 0.3681867 -0.07012004
-0.3100072 -0.030183636 0.028887255 0.1342978 0.09411165 -0.38950476 -0.2044343 0.43219095
-0.60589945 0.17260554 -0.058142003 0.10783269 0.22805707 0.28932294 0.07226444 -0.10689024
-0.0496213 -0.13850275 -0.040642794 0.22428396 0.13763735 0.14098138 0.079300106 0.18242538
0.06933644 0.22411178 -0.25975865 0.33485773 0.3275198 0.2061932 0.3066768 -0.60132843
-0.010297113 -0.044282015 -0.022909082 -0.048452295 0.010486097 -0.024874894 -0.013329154 0.004932549
-0.0016785708 0.014912149 0.02219641 0.010428611 0.0053937323 -0.013848395 -0.027940439 0.024024732
0.014493641 -0.010438555 -0.021910558 0.019673064 -0.020924404 0.01594119 -0.038435552 -0.0092676375
-0.0020982723 0.037490543 0.0022820155 0.022414481 -0.009719206 0.030482523 0.027841546 0.033024423
0.042398226 0.010884878 -0.004537736 0.0036698102 -0.16027643 0.23020807 -0.0066011013 -0.26751018
-0.41753405 0.25824392 -0.0062340675 0.26183006 0.10840611 0.027906107 0.47868004 -0.3883103
0.3535361 0.21241874 0.122689016 0.078427196 0.16274491 0.33599618 0.30685663 0.29093918
0.17738806 0.011831609 0.3323801 0.33092275 -0.0050211055 0.38379604 0.31987634 0.24266435
0.44083282 -0.52811354 0.027836025 -0.549953 -0.5547302 -0.25320712 0.21903679 -0.38038403
0.0233073 0.07371221 -0.09304518 0.206077 0.31991693 -0.09727577 0.38321424 0.32479855
-0.40409783 -0.45328733 -0.69678426 -0.042032305 -0.33654752 0.10155773 -0.34733322 -0.01316309
0.17614307 -0.41823503 0.28659904 -0.19574338 -0.31083542 -0.25880492 -0.34505507 0.0757111
0.34975907 -0.011634912 -0.013191075 -0.08849027 0.053575397 0.25305912 -0.1375064 0.14168976
0.052465424 -0.07880128 0.022291843 -0.7624763 0.06316469 0.0087946 0.08666222 0.035502683
0.07496635 -0.02973347 0.4769104 0.23098932 0.265924 0.12046964 0.089192234 0.1754508
0.55547154 0.26338705 0.1465272 0.26605558 0.09503442 0.09839526 0.31223452 0.17759052
0.20827998 0.20341542 0.065701246 -0.095828004 -0.0026225997 0.30846503 0.30796805 0.10332365
0.0962681 -0.16734363 -0.11283158 0.065578476 0.13649784 0.06385391 0.07497322 0.12831624
0.021362348 0.078955166 0.1780839 0.09145018 0.13073899 0.013274186 0.19960652 0.14809509
0.14018273 0.14943932 0.076900065 -0.056514636 0.21986267 0.032375526 0.2016136 0.14601251
0.1281375 0.02402765 0.06518328 -0.05654956 0.08586201 0.14202435 0.18065178 0.04379577
0.14288035 0.120544404 0.046410277 0.16082321 0.08668728 0.013321784 0.11242834 -0.09852348
0.012605773 0.15612724 -0.039705187 -0.07988081 0.016148262 0.016960358 -0.014150819 0.022760727

conv.4.bias f4 [64]
00000000: a52b 61be 8ff8 07be 48ab abbe a869 9ebe
00000010: 0ef6 08be 52e6 85be c4e3 babd 450c 17be
00000020: c021 bdbe 38ef c5bc 6563 2bbe d756 26bd
00000030: c467 3dbd 3217 debe cdb6 d1be ec12 c3be
00000040: cfb9 53be 492b 083e 2598 82bd 7557 76be
00000050: 4701 a5be 8e3b 2ebe ea64 f43e cc82 6bbe
00000060: ddd9 96be 3da5 8fbe 5289 babe a71a 67be
00000070: d160 9fbe c7e1 c6be 5859 ccbe 7501 303e
00000080: 47a8 9cbe 2683 ab3e 0fb4 49be 4fdf a6be
00000090: 7de7 a4be d645 863e 10ee 37be 4bac 44be
000000a0: 1113 bdbe db9b 1abf 0d6d 51bd 7d9c c8be
000000b0: 8891 95bd abc4 9cbc 0246 8d3e b7c3 e8be
000000c0: 1470 0bbe 3387 92be baa0 81be 4c4e 75be
000000d0: b58e d8bb 63bc adbd 07c3 93be 5eb3 ebbe
000000e0: 1c70 9ebe 5d32 94be f3be 7fbe ca12 3c3e
000000f0: 1c3f cbbe 3801 7fbc 2b11 a8be fa6b 26be
-0.21989305 -0.13278411 -0.33529115 -0.30939984 -0.13375112 -0.26152283 -0.09125474 -0.14750774
-0.36939812 -0.02416192 -0.16737135 -0.04061016 -0.046241537 -0.43377072 -0.40959778 -0.38100374
-0.20676349 0.13297762 -0.063766755 -0.240568 -0.32227537 -0.17014906 0.4773324 -0.22999114
-0.29463091 -0.28055754 -0.36432892 -0.22568761 -0.31128553 -0.3884413 -0.39911914 0.17188056
-0.30597135 0.33498496 -0.19697593 -0.32592246 -0.32207862 0.26225156 -0.17961907 -0.1920635
-0.3692861 -0.60394067 -0.05112939 -0.3918189 -0.073031485 -0.019136747 0.27592474 -0.4546182
-0.13616973 -0.28618774 -0.25317937 -0.23955649 -0.006608809 -0.084831975 -0.28859732 -0.46035284
-0.30944908 -0.28944674 -0.24975185 0.18366542 -0.39696586 -0.015564255 -0.32825598 -0.16252127

fc.1.weight f4 [64, 1600]
00000000: 3bfb b53b beab f8ba 67ab 89bc 759e 8f3c
00000010: 5664 d73a 1a45 c6bc e919 09bc 7243 1d3c
00000020: 5029 a23c eb63 30bb cb89 b3bc 9793 993c
00000030: cce3 11bb f2bc aebc eaab 7fbc b9d5 c8bc
00000040: d379 45bc 37b6 a5bb cd5b a0bc 2ef5 cabb
00000050: 9125 8abc 40a2 29bc 50f4 3b3a e13d 57bc
00000060: 2577 02bc 96d3 b2bb bc30 8e3c c64b 433c
00000070: 5fb1 893c ae5b 223c 9fe8 ae3c e156 39bc
00000080: c2cf a83c 0475 89bc 7efd 383c 464c dc3b
00000090: f593 8ebc 8fee be3b 0163 47bc 5b7f 263c
000000a0: ff4e b0bc d1d5 f3bb 5380 b73c 0503 bfbc
000000b0: ce4f 1c3c 1b53 59bc ee76 9d3b ca3e 0ebb
000000c0: 1246 e6bb f4dc 943c 0e10 a13c 04db 9a3c
000000d0: 6c25 65bc 6e54 d23c cfc8 443b 2006 8bbc
000000e0: b9ae c2bc 78a0 33bc 8f47 ea3c 3eb8 9dbc
000000f0: 5db8 3e3c b5d7 1ebc fc0a b63c c3b0 f3bb
00000100: 1ecd 96bc a5f0 2a3c baf8 83bc be88 07bc
00000110: 800f 8bbc ab1c b2bb ae01 f23a 622e a43c
00000120: 803f f2bb fa20 f73c 4ec0 b13c 4da8 ed3b
00000130: c14d 5f3c 12bb 4d3b 3fa8 04bb bdfd 773b
00000140: 654c 3abc 966f a33c 81dd 1bbc 6f98 aabb
00000150: 8e09 e8bb 60ed b1bc 3c55 21ba 3845 a4bc
00000160: 6156 043c 33ec 553b 5827 aebc 0f0b 373c
00000170: c790 b8bc 22f9 1b3c 956d 733b a8de 2c3c
00000180: b791 b2bc 0b2e 53ba 73cb eeba 625e db3b
00000190: 12db 213c ac84 c4bb 2dca 1ebc b579 c03b
000001a0: 60f1 87bb 5309 5dbc 82a9 5a3c d0c5 9d3b
000001b0: 8744 ae3c 61b5 b03b c9d7 e0bb 150c a83b
000001c0: 4cdc eebb a6e5 b23c 2beb a83c 137b a73c
000001d0: c97f ddbc 7a69 283b 0444 043c fd71 cfbc
000001e0: a808 eebb a70d ed38 8f5b 47bc c5f0 9a3b
000001f0: da52 9ebc 03b4 93bb 0ac1 5c3c 5eb9 e3bc
00000200: ba6b 08bd e77b cbbc eddb b13b d0ae 28bc
00000210: b133 cc3b 4362 9f3c 475e a3bc 0baf 423c
00000220: 3afc 92bc f66e 98bb 902e 82bc fe06 b2bb
00000230: e8ba 0a3c 9d8c 973c 66d0 af3c 07cd 933b
00000240: 85de 9b3b cd26 08bb 0dc7 c7bc d5af 86bc
00000250: 098d 7f3a 8c00 31bc 864b 06bd 0801 953b
00000260: 1cae 08bb 0872 77bc 1428 3cbc febd c1bc
00000270: ca5f 30bd 2cf0 90bc c1a8 27bd b578 1abd
00000280: ab86 b3bc 1c9d 1bbd b097 b9bc ebcd 8cbc
00000290: fe7e 973a b936 a7bc 8e4b 8e3b 694d debc
000002a0: 2f0b 02bd 494e 16bd 9890 38bc 5514 09bc
000002b0: a10c 0bbd 73c5 0cbd 938b 343b d13b 9f3c
000002c0: 80ce eb3b 8187 c8bb 9838 d4bc 7e3e 573c
000002d0: e2f5 b8bc 598d a3bc d05f 84bb bf01 00bd
000002e0: 705a fc3a c2f7 6b3c 37e2 803c 447f 043c
000002f0: b18f a6bc 1e18 8b3a eb72 9dbb 3229 ad3c
00000300: e26b e7bc a001 30bc 2769 cfbc d18a f03b
00000310: fb3b 793c 92b6 ea3b 9818 1a3b e76f a93b
00000320: 985b 073c ca59 3f3c acd4 abbc c6db 76bc
00000330: 8893 8dbc 69ec 61bb 646d 3f3c 711c e5bc
00000340: 37e5 353c 7062 afbb b114 c43c 64c7 6c3c
00000350: 0ac8 e1bb 7ca1 95bc a526 09bc 712b 443c
00000360: 89c5 5f3c 4bf1 4d3c 7385 863b 79bf 8d3c
00000370: b1a9 afbc 1259 5abc 0c3f 91bb e604 85bc
00000380: ef64 bdbc 3255 043a c678 1dbc c427 403c
00000390: 9d3b a83b c6a0 58bb 8a45 f139 873d 91bc
000003a0: fbc4 94ba 3273 57bc fd02 f2bb 4673 b03c
000003b0: 7894 5fbc 698e 863b 5d09 1dbc 7c25 883a
000003c0: 8cea 77bc 318f 28bb 55f3 84bb c507 51bc
000003d0: 6985 d33a ee69 46bc 03f8 c7b9 fd8e 013c
000003e0: f925 d1bb 347a 3c3c 325d cc3b 2875 053c
000003f0: 3fdf 0fbc 897a 253c f27e f639 3d9a 3cbc
0.0055536306 -0.0018972082 -0.016805364 0.017531613 0.0016433101 -0.024202872 -0.008367994 0.0095986
0.01979509 -0.0026915025 -0.02191629 0.018747134 -0.0022261022 -0.02133033 -0.015604952 -0.024515973
-0.012052971 -0.005057122 -0.019575024 -0.0061937785 -0.016863616 -0.010353625 0.0007169889 -0.013137312
-0.007962977 -0.005457352 0.017357223 0.011919921 0.01680821 0.009909553 0.021351157 -0.011312217
0.02060688 -0.01677943 0.011290906 0.0067229597 -0.017404536 0.0058267782 -0.0121696 0.0101622
-0.021522043 -0.0074412604 0.022400057 -0.02331687 0.009540511 -0.013264443 0.0048054373 -0.0021704906
-0.007027396 0.018171765 0.019660976 0.018903263 -0.013985973 0.025675025 0.0030026918 -0.016970694
-0.023764955 -0.010963552 0.028598575 -0.019252893 0.011640635 -0.009694983 0.022222035 -0.007436843
-0.018408354 0.010433351 -0.016109813 -0.008272348 -0.016975164 -0.0054355464 0.0018463635 0.020041648
-0.0073928237 0.030167092 0.021698143 0.007252729 0.013629378 0.003139202 -0.0020241884 0.0037840449
-0.011370753 0.01995067 -0.00951326 -0.00520616 -0.007081217 -0.021719635 -0.00061543635 -0.020052537
0.008077235 0.0032642006 -0.021258995 0.01117207 -0.022529973 0.009519847 0.0037144173 0.010551132
-0.021797998 -0.0008055872 -0.0018218592 0.006694601 0.009878891 -0.005997261 -0.009691757 0.0058738836
-0.004148647 -0.013490993 0.013346078 0.004814841 0.02127291 0.005392716 -0.006861661 0.0051283934
-0.007289445 0.02183802 0.02061995 0.020444429 -0.027038472 0.0025697635 0.008072857 -0.025322909
-0.0072642155 0.000113035836 -0.012167825 0.004728409 -0.019326616 -0.004507543 0.0134737585 -0.02779835
-0.03330586 -0.024839355 0.0054278285 -0.010295585 0.006231748 0.019456035 -0.019942416 0.011882554
-0.017942537 -0.0046518994 -0.015891343 -0.0054329624 0.0084674135 0.018499667 0.021461677 0.004510525
0.004756751 -0.002077508 -0.024386907 -0.016441265 0.0009748494 -0.010803353 -0.03278687 0.004547242
-0.002085573 -0.015102871 -0.011484165 -0.023650166 -0.0430601 -0.017692648 -0.04093242 -0.03771277
-0.0219148 -0.037991628 -0.022655338 -0.017188033 0.0011558232 -0.020411836 0.004342503 -0.027136521
-0.031748947 -0.036695752 -0.011264943 -0.008366664 -0.03394759 -0.03436799 0.0027549013 0.019437702
0.0071962476 -0.006119669 -0.025905892 0.013137458 -0.022578184 -0.01996486 -0.004039742 -0.031251665
0.0019253027 0.014402332 0.015732868 0.008086983 -0.02033219 0.0010612046 -0.004804959 0.021137808
-0.028249685 -0.010742575 -0.025318695 0.007340767 0.015212054 0.0071628774 0.0023513194 0.0051708105
0.008261584 0.011679122 -0.020975433 -0.0150670465 -0.017282262 -0.0034473187 0.011683796 -0.027967663
0.011102012 -0.005352311 0.023935648 0.014451835 -0.0068903016 -0.018265478 -0.00837103 0.011973248
0.013657936 0.012569736 0.004105264 0.017303215 -0.02144322 -0.0133269 -0.0044325646 -0.016237687
-0.023119418 0.00050480955 -0.009611314 0.011728231 0.0051340596 -0.0033054813 0.00046018913 -0.017729534
-0.0011350209 -0.013150023 -0.00738561 0.021539342 -0.013646238 0.004106332 -0.009584752 0.0010387148
-0.015131604 -0.0025720114 -0.0040573278 -0.0127582 0.0016137782 -0.012110217 -0.0003814102 0.007907626
-0.0063827005 0.011503745 0.0062366957 0.008145608 -0.008781253 0.010100015 0.00047015358 -0.011511383

fc.1.bias f4 [64]
00000000: c80c 4a3c 032c 283e 272c 0abd 0280 fa3b
00000010: bbfe 003f 1e98 833e 8578 2cbd 99f7 68bc
00000020: f25e 633c afad ed3e 6ff5 f43e 708e 8e3e
00000030: 142b f63c 2c63 b63d 35bf 2f3e 6cb4 2d3f
00000040: 8ca6 14b9 1121 023c f067 39bd f7a5 debc
00000050: 632d 4abb e4d5 2b3b 912e c6bc 8550 9b3e
00000060: 7d78 e03b f984 b5bc 2e3f eebc a84e 5b3d
00000070: dbfd 273e 2383 143e 7ab7 abbb d85b e7bc
00000080: 49f2 0d3d 8993 0b3f d7ae 28bc 7211 9d3e
00000090: 1c28 8cbc b1f8 1d3f b5c6 b93c daa5 283d
000000a0: 6435 efbc ba18 773e f408 53ba 8db7 773e
000000b0: c20b 5d3d f0dd c83b 82f9 a63d 8d6f d43c
000000c0: 1968 adbc 06a5 fb3c 29d5 7b3d 60db 61ba
000000d0: c8b7 b23e 1bd4 b83e 00b6 0abb 33c2 e0bb
000000e0: 7343 95bc 75d1 3abd f518 4ebd 39e3 d13e
000000f0: b0ab b3bb 01b6 b8bc 362b 713e 4e63 8d3e
0.012332149 0.16423039 -0.033733513 0.0076446543 0.5038869 0.25701994 -0.042107124 -0.014219188
0.013877617 0.46421573 0.478435 0.27843046 0.030049838 0.08905634 0.17162783 0.67853427
-0.00014176423 0.007942454 -0.04526514 -0.027178748 -0.0030849806 0.0026220018 -0.024192126 0.3033487
0.006850301 -0.022158133 -0.02908286 0.05354181 0.16405432 0.1450315 -0.005240378 -0.028242037
0.03465489 0.54521996 -0.010295591 0.30677372 -0.01710897 0.617076 0.022677759 0.041173793
-0.029200263 0.24130526 -0.00080503454 0.24191113 0.05396629 0.0061299726 0.081530586 0.025932098
-0.021167802 0.030718338 0.061482582 -0.0008615758 0.3490584 0.36099324 -0.002116561 -0.006859088
-0.018220639 -0.04560991 -0.05031677 0.4099367 -0.005483113 -0.022547724 0.2355164 0.27614826

fc.3.weight f4 [4, 64]
00000000: 9b01 843c 0fab 363e d04c 3d3c 6212 9c3d
00000010: cbde adbe db5a 0a3e db15 bc3d fc19 bebd
00000020: 69f0 b43d 7700 393d 5dca 613b b0e5 6cbf
00000030: 546a 283e d77b 1a3d 854d cdbf 0838 d13e
00000040: 198f 3c3d 9333 6ebe fc9f cf3d 1e79 fe3c
00000050: 1fe9 1f3e c1b5 943c 2eee 7bbd d3ba 21bf
00000060: 48da 3dbc 8405 0fbc 128f d5bd 2f63 75bd
00000070: 06a4 d9ba b467 7d3d c7ed 7b3d eb3f 583c
00000080: 796f 053e 9cb7 1ebf 05cc c7bd a217 923d
00000090: 204c 293d 931b 63be 4cbc 14be b126 a23d
000000a0: c20e 1f3d c673 4abd ed25 2bbd 6c01 ca3d
000000b0: e574 19be 0c8a d0be 2f49 893e 2581 3b3e
000000c0: ef90 2b3d 501d 493e 1bf3 8c3e 8d80 35bd
000000d0: 89b3 91bf 7380 46bd c8aa ddbc 3c1a 333e
000000e0: 250a e4bc 9f88 7e3d a099 aabd f502 63bd
000000f0: 23a0 cd3c b8b7 84bd 27be e63d e5f9 ad3d
00000100: 2d25 2abc cdcf 11bf 2175 da3d 3c1c a9bd
00000110: 5626 30bf 240c 4b3e 0224 4fbd 25c9 903c
00000120: bdba 12bd 1085 1c3c 916a 77bf 08d0 45bd
00000130: 6f81 803e f960 94bf fa28 823d a67d ae3e
00000140: b26f 80bc c574 f0bd d746 dc3c f8cc 603d
00000150: d74a cc3d c0da 923d a3e5 f43d 9965 673c
00000160: d85e 1f3d c85a aebd 7094 a93d 6fb6 90bc
00000170: 61d3 aabf c280 28be 2ba0 d03d 34b8 bcbd
00000180: c9b8 b93d 90b0 ad3c 3401 ea3c 2c16 49bd
00000190: f76a 54bd c097 adbd 83cd 453e aa59 b53d
000001a0: f9d9 debd d985 f4bc 72a3 fa3a fc44 893d
000001b0: a873 2e3e ddc3 ddbe 1651 38bf 11f7 cabd
000001c0: 064a 6ebd 3f1f 843e 656b 643e 60c4 7fbd
000001d0: 487b 333d ed9c 91bd 12a3 a8bd 5451 7f3c
000001e0: cb4a c4bc c42a caba 0f53 58bd 3a05 573d
000001f0: 111a 1f3d beda d63d e79b d43d 3cfa b83c
00000200: 81e1 c7bc 5950 81be ba50 823d 8823 9f3d
00000210: 881d d9be d07b d33e 4b88 a53d c773 353c
00000220: 6c7b e93d ee87 2cbf 285e f8ba e8b3 983d
00000230: a19d 8a3e 97f6 7d3d 8bc2 8b3c b94d 983e
00000240: 7e6a 673d c11f c0bd 50d3 af3d 3404 c83d
00000250: 7cac 9fbd d9f2 3b3c 2772 963d 4056 e73d
00000260: a6ed 863d be73 6b3c 4b2b d63c 9cf9 1f40
00000270: 9da2 f5ba efc3 fb3d bddd c43d 866e a9bd
00000280: 3a33 1cbe f86e 1a3c 8fd2 3d3d c7b1 a9bf
00000290: 7680 72bd 37cb f9bd 5dca 2e3e 8f0f 88bf
000002a0: f07e c43d 4828 a8bd 3002 223d 9933 ef3d
000002b0: c634 703d 08e4 6d3e 974a a23e adef 203e
000002c0: 8f18 18bc c5ea bbbe 6e36 223e 88f4 3f3d
000002d0: c611 19bd 7439 e2bd 481b b8bc 6332 a43d
000002e0: a759 c1bd bff0 b83d 83b4 363d 72d9 9cbf
000002f0: 8e60 453d 44d3 473c e5a0 0e3e cf5c 8abe
00000300: bcb1 1dbc 41ee 29bd 650c 21bd ea2c 5cbd
00000310: 0150 e13c 7769 c33d cbe7 1cbd e268 9d3d
00000320: e615 a7bd 04cd 0bbe a8bc 903c e03b a8bd
00000330: 807b cdba 03ac ab3d 2e87 813d 5ca4 b53e
00000340: 4ab4 43bd 91f9 91be fffc 7c3b 5acd e1bd
00000350: 63b2 21be 1cf3 75bd e1a5 90bd aefa d2be
00000360: 329d 143d 88b7 ecbc 0532 4fbd f517 dbbc
00000370: cab5 53bc d327 443e 914d d9bd 9eeb ea3d
00000380: 3a4a 463e be11 4cbb 41dc 3f3c bba6 f4bc
00000390: 2d74 99bd 7002 1fbf de2b 17bb 551b d83d
000003a0: 3066 7cbd 111f babf 3621 a33d f210 eebf
000003b0: 1442 383e a147 953e 7ee9 6c3e e5df 86bd
000003c0: 8fda f53d b768 a33e 9c10 22bf 0b7b 9abc
000003d0: 2bbf 963d 8498 7dbf a4df f43c 2c58 02be
000003e0: 0235 dcbd ee80 df3d ea63 a63b 0b2e b43c
000003f0: 7550 df3d 0467 1bbd 75ea acbf d04f 6e3d
0.016114047 0.17838691 0.011553958 0.07620694 -0.3395904 0.13511221 0.09183856 -0.092823
0.08834917 0.04516646 0.0034452893 -0.92537975 0.16446811 0.03771576 -1.6039282 0.4086306
0.046034906 -0.23261862 0.101379365 0.031063613 0.15616272 0.018153073 -0.061506443 -0.63175696
-0.011587687 -0.008729342 -0.10427679 -0.059909042 -0.0016604669 0.061866477 0.06150606 0.013198833
0.13030805 -0.61998916 -0.097557105 0.07133414 0.041332364 -0.22178487 -0.14524955 0.07917536
0.038832434 -0.049426816 -0.041784216 0.098635525 -0.14985998 -0.4073032 0.26813647 0.18310983
0.041886266 0.19640088 0.27529225 -0.04431205 -1.1382915 -0.048462342 -0.027058974 0.17490476
-0.027836869 0.06214201 -0.08330083 -0.055422742 0.025100773 -0.06480354 0.112667374 0.08494929
-0.01038484 -0.56957704 0.10666872 -0.082573384 -0.68808496 0.1982885 -0.05057145 0.017674038
-0.03582262 0.009553209 -0.9664698 -0.048294097 0.2509875 -1.1592094 0.06355472 0.34080237
-0.01567826 -0.11741022 0.026889248 0.054882973 0.09975212 0.071706295 0.11957862 0.014123344
0.03890881 -0.08513409 0.08280265 -0.017665116 -1.3345758 -0.16455367 0.101867996 -0.092148215
0.09068448 0.021202356 0.028565027 -0.04909341 -0.051859822 -0.0847621 0.19316678 0.08854993
-0.10881419 -0.02984898 0.0019122197 0.06702611 0.17036307 -0.43313494 -0.7199873 -0.099104054
-0.058176063 0.2580509 0.22306593 -0.062443137 0.043818742 -0.07110009 -0.08234228 0.015583355
-0.023961445 -0.0015424122 -0.052813586 0.05249522 0.03884322 0.104909405 0.103812985 0.022580259
-0.02439952 -0.25256613 0.063630536 0.07770449 -0.42405343 0.413054 0.080826364 0.011074967
0.11400494 -0.6739491 -0.0018948959 0.074561894 0.27073386 0.062002745 0.017060539 0.29746798
0.056498043 -0.093810566 0.085852265 0.09766427 -0.07796571 0.011471474 0.073459916 0.11295748
0.065882966 0.014370857 0.02614369 2.49961 -0.0018740479 0.12293231 0.09612606 -0.08273034
-0.15253916 0.009425871 0.046343382 -1.3257378 -0.05920454 -0.12196963 0.17069383 -1.0629748
0.09594524 -0.08210808 0.039552867 0.11679763 0.05864408 0.23231518 0.31697533 0.15716429
-0.009283199 -0.36702552 0.15841076 0.046864063 -0.037370466 -0.110461146 -0.022473946 0.08017423
-0.09440928 0.09030294 0.044605743 -1.2253859 0.048187785 0.012196366 0.13928564 -0.27023932
-0.009624895 -0.041486982 -0.03931846 -0.05375377 0.02750397 0.095416 -0.038306993 0.076860204
-0.08158474 -0.13652426 0.017668083 -0.08214545 -0.0015677065 0.08382418 0.063246116 0.3547696
-0.04777936 -0.28510717 0.0038602946 -0.11025496 -0.15790705 -0.0600463 -0.07062889 -0.41206878
0.036282726 -0.028896108 -0.05058481 -0.026744822 -0.01292176 0.19155817 -0.10610498 0.11470722
0.19364253 -0.0031138505 0.0117102275 -0.02986466 -0.07492862 -0.62113094 -0.0023066918 0.10552088
-0.06162089 -1.4540731 0.07965319 -1.8598921 0.17993957 0.2915621 0.23135945 -0.06585673
0.12004577 0.3191583 -0.63306594 -0.0188575 0.07360681 -0.99060845 0.029891796 -0.12728947
-0.10752298 0.10913263 0.0050778287 0.021994611 0.10904018 -0.03794004 -1.3509051 0.058181584

fc.3.bias f4 [4]
00000000: 51e7 f13e b7c0 003f c498 f83e a67c f93e
0.47246793 0.5029406 0.4855405 0.48727912
