models/v17.1/model_77500.pt (torch, 729840 bytes, 10 tensors)

conv.0.weight f4 [16, 2, 3, 3]
0.19737741 0.049705617 -0.08399188 0.013693274 -0.05592748 0.022666084 -0.042234167 -0.035812244
0.11261527 -0.19374497 0.103048004 0.09510396 0.035787854 -0.015796 0.1125031 0.062657446
0.08843734 -0.06374542 0.09201885 0.21651667 -0.029009787 -0.1166075 -0.12089681 0.14453892
-0.21263173 -0.29408836 -0.1838549 -0.08101623 -0.02562182 0.0043609138 0.14251529 -0.13364919
0.061127104 0.22748552 0.17927952 0.15772133 0.07894917 0.26348227 0.025911907 -0.05626041
0.10348185 0.28618526 0.21362717 0.4337121 0.068527296 -0.10459892 -0.25933507 0.0045574238
0.0573863 -0.089235805 -0.32467142 -0.20697407 -0.45576787 -0.06818699 0.059493937 0.017194211
0.06542106 -0.04058728 0.06603747 -1.3292696 0.027557785 -0.055099264 0.046633754 -0.06590731
-0.012691233 -0.04973741 0.05019948 -0.058895815 0.039194122 -0.028329654 0.051736057 -0.04992814
0.052643016 -0.0869309 -0.13400358 -0.07626387 -0.12879501 0.5591441 0.025863418 0.036695793
-0.13124317 -0.04875227 0.06726201 0.13733529 0.083689995 0.11698901 0.27671167 -0.03368279
-0.035097536 0.11163807 0.08809767 -0.06079986 0.43752232 -0.028713511 -0.46364158 -0.010510582
0.0487702 -0.17329974 -0.124754734 -0.102599315 0.026727656 0.0109527 0.045537874 -0.024860626
0.00672641 -0.069518074 0.16432393 0.09997189 -0.3552417 -0.43354756 0.0063392604 0.034398317
0.025793366 -0.71445763 -0.42720366 -0.3798888 -0.04571188 0.17065583 0.19643454 0.002538429
-0.01946863 -0.0007748284 0.31261688 0.13260345 0.15598829 0.043801017 -0.49786806 -0.5283974
0.052031692 -0.06012657 0.09414151 0.15570055 -0.6410995 -0.038384743 -0.02001596 0.17111354
0.23061386 -0.09590166 0.036855374 -0.070402935 0.12469639 0.11692523 0.026831998 0.016495144
0.056809526 0.1094933 0.03720448 0.12827952 0.19305176 -0.067198865 0.005293111 -0.2286937
-0.2160003 -0.19212903 0.1328215 -0.045432255 0.059248965 0.039778292 0.14501923 -0.041141286
0.08789684 0.03656042 0.0061693327 -0.0824502 0.16112266 0.026128331 -0.008383964 0.6982707
-0.027854238 -0.16709365 -0.051033273 -0.0028693553 0.057402767 -0.14106679 -0.016468054 0.030291133
-0.6940434 0.0011018794 0.15561531 0.06038229 0.026998717 0.009308661 0.004841382 -0.086535856
0.5330021 -0.103680916 -0.008621485 -0.09947489 0.040746376 -0.028257422 -0.006068778 -0.020775314
0.098565646 0.3536178 0.07889295 0.0077044857 0.09265357 -0.05171553 -0.029445708 0.042420775
-0.10890789 -0.027143456 0.68614984 0.03455258 -0.122646935 0.0019345821 -0.13848488 0.029828591
-0.050971564 0.11595379 0.017976226 -0.028715907 -0.069506675 0.12752257 -0.017913744 0.15194292
-0.10950294 -0.2239718 -0.06322244 -0.1555815 -1.2321184 0.09248818 -0.12970245 -0.18508984
-0.19304305 0.1395909 0.17118014 0.06607995 0.14670287 -0.021737393 -0.12380534 0.13507156
0.13692224 0.18886453 0.026114155 -0.063789904 -0.030851018 -0.09959491 -0.27102613 -0.5993462
0.22371186 -0.09371127 -0.07839896 -0.065479726 0.06523846 0.019306084 0.0079004085 0.057802424
0.24727248 0.1484435 0.12500529 0.112864934 -0.58935446 -0.4552909 -0.732286 -0.13655737
00000000: 4e1d 4a3e 1e98 4b3d ef03 acbd c159 603c
00000010: 3714 65bd 39ae b93c bcfd 2cbd dcaf 12bd
00000020: d6a2 e63d 1565 46be d50a d33d ddc5 c23d
00000030: 4996 123d 9d66 81bc 0668 e63d 8c52 803d
00000040: a31e b53d f58c 82bd 6174 bc3d 8cb6 5d3e
00000050: efa5 edbc eacf eebd bf98 f7bd 0302 143e
00000060: 22bc 59be c092 96be 7544 3cbe d6eb a5bd
00000070: dae4 d1bc ffe5 8e3b 87ef 113e 55db 08be
00000080: 6a60 7a3d f7f1 683e 0d95 373e b381 213e
00000090: 1ab0 a13d 26e7 863e 3545 d43c 5171 66bd
000000a0: 4bee d33d e086 923e 15c1 5a3e 830f de3e
000000b0: 0a58 8c3d f537 d6bd 91c7 84be 7156 953b
000000c0: e60d 6b3d 43c1 b6bd 553b a6be 03f1 53be
000000d0: 685a e9be 9fa5 8bbd eaaf 733d e0da 8c3c
000000e0: 7afb 853d d93e 26bd a73e 873d 8225 aabf
000000f0: ddc0 e13c c4af 61bd 0903 3f3d 69fa 86bd
00000100: e4ee 4fbc 74b9 4bbd f89d 4d3d bd3c 71bd
00000110: 048a 203d 9713 e8bc 30e9 533d 7381 4cbd
00000120: 34a0 573d d408 b2bd 3c38 09be 3b30 9cbd
00000130: d7e2 03be 1124 0f3f 85df d33c 544e 163d
00000140: 9c64 06be 76b0 47bd aac0 893d 9fa1 0c3e
00000150: a965 ab3d ef97 ef3d 27ad 8d3e f7f6 09bd
00000160: 6fc2 0fbd 80a2 e43d 8d6c b43d 4609 79bd
00000170: ed02 e03e 9938 ebbc 6e62 edbe 9334 2cbc
00000180: 43c3 473d 7d75 31be 697f ffbd 971f d2bd
00000190: f5f3 da3c f472 333c ec85 3a3d 83a8 cbbc
000001a0: 3769 dc3b 7e5f 8ebd 8844 283e 10be cc3d
000001b0: 3de2 b5be f2f9 ddbe 92b9 cf3b 40e5 0c3d
000001c0: 9c4c d33c b2e6 36bf 70ba dabe c980 c2be
000001d0: 613c 3bbd 67c0 2e3e 2326 493e c65b 263b
000001e0: ad7c 9fbc db1d 4bba 520f a03e 33c9 073e
000001f0: 65bb 1f3e b268 333d 90e8 febe 0d45 07bf
00000200: 2f1f 553d 4747 76bd 44cd c03d f76f 1f3e
00000210: 191f 24bf 5239 1dbd 83f8 a3bc 6338 2f3e
00000220: 0a26 6c3e 1768 c4bd a9f5 163d 6a2f 90bd
00000230: d260 ff3d 7f76 ef3d c7ce db3c d320 873c
00000240: 1bb1 683d 063e e03d ba63 183d b55b 033e
00000250: 5caf 453e 8f9f 89bd d571 ad3b ae2e 6abe
00000260: 2f2f 5dbe 79bd 44be 5c02 083e 2c17 3abd
00000270: 0baf 723d 90ee 223d ec7f 143e c483 28bd
00000280: 4203 b43d 61c0 153d 1d28 ca3b a7db a8bd
00000290: 57fd 243e 150b d63c e55c 09bc dec1 323f
000002a0: 922e e4bc 991a 2bbe 4408 51bd cb0b 3cbb
000002b0: 2a1f 6b3d d073 10be 03e8 86bc 1c25 f83c
000002c0: d4ac 31bf f06c 903a 9f59 1f3e 6c53 773d
000002d0: 6a2c dd3c 5b83 183c 75a4 9e3b b639 b1bd
000002e0: d372 083f a956 d4bd 2141 0dbc 7eb9 cbbd
000002f0: ace5 263d 1c7c e7bc 9adc c6bb fe30 aabc
00000300: c9dc c93d 640d b53e a192 a13d e975 fc3b
00000310: 28c1 bd3d aad3 53bd 2038 f1bc 68c1 2d3d
00000320: 1a0b dfbd f45b debc 84a7 2f3f 0287 0d3d
00000330: 512e fbbd ce91 fd3a fbce 0dbe 175b f43c
00000340: 8fc7 50bd 2e79 ed3d e142 933c 9f3d ebbc
00000350: 8459 8ebd 4795 023e d8bf 92bc ed96 1b3e
00000360: 1443 e0bd dd58 65be c47a 81bd c250 1fbe
00000370: 0eb6 9dbf 716a bd3d b8d0 04be 3188 3dbe
00000380: 14ad 45be ebf0 0e3e d949 2f3e ed54 873d
00000390: 4739 163e 9e12 b2bc a78d fdbd 3350 0a3e
000003a0: 5835 0c3e b465 413e 5aed d53c 48a4 82bd
000003b0: 46bb fcbc 6bf8 cbbd f0c3 8abe c16e 19bf
000003c0: b914 653e b2eb bfbd a28f a0bd 3c1a 86bd
000003d0: be9b 853d cb27 9e3c b770 013c 3cc2 6c3d
000003e0: ff34 7d3e 9301 183e 6301 003e bb25 e73d
000003f0: efdf 16bf e41b e9be 1877 3bbf b2d5 0bbe

conv.0.bias f4 [16]
0.0091606835 -0.17366005 -0.07841678 0.60683227 -0.54738885 -0.23872127 0.120840356 -0.1626272
-0.36249778 -0.05071079 -0.61564964 -0.3462007 0.310939 -0.21682812 -0.02680706 -0.24372515
00000000: b116 163c f1d3 31be fa98 a0bd 5c59 1b3f
00000010: ad21 0cbf 5973 74be 267b f73d bf87 26be
00000020: 4f99 b9be 1eb6 4fbd 379b 1dbf 3841 b1be
00000030: 6633 9f3e 3108 5ebe 7b9a dbbc 1693 79be

conv.2.weight f4 [32, 16, 3, 3]
-0.057264224 0.014062592 -0.03342196 -0.021717241 -0.06603213 -0.015475407 0.08664177 -0.019321697
-0.09580787 0.074574925 0.10245565 0.084751874 0.14095867 0.10860617 0.030831572 0.0488898
-0.03928955 -0.042501856 0.17551781 -0.034173865 -0.052674644 -0.03202724 -0.006035596 -0.22602901
-0.12221988 -0.24334489 -0.18443392 0.013453 -0.038308572 -0.12952334 0.011187987 -0.06618677
-0.072873846 0.052712187 -0.11429573 -0.35108662 0.07606464 0.118261635 -0.27826974 -0.14333892
-0.16170332 -0.33448523 0.11498769 -0.12088721 -0.17434001 0.047300126 0.026542732 -0.08876093
0.1657145 0.09444607 -0.25761005 0.07969716 0.07016644 -0.12774254 0.044261035 0.18699665
0.01357258 0.15523759 0.046727657 -0.044105355 0.06772168 0.02099148 -0.17668733 -0.1929921
-0.03718908 0.018556997 -0.06692223 -0.017141983 -0.04171891 -0.07862076 -0.08098943 -0.13200119
0.093589015 0.066334866 0.04108953 -0.07113834 0.14843544 -0.12927395 0.09872053 -0.047600463
-0.15474017 0.09609313 -0.23569903 0.037941482 0.10848408 -0.15366124 -0.039393265 -0.16921327
-0.22851765 0.023624502 0.04938148 0.0026941495 -0.12253224 -0.028034851 0.0004252468 -0.14768414
-0.07605562 -0.030912234 -0.07168372 0.008914424 -0.0040717595 -0.06883042 -0.14734383 -0.20598903
-0.1424473 -0.125053 -0.13856177 0.0059837434 0.017895842 0.04259275 0.029378152 -0.13032897
-0.004977693 0.02490194 -0.13457884 -0.14993642 -0.028184628 -0.0055684284 0.013558415 0.051301412
0.06534731 0.018686201 -0.021980198 -0.036406994 -0.042667568 0.020819208 0.023181653 0.0031754104
-0.0071211313 -0.031826563 -0.176023 -0.09472808 -0.032916322 -0.0421214 0.087134205 -0.13127916
-0.013357759 -0.08849758 -0.10196 0.10656742 0.010068109 -0.08840715 -0.15089832 -0.07007116
0.16584842 0.0015105166 0.20017497 0.06808783 0.08856452 0.055484846 0.004449354 0.015902393
-0.051267527 -0.06703862 -0.0183689 0.26976594 -0.05815136 0.137782 0.124281876 0.045671098
-0.17788474 -0.043086305 -0.19569409 0.062919706 0.15345904 0.1401666 -0.30362415 0.1529007
0.096234895 -0.12694605 0.07877819 -1.7568372 -0.024962448 -0.08666138 -0.078602985 -0.031570867
0.037022144 0.017988982 -0.036020335 -0.0040559093 -1.1085382 0.4432088 -0.0478275 0.0027785918
0.035964772 0.094922945 -0.0014278191 -0.030112823 -0.041835267 -0.23349223 -0.35361174 -0.017237393
-0.27965266 0.12020526 -0.11908946 -0.070900165 0.00211848 0.03801891 -0.16725491 -0.43776023
-0.18412559 0.032503553 -0.1269196 -0.1705149 -0.009109366 0.020302173 -0.004308552 -0.03137514
0.019731054 -0.24223082 -0.0468025 -0.017584896 -0.20485412 0.35423413 0.0035990116 0.112319425
0.13857648 -0.16190547 0.1558509 0.08094598 0.12206317 -0.005516947 0.17348973 0.11391112
-0.052134003 0.24281341 -0.18120036 -0.010280123 -0.089085184 -0.0773522 -0.12902537 0.3255212
-0.08010329 -0.10031192 -0.031774532 -0.6460246 0.4295949 0.10935437 -0.07805786 -0.028371084
-0.006544732 -0.061494198 0.00081094756 0.21509674 -0.541249 0.23797828 0.08652034 -0.088860184
-0.08865519 -0.021762948 -0.026479311 0.035109855 0.09346158 -0.983088 -0.556848 0.20859508
00000000: e48d 6abd c966 663c 77e5 08bd 5be8 b1bc
00000010: da3b 87bd 908c 7dbc 3e71 b13d 8948 9ebc
00000020: eb36 c4bd bdba 983d 45d4 d13d 6492 ad3d
00000030: 7857 103e e96c de3d 7e92 fc3c ac40 483d
00000040: 14ee 20bd 6d16 2ebd f1ba 333e e5f9 0bbd
00000050: 5ec1 57bd ff2e 03bd 40c6 c5bb 2674 67be
00000060: 6b4e fabd 672f 79be 3fdc 3cbe f969 5c3c
00000070: 73e9 1cbd c4a1 04be d24d 373c ee8c 87bd
00000080: e23e 95bd bce8 573d e113 eabd a0c1 b3be
00000090: c7c7 9b3d 2833 f23d 5f79 8ebe 70c7 12be
000000a0: 8e95 25be a641 abbe aa7e eb3d b793 f7bd
000000b0: 3086 32be c7bd 413d 2570 d93c 4ac8 b5bd
000000c0: 10b1 293e f16c c13d 77e5 83be 4438 a33d
000000d0: 6cb3 8f3d f1ce 02be 0f4b 353d 0d7c 3f3e
000000e0: 875f 5e3c 9af6 1e3e 8065 3f3d d1a7 34bd
000000f0: aab1 8a3d 53f6 ab3c 86ed 34be b99f 45be
00000100: 9453 18bd d804 983c 860e 89bd 586d 8cbc
00000110: 73e1 2abd ec03 a1bd c9dd a5bd 522b 07be
00000120: 99ab bf3d 93da 873d 7f4d 283d fab0 91bd
00000130: 76ff 173e 6460 04be fd2d ca3d b4f8 42bd
00000140: 3574 1ebe 7acc c43d 165b 71be 8768 1b3d
00000150: e72c de3d 5f59 1dbe d55a 21bd 3e46 2dbe
00000160: 8800 6abe 2c88 c13c 3c44 4a3d 5490 303b
00000170: 2ff2 fabd 58a9 e5bc a9f3 de39 833a 17be
00000180: 0dc3 9bbd a73b fdbc eace 92bd ce0d 123c
00000190: 656c 85bb f7f6 8cbd 4de1 16be caee 52be
000001a0: b4dd 11be e50d 00be 23e3 0dbe 4713 c43b
000001b0: 4d9a 923c bc75 2e3d 73aa f03c f574 05be
000001c0: ea1b a3bb 27ff cb3c 09cf 09be ef88 19be
000001d0: 73e3 e6bc 5d77 b6bb 1d24 5e3c 6e21 523d
000001e0: cfd4 853d ce13 993c d10f b4bc 801f 15bd
000001f0: 30c4 2ebd 0b8d aa3c 73e7 bd3c 8c1a 503b
00000200: 6158 e9bb 925c 02bd 603f 34be cc00 c2bd
00000210: 44d3 06bd 7d87 2cbd 6b73 b23d 0b6e 06be
00000220: 81da 5abc 383e b5bd 68d0 d0bd 0540 da3d
00000230: b6f4 243c cf0e b5bd 1785 1abe 7881 8fbd
00000240: 2bd4 293e 87fc c53a abfa 4c3e a271 8b3d
00000250: 5161 b53d 1444 633d e3cb 913b bc45 823c
00000260: e6fd 51bd 8b4b 89bd 607a 96bc c31e 8a3e
00000270: 1f30 6ebd b916 0d3e 7f87 fe3d 9e11 3b3d
00000280: 6b27 36be 447b 30bd 0864 48be 0cdc 803d
00000290: 5e24 1d3e d587 0f3e a074 9bbe 0092 1c3e
000002a0: cd16 c53d 25fe 01be 7656 a13d 0be0 e0bf
000002b0: 0c7e ccbc 867b b1bd 9afa a0bd 7450 01bd
000002c0: 88a4 173d a15d 933c 0f8a 13bd 6fe7 84bb
000002d0: 94e4 8dbf 44ec e23e c5e6 43bd 0919 363b
000002e0: cc4f 133d f666 c23d a925 bbba 2baf f6bc
000002f0: 755b 2bbd 9618 6fbe 990c b5be 6f35 8dbc
00000300: a22e 8fbe 2d2e f63d 2de5 f3bd 1b34 91bd
00000310: 32d6 0a3b b7b9 1b3d df44 2bbe 1c22 e0be
00000320: 6b8b 3cbe 7222 053d 36f7 01be 759b 2ebe
00000330: 733f 15bc be50 a63c c12e 8dbb 3883 00bd
00000340: 05a3 a13c 5b0b 78be fab3 3fbd 330e 90bc
00000350: 47c5 51be 2d5e b53e 65dd 6b3b ba07 e63d
00000360: fee6 0d3e 8cca 25be 6197 1f3e 02c7 a53d
00000370: 41fc f93d 81c7 b4bb 4ba7 313e 3c4a e93d
00000380: 778a 55bd 14a4 783e 968c 39be f66d 28bc
00000390: 4b72 b6bd d56a 9ebd 3a1f 04be b7aa a63e
000003a0: 320d a4bd 5670 cdbd 0326 02bd de61 25bf
000003b0: ddf3 db3e 2ff5 df3d cddc 9fbd 7a6a e8bc
000003c0: 3175 d6bb 57e1 7bbd c595 543a 5242 5c3e
000003d0: 4b8f 0abf 94b0 733e 9331 b13d 54fc b5bd
000003e0: da90 b5bd 3648 b2bc 24eb d8bc 5acf 0f3d
000003f0: c968 bf3d a8ab 7bbf 978d 0ebf f399 553e

conv.2.bias f4 [32]
0.02146033 0.03307512 -0.060248 -0.036003 -0.0086019505 -0.07416026 0.14251283 -0.07220127
-0.17416427 -0.27108574 0.079252936 0.22042212 -0.12180091 0.08609927 0.105585605 -0.06279143
0.03312876 0.07406734 0.16710229 -0.10932007 -0.04789927 -0.0026575322 -0.03329618 -0.1599581
-0.055794634 0.22945872 0.049115326 -0.12739336 -0.034954987 0.03779409 -0.05865923 0.025394343
00000000: 93cd af3c c779 073d 9bc6 76bd e277 13bd
00000010: 32ef 0cbc 56e1 97bd e2ee 113e 42de 93bd
00000020: 1e58 32be c0cb 8abe 5d4f a23d 56b6 613e
00000030: c172 f9bd d054 b03d 443d d83d cb98 80bd
00000040: 06b2 073d 9eb0 973d dd1c 2b3e 33e3 dfbd
00000050: 0632 44bd fe29 2ebb 9361 08bd 0ecc 23be
00000060: ea88 64bd 3af7 6a3e 272d 493d 6873 02be
00000070: f62c 0fbd facd 1a3d a944 70bd cc07 d03c

conv.4.weight f4 [64, 32, 6, 6]
-0.012268359 -0.0580607 0.06199895 -0.015380145 0.0417868 -0.0156164 -0.03032345 0.04041148
0.029197307 0.022754727 -0.016655067 0.039051794 0.0003229722 0.025724005 -0.023550767 -0.043138687
-0.0019739452 0.028814124 0.016833218 0.07862446 0.0037525888 -0.047503848 -0.047902975 0.07971778
0.029645488 0.0029883373 -0.052778598 0.035710268 -0.0018433931 -0.002326056 0.011375197 -0.016749118
-0.032641094 0.0043187886 -0.040808503 -0.0054785623 -0.13254796 -0.30105117 0.062573925 -0.22337055
-0.29057983 -0.30075687 -0.07899646 -0.041270867 0.010091004 -0.25114027 -0.18402113 0.13872679
-0.2024886 0.06978079 0.0038937018 -0.006905783 -0.027601918 -0.00048268863 -0.10621874 -0.19149631
-0.00811189 -0.12875628 -0.10699989 -0.017223282 -0.06905338 -0.06733411 -0.0703663 -0.10600381
-0.1396971 -0.013744684 -0.24127436 -0.012306761 0.12097345 -0.038153883 0.01611289 -0.46082628
-0.010297107 -0.039310735 -0.022909082 -0.048452284 0.015450231 -0.024874898 -0.00836858 0.004932555
-0.0016785277 0.014912174 0.027165947 0.015384312 0.010205413 -0.008904367 -0.027940437 0.024024755
0.019377857 -0.005536968 -0.021910533 0.02463747 -0.0209244 0.01594117 -0.033546604 -0.009267634
-0.0020982707 0.037490554 0.0022820085 0.02241449 -0.009719215 0.030482516 0.027841548 0.033024423
0.042398226 0.010884887 -0.0045377254 0.00366982 -0.041166138 0.10337734 0.06161291 -0.20482828
-0.43057552 0.10457191 0.039328333 0.25660428 0.048769362 -0.065050095 0.1802321 -0.34969747
0.2590951 0.13767369 0.10944153 0.059139192 0.18773367 0.16281421 0.16900118 0.20512283
0.14119895 0.00583112 0.20306282 0.1882476 0.072785065 0.19040251 0.21394062 0.15520793
0.24948676 -0.49993807 0.061460346 -0.19057989 -0.3008364 -0.054379854 0.21066754 -0.2878675
-0.11907418 -0.1924179 -0.112259075 -0.023034863 0.06738362 0.038502682 0.12587047 0.079773486
-0.45264617 -0.29221568 -0.30420196 -0.17943996 -0.18254253 -0.06262447 -0.21620211 -0.1254553
0.024838787 -0.26129633 0.04774671 -0.07920562 -0.0630256 -0.12215432 -0.25912103 -0.08281206
0.18037397 -0.049926817 -0.030389437 -0.08469261 -0.011007802 0.038648605 -0.08598119 0.060933936
0.115350984 -0.05758225 -0.062704846 -0.3932221 0.070395 0.043787695 0.070452735 0.08854282
-0.019594183 0.0015799628 0.023274058 0.002473331 0.06736922 -0.017185872 -0.03398082 0.058268778
0.031056417 -0.052006576 0.016519116 0.065250084 0.020492064 0.0150040565 0.10580875 -0.01119977
0.026085384 0.05357042 -0.015896957 0.00084166386 -0.037691917 0.06689102 0.054275803 -0.0030136274
-0.07283909 -0.053974412 -0.011328214 0.06472703 0.01767457 -0.0745534 -0.110815614 -0.03764487
-0.07666003 -0.0011537916 0.22368436 0.12002246 0.10986234 0.0916207 0.09521806 0.08705951
0.122687824 0.17568551 0.10632566 0.121144705 0.20751533 -0.04810112 0.13452324 0.08064571
0.06806071 0.13071543 -0.041857935 -0.107075654 0.04258018 0.103073955 0.10147165 0.0067651947
0.02793431 0.06753608 -0.0049605835 0.15039267 0.03089411 -0.01725421 -0.043782014 -0.19565384
0.013622908 0.17590162 -0.073045306 -0.21886298 0.016148262 0.016960358 -0.014150819 0.022760727
00000000: 3a01 49bc 0ed1 6dbd 9cf2 7d3d 01fd 7bbc
00000010: a328 2b3d eedb 7fbc e268 f8bc 8286 253d
00000020: 312f ef3c 1f68 ba3c 3570 88bc c6f4 1f3d
00000030: 9854 a939 26bb d23c 8aed c0bc 31b2 30bd
00000040: 4e5d 01bb 990b ec3c d1e5 893c dc05 a13d
00000050: feed 753b 6593 42bd e935 44bd 1343 a33d
00000060: 18db f23c fbd7 433b 5f2e 58bd ee44 123d
00000070: 029e f1ba be70 18bb 095f 3a3c 7235 89bc
00000080: abb2 05bd a084 8d3b d126 27bd 8385 b3bb
00000090: a7ba 07be 6123 9abe c226 803d 40bb 64be
000000a0: e1c6 94be cefc 99be e5c8 a1bd a40b 29bd
000000b0: bd54 253c 7595 80be 0970 3cbe 650e 0e3e
000000c0: 2c59 4fbe 3be9 8e3d 7a2d 7f3b e849 e2bb
000000d0: 6b1d e2bc 5f11 fdb9 3689 d9bd 9c17 44be
000000e0: bce7 04bc b0d8 03be c222 dbbd d717 8dbc
000000f0: dc6b 8dbd 77e6 89bd 351c 90bd 8718 d9bd
00000100: c20c 0fbe 6231 61bc a010 77be 4ca2 49bc
00000110: eec0 f73d 3f47 1cbd 2eff 833c 6cf1 ebbe
00000120: 32b5 28bc 4b04 21bd d4ab bbbc e775 46bd
00000130: f722 7d3c 71c6 cbbc 5e1c 09bc 45a1 a13b
00000140: 0b02 dcba 3152 743c 1f8b de3c 7b0e 7c3c
00000150: 9b34 273c 9fe3 11bc 58e3 e4bc 90cf c43c
00000160: 50be 9e3c 746f b5bb b87d b3bc 85d4 c93c
00000170: a669 abbc 0e97 823c 2a68 09bd 46d7 17bc
00000180: 2483 09bb b28f 193d c08d 153b 989e b73c
00000190: 583d 1fbc 78b6 f93c f513 e43c 9e44 073d
000001a0: c3a9 2d3d 8656 323c 33b1 94bb 5d81 703b
000001b0: d39d 28bd 80b7 d33d d25d 7c3d 81be 51be
000001c0: 6574 dcbe cc29 d63d bf16 213d a361 833e
000001d0: 62c2 473d fc38 85bd c38e 383e 8c0b b3be
000001e0: 1da8 843e 55fa 0c3e e222 e03d f03b 723d
000001f0: 413d 403e c5b8 263e a50e 2d3e b80b 523e
00000200: 7596 103e fb12 bf3b b3ef 4f3e fbc3 403e
00000210: 5610 953d e0f8 423e 4013 5b3e d4ee 1e3e
00000220: 7579 7f3e e2f7 ffbe d8bd 7b3d 6027 43be
00000230: 3b07 9abe 69bd 5ebd 3bb9 573e 5e63 93be
00000240: 2add f3bd 3309 45be 16e8 e5bd 9cb3 bcbc
00000250: 6c00 8a3d fdb4 1d3d 30e4 003e 4860 a33d
00000260: 3dc1 e7be 4b9d 95be 5cc0 9bbe 1cbf 37be
00000270: 6eec 3abe 4241 80bd 1664 5dbe 5b77 00be
00000280: b67a cb3c a2c8 85be 0e92 433d 8e36 a2bd
00000290: 9113 81bd 0b2c fabd 83ab 84be 5f99 a9bd
000002a0: f4b3 383e 1080 4cbd 45f3 f8bc 5273 adbd
000002b0: 115a 34bc 004e 1e3d e816 b0bd dd95 793d
000002c0: 233d ec3d 5edb 6bbd 666b 80bd 6854 c9be
000002d0: 412b 903d ba5a 333d 8649 903d f055 b53d
000002e0: fb83 a0bc c116 cf3a 3da9 be3c 9c17 223b
000002f0: e0f8 893d 63c9 8cbc 792f 0bbd 3eab 6e3d
00000300: 076a fe3c d904 55bd 1953 873c d6a1 853d
00000310: f9de a73c 93d3 753c 42b2 d83d 3d7f 37bc
00000320: 04b1 d53c a86c 5b3d 563a 82bc 1ba3 5c3a
00000330: d762 1abd 29fe 883d 4e50 5e3d 4780 45bb
00000340: a92c 95bd 4614 5dbd f999 39bc 9b8f 843d
00000350: 43ca 903c 74af 98bd 4cf3 e2bd 8231 1abd
00000360: efff 9cbd d23a 97ba 830d 653e 56ce f53d
00000370: 82ff e03d a2a3 bb3d b001 c33d 424c b23d
00000380: c143 fb3d e7e6 333e 45c1 d93d b71a f83d
00000390: e67e 543e ae05 45bd 76c0 093e 9429 a53d
000003a0: 6a63 8b3d 44da 053e 3a73 2bbd 7b4a dbbd
000003b0: 8e68 2e3d 7018 d33d 5ed0 cf3d 91ae dd3b
000003c0: 7ed6 e43c 5b50 8a3d 648c a2bb 8900 1a3e
000003d0: a515 fd3c b358 8dbc c554 33bd 7b59 48be
000003e0: 9e32 5f3c 8e1f 343e c798 95bd 9e1d 60be
000003f0: 5c49 843c 73f0 8a3c d6d8 67bc b474 ba3c

conv.4.bias f4 [64]
-0.12153183 0.032491166 -0.2355189 -0.12541986 -0.008492525 -0.1822825 -0.06500095 -0.10344249
-0.17676185 -0.038481254 -0.08608628 -0.053066205 -0.043316685 -0.26293156 -0.23421355 -0.16118397
-0.12143227 0.15777384 -0.05384068 -0.031374082 -0.23628078 -0.1098495 0.35604948 -0.11907993
-0.142174 -0.19942906 -0.21913835 -0.14602788 -0.20964354 -0.19051884 -0.20134808 0.15009277
-0.20095696 0.28824973 0.014585794 -0.20850411 -0.13195923 0.206019 -0.12447107 -0.09907475
-0.2525146 -0.2068856 -0.05112939 -0.26141638 -0.073031485 -0.04740959 0.25332323 -0.2733101
-0.09180264 -0.14610346 -0.107294664 -0.16038197 -0.049140356 -0.07167963 -0.10185686 -0.23974061
-0.27498406 -0.11243736 -0.11310094 0.13207342 -0.22630173 -0.0005390197 -0.18485644 -0.07677534
00000000: aee5 f8bd 7515 053d de2b 71be 106e 00be
00000010: 3b24 0bbc 44a8 3abe 381f 85bd a8d9 d3bd
00000020: 0f01 35be 859e 1dbd 014e b0bd f35b 59bd
00000030: d66c 31bd f79e 86be add5 6fbe 690d 25be
00000040: 7bb1 f8bd 778f 213e 0b88 5cbd 1c82 00bd
00000050: 97f3 71be c6f8 e0bd 1e4c b63e 2ee0 f3bd
00000060: 1096 11be 2237 4cbe ce65 60be 5588 15be
00000070: ccac 56be 5f17 43be 312e 4ebe ebb1 193e
00000080: a9c7 4dbe 7895 933e 41f9 6e3c 1a82 55be
00000090: 5220 07be a5f6 523e b0ea febd b4e7 cabd
000000a0: 9849 81be d2d9 53be 0d6d 51bd 5ed8 85be
000000b0: 8891 95bd 8f30 42bd 95b3 813e 4def 8bbe
000000c0: 0603 bcbd 259c 15be 4ebd dbbd 2c3b 24be
000000d0: 6647 49bd c5cc 92bd 549a d0bd 907e 75be
000000e0: b6ca 8cbe 8f45 e6bd 77a1 e7bd 413e 073e
000000f0: a4bb 67be 004d 0dba 024b 3dbe 643c 9dbd

fc.1.weight f4 [64, 1600]
0.0055536306 -0.0018972082 -0.016805364 0.017531613 0.0016433101 -0.024202872 -0.008367994 0.0095986
0.01979509 -0.0026915025 -0.02191629 0.018747134 -0.0022261022 -0.02133033 -0.015604952 -0.024515973
-0.012052971 -0.005057122 -0.019575024 -0.0061937785 -0.016863616 -0.010353625 0.0007169889 -0.013137312
-0.007962977 -0.005457352 0.017357223 0.011919921 0.01680821 0.009909553 0.021351157 -0.011312217
0.02060688 -0.01677943 0.011290906 0.0067229597 -0.017404536 0.0058267782 -0.0121696 0.0101622
-0.021522043 -0.0074412604 0.022400057 -0.02331687 0.009540511 -0.013264443 0.0048054373 -0.0021704906
-0.007027396 0.018171765 0.019660976 0.018903263 -0.013985973 0.025675025 0.0030026918 -0.016970694
-0.023764955 -0.010963552 0.028598575 -0.019252893 0.011640635 -0.009694983 0.022222035 -0.007436843
-0.018408354 0.010433351 -0.016109813 -0.008272348 -0.016975164 -0.0054355464 0.0018463635 0.020041648
-0.0073928237 0.030167092 0.021698143 0.007252729 0.013629378 0.003139202 -0.0020241884 0.0037840449
-0.011370753 0.01995067 -0.00951326 -0.00520616 -0.007081217 -0.021719635 -0.00061543635 -0.020052537
0.008077235 0.0032642006 -0.021258995 0.01117207 -0.022529973 0.009519847 0.0037144173 0.010551132
-0.021797998 -0.0008055872 -0.0018218592 0.006694601 0.009878891 -0.005997261 -0.009691757 0.0058738836
-0.004148647 -0.013490993 0.013346078 0.004814841 0.02127291 0.005392716 -0.006861661 0.0051283934
-0.007289445 0.02183802 0.02061995 0.020444429 -0.027038472 0.0025697635 0.008072857 -0.025322909
-0.0072642155 0.000113035836 -0.012167825 0.004728409 -0.019326616 -0.004507543 0.0134737585 -0.02779835
-0.03330586 -0.024839355 0.0054278285 -0.010295585 0.006231748 0.019456035 -0.019942416 0.011882554
-0.017942537 -0.0046518994 -0.015891343 -0.0054329624 0.0084674135 0.018499667 0.021461677 0.004510525
0.004756751 -0.002077508 -0.024386907 -0.016441265 0.0009748494 -0.010803353 -0.03278687 0.004547242
-0.002085573 -0.015102871 -0.011484165 -0.023650166 -0.0430601 -0.017692648 -0.04093242 -0.03771277
-0.0219148 -0.037991628 -0.022655338 -0.017188033 0.0011558232 -0.020411836 0.004342503 -0.027136521
-0.031748947 -0.036695752 -0.011264943 -0.008366664 -0.03394759 -0.03436799 0.0027549013 0.019437702
0.0071962476 -0.006119669 -0.025905892 0.013137458 -0.022578184 -0.01996486 -0.004039742 -0.031251665
0.0019253027 0.014402332 0.015732868 0.008086983 -0.02033219 0.0010612046 -0.004804959 0.021137808
-0.028249685 -0.010742575 -0.025318695 0.007340767 0.015212054 0.0071628774 0.0023513194 0.0051708105
0.008261584 0.011679122 -0.020975433 -0.0150670465 -0.017282262 -0.0034473187 0.011683796 -0.027967663
0.011102012 -0.005352311 0.023935648 0.014451835 -0.0068903016 -0.018265478 -0.00837103 0.011973248
0.013657936 0.012569736 0.004105264 0.017303215 -0.02144322 -0.0133269 -0.0044325646 -0.016237687
-0.023119418 0.00050480955 -0.009611314 0.011728231 0.0051340596 -0.0033054813 0.00046018913 -0.017729534
-0.0011350209 -0.013150023 -0.00738561 0.021539342 -0.013646238 0.004106332 -0.009584752 0.0010387148
-0.015131604 -0.0025720114 -0.0040573278 -0.0127582 0.0016137782 -0.012110217 -0.0003814102 0.007907626
-0.0063827005 0.011503745 0.0062366957 0.008145608 -0.008781253 0.010100015 0.00047015358 -0.011511383
00000000: 3bfb b53b beab f8ba 67ab 89bc 759e 8f3c
00000010: 5664 d73a 1a45 c6bc e919 09bc 7243 1d3c
00000020: 5029 a23c eb63 30bb cb89 b3bc 9793 993c
00000030: cce3 11bb f2bc aebc eaab 7fbc b9d5 c8bc
00000040: d379 45bc 37b6 a5bb cd5b a0bc 2ef5 cabb
00000050: 9125 8abc 40a2 29bc 50f4 3b3a e13d 57bc
00000060: 2577 02bc 96d3 b2bb bc30 8e3c c64b 433c
00000070: 5fb1 893c ae5b 223c 9fe8 ae3c e156 39bc
00000080: c2cf a83c 0475 89bc 7efd 383c 464c dc3b
00000090: f593 8ebc 8fee be3b 0163 47bc 5b7f 263c
000000a0: ff4e b0bc d1d5 f3bb 5380 b73c 0503 bfbc
000000b0: ce4f 1c3c 1b53 59bc ee76 9d3b ca3e 0ebb
000000c0: 1246 e6bb f4dc 943c 0e10 a13c 04db 9a3c
000000d0: 6c25 65bc 6e54 d23c cfc8 443b 2006 8bbc
000000e0: b9ae c2bc 78a0 33bc 8f47 ea3c 3eb8 9dbc
000000f0: 5db8 3e3c b5d7 1ebc fc0a b63c c3b0 f3bb
00000100: 1ecd 96bc a5f0 2a3c baf8 83bc be88 07bc
00000110: 800f 8bbc ab1c b2bb ae01 f23a 622e a43c
00000120: 803f f2bb fa20 f73c 4ec0 b13c 4da8 ed3b
00000130: c14d 5f3c 12bb 4d3b 3fa8 04bb bdfd 773b
00000140: 654c 3abc 966f a33c 81dd 1bbc 6f98 aabb
00000150: 8e09 e8bb 60ed b1bc 3c55 21ba 3845 a4bc
00000160: 6156 043c 33ec 553b 5827 aebc 0f0b 373c
00000170: c790 b8bc 22f9 1b3c 956d 733b a8de 2c3c
00000180: b791 b2bc 0b2e 53ba 73cb eeba 625e db3b
00000190: 12db 213c ac84 c4bb 2dca 1ebc b579 c03b
000001a0: 60f1 87bb 5309 5dbc 82a9 5a3c d0c5 9d3b
000001b0: 8744 ae3c 61b5 b03b c9d7 e0bb 150c a83b
000001c0: 4cdc eebb a6e5 b23c 2beb a83c 137b a73c
000001d0: c97f ddbc 7a69 283b 0444 043c fd71 cfbc
000001e0: a808 eebb a70d ed38 8f5b 47bc c5f0 9a3b
000001f0: da52 9ebc 03b4 93bb 0ac1 5c3c 5eb9 e3bc
00000200: ba6b 08bd e77b cbbc eddb b13b d0ae 28bc
00000210: b133 cc3b 4362 9f3c 475e a3bc 0baf 423c
00000220: 3afc 92bc f66e 98bb 902e 82bc fe06 b2bb
00000230: e8ba 0a3c 9d8c 973c 66d0 af3c 07cd 933b
00000240: 85de 9b3b cd26 08bb 0dc7 c7bc d5af 86bc
00000250: 098d 7f3a 8c00 31bc 864b 06bd 0801 953b
00000260: 1cae 08bb 0872 77bc 1428 3cbc febd c1bc
00000270: ca5f 30bd 2cf0 90bc c1a8 27bd b578 1abd
00000280: ab86 b3bc 1c9d 1bbd b097 b9bc ebcd 8cbc
00000290: fe7e 973a b936 a7bc 8e4b 8e3b 694d debc
000002a0: 2f0b 02bd 494e 16bd 9890 38bc 5514 09bc
000002b0: a10c 0bbd 73c5 0cbd 938b 343b d13b 9f3c
000002c0: 80ce eb3b 8187 c8bb 9838 d4bc 7e3e 573c
000002d0: e2f5 b8bc 598d a3bc d05f 84bb bf01 00bd
000002e0: 705a fc3a c2f7 6b3c 37e2 803c 447f 043c
000002f0: b18f a6bc 1e18 8b3a eb72 9dbb 3229 ad3c
00000300: e26b e7bc a001 30bc 2769 cfbc d18a f03b
00000310: fb3b 793c 92b6 ea3b 9818 1a3b e76f a93b
00000320: 985b 073c ca59 3f3c acd4 abbc c6db 76bc
00000330: 8893 8dbc 69ec 61bb 646d 3f3c 711c e5bc
00000340: 37e5 353c 7062 afbb b114 c43c 64c7 6c3c
00000350: 0ac8 e1bb 7ca1 95bc a526 09bc 712b 443c
00000360: 89c5 5f3c 4bf1 4d3c 7385 863b 79bf 8d3c
00000370: b1a9 afbc 1259 5abc 0c3f 91bb e604 85bc
00000380: ef64 bdbc 3255 043a c678 1dbc c427 403c
00000390: 9d3b a83b c6a0 58bb 8a45 f139 873d 91bc
000003a0: fbc4 94ba 3273 57bc fd02 f2bb 4673 b03c
000003b0: 7894 5fbc 698e 863b 5d09 1dbc 7c25 883a
000003c0: 8cea 77bc 318f 28bb 55f3 84bb c507 51bc
000003d0: 6985 d33a ee69 46bc 03f8 c7b9 fd8e 013c
000003e0: f925 d1bb 347a 3c3c 325d cc3b 2875 053c
000003f0: 3fdf 0fbc 897a 253c f27e f639 3d9a 3cbc

fc.1.bias f4 [64]
0.012332149 0.037188295 -0.033733513 0.0076446543 0.2839425 0.16619474 -0.037108053 -0.009220546
0.01412509 0.27299395 0.2471739 0.181748 0.007878049 0.027024584 0.097537965 0.5926775
-0.00014176423 0.009336399 -0.035271928 -0.027178748 0.023900867 0.0026220018 -0.024507476 0.07122069
0.011206181 -0.022158133 -0.02908286 -0.054828376 0.06034464 0.11372613 0.0023933132 -0.028242037
-0.008316324 0.26570863 -0.005297881 0.29799697 -0.012109923 0.30152953 0.015279613 0.008772568
-0.029200263 0.15688217 0.0041926154 0.09411826 0.088719904 0.014946478 0.008743478 -0.0025521105
-0.016168648 0.024661163 0.012096168 -0.0008615758 0.20711467 0.32104585 0.0028822706 0.010977546
-0.018220639 -0.03486187 -0.05031677 0.33991954 -0.004971396 -0.022547724 0.090668574 0.16501278
00000000: c80c 4a3c c152 183d 272c 0abd 0280 fa3b
00000010: e960 913e f42e 2a3e 9dfe 17bd c611 17bc
00000020: ec6c 673c ddc5 8b3e 281b 7d3e 261c 3a3e
00000030: ef12 013c a962 dd3c fcc1 c73d b6b9 173f
00000040: 8ca6 14b9 b2f7 183c 4c79 10bd f7a5 debc
00000050: c0cb c33c e4d5 2b3b e7c3 c8bc 27dc 913d
00000060: 219a 373c f984 b5bc 2e3f eebc b893 60bd
00000070: f12b 773d 3fe9 e83d 22d9 1c3b d85b e7bc
00000080: 3141 08bc f60a 883e d999 adbb 0f93 983e
00000090: b368 46bc 1462 9a3e 5857 7a3c d1ba 0f3c
000000a0: 6435 efbc b8a5 203e 3562 893b 13c1 c03d
000000b0: c8b2 b53d 13e2 743c ce40 0f3c 4f41 27bb
000000c0: 1d74 84bc 3506 ca3c 012f 463c 60db 61ba
000000d0: de15 543e 1f60 a43e 7ae4 3c3b 2adb 333c
000000e0: 7343 95bc 52cb 0ebd f518 4ebd ef09 ae3e
000000f0: 18e7 a2bb 01b6 b8bc 72b0 b93d 1cf9 283e

fc.3.weight f4 [4, 64]
0.016114047 0.19970456 0.011553958 0.07620694 -0.18424797 0.17598045 0.09183856 -0.092823
0.09334883 0.09325792 0.045946397 -0.8606666 0.074783444 0.03015486 -1.1894501 0.38203633
0.046034906 -0.19792777 0.101379365 0.031063613 0.2549524 0.018153073 -0.061506443 -0.280419
-0.015601993 -0.008729342 -0.10427679 -0.07927699 0.0056847176 0.14269032 0.066547684 0.013198833
0.08079862 -0.6987583 -0.10251788 0.1307763 0.041332364 -0.20825522 -0.009216057 0.1463003
0.038832434 -0.06075956 -0.041784216 0.170175 -0.19886684 -0.026122589 0.237578 0.11762307
0.041886266 0.24109727 0.16184469 -0.04431205 -1.2093208 -0.09907403 -0.032056876 0.09288566
-0.027836869 0.05436705 -0.08330083 -0.13412257 0.022846049 -0.06480354 0.18341175 0.11022431
-0.01038484 -0.15118766 0.10666872 -0.082573384 -0.3767759 0.15764168 -0.05057145 0.022672094
-0.02718798 0.11663238 -1.1499084 -0.05991711 0.026220689 -0.9390207 0.1346364 0.31995952
-0.01567826 -0.17683181 0.031871706 0.054882973 0.08560276 0.071706295 0.12444378 -0.0872734
0.043677095 -0.08513409 0.08280265 -0.04953779 -1.270611 -0.33133125 0.10287162 -0.092148215
0.010608382 0.02446639 0.028565027 -0.063400544 -0.051859822 -0.14789715 -0.008406391 0.12200469
-0.10881419 -0.03886894 0.0019122197 0.12422692 0.22629932 -0.27619916 -0.28851497 -0.11140943
-0.06317018 0.28378582 0.22246848 -0.062443137 0.036795884 -0.1913202 -0.08234228 -0.0038963782
-0.023961445 -0.004145518 -0.052813586 0.08905907 0.043841105 0.104909405 0.28209278 -0.017333493
-0.02439952 -0.12873664 0.063630536 0.07770449 -0.50545466 0.41673982 0.08582004 0.011074967
0.118190385 -0.7756728 0.013239205 0.25537503 0.082898274 0.11252978 0.110303774 0.3019376
0.056498043 -0.26000983 0.085852265 0.09766427 -0.04976905 0.011471474 0.06846248 0.21538635
0.065882966 0.014370857 0.02614369 1.7935764 -0.0051252837 0.14373969 0.097630285 -0.08273034
-0.090512045 0.00021491105 0.046343382 -1.1939447 -0.05920454 -0.18829682 0.06192436 -0.9066195
0.09594524 -0.1053061 0.044536974 0.1605535 0.071455605 0.14309292 0.2639619 0.08050615
-0.009283199 -0.4427867 0.14236517 0.046864063 -0.1560531 -0.14421739 -0.022473946 0.010679645
-0.09440928 0.100223005 0.044605743 -1.1590476 0.048214737 0.012196366 0.26858872 -0.27454135
-0.009624895 -0.06528161 -0.03931846 -0.05375377 0.10481422 0.0957616 -0.038306993 0.076860204
-0.091408744 -0.16722721 -0.079021685 -0.11979759 -0.09707346 0.20721973 0.13821495 0.3073778
-0.04777936 -0.33636436 0.008856975 -0.11025496 -0.1083465 -0.0600463 -0.07561126 -0.25224587
0.036282726 -0.028896108 -0.05058481 0.008875802 0.019230982 0.3459251 -0.10610498 0.11470722
0.12008634 -0.1479095 0.0117102275 -0.06552427 -0.07989444 -0.6960498 -0.007358248 0.15115887
-0.06162089 -1.4242463 0.07965319 -1.5616429 0.29095387 0.27887803 0.15428478 -0.119750984
0.12004577 0.29453442 -0.43378687 -0.0188575 0.1843643 -0.9200554 0.029891796 -0.0069256695
-0.10752298 0.11911546 0.0050778287 0.035821397 0.10904018 -0.03794004 -0.7866738 0.13408783
00000000: 9b01 843c 5a7f 4c3e d04c 3d3c 6212 9c3d
00000010: 80ab 3cbe 3834 343e db15 bc3d fc19 bebd
00000020: ac2d bf3d 02fe be3d 4a32 3c3d a554 5cbf
00000030: 1028 993d 5307 f73c e73f 98bf 449a c33e
00000040: 198f 3c3d 94ad 4abe fc9f cf3d 1e79 fe3c
00000050: 1f89 823e c1b5 943c 2eee 7bbd 1493 8fbe
00000060: 809f 7fbc 8405 0fbc 128f d5bd f95b a2bd
00000070: de46 ba3b 691d 123e 274a 883d eb3f 583c
00000080: bf79 a53d d3e1 32bf e5f4 d1bd 39ea 053e
00000090: 204c 293d db40 55be f2fe 16bc bfcf 153e
000000a0: c20e 1f3d 04df 78bd ed25 2bbd 5b42 2e3e
000000b0: c0a3 4bbe 0aff d5bc a647 733e 5de4 f03d
000000c0: ef90 2b3d 34e2 763e 9dba 253e 8d80 35bd
000000d0: 06cb 9abf 53e7 cabd 124e 03bd d63a be3d
000000e0: 250a e4bc fcaf 5e3d a099 aabd 6d57 09be
000000f0: a327 bb3c b8b7 84bd 4ad0 3b3e 48bd e13d
00000100: 2d25 2abc f0d0 1abe 2175 da3d 3c1c a9bd
00000110: c5e8 c0be d26c 213e 0224 4fbd d4ba b93c
00000120: 54b9 debc f5dc ee3d 3330 93bf a56b 75bd
00000130: c5cc d63c a963 70bf 20de 093e bcd1 a33e
00000140: b26f 80bc 6613 35be e88b 023d f8cc 603d
00000150: 8050 af3d c0da 923d 61dc fe3d 65bc b2bd
00000160: c1e6 323d c85a aebd 7094 a93d 23e8 4abd
00000170: 62a3 a2bf 40a4 a9be 5bae d23d 34b8 bcbd
00000180: c7ce 2d3c bd6d c83c 3401 ea3c 25d8 81bd
00000190: f76a 54bd 5a72 17be f6ba 09bc 98dd f93d
000001a0: f9d9 debd 0a35 1fbd 72a3 fa3a af6a fe3d
000001b0: 02bb 673e fa69 8dbe 3cb8 93be a12a e4bd
000001c0: 5e5f 81bd 604c 913e c7ce 633e 60c4 7fbd
000001d0: 48b7 163d 71e9 43be 12a3 a8bd 615a 7fbb
000001e0: cb4a c4bc 20d7 87bb 0f53 58bd 9a64 b63d
000001f0: bb92 333d beda d63d 776e 903e f8fe 8dbc
00000200: 81e1 c7bc 8ad3 03be ba50 823d 8823 9f3d
00000210: 7a65 01bf ec5e d53e 6bc2 af3d c773 353c
00000220: cd0d f23d 7e92 46bf 40e9 583c 84c0 823e
00000230: 92c6 a93d 0376 e63d f2e6 e13d 9197 9a3e
00000240: 7e6a 673d 0220 85be 50d3 af3d 3404 c83d
00000250: a2da 4bbd d9f2 3b3c 0f36 8c3d 3d8e 5c3e
00000260: a6ed 863d be73 6b3c 4b2b d63c e993 e53f
00000270: fff1 a7bb 7f30 133e 63f2 c73d 866e a9bd
00000280: 615e b9bd bf59 6139 8fd2 3d3d 2ed3 98bf
00000290: 7680 72bd e2d0 40be 66a4 7d3d 3718 68bf
000002a0: f07e c43d b9aa d7bd 676c 363d 2368 243e
000002b0: 5157 923d f386 123e 0426 873e 69e0 a43d
000002c0: 8f18 18bc f0b4 e2be 2dc8 113e 88f4 3f3d
000002d0: 62cc 1fbe b9ad 13be 481b b8bc aef9 2e3c
000002e0: a759 c1bd b841 cd3d 83b4 363d ac5b 94bf
000002f0: d17c 453d 44d3 473c 7684 893e af90 8cbe
00000300: bcb1 1dbc 5db2 85bd 650c 21bd ea2c 5cbd
00000310: d6a8 d63d a81e c43d cbe7 1cbd e268 9d3d
00000320: 8234 bbbd 9c3d 2bbe 1fd6 a1bd 7058 f5bd
00000330: 73ce c6bd 6931 543e 3888 0d3e 9f60 9d3e
00000340: 4ab4 43bd f337 acbe d81c 113c 5acd e1bd
00000350: c5e4 ddbd 1cf3 75bd 14da 9abd 5f26 81be
00000360: 329d 143d 88b7 ecbc 0532 4fbd d06b 113c
00000370: 4b8a 9d3c 181d b13e 914d d9bd 9eeb ea3d
00000380: d4ef f53d 9775 17be 41dc 3f3c 9731 86bd
00000390: b29f a3bd 5230 32bf 751d f1bb 64c9 1a3e
000003a0: 3066 7cbd b44d b6bf 3621 a33d eae3 c7bf
000003b0: e8f7 943e 1ac9 8e3e d4fc 1d3e 0140 f5bd
000003c0: 8fda f53d 37cd 963e 5019 debe 0b7b 9abc
000003d0: ffc9 3c3e c088 6bbf a4df f43c baf0 e2bb
000003e0: 0235 dcbd cef2 f33d ea63 a63b 75b9 123d
000003f0: 7550 df3d 0467 1bbd 7463 49bf 524e 093e

fc.3.bias f4 [4]
0.37108245 0.40236625 0.3854414 0.4322654
00000000: 85fe bd3e f302 ce3e 9358 c53e e451 dd3e
