models/v17.1/model_14500_target.pt (torch, 729938 bytes, 10 tensors)

conv.0.weight f4 [16, 2, 3, 3]
000000 87 f2 38 3e 3a 2c 03 3e 21 33 eb bd 6e 54 0f 3e
       0.18061267 0.1280984 -0.114843614 0.13997051
000010 70 c8 01 bc 52 c8 8d 3c 62 9a d6 bd 8e 51 4a 3d
       -0.007921323 0.017307434 -0.10478665 0.049394183
000020 3d b4 0c 3e 45 df 85 be c5 f5 0a 3e 7f 8f 90 3d
       0.1374063 -0.26146904 0.13570316 0.0705862
000030 9f 64 d9 3d 27 87 0c 3d 21 63 37 3d 9a 0e 9d 3c
       0.10614895 0.03430858 0.04477227 0.019172002
000040 4a 6b 9d 3d 15 cf bf bd 46 41 6f 3d c1 d5 26 3e
       0.076864794 -0.0936567 0.05841186 0.16292478
000050 56 11 b8 bd cc 85 74 bd 9c 76 ff bd d4 21 21 3e
       -0.089876816 -0.05969791 -0.12473795 0.1573556
000060 59 2a 96 be a0 25 82 be 89 54 35 be 58 45 82 bd
       -0.29329184 -0.2541933 -0.17708029 -0.063608825
000070 a5 fa 27 3d cf 9a a7 bc 9c b1 36 3e 7d bd 3e be
       0.041010518 -0.02045956 0.1784119 -0.18626972
000080 0d c7 07 3e 5f da 47 3e 48 58 e3 3d f5 5d 7b 3d
       0.13259526 0.19516896 0.11100823 0.0613689
000090 10 71 f8 3d 4e 78 5a 3e f2 e1 e4 bc ed 2f f9 bd
       0.1213094 0.21334955 -0.02793977 -0.12167344
0000a0 ae 25 46 3b 5f 73 2c 3e ca 0f 2f 3e ca 42 9c 3e
       0.0030234861 0.16840886 0.17095867 0.30519706
0000b0 24 aa 73 3d fc 57 f5 bd ab ba 2f bc b7 0b 6c bc
       0.05948843 -0.11979672 -0.010725657 -0.01440709
0000c0 22 ca bd 3d e9 cd 12 be 84 3e 7b be 89 72 41 be
       0.092670694 -0.14336361 -0.24535567 -0.18891348
0000d0 71 d5 b5 be 39 28 17 bd 3d b3 46 3e 48 92 92 3d
       -0.35514405 -0.036903594 0.19404311 0.07156807
0000e0 be 7f a7 3d 1b cf 74 bd 61 03 be 3e 12 92 6d bf
       0.08178662 -0.059767824 0.37111953 -0.9280101
0000f0 cd db 05 3e f6 52 56 be ed 57 87 3d b6 dd 20 be
       0.13072129 -0.20930085 0.066085674 -0.15709576
000100 c8 88 7d bc f4 b9 96 bd b7 ed 07 3e 6e 79 c9 bd
       -0.015474506 -0.073596865 0.13274275 -0.09837614
000110 b2 9f f5 bc de 29 d1 bd e5 b5 36 3e b1 2a 30 bc
       -0.029983375 -0.10213064 0.17842825 -0.010752366
000120 71 eb 77 3e 5d e5 1a be b0 13 24 be 75 a9 1c be
       0.24210908 -0.15126558 -0.16023135 -0.15299018
000130 b3 4a 02 be ca 17 87 3e 8d 05 13 3e 17 ae 4d 3e
       -0.12723808 0.26385337 0.14357586 0.20085941
000140 b5 16 e8 bd cb 31 5d be 3b df 31 3e 63 71 ef 3d
       -0.11332456 -0.21601026 0.17370312 0.11691549
000150 0d 22 13 3e 58 b1 dc 3d c8 06 72 3e 41 fc 13 be
       0.14368458 0.10776013 0.236354 -0.14451696
000160 ea a3 3a be 84 02 fb 3d 8a 26 f0 3d 8b 4d 86 3c
       -0.18226591 0.12256339 0.11726101 0.016394397
000170 65 39 9e 3e 97 43 ba 3d de 3a aa be 82 e4 28 bc
       0.30903164 0.09094923 -0.33248037 -0.010308387
000180 48 91 2d 3e 26 7e 28 be 53 7e d9 be c6 89 07 be
       0.16949952 -0.16454372 -0.4247919 -0.1323615
000190 01 3f 24 bd e8 32 07 3e 20 41 96 bd 85 f3 10 bb
       -0.040099148 0.13203013 -0.0733664 -0.0022117805
0001a0 27 4a 09 3c b9 a1 3f be 4c ab a5 3d 0c d4 6e 3d
       0.008379496 -0.18714036 0.08089313 0.058307692
0001b0 a6 b0 e5 be 26 c2 f3 be 9d ac 95 3d bc ef 11 bd
       -0.44861335 -0.4760906 0.07308314 -0.03562902
0001c0 7e 05 69 bd 3c a8 eb be 63 3a ec be ef 68 e8 be
       -0.056890003 -0.4602679 -0.46138296 -0.45392558
0001d0 84 69 0c bc 99 8c f5 3c 13 d4 f9 3d bd 67 b4 bd
       -0.008570079 0.029974269 0.12198653 -0.08808849
0001e0 73 73 57 bc da 3c c1 bd 8a b5 3a 3d 15 79 e9 3c
       -0.013150084 -0.09435435 0.045583285 0.02850012
0001f0 c0 e6 3d 3d 05 4a 8c bc 20 c0 af be 1c ea cf be
       0.04636264 -0.017125139 -0.34326267 -0.406083
000200 1f 4c e7 3d f4 30 f2 bd ac 3d 23 3e 86 0b 2b 3e
       0.11293816 -0.11825743 0.15941495 0.16703615
000210 44 19 09 be 15 99 28 3e 2a cf d8 3c 40 84 0d 3e
       -0.13388544 0.16464646 0.026465971 0.1381998
000220 dd 6a 70 3d 7b ef 36 be 9a 10 65 3d 57 39 b9 bd
       0.058695663 -0.17864792 0.055924036 -0.0904414
000230 4e 7c 05 3e 58 45 f6 bd 5d 00 44 3e 04 dc bd bd
       0.130357 -0.12024945 0.19140764 -0.0927048
000240 e8 8b a4 3d 4f 75 b2 3d 8a 7e 17 3e 23 32 33 3e
       0.080344975 0.08713781 0.14794365 0.17499594
000250 64 e8 56 3e 3d 52 56 be ac 38 96 3d dd b7 0c be
       0.20987087 -0.20929809 0.07335028 -0.13742013
000260 d0 97 05 3c e4 ed 2c be 2a c6 2a 3e c0 7b c2 bd
       0.008153871 -0.16887623 0.16677156 -0.0949626
000270 18 4a b2 3d f7 70 86 3d 3a 13 85 3d 19 3f b0 bd
       0.087055385 0.06564515 0.06497808 -0.08605785
000280 d1 b3 21 3e 2b 06 e8 3c a0 fd fa bb d2 69 31 be
       0.15791251 0.028323254 -0.007659629 -0.17325523
000290 26 a2 b7 3d 97 39 56 3d 26 e5 03 3d 93 e6 05 3f
       0.08966474 0.052301016 0.032200955 0.52304953
0002a0 ca ee d7 3a f7 c7 5c be db bc 55 bd 8f 10 35 3c
       0.0016474363 -0.21560656 -0.05218206 0.011051311
0002b0 36 36 32 3e 1c 67 c0 bd 57 06 3a bd 96 d8 3e 3b
       0.17403492 -0.093946666 -0.045416202 0.0029120794
0002c0 dc 7b f2 be dc 61 ba 3b e2 c0 3b 3e e2 45 13 3d
       -0.47360122 0.0056879353 0.18335298 0.035955317
0002d0 a5 85 16 3c ec 0a 95 3d fe 4d fb 3c 63 a0 4c bd
       0.009187137 0.07277474 0.030676838 -0.049957644
0002e0 bd 04 91 3e 82 08 0e 3d 5a cb a7 3c e1 51 99 bd
       0.28323928 0.034676082 0.020482708 -0.0748632
0002f0 7b be f4 3a 3d 2b 2b 3c 60 5b 89 bd fa f7 3d bd
       0.001867249 0.0104473205 -0.067068815 -0.046379067
000300 ab 0e b7 3d 76 3d 94 3e 64 db a2 bc 06 42 ef bc
       0.089383446 0.2895314 -0.019880004 -0.029206287
000310 34 27 d3 3d d1 ce ad 3b bb 6e 0c be 1b 51 c6 3d
       0.10310212 0.0053041955 -0.13714115 0.096834384
000320 0e 74 26 be 69 78 d0 bd 7e a1 b9 3e 44 c8 de 3d
       -0.16255209 -0.101792164 0.3625602 0.108780414
000330 af 19 59 be d0 ae d2 bd d5 d7 53 be a7 ec 5f 3d
       -0.21201204 -0.10287249 -0.20687802 0.05466905
000340 a3 41 e4 bd 22 53 14 3e fa be ab 3b 77 62 09 3e
       -0.11145332 0.14484838 0.005241272 0.13416468
000350 d1 db 44 be 02 81 cb 3d 65 5e 14 bd 22 90 4b 3e
       -0.19224478 0.09936716 -0.036222834 0.19879201
000360 91 77 9c bd 4c df 4d be 7c cd 8d 3d bf 9a dd bd
       -0.07639993 -0.20104712 0.06923959 -0.10820531
000370 b7 18 be be c7 1e 87 3e 4d 55 04 be 6b 96 f1 bd
       -0.3712823 0.2639067 -0.12923165 -0.11796268
000380 36 77 61 be e2 8e 0a 3e a5 eb 43 3e c0 c9 2f 3d
       -0.22018132 0.13531068 0.1913286 0.042917013
000390 69 37 3d 3d bd 17 14 bc 95 33 62 be 01 b4 2f 3e
       0.04619542 -0.009038863 -0.2208999 0.1715851
0003a0 10 64 1b 3e 58 00 78 3e db 89 0a 3e 6a c0 41 3c
       0.1517489 0.24218881 0.1352915 0.01182566
0003b0 f9 2e 5f 3d 7e bf 16 be dd d6 83 be 66 9b a4 be
       0.054488156 -0.14721486 -0.25749865 -0.3214981
0003c0 d3 fc 41 3e 6c 5d 47 be dc 72 01 be 11 31 3b be
       0.18944101 -0.19469231 -0.12641472 -0.18280436
0003d0 e8 7d cd bc 34 54 99 bd 56 d5 16 3d 2f c4 63 3c
       -0.02508445 -0.074867636 0.036824547 0.013901754
0003e0 86 fd aa 3d b3 4f 32 3e 34 a3 7f bc dc 7a 94 3d
       0.08349137 0.17413215 -0.0156028755 0.07249996
0003f0 32 44 97 be 92 39 8d be 54 84 2d bf f4 91 0d be
       -0.29544216 -0.27582985 -0.6778004 -0.13825208

conv.0.bias f4 [16]
000000 fb b3 fb 3d f1 f9 a8 bd 23 fd ff bb 97 54 01 3e
       0.12290188 -0.082507975 -0.0078121587 0.12629925
000010 0e c0 94 be 8e 79 76 be 64 2a 71 3e 92 77 27 be
       -0.29052776 -0.24069807 0.23551327 -0.16354206
000020 07 a5 8d be 65 1b d3 3c ef ab b8 be 9f f7 69 be
       -0.27664968 0.025769899 -0.36068675 -0.22848366
000030 23 dd 34 3d 7a 2e cf bd 7c e8 c6 bd 6e f9 28 be
       0.044156205 -0.101162866 -0.097123116 -0.165014

conv.2.weight f4 [32, 16, 3, 3]
000000 f9 01 54 bd 3b d1 0a 3d ef 43 bb bc cc 0a 71 bc
       -0.051759694 0.033890944 -0.022859542 -0.014712047
000010 76 18 da bc 82 fd bc 3c 12 74 f1 3d e5 3a 97 3c
       -0.026622992 0.0230701 0.11789717 0.0184607
000020 8a 93 91 bd b0 36 95 3c a4 bd d2 3d 46 c7 f2 bc
       -0.07108219 0.018214554 0.10290077 -0.029636037
000030 9a d9 7a 3d dd cc 9a 3d 7c aa ab 3d bb 59 50 3d
       0.061242677 0.07558606 0.08382127 0.050866824
000040 2a 1b b1 bd 50 a5 0f bd a4 fb 1f 3e 3d 14 e8 bb
       -0.08647759 -0.035069764 0.15623337 -0.0070824907
000050 d3 56 93 bd b8 cd d7 bd 82 50 3e bd 3c d5 5a be
       -0.07194295 -0.105372846 -0.046463497 -0.21370405
000060 ab b9 d5 bd 29 31 56 be 85 2b 34 bd 4e 8e 48 3c
       -0.10435804 -0.2091719 -0.043986816 0.012240959
000070 f0 ab cc bc c2 bb 9e bd 27 60 8f 3c f8 03 7a bd
       -0.02498433 -0.07750656 0.017501904 -0.06103894
000080 d9 49 f4 bd 9e 6b 2c 3d 59 3e a0 bd 9a 94 01 be
       -0.11928148 0.04209482 -0.07824392 -0.12654343
000090 72 cb 27 3d ef 68 f2 3d 98 2e 31 be b4 3b eb bd
       0.040965505 0.11836421 -0.1730293 -0.11485997
0000a0 c9 ae ec bd 5c a1 23 be 9c 44 41 3e 9a 12 aa bd
       -0.11556775 -0.15979522 0.18873829 -0.08304329
0000b0 86 e0 0a be e8 0f d7 3c 92 07 28 3d c9 b0 0d be
       -0.13562211 0.026252702 0.041022845 -0.1383697
0000c0 62 93 82 3d 79 8b e1 3d a8 7a 63 be 40 dd 7f 3d
       0.06375767 0.110129304 -0.22214758 0.06246686
0000d0 fc 91 0b 3e 1f af 99 bd ea 16 98 bc 9b b8 10 3e
       0.13629907 -0.07504105 -0.018565614 0.14132921
0000e0 f8 23 d2 3b 76 e5 5c 3d e2 7c 8c 3c 79 7b 82 bd
       0.006412979 0.05392977 0.017149393 -0.06371207
0000f0 e9 35 99 3d d5 6b 3e 3d d7 5e 9f bd 16 2d 28 be
       0.07480986 0.046489555 -0.07781761 -0.16423449
000100 56 1f 00 bd 52 dc 7b bc 38 a6 e2 bc 17 50 b1 bc
       -0.031279884 -0.015372353 -0.02766715 -0.021644635
000110 53 3a 0b 3c dc 38 18 be 7e 3e 30 be 33 a1 ca bd
       0.008497792 -0.1486544 -0.17211339 -0.098940276
000120 40 b9 ce 3c f2 6d 52 3c 5a 82 bc 3d b0 f0 99 bc
       0.025234818 0.012843596 0.0920455 -0.018791527
000130 4c 96 10 3e 0f 7c 26 be f4 61 fa 3d 40 4d 79 ba
       0.14119834 -0.16258262 0.12225714 -0.00095101073
000140 2b ca 4e bd ae 1f ce 3d f1 2b 6b be 75 e0 e9 3c
       -0.05048577 0.10064636 -0.22965981 0.028549412
000150 d3 b5 07 3e 48 34 de bd d9 2c 0a bc 8b e9 01 be
       0.13252954 -0.108498156 -0.008433544 -0.12686746
000160 92 c7 29 be e4 65 a4 3d c4 cc a6 3b b1 bd 0d bd
       -0.16580036 0.080272466 0.005090328 -0.034604732
000170 d1 35 01 be b9 b2 1b bd 84 08 4d 3c 08 d2 61 bd
       -0.12618186 -0.03801224 0.012514237 -0.055131942
000180 f0 7b 7a bd 3a d1 0c 3d 6d a0 b7 bc 48 43 4f bd
       -0.061153352 0.03437922 -0.022415364 -0.050601274
000190 4f 85 59 bd b3 b9 d5 bd 76 10 34 be 81 6a 01 be
       -0.05310565 -0.1043581 -0.17584404 -0.12638284
0001a0 43 a1 b0 bd ed f8 0f be 31 7f 91 bd d3 02 02 bc
       -0.08624508 -0.14059801 -0.07104338 -0.007935244
0001b0 5a 32 2e 3d 35 0c 98 3d 95 22 1c 3d 22 9d 08 be
       0.042528488 0.07424203 0.038118917 -0.13341191
0001c0 4a 94 8a bc 14 fe 65 bb aa 11 3e be 0d 45 12 be
       -0.016916413 -0.003509407 -0.18561426 -0.14284153
0001d0 fe c6 04 3d 02 65 de bc e7 d3 f4 3c c9 ec b7 3d
       0.032416336 -0.027147774 0.0298862 0.0898071
0001e0 a0 5b f1 3d be a2 8c bd c9 a7 68 bc ba 68 cb bd
       0.11785054 -0.06866978 -0.014200159 -0.099320844
0001f0 e6 5e 80 bd 89 93 47 bd 11 d6 3e 3d d9 b8 bd 3c
       -0.062681004 -0.048724685 0.04659087 0.023159431
000200 17 8f a1 3c 8e a5 97 bb b4 c9 25 be 08 91 ca ba
       0.01972155 -0.00462789 -0.16190225 -0.00154546
000210 fd b2 f5 bd 04 7b e7 bc ce fb b6 ba 47 02 86 bc
       -0.1199703 -0.0282569 -0.0013960542 -0.016358508
000220 54 ed 9e 3d 82 30 bf 3d aa 74 92 bd db 23 77 3d
       0.077601105 0.09335424 -0.07151158 0.06033693
000230 9f c0 44 3d 48 5c c0 bd 9c c0 07 be 27 b1 1a 3d
       0.04803526 -0.09392601 -0.13257068 0.037766602
000240 08 11 3e 3d 83 1f a7 bd 54 d1 84 b9 4c 85 e6 bd
       0.04640296 -0.08160307 -0.00025332964 -0.11255893
000250 44 36 7a bd 20 c6 7b 3d e2 ea 80 3c ed 75 e7 bc
       -0.061086908 0.061468244 0.015737 -0.028254474
000260 f7 c7 49 bd 36 f6 2d 3d 36 cc be 3d a7 8c e5 bc
       -0.049262967 0.042471133 0.09316294 -0.02802117
000270 81 af f7 3d e1 0d e5 3d 32 20 ac 3c 30 0d 82 bc
       0.120940216 0.11184288 0.021011446 -0.015875429
000280 b9 c9 94 bb c8 cb 65 bb 75 fd 19 bd 00 2f f4 bd
       -0.004540649 -0.003506409 -0.03759523 -0.11923027
000290 12 c6 72 bd 60 e5 59 3b ff 4c 87 3d f2 f7 08 3e
       -0.059270926 0.003324829 0.06606483 0.13375834
0002a0 ef 68 c5 3c a0 93 0c be 3a a3 b0 bd 76 13 f4 bd
       0.024097888 -0.1372819 -0.08624883 -0.119177744
0002b0 74 df 9e bd 58 38 d3 bd 4d 52 20 bd 78 23 35 3d
       -0.07757464 -0.10313481 -0.03914099 0.04422328
0002c0 35 03 d7 3d 5a 24 04 be d0 41 95 bd 7a 11 a1 bd
       0.104986586 -0.12904492 -0.07287943 -0.078646615
0002d0 e0 52 2c be a6 ca 25 3d f4 23 be bd ee 2b c0 bd
       -0.1682849 0.040476464 -0.09284201 -0.09383379
0002e0 21 c4 4d 3d 48 89 f1 3d 3f 05 37 3b 28 e7 20 bd
       0.05023587 0.117937624 0.002792671 -0.039282948
0002f0 2f 7b fb bc e2 7b d7 bc e7 66 bc 3c 3b d9 58 3d
       -0.030698387 -0.02630419 0.022998286 0.052941542
000300 d1 c2 16 bd 11 25 d7 3d 91 10 c0 bd 50 45 90 be
       -0.036806885 0.10505117 -0.0937816 -0.2817788
000310 36 61 0a be d4 4b 6e bd 60 82 2a be f5 22 41 bc
       -0.13513646 -0.058177784 -0.16651297 -0.01178812
000320 89 95 95 3c 76 a1 c7 3d 34 90 c8 bd 55 53 92 bd
       0.01825978 0.09747593 -0.097931296 -0.071448006
000330 e0 28 87 bd b9 36 42 bd b7 00 ed bc 32 1a 79 bb
       -0.06599593 -0.04741547 -0.028931005 -0.0038009998
000340 bd 86 93 3d 80 d6 ca bd 56 3e 8b 3c 8c 28 85 be
       0.07203434 -0.09904194 0.016997498 -0.26007497
000350 5a 8d f3 bd ba 1c 2a bd ce fc ca 3b 5c bb ee bc
       -0.11892195 -0.041531302 0.0061946874 -0.029142074
000360 cc 88 2b 3d 97 b2 b2 3d 86 fc a7 bb 35 50 81 3c
       0.041878507 0.087254696 -0.0051265387 0.015785316
000370 3a f6 41 3d ea 3c 72 3e 84 4e 59 3c 15 f8 67 bd
       0.04735396 0.2365605 0.0132633485 -0.056633074
000380 60 0d aa bb e3 ac e4 3e 36 7e 3d 3d fb 30 08 3e
       -0.0051895827 0.44663152 0.046262942 0.13299935
000390 9a 5e df bc f0 aa 8f be 5f 85 3d be f1 cd 14 3b
       -0.02726679 -0.28060102 -0.18507908 0.0022705758
0003a0 a7 d1 67 bd 10 8b 20 3c 97 35 b5 bc 85 7c 92 3d
       -0.056596424 0.00979878 -0.02212028 0.071526565
0003b0 91 f4 ac 3d b2 60 4b 3d f9 cb 13 be 02 a1 bc bc
       0.08445085 0.049652763 -0.14433278 -0.023025993
0003c0 6b 78 2a 3d 6a 33 57 bd bf a3 26 bd 1a f1 17 3e
       0.041618746 -0.052539267 -0.040683504 0.14838067
0003d0 f2 a7 03 3e 75 bc ab 3d 53 2b ef bc 8b 05 89 be
       0.12857035 0.08385555 -0.029195463 -0.2676204
0003e0 05 a9 c0 bd 18 26 78 3d 70 8d b9 bd 8b 84 e3 bc
       -0.09407238 0.060583204 -0.0906018 -0.027773162
0003f0 20 87 ba 3d f6 7a b4 bd ad 98 f8 bd 2f c8 cb 3c
       0.09107804 -0.088125154 -0.121384956 0.024875728

conv.2.bias f4 [32]
000000 3a 06 07 3d ed 5f 93 bc 3d 1e 41 bd b8 70 e2 bd
       0.032964922 -0.017990077 -0.047147978 -0.11056656
000010 15 dc 8b bd ee 52 c8 bd 25 f9 55 3d 42 de 93 bd
       -0.06829087 -0.097814426 0.052239556 -0.07220127
000020 12 95 43 bd 99 13 0b be 0d 68 80 bd 9c b9 04 3e
       -0.047749586 -0.13581695 -0.06269846 0.1296143
000030 9b a3 6a bd a0 65 c9 3d a5 ef b3 3d 55 1a 65 3c
       -0.057284933 0.098338366 0.08785943 0.013983329
000040 a1 6e ae 3c 38 78 4a bc af 34 b9 3d 4b a7 d5 bd
       0.021292986 -0.012357764 0.09043252 -0.10432299
000050 b2 97 ac bd 2d e3 30 3d 21 d9 95 bd f7 7c 01 be
       -0.08427371 0.0431854 -0.07316805 -0.12645327
000060 15 58 54 bc e4 85 5c 3d 2d a0 c2 bd 32 68 a1 bd
       -0.0129604535 0.053838626 -0.09503207 -0.07881202
000070 08 db 05 bd 6c 06 86 3d e6 03 24 bd d3 c3 11 bd
       -0.032679588 0.065441936 -0.04004278 -0.035587143

conv.4.weight f4 [64, 32, 6, 6]
000000 bd 8c 9a 3c 1d 90 f1 bb 51 3e 40 3c 21 3c 56 ba
       0.018865937 -0.007371916 0.011733607 -0.0008172412
000010 07 3e 35 3b b4 0c 00 bc 0c e8 4c 3c 56 93 57 3c
       0.002765538 -0.007815529 0.012506496 0.013157686
000020 8f 7b 4b bb 13 75 d4 3c 89 7f f9 bb 32 dd f4 3b
       -0.0031048988 0.025934732 -0.0076140803 0.0074726576
000030 de 22 db 3c 0e 75 d8 3b 95 bc a9 bc e4 31 bf bc
       0.026750024 0.006605751 -0.020719806 -0.02333922
000040 fb 23 ba 3b f6 33 6c b9 c7 47 07 3b d3 76 9b 3c
       0.0056805587 -0.00022526071 0.0020642148 0.018977558
000050 e1 f5 a1 39 15 14 88 bc 9b 73 0b bd 44 2b e4 3c
       0.00030891507 -0.016611138 -0.034045797 0.027852662
000060 da 93 54 bb 6a 2c 3e bc db 09 b1 bc 40 d0 e7 3c
       -0.003243676 -0.011607269 -0.021611145 0.028297544
000070 42 9a 73 3c 86 02 99 bc 47 6a d0 bc 04 bf d1 3c
       0.014868321 -0.018677961 -0.025441302 0.025603779
000080 f5 75 30 3b 20 9e 6a bc c4 c9 c8 bc 87 6e 92 3c
       0.0026925777 -0.0143199265 -0.024510272 0.01787497
000090 bd b5 a3 bc 88 f2 56 3c 83 33 e5 bc f2 3b d7 bc
       -0.01998412 0.013119347 -0.027978664 -0.026273701
0000a0 4e 77 e7 bc da 99 dc 3c 1e f8 89 3c 85 43 ce bc
       -0.028255131 0.02692883 0.016841944 -0.02517868
0000b0 09 40 52 3c f2 71 e4 bc 3a 08 e0 bc 6a 7d 8a 3b
       0.01283265 -0.027886365 -0.027347673 0.0042263763
0000c0 22 75 88 3c 90 40 dc 3b fe b6 9d bb 32 d2 95 3c
       0.016657416 0.0067215636 -0.004813074 0.018288705
0000d0 e2 b4 10 bd 62 50 6e 3b 4b 87 9d bc 88 43 c3 3a
       -0.035328753 0.003636383 -0.019229552 0.0014897445
0000e0 b6 f2 90 3c 83 ce ac bc d9 07 40 3b 5f e7 b6 bb
       0.017693859 -0.021094566 0.0029301553 -0.005581781
0000f0 67 1e 9c 3c b4 7a 4d ba 9b c9 98 3b 02 af 7b 3c
       0.019057466 -0.00078384136 0.004662705 0.015361549
000100 b2 3f 2c bc df c6 1f bd e4 b2 e3 3c 2b b9 84 bc
       -0.010513233 -0.039008018 0.027795263 -0.016201576
000110 7c 56 dd 3b 7f 4e 96 3c 56 60 95 bb 11 b6 56 3c
       0.0067546945 0.018347977 -0.0045586033 0.013104931
000120 1e 6a 9c 3c c9 5f c2 bb 05 0d 49 3c 15 55 e7 3b
       0.01909357 -0.0059318286 0.0122711705 0.007059703
000130 77 40 03 3d 4e 9a 7c 3c 18 a8 a1 bc ab ee 3c 3b
       0.0320439 0.0154176485 -0.019733474 0.002882878
000140 94 85 3d 3c 3a cc df 3c db 31 52 3c 5f 4b 88 3c
       0.011567492 0.027319063 0.012829269 0.016637502
000150 51 94 ae bb 68 10 3b 3a a5 50 80 bc 81 71 9f 3c
       -0.0053277393 0.00071359286 -0.015663454 0.019463303
000160 0d 0e be 3c da aa 4a bc 11 a7 d1 bc e0 db b7 3c
       0.02320006 -0.012369836 -0.025592359 0.022443712
000170 e6 c6 fa bc ba 1f 68 3c ef 55 07 bd ce ac 5c bc
       -0.03061242 0.01416772 -0.033040937 -0.013468934
000180 9a 05 4d bc 58 0d e0 3c bd db a2 bb 83 66 d0 3c
       -0.012513543 0.027350113 -0.0049700425 0.025439506
000190 f0 3f 0c 3c b4 cb 07 3d 59 ab 9d 3c bb 12 b5 3c
       0.008560166 0.03315325 0.019246744 0.022103658
0001a0 11 d0 d1 3c 1e 49 0f bc b7 b9 04 bc ac 4a 9e 3b
       0.02561191 -0.00874546 -0.0081009185 0.004830679
0001b0 39 2b 83 3c ff 7b 30 bc 8c 95 07 bd 83 cf 04 bd
       0.016011821 -0.0107717505 -0.033101603 -0.03242446
0001c0 3f 04 c1 bc 9c 6d a0 bb 87 1e 5a bc f3 86 90 bc
       -0.023561595 -0.004895879 -0.013312942 -0.017642474
0001d0 22 8b b8 bc c1 47 15 bb 82 be c6 bc 97 b8 9c 3c
       -0.022527281 -0.0022778364 -0.024260763 0.019130988
0001e0 43 26 6e bc ed 84 b5 3b 79 6e 1e 3c 7a 0f 35 bc
       -0.0145354895 0.0055395276 0.009669893 -0.011051053
0001f0 0d b4 bc 3c bf 22 5a 3a 3f fe f7 bb c2 bc e5 bc
       0.023035074 0.00083212176 -0.0075681503 -0.028044108
000200 ed 33 ce bb 04 19 78 39 a5 47 91 3b f6 58 99 bb
       -0.006292811 0.00023660442 0.0044335895 -0.0046797944
000210 e7 dc 49 3c 96 17 5a 3c 39 c4 31 3c 94 d3 73 bc
       0.012320734 0.013311287 0.010850006 -0.014881987
000220 39 3a a9 3b 84 0d f9 bc 67 0c 03 bd 26 01 a5 bb
       0.0051644114 -0.030401953 -0.03199425 -0.0050355373
000230 47 3e 81 3b b6 e8 89 bc ea 02 c8 bc 12 d0 5c 3c
       0.0039441916 -0.016834598 -0.024415452 0.013477342
000240 74 7e 30 3c 2c 68 9f bc 6a 78 85 3c 3b 5f b4 bc
       0.010772336 -0.019458853 0.01629277 -0.022018066
000250 22 a3 b6 3c ea 5a 80 3c cf 74 a3 bc 52 e4 93 3c
       0.022294585 0.015668351 -0.01995316 0.018053208
000260 61 5d d9 bc d3 1b c0 bc 08 f5 5c 3c a0 15 90 bc
       -0.026533784 -0.023450768 0.013486154 -0.017588437
000270 2b 92 b3 bc 08 1d b2 bb 25 59 75 bc 18 14 98 3c
       -0.021920284 -0.0054355897 -0.014974867 0.018564269
000280 63 66 66 3c e3 18 49 3c 5c 92 6d bb ec 77 f2 3b
       0.014062497 0.012274 -0.0036250567 0.0073995497
000290 49 4f 49 3a 07 8c 48 3b 30 70 1a bc ca a4 a4 3c
       0.0007679356 0.003060104 -0.009426162 0.020098109
0002a0 1f e6 86 3c 1d 53 54 bc 40 2c 94 3a 3d 0e 09 bc
       0.016467152 -0.012959269 0.0011304691 -0.008365211
0002b0 de a6 2a 3c b7 27 c6 3c 46 41 a4 bc 64 c6 88 3b
       0.010415761 0.02418886 -0.020050656 0.0041740406
0002c0 47 f0 c8 bb aa eb eb bc 1c 27 1e bd b7 12 7d bb
       -0.006132159 -0.028798897 -0.038611516 -0.0038615891
0002d0 be 01 bc 3c f4 6b 8f bc f0 9e 52 3c 81 13 9d 3c
       0.02295005 -0.01750753 0.012855276 0.01917434
0002e0 1c 4b 98 bc 2c 83 80 3c 9e 06 c9 3b f5 e2 99 bc
       -0.018590502 0.015687548 0.006134822 -0.01878498
0002f0 cb c8 08 bc 58 25 14 bd 9a 04 91 3c d8 b9 b3 3b
       -0.008348654 -0.036168426 0.01770239 0.005484801
000300 df dd 35 3c 00 07 b1 3c 70 9a 74 3c f9 46 ef 3c
       0.0111002615 0.021609783 0.014929399 0.029208647
000310 d1 33 73 3c 46 59 af bc fe 89 0a 3d 20 00 39 3c
       0.014843897 -0.021404874 0.033823006 0.011291534
000320 19 2c 0a bc 6c 54 25 bc 45 e2 fa 3c 8f 6a 32 3c
       -0.008433365 -0.0100909285 0.030625472 0.010889663
000330 c6 19 7a 3c b6 a3 ee bb 57 c7 a0 3c 46 31 f3 bc
       0.015264934 -0.0072826995 0.019626303 -0.029686581
000340 26 b2 01 bb 9c 4b f8 3b 13 f2 63 b9 19 db 99 3c
       -0.0019790023 0.0075773727 -0.00021738587 0.018781232
000350 b0 2f e0 ba 68 16 9d 3a 88 ac a4 3c 40 39 48 bc
       -0.0017104056 0.0011984827 0.0201018 -0.012220681
000360 12 b9 42 bc 7b 6e 0c bd c1 b2 53 b9 dd c4 61 bc
       -0.0118849445 -0.03428505 -0.00020189119 -0.013779846
000370 3a 66 e7 3b 98 12 80 3c 2c 25 e1 bc da cd 8b bc
       0.007061747 0.015633866 -0.027483545 -0.017065931
000380 cd 66 e8 3c fd eb 4d bc bf b3 d6 3c f2 a9 ed 3c
       0.028369332 -0.012568471 0.026208756 0.0290117
000390 9e 72 f2 bb 3f 9c c3 bc a2 2a 9b 3b a3 a4 63 3b
       -0.0073989173 -0.023878215 0.004735307 0.0034735582
0003a0 81 c1 d1 3c f5 82 8b 3b 81 42 83 3c 43 f7 ce bc
       0.025604965 0.0042575547 0.016022922 -0.025264388
0003b0 78 c3 84 3b 1c 77 48 bb d0 c2 0a 3c 6d 17 d3 bc
       0.004051622 -0.0030588573 0.0084692985 -0.025768006
0003c0 c6 99 66 bb 73 dd 8f bc d8 70 a2 bc 82 cd 48 3c
       -0.003518687 -0.01756165 -0.019829199 0.012256028
0003d0 54 26 93 3b d6 c6 3f 3c ce 42 2f ba b7 aa 3c ba
       0.004490653 0.011705121 -0.0006685675 -0.00071970694
0003e0 bb 75 93 ba 72 75 82 3c f3 f8 a6 bc a0 30 d0 3b
       -0.0011250296 0.015925143 -0.02038238 0.006353453
0003f0 5c 49 84 3c 73 f0 8a 3c d6 d8 67 bc b4 74 ba 3c
       0.016148262 0.016960358 -0.014150819 0.022760727

conv.4.bias f4 [64]
000000 12 17 01 bd 43 51 ad 3c 4a 14 e7 bc 1d 63 b7 bb
       -0.031516142 0.021156913 -0.028207917 -0.005596532
000010 34 55 52 3c 19 67 cf 3b b9 42 60 3d 97 94 58 3c
       0.012837697 0.006329429 0.05475113 0.01321902
000020 fc f5 41 bd 98 50 b5 bc d3 c4 92 bc 9f db 16 3d
       -0.04735373 -0.022133157 -0.017916119 0.03683054
000030 e9 1d e8 bc 3d dc 96 bb c7 60 05 3c d5 e7 0f 3c
       -0.028334575 -0.004603891 0.008140749 0.0087833
000040 b7 f7 b4 bc 71 9e 70 3c 31 f9 cc bc 61 94 53 bb
       -0.022090776 0.014686213 -0.025021167 -0.0032284486
000050 6d 31 13 bb 6f ab a8 bc 6f 14 bf 3d 24 04 28 bc
       -0.002245988 -0.020589558 0.09330069 -0.010254893
000060 d0 52 19 bc ab 44 12 bc b6 df 62 bd 91 ae 82 bc
       -0.009358123 -0.0089275045 -0.05538913 -0.01595238
000070 74 81 80 3c 71 59 95 bc c8 79 2b bc 6c fe 97 bc
       0.015686728 -0.018231126 -0.010466047 -0.018553935
000080 5a cd 40 3c 86 71 9d 3d 13 5b 70 bc 5e f4 be 3b
       0.01176771 0.076876685 -0.014670151 0.0058274707
000090 76 86 f0 bc c1 81 a5 3d 0d df 34 bd 8e e9 0b 3d
       -0.029360991 0.08081389 -0.04415803 0.034158282
0000a0 75 0e 0a bd d6 06 89 39 c2 0f da bc 24 c8 12 bd
       -0.033705194 0.0002613577 -0.026618842 -0.0358354
0000b0 94 22 31 bd f6 b1 f7 bb 0e 45 f7 39 df 17 b3 bc
       -0.043245867 -0.0075590564 0.0004716296 -0.021861969
0000c0 0e 79 2e 3c 79 3c bd bc 9e b4 1c bc 85 a6 0c bd
       0.010648979 -0.023100125 -0.009564547 -0.034338493
0000d0 94 8f 10 bd 5e e9 31 bc 1f 7c 14 bb 2e 63 1a bd
       -0.035293177 -0.010858862 -0.002265699 -0.03769224
0000e0 9b 63 cc bc a9 6d 0f bd f1 5b e1 bc 4a b3 92 3d
       -0.02494984 -0.03501669 -0.027509661 0.07163103
0000f0 60 05 02 bd ab 6a 77 3b 65 23 27 3c 40 c2 ec bc
       -0.031743407 0.0037752788 0.01020131 -0.02890122

fc.1.weight f4 [64, 1600]
000000 3b fb b5 3b be ab f8 ba 67 ab 89 bc 75 9e 8f 3c
       0.0055536306 -0.0018972082 -0.016805364 0.017531613
000010 56 64 d7 3a 1a 45 c6 bc e9 19 09 bc 72 43 1d 3c
       0.0016433101 -0.024202872 -0.008367994 0.0095986
000020 50 29 a2 3c eb 63 30 bb cb 89 b3 bc 97 93 99 3c
       0.01979509 -0.0026915025 -0.02191629 0.018747134
000030 cc e3 11 bb f2 bc ae bc ea ab 7f bc b9 d5 c8 bc
       -0.0022261022 -0.02133033 -0.015604952 -0.024515973
000040 d3 79 45 bc 37 b6 a5 bb cd 5b a0 bc 2e f5 ca bb
       -0.012052971 -0.005057122 -0.019575024 -0.0061937785
000050 91 25 8a bc 40 a2 29 bc 50 f4 3b 3a e1 3d 57 bc
       -0.016863616 -0.010353625 0.0007169889 -0.013137312
000060 25 77 02 bc 96 d3 b2 bb bc 30 8e 3c c6 4b 43 3c
       -0.007962977 -0.005457352 0.017357223 0.011919921
000070 5f b1 89 3c ae 5b 22 3c 9f e8 ae 3c e1 56 39 bc
       0.01680821 0.009909553 0.021351157 -0.011312217
000080 c2 cf a8 3c 04 75 89 bc 7e fd 38 3c 46 4c dc 3b
       0.02060688 -0.01677943 0.011290906 0.0067229597
000090 f5 93 8e bc 8f ee be 3b 01 63 47 bc 5b 7f 26 3c
       -0.017404536 0.0058267782 -0.0121696 0.0101622
0000a0 ff 4e b0 bc d1 d5 f3 bb 53 80 b7 3c 05 03 bf bc
       -0.021522043 -0.0074412604 0.022400057 -0.02331687
0000b0 ce 4f 1c 3c 1b 53 59 bc ee 76 9d 3b ca 3e 0e bb
       0.009540511 -0.013264443 0.0048054373 -0.0021704906
0000c0 12 46 e6 bb f4 dc 94 3c 0e 10 a1 3c 04 db 9a 3c
       -0.007027396 0.018171765 0.019660976 0.018903263
0000d0 6c 25 65 bc 6e 54 d2 3c cf c8 44 3b 20 06 8b bc
       -0.013985973 0.025675025 0.0030026918 -0.016970694
0000e0 b9 ae c2 bc 78 a0 33 bc 8f 47 ea 3c 3e b8 9d bc
       -0.023764955 -0.010963552 0.028598575 -0.019252893
0000f0 5d b8 3e 3c b5 d7 1e bc fc 0a b6 3c c3 b0 f3 bb
       0.011640635 -0.009694983 0.022222035 -0.007436843
000100 1e cd 96 bc a5 f0 2a 3c ba f8 83 bc be 88 07 bc
       -0.018408354 0.010433351 -0.016109813 -0.008272348
000110 80 0f 8b bc ab 1c b2 bb ae 01 f2 3a 62 2e a4 3c
       -0.016975164 -0.0054355464 0.0018463635 0.020041648
000120 80 3f f2 bb fa 20 f7 3c 4e c0 b1 3c 4d a8 ed 3b
       -0.0073928237 0.030167092 0.021698143 0.007252729
000130 c1 4d 5f 3c 12 bb 4d 3b 3f a8 04 bb bd fd 77 3b
       0.013629378 0.003139202 -0.0020241884 0.0037840449
000140 65 4c 3a bc 96 6f a3 3c 81 dd 1b bc 6f 98 aa bb
       -0.011370753 0.01995067 -0.00951326 -0.00520616
000150 8e 09 e8 bb 60 ed b1 bc 3c 55 21 ba 38 45 a4 bc
       -0.007081217 -0.021719635 -0.00061543635 -0.020052537
000160 61 56 04 3c 33 ec 55 3b 58 27 ae bc 0f 0b 37 3c
       0.008077235 0.0032642006 -0.021258995 0.01117207
000170 c7 90 b8 bc 22 f9 1b 3c 95 6d 73 3b a8 de 2c 3c
       -0.022529973 0.009519847 0.0037144173 0.010551132
000180 b7 91 b2 bc 0b 2e 53 ba 73 cb ee ba 62 5e db 3b
       -0.021797998 -0.0008055872 -0.0018218592 0.006694601
000190 12 db 21 3c ac 84 c4 bb 2d ca 1e bc b5 79 c0 3b
       0.009878891 -0.005997261 -0.009691757 0.0058738836
0001a0 60 f1 87 bb 53 09 5d bc 82 a9 5a 3c d0 c5 9d 3b
       -0.004148647 -0.013490993 0.013346078 0.004814841
0001b0 87 44 ae 3c 61 b5 b0 3b c9 d7 e0 bb 15 0c a8 3b
       0.02127291 0.005392716 -0.006861661 0.0051283934
0001c0 4c dc ee bb a6 e5 b2 3c 2b eb a8 3c 13 7b a7 3c
       -0.007289445 0.02183802 0.02061995 0.020444429
0001d0 c9 7f dd bc 7a 69 28 3b 04 44 04 3c fd 71 cf bc
       -0.027038472 0.0025697635 0.008072857 -0.025322909
0001e0 a8 08 ee bb a7 0d ed 38 8f 5b 47 bc c5 f0 9a 3b
       -0.0072642155 0.000113035836 -0.012167825 0.004728409
0001f0 da 52 9e bc 03 b4 93 bb 0a c1 5c 3c 5e b9 e3 bc
       -0.019326616 -0.004507543 0.0134737585 -0.02779835
000200 ba 6b 08 bd e7 7b cb bc ed db b1 3b d0 ae 28 bc
       -0.03330586 -0.024839355 0.0054278285 -0.010295585
000210 b1 33 cc 3b 43 62 9f 3c 47 5e a3 bc 0b af 42 3c
       0.006231748 0.019456035 -0.019942416 0.011882554
000220 3a fc 92 bc f6 6e 98 bb 90 2e 82 bc fe 06 b2 bb
       -0.017942537 -0.0046518994 -0.015891343 -0.0054329624
000230 e8 ba 0a 3c 9d 8c 97 3c 66 d0 af 3c 07 cd 93 3b
       0.0084674135 0.018499667 0.021461677 0.004510525
000240 85 de 9b 3b cd 26 08 bb 0d c7 c7 bc d5 af 86 bc
       0.004756751 -0.002077508 -0.024386907 -0.016441265
000250 09 8d 7f 3a 8c 00 31 bc 86 4b 06 bd 08 01 95 3b
       0.0009748494 -0.010803353 -0.03278687 0.004547242
000260 1c ae 08 bb 08 72 77 bc 14 28 3c bc fe bd c1 bc
       -0.002085573 -0.015102871 -0.011484165 -0.023650166
000270 ca 5f 30 bd 2c f0 90 bc c1 a8 27 bd b5 78 1a bd
       -0.0430601 -0.017692648 -0.04093242 -0.03771277
000280 ab 86 b3 bc 1c 9d 1b bd b0 97 b9 bc eb cd 8c bc
       -0.0219148 -0.037991628 -0.022655338 -0.017188033
000290 fe 7e 97 3a b9 36 a7 bc 8e 4b 8e 3b 69 4d de bc
       0.0011558232 -0.020411836 0.004342503 -0.027136521
0002a0 2f 0b 02 bd 49 4e 16 bd 98 90 38 bc 55 14 09 bc
       -0.031748947 -0.036695752 -0.011264943 -0.008366664
0002b0 a1 0c 0b bd 73 c5 0c bd 93 8b 34 3b d1 3b 9f 3c
       -0.03394759 -0.03436799 0.0027549013 0.019437702
0002c0 80 ce eb 3b 81 87 c8 bb 98 38 d4 bc 7e 3e 57 3c
       0.0071962476 -0.006119669 -0.025905892 0.013137458
0002d0 e2 f5 b8 bc 59 8d a3 bc d0 5f 84 bb bf 01 00 bd
       -0.022578184 -0.01996486 -0.004039742 -0.031251665
0002e0 70 5a fc 3a c2 f7 6b 3c 37 e2 80 3c 44 7f 04 3c
       0.0019253027 0.014402332 0.015732868 0.008086983
0002f0 b1 8f a6 bc 1e 18 8b 3a eb 72 9d bb 32 29 ad 3c
       -0.02033219 0.0010612046 -0.004804959 0.021137808
000300 e2 6b e7 bc a0 01 30 bc 27 69 cf bc d1 8a f0 3b
       -0.028249685 -0.010742575 -0.025318695 0.007340767
000310 fb 3b 79 3c 92 b6 ea 3b 98 18 1a 3b e7 6f a9 3b
       0.015212054 0.0071628774 0.0023513194 0.0051708105
000320 98 5b 07 3c ca 59 3f 3c ac d4 ab bc c6 db 76 bc
       0.008261584 0.011679122 -0.020975433 -0.0150670465
000330 88 93 8d bc 69 ec 61 bb 64 6d 3f 3c 71 1c e5 bc
       -0.017282262 -0.0034473187 0.011683796 -0.027967663
000340 37 e5 35 3c 70 62 af bb b1 14 c4 3c 64 c7 6c 3c
       0.011102012 -0.005352311 0.023935648 0.014451835
000350 0a c8 e1 bb 7c a1 95 bc a5 26 09 bc 71 2b 44 3c
       -0.0068903016 -0.018265478 -0.00837103 0.011973248
000360 89 c5 5f 3c 4b f1 4d 3c 73 85 86 3b 79 bf 8d 3c
       0.013657936 0.012569736 0.004105264 0.017303215
000370 b1 a9 af bc 12 59 5a bc 0c 3f 91 bb e6 04 85 bc
       -0.02144322 -0.0133269 -0.0044325646 -0.016237687
000380 ef 64 bd bc 32 55 04 3a c6 78 1d bc c4 27 40 3c
       -0.023119418 0.00050480955 -0.009611314 0.011728231
000390 9d 3b a8 3b c6 a0 58 bb 8a 45 f1 39 87 3d 91 bc
       0.0051340596 -0.0033054813 0.00046018913 -0.017729534
0003a0 fb c4 94 ba 32 73 57 bc fd 02 f2 bb 46 73 b0 3c
       -0.0011350209 -0.013150023 -0.00738561 0.021539342
0003b0 78 94 5f bc 69 8e 86 3b 5d 09 1d bc 7c 25 88 3a
       -0.013646238 0.004106332 -0.009584752 0.0010387148
0003c0 8c ea 77 bc 31 8f 28 bb 55 f3 84 bb c5 07 51 bc
       -0.015131604 -0.0025720114 -0.0040573278 -0.0127582
0003d0 69 85 d3 3a ee 69 46 bc 03 f8 c7 b9 fd 8e 01 3c
       0.0016137782 -0.012110217 -0.0003814102 0.007907626
0003e0 f9 25 d1 bb 34 7a 3c 3c 32 5d cc 3b 28 75 05 3c
       -0.0063827005 0.011503745 0.0062366957 0.008145608
0003f0 3f df 0f bc 89 7a 25 3c f2 7e f6 39 3d 9a 3c bc
       -0.008781253 0.010100015 0.00047015358 -0.011511383

fc.1.bias f4 [64]
000000 c8 0c 4a 3c 4c bd f1 bc d1 62 eb bc 02 80 fa 3b
       0.012332149 -0.02950921 -0.028733643 0.0076446543
000010 c1 d8 13 3e b0 78 9b bc ca 46 a3 bc 94 f2 93 3a
       0.14438154 -0.018978447 -0.019931216 0.0011287504
000020 ec 6c 67 3c 70 3d 06 3e 50 e5 78 ba 3e 85 e9 3d
       0.01412509 0.13109374 -0.00094946194 0.11402367
000030 ef 12 01 3c 4a fb 90 bd ec 8e 42 3c 24 0f 1a 3d
       0.007878049 -0.070791796 0.011874896 0.037612095
000040 8c a6 14 b9 64 2b 34 3e 4c 79 10 bd 20 b1 b5 bc
       -0.00014176423 0.17594677 -0.035271928 -0.022179186
000050 dd 51 19 bc e4 d5 2b 3b e7 c3 c8 bc 6d 28 1f 3e
       -0.009357897 0.0026220018 -0.024507476 0.15542765
000060 21 9a 37 3c db 21 4d bc 4e 4a c5 bc 0d 74 cc bd
       0.011206181 -0.012520279 -0.024083283 -0.099830724
000070 01 ff 58 bd 47 8e 97 3c 22 d9 1c 3b d8 5b e7 bc
       -0.052977566 0.01850046 0.0023933132 -0.028242037
000080 31 41 08 bc b5 31 01 3d d9 99 ad bb 7d dd 04 3e
       -0.008316324 0.031541545 -0.005297881 0.12975116
000090 b3 68 46 bc 7e 8d 20 3e 58 57 7a 3c ca 8b 83 bd
       -0.012109923 0.15678975 0.015279613 -0.06423147
0000a0 69 41 c6 bc 73 96 c2 3c 35 62 89 3b 93 48 ae bc
       -0.024201112 0.02375338 0.0041926154 -0.02127484
0000b0 4b e1 50 bd 3f 37 4c 3a b7 33 a6 bc 4f 41 27 bb
       -0.050996106 0.0007790215 -0.020288331 -0.0025521105
0000c0 1d 74 84 bc 27 e6 eb 3a a2 d5 f2 39 fe 98 87 3b
       -0.016168648 0.0017997668 0.00046317006 0.004138111
0000d0 11 c8 4b 3d 5c 25 11 3e fc cd a0 3b 21 e2 82 3c
       0.049751345 0.14174408 0.0049073678 0.015976967
0000e0 5f a1 58 bc a5 a2 f4 bc d4 78 de bc 56 b5 e7 3d
       -0.013222068 -0.029862711 -0.027157225 0.11313884
0000f0 18 e7 a2 bb 01 b6 b8 bc 39 c5 81 3b e2 dd cf 3d
       -0.004971396 -0.022547724 0.0039602784 0.10149743

fc.3.weight f4 [4, 64]
000000 9b 01 84 3c fb be 75 3d d0 4c 3d 3c 62 12 9c 3d
       0.016114047 0.059996586 0.011553958 0.07620694
000010 b2 f6 0a be 21 63 33 3d bd 06 9d 3d d5 7f bc bd
       -0.1357067 0.04379571 0.07667301 -0.092040695
000020 ac 2d bf 3d ac 48 11 be 72 e0 8d 3d a4 ec b7 be
       0.09334883 -0.14187878 0.06927575 -0.3592273
000030 10 28 99 3d c8 47 6a 3d 5c 09 d4 be 95 2d 0f 3e
       0.074783444 0.057197362 -0.4141339 0.13982232
000040 19 8f 3c 3d 71 37 15 be fc 9f cf 3d 1e 79 fe 3c
       0.046034906 -0.1457193 0.101379365 0.031063613
000050 c1 88 26 3e c1 b5 94 3c 2e ee 7b bd 11 0a ae bd
       0.16263105 0.018153073 -0.061506443 -0.08498014
000060 80 9f 7f bc 85 c1 01 bc 12 8f d5 bd 37 cc 68 3e
       -0.015601993 -0.007919674 -0.10427679 0.22734152
000070 80 83 79 3d 95 b2 02 3e 27 4a 88 3d eb 3f 58 3c
       0.060916424 0.12763436 0.066547684 0.013198833
000080 bf 79 a5 3d e9 54 35 be e5 f4 d1 bd 60 8f 20 3e
       0.08079862 -0.17708172 -0.10251788 0.15679693
000090 20 4c 29 3d 76 a0 37 be f2 fe 16 bc cb d0 5b 3e
       0.041332364 -0.17932305 -0.009216057 0.21466367
0000a0 a0 76 33 3d e4 cd 09 3d ed 25 2b bd 8c 91 1c 3e
       0.0438143 0.03364362 -0.041784216 0.15289897
0000b0 d3 93 27 be 37 db 3f bd 6e 1a d9 3d 5d e4 f0 3d
       -0.16364984 -0.04683992 0.10600744 0.11762307
0000c0 ef 90 2b 3d b0 ae 80 3d 25 5e 36 3d 8d 80 35 bd
       0.041886266 0.06283319 0.044523377 -0.04431205
0000d0 5e 35 0f bf ae ca 89 bd 23 bc fd bc c9 70 c8 3d
       -0.55940807 -0.06728111 -0.0309735 0.09787137
0000e0 25 0a e4 bc fc af 5e 3d 86 84 c6 bd 07 7c 14 be
       -0.027836869 0.05436705 -0.096932456 -0.14500438
0000f0 a3 27 bb 3c b8 b7 84 bd 19 6c 48 3d 9f ba 11 3c
       0.022846049 -0.06480354 0.048931215 0.008894592
000100 2d 25 2a bc 19 2f c1 bc 8e ae e4 3d 3c 1c a9 bd
       -0.01038484 -0.023582028 0.11166106 -0.082573384
000110 40 45 05 be 7a 0c 87 bc d6 7e 86 bd 99 aa 0f 3d
       -0.13014698 -0.016485441 -0.06567161 0.035074804
000120 54 b9 de bc 89 19 f1 3d fc e8 c5 be 66 9e 1a bd
       -0.02718798 0.117724486 -0.38654315 -0.037748717
000130 c5 cc d6 3c ee 37 be be 54 f0 90 3d 79 23 dc 3d
       0.026220689 -0.37152046 0.07077089 0.10748953
000140 b2 6f 80 bc 3f 62 0b be e8 8b 02 3d f8 cc 60 3d
       -0.01567826 -0.13611697 0.031871706 0.054882973
000150 42 4f b7 3c c0 da 92 3d 61 dc fe 3d f5 56 2b be
       0.02237666 0.071706295 0.12444378 -0.1673239
000160 c1 e6 32 3d 30 f4 b1 bd 70 94 a9 3d b9 0c 68 3d
       0.043677095 -0.08689153 0.08280265 0.05665276
000170 aa 70 02 bf 86 33 0c be 5b ae d2 3d 34 b8 bc bd
       -0.5095316 -0.1369153 0.10287162 -0.092148215
000180 c7 ce 2d 3c c9 e2 6f 3d 34 01 ea 3c d6 d3 75 bd
       0.010608382 0.05856589 0.028565027 -0.060016476
000190 f7 6a 54 bd da f1 dc bc f6 ba 09 bc 0b 93 4a 3e
       -0.051859822 -0.026970793 -0.008406391 0.19782655
0001a0 f9 d9 de bd fb 1f 99 bc 72 a3 fa 3a bf a3 bf 3d
       -0.10881419 -0.018692007 0.0019122197 0.09357404
0001b0 f0 f4 05 3e 01 d0 97 bd bc e1 02 bd a1 2a e4 bd
       0.13081717 -0.074127205 -0.03195356 -0.11140943
0001c0 5e 5f 81 bd dc 10 29 3d a0 41 ea 3d 60 c4 7f bd
       -0.06317018 0.041275844 0.11438298 -0.062443137
0001d0 dd 06 a8 3d 99 6e 36 be 12 a3 a8 bd 61 5a 7f bb
       0.08204434 -0.17815627 -0.08234228 -0.0038963782
0001e0 19 27 ed bc 20 d7 87 bb 78 2f 3e bd 32 62 1d 3e
       -0.028949307 -0.004145518 -0.04643199 0.1536949
0001f0 bb 92 33 3d be da d6 3d 9a 8f a5 3d 85 eb 74 be
       0.043841105 0.104909405 0.080840304 -0.23917969
000200 81 e1 c7 bc 38 20 82 bd ba 50 82 3d 88 23 9f 3d
       -0.02439952 -0.063538015 0.063630536 0.07770449
000210 57 8f 55 be fd 73 b1 3d f5 a5 d6 3d 7d 2d c4 3b
       -0.20855461 0.08664701 0.104808725 0.005986868
000220 cd 0d f2 3d 58 ce 29 be 95 b4 db 3d 4b 0e 5b 3e
       0.118190385 -0.1658262 0.10727803 0.21392171
000230 92 c6 a9 3d 97 e7 1e 3e 2b 99 c6 3d d9 6b a6 3d
       0.082898274 0.15518032 0.09697183 0.08126039
000240 7e 6a 67 3d 9c ed 1a be 50 d3 af 3d 34 04 c8 3d
       0.056498043 -0.15129703 0.085852265 0.09766427
000250 2a e9 a7 3c d9 f2 3b 3c 0f 36 8c 3d 51 ac 15 bd
       0.020496923 0.011471474 0.06846248 -0.036541287
000260 a6 ed 86 3d b1 b4 b3 3c 4b 2b d6 3c 24 96 c6 3e
       0.065882966 0.021936746 0.02614369 0.38786423
000270 b0 8e 30 3e 40 cc bd bc 63 f2 c7 3d 86 6e a9 bd
       0.17241931 -0.023168683 0.097630285 -0.08273034
000280 61 5e b9 bd a3 0d 39 3d 8f d2 3d 3d a1 a9 ba be
       -0.090512045 0.04517902 0.046343382 -0.36457542
000290 76 80 72 bd 87 5a ac bd 66 a4 7d 3d 7e 2d 57 be
       -0.05920454 -0.08415704 0.06192436 -0.21013448
0002a0 f0 7e c4 3d 5e 47 83 3c 67 6c 36 3d 02 07 96 3d
       0.09594524 0.016025241 0.044536974 0.073255554
0002b0 8e e4 bf bc 0e 4d 8f bd 72 4f ba 3d 69 e0 a4 3d
       -0.023424413 -0.06997119 0.09097184 0.08050615
0002c0 8f 18 18 bc d0 be b1 bd 33 cb 24 bb 62 6b 54 3d
       -0.009283199 -0.08678973 -0.002514553 0.05186022
0002d0 39 dd 97 bd 73 f1 4d bd 9f aa ee bc ae f9 2e 3c
       -0.07415242 -0.050279092 -0.029134093 0.010679645
0002e0 a7 59 c1 bd b1 75 d7 3d e4 ff bf 3b 6c 32 9e be
       -0.09440928 0.10520495 0.005859362 -0.30897844
0002f0 d1 7c 45 3d 44 d3 47 3c 09 29 f1 3d 19 ed 98 be
       0.048214737 0.012196366 0.11775405 -0.2986839
000300 bc b1 1d bc fd 27 c6 bd 65 0c 21 bd ea 2c 5c bd
       -0.009624895 -0.09675596 -0.03931846 -0.05375377
000310 db 0b 07 3d 18 16 50 bd 54 80 50 bd 6f f6 97 3d
       0.03297029 -0.05080232 -0.050903633 0.0742005
000320 82 34 bb bd b9 17 d8 bd b5 4a 97 bd d9 36 11 be
       -0.091408744 -0.105514 -0.07387296 -0.14181079
000330 73 ce c6 bd 5e db 39 3e d9 d1 f8 3d 3e 0d 29 3d
       -0.09707346 0.18150088 0.121494 0.041272394
000340 4a b4 43 bd 83 b3 0c be d8 1c 11 3c 4c 07 ec bd
       -0.04777936 -0.13740353 0.008856975 -0.11524829
000350 92 dc 0f bd 1c f3 75 bd 14 da 9a bd 2d 43 0f be
       -0.03512246 -0.0600463 -0.07561126 -0.1399047
000360 32 9d 14 3d 99 74 33 bd b8 95 63 bd c1 90 08 3e
       0.036282726 -0.043812368 -0.055562705 0.13336469
000370 ac 89 f7 3b de 6b 0b 3e 91 4d d9 bd 9e eb ea 3d
       0.0075542536 0.13615367 -0.10610498 0.11470722
000380 d4 ef f5 3d b8 93 e7 bd 41 dc 3f 3c 38 38 ae bd
       0.12008634 -0.11307472 0.0117102275 -0.085068166
000390 b2 9f a3 bd ad f8 20 be 75 1d f1 bb 86 ed 04 3e
       -0.07989444 -0.15719862 -0.007358248 0.12981233
0003a0 30 66 7c bd a0 d0 07 bf 36 21 a3 3d 35 01 2f bf
       -0.06162089 -0.5305271 0.07965319 -0.68361217
0003b0 7a 93 d6 3d 47 16 d8 3d 25 b2 1f 3d 01 40 f5 bd
       0.10477348 0.10551124 0.03898825 -0.119750984
0003c0 8f da f5 3d 84 3b ef bb e5 13 22 bd 0b 7b 9a bc
       0.12004577 -0.007300796 -0.039569754 -0.0188575
0003d0 f9 41 62 3e 2d de 21 be 76 c7 0a 3d ba f0 e2 bb
       0.22095479 -0.1580741 0.033881627 -0.0069256695
0003e0 02 35 dc bd ce f2 f3 3d d0 ea 75 bb 84 67 a7 3c
       -0.10752298 0.11911546 -0.0037523992 0.020435102
0003f0 75 50 df 3d 04 67 1b bd 0a f1 46 bd 5b 10 08 3c
       0.10904018 -0.03794004 -0.048569717 0.008304681

fc.3.bias f4 [4]
000000 fe 89 c1 bc 81 37 34 ba 58 0e 6c 3c 66 de 11 3d
       -0.02362537 -0.0006874726 0.014407717 0.035612486
