models/v17.1/model_148500.pt (torch, 729854 bytes, 10 tensors)

conv.0.weight f4 [16, 2, 3, 3]
00000000: 5652 4f3e 72ef 9a3c f95d 8dbd 8f40 183d
00000010: 487f c5bb 5c9b 9bbd 8595 95bc afba 82bd
00000020: d7f6 d73d 97c7 4bbe 1e14 9f3d 8c3c b73d
00000030: 2c4a 0e3d f039 39bd ef7d 883d 8523 7a3d
00000040: 2de1 9d3d 5794 8ebd bdd5 ee3d b6f1 7f3e
00000050: e5e9 80bd 2de3 adbd d3d3 64be c0de 053e
00000060: 885a 36be 14bf 80be 965e 07be c17d 41bd
00000070: 9da4 05bd 8708 c0bc 3e50 aa3d bf35 a6be
00000080: cef0 2f3d 1e02 5a3e 60d8 6f3d 1b56 283e
00000090: 82a1 843d 604c a73e 68c3 e5bc 74b7 1cbc
000000a0: bff1 df3d 92b6 873e 6dd6 353e 354c dd3e
000000b0: ec90 333d 1957 a5bd b9f3 9bbe dce0 e13c
000000c0: cbe7 8c3c c1e6 2fbd 97a6 a4be 397f 1ebe
000000d0: 8c80 ddbe 7ee4 10bd e8c0 b93c 0822 3dbc
000000e0: fd55 823d c856 19bd 1159 853c eaf5 a0bf
000000f0: de2e d93b e6d2 7cbd 9af0 9b3b b94f bebc
00000100: 44de 763c abd2 9cbd 6826 0c3d e90b ecbc
00000110: c4bf c13d 9d6d 05bc e963 403d a4e1 d6bc
00000120: 3a96 0b3d 88b4 c0bd df08 07be fac5 80bd
00000130: 75b0 16be b2c8 1c3f ca36 393c 9144 02bb
00000140: aaec 06be 90fb c9bc a11d 9d3d d9a6 133e
00000150: a81e 563d 91a9 f03d 2af2 983e 4991 a6bb
00000160: 5aae 0dba 1291 df3d 56e7 123d eb7d 8cbd
00000170: 4565 ee3e 35f2 4cbd 7181 19bf aaa1 33bd
00000180: 40a4 b03c a9fb 0bbe 7cdc c3bd bc14 51bd
00000190: 2765 813c da54 c6bb 8cc6 603d 4638 a8bb
000001a0: 6ed9 123a d2de adbc 1d25 1d3e 0a9d c53d
000001b0: baa0 93be 3df9 bbbe 9235 aabc a8dd a63c
000001c0: 34aa 043d c553 35bf 6948 cabe 93a6 eabe
000001d0: 4b14 95bd d038 803e e056 9b3e 8ef0 0cba
000001e0: 8f1f ed3b 9863 b63c 41ae d83e 3d71 2b3e
000001f0: d8a8 8d3e ff67 4a3d 4584 01bf 0232 07bf
00000200: 44b3 203d 82e9 02be 2642 ca3d c05e 053e
00000210: ff02 80bf 4100 b2bd 86eb 4fbd f5e2 563e
00000220: 948d 863e 79f1 92bd 3c2c 933c 510f 41bd
00000230: 2034 bc3d b8f1 893e 8fb4 943d 8c05 423d
00000240: 3b27 853d ce1b 873d 79b2 353b f000 823d
00000250: 2949 703e 0837 0bbc a3d9 70be 5645 e7be
00000260: 8582 e3be 8987 a1bd cd38 d73d 4570 123d
00000270: f452 0e3d 3a53 933d 76e3 ff3d c817 d0bd
00000280: a216 3c3e 6251 1abc dfda afbb 44d0 71bd
00000290: 23ec b43c 2529 353c 1fc5 9abd 8a92 013f
000002a0: 80ea 58bc e223 21be 98a7 b7bd c737 d2ba
000002b0: ab55 293d 2a85 0dbd 89e2 33bd 80c5 433d
000002c0: 4b6b 06bf f69a 503c a97d 043e 74b2 903d
000002d0: 7517 e43c 4344 9fbc 1c74 e2bb 85bc a4bd
000002e0: 30be 103f 084f d7bd 505b c73b 8cc3 6dbd
000002f0: 5110 423d 335e 2abc 7b73 913c f0c0 5e3b
00000300: 7454 993d 9f61 c33e 57ca 9c3d 16e1 c1bb
00000310: 2d71 773d b36c 5abd 5c16 67bc 7201 6a3d
00000320: da81 71bd 6f5b 903c 8491 523f 5866 c33c
00000330: f31c 9fbd 09cc fb3c 0ce1 bcbd 5fd5 b33c
00000340: 8813 78bd 88e0 893d eaa2 e0bc 79a2 a1bd
00000350: 169f 1abd 7f46 aa3d 681e 46bd b4af a63d
00000360: d3a2 b2bd 651d 39be 443b b2bd 0e01 c1bd
00000370: 5bec 17c0 a105 af3c 9d9d dcbd 9d31 0cbe
00000380: 7bb0 12be b42d ed3d 818f ce3d f246 b83d
00000390: 655d 553d 3d5d ef3e 79e5 aebd 6e69 0b3e
000003a0: 927d 793d 1062 2f3e b2fc 85bd 3ac4 45bd
000003b0: 28de 94bd 84f1 9ebd 5099 afbe 03c0 65bf
000003c0: eac1 453e b10f eebd 1ecd c0bd a0c5 d6bb
000003d0: 93ea b03d fa80 873c f612 cabc 5215 d03d
000003e0: 6c3a fb3e c776 f43d bc4c 0b3e a84c 8b3d
000003f0: 6b7f 0dbf 39cc 0abf 5752 75bf 3b14 eabd
0.20246252 0.018913005 -0.069026895 0.037170943 -0.006027136 -0.07597992 -0.018259773 -0.06383263
0.10545128 -0.19900356 0.07767509 0.08947095 0.034738705 -0.04522127 0.06664645 0.06106903
0.077089645 -0.06961887 0.11661861 0.24994549 -0.06294612 -0.08490596 -0.2234643 0.13073254
-0.17807972 -0.2514578 -0.13219675 -0.04723907 -0.03262769 -0.023441566 0.08316086 -0.3246288
0.04295426 0.2128987 0.05855596 0.16439097 0.06476118 0.32675457 -0.028047279 -0.009565223
0.10934781 0.26506478 0.17757578 0.43222204 0.04383938 -0.08073253 -0.30459383 0.027573042
0.017200371 -0.042944673 -0.32158348 -0.15478219 -0.43262136 -0.035374157 0.022674993 -0.011543758
0.06364057 -0.037436277 0.016277822 -1.2575047 0.0066279015 -0.061724566 0.0047589066 -0.023231374
0.015067641 -0.07657369 0.034216315 -0.028814273 0.094604045 -0.00814381 0.04697028 -0.02623064
0.034078814 -0.094094336 -0.13186978 -0.06287761 -0.1471575 0.61243737 0.011304567 -0.0019877295
-0.13176218 -0.024656087 0.07671667 0.14419116 0.05227533 0.11751092 0.29872257 -0.0050832373
-0.00054047036 0.10916342 0.03586515 -0.068599544 0.46561638 -0.050035674 -0.59963137 -0.043855347
0.021562696 -0.1367022 -0.095635384 -0.051045164 0.015795304 -0.0060525956 0.05487685 -0.0051336614
0.00056018576 -0.021224413 0.15346189 0.096490934 -0.28833562 -0.3671359 -0.020777497 0.020369366
0.03238888 -0.7083095 -0.3950837 -0.4583021 -0.07279261 0.25043344 0.30339718 -0.00053764216
0.007236428 0.022264287 0.42320445 0.16742416 0.2766788 0.049415585 -0.5059245 -0.5281068
0.03923346 -0.12784389 0.09875898 0.13024426 -1.0000914 -0.08691455 -0.050761722 0.20985015
0.2627989 -0.071749635 0.017965429 -0.047133747 0.091896296 0.2694223 0.07261001 0.04736857
0.06501623 0.065971 0.0027724786 0.06347835 0.23465408 -0.008497007 -0.23520522 -0.45170087
-0.44435516 -0.078871794 0.10508881 0.0357516 0.03474708 0.071936086 0.124945566 -0.10160786
0.18368009 -0.009418817 -0.0053666676 -0.05903651 0.022085255 0.011057173 -0.07557129 0.50614226
-0.013239503 -0.15736344 -0.08967513 -0.0016038351 0.041341465 -0.034550823 -0.043917213 0.047795773
-0.52507466 0.012732258 0.1293856 0.07065287 0.027843216 -0.01944173 -0.006910814 -0.0804377
0.56540203 -0.10513121 0.0060838833 -0.058047816 0.04737884 -0.010398435 0.01775526 0.0033989511
0.07486811 0.38160416 0.07655781 -0.005916725 0.060410667 -0.05332632 -0.014104452 0.057130285
-0.058961727 0.017621724 0.8225329 0.023852512 -0.077691935 0.03073694 -0.09222612 0.02195233
-0.0605655 0.06732279 -0.027421433 -0.07892317 -0.037749372 0.08314227 -0.04836884 0.081389815
-0.087224625 -0.1807762 -0.0870271 -0.09424029 -2.373801 0.021364989 -0.1077225 -0.13690801
-0.14325134 0.11580983 0.10085965 0.08997907 0.05209102 0.46750823 -0.08539862 0.13614437
0.06091077 0.17127252 -0.065423384 -0.04828284 -0.072689354 -0.07760909 -0.34296656 -0.8974611
0.19312254 -0.11624087 -0.09414123 -0.0065543205 0.086384915 0.016540993 -0.024667244 0.101603165
0.4906801 0.119367175 0.1360349 0.068017304 -0.5527255 -0.5421787 -0.95828766 -0.1142964

conv.0.bias f4 [16]
00000000: cd8d 76bd fe9e 8fbe 9d01 fabd 849c 103f
00000010: 8130 13bf 88cd 8abe a5ad 573c 4c6b 35be
00000020: f565 c4be 8eab 7abd 21f0 29bf 57c1 d6be
00000030: 1157 9c3e 6c96 6dbe ec57 77bc ab5a 3abe
-0.060193826 -0.2805099 -0.12207339 0.56488824 -0.57495886 -0.27109933 0.013163959 -0.17716712
-0.38359037 -0.061198764 -0.6638203 -0.41944382 0.30535176 -0.23201913 -0.015096646 -0.1819865

conv.2.weight f4 [32, 16, 3, 3]
00000000: bee0 88bd 31ae 6b3c 4d59 1dbd 48f5 88bc
00000010: 86b4 8fbd a7b6 a7bc 9d04 a83d 4032 edbc
00000020: d31f c6bd 077e 8e3d 45d4 d13d 6492 ad3d
00000030: 7857 103e 5aa2 de3d 7e92 fc3c ac40 483d
00000040: 14ee 20bd 6d16 2ebd f1ba 333e a008 efbc
00000050: 9447 43bd ff2e 03bd 40c6 c5bb 2674 67be
00000060: 6b4e fabd 672f 79be a4f9 41be f969 5c3c
00000070: 05d1 1cbd 58b4 09be 8084 e93b 46c9 8fbd
00000080: 7802 9dbd 3e72 473d 7630 f2bd a0c1 b3be
00000090: 5c8c 933d 37f6 e73d 6d08 91be 70c7 12be
000000a0: 8e95 25be a641 abbe aa7e eb3d b793 f7bd
000000b0: 7286 37be 6f45 2d3d 2570 d93c 4ac8 b5bd
000000c0: d65e 253e e930 b73d 77e5 83be 4438 a33d
000000d0: 6cb3 8f3d f1ce 02be 0f4b 353d 1b6d 3a3e
000000e0: 875f 5e3c 9af6 1e3e 8065 3f3d d1a7 34bd
000000f0: aab1 8a3d 53f6 ab3c 86ed 34be b99f 45be
00000100: 9453 18bd d804 983c 860e 89bd 586d 8cbc
00000110: 73e1 2abd ec03 a1bd c9dd a5bd 522b 07be
00000120: 60d6 b63d a71e 893d f5d3 133d fab0 91bd
00000130: 76ff 173e 6460 04be fd2d ca3d b4f8 42bd
00000140: 3574 1ebe 7acc c43d 165b 71be 1fe3 2f3d
00000150: e72c de3d 5f59 1dbe d55a 21bd 3e46 2dbe
00000160: 8800 6abe 8495 983c d168 4a3d f4dd a3ba
00000170: 7397 02be 58a9 e5bc a9f3 de39 833a 17be
00000180: 0dc3 9bbd a73b fdbc eace 92bd a1bd 123c
00000190: 29df 03bc d533 97bd 4de1 16be caee 52be
000001a0: b4dd 11be e50d 00be 23e3 0dbe 4713 c43b
000001b0: 9f4f 533c bc75 2e3d 9b06 f13c 4ecb 09be
000001c0: d51e 11bc 27ff cb3c 09cf 09be ef88 19be
000001d0: 73e3 e6bc 5d77 b6bb 1d24 5e3c 6e21 523d
000001e0: cfd4 853d ce13 993c d10f b4bc 801f 15bd
000001f0: 30c4 2ebd 0b8d aa3c dbe8 a53c fad6 dfba
00000200: 6158 e9bb 925c 02bd 603f 34be cc00 c2bd
00000210: ab43 1bbd 7d87 2cbd 6b73 b23d 0b6e 06be
00000220: 81da 5abc 383e b5bd 68d0 d0bd 0540 da3d
00000230: b6f4 243c cf0e b5bd 1785 1abe 7881 8fbd
00000240: 1932 543e ae02 cfbd b231 2a3e 35f8 b23d
00000250: 9a8e ca3d 4fd3 73bd 64e0 0bbd 2159 0b3d
00000260: 3dfd b1bd 0764 ed3d 7aba 223d 671f 8d3e
00000270: eb08 24be 5210 1c3e 8ac2 873d 9fb7 423e
00000280: a591 83bc 1331 a53d 6506 a7bd f55e 823e
00000290: 9ee5 6c3e d062 8e3e 0d44 84be d071 4dbe
000002a0: 1ba3 943e 9360 acbb 9387 c03d a57e 0ec0
000002b0: d71d dc3d f0c0 c9bd 13cc 83bc fafa 47bc
000002c0: eef9 bd3c 5b7a 01bc 1399 2dbd adb8 8bbc
000002d0: a3ee 82bf 310e c43e 1c16 6abb 5985 64bc
000002e0: c442 983d c261 b13d 9e1c 5d3c 1ed5 47bd
000002f0: 8e94 dbbc af05 47be 4fab 40bf f3e0 68bd
00000300: 33ec a7be f179 21bd 4af9 37be b7a5 d7bd
00000310: 3c02 0fbd 7971 2a3d 9aec f83d cf35 37bd
00000320: 0938 68bd b69e a13d 5939 aabd c9ac e5bd
00000330: b8f3 083e f80d 083d a71d 2f3d f1c6 833d
00000340: e2cb aebd 7e98 0ebe 56ca c03d a0e3 e0bd
00000350: 1865 23be 40ef 8d3e 1a31 04bb 6136 f33d
00000360: 852b 363e b9c2 17be e770 693e 3e68 9b3c
00000370: 816b a03e 5d90 ae3c f3ad 5c3e e517 1f3e
00000380: 97ab 07be 0c19 bc3d 99bc efbe 7ad0 b0bd
00000390: eaa0 c03d 01c6 d73b d11d 50be 7c9e fe3e
000003a0: a63d 743c 09a5 24be 36ec 87bd 45b3 dbbe
000003b0: 0c9d e13e b824 3a3d 20d4 40be a0f4 23bb
000003c0: 9959 9cbb e734 71bd 6852 e5bb dbb9 0f3e
000003d0: b9ff 18bf 6bca 483e 14b4 ca3d dc6d c2bd
000003e0: 3cc7 6dbd d4d8 dbbc 56d5 683b 5b65 383c
000003f0: 6726 743d 91b1 94bf e74b 2ebf c54a 703e
-0.06683491 0.014384792 -0.038415242 -0.016718522 -0.07016854 -0.020472838 0.08204005 -0.028954625
-0.09674039 0.069576316 0.10245565 0.084751874 0.14095867 0.1087081 0.030831572 0.0488898
-0.03928955 -0.042501856 0.17551781 -0.029178917 -0.047675684 -0.03202724 -0.006035596 -0.22602901
-0.12221988 -0.24334489 -0.18942887 0.013453 -0.038285274 -0.13447702 0.007126391 -0.07020812
-0.076664865 0.048692934 -0.118256494 -0.35108662 0.07204506 0.11326259 -0.2832674 -0.14333892
-0.16170332 -0.33448523 0.11498769 -0.12088721 -0.1792238 0.042302545 0.026542732 -0.08876093
0.16149458 0.08944876 -0.25761005 0.07969716 0.07016644 -0.12774254 0.044261035 0.18205683
0.01357258 0.15523759 0.046727657 -0.044105355 0.06772168 0.02099148 -0.17668733 -0.1929921
-0.03718908 0.018556997 -0.06692223 -0.017141983 -0.04171891 -0.07862076 -0.08098943 -0.13200119
0.089276075 0.066952996 0.03609081 -0.07113834 0.14843544 -0.12927395 0.09872053 -0.047600463
-0.15474017 0.09609313 -0.23569903 0.04294121 0.10848408 -0.15366124 -0.039393265 -0.16921327
-0.22851765 0.018625982 0.049416367 -0.001250206 -0.12753086 -0.028034851 0.0004252468 -0.14768414
-0.07605562 -0.030912234 -0.07168372 0.008956344 -0.008048811 -0.07382933 -0.14734383 -0.20598903
-0.1424473 -0.125053 -0.13856177 0.0059837434 0.012897401 0.04259275 0.029422095 -0.13456461
-0.008857449 0.02490194 -0.13457884 -0.14993642 -0.028184628 -0.0055684284 0.013558415 0.051301412
0.06534731 0.018686201 -0.021980198 -0.036406994 -0.042667568 0.020819208 0.020252636 -0.0017077618
-0.0071211313 -0.031826563 -0.176023 -0.09472808 -0.03790633 -0.0421214 0.087134205 -0.13127916
-0.013357759 -0.08849758 -0.10196 0.10656742 0.010068109 -0.08840715 -0.15089832 -0.07007116
0.20722236 -0.10107933 0.1662052 0.08738748 0.0989048 -0.05952769 -0.034149542 0.034020547
-0.086908795 0.11591344 0.03972862 0.2756302 -0.16019027 0.152406 0.06628902 0.19015358
-0.01606066 0.08066001 -0.081555165 0.2546307 0.23134467 0.27809763 -0.2583317 -0.20062947
0.2903069 -0.005260536 0.09400859 -2.2264798 0.10747879 -0.09851253 -0.016088521 -0.012205834
0.023190465 -0.007902707 -0.04238231 -0.017055834 -1.0229076 0.38292077 -0.0035718745 -0.013947808
0.074346095 0.08661224 0.013495592 -0.04878723 -0.026804235 -0.19435762 -0.75261396 -0.056855153
-0.32797393 -0.039422933 -0.1796619 -0.105296545 -0.03491424 0.041612122 0.12154503 -0.04472905
-0.056694064 0.078916 -0.083117194 -0.11214597 0.13374221 0.033216447 0.042752888 0.064344294
-0.08534981 -0.13925359 0.094135925 -0.10980916 -0.15956533 0.27721596 -0.0020170868 0.11875606
0.17790039 -0.14820375 0.22796975 0.018970605 0.3133202 0.021309072 0.21550731 0.15536459
-0.1324905 0.09184465 -0.46823576 -0.08633514 0.09405692 0.006584883 -0.20323874 0.4973029
0.014907276 -0.16078581 -0.066368505 -0.4291021 0.4406513 0.045445174 -0.1883092 -0.0025017634
-0.004771423 -0.058888342 -0.006998349 0.14035742 -0.597652 0.19608466 0.098976284 -0.0949361
-0.058051333 -0.02683679 0.0035527549 0.011254634 0.059606936 -1.1616689 -0.6808457 0.23466022

conv.2.bias f4 [32]
00000000: 4256 8e3c acbb 4a3d 9fa0 85bd c648 a43d
00000010: 7f8b f93c 9262 2dbd 2351 5c3e 42de 93bd
00000020: 59ca 6fbe 8958 a1be 10e9 103e 9a1c 8a3e
00000030: 9024 c3bd 4cc2 0f3d 3eae cb3d baab 13be
00000040: f156 873c 5f95 c53b 4265 513e 6620 eabd
00000050: 041a cd3d fb20 68bd a257 ecbb 6425 acbd
00000060: 7daa 0ebe cd92 a23e 2d5a da3d 6073 02be
00000070: f62c 0fbd 50b1 e33c ea58 c6bd fb45 0b3e
0.017375115 0.049495384 -0.06524777 0.08021693 0.030462025 -0.042330332 0.21515326 -0.07220127
-0.23417033 -0.3151286 0.14151406 0.26974946 -0.09528458 0.035097405 0.099453434 -0.14420977
0.01652095 0.0060297693 0.20448783 -0.11431961 0.10014728 -0.056672078 -0.007212595 -0.08405569
-0.13932224 0.31752625 0.10661731 -0.12739325 -0.034954987 0.02779451 -0.09684928 0.13600914

conv.4.weight f4 [64, 32, 6, 6]
00000000: 4d01 49bc 11d1 6dbd d0f9 883d 03fd 7bbc
00000010: 4bc7 3e3d 04dc 7fbc 8862 05bd 7f86 253d
00000020: 282f ef3c 5365 b33c 3370 88bc c8f4 1f3d
00000030: 95b5 5cbb cac9 c53c 6767 d1bc ae88 34bd
00000040: ab6e e2bb 950b ec3c 9c3f 433c aad9 963d
00000050: 3159 9fba 74f1 55bd ef35 44bd 1043 a33d
00000060: 4848 ca3c 56b0 dfbb 2b1f 80bd 6812 d63c
00000070: 099e f1ba cd71 18bb 07c3 d83b 7335 89bc
00000080: d877 17bd f91d 6a3a ce26 27bd 7885 b3bb
00000090: bfb5 2abd a09e 0abd a28c 873e a9ef 04be
000000a0: 52a3 e1be 34e3 04be bdb0 103d f1d5 063e
000000b0: 7798 873d e98d 88be 1113 4ebe 3113 b93e
000000c0: c06c 18bf 80fc f03d 61fe 55bd 08be 9b3d
000000d0: b018 4e3e 867b 7e3e 9289 b93d fbbb 03be
000000e0: 9152 dd3c 652d 80bd bba6 913c 2f93 383e
000000f0: 2c05 923d 5e71 553d f933 c03d 2477 d83d
00000100: 8864 44bc a18e 093e 0417 a0be c030 6a3e
00000110: a2de a13e e835 303e 539e 613e a113 2abf
00000120: 31b5 28bc 4b04 21bd d5ab bbbc e875 46bd
00000130: dacd 2b3c 6ec6 cbbc 391c 09bc 45a1 a13b
00000140: 8f02 dcba 0e52 743c 46d5 b53c b8dc 2a3c
00000150: 9534 273c a5e3 11bc 5de3 e4bc 8acf c43c
00000160: d276 6d3c 7906 2bbc bf7d b3bc 86d4 c93c
00000170: a369 abbc 1797 823c 9b6e 1dbd 50d7 17bc
00000180: 2683 09bb b08f 193d d28d 153b 959e b73c
00000190: 523d 1fbc 7bb6 f93c f713 e43c 9e44 073d
000001a0: c2a9 2d3d 7e56 323c 41b1 94bb 5481 703b
000001b0: 2304 8abd 6322 703e b12d edbc 1e96 8fbe
000001c0: cb35 fdbe 651e 6d3e 4580 f53b 4c08 903e
000001d0: aed1 c63d de13 c9bc 42af d13e 82ab cebe
000001e0: f9b0 b03e 02cf 783e bd04 543e 693a 1f3e
000001f0: 157d 703e 6d4d ac3e b4f4 763e e275 8a3e
00000200: df15 6d3e 9a21 153c 8708 a53e e52d a53e
00000210: 7752 beba 7895 c13e 1a4f b73e 5691 8b3e
00000220: d579 c93e 3c6a 01bf cdfc 243c 8a88 e6be
00000230: 8bb8 09bf da6c 4ebe 44fa 433e e58c b6be
00000240: 57bf 213c 6868 a3bc a409 1ebe 043d f33d
00000250: b15d 743e b505 15be ab40 ae3e b654 9b3e
00000260: ea1f d8be d92d dbbe 2c4d 16bf 2852 03be
00000270: 19c6 8dbe ab23 ef3d 3e21 d4be 2b8a 6dbd
00000280: a687 0e3e f9e4 d9be 81c8 793e 1356 29be
00000290: a5fb a4be 1924 68be 76df 9ebe f0d3 8c3d
000002a0: 84fe b03e 978f b3bc 0bf4 99bc b953 bdbc
000002b0: 584e 4a3d bb04 493e 2cce ddbb 99d3 1d3e
000002c0: 38d0 0a3d fd85 81bd 4766 22bb 6619 2ebf
000002d0: 971d b53d 30bb 203d 622f f93d 0c14 1a3d
000002e0: 7b9f 0b3c 5386 52bd d1a1 d73e 8875 f73d
000002f0: 242a 6d3e ae9c 0a3e 7e74 143d 5f2f b93d
00000300: 3083 f03e 9a01 3b3e ec1d 3b3e aebf 8f3e
00000310: 19fe e03d 8847 ad3d e00b ae3e 4016 363e
00000320: 50d1 913e dfe1 823e 17c7 f53d 8ae7 b9bd
00000330: 4239 2ebd 46f3 a23e 5e4e 9c3e 89da 153d
00000340: 0216 7e3d 4829 76be e9e9 08be 754a b63d
00000350: 04d0 323e d593 903d ccdc 873d 064f 8e3d
00000360: bebc c2bc 1367 173d 937a 2c3e e2a0 953d
00000370: 5555 e63d 52bb e73b aa70 313e cd76 0b3e
00000380: 8ecb fb3d fd04 283e 4051 d93d a889 71bc
00000390: 25a2 4c3e 2577 95bc 3328 053e e885 bd3d
000003a0: d72e c13d 3830 773d 47ed 4f3d b16f 78bd
000003b0: ba11 243d ba48 ee3d 3e8a 173e 2391 da3c
000003c0: 5f64 153e 213a 093e 74de 303d 3e03 043e
000003d0: 4557 603d 4672 05bd 05e8 853d e5c0 c6bd
000003e0: 2383 d7bc 7b26 093e 2616 82bd d40d f3bd
000003f0: 5c49 843c 73f0 8a3c d6d8 67bc b474 ba3c
-0.012268377 -0.05806071 0.06688273 -0.015380147 0.04657678 -0.015616421 -0.03256467 0.04041147
0.02919729 0.021898901 -0.016655063 0.0390518 -0.0033677567 0.024144072 -0.025562001 -0.04407566
-0.0069101653 0.028814116 0.011917021 0.07365735 -0.0012157318 -0.05223222 -0.047902998 0.079717755
0.02469267 -0.006826441 -0.06255945 0.026131824 -0.0018433939 -0.002326119 0.006615046 -0.01674912
-0.036979526 0.0008930858 -0.04080849 -0.005478557 -0.041677233 -0.033842683 0.26474482 -0.12982048
-0.44069916 -0.12977296 0.0353248 0.1316755 0.06620877 -0.2667077 -0.20124461 0.36147454
-0.5954094 0.117669106 -0.052244548 0.07604605 0.20126605 0.24851808 0.090594426 -0.12864678
0.02701691 -0.06258658 0.017779699 0.18024896 0.07129893 0.05211007 0.09384913 0.10569599
-0.011986859 0.13433315 -0.3126756 0.22870159 0.31615168 0.17208064 0.22033052 -0.664362
-0.010297106 -0.039310735 -0.022909084 -0.048452288 0.010486091 -0.024874892 -0.008368545 0.004932555
-0.001678543 0.0149121415 0.022196423 0.0104286 0.010205408 -0.008904372 -0.027940447 0.024024744
0.014493661 -0.010438555 -0.021910546 0.024637472 -0.020924395 0.015941186 -0.03843556 -0.009267643
-0.0020982712 0.037490547 0.0022820127 0.022414485 -0.00971921 0.030482521 0.027841551 0.033024423
0.04239822 0.010884879 -0.004537732 0.003669818 -0.0673907 0.23450617 -0.028952451 -0.28044218
-0.49455103 0.23156126 0.0074920976 0.2813133 0.09707962 -0.024545606 0.40954024 -0.40365225
0.3451002 0.24297717 0.20704933 0.15549625 0.23485215 0.3365282 0.24116784 0.27043062
0.23152874 0.0091022495 0.32233068 0.32261577 -0.0014520426 0.37809348 0.35802537 0.2725932
0.39350763 -0.50552726 0.010070038 -0.45026046 -0.53797215 -0.20158711 0.19138438 -0.3565437
0.009872279 -0.019947246 -0.15433365 0.11876872 0.23863865 -0.14552958 0.34033713 0.30338067
-0.42211848 -0.42808416 -0.58711505 -0.12824309 -0.276902 0.11676725 -0.41431612 -0.057993095
0.13918933 -0.42557505 0.24392892 -0.16536741 -0.3222324 -0.2267002 -0.31029862 0.06876361
0.3456918 -0.021919055 -0.018793127 -0.023111211 0.04939112 0.19630711 -0.0067689624 0.1541275
0.03388998 -0.06324384 -0.00247802 -0.68007505 0.088435344 0.039241016 0.12167241 0.037616774
0.00852191 -0.051397633 0.42115644 0.12082964 0.23160607 0.13536331 0.036243908 0.090422384
0.46975088 0.1826233 0.18273133 0.28075927 0.10985965 0.08460909 0.33993435 0.17781925
0.28480005 0.2556295 0.12000864 -0.09077366 -0.042535074 0.31826228 0.3052854 0.036585364
0.062032707 -0.24039185 -0.1337048 0.0890092 0.17462164 0.07059447 0.066339105 0.06948666
-0.02377164 0.036963534 0.16843633 0.073060766 0.112467445 0.007071891 0.17328134 0.13619538
0.12294684 0.16408153 0.106112 -0.014742292 0.19983728 -0.01824529 0.13003616 0.09254056
0.09432762 0.06034872 0.050763395 -0.060653392 0.040055968 0.11634965 0.14798829 0.026680535
0.1458907 0.1340108 0.043180898 0.12891862 0.054770727 -0.032579683 0.06538395 -0.097047605
-0.026307648 0.13393585 -0.06351881 -0.11867872 0.016148262 0.016960358 -0.014150819 0.022760727

conv.4.bias f4 [64]
00000000: a3e7 53be 0e85 a3bd 49f0 a6be c27a 8bbe
00000010: 59e0 c1bd 5be2 5cbe 2983 c9bd d44f 1cbe
00000020: b93c a7be c110 32bd 6def 0ebe 200a 3cbd
00000030: c467 3dbd 240a d5be 8967 d6be 8ff4 aabe
00000040: 569e 36be 5a1c 073e 2598 82bd b7e9 52be
00000050: bddd a8be c6b8 25be 037e ed3e 291e 5cbe
00000060: 8c70 86be c54d 91be 4abc a5be 5085 51be
00000070: 6728 95be e70a b7be 0c28 babe e5fc 263e
00000080: 2d53 99be e622 a73e a337 19be 3274 a5be
00000090: c4dc 96be 8bc8 833e cf4a 26be 102f 45be
000000a0: 80ff aabe f977 0cbf 0d6d 51bd 16a5 c1be
000000b0: 8891 95bd 4225 353c 947d 863e c842 dfbe
000000c0: 675f eabd 38ca 83be 72fb 68be 844b 56be
000000d0: 4f6b 04bc 8c47 d3bd 8daa 93be 32dd d8be
000000e0: 5522 a6be 08f7 87be 93ec 77be d991 393e
000000f0: 981d c6be 24c4 8fbc b853 94be 8756 25be
-0.20693831 -0.079843625 -0.32605198 -0.27242094 -0.09466619 -0.21570723 -0.0983947 -0.15264827
-0.32663515 -0.04347301 -0.13958521 -0.045908093 -0.046241537 -0.416093 -0.41875866 -0.33389708
-0.17833838 0.13194409 -0.063766755 -0.20596968 -0.32981673 -0.16183767 0.46385202 -0.2149588
-0.2625774 -0.28379646 -0.32370216 -0.20461011 -0.29132387 -0.35750505 -0.36358678 0.16307409
-0.2994627 0.32643813 -0.1496263 -0.32315212 -0.29465306 0.2573894 -0.16239475 -0.19256234
-0.33398056 -0.54870564 -0.05112939 -0.37821263 -0.073031485 0.011056246 0.26267684 -0.43605638
-0.11443978 -0.25740218 -0.22752169 -0.20927244 -0.008082225 -0.10316381 -0.28841057 -0.4235626
-0.32448068 -0.26555657 -0.2421134 0.18122043 -0.38694453 -0.017549582 -0.28970122 -0.16146289

fc.1.weight f4 [64, 1600]
00000000: 3bfb b53b beab f8ba 67ab 89bc 759e 8f3c
00000010: 5664 d73a 1a45 c6bc e919 09bc 7243 1d3c
00000020: 5029 a23c eb63 30bb cb89 b3bc 9793 993c
00000030: cce3 11bb f2bc aebc eaab 7fbc b9d5 c8bc
00000040: d379 45bc 37b6 a5bb cd5b a0bc 2ef5 cabb
00000050: 9125 8abc 40a2 29bc 50f4 3b3a e13d 57bc
00000060: 2577 02bc 96d3 b2bb bc30 8e3c c64b 433c
00000070: 5fb1 893c ae5b 223c 9fe8 ae3c e156 39bc
00000080: c2cf a83c 0475 89bc 7efd 383c 464c dc3b
00000090: f593 8ebc 8fee be3b 0163 47bc 5b7f 263c
000000a0: ff4e b0bc d1d5 f3bb 5380 b73c 0503 bfbc
000000b0: ce4f 1c3c 1b53 59bc ee76 9d3b ca3e 0ebb
000000c0: 1246 e6bb f4dc 943c 0e10 a13c 04db 9a3c
000000d0: 6c25 65bc 6e54 d23c cfc8 443b 2006 8bbc
000000e0: b9ae c2bc 78a0 33bc 8f47 ea3c 3eb8 9dbc
000000f0: 5db8 3e3c b5d7 1ebc fc0a b63c c3b0 f3bb
00000100: 1ecd 96bc a5f0 2a3c baf8 83bc be88 07bc
00000110: 800f 8bbc ab1c b2bb ae01 f23a 622e a43c
00000120: 803f f2bb fa20 f73c 4ec0 b13c 4da8 ed3b
00000130: c14d 5f3c 12bb 4d3b 3fa8 04bb bdfd 773b
00000140: 654c 3abc 966f a33c 81dd 1bbc 6f98 aabb
00000150: 8e09 e8bb 60ed b1bc 3c55 21ba 3845 a4bc
00000160: 6156 043c 33ec 553b 5827 aebc 0f0b 373c
00000170: c790 b8bc 22f9 1b3c 956d 733b a8de 2c3c
00000180: b791 b2bc 0b2e 53ba 73cb eeba 625e db3b
00000190: 12db 213c ac84 c4bb 2dca 1ebc b579 c03b
000001a0: 60f1 87bb 5309 5dbc 82a9 5a3c d0c5 9d3b
000001b0: 8744 ae3c 61b5 b03b c9d7 e0bb 150c a83b
000001c0: 4cdc eebb a6e5 b23c 2beb a83c 137b a73c
000001d0: c97f ddbc 7a69 283b 0444 043c fd71 cfbc
000001e0: a808 eebb a70d ed38 8f5b 47bc c5f0 9a3b
000001f0: da52 9ebc 03b4 93bb 0ac1 5c3c 5eb9 e3bc
00000200: ba6b 08bd e77b cbbc eddb b13b d0ae 28bc
00000210: b133 cc3b 4362 9f3c 475e a3bc 0baf 423c
00000220: 3afc 92bc f66e 98bb 902e 82bc fe06 b2bb
00000230: e8ba 0a3c 9d8c 973c 66d0 af3c 07cd 933b
00000240: 85de 9b3b cd26 08bb 0dc7 c7bc d5af 86bc
00000250: 098d 7f3a 8c00 31bc 864b 06bd 0801 953b
00000260: 1cae 08bb 0872 77bc 1428 3cbc febd c1bc
00000270: ca5f 30bd 2cf0 90bc c1a8 27bd b578 1abd
00000280: ab86 b3bc 1c9d 1bbd b097 b9bc ebcd 8cbc
00000290: fe7e 973a b936 a7bc 8e4b 8e3b 694d debc
000002a0: 2f0b 02bd 494e 16bd 9890 38bc 5514 09bc
000002b0: a10c 0bbd 73c5 0cbd 938b 343b d13b 9f3c
000002c0: 80ce eb3b 8187 c8bb 9838 d4bc 7e3e 573c
000002d0: e2f5 b8bc 598d a3bc d05f 84bb bf01 00bd
000002e0: 705a fc3a c2f7 6b3c 37e2 803c 447f 043c
000002f0: b18f a6bc 1e18 8b3a eb72 9dbb 3229 ad3c
00000300: e26b e7bc a001 30bc 2769 cfbc d18a f03b
00000310: fb3b 793c 92b6 ea3b 9818 1a3b e76f a93b
00000320: 985b 073c ca59 3f3c acd4 abbc c6db 76bc
00000330: 8893 8dbc 69ec 61bb 646d 3f3c 711c e5bc
00000340: 37e5 353c 7062 afbb b114 c43c 64c7 6c3c
00000350: 0ac8 e1bb 7ca1 95bc a526 09bc 712b 443c
00000360: 89c5 5f3c 4bf1 4d3c 7385 863b 79bf 8d3c
00000370: b1a9 afbc 1259 5abc 0c3f 91bb e604 85bc
00000380: ef64 bdbc 3255 043a c678 1dbc c427 403c
00000390: 9d3b a83b c6a0 58bb 8a45 f139 873d 91bc
000003a0: fbc4 94ba 3273 57bc fd02 f2bb 4673 b03c
000003b0: 7894 5fbc 698e 863b 5d09 1dbc 7c25 883a
000003c0: 8cea 77bc 318f 28bb 55f3 84bb c507 51bc
000003d0: 6985 d33a ee69 46bc 03f8 c7b9 fd8e 013c
000003e0: f925 d1bb 347a 3c3c 325d cc3b 2875 053c
000003f0: 3fdf 0fbc 897a 253c f27e f639 3d9a 3cbc
0.0055536306 -0.0018972082 -0.016805364 0.017531613 0.0016433101 -0.024202872 -0.008367994 0.0095986
0.01979509 -0.0026915025 -0.02191629 0.018747134 -0.0022261022 -0.02133033 -0.015604952 -0.024515973
-0.012052971 -0.005057122 -0.019575024 -0.0061937785 -0.016863616 -0.010353625 0.0007169889 -0.013137312
-0.007962977 -0.005457352 0.017357223 0.011919921 0.01680821 0.009909553 0.021351157 -0.011312217
0.02060688 -0.01677943 0.011290906 0.0067229597 -0.017404536 0.0058267782 -0.0121696 0.0101622
-0.021522043 -0.0074412604 0.022400057 -0.02331687 0.009540511 -0.013264443 0.0048054373 -0.0021704906
-0.007027396 0.018171765 0.019660976 0.018903263 -0.013985973 0.025675025 0.0030026918 -0.016970694
-0.023764955 -0.010963552 0.028598575 -0.019252893 0.011640635 -0.009694983 0.022222035 -0.007436843
-0.018408354 0.010433351 -0.016109813 -0.008272348 -0.016975164 -0.0054355464 0.0018463635 0.020041648
-0.0073928237 0.030167092 0.021698143 0.007252729 0.013629378 0.003139202 -0.0020241884 0.0037840449
-0.011370753 0.01995067 -0.00951326 -0.00520616 -0.007081217 -0.021719635 -0.00061543635 -0.020052537
0.008077235 0.0032642006 -0.021258995 0.01117207 -0.022529973 0.009519847 0.0037144173 0.010551132
-0.021797998 -0.0008055872 -0.0018218592 0.006694601 0.009878891 -0.005997261 -0.009691757 0.0058738836
-0.004148647 -0.013490993 0.013346078 0.004814841 0.02127291 0.005392716 -0.006861661 0.0051283934
-0.007289445 0.02183802 0.02061995 0.020444429 -0.027038472 0.0025697635 0.008072857 -0.025322909
-0.0072642155 0.000113035836 -0.012167825 0.004728409 -0.019326616 -0.004507543 0.0134737585 -0.02779835
-0.03330586 -0.024839355 0.0054278285 -0.010295585 0.006231748 0.019456035 -0.019942416 0.011882554
-0.017942537 -0.0046518994 -0.015891343 -0.0054329624 0.0084674135 0.018499667 0.021461677 0.004510525
0.004756751 -0.002077508 -0.024386907 -0.016441265 0.0009748494 -0.010803353 -0.03278687 0.004547242
-0.002085573 -0.015102871 -0.011484165 -0.023650166 -0.0430601 -0.017692648 -0.04093242 -0.03771277
-0.0219148 -0.037991628 -0.022655338 -0.017188033 0.0011558232 -0.020411836 0.004342503 -0.027136521
-0.031748947 -0.036695752 -0.011264943 -0.008366664 -0.03394759 -0.03436799 0.0027549013 0.019437702
0.0071962476 -0.006119669 -0.025905892 0.013137458 -0.022578184 -0.01996486 -0.004039742 -0.031251665
0.0019253027 0.014402332 0.015732868 0.008086983 -0.02033219 0.0010612046 -0.004804959 0.021137808
-0.028249685 -0.010742575 -0.025318695 0.007340767 0.015212054 0.0071628774 0.0023513194 0.0051708105
0.008261584 0.011679122 -0.020975433 -0.0150670465 -0.017282262 -0.0034473187 0.011683796 -0.027967663
0.011102012 -0.005352311 0.023935648 0.014451835 -0.0068903016 -0.018265478 -0.00837103 0.011973248
0.013657936 0.012569736 0.004105264 0.017303215 -0.02144322 -0.0133269 -0.0044325646 -0.016237687
-0.023119418 0.00050480955 -0.009611314 0.011728231 0.0051340596 -0.0033054813 0.00046018913 -0.017729534
-0.0011350209 -0.013150023 -0.00738561 0.021539342 -0.013646238 0.004106332 -0.009584752 0.0010387148
-0.015131604 -0.0025720114 -0.0040573278 -0.0127582 0.0016137782 -0.012110217 -0.0003814102 0.007907626
-0.0063827005 0.011503745 0.0062366957 0.008145608 -0.008781253 0.010100015 0.00047015358 -0.011511383

fc.1.bias f4 [64]
00000000: c80c 4a3c 6504 103e 272c 0abd 0280 fa3b
00000010: 0d65 f23e c79e 803e 9dfe 17bd 99f7 68bc
00000020: f25e 633c 06cf dd3e 416a e33e 1d77 873e
00000030: 15d7 2d3d 77e4 a63d 5cf1 1d3e 914e 2d3f
00000040: 8ca6 14b9 391a 4a3a f067 39bd f7a5 debc
00000050: 9b83 9239 e4d5 2b3b e7c3 c8bc b8e2 833e
00000060: 7d78 e03b f984 b5bc 2e3f eebc 810b 323d
00000070: a80d 1a3e ae9a 183e 22d9 1c3b d85b e7bc
00000080: e6af 053d 8477 ff3e d7ae 28bc 3503 a33e
00000090: 1c28 8cbc 706f 0c3f 6be8 2f3d a4bc e03c
000000a0: 6435 efbc 8e7f 663e f408 53ba 7509 503e
000000b0: a1ad 803d fdab e63a cc4a 903d 651d fe3c
000000c0: 1968 adbc 33d2 0e3d d9d0 f43c 60db 61ba
000000d0: b65d a23e 6b5b af3e 00b6 0abb e720 3d3c
000000e0: 7343 95bc 2b67 26bd f518 4ebd 5a6b d23e
000000f0: b0ab b3bb 01b6 b8bc b01c 553e 415c 823e
0.012332149 0.14064176 -0.033733513 0.0076446543 0.4734272 0.25121137 -0.037108053 -0.014219188
0.013877617 0.4332201 0.44417003 0.26458064 0.042441446 0.08149045 0.15424103 0.6769801
-0.00014176423 0.0007709596 -0.04526514 -0.027178748 0.00027945344 0.0026220018 -0.024507476 0.2575891
0.006850301 -0.022158133 -0.02908286 0.043468002 0.15044272 0.14902756 0.0023933132 -0.028242037
0.032638453 0.4989587 -0.010295591 0.31838384 -0.01710897 0.5485754 0.04294626 0.0274337
-0.029200263 0.22509596 -0.00080503454 0.20316108 0.06283117 0.0017598864 0.07045516 0.031019876
-0.021167802 0.03486843 0.029884743 -0.0008615758 0.3171212 0.34249434 -0.002116561 0.011543489
-0.018220639 -0.040625732 -0.05031677 0.41097528 -0.005483113 -0.022547724 0.20811725 0.2546101

fc.3.weight f4 [4, 64]
00000000: 9b01 843c b2d8 4f3e d04c 3d3c 6212 9c3d
00000010: 8ac7 7dbe ab62 0e3e db15 bc3d fc19 bebd
00000020: 69f0 b43d 8797 083d 418a 1fbb 4605 6abf
00000030: bc2b 103e 5ba3 103d 698e c3bf d3cf cf3e
00000040: 198f 3c3d 08cf 7cbe fc9f cf3d 1e79 fe3c
00000050: bada 133e c1b5 943c 2eee 7bbd 2c03 22bf
00000060: 48da 3dbc 8405 0fbc 128f d5bd 5584 44bd
00000070: e26a 07ba 3792 403d 274a 883d eb3f 583c
00000080: f192 e33d 74f9 1cbf 05cc c7bd ee81 ab3d
00000090: 204c 293d 5ef0 4bbe 1747 a2bd 4d03 963d
000000a0: c20e 1f3d 8372 6ebd ed25 2bbd ccf9 ed3d
000000b0: 1537 1ebe 15ad cebe 65e4 8f3e 1a2c d93d
000000c0: ef90 2b3d 793a 4b3e bb0f 913e 8d80 35bd
000000d0: 28a5 94bf ed9b 02bd c8aa ddbc 2f46 2c3e
000000e0: 250a e4bc 9f88 7e3d a099 aabd c35d 6cbd
000000f0: 23a0 cd3c b8b7 84bd ba34 093e 3a93 b63d
00000100: 2d25 2abc 4026 ffbe 2175 da3d 3c1c a9bd
00000110: 5b91 30bf 291e 443e 0224 4fbd 25c9 903c
00000120: bdba 12bd eee4 953c 8019 85bf fa95 50bd
00000130: 2ee5 5d3e 2956 91bf 33e8 823d afc8 aa3e
00000140: b26f 80bc 66c9 0abe d746 dc3c f8cc 603d
00000150: cb75 a83d c0da 923d 61dc fe3d eb20 b7b9
00000160: d85e 1f3d c85a aebd 7094 a93d 6b05 cbbc
00000170: 1ab2 abbf 191f 58be 5bae d23d 34b8 bcbd
00000180: e152 223d c3f3 ba3b 3401 ea3c 9b51 57bd
00000190: f76a 54bd b274 b6bd 2d5d 153e ef85 b83d
000001a0: f9d9 debd bee0 13bd 72a3 fa3a 2091 903d
000001b0: 443b 423e 0dcc dcbe b994 2ebf 2a94 ecbd
000001c0: 064a 6ebd a429 933e e9ae 693e 60c4 7fbd
000001d0: 3ef4 123d 4404 eebd 12a3 a8bd 96ff 3cbb
000001e0: cb4a c4bc 7001 d6bb 0f53 58bd 187c 603d
000001f0: 111a 1f3d beda d63d 1a47 0d3e ee46 153d
00000200: 81e1 c7bc d7ac 87be ba50 823d 8823 9f3d
00000210: d66b e0be 1b8c d43e 6bc2 af3d c773 353c
00000220: 6c7b e93d 8b7b 33bf 9b69 933b 925b ae3d
00000230: 539b 8e3e 71ae a53d fa6a 203d 33b7 963e
00000240: 7e6a 673d f6e6 dbbd 50d3 af3d 3404 c83d
00000250: e64e 94bd d9f2 3b3c 0f36 8c3d 33cf d13d
00000260: a6ed 863d be73 6b3c 4b2b d63c 6598 2040
00000270: 6d61 e1bb 877e ff3d 63f2 c73d 866e a9bd
00000280: c0d2 a6bd 1f38 953b 8fd2 3d3d 701e a9bf
00000290: 7680 72bd b1d2 d8bd 8fc0 0d3e c879 8abf
000002a0: f07e c43d 874d 96bd 3002 223d 2b98 f73d
000002b0: 73f7 813d 2ad3 773e 1a7b a33e 0e08 153e
000002c0: 8f18 18bc 9762 cabe e283 383e 88f4 3f3d
000002d0: 7f14 66bd 5046 d5bd 481b b8bc a6c3 a13d
000002e0: a759 c1bd bff0 b83d 83b4 363d c7fb a1bf
000002f0: 8e60 453d 44d3 473c bca1 343e 9243 8fbe
00000300: bcb1 1dbc 56c6 babc 650c 21bd ea2c 5cbd
00000310: a54c 5d3d 4e42 c23d cbe7 1cbd e268 9d3d
00000320: e615 a7bd bdb7 02be 8b98 413c d79f bcbd
00000330: 526c 503b 5ea5 c43d 25fa 8f3d 79e2 b23e
00000340: 4ab4 43bd d673 9bbe fffc 7c3b 5acd e1bd
00000350: d5c6 01be 1cf3 75bd 14da 9abd 058d cdbe
00000360: 329d 143d 88b7 ecbc 0532 4fbd b567 ebbc
00000370: d8dd d5bc c5a9 4c3e 914d d9bd 9eeb ea3d
00000380: d395 4f3e 1e18 c2bc 41dc 3f3c bb3d 0dbd
00000390: 2d74 99bd 5569 2abf 1568 893d 9f6c e73d
000003a0: 3066 7cbd ffa8 bbbf 3621 a33d 87a3 e9bf
000003b0: 1e80 4b3e 4b5e a23e bb82 863e 1dff e2bd
000003c0: 8fda f53d 140e a63e ecbe 18bf 0b7b 9abc
000003d0: 9238 a73d 2360 7fbf a4df f43c c8fb b5bc
000003e0: 0235 dcbd ee80 df3d ea63 a63b c75f 993c
000003f0: 7550 df3d 0467 1bbd fc08 a9bf bad2 3c3d
0.016114047 0.20297506 0.011553958 0.07620694 -0.2478315 0.13904826 0.09183856 -0.092823
0.08834917 0.033347633 -0.002434388 -0.91414297 0.14079183 0.035312038 -1.5277835 0.40588245
0.046034906 -0.24688351 0.101379365 0.031063613 0.14438906 0.018153073 -0.061506443 -0.6328609
-0.011587687 -0.008729342 -0.10427679 -0.047977764 -0.0005165768 0.04701444 0.066547684 0.013198833
0.11112011 -0.61318135 -0.097557105 0.083743915 0.041332364 -0.19915912 -0.079237156 0.07324848
0.038832434 -0.058214676 -0.041784216 0.116199106 -0.154507 -0.40366426 0.2810394 0.10604115
0.041886266 0.19846524 0.28332314 -0.04431205 -1.1612902 -0.031886984 -0.027058974 0.16823648
-0.027836869 0.06214201 -0.08330083 -0.057706606 0.025100773 -0.06480354 0.1339902 0.089148
-0.01038484 -0.4983387 0.10666872 -0.082573384 -0.68971795 0.1915213 -0.05057145 0.017674038
-0.03582262 0.018297639 -1.0398407 -0.05092428 0.21669456 -1.1354419 0.06391945 0.33356234
-0.01567826 -0.1355339 0.026889248 0.054882973 0.08225592 0.071706295 0.12444378 -0.00034929006
0.03890881 -0.08513409 0.08280265 -0.024782857 -1.3413727 -0.21105613 0.10287162 -0.092148215
0.03962982 0.005705328 0.028565027 -0.05256806 -0.051859822 -0.089089766 0.14586325 0.09009921
-0.10881419 -0.036103003 0.0019122197 0.070589304 0.1896792 -0.43124428 -0.6819568 -0.115516976
-0.058176063 0.28742707 0.22820629 -0.062443137 0.03587746 -0.11621907 -0.08234228 -0.0028838865
-0.023961445 -0.006530933 -0.052813586 0.054805845 0.03884322 0.104909405 0.13796654 0.036444597
-0.02439952 -0.26499054 0.063630536 0.07770449 -0.43832272 0.41513142 0.08582004 0.011074967
0.11400494 -0.70110387 0.004498673 0.085135594 0.27852878 0.08089913 0.03916452 0.29436645
0.056498043 -0.10737412 0.085852265 0.09766427 -0.07241611 0.011471474 0.06846248 0.10244598
0.065882966 0.014370857 0.02614369 2.5093014 -0.006878069 0.12475305 0.097630285 -0.08273034
-0.08145666 0.0045538093 0.046343382 -1.3212414 -0.05920454 -0.10587061 0.13842987 -1.0818415
0.09594524 -0.07339006 0.039552867 0.120895706 0.06346025 0.24201646 0.31929857 0.14553854
-0.009283199 -0.39528343 0.1801906 0.046864063 -0.05617189 -0.10413802 -0.022473946 0.07898645
-0.09440928 0.09030294 0.044605743 -1.2654961 0.048187785 0.012196366 0.17639822 -0.2798124
-0.009624895 -0.022799652 -0.03931846 -0.05375377 0.054028172 0.09485303 -0.038306993 0.076860204
-0.08158474 -0.12765403 0.011816154 -0.092101745 0.0031802845 0.09601854 0.07030133 0.3493841
-0.04777936 -0.30361813 0.0038602946 -0.11025496 -0.12673505 -0.0600463 -0.07561126 -0.40146652
0.036282726 -0.028896108 -0.05058481 -0.028735975 -0.02610676 0.19986637 -0.10610498 0.11470722
0.20271997 -0.02369314 0.0117102275 -0.0344827 -0.07492862 -0.66566974 0.06709305 0.11300015
-0.06162089 -1.4660949 0.07965319 -1.825303 0.19873092 0.31712565 0.26271614 -0.11083815
0.12004577 0.32432616 -0.59666324 -0.0188575 0.08165087 -0.9975607 0.029891796 -0.022214785
-0.10752298 0.10913263 0.0050778287 0.018722428 0.10904018 -0.03794004 -1.3205867 0.046099402

fc.3.bias f4 [4]
00000000: d09f ef3e 390b f73e 7098 f83e f5b3 f73e
0.46801615 0.4825075 0.485538 0.48379484
