models/v17.1/model_113500.pt (torch, 729854 bytes, 10 tensors)

conv.0.weight f4 [16, 2, 3, 3]
00000000: fca3 4c3e 0f19 ce3c a20c a4bd 3ab1 173c
00000010: e963 35bd 9b3d 29bb 8293 efbc 7a1c 47bd
00000020: 0fa5 e23d c997 4bbe 80f3 a43d 1258 9b3d
00000030: f3ee bf3c ed3e 25bd e668 bd3d bf14 493d
00000040: b21f c53d 8555 97bd edf8 f63d 5315 733e
00000050: 0cf3 22bd 1163 d7bd 68fd 4dbe e561 1d3e
00000060: a6a2 43be 630b a8be dac1 0bbe 2089 4abd
00000070: 52f4 febc cfa0 8fba 10e2 c43d a6b4 66be
00000080: e027 523d 0083 763e 8ed8 dc3d 0ae2 1e3e
00000090: a5d8 993d 7e50 9e3e 77ea 7ebb 8c02 09bd
000000a0: 404e ee3d ca4d 9d3e da25 583e 1f95 d93e
000000b0: 3fd8 7d3d 3972 bcbd 2b88 90be 568f 493c
000000c0: 8b61 143d d4a6 27bd 4225 a4be 7406 3ebe
000000d0: eecf dfbe c9fc 53bd c36e 203d cda4 59bb
000000e0: 9253 813d b2c3 26bd a6d0 1e3d 595f a8bf
000000f0: 371d 2e3c fdd9 7dbd fca0 d23c 7618 3ebd
00000100: 0e1a a03a 8fa1 82bd 3428 293d 6130 3cbd
00000110: a408 733d 40b8 44bc 1c02 8a3d 4c5a cfbc
00000120: 8d16 e53c eb8e bfbd bd6a 0bbe a98b 96bd
00000130: 7df6 0dbe 33a4 143f 4624 033b 3799 953c
00000140: 25bb 10be 2787 16bd aa7c a33d 37c3 003e
00000150: bb11 a43d df5b e13d e615 923e 5740 8ebc
00000160: e903 5ebc 1269 c13d 38bf 793d eb5b 4cbd
00000170: 2e3f ed3e 6939 27bd 57c7 09bf f872 3ebc
00000180: 665b b93c 73d6 41be 1c0e dbbd 6abd a7bd
00000190: f694 313d 8def a5bc 1c14 6f3d 5263 a4bb
000001a0: 5268 55bb d54a 08bd eb6d 013e 2807 b13d
000001b0: c0e7 b9be bcaf e2be 57b6 67bc afd9 543c
000001c0: eb77 043d f2d9 39bf f629 b0be 7335 e0be
000001d0: eff4 88bd 3b7b 5f3e 44a6 533e 96a0 b63c
000001e0: 68a5 3fbc 1cdf c03b b228 b53e 38c8 743e
000001f0: c791 683e ae05 443d 37c0 0abf 34d6 08bf
00000200: f31b 423d 598d b1bd b9a4 b43d bcbf 1a3e
00000210: 91e1 4fbf 3e4a 8ebd fe29 4ebd 8827 773e
00000220: 40a6 7d3e 4cb3 a9bd d8f7 873c 5f45 31bd
00000230: 59d3 ee3d d84c 543e 1968 883d ac25 063d
00000240: 0bdc 993d 950d 953d b4c6 053d f9c5 a53d
00000250: 4e66 533e ba8b acbc 95ec 3dbe ff04 c9be
00000260: 399b bdbe e780 dbbd 95b1 e13d 17bd d33a
00000270: 2684 f53c ebfc 0b3d 4ed0 143e edbb e7bd
00000280: 098e bc3d f74a 86bc 8a1e 35bb 9fd5 82bd
00000290: c724 983d f266 e33c 7972 0fbd 5bb2 1c3f
000002a0: b77b 9bbc 221a 25be 6630 9bbd 0bcd bf3b
000002b0: 15ad 4a3d db3a 9abd ae45 8bbc a555 623d
000002c0: b00a 2bbf 1ec3 0e3c 364d 193e 122c 823d
000002d0: f8c0 f63c 6f71 c33b 54a3 853a 07c9 9abd
000002e0: afd1 0d3f ba4f c9bd 7901 9c3c 8cd8 94bd
000002f0: 6ed0 3b3d f221 88bc d7c0 5a3c d3c0 c2bb
00000300: c35e d93d c0d5 bf3e 53ef 963d 756e da3b
00000310: 4cf6 903d 2ac0 58bd f31e b9bc 57a4 513d
00000320: e45c b2bd 99dd c43b 59b2 4a3f ba31 f43c
00000330: bc4c c2bd 727c 973c ef64 e3bd 65da bf3c
00000340: 25d7 89bd 3ead a13d e824 04bd 1b49 a5bd
00000350: 4b25 46bd a1ed dd3d 59c2 5cbd c57f eb3d
00000360: 01ce c6bd 3a7b 52be ac9d 8fbd 27d9 fbbd
00000370: 9c2a dfbf 8c27 523d 8eb4 f0bd 15bd 2bbe
00000380: 26d3 24be 9477 fc3d ac3c 123e 8b05 a93d
00000390: e563 b63d f00c 663e 4e75 c9bd a07f 063e
000003a0: 6669 bc3d 751c 463e 3e7e 17bd 51ef a5bd
000003b0: 3d3f 85bd d416 4cbd 5ff3 b0be 31fe 5dbf
000003c0: 261a 503e 4514 d4bd 8a9d a9bd 544b 10bd
000003d0: ec83 773d 0c2b 8a3c 9127 743c 2e2f 903d
000003e0: 3bdf 8f3e 4ea2 023e 5298 0c3e 3cdd 993d
000003f0: 04a2 0fbf f4bd 09bf fc48 69bf 84e0 ffbd
0.1998443 0.025158433 -0.08010222 0.009258563 -0.044284735 -0.0025824073 -0.029245142 -0.04861114
0.11066639 -0.1988212 0.080542564 0.075851575 0.02342937 -0.040343214 0.092485234 0.04909205
0.09625186 -0.073893584 0.120591976 0.23738603 -0.03978257 -0.10516942 -0.20116198 0.15369375
-0.19105014 -0.32821187 -0.13648167 -0.04944718 -0.03112236 -0.0010957959 0.096134305 -0.2252985
0.05130756 0.2407341 0.10783492 0.15515915 0.07512025 0.30920786 -0.0038897076 -0.033449695
0.11636019 0.3072341 0.21108189 0.42496583 0.061973806 -0.09201474 -0.28228888 0.01230224
0.036225837 -0.040930584 -0.32059675 -0.18557149 -0.43713325 -0.051754747 0.03916813 -0.0033209801
0.06314768 -0.040713973 0.0387732 -1.3154098 0.010627083 -0.061975468 0.025711529 -0.046410047
0.0012214796 -0.06378471 0.041298106 -0.045944575 0.059334412 -0.012006819 0.067386836 -0.025311612
0.027964855 -0.09353431 -0.13614936 -0.07350857 -0.13863559 0.5806305 0.0020010634 0.018261535
-0.1413389 -0.036749985 0.07982762 0.12574469 0.08011194 0.11003851 0.28532332 -0.017364664
-0.013550737 0.09443869 0.060973376 -0.049892347 0.46337265 -0.040826235 -0.53819793 -0.01162409
0.02262659 -0.18929462 -0.106960505 -0.08190425 0.04335495 -0.020255828 0.058368787 -0.0050167227
-0.00325634 -0.03327449 0.12639587 0.08643943 -0.36309624 -0.442747 -0.014142594 0.012991353
0.032340925 -0.72598183 -0.34407014 -0.4379078 -0.066873424 0.21824352 0.20668894 0.02229337
-0.011697151 0.0058859717 0.3538261 0.23904502 0.2271186 0.04785698 -0.54199547 -0.5345185
0.047389936 -0.08669538 0.08820481 0.15112203 -0.8120356 -0.06947754 -0.050333016 0.24136174
0.2477045 -0.08286151 0.016597673 -0.043279048 0.11661405 0.20732439 0.0666048 0.03275077
0.07512673 0.07277981 0.0326602 0.08094401 0.20644495 -0.02106272 -0.1854728 -0.39261624
-0.37032488 -0.107179455 0.11020199 0.0016154376 0.02997024 0.03417675 0.14532587 -0.11315141
0.092067786 -0.016393168 -0.002763661 -0.06388401 0.0742889 0.02775905 -0.03502128 0.6120965
-0.01897989 -0.1612325 -0.07577591 0.0058533004 0.04948147 -0.07530757 -0.017001 0.05525746
-0.6681318 0.008713512 0.1497086 0.06356062 0.030121312 0.00596445 0.001019577 -0.07557874
0.55398077 -0.0982966 0.019043671 -0.072678655 0.04585307 -0.016617749 0.013351641 -0.0059433966
0.106137775 0.37467766 0.07369866 0.0066659995 0.070782274 -0.052917637 -0.022597766 0.051182117
-0.08709124 0.006007862 0.79178387 0.029808868 -0.09487292 0.018491957 -0.11103236 0.023419568
-0.06730489 0.078943714 -0.03226176 -0.080705844 -0.04837541 0.1083634 -0.053896282 0.114989795
-0.09707261 -0.2055482 -0.070124954 -0.12297278 -1.7434878 0.051307246 -0.11753188 -0.16771348
-0.16096172 0.12327495 0.14280957 0.0825301 0.08905772 0.22465873 -0.09836827 0.13134623
0.09199791 0.19346793 -0.03698563 -0.081022866 -0.06506202 -0.049826458 -0.34560677 -0.8671599
0.20322475 -0.103554286 -0.08282001 -0.03522809 0.060428545 0.01686623 0.0149020115 0.07040249
0.281 0.12757227 0.1372998 0.075129 -0.5610659 -0.5380547 -0.9112699 -0.12493995

conv.0.bias f4 [16]
00000000: 2a98 adbc a7b4 4ebe 5030 ecbd 7efe 173f
00000010: 2140 0fbf 78bf 80be 7e18 ae3d 886f 23be
00000020: 42f4 c0be 25e2 53bd d9b8 23bf 5ef2 cdbe
00000030: f971 a03e 5e1d 68be ca65 27bb e554 87be
-0.021190722 -0.20186101 -0.115326524 0.593727 -0.5595723 -0.2514608 0.08500765 -0.15960515
-0.37686354 -0.05172934 -0.6395393 -0.40223974 0.31336954 -0.22667453 -0.0025542849 -0.26431957

conv.2.weight f4 [32, 16, 3, 3]
00000000: e48d 6abd c966 663c 77e5 08bd 5be8 b1bc
00000010: da3b 87bd 908c 7dbc 3e71 b13d 8948 9ebc
00000020: eb36 c4bd bdba 983d 45d4 d13d 6492 ad3d
00000030: 7857 103e e96c de3d 7e92 fc3c ac40 483d
00000040: 14ee 20bd 6d16 2ebd f1ba 333e e5f9 0bbd
00000050: 5ec1 57bd ff2e 03bd 40c6 c5bb 2674 67be
00000060: 6b4e fabd 672f 79be 3fdc 3cbe f969 5c3c
00000070: 73e9 1cbd c4a1 04be d24d 373c ee8c 87bd
00000080: e23e 95bd bce8 573d e113 eabd a0c1 b3be
00000090: c7c7 9b3d 2833 f23d 5f79 8ebe 70c7 12be
000000a0: 8e95 25be a641 abbe aa7e eb3d b793 f7bd
000000b0: 3086 32be c7bd 413d 2570 d93c 4ac8 b5bd
000000c0: 10b1 293e f16c c13d 77e5 83be 4438 a33d
000000d0: 6cb3 8f3d f1ce 02be 0f4b 353d 0d7c 3f3e
000000e0: 875f 5e3c 9af6 1e3e 8065 3f3d d1a7 34bd
000000f0: aab1 8a3d 53f6 ab3c 86ed 34be b99f 45be
00000100: 9453 18bd d804 983c 860e 89bd 586d 8cbc
00000110: 73e1 2abd ec03 a1bd c9dd a5bd 522b 07be
00000120: 99ab bf3d 93da 873d 7f4d 283d fab0 91bd
00000130: 76ff 173e 6460 04be fd2d ca3d b4f8 42bd
00000140: 3574 1ebe 7acc c43d 165b 71be 8768 1b3d
00000150: e72c de3d 5f59 1dbe d55a 21bd 3e46 2dbe
00000160: 8800 6abe 2c88 c13c 3c44 4a3d 5490 303b
00000170: 2ff2 fabd 58a9 e5bc a9f3 de39 833a 17be
00000180: 0dc3 9bbd a73b fdbc eace 92bd ce0d 123c
00000190: 656c 85bb f7f6 8cbd 4de1 16be caee 52be
000001a0: b4dd 11be e50d 00be 23e3 0dbe 4713 c43b
000001b0: 4d9a 923c bc75 2e3d 73aa f03c f574 05be
000001c0: ea1b a3bb 27ff cb3c 09cf 09be ef88 19be
000001d0: 73e3 e6bc 5d77 b6bb 1d24 5e3c 6e21 523d
000001e0: cfd4 853d ce13 993c d10f b4bc 801f 15bd
000001f0: 30c4 2ebd 0b8d aa3c 73e7 bd3c 8c1a 503b
00000200: 6158 e9bb 925c 02bd 603f 34be cc00 c2bd
00000210: 44d3 06bd 7d87 2cbd 6b73 b23d 0b6e 06be
00000220: 81da 5abc 383e b5bd 68d0 d0bd 0540 da3d
00000230: b6f4 243c cf0e b5bd 1785 1abe 7881 8fbd
00000240: 6521 893e 90f3 82bd e913 4d3e 4419 903d
00000250: b3ac 293e 7e48 023d d552 443d 555c 623d
00000260: d99e 68bd 5a0e 553d 3ce2 1dbb 6473 853e
00000270: c25c 52be eb3f 323e 23b1 c93d 6126 033e
00000280: 2bb6 29be 794d 3e3d b024 1dbe 1d53 713e
00000290: f648 573e 1acb 593e a805 87be 8559 e0bd
000002a0: 1068 863e 82e0 babc 0609 763d c9a3 04c0
000002b0: a364 763d 0f5d bcbd 5245 48bd c6a3 453c
000002c0: 6bc1 9c3c 3cd4 78bc d646 bfbc 3040 75bc
000002d0: b9f4 87bf 72b3 cc3e 4545 47bd a09b 2fbc
000002e0: 3c20 8b3d bee1 e03d df3d 7d3b 7c7e 0fbd
000002f0: 70a7 0cbd 0b4a 82be f604 0cbf 0e09 a7bd
00000300: efe3 b1be b420 963c 320a 6abe f99e 15be
00000310: a63f 12bb 28f2 653c 40ee 103d b0ef 83be
00000320: df80 1dbe d258 313d 3506 05be 7060 01be
00000330: 7d90 b63d f43b 19bc 3f81 d4bc 2ce8 073e
00000340: e502 54bd 704b 96bd 046d d53d 75a3 55bd
00000350: 7430 29be 420b 9c3e 2915 afbc af40 863d
00000360: bcd3 0b3e 10e7 d9bd ad70 db3d 03a4 8c3d
00000370: 1e33 913e 1c64 07bd 1479 173e 827a ff3d
00000380: 8ed6 dcbd 9766 193e c269 d8be bdb2 e1bd
00000390: 9bc1 703c c65e c3bd bb4a 04be 7bc4 e73e
000003a0: 4dfc 36bd ac5b 3abe 4f96 6dbd 70b5 0abf
000003b0: 682b dd3e 2bd3 b53d 1fc9 0ebe cbea a7bc
000003c0: 1fc3 41bb b5bc 70bd eb32 29bc 7c4c 293e
000003d0: 7b08 1fbf 05b7 583e c168 e03d 3c0e c0bd
000003e0: af96 94bd d8ea dbbc 1430 3ebc 452f ab3c
000003f0: 9a28 8e3d ac1c 94bf c829 1cbf fb1d 713e
-0.057264224 0.014062592 -0.03342196 -0.021717241 -0.06603213 -0.015475407 0.08664177 -0.019321697
-0.09580787 0.074574925 0.10245565 0.084751874 0.14095867 0.10860617 0.030831572 0.0488898
-0.03928955 -0.042501856 0.17551781 -0.034173865 -0.052674644 -0.03202724 -0.006035596 -0.22602901
-0.12221988 -0.24334489 -0.18443392 0.013453 -0.038308572 -0.12952334 0.011187987 -0.06618677
-0.072873846 0.052712187 -0.11429573 -0.35108662 0.07606464 0.118261635 -0.27826974 -0.14333892
-0.16170332 -0.33448523 0.11498769 -0.12088721 -0.17434001 0.047300126 0.026542732 -0.08876093
0.1657145 0.09444607 -0.25761005 0.07969716 0.07016644 -0.12774254 0.044261035 0.18699665
0.01357258 0.15523759 0.046727657 -0.044105355 0.06772168 0.02099148 -0.17668733 -0.1929921
-0.03718908 0.018556997 -0.06692223 -0.017141983 -0.04171891 -0.07862076 -0.08098943 -0.13200119
0.093589015 0.066334866 0.04108953 -0.07113834 0.14843544 -0.12927395 0.09872053 -0.047600463
-0.15474017 0.09609313 -0.23569903 0.037941482 0.10848408 -0.15366124 -0.039393265 -0.16921327
-0.22851765 0.023624502 0.04938148 0.0026941495 -0.12253224 -0.028034851 0.0004252468 -0.14768414
-0.07605562 -0.030912234 -0.07168372 0.008914424 -0.0040717595 -0.06883042 -0.14734383 -0.20598903
-0.1424473 -0.125053 -0.13856177 0.0059837434 0.017895842 0.04259275 0.029378152 -0.13032897
-0.004977693 0.02490194 -0.13457884 -0.14993642 -0.028184628 -0.0055684284 0.013558415 0.051301412
0.06534731 0.018686201 -0.021980198 -0.036406994 -0.042667568 0.020819208 0.023181653 0.0031754104
-0.0071211313 -0.031826563 -0.176023 -0.09472808 -0.032916322 -0.0421214 0.087134205 -0.13127916
-0.013357759 -0.08849758 -0.10196 0.10656742 0.010068109 -0.08840715 -0.15089832 -0.07007116
0.2678329 -0.06394112 0.20027126 0.07036069 0.16569786 0.031807415 0.047930557 0.055263836
-0.056792114 0.05201564 -0.0024091145 0.260646 -0.20543197 0.17407195 0.09848239 0.12807609
-0.16573398 0.046460602 -0.15346026 0.23566861 0.21023926 0.21268883 -0.26371503 -0.109545745
0.26251268 -0.022812132 0.0600672 -2.0724967 0.06015457 -0.09197437 -0.048894234 0.012062972
0.019135198 -0.015187319 -0.023349207 -0.014968917 -1.0621558 0.39980656 -0.048650045 -0.010718256
0.067932576 0.10980557 0.0038641614 -0.035032734 -0.03433937 -0.25447115 -0.5469507 -0.08156024
-0.34744212 0.018326141 -0.22855452 -0.14611425 -0.002231577 0.014034785 0.035383463 -0.25768805
-0.15381192 0.043297596 -0.12990649 -0.12634444 0.08914278 -0.009352673 -0.025940536 0.1327216
-0.051760573 -0.07338607 0.10421184 -0.052157838 -0.1652239 0.3047734 -0.021372395 0.06555306
0.13654989 -0.10639775 0.107148506 0.0686722 0.28359312 -0.033054456 0.14792281 0.124745384
-0.107831106 0.14980541 -0.42268187 -0.1102042 0.014694597 -0.09539561 -0.12919132 0.4526709
-0.044674207 -0.18199033 -0.058004674 -0.541831 0.4319718 0.08878168 -0.13943909 -0.0204977
-0.0029565764 -0.058773715 -0.010327081 0.16533083 -0.62122315 0.21163566 0.1095748 -0.09377715
-0.07255303 -0.02684538 -0.011608142 0.020896563 0.06941338 -1.157125 -0.61001253 0.23546593

conv.2.bias f4 [32]
00000000: 93cd af3c d9b4 7f3d 9bc6 76bd 2851 e43c
00000010: 8eed 943c d7ff 4abd 48cf 3e3e 42de 93bd
00000020: c86c 4cbe 02d9 9abe f416 e03d 36b7 773e
00000030: daea e2bd c46b 583d fcb7 d53d 8076 d9bd
00000040: 7724 963c 032d 3a3d a608 4d3e 33e3 dfbd
00000050: a736 cc3c 402d 37bd 71ca 73bc ad99 08be
00000060: d464 c5bd f225 8e3e add3 c13d 6073 02be
00000070: f62c 0fbd facd 1a3d 92f3 92bd 2fed ad3d
0.02146033 0.06242833 -0.060248 0.02787073 0.018179681 -0.049560394 0.18633759 -0.07220127
-0.19963372 -0.3024369 0.10941878 0.24190983 -0.11079951 0.05283715 0.10435483 -0.10618305
0.018327935 0.045453083 0.2002283 -0.10932007 0.024928404 -0.04472089 -0.014879809 -0.13339873
-0.09638372 0.27763325 0.09464202 -0.12739325 -0.034954987 0.03779409 -0.071753636 0.08492505

conv.4.weight f4 [64, 32, 6, 6]
00000000: 3a01 49bc 0ed1 6dbd 9cf2 7d3d 01fd 7bbc
00000010: a328 2b3d eedb 7fbc e268 f8bc 8286 253d
00000020: 312f ef3c 1f68 ba3c 3570 88bc c6f4 1f3d
00000030: 9854 a939 26bb d23c 8aed c0bc 31b2 30bd
00000040: 4e5d 01bb 990b ec3c d1e5 893c dc05 a13d
00000050: feed 753b 6593 42bd e935 44bd 1343 a33d
00000060: 18db f23c fbd7 433b 5f2e 58bd ee44 123d
00000070: 029e f1ba be70 18bb 095f 3a3c 7235 89bc
00000080: abb2 05bd a084 8d3b d126 27bd 8385 b3bb
00000090: 9096 88bd 9ebb 95be 26b8 973d 1f9c 59be
000000a0: 328a debe c351 81be 9442 063c 5943 7cbb
000000b0: b072 71bd e560 93be 00fd 8fbe 89d1 5c3e
000000c0: 35ec bdbe ff46 033e 1447 14bd 24e2 4f3d
000000d0: bb84 6a3d 9818 f73d b6df 5d3d d6e3 a7bd
000000e0: fc35 373d 8156 a3bd 06a8 debc aaee aa3d
000000f0: 3311 dabc 862c 96ba d596 02bc 718c af3c
00000100: d1fe 75bd 230e bf3d 5a41 8abe ab7c be3d
00000110: 9ae7 313e 43ef 693d 183d ef3d 2e76 ffbe
00000120: 32b5 28bc 4b04 21bd d4ab bbbc e775 46bd
00000130: f722 7d3c 71c6 cbbc 5e1c 09bc 45a1 a13b
00000140: 0b02 dcba 3152 743c 1f8b de3c 7b0e 7c3c
00000150: 9b34 273c 9fe3 11bc 58e3 e4bc 90cf c43c
00000160: 50be 9e3c 746f b5bb b87d b3bc 85d4 c93c
00000170: a669 abbc 0e97 823c 2a68 09bd 46d7 17bc
00000180: 2483 09bb b28f 193d c08d 153b 989e b73c
00000190: 583d 1fbc 78b6 f93c f513 e43c 9e44 073d
000001a0: c3a9 2d3d 8656 323c 33b1 94bb 5d81 703b
000001b0: 37b4 96bd 8ca4 883d 9349 eabc 8db9 9abe
000001c0: 6682 d2be feda 313e aafe 9c3a 4b6c 843e
000001d0: 317d 753d d727 0ebd 25d4 913e 4129 a0be
000001e0: e30e 6e3e 5509 8b3e 271f 5b3e f995 af3d
000001f0: 0fe2 713e 6c2b 833e 9c1a 6f3e 9c85 a33e
00000200: a091 4f3e 3cfe 153d e622 973e a22d 9f3e
00000210: 9528 8ebc 2630 a73e 36a8 943e df3d 683e
00000220: e7ee b03e 934b 00bf 14cd 62bb f311 9abe
00000230: 32f4 dabe 092a 01be e6f9 6f3e b4b4 97be
00000240: dc8c 11bd 5525 71be 12fe dbbd 9ab4 343d
00000250: c302 253e 1eb5 963c 5fa9 733e e0c2 813e
00000260: 77f2 b6be 634a 8dbe 7c00 d1be f018 06be
00000270: 813e 11be 7ac1 723d 7ec7 a3be b2e5 d5bd
00000280: c080 103e bd1f d0be c86d 0a3e 0567 adbd
00000290: 066a 65be dfb9 19be c467 91be 3a8b 91bd
000002a0: 6fd3 6d3e 185b e6bd 50f7 2cbd 6124 64bd
000002b0: 33ef 103c 5d8d 283e 6218 263d 15cb 403d
000002c0: f149 233c 0592 6dbd f00e 2b3c d5b4 ecbe
000002d0: 33fb 3e3e fb95 b53d c664 8a3d 29f3 393d
000002e0: 0cea a3bd a1e0 babc a851 483e 895a 7b3d
000002f0: 6001 223e eab1 7e3d 795e c43b 74ed c43d
00000300: 94f7 973e 7f9a 1c3a 3d0f 293e 29e3 413e
00000310: f8d2 563d c3c8 193d dfb4 7e3e 541d ce3d
00000320: 580d 7d3e 2210 4c3e de19 713d a58b 17bd
00000330: dfa6 44bd 9b8e 1c3e 1ebc 3f3e e985 913d
00000340: 3931 4c3d fe9a 36bd d9ca abbd b0b2 6c3d
00000350: 6ec6 bd3d 980e 823d 71a1 b03d a622 713d
00000360: d621 3abd d225 343a af7f 513e b116 b93d
00000370: 0abc 863d 2229 89bc 7b7e 403e 7fd2 ff3d
00000380: 633a ea3d 4140 113e 6bbe 653d 89b7 b33b
00000390: 7288 683e a0b3 edbc 3ab5 023e 6b2e e93d
000003a0: 9a6c d03d fced 7e3d 82ed 033d 36f6 01bd
000003b0: 2a4c cd3d 5bbb 2a3e 41f2 313e cc27 fe3b
000003c0: bb64 db3d 1f63 ff3d 7397 1f3d e054 423e
000003d0: 6ada c73d e822 ad3c 1cf2 04bd 5c59 19be
000003e0: 47f6 a93c 66d0 433e 1196 e1bc 6143 27be
000003f0: 5c49 843c 73f0 8a3c d6d8 67bc b474 ba3c
-0.012268359 -0.0580607 0.06199895 -0.015380145 0.0417868 -0.0156164 -0.03032345 0.04041148
0.029197307 0.022754727 -0.016655067 0.039051794 0.0003229722 0.025724005 -0.023550767 -0.043138687
-0.0019739452 0.028814124 0.016833218 0.07862446 0.0037525888 -0.047503848 -0.047902975 0.07971778
0.029645488 0.0029883373 -0.052778598 0.035710268 -0.0018433931 -0.002326056 0.011375197 -0.016749118
-0.032641094 0.0043187886 -0.040808503 -0.0054785623 -0.066693425 -0.29244703 0.074081704 -0.21250962
-0.4346481 -0.25257692 0.008194584 -0.003849229 -0.058947265 -0.28784862 -0.2812271 0.21564306
-0.37094274 0.12820052 -0.036200598 0.050752774 0.057255488 0.12065238 0.054168426 -0.08197753
0.044729218 -0.07975484 -0.02717973 0.08346303 -0.02661953 -0.0011457361 -0.0079705315 0.021429272
-0.060057465 0.09328868 -0.27002984 0.09301122 0.17373505 0.057112943 0.116815746 -0.4989485
-0.010297107 -0.039310735 -0.022909082 -0.048452284 0.015450231 -0.024874898 -0.00836858 0.004932555
-0.0016785277 0.014912174 0.027165947 0.015384312 0.010205413 -0.008904367 -0.027940437 0.024024755
0.019377857 -0.005536968 -0.021910533 0.02463747 -0.0209244 0.01594117 -0.033546604 -0.009267634
-0.0020982707 0.037490554 0.0022820085 0.02241449 -0.009719215 0.030482516 0.027841548 0.033024423
0.042398226 0.010884887 -0.0045377254 0.00366982 -0.07358592 0.0667201 -0.028599536 -0.3021969
-0.4111511 0.17368695 0.0011977751 0.2586387 0.059933845 -0.034705963 0.28482166 -0.31281474
0.23247866 0.27155557 0.21398602 0.08573527 0.23621391 0.25619066 0.23349994 0.31937873
0.20270395 0.03661941 0.29518813 0.31089503 -0.017353335 0.32653922 0.29034585 0.22679852
0.34557268 -0.5011532 -0.00346071 -0.3009182 -0.4276443 -0.12613691 0.23435172 -0.29630053
-0.035534725 -0.23549397 -0.107418194 0.044117548 0.16114335 0.01839691 0.23795079 0.2534399
-0.3573186 -0.27595815 -0.40820682 -0.1309545 -0.14184 0.059266545 -0.31988138 -0.104442015
0.14111614 -0.40649214 0.1351844 -0.08466915 -0.22403726 -0.1501231 -0.2839948 -0.071066335
0.23225187 -0.112478435 -0.042228043 -0.055698756 0.008846092 0.16460176 0.040550597 0.047068674
0.0099663595 -0.058000583 0.010440573 -0.46231714 0.18650512 0.08866497 0.06757502 0.04539791
-0.08003625 -0.02281219 0.195624 0.061365638 0.15820837 0.06218139 0.0059927073 0.09615603
0.29681075 0.00059739494 0.16509719 0.18934311 0.05244729 0.037544977 0.24873684 0.10064188
0.24712121 0.19928029 0.05886256 -0.03699841 -0.048010703 0.15288775 0.18724105 0.071056195
0.04985163 -0.044581406 -0.083882995 0.057787597 0.09266363 0.0635044 0.086245425 0.058870934
-0.045442425 0.0006872091 0.20458864 0.09037531 0.06578834 -0.016743246 0.18798248 0.12491321
0.11436918 0.14184667 0.0560898 0.0054845256 0.227083 -0.029016316 0.12764445 0.11385807
0.10176964 0.06223868 0.032208927 -0.031728946 0.10024293 0.16673033 0.17377569 0.007756209
0.10712572 0.12470078 0.038962793 0.1897769 0.09758456 0.021134809 -0.032457456 -0.14975494
0.020747317 0.19122466 -0.027537378 -0.16334297 0.016148262 0.016960358 -0.014150819 0.022760727

conv.4.bias f4 [64]
00000000: fe37 2cbe 3bf0 0a3b ed0d 91be 552e 41be
00000010: 089f 6dbd 50ec 62be 72a0 9fbd 9c15 09be
00000020: 2cca 78be c110 32bd 7e8c f8bd 67b8 77bd
00000030: c467 3dbd d2cf b3be 5206 a2be 5d8a 6fbe
00000040: fb77 2bbe 6513 243e 0b88 5cbd 8fd6 e8bd
00000050: 042c 89be 94aa f4bd 39ba d63e 1f4b 3abe
00000060: 2490 6abe e043 7fbe 61e3 92be 87b5 3dbe
00000070: 6e1d 82be ddb5 92be 8d34 92be 3ee0 303e
00000080: 0ad9 89be ef85 a63e 85b6 85bd c361 8abe
00000090: 8f93 67be 9f49 753e c855 16be de37 1abe
000000a0: e9f4 99be 5e76 c3be 0d6d 51bd 41ed 9abe
000000b0: 8891 95bd a8e3 15bc 261a 8c3e f5d6 b5be
000000c0: 9603 cfbd ce32 43be c0fb 19be 4d19 34be
000000d0: d419 ffbb eec5 92bd dac1 31be ef38 aabe
000000e0: d468 97be 9ff0 53be 483d 32be fd67 1f3e
000000f0: e117 a3be a8a1 6fbc 39a0 62be 58c8 0fbe
-0.16818234 0.0021200317 -0.28330937 -0.1886533 -0.058012992 -0.22160459 -0.077942744 -0.1338715
-0.24295872 -0.04347301 -0.12136172 -0.060478594 -0.046241537 -0.35119492 -0.31645447 -0.23392625
-0.16744988 0.16023023 -0.05384068 -0.11369049 -0.26791394 -0.11946598 0.41938952 -0.18192719
-0.22906548 -0.24928236 -0.286891 -0.18526278 -0.25413078 -0.28654376 -0.28555718 0.17273042
-0.269234 0.32524058 -0.065289535 -0.2702771 -0.22614883 0.23953865 -0.1468116 -0.15060374
-0.30069664 -0.38176244 -0.05112939 -0.30259135 -0.073031485 -0.009148516 0.273637 -0.35515562
-0.10108106 -0.19062349 -0.15037441 -0.17587776 -0.0077850614 -0.07166658 -0.17359105 -0.33246562
-0.29572165 -0.20697258 -0.1740619 0.15567012 -0.31854156 -0.014625944 -0.22131433 -0.14041269

fc.1.weight f4 [64, 1600]
00000000: 3bfb b53b beab f8ba 67ab 89bc 759e 8f3c
00000010: 5664 d73a 1a45 c6bc e919 09bc 7243 1d3c
00000020: 5029 a23c eb63 30bb cb89 b3bc 9793 993c
00000030: cce3 11bb f2bc aebc eaab 7fbc b9d5 c8bc
00000040: d379 45bc 37b6 a5bb cd5b a0bc 2ef5 cabb
00000050: 9125 8abc 40a2 29bc 50f4 3b3a e13d 57bc
00000060: 2577 02bc 96d3 b2bb bc30 8e3c c64b 433c
00000070: 5fb1 893c ae5b 223c 9fe8 ae3c e156 39bc
00000080: c2cf a83c 0475 89bc 7efd 383c 464c dc3b
00000090: f593 8ebc 8fee be3b 0163 47bc 5b7f 263c
000000a0: ff4e b0bc d1d5 f3bb 5380 b73c 0503 bfbc
000000b0: ce4f 1c3c 1b53 59bc ee76 9d3b ca3e 0ebb
000000c0: 1246 e6bb f4dc 943c 0e10 a13c 04db 9a3c
000000d0: 6c25 65bc 6e54 d23c cfc8 443b 2006 8bbc
000000e0: b9ae c2bc 78a0 33bc 8f47 ea3c 3eb8 9dbc
000000f0: 5db8 3e3c b5d7 1ebc fc0a b63c c3b0 f3bb
00000100: 1ecd 96bc a5f0 2a3c baf8 83bc be88 07bc
00000110: 800f 8bbc ab1c b2bb ae01 f23a 622e a43c
00000120: 803f f2bb fa20 f73c 4ec0 b13c 4da8 ed3b
00000130: c14d 5f3c 12bb 4d3b 3fa8 04bb bdfd 773b
00000140: 654c 3abc 966f a33c 81dd 1bbc 6f98 aabb
00000150: 8e09 e8bb 60ed b1bc 3c55 21ba 3845 a4bc
00000160: 6156 043c 33ec 553b 5827 aebc 0f0b 373c
00000170: c790 b8bc 22f9 1b3c 956d 733b a8de 2c3c
00000180: b791 b2bc 0b2e 53ba 73cb eeba 625e db3b
00000190: 12db 213c ac84 c4bb 2dca 1ebc b579 c03b
000001a0: 60f1 87bb 5309 5dbc 82a9 5a3c d0c5 9d3b
000001b0: 8744 ae3c 61b5 b03b c9d7 e0bb 150c a83b
000001c0: 4cdc eebb a6e5 b23c 2beb a83c 137b a73c
000001d0: c97f ddbc 7a69 283b 0444 043c fd71 cfbc
000001e0: a808 eebb a70d ed38 8f5b 47bc c5f0 9a3b
000001f0: da52 9ebc 03b4 93bb 0ac1 5c3c 5eb9 e3bc
00000200: ba6b 08bd e77b cbbc eddb b13b d0ae 28bc
00000210: b133 cc3b 4362 9f3c 475e a3bc 0baf 423c
00000220: 3afc 92bc f66e 98bb 902e 82bc fe06 b2bb
00000230: e8ba 0a3c 9d8c 973c 66d0 af3c 07cd 933b
00000240: 85de 9b3b cd26 08bb 0dc7 c7bc d5af 86bc
00000250: 098d 7f3a 8c00 31bc 864b 06bd 0801 953b
00000260: 1cae 08bb 0872 77bc 1428 3cbc febd c1bc
00000270: ca5f 30bd 2cf0 90bc c1a8 27bd b578 1abd
00000280: ab86 b3bc 1c9d 1bbd b097 b9bc ebcd 8cbc
00000290: fe7e 973a b936 a7bc 8e4b 8e3b 694d debc
000002a0: 2f0b 02bd 494e 16bd 9890 38bc 5514 09bc
000002b0: a10c 0bbd 73c5 0cbd 938b 343b d13b 9f3c
000002c0: 80ce eb3b 8187 c8bb 9838 d4bc 7e3e 573c
000002d0: e2f5 b8bc 598d a3bc d05f 84bb bf01 00bd
000002e0: 705a fc3a c2f7 6b3c 37e2 803c 447f 043c
000002f0: b18f a6bc 1e18 8b3a eb72 9dbb 3229 ad3c
00000300: e26b e7bc a001 30bc 2769 cfbc d18a f03b
00000310: fb3b 793c 92b6 ea3b 9818 1a3b e76f a93b
00000320: 985b 073c ca59 3f3c acd4 abbc c6db 76bc
00000330: 8893 8dbc 69ec 61bb 646d 3f3c 711c e5bc
00000340: 37e5 353c 7062 afbb b114 c43c 64c7 6c3c
00000350: 0ac8 e1bb 7ca1 95bc a526 09bc 712b 443c
00000360: 89c5 5f3c 4bf1 4d3c 7385 863b 79bf 8d3c
00000370: b1a9 afbc 1259 5abc 0c3f 91bb e604 85bc
00000380: ef64 bdbc 3255 043a c678 1dbc c427 403c
00000390: 9d3b a83b c6a0 58bb 8a45 f139 873d 91bc
000003a0: fbc4 94ba 3273 57bc fd02 f2bb 4673 b03c
000003b0: 7894 5fbc 698e 863b 5d09 1dbc 7c25 883a
000003c0: 8cea 77bc 318f 28bb 55f3 84bb c507 51bc
000003d0: 6985 d33a ee69 46bc 03f8 c7b9 fd8e 013c
000003e0: f925 d1bb 347a 3c3c 325d cc3b 2875 053c
000003f0: 3fdf 0fbc 897a 253c f27e f639 3d9a 3cbc
0.0055536306 -0.0018972082 -0.016805364 0.017531613 0.0016433101 -0.024202872 -0.008367994 0.0095986
0.01979509 -0.0026915025 -0.02191629 0.018747134 -0.0022261022 -0.02133033 -0.015604952 -0.024515973
-0.012052971 -0.005057122 -0.019575024 -0.0061937785 -0.016863616 -0.010353625 0.0007169889 -0.013137312
-0.007962977 -0.005457352 0.017357223 0.011919921 0.01680821 0.009909553 0.021351157 -0.011312217
0.02060688 -0.01677943 0.011290906 0.0067229597 -0.017404536 0.0058267782 -0.0121696 0.0101622
-0.021522043 -0.0074412604 0.022400057 -0.02331687 0.009540511 -0.013264443 0.0048054373 -0.0021704906
-0.007027396 0.018171765 0.019660976 0.018903263 -0.013985973 0.025675025 0.0030026918 -0.016970694
-0.023764955 -0.010963552 0.028598575 -0.019252893 0.011640635 -0.009694983 0.022222035 -0.007436843
-0.018408354 0.010433351 -0.016109813 -0.008272348 -0.016975164 -0.0054355464 0.0018463635 0.020041648
-0.0073928237 0.030167092 0.021698143 0.007252729 0.013629378 0.003139202 -0.0020241884 0.0037840449
-0.011370753 0.01995067 -0.00951326 -0.00520616 -0.007081217 -0.021719635 -0.00061543635 -0.020052537
0.008077235 0.0032642006 -0.021258995 0.01117207 -0.022529973 0.009519847 0.0037144173 0.010551132
-0.021797998 -0.0008055872 -0.0018218592 0.006694601 0.009878891 -0.005997261 -0.009691757 0.0058738836
-0.004148647 -0.013490993 0.013346078 0.004814841 0.02127291 0.005392716 -0.006861661 0.0051283934
-0.007289445 0.02183802 0.02061995 0.020444429 -0.027038472 0.0025697635 0.008072857 -0.025322909
-0.0072642155 0.000113035836 -0.012167825 0.004728409 -0.019326616 -0.004507543 0.0134737585 -0.02779835
-0.03330586 -0.024839355 0.0054278285 -0.010295585 0.006231748 0.019456035 -0.019942416 0.011882554
-0.017942537 -0.0046518994 -0.015891343 -0.0054329624 0.0084674135 0.018499667 0.021461677 0.004510525
0.004756751 -0.002077508 -0.024386907 -0.016441265 0.0009748494 -0.010803353 -0.03278687 0.004547242
-0.002085573 -0.015102871 -0.011484165 -0.023650166 -0.0430601 -0.017692648 -0.04093242 -0.03771277
-0.0219148 -0.037991628 -0.022655338 -0.017188033 0.0011558232 -0.020411836 0.004342503 -0.027136521
-0.031748947 -0.036695752 -0.011264943 -0.008366664 -0.03394759 -0.03436799 0.0027549013 0.019437702
0.0071962476 -0.006119669 -0.025905892 0.013137458 -0.022578184 -0.01996486 -0.004039742 -0.031251665
0.0019253027 0.014402332 0.015732868 0.008086983 -0.02033219 0.0010612046 -0.004804959 0.021137808
-0.028249685 -0.010742575 -0.025318695 0.007340767 0.015212054 0.0071628774 0.0023513194 0.0051708105
0.008261584 0.011679122 -0.020975433 -0.0150670465 -0.017282262 -0.0034473187 0.011683796 -0.027967663
0.011102012 -0.005352311 0.023935648 0.014451835 -0.0068903016 -0.018265478 -0.00837103 0.011973248
0.013657936 0.012569736 0.004105264 0.017303215 -0.02144322 -0.0133269 -0.0044325646 -0.016237687
-0.023119418 0.00050480955 -0.009611314 0.011728231 0.0051340596 -0.0033054813 0.00046018913 -0.017729534
-0.0011350209 -0.013150023 -0.00738561 0.021539342 -0.013646238 0.004106332 -0.009584752 0.0010387148
-0.015131604 -0.0025720114 -0.0040573278 -0.0127582 0.0016137782 -0.012110217 -0.0003814102 0.007907626
-0.0063827005 0.011503745 0.0062366957 0.008145608 -0.008781253 0.010100015 0.00047015358 -0.011511383

fc.1.bias f4 [64]
00000000: c80c 4a3c 1d9f d13d 272c 0abd 0280 fa3b
00000010: 530c d33e 4852 683e 9dfe 17bd c611 17bc
00000020: ec6c 673c 4f74 b73e ed57 bb3e 27f1 6d3e
00000030: 8a5e 133d 8884 423d b0e8 073e 116b 263f
00000040: 8ca6 14b9 6b80 893a 57f1 24bd f7a5 debc
00000050: d449 27bc e4d5 2b3b e7c3 c8bc 6d4d 383e
00000060: 219a 373c f984 b5bc 2e3f eebc faf9 2bbc
00000070: 7fb7 cd3d 16c4 0c3e 22d9 1c3b d85b e7bc
00000080: 3141 08bc c9db d03e d999 adbb 4fa5 973e
00000090: 1c28 8cbc 8a7d de3e 5857 7a3c 2933 a73c
000000a0: 6435 efbc b9b9 453e 3562 893b c212 1a3e
000000b0: bfa4 9f3d ccb2 1fba ec43 473d 4f41 27bb
000000c0: 1d74 84bc 094e a23c d3fb e13c 60db 61ba
000000d0: aaf1 8a3e 67e8 a93e 7ae4 3c3b 2adb 333c
000000e0: 7343 95bc 52cb 0ebd f518 4ebd 4370 c33e
000000f0: 18e7 a2bb 01b6 b8bc 4775 1f3e 465c 473e
0.012332149 0.102354266 -0.033733513 0.0076446543 0.4122034 0.22687638 -0.037108053 -0.009220546
0.01412509 0.35830924 0.3659052 0.23236524 0.03597883 0.047489673 0.13272357 0.6500712
-0.00014176423 0.0010490542 -0.040269222 -0.027178748 -0.010210473 0.0026220018 -0.024507476 0.17998286
0.011206181 -0.022158133 -0.02908286 -0.010496611 0.10044765 0.13746676 0.0023933132 -0.028242037
-0.008316324 0.40792683 -0.005297881 0.29618308 -0.01710897 0.43455154 0.015279613 0.020410137
-0.029200263 0.19309129 0.0041926154 0.15046218 0.07795095 -0.00060920115 0.04864876 -0.0025521105
-0.016168648 0.0198126 0.0275859 -0.0008615758 0.271375 0.3318512 0.0028822706 0.010977546
-0.018220639 -0.03486187 -0.05031677 0.38171586 -0.004971396 -0.022547724 0.15572082 0.19468793

fc.3.weight f4 [4, 64]
00000000: 9b01 843c 295b 533e d04c 3d3c 6212 9c3d
00000010: b226 82be 0631 253e db15 bc3d fc19 bebd
00000020: ac2d bf3d d5b8 223d 65dd 8a3c 85fe 6dbf
00000030: 7b43 b33d f3f2 003d 8aa3 b9bf 5e14 cf3e
00000040: 198f 3c3d 071b 78be fc9f cf3d 1e79 fe3c
00000050: 4534 403e c1b5 943c 2eee 7bbd 4cd9 ecbe
00000060: 809f 7fbc 8405 0fbc 128f d5bd deb0 98bd
00000070: 9b4c 14ba f6e0 bd3d 274a 883d eb3f 583c
00000080: bf79 a53d 0d95 3abf e5f4 d1bd 9a07 ce3d
00000090: 204c 293d fdce 58be f2fe 16bc 640b a73d
000000a0: c20e 1f3d 28cf 97bd ed25 2bbd 159e 0d3e
000000b0: 74d3 26be e6ec 94be 3f1d 853e 5de4 f03d
000000c0: ef90 2b3d b13f 583e 4caa 853e 8d80 35bd
000000d0: 2c8a 9fbf 5fe1 ecbc 124e 03bd d63a be3d
000000e0: 250a e4bc fcaf 5e3d a099 aabd 34f7 b1bd
000000f0: a327 bb3c b8b7 84bd 31fc 303e 6bc8 ef3d
00000100: 2d25 2abc af5e 9fbe 2175 da3d 3c1c a9bd
00000110: 5072 1ebf 993a 3c3e 0224 4fbd d4ba b93c
00000120: 54b9 debc 7977 ec3c 71ff 94bf c157 5cbd
00000130: 42c1 ea3d 4a19 8bbf e00d ad3d 3808 ab3e
00000140: b26f 80bc 83b5 23be d746 dc3c f8cc 603d
00000150: 06c2 833d c0da 923d 61dc fe3d 7b0a b4bd
00000160: c1e6 323d c85a aebd 7094 a93d 103f b8bc
00000170: fa44 adbf cfe0 81be 5bae d23d 34b8 bcbd
00000180: c7ce 2d3c 111f f738 3401 ea3c fe08 4bbd
00000190: f76a 54bd a47d d0bd f6ba 09bc fbfa dc3d
000001a0: f9d9 debd 20dd 55bd 72a3 fa3a a972 973d
000001b0: 4045 623e d712 cbbe f44a 12bf a12a e4bd
000001c0: 5e5f 81bd 82a6 af3e ff2b 873e 60c4 7fbd
000001d0: 7a60 403d 76fe f0bd 12a3 a8bd 615a 7fbb
000001e0: cb4a c4bc 20d7 87bb 0f53 58bd 57dd 893d
000001f0: bb92 333d beda d63d b3b4 443e 9998 053d
00000200: 81e1 c7bc f56a 80be ba50 823d 8823 9f3d
00000210: 1c40 00bf 17ab d83e 6bc2 af3d c773 353c
00000220: cd0d f23d abab 3ebf 259c 253c 0dde ff3d
00000230: 21b2 093e c25f a43d 10c6 3e3d bc69 9b3e
00000240: 7e6a 673d b13f 17be 50d3 af3d 3404 c83d
00000250: 4012 a8bd d9f2 3b3c 0f36 8c3d 9c10 043e
00000260: a6ed 863d be73 6b3c 4b2b d63c 1064 1140
00000270: 6bb1 f0bb d262 0c3e 63f2 c73d 866e a9bd
00000280: 615e b9bd 74af 643c 8fd2 3d3d 573a a8bf
00000290: 7680 72bd 28b6 1cbe 66a4 7d3d 8e7f 85bf
000002a0: f07e c43d b1ba e1bd 676c 363d 2e4a 023e
000002b0: 5cb3 973d 83ff 753e bb73 943e 69e0 a43d
000002c0: 8f18 18bc 398f d8be 9343 4c3e 88f4 3f3d
000002d0: 2b4e a9bd 92e3 0abe 481b b8bc aef9 2e3c
000002e0: a759 c1bd b841 cd3d 83b4 363d 0a7f a0bf
000002f0: d17c 453d 44d3 473c 894d 5d3e d441 91be
00000300: bcb1 1dbc d8d8 16bd 650c 21bd ea2c 5cbd
00000310: e4d5 9d3d d2aa db3d cbe7 1cbd e268 9d3d
00000320: 8234 bbbd 67ca 0cbe 7b5e f6ba 98f7 c1bd
00000330: d8d6 9fbd 5719 d73d 031f 893d df2b ab3e
00000340: 4ab4 43bd 4291 a3be d81c 113c 5acd e1bd
00000350: 932c d6bd 1cf3 75bd 14da 9abd 6efd a6be
00000360: 329d 143d 88b7 ecbc 0532 4fbd 38c9 b8bb
00000370: 879e 18bc 7ac1 803e 914d d9bd 9eeb ea3d
00000380: d4ef f53d 436f 35bd 41dc 3f3c f715 56bd
00000390: 2d74 99bd 8c1d 3ebf 751d f1bb 4370 e13d
000003a0: 3066 7cbd a5b8 c7bf 3621 a33d 1f22 e6bf
000003b0: 78dd 803e c5f0 ab3e 62fd 863e 0140 f5bd
000003c0: 8fda f53d a06b 9f3e cfd4 0dbf 0b7b 9abc
000003d0: 822e e03d 37a5 7fbf a4df f43c baf0 e2bb
000003e0: 0235 dcbd cef2 f33d ea63 a63b c00c 0e3d
000003f0: 7550 df3d 0467 1bbd 89c3 97bf b8c0 9e3d
0.016114047 0.20640244 0.011553958 0.07620694 -0.25420147 0.16131982 0.09183856 -0.092823
0.09334883 0.03972705 0.016951272 -0.9296649 0.08753105 0.031481694 -1.4503033 0.40445226
0.046034906 -0.2422906 0.101379365 0.031063613 0.18769939 0.018153073 -0.061506443 -0.46259534
-0.015601993 -0.008729342 -0.10427679 -0.0745561 -0.0005657167 0.092714235 0.066547684 0.013198833
0.08079862 -0.72883683 -0.10251788 0.10060044 0.041332364 -0.2117271 -0.009216057 0.081564695
0.038832434 -0.07412559 -0.041784216 0.13829835 -0.162916 -0.2908699 0.25998875 0.11762307
0.041886266 0.21118046 0.2610649 -0.04431205 -1.2464042 -0.028916059 -0.032056876 0.09288566
-0.027836869 0.05436705 -0.08330083 -0.086897284 0.022846049 -0.06480354 0.17283703 0.117081486
-0.01038484 -0.31126925 0.10666872 -0.082573384 -0.6189318 0.18381728 -0.05057145 0.022672094
-0.02718798 0.028865563 -1.1640455 -0.053794626 0.11462642 -1.0867093 0.08449912 0.33404708
-0.01567826 -0.1598721 0.026889248 0.054882973 0.064334914 0.071706295 0.12444378 -0.087910615
0.043677095 -0.08513409 0.08280265 -0.022491008 -1.3536675 -0.25366828 0.10287162 -0.092148215
0.010608382 0.000117836644 0.028565027 -0.049569122 -0.051859822 -0.10180214 -0.008406391 0.10790058
-0.10881419 -0.052212834 0.0019122197 0.073949166 0.2209673 -0.3966281 -0.5714562 -0.11140943
-0.06317018 0.34306723 0.26400754 -0.062443137 0.046967007 -0.117672846 -0.08234228 -0.0038963782
-0.023961445 -0.004145518 -0.052813586 0.0673167 0.043841105 0.104909405 0.19209556 0.03261623
-0.02439952 -0.25081602 0.063630536 0.07770449 -0.50097823 0.4231803 0.08582004 0.011074967
0.118190385 -0.74480695 0.010108029 0.12493525 0.13446857 0.08026077 0.046575606 0.30354106
0.056498043 -0.1477039 0.085852265 0.09766427 -0.08206606 0.011471474 0.06846248 0.12896961
0.065882966 0.014370857 0.02614369 2.2717323 -0.0073453686 0.13709572 0.097630285 -0.08273034
-0.090512045 0.013957847 0.046343382 -1.3142804 -0.05920454 -0.15303862 0.06192436 -1.0429552
0.09594524 -0.11021937 0.044536974 0.1272361 0.07407257 0.24023251 0.28994545 0.08050615
-0.009283199 -0.4229677 0.19947653 0.046864063 -0.082668625 -0.13563374 -0.022473946 0.010679645
-0.09440928 0.100223005 0.044605743 -1.2538769 0.048214737 0.012196366 0.21611609 -0.28370535
-0.009624895 -0.036827892 -0.03931846 -0.05375377 0.07706812 0.10725941 -0.038306993 0.076860204
-0.091408744 -0.13749085 -0.0018796468 -0.09471053 -0.0780465 0.1050288 0.06695368 0.33431908
-0.04777936 -0.3194676 0.008856975 -0.11025496 -0.104577206 -0.0600463 -0.07561126 -0.32615227
0.036282726 -0.028896108 -0.05058481 -0.0056392215 -0.00931514 0.2514761 -0.10610498 0.11470722
0.12008634 -0.04429556 0.0117102275 -0.05226704 -0.07492862 -0.74263835 -0.007358248 0.1100774
-0.06162089 -1.5603224 0.07965319 -1.7979163 0.25168967 0.3358213 0.2636519 -0.119750984
0.12004577 0.311368 -0.55402845 -0.0188575 0.10946371 -0.9986147 0.029891796 -0.0069256695
-0.10752298 0.11911546 0.0050778287 0.034680128 0.10904018 -0.03794004 -1.1856548 0.07751602

fc.3.bias f4 [4]
00000000: 0c9f dd3e bf8c e43e ee86 ee3e 3bd5 e93e
0.43285406 0.4463863 0.46587318 0.45670494
