models/v17.1/model_158000.pt (torch, 729854 bytes, 10 tensors)

conv.0.weight f4 [16, 2, 3, 3]
00000000: 3848 453e 2c16 823b 5031 8bbd 674b dc3c
00000010: 60b3 b93b a624 b1bd d6c7 d5bc f5c5 5abd
00000020: d96c fb3d daa1 55be c9b1 813d ac11 c63d
00000030: bc69 ef3c acba 4fbd b5fe 743d 2955 573d
00000040: d4cc b73d ce3e 54bd c334 df3d 96c3 853e
00000050: 56e2 69bd e4b6 84bd 74ac 69be 9177 153e
00000060: c4ad 43be 183f 6cbe 2ef5 fbbd f4ae 7dbd
00000070: 7e25 99bc cf02 30bc 98e1 af3d bb30 96be
00000080: 9646 3d3d ede6 543e 2dea b23d 3470 323e
00000090: 482e 7b3d 903d a73e 4369 8cbc 47ab 87bc
000000a0: 94da bc3d adb6 703e 85e0 243e 9739 da3e
000000b0: cba0 5a3d a159 a7bd 86e5 95be 8f65 083d
000000c0: 0f7d 8439 9369 86bd 682a 9abe 2123 27be
000000d0: 03a5 eabe 927d 89bc 8fba cf3c 21b5 a2bc
000000e0: 27ac 863d 47cb 16bd 7f9d 8a3c 0cd9 9fbf
000000f0: 3ac6 db3b 24a4 86bd fb1b 7c3c d674 94bc
00000100: ad05 ed3b 60bd 8ebd c863 ea3c e963 c0bc
00000110: d497 be3d f739 91bb 94ed 503d 930a 82bc
00000120: f036 b63c 4844 d8bd 40f9 f0bd 0225 61bd
00000130: fff6 15be 97eb 1d3f 50b8 193c e9e9 283c
00000140: 0b18 0dbe aa04 b8bc ece8 8c3d 0c65 153e
00000150: fd05 583d 3100 ff3d fcee 9a3e f229 bbbb
00000160: 2894 3bbb 33e1 f73d 7139 2c3d 89e7 b5bd
00000170: 3788 ed3e 7d35 21bd ac7c 21bf 9984 94bc
00000180: e6ce d63c 5b93 07be 8c4d aabd f22f c6bc
00000190: f3ca 813b 4e3b 5fbc be73 5d3d a3b1 dbbc
000001a0: 46c4 f73c cced 61bc 17a0 1a3e 03a2 a83d
000001b0: 9db9 91be 7541 b1be d253 99bc 25ec 9a3c
000001c0: cc9e f8ba 32cc 3cbf decf bdbe 14cf d1be
000001d0: b0ef c1bd 3fa7 6a3e 6edd 9f3e ce95 d2bb
000001e0: d231 3bbc 52b8 2c3c 3350 fe3e 3249 493e
000001f0: a163 a23e 672d f33c 5d1b f9be 919f 01bf
00000200: 025c 713d bf0b 06be fdfe a03d ee02 073e
00000210: f7bc 88bf ae84 84bd 64c2 73bd 8a5f 5a3e
00000220: 6f0b 8b3e 9175 49bd ff65 f93b 7786 5bbd
00000230: 97bc bd3d 3566 973e 035c bc3d a9d0 d13c
00000240: 08d9 a43d 17dd 7e3d ff34 a63b 76a7 853d
00000250: b97d 673e ea7a 16bc 2e9f 85be 8617 ebbe
00000260: 65bd f8be ba3d 75bd 6d89 bb3d 483c dc3c
00000270: ad45 273d f2ac 7d3d a906 023e 58d3 e7bd
00000280: 60f2 663e 1778 69bc 2e12 a43b 1771 29bd
00000290: ebf6 b03c 61d3 923c 08fe 82bd ddab f53e
000002a0: b410 9dbc 2cad 0bbe e2ac 9fbd 1884 143b
000002b0: 2502 443d a089 c8bc 995b e0bc 262f 983d
000002c0: 2f79 00bf fd6d bc3b 7792 0e3e 0944 a53d
000002d0: 84c9 073c 02e2 45bc 3ddd a3bc 2bb4 8bbd
000002e0: 75b9 103f 2ac2 d4bd f4ad 873c befd 7fbd
000002f0: a2ad 2c3d 2b3f cfbc a4f5 d13c 3a86 7dbc
00000300: fb1f b83d 2f56 c33e ffe8 923d baa8 96ba
00000310: 206e 6a3d e46e 41bd 7358 84bc 15bb 733d
00000320: 707f 86bd 344f 8c3c fcd2 543f 038c a03c
00000330: b78a 83bd 14b5 be3c 483e b0bd 357f 953c
00000340: f258 84bd 596d 8e3d 97ec 97bc 0eab afbd
00000350: a676 35bd d0d0 a13d e195 46bd c7d9 a93d
00000360: ff92 b1bd 89dd 30be 7049 a8bd afb7 91bd
00000370: d28a 1ec0 c07c 5b3c 5462 d5bd dcff f3bd
00000380: 1d1e 10be 3883 d93d 7ff3 c23d 86cd c23d
00000390: cfa1 753d 4b86 0c3f ef78 98bd 088a 033e
000003a0: 7709 6d3d 5d30 303e 5c94 42bd 66c2 59bd
000003b0: 7817 9abd 056c 90bd ae5a c0be d4b8 68bf
000003c0: 8df3 4b3e cc35 eebd acb0 84bd cbe2 9dbc
000003d0: 9c05 b23d 06b3 bc3c 7bdd 15bc 97d2 953d
000003e0: 89f2 fc3e 0d66 023e 3b3a 0d3e af40 ca3d
000003f0: 814d 10bf 0404 0fbf d9cc 70bf 1886 e5bd
0.1926583 0.0039699282 -0.06796515 0.026891423 0.005667135 -0.08649568 -0.026096266 -0.053411443
0.122766204 -0.20862523 0.06332738 0.096713394 0.029225223 -0.050715134 0.05981322 0.05257145
0.08974615 -0.051817708 0.108987354 0.26125783 -0.057100616 -0.06480196 -0.22819692 0.14596392
-0.19109255 -0.23070943 -0.12302624 -0.061934426 -0.018694635 -0.010742857 0.085879505 -0.29334053
0.046209894 0.20791216 0.08736072 0.17425615 0.061323434 0.32664156 -0.017140036 -0.016561164
0.09221378 0.23507185 0.16101272 0.42622063 0.053376 -0.08171392 -0.29276675 0.03329998
0.00025270178 -0.065631054 -0.30110478 -0.16321994 -0.4582902 -0.01678351 0.025357513 -0.01986176
0.06575804 -0.036814954 0.016920803 -1.2488112 0.00670698 -0.06574276 0.01538753 -0.018122118
0.0072333426 -0.06969714 0.028612033 -0.02348514 0.09306303 -0.004431959 0.051007822 -0.015874183
0.022242993 -0.105598986 -0.11766291 -0.054966934 -0.14645003 0.61687607 0.009382322 0.010309675
-0.13778703 -0.022463161 0.06880364 0.14589328 0.052740086 0.124512084 0.30260456 -0.0057117874
-0.0028622244 0.121035 0.042046968 -0.088820525 0.46392986 -0.03935765 -0.6308086 -0.018129634
0.026221704 -0.13239805 -0.08315572 -0.024192784 0.003960961 -0.013624979 0.05406546 -0.026818102
0.030244958 -0.013789605 0.15100132 0.08234026 -0.28461924 -0.34620252 -0.018716726 0.01891143
-0.0018968224 -0.7374908 -0.37072653 -0.409783 -0.09469545 0.22915362 0.31223625 -0.0064265495
-0.011425452 0.010541992 0.49670562 0.19656828 0.31716636 0.029684735 -0.4865369 -0.50634104
0.058925636 -0.13090418 0.07861135 0.13184711 -1.0682667 -0.06470619 -0.059511557 0.21325508
0.2715716 -0.049184386 0.007611036 -0.053595033 0.09264486 0.29570165 0.09197237 0.025612192
0.08049208 0.062222566 0.0050722356 0.06526081 0.22606553 -0.009184578 -0.26098007 -0.45916384
-0.48581997 -0.05987332 0.09157071 0.026884213 0.040837932 0.06193251 0.12697853 -0.113196075
0.22553396 -0.014249823 0.00500705 -0.041367617 0.021602115 0.017923059 -0.06396109 0.47982684
-0.019173004 -0.13640279 -0.07796647 0.0022661742 0.047853608 -0.024479687 -0.027387427 0.07430868
-0.5018491 0.0057504163 0.1392306 0.08069617 0.008287791 -0.01207781 -0.020002956 -0.06821474
0.56532985 -0.10388596 0.01656244 -0.062497847 0.042157777 -0.025298676 0.025629826 -0.015473897
0.08990475 0.3815169 0.07173347 -0.0011494376 0.05723393 -0.047224894 -0.016155457 0.059504587
-0.065672755 0.01712761 0.83134437 0.019598013 -0.06422942 0.023279704 -0.08605629 0.018249134
-0.064622775 0.0695445 -0.018545432 -0.08577548 -0.044302605 0.07901156 -0.04848278 0.08293491
-0.086706154 -0.17272009 -0.08217132 -0.07115113 -2.477223 0.013396442 -0.10419145 -0.11914036
-0.14073987 0.10620731 0.095190994 0.09511857 0.059968766 0.54892415 -0.07444941 0.12845623
0.057870355 0.17205949 -0.047504768 -0.05316391 -0.075240076 -0.07051853 -0.37569183 -0.90907025
0.19917126 -0.11631355 -0.0647901 -0.019273182 0.08692476 0.023034584 -0.009147043 0.073155575
0.4940379 0.12734242 0.13791744 0.09875619 -0.5636826 -0.558655 -0.9406257 -0.11207217

conv.0.bias f4 [16]
00000000: 40fb a8bd e8b0 8fbe cde9 e9bd 2e45 0e3f
00000010: dd03 13bf 6f04 8cbe cd0b 423b 0e7b 36be
00000020: 37c7 cabe cd85 57bd 3f13 2dbf 3553 d6be
00000030: 8ad2 983e 8072 66be 16dc 81bc f782 25be
-0.08251047 -0.28064656 -0.11421547 0.5557431 -0.5742777 -0.27347133 0.0029609085 -0.17820379
-0.39605114 -0.052617837 -0.6760749 -0.41860357 0.2984813 -0.22504616 -0.015852015 -0.1616324

conv.2.weight f4 [32, 16, 3, 3]
00000000: bee0 88bd 31ae 6b3c 4d59 1dbd 48f5 88bc
00000010: 86b4 8fbd a7b6 a7bc 9d04 a83d 4032 edbc
00000020: d31f c6bd 077e 8e3d 45d4 d13d 6492 ad3d
00000030: 7857 103e 5aa2 de3d 7e92 fc3c ac40 483d
00000040: 14ee 20bd 6d16 2ebd f1ba 333e a008 efbc
00000050: 9447 43bd ff2e 03bd 40c6 c5bb 2674 67be
00000060: 6b4e fabd 672f 79be a4f9 41be f969 5c3c
00000070: 05d1 1cbd 58b4 09be 8084 e93b 46c9 8fbd
00000080: 7802 9dbd 3e72 473d 7630 f2bd a0c1 b3be
00000090: 5c8c 933d 37f6 e73d 6d08 91be 70c7 12be
000000a0: 8e95 25be a641 abbe aa7e eb3d b793 f7bd
000000b0: 7286 37be 6f45 2d3d 2570 d93c 4ac8 b5bd
000000c0: d65e 253e e930 b73d 77e5 83be 4438 a33d
000000d0: 6cb3 8f3d f1ce 02be 0f4b 353d 1b6d 3a3e
000000e0: 875f 5e3c 9af6 1e3e 8065 3f3d d1a7 34bd
000000f0: aab1 8a3d 53f6 ab3c 86ed 34be b99f 45be
00000100: 9453 18bd d804 983c 860e 89bd 586d 8cbc
00000110: 73e1 2abd ec03 a1bd c9dd a5bd 522b 07be
00000120: 60d6 b63d a71e 893d f5d3 133d fab0 91bd
00000130: 76ff 173e 6460 04be fd2d ca3d b4f8 42bd
00000140: 3574 1ebe 7acc c43d 165b 71be 1fe3 2f3d
00000150: e72c de3d 5f59 1dbe d55a 21bd 3e46 2dbe
00000160: 8800 6abe 8495 983c d168 4a3d f4dd a3ba
00000170: 7397 02be 58a9 e5bc a9f3 de39 833a 17be
00000180: 0dc3 9bbd a73b fdbc eace 92bd a1bd 123c
00000190: 29df 03bc d533 97bd 4de1 16be caee 52be
000001a0: b4dd 11be e50d 00be 23e3 0dbe 4713 c43b
000001b0: 9f4f 533c bc75 2e3d 9b06 f13c 4ecb 09be
000001c0: d51e 11bc 27ff cb3c 09cf 09be ef88 19be
000001d0: 73e3 e6bc 5d77 b6bb 1d24 5e3c 6e21 523d
000001e0: cfd4 853d ce13 993c d10f b4bc 801f 15bd
000001f0: 30c4 2ebd 0b8d aa3c dbe8 a53c fad6 dfba
00000200: 6158 e9bb 925c 02bd 603f 34be cc00 c2bd
00000210: ab43 1bbd 7d87 2cbd 6b73 b23d 0b6e 06be
00000220: 81da 5abc 383e b5bd 68d0 d0bd 0540 da3d
00000230: b6f4 243c cf0e b5bd 1785 1abe 7881 8fbd
00000240: 4461 233e b151 b4bd 6fc0 353e bbfc 2c3d
00000250: 4f05 d63d e106 66bd e2c5 4cbd d749 0f3d
00000260: b119 8abd 6626 103e 4e4a 203d 4353 863e
00000270: e990 48be 72fe 473e 03cb c23d 3eba 7f3e
00000280: c808 8fbd bd25 673d 6fc2 15bc e5fb 713e
00000290: c3c0 4e3e 6dbf 843e 902c 6fbe 08c9 47be
000002a0: 5ab5 9e3e ebce 4c3c 4055 fa3d 69e2 0ec0
000002b0: d889 f83d 598e adbd c64e 26bc 7d96 f8bc
000002c0: 8a6f a53b bb52 9ebc adf4 57bd af24 06bd
000002d0: 09bd 7cbf d128 ba3e c10b 76bb cc36 a8bc
000002e0: 77b6 9f3d 7508 d23d fc35 8f3c e982 afbc
000002f0: 53ad ddbb 112b 26be 2203 5abf eab1 81bd
00000300: b200 8cbe 625f 62bd 2e4c 4dbe cb37 c2bd
00000310: a488 5dbd 8bb6 65bc c644 6f3d 864a c73c
00000320: 1214 6fbd ba28 0c3e 63c5 a7bd 8633 f2bd
00000330: 5216 523e 8511 6a3c 5880 9a3d de24 b53d
00000340: 4b4a b1bd 2d6b 36be faaf bb3d d795 cbbd
00000350: 6388 5cbe aae1 a63e cebc ee3b b9b7 303e
00000360: a492 353e efd9 45be cf1b 353e 449f 3b3d
00000370: 3dde a63e f4d0 843c 0a8d 413e ca4a 1e3e
00000380: 408c 07be 96d6 b33d 707a f3be ff89 0fbe
00000390: 3e4c 073e a744 773d f9fc 4bbe 34bb 0b3f
000003a0: e29d ff3b 57b6 cbbd 4346 acbd 4f1b febe
000003b0: a7e0 db3e 3430 333d 07fd 4abe 852c 7d3a
000003c0: 7682 9ebb a2c2 51bd 9028 ad3c bbff 0b3e
000003d0: c1ca 06bf 41d2 3f3e b6aa af3d c58a d7bd
000003e0: 5d8f 4cbd c258 ffbc fa8d 913c f78c 0b3d
000003f0: 272a 713d 91b1 94bf 4f6b 28bf 1592 513e
-0.06683491 0.014384792 -0.038415242 -0.016718522 -0.07016854 -0.020472838 0.08204005 -0.028954625
-0.09674039 0.069576316 0.10245565 0.084751874 0.14095867 0.1087081 0.030831572 0.0488898
-0.03928955 -0.042501856 0.17551781 -0.029178917 -0.047675684 -0.03202724 -0.006035596 -0.22602901
-0.12221988 -0.24334489 -0.18942887 0.013453 -0.038285274 -0.13447702 0.007126391 -0.07020812
-0.076664865 0.048692934 -0.118256494 -0.35108662 0.07204506 0.11326259 -0.2832674 -0.14333892
-0.16170332 -0.33448523 0.11498769 -0.12088721 -0.1792238 0.042302545 0.026542732 -0.08876093
0.16149458 0.08944876 -0.25761005 0.07969716 0.07016644 -0.12774254 0.044261035 0.18205683
0.01357258 0.15523759 0.046727657 -0.044105355 0.06772168 0.02099148 -0.17668733 -0.1929921
-0.03718908 0.018556997 -0.06692223 -0.017141983 -0.04171891 -0.07862076 -0.08098943 -0.13200119
0.089276075 0.066952996 0.03609081 -0.07113834 0.14843544 -0.12927395 0.09872053 -0.047600463
-0.15474017 0.09609313 -0.23569903 0.04294121 0.10848408 -0.15366124 -0.039393265 -0.16921327
-0.22851765 0.018625982 0.049416367 -0.001250206 -0.12753086 -0.028034851 0.0004252468 -0.14768414
-0.07605562 -0.030912234 -0.07168372 0.008956344 -0.008048811 -0.07382933 -0.14734383 -0.20598903
-0.1424473 -0.125053 -0.13856177 0.0059837434 0.012897401 0.04259275 0.029422095 -0.13456461
-0.008857449 0.02490194 -0.13457884 -0.14993642 -0.028184628 -0.0055684284 0.013558415 0.051301412
0.06534731 0.018686201 -0.021980198 -0.036406994 -0.042667568 0.020819208 0.020252636 -0.0017077618
-0.0071211313 -0.031826563 -0.176023 -0.09472808 -0.03790633 -0.0421214 0.087134205 -0.13127916
-0.013357759 -0.08849758 -0.10196 0.10656742 0.010068109 -0.08840715 -0.15089832 -0.07007116
0.15955073 -0.08804644 0.17749189 0.04223321 0.10450231 -0.056158904 -0.049993403 0.03498253
-0.067431815 0.14077148 0.039133362 0.262354 -0.19586529 0.19530657 0.09511378 0.2497339
-0.06984097 0.056432474 -0.009140595 0.23631246 0.2019072 0.25927296 -0.23356843 -0.19510281
0.30997735 0.012500505 0.122232914 -2.232569 0.121356666 -0.08474416 -0.010150617 -0.030345196
0.005048697 -0.019326558 -0.052723575 -0.032749828 -0.98725945 0.36359265 -0.0037543627 -0.020533942
0.07798474 0.10255519 0.017481796 -0.021424728 -0.0067650466 -0.16227366 -0.8516103 -0.063327625
-0.2734428 -0.055266745 -0.20048591 -0.09483298 -0.05408539 -0.014020572 0.058415197 0.024327528
-0.05836875 0.13687411 -0.081919454 -0.118262336 0.20516327 0.014286404 0.07544011 0.088449225
-0.086567484 -0.17814322 0.09164424 -0.09940689 -0.21536402 0.32594043 0.007285691 0.17257585
0.1773172 -0.19321416 0.1768639 0.045806184 0.3259143 0.016212918 0.18901458 0.15458217
-0.13237095 0.087811634 -0.4755435 -0.14017485 0.13212678 0.060368206 -0.1992072 0.54582524
0.0078008035 -0.09946888 -0.08411839 -0.4963021 0.42944834 0.043747142 -0.19823085 0.0009657818
-0.0048373295 -0.051211007 0.021137506 0.13671772 -0.5265313 0.18732549 0.085774824 -0.10524515
-0.04994141 -0.031170253 0.017767895 0.03406998 0.05887809 -1.1616689 -0.6578874 0.20465882

conv.2.bias f4 [32]
00000000: 4256 8e3c 6275 3c3d 59dd 8fbd 238a a53d
00000010: e680 003d afcf 41bd 9fcf 683e 42de 93bd
00000020: b277 6fbe 389c a1be 40cb 0f3e 98bc 893e
00000030: 22d1 c9bd 1bdd fc3c 5355 a83d 4018 17be
00000040: 16f9 1e3c e8f3 31bc 7d38 523e 6620 eabd
00000050: 1a96 0b3e 5dce a4bd ffad 3dbc 57b6 9fbd
00000060: 5e0d 0dbe a130 a03e 9b88 dd3d 6073 02be
00000070: f62c 0fbd 50b1 e33c 5c62 cdbd b10f 0c3e
0.017375115 0.046010382 -0.070246406 0.08082988 0.031372927 -0.047317203 0.22735451 -0.07220127
-0.23385504 -0.31564498 0.14042377 0.26901698 -0.09854342 0.03086715 0.08219399 -0.14755344
0.009702941 -0.010861374 0.20529361 -0.11431961 0.13631478 -0.08047173 -0.011577128 -0.077984504
-0.1377463 0.312871 0.10817071 -0.12739325 -0.034954987 0.02779451 -0.10028526 0.13677861

conv.4.weight f4 [64, 32, 6, 6]
00000000: 4d01 49bc 11d1 6dbd d0f9 883d 03fd 7bbc
00000010: 4bc7 3e3d 04dc 7fbc 8862 05bd 7f86 253d
00000020: 282f ef3c 5365 b33c 3370 88bc c8f4 1f3d
00000030: 95b5 5cbb cac9 c53c 6767 d1bc ae88 34bd
00000040: ab6e e2bb 950b ec3c 9c3f 433c aad9 963d
00000050: 3159 9fba 74f1 55bd ef35 44bd 1043 a33d
00000060: 4848 ca3c 56b0 dfbb 2b1f 80bd 6812 d63c
00000070: 099e f1ba cd71 18bb 07c3 d83b 7335 89bc
00000080: d877 17bd f91d 6a3a ce26 27bd 7885 b3bb
00000090: 6b6c b4bd 7d9a 08bd aeec b13e cd4d 00be
000000a0: 8b7c bcbe dc58 5cbd 2ef2 b4bc 1f56 fa3d
000000b0: 7ddc 6a3d c3a0 c6be ed71 4dbe ab00 cf3e
000000c0: b1f4 1bbf 4d4b 133e ff40 58bd 514d a23d
000000d0: b393 7b3e 6f17 813e a219 f23d 9e7c ccbd
000000e0: 32d2 52b8 92f9 e9bd 1197 6c3c 903f 523e
000000f0: 1dfd c53d ed95 de3d 2454 d03d c049 203e
00000100: 679b 303d 6d85 4b3e 93ea 89be 8fcd 8a3e
00000110: dc15 b43e 2330 513e 92e2 963e e468 1bbf
00000120: 39b5 28bc 0f61 35bd d4ab bbbc ea75 46bd
00000130: e1cd 2b3c 6fc6 cbbc 8662 5abc 38a1 a13b
00000140: 7d03 dcba 1652 743c 3fd5 b53c c4dc 2a3c
00000150: e8bd b03b 61e4 62bc 59e3 e4bc 84cf c43c
00000160: bd76 6d3c 7906 2bbc c57d b3bc 6829 a13c
00000170: a869 abbc 1997 823c 996e 1dbd 4ad7 17bc
00000180: 2b83 09bb af8f 193d de8d 153b 939e b73c
00000190: 4e3d 1fbc 7cb6 f93c f413 e43c 9e44 073d
000001a0: c3a9 2d3d 7d56 323c 4ab1 94bb 3381 703b
000001b0: 177e 0ebe e4a1 6b3e 52ac 323c d0af 9bbe
000001c0: e49a ffbe 3f9e 823e 7bd3 2e3c 3213 953e
000001d0: b8a8 033e 1e11 d03b 63e2 f53e 49dc d2be
000001e0: 3270 ba3e 5b85 823e b9c8 2f3e f323 d23d
000001f0: 2934 6c3e a39d ad3e bc3c ab3e 786c a23e
00000200: 0a85 633e 8910 e03c dfdd b33e 79fc a83e
00000210: c3a2 e73c 5bee c53e d551 c43e 3a90 8a3e
00000220: d657 df3e 2161 f8be 8b7d ce3c a197 fcbe
00000230: 4fd1 08bf d167 6bbe fbcc 623e c035 d4be
00000240: cc8b e53a 166d 903c 23e1 f1bd 715b 303e
00000250: 6090 713e c2c7 f1bd 39f1 aa3e a883 a43e
00000260: b26b d7be 7f0a eabe da98 30bf 838c 4fbd
00000270: c0f2 aabe 1778 ae3d b986 b8be ab36 ffba
00000280: 644f 1e3e f710 d0be fec5 923e e79b 38be
00000290: 54b3 92be c070 76be 3d57 93be 3a8c 7c3d
000002a0: 3af3 ab3e 226b ffbc 37b8 33bc 60dc a2bd
000002b0: e2ab 273d 6305 6b3e 3567 81bd 3e87 213e
000002c0: 4bc5 593d 2cab 83bd 3249 9c3c fd5a 3dbf
000002d0: c7f8 d33d 9509 373d 1a6a ec3d 0620 243d
000002e0: 5b4a e83c 89dc 15bd a603 fc3e 8c0f 643e
000002f0: fffc 853e 8d71 133e 54bf aa3d 796e 473e
00000300: 1439 143f 171c 733e c5bd 243e 8554 8a3e
00000310: ed34 8e3d e201 d33d 5ac2 aa3e 015f 223e
00000320: 3570 7f3e 1a4a 5b3e b5af 983d b787 b0bd
00000330: cf80 70bc 9a2b ae3e 4489 b03e afeb 973d
00000340: 62c0 b43d c9de 57be 009d e2bd c221 cb3d
00000350: 31a5 363e b334 033d 2ad5 4c3d 9138 ab3d
00000360: 90f7 9c3b 49ee 933d dbb8 303e 2f91 b43d
00000370: 21a2 0f3e f28d 0f3d 69b5 423e 5f2b 103e
00000380: 6054 083e 47d7 293e 4f51 b13d 9919 6abd
00000390: 0625 563e 1156 883c 6f93 313e ea1d f23d
000003a0: e48a ff3d ec46 0f3d f217 463d 00c8 8ebd
000003b0: 2b0a 803d 798b 073e b785 303e 4a38 b53c
000003c0: 680d 243e 5d37 0a3e 6545 663d bc5e 1e3e
000003d0: 978c 9e3d 9a7a 283b d877 263e fe61 71bd
000003e0: 5913 eb3c 7158 363e 3f51 08bc e3eb acbd
000003f0: 5c49 843c 73f0 8a3c d6d8 67bc b474 ba3c
-0.012268377 -0.05806071 0.06688273 -0.015380147 0.04657678 -0.015616421 -0.03256467 0.04041147
0.02919729 0.021898901 -0.016655063 0.0390518 -0.0033677567 0.024144072 -0.025562001 -0.04407566
-0.0069101653 0.028814116 0.011917021 0.07365735 -0.0012157318 -0.05223222 -0.047902998 0.079717755
0.02469267 -0.006826441 -0.06255945 0.026131824 -0.0018433939 -0.002326119 0.006615046 -0.01674912
-0.036979526 0.0008930858 -0.04080849 -0.005478557 -0.088097416 -0.033350457 0.34750885 -0.12529679
-0.3681377 -0.05379568 -0.022088137 0.122234575 0.05733918 -0.38794526 -0.2006299 0.40430197
-0.60920244 0.14384194 -0.05279636 0.07924903 0.24568062 0.2521319 0.11821295 -0.09984706
-5.026366e-05 -0.11424555 0.014440314 0.2053206 0.09667418 0.1086844 0.101722986 0.15653133
0.043116953 0.19875117 -0.26936778 0.27109954 0.35172927 0.20428519 0.29469734 -0.60706925
-0.010297113 -0.044282015 -0.022909082 -0.048452295 0.010486097 -0.024874894 -0.013329154 0.004932549
-0.0016785708 0.014912149 0.02219641 0.010428611 0.0053937323 -0.013848395 -0.027940439 0.024024732
0.014493641 -0.010438555 -0.021910558 0.019673064 -0.020924404 0.01594119 -0.038435552 -0.0092676375
-0.0020982723 0.037490543 0.0022820155 0.022414481 -0.009719206 0.030482523 0.027841546 0.033024423
0.042398226 0.010884878 -0.004537736 0.0036698102 -0.13915287 0.23010975 0.010905342 -0.30407572
-0.4992286 0.25511357 0.010670538 0.29116207 0.1285733 0.006349697 0.48024282 -0.4118369
0.36413723 0.25492367 0.17166413 0.10260763 0.23066773 0.3390933 0.33444774 0.3172338
0.22218719 0.027351635 0.35130212 0.3300512 0.028275853 0.38658413 0.38343683 0.2706316
0.436217 -0.48511603 0.025206348 -0.49334434 -0.5344438 -0.22988822 0.22148506 -0.41447258
0.0017512976 0.017630141 -0.118105195 0.17222382 0.23590231 -0.11805679 0.33387163 0.32131696
-0.42074353 -0.45711133 -0.6898323 -0.05067111 -0.3338833 0.08518999 -0.36040285 -0.0019471248
0.15459973 -0.40637943 0.2866668 -0.18028222 -0.28652442 -0.24066448 -0.28777495 0.061657168
0.33584005 -0.031179015 -0.010969213 -0.079521894 0.040935405 0.22951274 -0.06318513 0.15774247
0.05316667 -0.06429133 0.019077871 -0.7396696 0.10350185 0.044686873 0.11543675 0.040069602
0.028355768 -0.03658727 0.49221534 0.22271556 0.26169583 0.14398785 0.08337274 0.19475736
0.57899594 0.23741184 0.16088016 0.27017608 0.069436885 0.103030935 0.33351403 0.15856554
0.24945147 0.21414986 0.074553885 -0.086196356 -0.014679148 0.3401764 0.34479725 0.07418
0.088257566 -0.2108108 -0.110651016 0.09918548 0.17836453 0.03203268 0.050007977 0.083603986
0.004790254 0.07223184 0.17258017 0.08816754 0.14026691 0.03504748 0.19014515 0.14079045
0.13313437 0.16586028 0.086580865 -0.057153318 0.20912561 0.016642602 0.17341398 0.11822112
0.12477663 0.034979746 0.04836268 -0.06971741 0.062519394 0.13236798 0.17238508 0.022121567
0.16020739 0.13497682 0.056218524 0.15465826 0.07741659 0.0025707842 0.16256654 -0.058931343
0.02869575 0.17807175 -0.008320152 -0.08443429 0.016148262 0.016960358 -0.014150819 0.022760727

conv.4.bias f4 [64]
00000000: 4358 4fbe b9a4 f1bd a48f afbe 9407 96be
00000010: 7433 fabd b63e 79be 50b7 acbd 1d12 10be
00000020: 6bed b1be fa7c 1abd 4bc6 1bbe 3d1b 3dbd
00000030: c467 3dbd d5b2 dbbe 107e d9be 86c2 b0be
00000040: bd42 60be 5e04 0c3e 2598 82bd d470 69be
00000050: 49d5 a6be bd8a 29be ee3f ef3e 9a48 59be
00000060: abe2 93be 9306 87be d1d0 a3be d71c 69be
00000070: b2f6 9abe 9301 bfbe 4ebb c4be de1c 2d3e
00000080: 5666 9ebe d8cc a93e a432 3fbe bed4 aabe
00000090: 089b a1be b50a 853e b42c 38be 48ba 43be
000000a0: b946 b5be 5b5e 10bf 0d6d 51bd 4358 ccbe
000000b0: 8891 95bd 4da0 94bb e1be 8c3e aa74 ecbe
000000c0: c1d1 eabd dd20 8bbe 7c6b 7dbe 6ae8 6fbe
000000d0: 1651 42bc 107b b1bd 74ba 8ebe 0694 e8be
000000e0: 5ad4 9ebe ca43 8abe 8f34 7dbe c231 353e
000000f0: aefa c7be 3f4e d2bc 4dd6 a2be 7366 36be
-0.20248513 -0.117989965 -0.34289277 -0.29302657 -0.12216845 -0.24340329 -0.084334016 -0.1406941
-0.34751448 -0.037716843 -0.15212362 -0.046168555 -0.046241537 -0.42909876 -0.4247899 -0.3452341
-0.21900459 0.13673541 -0.063766755 -0.22796947 -0.325846 -0.1655683 0.46728462 -0.21219102
-0.2888387 -0.26372203 -0.31995252 -0.22764908 -0.3026634 -0.3730589 -0.38424152 0.16905543
-0.3093745 0.33164096 -0.18671662 -0.33365434 -0.31563592 0.2598473 -0.17985803 -0.1911403
-0.3540552 -0.56393975 -0.05112939 -0.39911088 -0.073031485 -0.004535711 0.2748938 -0.46182758
-0.11465789 -0.2717351 -0.24748033 -0.23428503 -0.011860153 -0.086660504 -0.27876627 -0.45425433
-0.31021386 -0.27004844 -0.24727081 0.17694762 -0.3905844 -0.025672076 -0.31804124 -0.17812519

fc.1.weight f4 [64, 1600]
00000000: 3bfb b53b beab f8ba 67ab 89bc 759e 8f3c
00000010: 5664 d73a 1a45 c6bc e919 09bc 7243 1d3c
00000020: 5029 a23c eb63 30bb cb89 b3bc 9793 993c
00000030: cce3 11bb f2bc aebc eaab 7fbc b9d5 c8bc
00000040: d379 45bc 37b6 a5bb cd5b a0bc 2ef5 cabb
00000050: 9125 8abc 40a2 29bc 50f4 3b3a e13d 57bc
00000060: 2577 02bc 96d3 b2bb bc30 8e3c c64b 433c
00000070: 5fb1 893c ae5b 223c 9fe8 ae3c e156 39bc
00000080: c2cf a83c 0475 89bc 7efd 383c 464c dc3b
00000090: f593 8ebc 8fee be3b 0163 47bc 5b7f 263c
000000a0: ff4e b0bc d1d5 f3bb 5380 b73c 0503 bfbc
000000b0: ce4f 1c3c 1b53 59bc ee76 9d3b ca3e 0ebb
000000c0: 1246 e6bb f4dc 943c 0e10 a13c 04db 9a3c
000000d0: 6c25 65bc 6e54 d23c cfc8 443b 2006 8bbc
000000e0: b9ae c2bc 78a0 33bc 8f47 ea3c 3eb8 9dbc
000000f0: 5db8 3e3c b5d7 1ebc fc0a b63c c3b0 f3bb
00000100: 1ecd 96bc a5f0 2a3c baf8 83bc be88 07bc
00000110: 800f 8bbc ab1c b2bb ae01 f23a 622e a43c
00000120: 803f f2bb fa20 f73c 4ec0 b13c 4da8 ed3b
00000130: c14d 5f3c 12bb 4d3b 3fa8 04bb bdfd 773b
00000140: 654c 3abc 966f a33c 81dd 1bbc 6f98 aabb
00000150: 8e09 e8bb 60ed b1bc 3c55 21ba 3845 a4bc
00000160: 6156 043c 33ec 553b 5827 aebc 0f0b 373c
00000170: c790 b8bc 22f9 1b3c 956d 733b a8de 2c3c
00000180: b791 b2bc 0b2e 53ba 73cb eeba 625e db3b
00000190: 12db 213c ac84 c4bb 2dca 1ebc b579 c03b
000001a0: 60f1 87bb 5309 5dbc 82a9 5a3c d0c5 9d3b
000001b0: 8744 ae3c 61b5 b03b c9d7 e0bb 150c a83b
000001c0: 4cdc eebb a6e5 b23c 2beb a83c 137b a73c
000001d0: c97f ddbc 7a69 283b 0444 043c fd71 cfbc
000001e0: a808 eebb a70d ed38 8f5b 47bc c5f0 9a3b
000001f0: da52 9ebc 03b4 93bb 0ac1 5c3c 5eb9 e3bc
00000200: ba6b 08bd e77b cbbc eddb b13b d0ae 28bc
00000210: b133 cc3b 4362 9f3c 475e a3bc 0baf 423c
00000220: 3afc 92bc f66e 98bb 902e 82bc fe06 b2bb
00000230: e8ba 0a3c 9d8c 973c 66d0 af3c 07cd 933b
00000240: 85de 9b3b cd26 08bb 0dc7 c7bc d5af 86bc
00000250: 098d 7f3a 8c00 31bc 864b 06bd 0801 953b
00000260: 1cae 08bb 0872 77bc 1428 3cbc febd c1bc
00000270: ca5f 30bd 2cf0 90bc c1a8 27bd b578 1abd
00000280: ab86 b3bc 1c9d 1bbd b097 b9bc ebcd 8cbc
00000290: fe7e 973a b936 a7bc 8e4b 8e3b 694d debc
000002a0: 2f0b 02bd 494e 16bd 9890 38bc 5514 09bc
000002b0: a10c 0bbd 73c5 0cbd 938b 343b d13b 9f3c
000002c0: 80ce eb3b 8187 c8bb 9838 d4bc 7e3e 573c
000002d0: e2f5 b8bc 598d a3bc d05f 84bb bf01 00bd
000002e0: 705a fc3a c2f7 6b3c 37e2 803c 447f 043c
000002f0: b18f a6bc 1e18 8b3a eb72 9dbb 3229 ad3c
00000300: e26b e7bc a001 30bc 2769 cfbc d18a f03b
00000310: fb3b 793c 92b6 ea3b 9818 1a3b e76f a93b
00000320: 985b 073c ca59 3f3c acd4 abbc c6db 76bc
00000330: 8893 8dbc 69ec 61bb 646d 3f3c 711c e5bc
00000340: 37e5 353c 7062 afbb b114 c43c 64c7 6c3c
00000350: 0ac8 e1bb 7ca1 95bc a526 09bc 712b 443c
00000360: 89c5 5f3c 4bf1 4d3c 7385 863b 79bf 8d3c
00000370: b1a9 afbc 1259 5abc 0c3f 91bb e604 85bc
00000380: ef64 bdbc 3255 043a c678 1dbc c427 403c
00000390: 9d3b a83b c6a0 58bb 8a45 f139 873d 91bc
000003a0: fbc4 94ba 3273 57bc fd02 f2bb 4673 b03c
000003b0: 7894 5fbc 698e 863b 5d09 1dbc 7c25 883a
000003c0: 8cea 77bc 318f 28bb 55f3 84bb c507 51bc
000003d0: 6985 d33a ee69 46bc 03f8 c7b9 fd8e 013c
000003e0: f925 d1bb 347a 3c3c 325d cc3b 2875 053c
000003f0: 3fdf 0fbc 897a 253c f27e f639 3d9a 3cbc
0.0055536306 -0.0018972082 -0.016805364 0.017531613 0.0016433101 -0.024202872 -0.008367994 0.0095986
0.01979509 -0.0026915025 -0.02191629 0.018747134 -0.0022261022 -0.02133033 -0.015604952 -0.024515973
-0.012052971 -0.005057122 -0.019575024 -0.0061937785 -0.016863616 -0.010353625 0.0007169889 -0.013137312
-0.007962977 -0.005457352 0.017357223 0.011919921 0.01680821 0.009909553 0.021351157 -0.011312217
0.02060688 -0.01677943 0.011290906 0.0067229597 -0.017404536 0.0058267782 -0.0121696 0.0101622
-0.021522043 -0.0074412604 0.022400057 -0.02331687 0.009540511 -0.013264443 0.0048054373 -0.0021704906
-0.007027396 0.018171765 0.019660976 0.018903263 -0.013985973 0.025675025 0.0030026918 -0.016970694
-0.023764955 -0.010963552 0.028598575 -0.019252893 0.011640635 -0.009694983 0.022222035 -0.007436843
-0.018408354 0.010433351 -0.016109813 -0.008272348 -0.016975164 -0.0054355464 0.0018463635 0.020041648
-0.0073928237 0.030167092 0.021698143 0.007252729 0.013629378 0.003139202 -0.0020241884 0.0037840449
-0.011370753 0.01995067 -0.00951326 -0.00520616 -0.007081217 -0.021719635 -0.00061543635 -0.020052537
0.008077235 0.0032642006 -0.021258995 0.01117207 -0.022529973 0.009519847 0.0037144173 0.010551132
-0.021797998 -0.0008055872 -0.0018218592 0.006694601 0.009878891 -0.005997261 -0.009691757 0.0058738836
-0.004148647 -0.013490993 0.013346078 0.004814841 0.02127291 0.005392716 -0.006861661 0.0051283934
-0.007289445 0.02183802 0.02061995 0.020444429 -0.027038472 0.0025697635 0.008072857 -0.025322909
-0.0072642155 0.000113035836 -0.012167825 0.004728409 -0.019326616 -0.004507543 0.0134737585 -0.02779835
-0.03330586 -0.024839355 0.0054278285 -0.010295585 0.006231748 0.019456035 -0.019942416 0.011882554
-0.017942537 -0.0046518994 -0.015891343 -0.0054329624 0.0084674135 0.018499667 0.021461677 0.004510525
0.004756751 -0.002077508 -0.024386907 -0.016441265 0.0009748494 -0.010803353 -0.03278687 0.004547242
-0.002085573 -0.015102871 -0.011484165 -0.023650166 -0.0430601 -0.017692648 -0.04093242 -0.03771277
-0.0219148 -0.037991628 -0.022655338 -0.017188033 0.0011558232 -0.020411836 0.004342503 -0.027136521
-0.031748947 -0.036695752 -0.011264943 -0.008366664 -0.03394759 -0.03436799 0.0027549013 0.019437702
0.0071962476 -0.006119669 -0.025905892 0.013137458 -0.022578184 -0.01996486 -0.004039742 -0.031251665
0.0019253027 0.014402332 0.015732868 0.008086983 -0.02033219 0.0010612046 -0.004804959 0.021137808
-0.028249685 -0.010742575 -0.025318695 0.007340767 0.015212054 0.0071628774 0.0023513194 0.0051708105
0.008261584 0.011679122 -0.020975433 -0.0150670465 -0.017282262 -0.0034473187 0.011683796 -0.027967663
0.011102012 -0.005352311 0.023935648 0.014451835 -0.0068903016 -0.018265478 -0.00837103 0.011973248
0.013657936 0.012569736 0.004105264 0.017303215 -0.02144322 -0.0133269 -0.0044325646 -0.016237687
-0.023119418 0.00050480955 -0.009611314 0.011728231 0.0051340596 -0.0033054813 0.00046018913 -0.017729534
-0.0011350209 -0.013150023 -0.00738561 0.021539342 -0.013646238 0.004106332 -0.009584752 0.0010387148
-0.015131604 -0.0025720114 -0.0040573278 -0.0127582 0.0016137782 -0.012110217 -0.0003814102 0.007907626
-0.0063827005 0.011503745 0.0062366957 0.008145608 -0.008781253 0.010100015 0.00047015358 -0.011511383

fc.1.bias f4 [64]
00000000: c80c 4a3c 3d16 243e 272c 0abd 0280 fa3b
00000010: 0302 003f b0e7 803e 8578 2cbd 99f7 68bc
00000020: f25e 633c 8af4 e13e 38a0 f33e 09ff 8e3e
00000030: 5085 ff3c 8384 b43d c180 223e 9b2b 2c3f
00000040: 8ca6 14b9 3b8e 173c f067 39bd f7a5 debc
00000050: bbaa 343b e4d5 2b3b 912e c6bc f70b 993e
00000060: 7d78 e03b f984 b5bc 2e3f eebc 38f4 4c3d
00000070: 88e8 293e 5560 0e3e 6d7b 7cb9 d85b e7bc
00000080: 5808 bf3b 210c 073f d7ae 28bc 0d23 9b3e
00000090: 1c28 8cbc 35fe 183f df04 133d 6e35 fd3c
000000a0: 6435 efbc 47f3 6e3e f408 53ba 6cb4 5e3e
000000b0: d175 633d 6562 16bc f919 8b3d 1297 8e3c
000000c0: 1968 adbc 51c8 fa3c 0f84 243d 60db 61ba
000000d0: c715 ad3e 47ff b93e 00b6 0abb 5e8e 7b3c
000000e0: 7343 95bc 2b67 26bd f518 4ebd 10b7 ce3e
000000f0: b0ab b3bb 01b6 b8bc 7759 693e 16c6 853e
0.012332149 0.16024108 -0.033733513 0.0076446543 0.5000307 0.25176764 -0.042107124 -0.014219188
0.013877617 0.4413188 0.47583175 0.2792895 0.031191498 0.08814337 0.15869428 0.67254037
-0.00014176423 0.009250219 -0.04526514 -0.027178748 0.0027567584 0.0026220018 -0.024192126 0.2989194
0.006850301 -0.022158133 -0.02908286 0.050037593 0.1659261 0.13903935 -0.00024078572 -0.028242037
0.005829852 0.5275288 -0.010295591 0.3030018 -0.01710897 0.5976289 0.035893317 0.030909266
-0.029200263 0.2333499 -0.00080503454 0.21748513 0.05553228 -0.0091787325 0.06792063 0.01740602
-0.021167802 0.030613096 0.040165003 -0.0008615758 0.33805677 0.36327574 -0.002116561 0.015353767
-0.018220639 -0.040625732 -0.05031677 0.4037404 -0.005483113 -0.022547724 0.22788034 0.2612769

fc.3.weight f4 [4, 64]
00000000: 9b01 843c 268f 3b3e d04c 3d3c 6212 9c3d
00000010: d81e 92be 0905 0b3e db15 bc3d fc19 bebd
00000020: 69f0 b43d 537f 203d 9024 183b 7c6d 6cbf
00000030: f26a 073e 5e66 173d a3da c9bf be4d cf3e
00000040: 198f 3c3d 96b1 78be fc9f cf3d 1e79 fe3c
00000050: 6000 153e c1b5 943c 2eee 7bbd de93 22bf
00000060: 48da 3dbc 8405 0fbc 128f d5bd eae0 47bd
00000070: 05c3 fbba 78cb 4c3d c7ed 7b3d eb3f 583c
00000080: 75d5 823d cd0f 1ebf 05cc c7bd 21c2 9d3d
00000090: 204c 293d a22f 34be e817 0bbe a883 983d
000000a0: c20e 1f3d 085d 2dbd ed25 2bbd 837f e03d
000000b0: c77d 1cbe ac47 b0be a93c 6a3e 853f 133e
000000c0: ef90 2b3d 52f2 323e cbe6 8b3e 8d80 35bd
000000d0: 4c20 93bf 8f60 16bd c8aa ddbc a75f 463e
000000e0: 250a e4bc 9f88 7e3d a099 aabd ad38 5dbd
000000f0: 23a0 cd3c b8b7 84bd 670f f93d d152 bc3d
00000100: 2d25 2abc 45d7 0ebf 2175 da3d 3c1c a9bd
00000110: ccaf 34bf 921b 473e 0224 4fbd 25c9 903c
00000120: bdba 12bd 3390 033d a0d9 7fbf d559 57bd
00000130: e3d5 743e 4499 94bf 91cc 803d de98 ab3e
00000140: b26f 80bc ec37 05be d746 dc3c f8cc 603d
00000150: a595 c13d c0da 923d a3e5 f43d 0135 fb3b
00000160: d85e 1f3d c85a aebd 7094 a93d 3811 66bc
00000170: 5c84 abbf c6d6 4fbe 2ba0 d03d 34b8 bcbd
00000180: 3cdf 523d 2f76 333c 3401 ea3c d71d 45bd
00000190: f76a 54bd fd2a c7bd c62f 223e 9b50 c83d
000001a0: f9d9 debd 6251 e6bc 72a3 fa3a c9fd 893d
000001b0: 4e40 373e a565 ebbe 11d2 32bf 79c6 a2bd
000001c0: 064a 6ebd ed49 6b3e 03c5 6c3e 60c4 7fbd
000001d0: 9cbb 5f3d 8eec c6bd 12a3 a8bd 8a73 d2bb
000001e0: cb4a c4bc 7001 d6bb 0f53 58bd 3f49 4b3d
000001f0: 111a 1f3d beda d63d 9e38 f63d 7872 093d
00000200: 81e1 c7bc f529 8cbe ba50 823d 8823 9f3d
00000210: 3a2d d4be db21 d33e 4b88 a53d c773 353c
00000220: 6c7b e93d f3b3 2cbf 5519 3c3b e925 973d
00000230: 2e31 843e fa66 9f3d 459a e13c 9e88 973e
00000240: 7e6a 673d 0549 b7bd 50d3 af3d 3404 c83d
00000250: e185 8fbd d9f2 3b3c 2772 963d fac4 da3d
00000260: a6ed 863d be73 6b3c 4b2b d63c 1572 1d40
00000270: c20e d6bb 309f cf3d 252c cc3d 866e a9bd
00000280: d90e d2bd ca2e 343c 8fd2 3d3d 59f2 aabf
00000290: 7680 72bd e212 d4bd 2395 363e 753a 8bbf
000002a0: f07e c43d 303a 8ebd 3002 223d a50c f83d
000002b0: 2899 703d 8e89 5d3e a999 a13e b210 213e
000002c0: 8f18 18bc 603d c2be 178f 233e 88f4 3f3d
000002d0: f1be 23bd 669e dfbd 481b b8bc ee08 cd3d
000002e0: a759 c1bd bff0 b83d 83b4 363d afb3 a0bf
000002f0: 8e60 453d 44d3 473c 485c 1a3e dc4a 86be
00000300: bcb1 1dbc ffc4 53bd 650c 21bd ea2c 5cbd
00000310: bda3 c13c 0777 ce3d cbe7 1cbd e268 9d3d
00000320: e615 a7bd af7c 10be b220 8f3c 897a aebd
00000330: 64eb a0ba 8e6b 9a3d 2cbf 783d be16 b53e
00000340: 4ab4 43bd 1e11 94be fffc 7c3b 5acd e1bd
00000350: 4763 0bbe 1cf3 75bd e1a5 90bd 2888 ccbe
00000360: 329d 143d 88b7 ecbc 0532 4fbd ff9c 5fbc
00000370: 631a afbc 8492 453e 914d d9bd 9eeb ea3d
00000380: 8a21 513e 69e8 83bc 41dc 3f3c 1d64 02bd
00000390: 2d74 99bd 24ef 25bf bd76 193d 6fcf c43d
000003a0: 3066 7cbd 671c babf 3621 a33d 63a3 ebbf
000003b0: a1bf 443e 0168 903e d11b 673e fcad e6bd
000003c0: 8fda f53d 7788 a43e 6cbb 1bbf 0b7b 9abc
000003d0: 3bb7 8d3d 1f06 7bbf a4df f43c 8b31 9fbd
000003e0: 0235 dcbd ee80 df3d ea63 a63b 88ee d93c
000003f0: 7550 df3d 0467 1bbd a039 acbf cf06 363d
0.016114047 0.18316326 0.011553958 0.07620694 -0.28539157 0.1357614 0.09183856 -0.092823
0.08834917 0.039183926 0.0023215152 -0.9235456 0.1322439 0.03696286 -1.5769848 0.40489
0.046034906 -0.24286494 0.101379365 0.031063613 0.14550924 0.018153073 -0.061506443 -0.6350688
-0.011587687 -0.008729342 -0.10427679 -0.04879848 -0.0019207901 0.04999873 0.06150606 0.013198833
0.0638837 -0.6174286 -0.097557105 0.07703043 0.041332364 -0.17596295 -0.13583338 0.074469864
0.038832434 -0.04232505 -0.041784216 0.10961821 -0.15282355 -0.3442968 0.22874703 0.143797
0.041886266 0.1747525 0.2732452 -0.04431205 -1.1494231 -0.03671318 -0.027058974 0.19372426
-0.027836869 0.06214201 -0.08330083 -0.05400913 0.025100773 -0.06480354 0.12161141 0.091954835
-0.01038484 -0.55797225 0.10666872 -0.082573384 -0.70580745 0.19444111 -0.05057145 0.017674038
-0.03582262 0.03211994 -0.99941444 -0.052575905 0.23909716 -1.1609273 0.06289018 0.33515066
-0.01567826 -0.13009614 0.026889248 0.054882973 0.094523706 0.071706295 0.11957862 0.0076662307
0.03890881 -0.08513409 0.08280265 -0.014042191 -1.3399768 -0.20296773 0.101867996 -0.092148215
0.051482424 0.01095347 0.028565027 -0.04812416 -0.051859822 -0.09724996 0.15838537 0.09780999
-0.10881419 -0.028114978 0.0019122197 0.06737859 0.17895624 -0.45975986 -0.69851786 -0.07948012
-0.058176063 0.22977419 0.23122029 -0.062443137 0.054622278 -0.09713088 -0.08234228 -0.0064224647
-0.023961445 -0.006530933 -0.052813586 0.0496304 0.03884322 0.104909405 0.120225176 0.03355643
-0.02439952 -0.2737576 0.063630536 0.07770449 -0.41440755 0.41236767 0.080826364 0.011074967
0.11400494 -0.6746208 0.0028701623 0.07380278 0.2581877 0.07783313 0.027539382 0.29596418
0.056498043 -0.08949474 0.085852265 0.09766427 -0.07007957 0.011471474 0.073459916 0.106821015
0.065882966 0.014370857 0.02614369 2.460088 -0.006532521 0.101377845 0.099693574 -0.08273034
-0.10256738 0.0109974835 0.046343382 -1.3355209 -0.05920454 -0.10355164 0.17830329 -1.0877215
0.09594524 -0.06944692 0.039552867 0.12111787 0.05873981 0.21634504 0.31562546 0.15729025
-0.009283199 -0.3793745 0.15972553 0.046864063 -0.039977018 -0.10918884 -0.022473946 0.10011469
-0.09440928 0.09030294 0.044605743 -1.2554835 0.048187785 0.012196366 0.15074265 -0.26228988
-0.009624895 -0.051701542 -0.03931846 -0.05375377 0.023637647 0.100812964 -0.038306993 0.076860204
-0.08158474 -0.14110063 0.017471645 -0.085194655 -0.0012277183 0.07540046 0.06072919 0.35368913
-0.04777936 -0.2891931 0.0038602946 -0.11025496 -0.1361209 -0.0600463 -0.07062889 -0.3994763
0.036282726 -0.028896108 -0.05058481 -0.013648271 -0.021374887 0.19294173 -0.10610498 0.11470722
0.2042295 -0.016102033 0.0117102275 -0.031833757 -0.07492862 -0.64818025 0.037466753 0.09609877
-0.06162089 -1.4539918 0.07965319 -1.8409237 0.19213726 0.2820435 0.22569205 -0.11263654
0.12004577 0.32135364 -0.6083286 -0.0188575 0.06919714 -0.98056215 0.029891796 -0.077731214
-0.10752298 0.10913263 0.0050778287 0.026602998 0.10904018 -0.03794004 -1.3455086 0.044440087

fc.3.bias f4 [4]
00000000: 96e8 ed3e cf3b fb3e b1bf f93e 62e0 f53e
0.4646651 0.49069068 0.4877906 0.48022753
