models/v17.1/model_167000_target.pt (torch, 729952 bytes, 10 tensors)

conv.0.weight f4 [16, 2, 3, 3]
000000 fa 0a 36 3e 35 71 3d bb 3e e0 a2 bd cf 51 8e 3c
       0.17777625 -0.0028906588 -0.07952927 0.017372994
000010 a3 69 88 3c e9 ee a1 bd 07 fd 62 3a 85 f8 4f bd
       0.016651934 -0.079068966 0.000865892 -0.050774116
000020 69 ab f1 3d e2 c1 62 be 27 25 48 3d 37 0a b1 3d
       0.11800272 -0.22144273 0.048863556 0.086445265
000030 db 22 cf 3c 3b 56 4c bd 11 29 9e 3d 88 97 9b 3d
       0.025285175 -0.049886923 0.077226765 0.07597262
000040 3b 37 b8 3d 89 f6 5d bd 12 7c fd 3d 5f c1 88 3e
       0.089949094 -0.054190192 0.1237718 0.2671003
000050 43 fc 1e bd 85 57 2a bd b5 bc 7e be bc 45 03 3e
       -0.038814794 -0.04158737 -0.24876674 0.1281957
000060 73 e4 2f be 02 0c 5b be 23 bb 16 be 03 22 31 bd
       -0.1717699 -0.213913 -0.14719824 -0.043245327
000070 19 77 01 bd 25 36 28 3c 4b 49 c2 3d d0 3a af be
       -0.03160772 0.010266815 0.09486636 -0.34224558
000080 5c 0e b3 3c 60 26 5c 3e 87 20 b0 3d ec e2 20 3e
       0.021857433 0.21499014 0.08599954 0.15711564
000090 72 00 83 3d 8e bc 9a 3e 94 08 13 bc 96 8c d5 3a
       0.06396569 0.3022198 -0.008974213 0.0016292508
0000a0 00 f5 c5 3d 48 76 6d 3e 05 a1 1c 3e c0 ca d2 3e
       0.09665871 0.23189652 0.15295799 0.4117031
0000b0 66 7b 23 3d 52 21 8a bd ef fd 95 be ec 9d 1e 3d
       0.039912604 -0.067446366 -0.29295298 0.038724825
0000c0 d3 9a 05 3c d4 0d 8a bd 78 71 81 be 6e d5 1c be
       0.008154589 -0.06740919 -0.25281882 -0.15315792
0000d0 e5 cc ea be d7 dd da bc f1 2c 73 3c f8 07 96 bc
       -0.45859447 -0.02671711 0.014842258 -0.018314347
0000e0 c6 68 6e 3d 5b a4 25 bd c9 60 1a 3c 9b 48 9d bf
       0.05820539 -0.040439945 0.009422489 -1.2287782
0000f0 88 1f b1 3c 98 b9 92 bd a6 de b2 3c a7 75 ab bc
       0.02162148 -0.071643054 0.021834683 -0.020930124
000100 60 4c 12 3c 22 77 91 bd aa fb cb 3c b1 08 25 bc
       0.008929342 -0.07102801 0.024900276 -0.010072873
000110 db e9 ce 3d 01 1b c1 bb fb 68 2a 3d bc 15 1b bc
       0.10103198 -0.0058931117 0.041604023 -0.009465631
000120 71 1d 95 3c e0 c7 e3 bd 6d e8 ee bd 6c 5a 8c bd
       0.018202515 -0.111221075 -0.116654254 -0.06853184
000130 09 2f 0c be ec 61 1f 3f 3a 46 f3 3b e7 b3 7b bb
       -0.13689817 0.6225879 0.007424143 -0.003840679
000140 36 bf 1d be a5 42 a6 bc fe a0 92 3d 1d d9 03 3e
       -0.15404972 -0.02029545 0.07159613 0.12875791
000150 e4 22 1f 3d 64 81 08 3e 1c b2 9b 3e 1d f0 08 bb
       0.038851634 0.13330609 0.30409324 -0.0020895072
000160 5e 97 06 bc 1f a4 e8 3d 59 05 e9 3c dc e4 82 bd
       -0.0082148 0.113594286 0.028444933 -0.06391308
000170 bc 75 f4 3e a8 51 3a bd e8 0d 20 bf 80 6b 03 bd
       0.47746074 -0.04548803 -0.6252122 -0.032084942
000180 ba 09 09 3c 13 cb 07 be 4e 50 ae bd 4d 25 0c bd
       0.008364135 -0.1326106 -0.08511411 -0.03421526
000190 60 d4 42 3d 0e 23 3b 3b b0 48 3c 3d 93 89 90 bc
       0.047565818 0.002855483 0.045967758 -0.017643725
0001a0 f5 33 91 3c 70 43 a6 bc e3 84 0f 3e af 3d 96 3d
       0.01772497 -0.020295829 0.14015536 0.07335984
0001b0 23 b3 87 be de 04 9e be 0f 08 b5 bc 0c ae 9a 3c
       -0.26503858 -0.30863088 -0.02209857 0.01888182
0001c0 48 f4 25 3c a0 9b 3f bf 4f 94 bc be ef 13 c9 be
       0.010129042 -0.7484684 -0.368319 -0.3927302
0001d0 ae a9 86 bd 50 48 77 3e 86 98 aa 3e bf df 7e ba
       -0.065753326 0.24148679 0.3331949 -0.0009722672
0001e0 f9 cb 35 bc 56 1f ec 3c fc 83 06 3f a6 b0 5e 3e
       -0.011095994 0.028823536 0.5254514 0.21747074
0001f0 f0 10 af 3e cc 2e 42 3d b1 09 e8 be e1 33 0b bf
       0.3419261 0.04740791 -0.45319894 -0.54376036
000200 d5 ae 03 3d 90 54 05 be fd 2c e5 3d 1a 43 ed 3d
       0.032149155 -0.1302054 0.111902215 0.11585064
000210 5c 17 8c bf 85 97 5a bd 79 32 57 bd d2 59 6a 3e
       -1.0944629 -0.053367157 -0.05253837 0.22885826
000220 8f a4 80 3e b0 03 57 bd e1 05 25 3c c0 f9 c8 bc
       0.25125548 -0.05249375 0.010072202 -0.024533153
000230 bf 8c 96 3d 13 e9 a0 3e 47 b2 bf 3d dd c8 6a 3d
       0.07351064 0.31427822 0.093601756 0.057320464
000240 8e 45 55 3d cf 7a 6f 3d 43 7e f5 3b e6 2b 81 3d
       0.052068286 0.05846673 0.007491858 0.06307201
000250 43 7c 6b 3e 77 19 20 3c 23 1d a4 be 0e ca fa be
       0.22996621 0.009771696 -0.3205348 -0.4898228
000260 27 e0 ef be 37 a1 89 bd c5 54 c8 3d 5b 1e 03 3d
       -0.46850702 -0.067202024 0.097817935 0.03201137
000270 ad a8 2b 3d 34 d2 90 3d 1f be 06 3e 5e a9 0f be
       0.04190891 0.07071343 0.13158463 -0.14029452
000280 30 a7 6f 3e a9 47 bd bb 2f 15 47 bb fd a1 30 bd
       0.2340362 -0.005776365 -0.0030377617 -0.043123234
000290 56 4b 17 3d 48 e0 a5 3c e8 a1 84 bd 72 bb eb 3e
       0.03693708 0.020248547 -0.06476194 0.46041447
0002a0 7b 34 45 bc 25 0f 01 be 47 3d b7 bd 4f ac d8 bb
       -0.012036438 -0.12603433 -0.089472346 -0.0066123377
0002b0 8a 62 08 3d 35 74 a3 bc a7 6c 37 bc d2 15 99 3d
       0.0332971 -0.019952873 -0.011195338 0.07474865
0002c0 db 81 fd be dc ce 57 3c d3 f8 fd 3d 35 52 8c 3d
       -0.49513134 0.013171878 0.12400975 0.06851617
0002d0 83 50 5a 3c 87 05 af bc 07 73 7b 39 c1 b8 94 bd
       0.01332486 -0.02136494 0.00023980076 -0.072618015
0002e0 d3 2e 11 3f a0 a8 b4 bd 87 6f c8 3c 7c a8 70 bd
       0.56712073 -0.08821225 0.024467243 -0.05875443
0002f0 32 07 59 3d 03 0a 83 bc fb 4d a6 3c 87 60 11 3b
       0.052985378 -0.015995985 0.020300856 0.002218278
000300 e1 b6 a8 3d 2d 0f c5 3e 1e 7b c3 3d a8 5a aa 3b
       0.082380064 0.3848814 0.09544967 0.0051987953
000310 70 43 7c 3d 9a 41 57 bd 30 6f 84 bc 48 c6 43 3d
       0.06158775 -0.052552797 -0.0161663 0.047796518
000320 a5 a3 89 bd d8 84 0e 3c 1a 94 54 3f 66 a5 d5 3b
       -0.06720666 0.008698665 0.83038485 0.006519961
000330 74 5b 90 bd c5 5a fb 3c 5b 56 9a bd 60 83 d4 3c
       -0.07048693 0.03068293 -0.07536002 0.02594155
000340 d6 ab 7f bd 2d a0 6a 3d a8 65 ff bc ea 26 97 bd
       -0.062419735 0.05728166 -0.031176403 -0.07380469
000350 3d 66 2e bd fc 30 8d 3d 1b ba 23 bd c5 18 99 3d
       -0.04257797 0.06894109 -0.039972406 0.074754275
000360 d7 2f ab bd dd ec 1b be dd b9 a5 bd a2 75 98 bd
       -0.08358734 -0.15227075 -0.08092091 -0.07444312
000370 58 7e 27 c0 6d b6 96 3b 0c e6 d0 bd 66 c8 e7 bd
       -2.6170864 0.0045993836 -0.10200128 -0.1131752
000380 b7 a4 0a be d2 67 d5 3d db 5d d0 3d 65 1c ba 3d
       -0.13539396 0.10420193 0.101741515 0.09087447
000390 01 9a 68 3d c7 21 1c 3f be ef 94 bd 3c 65 08 3e
       0.056787495 0.6098904 -0.0727229 0.13319868
0003a0 a3 92 17 3d 4f 13 22 3e 8e 9c 28 bd 90 35 7d bd
       0.037005078 0.15827678 -0.041164927 -0.06181866
0003b0 05 02 aa bd 20 c2 83 bd b2 e5 ba be 24 74 6b bf
       -0.083011664 -0.06433511 -0.3650337 -0.9197409
0003c0 04 70 32 3e be 72 ea bd e8 0b a4 bd ec 48 be 3c
       0.17425543 -0.114476666 -0.080100834 0.023228131
0003d0 d9 ef 88 3d b8 2b 8b 3c 46 63 e7 bc da 9a 9f 3d
       0.06686372 0.01698862 -0.02824558 0.077932075
0003e0 ca 31 0c 3f d3 cf d1 3d 86 6e 0d 3e e4 91 a5 3d
       0.5476347 0.102447174 0.13811693 0.08084467
0003f0 69 ee 0c bf 4c ec 0f bf a4 e8 70 bf 88 53 b5 bd
       -0.55051285 -0.56219935 -0.9410498 -0.08853823

conv.0.bias f4 [16]
000000 aa 54 d2 bd 68 b4 8f be 3e 8e 0c be 5e 7e 0b 3f
       -0.10270055 -0.28067327 -0.13726136 0.54489696
000010 46 56 15 bf d9 70 89 be f2 a6 ff bb 44 8e 3e be
       -0.5833477 -0.26843908 -0.007801884 -0.18608958
000020 d4 7e c9 be 32 8a 93 bd 94 25 2e bf 1f e1 d6 be
       -0.39354575 -0.07204093 -0.6802609 -0.4196863
000030 13 31 9c 3e 94 cb 7f be 1a af ac bc 0b ec 1f be
       0.3050619 -0.24980003 -0.021079589 -0.15617387

conv.2.weight f4 [32, 16, 3, 3]
000000 be e0 88 bd 31 ae 6b 3c 4d 59 1d bd 48 f5 88 bc
       -0.06683491 0.014384792 -0.038415242 -0.016718522
000010 86 b4 8f bd a7 b6 a7 bc 9d 04 a8 3d 40 32 ed bc
       -0.07016854 -0.020472838 0.08204005 -0.028954625
000020 d3 1f c6 bd 07 7e 8e 3d 45 d4 d1 3d 64 92 ad 3d
       -0.09674039 0.069576316 0.10245565 0.084751874
000030 78 57 10 3e 5a a2 de 3d 7e 92 fc 3c ac 40 48 3d
       0.14095867 0.1087081 0.030831572 0.0488898
000040 14 ee 20 bd 6d 16 2e bd f1 ba 33 3e a0 08 ef bc
       -0.03928955 -0.042501856 0.17551781 -0.029178917
000050 94 47 43 bd ff 2e 03 bd 40 c6 c5 bb 26 74 67 be
       -0.047675684 -0.03202724 -0.006035596 -0.22602901
000060 6b 4e fa bd 67 2f 79 be a4 f9 41 be f9 69 5c 3c
       -0.12221988 -0.24334489 -0.18942887 0.013453
000070 05 d1 1c bd 58 b4 09 be 80 84 e9 3b 46 c9 8f bd
       -0.038285274 -0.13447702 0.007126391 -0.07020812
000080 78 02 9d bd 3e 72 47 3d 76 30 f2 bd a0 c1 b3 be
       -0.076664865 0.048692934 -0.118256494 -0.35108662
000090 5c 8c 93 3d 37 f6 e7 3d 6d 08 91 be 70 c7 12 be
       0.07204506 0.11326259 -0.2832674 -0.14333892
0000a0 8e 95 25 be a6 41 ab be aa 7e eb 3d b7 93 f7 bd
       -0.16170332 -0.33448523 0.11498769 -0.12088721
0000b0 72 86 37 be 6f 45 2d 3d 25 70 d9 3c 4a c8 b5 bd
       -0.1792238 0.042302545 0.026542732 -0.08876093
0000c0 d6 5e 25 3e e9 30 b7 3d 77 e5 83 be 44 38 a3 3d
       0.16149458 0.08944876 -0.25761005 0.07969716
0000d0 6c b3 8f 3d f1 ce 02 be 0f 4b 35 3d 1b 6d 3a 3e
       0.07016644 -0.12774254 0.044261035 0.18205683
0000e0 87 5f 5e 3c 9a f6 1e 3e 80 65 3f 3d d1 a7 34 bd
       0.01357258 0.15523759 0.046727657 -0.044105355
0000f0 aa b1 8a 3d 53 f6 ab 3c 86 ed 34 be b9 9f 45 be
       0.06772168 0.02099148 -0.17668733 -0.1929921
000100 94 53 18 bd d8 04 98 3c 86 0e 89 bd 58 6d 8c bc
       -0.03718908 0.018556997 -0.06692223 -0.017141983
000110 73 e1 2a bd ec 03 a1 bd c9 dd a5 bd 52 2b 07 be
       -0.04171891 -0.07862076 -0.08098943 -0.13200119
000120 60 d6 b6 3d a7 1e 89 3d f5 d3 13 3d fa b0 91 bd
       0.089276075 0.066952996 0.03609081 -0.07113834
000130 76 ff 17 3e 64 60 04 be fd 2d ca 3d b4 f8 42 bd
       0.14843544 -0.12927395 0.09872053 -0.047600463
000140 35 74 1e be 7a cc c4 3d 16 5b 71 be 1f e3 2f 3d
       -0.15474017 0.09609313 -0.23569903 0.04294121
000150 e7 2c de 3d 5f 59 1d be d5 5a 21 bd 3e 46 2d be
       0.10848408 -0.15366124 -0.039393265 -0.16921327
000160 88 00 6a be 84 95 98 3c d1 68 4a 3d f4 dd a3 ba
       -0.22851765 0.018625982 0.049416367 -0.001250206
000170 73 97 02 be 58 a9 e5 bc a9 f3 de 39 83 3a 17 be
       -0.12753086 -0.028034851 0.0004252468 -0.14768414
000180 0d c3 9b bd a7 3b fd bc ea ce 92 bd a1 bd 12 3c
       -0.07605562 -0.030912234 -0.07168372 0.008956344
000190 29 df 03 bc d5 33 97 bd 4d e1 16 be ca ee 52 be
       -0.008048811 -0.07382933 -0.14734383 -0.20598903
0001a0 b4 dd 11 be e5 0d 00 be 23 e3 0d be 47 13 c4 3b
       -0.1424473 -0.125053 -0.13856177 0.0059837434
0001b0 9f 4f 53 3c bc 75 2e 3d 9b 06 f1 3c 4e cb 09 be
       0.012897401 0.04259275 0.029422095 -0.13456461
0001c0 d5 1e 11 bc 27 ff cb 3c 09 cf 09 be ef 88 19 be
       -0.008857449 0.02490194 -0.13457884 -0.14993642
0001d0 73 e3 e6 bc 5d 77 b6 bb 1d 24 5e 3c 6e 21 52 3d
       -0.028184628 -0.0055684284 0.013558415 0.051301412
0001e0 cf d4 85 3d ce 13 99 3c d1 0f b4 bc 80 1f 15 bd
       0.06534731 0.018686201 -0.021980198 -0.036406994
0001f0 30 c4 2e bd 0b 8d aa 3c db e8 a5 3c fa d6 df ba
       -0.042667568 0.020819208 0.020252636 -0.0017077618
000200 61 58 e9 bb 92 5c 02 bd 60 3f 34 be cc 00 c2 bd
       -0.0071211313 -0.031826563 -0.176023 -0.09472808
000210 ab 43 1b bd 7d 87 2c bd 6b 73 b2 3d 0b 6e 06 be
       -0.03790633 -0.0421214 0.087134205 -0.13127916
000220 81 da 5a bc 38 3e b5 bd 68 d0 d0 bd 05 40 da 3d
       -0.013357759 -0.08849758 -0.10196 0.10656742
000230 b6 f4 24 3c cf 0e b5 bd 17 85 1a be 78 81 8f bd
       0.010068109 -0.08840715 -0.15089832 -0.07007116
000240 50 8e 30 3e 5a ef e4 bd 5f 96 1b 3e 57 23 74 3d
       0.17241788 -0.11178465 0.15194081 0.059604015
000250 bd 99 bc 3d 05 42 bc bd 76 b7 8f bc ca af 00 3d
       0.09209011 -0.0919228 -0.017543536 0.031417646
000260 46 80 74 bd ec f6 1c 3e 77 0f e8 3b d7 c5 91 3e
       -0.059692644 0.15328568 0.0070819217 0.28471252
000270 a5 3e 1c be 29 53 48 3e 3e c8 c0 3d 53 f8 73 3e
       -0.15258272 0.19562973 0.09413193 0.23825197
000280 f9 4d 06 bd 20 9b 8e 3d a4 16 12 3d 02 b9 85 3e
       -0.032789204 0.069631815 0.035666123 0.26117712
000290 31 a8 63 3e 64 ae b7 3e ad 45 53 be f5 47 43 be
       0.22232129 0.35875237 -0.20632048 -0.19070418
0002a0 cc 52 c1 3e 76 fb a0 3d d5 09 b4 3d e5 a7 15 c0
       0.37758482 0.07860462 0.08790938 -2.3383725
0002b0 7d c3 fd 3d 8a 39 c4 bd 03 ed 21 bc 16 1d 65 bd
       0.12390802 -0.09581287 -0.009883168 -0.05593594
0002c0 ba a9 07 3d 34 1e 9b bc 6a f6 1b bd 1c 3c ba bc
       0.03312085 -0.0189353 -0.038076796 -0.02273374
0002d0 61 36 7b bf 8f f3 b2 3e 66 e9 82 bc cf ea 06 3c
       -0.9812985 0.34951445 -0.015980434 0.008234694
0002e0 c4 d5 99 3d ce 85 39 3d 74 ee bf 3c 32 ef 6c bd
       0.07511476 0.04529362 0.023429133 -0.057845302
0002f0 64 79 27 bc 73 b7 54 be c8 8a 6f bf a9 3d d5 bc
       -0.010221813 -0.20773105 -0.9357114 -0.026030378
000300 13 00 89 be b5 00 54 bd 7a 47 31 be 42 ae 99 bd
       -0.2675787 -0.051758487 -0.17312422 -0.0750394
000310 36 8c 53 bd c1 10 29 ba 45 6e df 3d b2 f8 3c 3d
       -0.051647387 -0.0006449335 0.10909704 0.04613561
000320 39 86 fc bd 51 f0 1c 3e 9f bd 3c bb b9 2c 14 be
       -0.123302884 0.15326048 -0.0028799546 -0.14470185
000330 df 42 15 3e fb b5 21 3c 7e 91 9d bc 54 5f 00 3e
       0.1457629 0.009870048 -0.019234415 0.12536365
000340 80 5e e9 bd 0d f8 69 be 47 de 0e 3e 8d 95 e5 bd
       -0.113949776 -0.2284853 0.1395198 -0.11210165
000350 3c 78 71 be 19 5d bc 3e 16 be 60 bd c5 39 d6 3d
       -0.23581022 0.36789778 -0.05486878 0.104602374
000360 97 f3 5a 3e aa 89 37 be 41 ae 4f 3e ba bb 0b 3d
       0.21381985 -0.17923608 0.20281316 0.034114577
000370 b5 b9 a5 3e f5 7b 1d 3d 0e ee 50 3e 13 8f 31 3e
       0.32368246 0.038448293 0.2040331 0.17339735
000380 5c b8 e9 bd b9 bb 69 3d d1 14 e2 be d9 a1 a9 bd
       -0.11412117 0.057063792 -0.44156507 -0.08282823
000390 4f c5 3b 3e 55 d7 a1 3d d9 6a 4e be 92 4a 04 3f
       0.18336986 0.079023995 -0.20157947 0.51676285
0003a0 bf 72 a5 3d 40 1b f2 bd 74 bb a5 bd 99 b4 f6 be
       0.08078527 -0.11821604 -0.080923945 -0.4818466
0003b0 ee 76 d5 3e 0c 97 33 3d b2 f7 45 be be 9c 10 bb
       0.416923 0.04384522 -0.1933277 -0.0022066082
0003c0 fe ff b5 bc 21 2e 4a bd 8d d1 36 bc 11 33 0e 3e
       -0.022216793 -0.0493604 -0.011158359 0.13886668
0003d0 45 6e fd be d5 ab 31 3e c0 67 bd 3d 9b b6 b3 bd
       -0.4949819 0.17350705 0.09248304 -0.087750636
0003e0 9f 4d 46 bd 6e 7a 4e bd 1d f4 df 3c e3 d8 d0 bb
       -0.04841387 -0.050409727 0.027338082 -0.006373511
0003f0 5c 23 93 3d 91 b1 94 bf a2 da 27 bf 46 04 5d 3e
       0.07184479 -1.1616689 -0.6556798 0.21583661

conv.2.bias f4 [32]
000000 42 56 8e 3c fa 94 e2 3c 59 dd 8f bd 37 62 ad 3d
       0.017375115 0.027658928 -0.070246406 0.084659986
000010 ca cc 08 3d 98 d9 37 bd cb 11 68 3e 42 de 93 bd
       0.033398427 -0.044885248 0.22663037 -0.07220127
000020 ad 6a 76 be ed 33 a9 be 9b 3e 17 3e 81 08 86 3e
       -0.24064131 -0.3304743 0.14769976 0.26178363
000030 a1 17 b7 bd fe f9 e4 3c ce 68 a5 3d e7 39 27 be
       -0.08940054 0.027951237 0.080766305 -0.16330682
000040 43 5d 19 3c ca 36 8e bc b2 13 4c 3e 66 20 ea bd
       0.009360614 -0.01736011 0.19929388 -0.11431961
000050 c2 50 fb 3d 3e 4d 8e bd a9 66 35 bc ca bf 98 bd
       0.12271263 -0.069483265 -0.011071839 -0.07458456
000060 d2 d7 13 be e9 11 a2 3e 96 43 e6 3d 60 73 02 be
       -0.14437798 0.3165429 0.1124336 -0.12739325
000070 f6 2c 0f bd 50 b1 e3 3c c5 a1 bd bd 2c 48 0c 3e
       -0.034954987 0.02779451 -0.09259371 0.13699406

conv.4.weight f4 [64, 32, 6, 6]
000000 4d 01 49 bc 11 d1 6d bd d0 f9 88 3d 03 fd 7b bc
       -0.012268377 -0.05806071 0.06688273 -0.015380147
000010 4b c7 3e 3d 04 dc 7f bc 88 62 05 bd 7f 86 25 3d
       0.04657678 -0.015616421 -0.03256467 0.04041147
000020 28 2f ef 3c 53 65 b3 3c 33 70 88 bc c8 f4 1f 3d
       0.02919729 0.021898901 -0.016655063 0.0390518
000030 95 b5 5c bb ca c9 c5 3c 67 67 d1 bc ae 88 34 bd
       -0.0033677567 0.024144072 -0.025562001 -0.04407566
000040 ab 6e e2 bb 95 0b ec 3c 9c 3f 43 3c aa d9 96 3d
       -0.0069101653 0.028814116 0.011917021 0.07365735
000050 31 59 9f ba 74 f1 55 bd ef 35 44 bd 10 43 a3 3d
       -0.0012157318 -0.05223222 -0.047902998 0.079717755
000060 48 48 ca 3c 56 b0 df bb 2b 1f 80 bd 68 12 d6 3c
       0.02469267 -0.006826441 -0.06255945 0.026131824
000070 09 9e f1 ba cd 71 18 bb 07 c3 d8 3b 73 35 89 bc
       -0.0018433939 -0.002326119 0.006615046 -0.01674912
000080 d8 77 17 bd f9 1d 6a 3a ce 26 27 bd 78 85 b3 bb
       -0.036979526 0.0008930858 -0.04080849 -0.005478557
000090 0a 00 c1 bd b8 ea 86 ba 11 0e ad 3e f7 a2 83 bd
       -0.094238356 -0.001029334 0.33799794 -0.064275675
0000a0 75 71 a4 be da 42 d3 bc 29 5f 4d 3c a6 bc da 3d
       -0.3211781 -0.025788713 0.012534895 0.10680513
0000b0 39 75 9a 3d ea d9 ce be 9b 5b 5e be 93 9e e8 3e
       0.0754189 -0.4040063 -0.21714632 0.45433483
0000c0 33 16 19 bf 9f bd 2c 3e e2 a9 99 bd e4 ee 94 3d
       -0.597995 0.1686921 -0.07503106 0.07272127
0000d0 b6 61 81 3e 26 95 98 3e 57 1b 98 3d 3b a0 08 be
       0.2526986 0.2980129 0.0742709 -0.13342373
0000e0 15 62 8c bd 34 ab 2a be 89 fd 67 bd b4 e9 63 3e
       -0.06854645 -0.16666871 -0.056638274 0.2225712
0000f0 9b 76 1c 3e e7 b5 1d 3e f9 6d a9 3d 89 5c 40 3e
       0.1527962 0.15401421 0.08272929 0.187853
000100 27 a2 8a 3d bb eb 6a 3e 94 1a 5e be f8 12 c1 3e
       0.06769209 0.22941487 -0.21689826 0.37709785
000110 fa ca a9 3e e1 79 35 3e 01 4e 9c 3e 41 da 29 bf
       0.3316267 0.17722274 0.30528262 -0.66348654
000120 39 b5 28 bc 0f 61 35 bd d4 ab bb bc ea 75 46 bd
       -0.010297113 -0.044282015 -0.022909082 -0.048452295
000130 e1 cd 2b 3c 6f c6 cb bc 86 62 5a bc 38 a1 a1 3b
       0.010486097 -0.024874894 -0.013329154 0.004932549
000140 7d 03 dc ba 16 52 74 3c 3f d5 b5 3c c4 dc 2a 3c
       -0.0016785708 0.014912149 0.02219641 0.010428611
000150 e8 bd b0 3b 61 e4 62 bc 59 e3 e4 bc 84 cf c4 3c
       0.0053937323 -0.013848395 -0.027940439 0.024024732
000160 bd 76 6d 3c 79 06 2b bc c5 7d b3 bc 68 29 a1 3c
       0.014493641 -0.010438555 -0.021910558 0.019673064
000170 a8 69 ab bc 19 97 82 3c 99 6e 1d bd 4a d7 17 bc
       -0.020924404 0.01594119 -0.038435552 -0.0092676375
000180 2b 83 09 bb af 8f 19 3d de 8d 15 3b 93 9e b7 3c
       -0.0020982723 0.037490543 0.0022820155 0.022414481
000190 4e 3d 1f bc 7c b6 f9 3c f4 13 e4 3c 9e 44 07 3d
       -0.009719206 0.030482523 0.027841546 0.033024423
0001a0 c3 a9 2d 3d 7d 56 32 3c 4a b1 94 bb 33 81 70 3b
       0.042398226 0.010884878 -0.004537736 0.0036698102
0001b0 f8 d5 26 be 64 47 66 3e 4c d7 52 ba 5c 5b 8c be
       -0.1629256 0.22488171 -0.0008042946 -0.27413452
0001c0 46 e2 d4 be 6b 72 82 3e 2a cd 59 3c 9b eb 87 3e
       -0.41578883 0.2547792 0.013293544 0.2654694
0001d0 f4 9e c7 3d 8a 4a 54 3b a7 84 f9 3e 4d c9 bd be
       0.09747115 0.0032393062 0.48734018 -0.37067643
0001e0 35 69 b2 3e 5d 8b 43 3e 3d cb f5 3d 35 9a 50 3d
       0.34845892 0.19096132 0.12001655 0.050928313
0001f0 7e d9 20 3e 17 04 ae 3e 65 5f 9a 3e 3c ee 95 3e
       0.15707967 0.33987495 0.30150905 0.2928332
000200 15 c9 30 3e fc e2 20 3c d6 77 a8 3e 23 40 a8 3e
       0.17264207 0.009819742 0.32903928 0.32861432
000210 6e 78 11 3c ce 02 c9 3e 33 aa 9b 3e 08 b5 58 3e
       0.00887881 0.39259952 0.3040329 0.21162808
000220 80 58 e3 3e ca 80 0f bf 74 6e 29 3d 5e 3f 03 bf
       0.44403458 -0.5605589 0.041365102 -0.51268566
000230 ed d8 11 bf ea d5 8c be c3 8f 56 3e 4c 64 c9 be
       -0.5697163 -0.27506953 0.20953278 -0.39334333
000240 e8 13 80 bb ca aa 67 3d 29 16 49 bd 8a c7 87 3e
       -0.003908623 0.05655936 -0.0490934 0.26519424
000250 11 94 b3 3e cd 64 cd bd a7 d1 c4 3e 97 49 a4 3e
       0.35073903 -0.10028992 0.38441202 0.32087395
000260 41 3a d3 be f4 fe df be 27 8f 2e bf 4c f9 33 bd
       -0.41255382 -0.437492 -0.68187183 -0.04393892
000270 90 25 ba be 32 1a ba 3d 12 65 b4 be 2a f3 f7 3b
       -0.36356783 0.090870276 -0.3523336 0.007566829
000280 75 c0 3e 3e ed 3d ce be d4 42 95 3e 8e 02 54 be
       0.18628104 -0.4028162 0.29152548 -0.207041
000290 8c ff 97 be 48 61 6f be 2f e1 b3 be f4 df 8c 3d
       -0.29687154 -0.23376954 -0.3513274 0.06878653
0002a0 e6 20 c4 3e 90 75 4a 3c bf a6 9c 3b b2 ea 77 bd
       0.3830635 0.012357131 0.00478062 -0.060526557
0002b0 0f 4c a6 3d f2 bd 7f 3e 4e 6e dc bd 8d dd 31 3e
       0.08119976 0.24974802 -0.107632264 0.17369671
0002c0 5b 5e 99 3d 2a 6b 9d bd 33 33 2c 3d db 7b 42 bf
       0.074887 -0.076864555 0.042041015 -0.7597024
0002d0 c5 ea 6a 3d e5 2b d6 bb 30 d4 b2 3d 83 a1 2a 3d
       0.0573528 -0.0065359944 0.08731878 0.041657936
0002e0 10 c2 ed 3d 4c 86 86 3b ff c1 f0 3e e4 61 4a 3e
       0.1160928 0.004105365 0.47023007 0.19763905
0002f0 c0 f5 8f 3e 7a 7b ff 3d 88 a3 e7 3d 6e 2b 3e 3e
       0.2811718 0.12474723 0.11310488 0.18571255
000300 20 7a 0d 3f 79 30 94 3e 59 49 2a 3e f8 8f 95 3e
       0.5526447 0.28943232 0.16629542 0.29211402
000310 00 b2 d2 3d 93 34 f0 3d 2a c6 ac 3e a3 53 4b 3e
       0.10287857 0.11728778 0.33744937 0.19856124
000320 f3 f7 69 3e 23 cf 69 3e e2 06 89 3d fe 3d c3 bd
       0.22848491 0.22832923 0.06690766 -0.095333084
000330 0f b0 ec 3c 83 10 b9 3e ba a3 ae 3e 36 63 b8 3d
       0.028892545 0.3614541 0.34109288 0.09003298
000340 d5 ab 98 3d e8 a7 3a be f9 1c b9 bd 53 c0 03 3e
       0.07454649 -0.18228114 -0.09038729 0.12866335
000350 b5 09 48 3e e2 e0 5d 3d 4d 5e 2a 3d 37 7a c6 3d
       0.19534953 0.054169543 0.04159384 0.096912794
000360 73 05 57 3c 30 46 95 3d 7a 3b 34 3e 6e 08 ba 3d
       0.013123858 0.07288778 0.17600814 0.09083639
000370 f4 25 fe 3d 79 9a 96 bb 5f 42 3d 3e 49 d7 19 3e
       0.12409583 -0.0045960513 0.1848235 0.15023531
000380 6c 2e 1e 3e 95 fc 28 3e d2 d9 9b 3d 73 76 6f bd
       0.15447396 0.16502602 0.07609905 -0.05846257
000390 87 f5 58 3e 2b 40 e5 3c 81 ae 43 3e cc 50 14 3e
       0.21187411 0.0279847 0.19109537 0.14483947
0003a0 9f 4f 00 3e 7a 1c 72 bb fa e6 85 3d 2d aa 5c bd
       0.12530373 -0.0036943243 0.06538196 -0.05387323
0003b0 80 4b a5 3d 67 3a 10 3e 9a 6a 29 3e 28 76 27 3d
       0.08071041 0.14084779 0.16544572 0.040884167
0003c0 fb 4c 16 3e d6 1b 01 3e 28 a0 6f 3d 73 0b 3d 3e
       0.14677803 0.12608275 0.058502346 0.18461399
0003d0 f1 7f c2 3d c4 b8 89 3c 6f 40 14 3e 7f a1 b4 bd
       0.09497059 0.016811736 0.14477704 -0.088198654
0003e0 7f 63 c7 3c fb 2e 31 3e bd 3b a2 bc f3 82 4d bd
       0.024339436 0.17303078 -0.019803876 -0.05017371
0003f0 5c 49 84 3c 73 f0 8a 3c d6 d8 67 bc b4 74 ba 3c
       0.016148262 0.016960358 -0.014150819 0.022760727

conv.4.bias f4 [64]
000000 76 ea 5c be c1 2a 0c be 3c 70 b4 be 85 25 a2 be
       -0.21573815 -0.13688184 -0.35241878 -0.3166925
000010 91 d5 07 be b3 50 82 be 43 e5 b5 bd 7d b5 18 be
       -0.13265063 -0.25452194 -0.08881619 -0.14912982
000020 ca 3c bf be 94 84 15 bd 75 c4 2f be 2f 3f 0a bd
       -0.37351066 -0.03650339 -0.17164786 -0.033751663
000030 c4 67 3d bd c2 36 e4 be 2a 01 d6 be 84 0e bf be
       -0.046241537 -0.44573027 -0.41797763 -0.37315762
000040 26 be 56 be 0a 0c 09 3e 25 98 82 bd 39 94 81 be
       -0.20970973 0.13383499 -0.063766755 -0.25308397
000050 93 7d a7 be c1 68 2d be be f2 f5 3e f4 aa 6b be
       -0.32712993 -0.16934492 0.4803676 -0.23014432
000060 03 4c 95 be 5c de 95 be 80 35 b7 be a3 df 68 be
       -0.29159555 -0.2927121 -0.35783005 -0.2274156
000070 8d 85 9e be 2c 32 c8 be aa bf c4 be 8b 87 31 3e
       -0.30961266 -0.39100778 -0.38427478 0.17336862
000080 26 7b a2 be 67 3d ac 3e 65 37 47 be 7e 5d a8 be
       -0.3173458 0.33640596 -0.19454725 -0.3288383
000090 25 3b a9 be bd 80 85 3e 32 90 3a be 74 e8 4d be
       -0.33052936 0.26074782 -0.18219069 -0.20108205
0000a0 a3 eb b9 be 1f 68 1d bf 0d 6d 51 bd 42 b6 c9 be
       -0.3631259 -0.61487 -0.05112939 -0.39396864
0000b0 88 91 95 bd b0 84 ab bc d9 e1 8d 3e 29 ba ec be
       -0.073031485 -0.020937294 0.2771137 -0.4623578
0000c0 f8 a0 11 be c6 67 9a be 30 50 85 be aa 22 7f be
       -0.14221561 -0.30157298 -0.2603774 -0.24915567
0000d0 d3 ee 92 3a c3 17 a8 bd 76 83 9a be eb e7 f3 be
       0.0011210091 -0.08207657 -0.30178422 -0.47637877
0000e0 ea b5 a1 be b0 fe 99 be ca ac 83 be da ac 43 3e
       -0.31584102 -0.30077124 -0.25717765 0.19108906
0000f0 85 b1 cd be 3d 16 66 bc f5 b3 aa be e0 d8 30 be
       -0.401745 -0.014043388 -0.3334042 -0.17270231

fc.1.weight f4 [64, 1600]
000000 3b fb b5 3b be ab f8 ba 67 ab 89 bc 75 9e 8f 3c
       0.0055536306 -0.0018972082 -0.016805364 0.017531613
000010 56 64 d7 3a 1a 45 c6 bc e9 19 09 bc 72 43 1d 3c
       0.0016433101 -0.024202872 -0.008367994 0.0095986
000020 50 29 a2 3c eb 63 30 bb cb 89 b3 bc 97 93 99 3c
       0.01979509 -0.0026915025 -0.02191629 0.018747134
000030 cc e3 11 bb f2 bc ae bc ea ab 7f bc b9 d5 c8 bc
       -0.0022261022 -0.02133033 -0.015604952 -0.024515973
000040 d3 79 45 bc 37 b6 a5 bb cd 5b a0 bc 2e f5 ca bb
       -0.012052971 -0.005057122 -0.019575024 -0.0061937785
000050 91 25 8a bc 40 a2 29 bc 50 f4 3b 3a e1 3d 57 bc
       -0.016863616 -0.010353625 0.0007169889 -0.013137312
000060 25 77 02 bc 96 d3 b2 bb bc 30 8e 3c c6 4b 43 3c
       -0.007962977 -0.005457352 0.017357223 0.011919921
000070 5f b1 89 3c ae 5b 22 3c 9f e8 ae 3c e1 56 39 bc
       0.01680821 0.009909553 0.021351157 -0.011312217
000080 c2 cf a8 3c 04 75 89 bc 7e fd 38 3c 46 4c dc 3b
       0.02060688 -0.01677943 0.011290906 0.0067229597
000090 f5 93 8e bc 8f ee be 3b 01 63 47 bc 5b 7f 26 3c
       -0.017404536 0.0058267782 -0.0121696 0.0101622
0000a0 ff 4e b0 bc d1 d5 f3 bb 53 80 b7 3c 05 03 bf bc
       -0.021522043 -0.0074412604 0.022400057 -0.02331687
0000b0 ce 4f 1c 3c 1b 53 59 bc ee 76 9d 3b ca 3e 0e bb
       0.009540511 -0.013264443 0.0048054373 -0.0021704906
0000c0 12 46 e6 bb f4 dc 94 3c 0e 10 a1 3c 04 db 9a 3c
       -0.007027396 0.018171765 0.019660976 0.018903263
0000d0 6c 25 65 bc 6e 54 d2 3c cf c8 44 3b 20 06 8b bc
       -0.013985973 0.025675025 0.0030026918 -0.016970694
0000e0 b9 ae c2 bc 78 a0 33 bc 8f 47 ea 3c 3e b8 9d bc
       -0.023764955 -0.010963552 0.028598575 -0.019252893
0000f0 5d b8 3e 3c b5 d7 1e bc fc 0a b6 3c c3 b0 f3 bb
       0.011640635 -0.009694983 0.022222035 -0.007436843
000100 1e cd 96 bc a5 f0 2a 3c ba f8 83 bc be 88 07 bc
       -0.018408354 0.010433351 -0.016109813 -0.008272348
000110 80 0f 8b bc ab 1c b2 bb ae 01 f2 3a 62 2e a4 3c
       -0.016975164 -0.0054355464 0.0018463635 0.020041648
000120 80 3f f2 bb fa 20 f7 3c 4e c0 b1 3c 4d a8 ed 3b
       -0.0073928237 0.030167092 0.021698143 0.007252729
000130 c1 4d 5f 3c 12 bb 4d 3b 3f a8 04 bb bd fd 77 3b
       0.013629378 0.003139202 -0.0020241884 0.0037840449
000140 65 4c 3a bc 96 6f a3 3c 81 dd 1b bc 6f 98 aa bb
       -0.011370753 0.01995067 -0.00951326 -0.00520616
000150 8e 09 e8 bb 60 ed b1 bc 3c 55 21 ba 38 45 a4 bc
       -0.007081217 -0.021719635 -0.00061543635 -0.020052537
000160 61 56 04 3c 33 ec 55 3b 58 27 ae bc 0f 0b 37 3c
       0.008077235 0.0032642006 -0.021258995 0.01117207
000170 c7 90 b8 bc 22 f9 1b 3c 95 6d 73 3b a8 de 2c 3c
       -0.022529973 0.009519847 0.0037144173 0.010551132
000180 b7 91 b2 bc 0b 2e 53 ba 73 cb ee ba 62 5e db 3b
       -0.021797998 -0.0008055872 -0.0018218592 0.006694601
000190 12 db 21 3c ac 84 c4 bb 2d ca 1e bc b5 79 c0 3b
       0.009878891 -0.005997261 -0.009691757 0.0058738836
0001a0 60 f1 87 bb 53 09 5d bc 82 a9 5a 3c d0 c5 9d 3b
       -0.004148647 -0.013490993 0.013346078 0.004814841
0001b0 87 44 ae 3c 61 b5 b0 3b c9 d7 e0 bb 15 0c a8 3b
       0.02127291 0.005392716 -0.006861661 0.0051283934
0001c0 4c dc ee bb a6 e5 b2 3c 2b eb a8 3c 13 7b a7 3c
       -0.007289445 0.02183802 0.02061995 0.020444429
0001d0 c9 7f dd bc 7a 69 28 3b 04 44 04 3c fd 71 cf bc
       -0.027038472 0.0025697635 0.008072857 -0.025322909
0001e0 a8 08 ee bb a7 0d ed 38 8f 5b 47 bc c5 f0 9a 3b
       -0.0072642155 0.000113035836 -0.012167825 0.004728409
0001f0 da 52 9e bc 03 b4 93 bb 0a c1 5c 3c 5e b9 e3 bc
       -0.019326616 -0.004507543 0.0134737585 -0.02779835
000200 ba 6b 08 bd e7 7b cb bc ed db b1 3b d0 ae 28 bc
       -0.03330586 -0.024839355 0.0054278285 -0.010295585
000210 b1 33 cc 3b 43 62 9f 3c 47 5e a3 bc 0b af 42 3c
       0.006231748 0.019456035 -0.019942416 0.011882554
000220 3a fc 92 bc f6 6e 98 bb 90 2e 82 bc fe 06 b2 bb
       -0.017942537 -0.0046518994 -0.015891343 -0.0054329624
000230 e8 ba 0a 3c 9d 8c 97 3c 66 d0 af 3c 07 cd 93 3b
       0.0084674135 0.018499667 0.021461677 0.004510525
000240 85 de 9b 3b cd 26 08 bb 0d c7 c7 bc d5 af 86 bc
       0.004756751 -0.002077508 -0.024386907 -0.016441265
000250 09 8d 7f 3a 8c 00 31 bc 86 4b 06 bd 08 01 95 3b
       0.0009748494 -0.010803353 -0.03278687 0.004547242
000260 1c ae 08 bb 08 72 77 bc 14 28 3c bc fe bd c1 bc
       -0.002085573 -0.015102871 -0.011484165 -0.023650166
000270 ca 5f 30 bd 2c f0 90 bc c1 a8 27 bd b5 78 1a bd
       -0.0430601 -0.017692648 -0.04093242 -0.03771277
000280 ab 86 b3 bc 1c 9d 1b bd b0 97 b9 bc eb cd 8c bc
       -0.0219148 -0.037991628 -0.022655338 -0.017188033
000290 fe 7e 97 3a b9 36 a7 bc 8e 4b 8e 3b 69 4d de bc
       0.0011558232 -0.020411836 0.004342503 -0.027136521
0002a0 2f 0b 02 bd 49 4e 16 bd 98 90 38 bc 55 14 09 bc
       -0.031748947 -0.036695752 -0.011264943 -0.008366664
0002b0 a1 0c 0b bd 73 c5 0c bd 93 8b 34 3b d1 3b 9f 3c
       -0.03394759 -0.03436799 0.0027549013 0.019437702
0002c0 80 ce eb 3b 81 87 c8 bb 98 38 d4 bc 7e 3e 57 3c
       0.0071962476 -0.006119669 -0.025905892 0.013137458
0002d0 e2 f5 b8 bc 59 8d a3 bc d0 5f 84 bb bf 01 00 bd
       -0.022578184 -0.01996486 -0.004039742 -0.031251665
0002e0 70 5a fc 3a c2 f7 6b 3c 37 e2 80 3c 44 7f 04 3c
       0.0019253027 0.014402332 0.015732868 0.008086983
0002f0 b1 8f a6 bc 1e 18 8b 3a eb 72 9d bb 32 29 ad 3c
       -0.02033219 0.0010612046 -0.004804959 0.021137808
000300 e2 6b e7 bc a0 01 30 bc 27 69 cf bc d1 8a f0 3b
       -0.028249685 -0.010742575 -0.025318695 0.007340767
000310 fb 3b 79 3c 92 b6 ea 3b 98 18 1a 3b e7 6f a9 3b
       0.015212054 0.0071628774 0.0023513194 0.0051708105
000320 98 5b 07 3c ca 59 3f 3c ac d4 ab bc c6 db 76 bc
       0.008261584 0.011679122 -0.020975433 -0.0150670465
000330 88 93 8d bc 69 ec 61 bb 64 6d 3f 3c 71 1c e5 bc
       -0.017282262 -0.0034473187 0.011683796 -0.027967663
000340 37 e5 35 3c 70 62 af bb b1 14 c4 3c 64 c7 6c 3c
       0.011102012 -0.005352311 0.023935648 0.014451835
000350 0a c8 e1 bb 7c a1 95 bc a5 26 09 bc 71 2b 44 3c
       -0.0068903016 -0.018265478 -0.00837103 0.011973248
000360 89 c5 5f 3c 4b f1 4d 3c 73 85 86 3b 79 bf 8d 3c
       0.013657936 0.012569736 0.004105264 0.017303215
000370 b1 a9 af bc 12 59 5a bc 0c 3f 91 bb e6 04 85 bc
       -0.02144322 -0.0133269 -0.0044325646 -0.016237687
000380 ef 64 bd bc 32 55 04 3a c6 78 1d bc c4 27 40 3c
       -0.023119418 0.00050480955 -0.009611314 0.011728231
000390 9d 3b a8 3b c6 a0 58 bb 8a 45 f1 39 87 3d 91 bc
       0.0051340596 -0.0033054813 0.00046018913 -0.017729534
0003a0 fb c4 94 ba 32 73 57 bc fd 02 f2 bb 46 73 b0 3c
       -0.0011350209 -0.013150023 -0.00738561 0.021539342
0003b0 78 94 5f bc 69 8e 86 3b 5d 09 1d bc 7c 25 88 3a
       -0.013646238 0.004106332 -0.009584752 0.0010387148
0003c0 8c ea 77 bc 31 8f 28 bb 55 f3 84 bb c5 07 51 bc
       -0.015131604 -0.0025720114 -0.0040573278 -0.0127582
0003d0 69 85 d3 3a ee 69 46 bc 03 f8 c7 b9 fd 8e 01 3c
       0.0016137782 -0.012110217 -0.0003814102 0.007907626
0003e0 f9 25 d1 bb 34 7a 3c 3c 32 5d cc 3b 28 75 05 3c
       -0.0063827005 0.011503745 0.0062366957 0.008145608
0003f0 3f df 0f bc 89 7a 25 3c f2 7e f6 39 3d 9a 3c bc
       -0.008781253 0.010100015 0.00047015358 -0.011511383

fc.1.bias f4 [64]
000000 c8 0c 4a 3c 96 03 43 3e 27 2c 0a bd 02 80 fa 3b
       0.012332149 0.19044337 -0.033733513 0.0076446543
000010 2f cf 03 3f 61 3a 84 3e 85 78 2c bd 99 f7 68 bc
       0.5148801 0.2582579 -0.042107124 -0.014219188
000020 f2 5e 63 3c 59 7a f1 3e a1 d5 f3 3e 54 b6 92 3e
       0.013877617 0.47163656 0.47623923 0.2865473
000030 a7 eb ee 3c af 15 cf 3d 87 a7 25 3e c0 22 2d 3f
       0.029165102 0.10111558 0.16177188 0.6763115
000040 8c a6 14 b9 cc ac 79 3c f0 67 39 bd f7 a5 de bc
       -0.00014176423 0.015238952 -0.04526514 -0.027178748
000050 07 db 63 bb e4 d5 2b 3b 91 2e c6 bc 37 f0 a1 3e
       -0.0034768002 0.0026220018 -0.024192126 0.31628582
000060 7d 78 e0 3b f9 84 b5 bc 2e 3f ee bc e3 f8 92 3d
       0.006850301 -0.022158133 -0.02908286 0.071763776
000070 7c a6 39 3e 06 ce 0a 3e 7a b7 ab bb d8 5b e7 bc
       0.18129915 0.13555154 -0.005240378 -0.028242037
000080 d7 54 ce 3c 85 77 0d 3f d7 ae 28 bc bc ae 9f 3e
       0.02518694 0.552605 -0.010295591 0.31188
000090 1c 28 8c bc fe a2 1c 3f 95 e5 08 3d 36 bc 31 3d
       -0.01710897 0.61186206 0.03342207 0.043392383
0000a0 64 35 ef bc 05 19 7c 3e f4 08 53 ba 4d 88 70 3e
       -0.029200263 0.24618919 -0.00080503454 0.23489495
0000b0 3e bd 53 3d 43 c6 27 3c 02 53 bd 3d a8 fc f6 3c
       0.051694147 0.01024014 0.09244348 0.030149773
0000c0 19 68 ad bc d0 ce a8 3c ce 8e 2f 3d 60 db 61 ba
       -0.021167802 0.020606428 0.0428608 -0.0008615758
0000d0 cc ae b3 3e 7c 92 b1 3e 00 b6 0a bb db a4 2f bc
       0.35094297 0.3468207 -0.002116561 -0.010720457
0000e0 73 43 95 bc 75 d1 3a bd f5 18 4e bd 88 31 d3 3e
       -0.018220639 -0.04560991 -0.05031677 0.41248727
0000f0 b0 ab b3 bb 01 b6 b8 bc b7 a2 78 3e d6 ba 8c 3e
       -0.005483113 -0.022547724 0.24280821 0.27486295

fc.3.weight f4 [4, 64]
000000 9b 01 84 3c aa 71 1a 3e d0 4c 3d 3c 62 12 9c 3d
       0.016114047 0.15082422 0.011553958 0.07620694
000010 16 55 a5 be 0b 22 0a 3e db 15 bc 3d fc 19 be bd
       -0.32291478 0.13489549 0.09183856 -0.092823
000020 69 f0 b4 3d 1c de 54 3d ad 14 62 3b d7 5f 6c bf
       0.08834917 0.051969633 0.0034497187 -0.9233374
000030 b5 a1 1d 3e 12 0d 26 3d 3a 53 cd bf fb 9d d0 3e
       0.15393718 0.04053981 -1.6041024 0.4074553
000040 19 8f 3c 3d 3b fc 77 be fc 9f cf 3d 1e 79 fe 3c
       0.046034906 -0.24217312 0.101379365 0.031063613
000050 ec a8 11 3e c1 b5 94 3c 2e ee 7b bd 24 ec 21 bf
       0.14224595 0.018153073 -0.061506443 -0.63250947
000060 48 da 3d bc 84 05 0f bc 12 8f d5 bd de 5a 78 bd
       -0.011587687 -0.008729342 -0.10427679 -0.060633533
000070 e9 16 a9 3a 3c f5 50 3d c7 ed 7b 3d eb 3f 58 3c
       0.0012900505 0.051015124 0.06150606 0.013198833
000080 a4 79 ec 3d da a3 1f bf 05 cc c7 bd cd 84 98 3d
       0.115466386 -0.6235939 -0.097557105 0.07447205
000090 20 4c 29 3d f7 57 69 be 88 15 23 be c7 f8 8d 3d
       0.041332364 -0.22787462 -0.15926182 0.06932216
0000a0 c2 0e 1f 3d 32 e4 1c bd ed 25 2b bd 73 17 d5 3d
       0.038832434 -0.03830356 -0.041784216 0.10404863
0000b0 ea 1a 15 be ca d0 d5 be 7c 94 91 3e 7d e3 40 3e
       -0.14561048 -0.41760856 0.28433597 0.1883678
0000c0 ef 90 2b 3d 50 32 3a 3e 9f 51 7c 3e 8d 80 35 bd
       0.041886266 0.18183255 0.24640511 -0.04431205
0000d0 37 2b 92 bf 8d 1b 16 bd c8 aa dd bc 68 4f 55 3e
       -1.1419438 -0.03664737 -0.027058974 0.20831072
0000e0 25 0a e4 bc 9f 88 7e 3d a0 99 aa bd e4 50 56 bd
       -0.027836869 0.06214201 -0.08330083 -0.052323237
0000f0 23 a0 cd 3c b8 b7 84 bd 3c 3c e9 3d 69 67 aa 3d
       0.025100773 -0.06480354 0.11388442 0.08320505
000100 2d 25 2a bc 4e 7c 17 bf 21 75 da 3d 3c 1c a9 bd
       -0.01038484 -0.5917405 0.10666872 -0.082573384
000110 d3 6c 30 bf e3 5d 4d 3e 02 24 4f bd 25 c9 90 3c
       -0.6891605 0.20055346 -0.05057145 0.017674038
000120 bd ba 12 bd b0 a5 ca 3a b0 22 78 bf 01 9a 37 bd
       -0.03582262 0.0015460756 -0.9692793 -0.044824604
000130 59 2e 76 3e 59 3a 96 bf c4 24 86 3d 42 a5 ad 3e
       0.24041118 -1.1736556 0.06549981 0.33915144
000140 b2 6f 80 bc 2a a2 e8 bd d7 46 dc 3c f8 cc 60 3d
       -0.01567826 -0.11359055 0.026889248 0.054882973
000150 f1 9d ca 3d c0 da 92 3d a3 e5 f4 3d 4e 67 ed ba
       0.09893406 0.071706295 0.11957862 -0.0018112452
000160 d8 5e 1f 3d c8 5a ae bd 70 94 a9 3d aa 9d 92 bc
       0.03890881 -0.08513409 0.08280265 -0.017897446
000170 e9 49 af bf b3 53 32 be 2b a0 d0 3d 34 b8 bc bd
       -1.369443 -0.17414741 0.101867996 -0.092148215
000180 39 9f ae 3d 2c da 0b 3c 34 01 ea 3c 4b 00 5a bd
       0.08526463 0.008535903 0.028565027 -0.053222936
000190 f7 6a 54 bd 35 57 c2 bd e1 cb 43 3e 81 f1 b0 3d
       -0.051859822 -0.0948929 0.19120742 0.08639813
0001a0 f9 d9 de bd 39 1e ac bc 72 a3 fa 3a c1 4b 7e 3d
       -0.10881419 -0.021010505 0.0019122197 0.062083963
0001b0 dd 1e 31 3e 2f 3d de be d5 a3 3a bf 4c c2 e5 bd
       0.1729693 -0.43406054 -0.7290624 -0.112187
0001c0 06 4a 6e bd 06 e6 82 3e e8 a8 57 3e 60 c4 7f bd
       -0.058176063 0.2556612 0.21060526 -0.062443137
0001d0 6b 6a 68 3d bf 12 c4 bd 12 a3 a8 bd 82 ac 8a 3c
       0.056742113 -0.09573888 -0.08234228 0.016927961
0001e0 cb 4a c4 bc c4 2a ca ba 0f 53 58 bd 78 1e 4e 3d
       -0.023961445 -0.0015424122 -0.052813586 0.050322026
0001f0 11 1a 1f 3d be da d6 3d 6f d7 df 3d a9 0d 15 3d
       0.03884322 0.104909405 0.109297626 0.03638998
000200 81 e1 c7 bc 5e fa 83 be ba 50 82 3d 88 23 9f 3d
       -0.02439952 -0.25776953 0.063630536 0.07770449
000210 1c d9 dc be 45 89 d3 3e 4b 88 a5 3d c7 73 35 3c
       -0.4313439 0.41315666 0.080826364 0.011074967
000220 6c 7b e9 3d 6d da 2b bf 72 0b c2 3b a5 f0 95 3d
       0.11400494 -0.67130166 0.0059217745 0.0732129
000230 23 c0 8d 3e 58 e5 72 3d c3 f5 d7 3c 6f d1 98 3e
       0.2768565 0.05930075 0.026362306 0.29847285
000240 7e 6a 67 3d 2e 4b ae bd 50 d3 af 3d 34 04 c8 3d
       0.056498043 -0.08510433 0.085852265 0.09766427
000250 95 18 bb bd d9 f2 3b 3c 27 72 96 3d 29 a4 d3 3d
       -0.09135548 0.011471474 0.073459916 0.103340454
000260 a6 ed 86 3d be 73 6b 3c 4b 2b d6 3c 0f 1a 1f 40
       0.065882966 0.014370857 0.02614369 2.4859655
000270 35 12 c3 bb 83 b8 e6 3d bd dd c4 3d 86 6e a9 bd
       -0.005953098 0.112656616 0.09612606 -0.08273034
000280 b4 0c 2e be 33 3a 28 3c 8f d2 3d 3d 23 a5 ab bf
       -0.16997033 0.010267782 0.046343382 -1.3409771
000290 76 80 72 bd 8d a9 03 be dc 34 2c 3e 3f 32 87 bf
       -0.05920454 -0.12857647 0.16817039 -1.0562209
0002a0 f0 7e c4 3d 9c cf 87 bd 30 02 22 3d 76 8c fe 3d
       0.09594524 -0.06631395 0.039552867 0.124291345
0002b0 e5 21 71 3d 9c fc 78 3e 94 1a 9c 3e e8 b8 27 3e
       0.058870215 0.24315113 0.30489028 0.1637913
0002c0 8f 18 18 bc 28 97 9c be de fe 1e 3e 88 f4 3f 3d
       -0.009283199 -0.30584073 0.15526912 0.046864063
0002d0 43 84 f0 bc c1 64 c0 bd 48 1b b8 bc f0 70 a7 3d
       -0.029359942 -0.09394217 -0.022473946 0.08175838
0002e0 a7 59 c1 bd bf f0 b8 3d 83 b4 36 3d c1 0e 9f bf
       -0.09440928 0.09030294 0.044605743 -1.2426378
0002f0 8e 60 45 3d 44 d3 47 3c f1 8a 16 3e 8b a2 88 be
       0.048187785 0.012196366 0.1470144 -0.2668651
000300 bc b1 1d bc be bb 27 bd 65 0c 21 bd ea 2c 5c bd
       -0.009624895 -0.04095053 -0.03931846 -0.05375377
000310 ca 3b 14 3d 44 1a ca 3d cb e7 1c bd e2 68 9d 3d
       0.03618983 0.09868291 -0.038306993 0.076860204
000320 e6 15 a7 bd a9 51 0b be 56 f9 b8 3c 04 6e 88 bd
       -0.08158474 -0.1360537 0.02257983 -0.06661609
000330 fb f8 ce 3c e7 8c a4 3d 95 24 9c 3d 7d 09 b6 3e
       0.025265208 0.080346875 0.07624165 0.35554114
000340 4a b4 43 bd 9a bc 8d be ff fc 7c 3b 5a cd e1 bd
       -0.04777936 -0.27682954 0.0038602946 -0.11025496
000350 16 30 18 be 1c f3 75 bd e1 a5 90 bd e6 80 c6 be
       -0.14862093 -0.0600463 -0.07062889 -0.38770217
000360 32 9d 14 3d 88 b7 ec bc 05 32 4f bd 3e b6 99 bc
       0.036282726 -0.028896108 -0.05058481 -0.018763658
000370 8a 64 b9 bc 85 a7 3e 3e 91 4d d9 bd 9e eb ea 3d
       -0.022630949 0.18618591 -0.10610498 0.11470722
000380 75 b3 54 3e e5 c8 1f bb 41 dc 3f 3c 49 4a 08 bd
       0.20771582 -0.0024381217 0.0117102275 -0.03327397
000390 2d 74 99 bd fd 27 1c bf 0c ef f2 bc 42 a3 df 3d
       -0.07492862 -0.6099852 -0.029655002 0.10919811
0003a0 30 66 7c bd c3 23 b7 bf 36 21 a3 3d ab 96 ed bf
       -0.06162089 -1.4307789 0.07965319 -1.8561605
0003b0 a8 05 33 3e 5f d3 9a 3e 4e 3c 79 3e 49 5d ab bd
       0.17482626 0.30239388 0.2433941 -0.08367402
0003c0 8f da f5 3d 3b b5 a4 3e ca 77 1d bf 0b 7b 9a bc
       0.12004577 0.32169518 -0.6151091 -0.0188575
0003d0 a9 38 9c 3d f5 35 77 bf a4 df f4 3c f6 13 2f be
       0.076279946 -0.96566707 0.029891796 -0.17097458
0003e0 02 35 dc bd ee 80 df 3d ea 63 a6 3b 85 2c 79 3c
       -0.10752298 0.10913263 0.0050778287 0.015208368
0003f0 75 50 df 3d 04 67 1b bd 27 fc aa bf c0 df 43 3d
       0.10904018 -0.03794004 -1.3358201 0.047820807

fc.3.bias f4 [4]
000000 ef 5b ef 3e 4d aa 01 3f e1 87 fd 3e c7 0c f7 3e
       0.46749827 0.50650483 0.4951773 0.48251936
