models/v17.1/model_40500_target.pt (torch, 729938 bytes, 10 tensors)

conv.0.weight f4 [16, 2, 3, 3]
00000000: 9369 3d3e 7082 ca3d 3ab6 d1bd 26a2 4b3d
00000010: d295 1cbd 019b e53c 6c3a 88bd af01 bbbb
00000020: f4b2 f63d 4d51 6ebe 8c3e 113e cc98 da3d
00000030: fa13 973d 8542 5d3d f4d8 eb3d 28fc 703d
00000040: 0f54 a73d b1b9 89bd 2880 7e3d 7820 503e
00000050: 1833 8ebd a3a5 f0bd 7690 0bbe b973 ed3d
00000060: 1299 54be 8530 7cbe f76b 17be 8d55 89bd
00000070: cc85 213c 3b7d 3cbd efd5 2f3e 6f30 67bd
00000080: 0d63 593d 954a 5e3e 4560 3e3e 3d9b 0d3e
00000090: 8248 de3d 124d 873e 466c ac3b eed2 9dbd
000000a0: 7453 983d 126b 803e 4f27 503e 223f cf3e
000000b0: 73d3 853d 1864 e2bd e8fa 09be 6f46 e9bc
000000c0: 0d6a a73d 86bc c1bd 342f 84be 6e28 44be
000000d0: a108 d2be 6b2e 80bd 18d6 c03d 6722 bc3c
000000e0: 8d93 bc3d eebd 50bd 8fea 183e ee09 9ebf
000000f0: 3010 7e3d 668d babd 4558 833d 8322 c1bd
00000100: 7d47 46bc f738 abbd d449 6e3d 2190 f3bd
00000110: eb7d af3b 444b 61bd 8b44 b03d 75e2 64bd
00000120: 91f0 ac3d 8044 a1bd 4fb5 20be acce b7bd
00000130: 8d43 dbbd 678d f93e a7b1 953d e7cc e13d
00000140: be62 e6bd cc73 b8bd 96b0 a73d 20c2 243e
00000150: 53b7 c83d b78a f83d 973a 943e 4cc2 8ebd
00000160: 416b dcbd 74f6 bb3d 60eb cd3d 7977 21bd
00000170: 33f7 b73e 78ea 0d3b eb3d 8cbe b567 ea39
00000180: 608c d23d 7ac9 0abe 67f7 2bbe 98fe f6bd
00000190: 6519 f83a 488a 223e 4d8a 8e3c 8da5 4ebd
000001a0: ee69 ba3c 1744 adbd f136 0b3e a7f7 0a3e
000001b0: a792 ddbe 671f debe 7e1a 163b fae7 93bb
000001c0: d62c f6bb 57b5 1bbf cc02 fdbe f3d1 bfbe
000001d0: 0d66 7abd d104 033e 32e8 db3d 3eb6 f2bb
000001e0: 776f cebc cd4d cbbc 242e 423e 5392 f93d
000001f0: 3e65 d13d 4141 f53c 7821 03bf 196c dabe
00000200: 1943 033e d379 7fbd a243 eb3d e142 ef3d
00000210: e35a 8cbe 52dc 393d 0320 b3bb d67d a73d
00000220: 43a2 2f3e 6e97 c3bd dd13 883d 9c64 abbd
00000230: 2d35 d03d 6ea9 5fbd a3e7 a63d 2323 4ebd
00000240: b822 8a3d e925 983d 8c5b d93d 34f4 e43d
00000250: 550c 5a3e 55ee cebd 7092 923d e39e 09be
00000260: d964 9ebd b1e0 81be 7c7b d43d 94e7 7cbd
00000270: 2ca8 0c3d 1cd1 7a3d 7fa9 fa3d 160e 5ebd
00000280: 69e6 e63d 4ff2 f53c 55ec f83b 8e6c 00be
00000290: 8888 263e ae5d 983c 37c6 8e3c c2da 293f
000002a0: 7147 4fbc b7fa 22be 2b49 f2bc 04ec fc3b
000002b0: 16c8 d03d 6f89 0dbe 3fb6 9ebc cc40 bf3b
000002c0: fec5 26bf 2e43 e53b 2d56 1f3e 0e40 4f3d
000002d0: 1d90 183d f4e0 6f3c 3ad4 ae3c f7cc 4bbd
000002e0: 6207 fe3e 5486 37bd 3a3e 43b9 30d0 b1bd
000002f0: 8cbb ab3c f910 38bd c681 26bc 3014 6bbc
00000300: 1c9b 983d d143 b73e d0c4 343d e4a5 3bb9
00000310: 7d5b b83d 68a0 e9bc d2c7 febc 9c4b c83c
00000320: 150e f9bd 51f5 8fbd 7cb1 f33e edf9 503d
00000330: 4b80 0bbe 7853 45bd 8d21 21be 40dd dc3c
00000340: 48e1 49bd 799e 0e3e 60bc 7f3d a534 333e
00000350: 3ee4 00be 46e1 1d3e 128c adbb f9e3 2d3e
00000360: 96c9 06be 2962 52be 30d2 0dbd f194 21be
00000370: 8572 52bf 9844 283e b745 03be f42b 36be
00000380: 8f23 58be 574c 0e3e a1a4 523e 7d43 493d
00000390: 6af3 383e 3546 3ebd 5d7f 17be 33e4 f03d
000003a0: a0c5 433e 5c45 5c3e 5871 c93d b4f0 88bd
000003b0: 80ca 38bc 334b c2bd 9788 88be 274c c5be
000003c0: 7eb8 633e 3de4 07be e1b1 b6bd 7f01 1bbe
000003d0: 6773 b0bb 34b5 2bbc 7c46 993d ea07 3c3d
000003e0: 99e9 0f3e 70dc 213e 907a c63d 8562 df3d
000003f0: 88a7 d5be 4ddb b5be 1f25 1cbf e17f b3bd
0.18497305 0.0988816 -0.10239835 0.049715184 -0.038228817 0.028028013 -0.06651768 -0.005706988
0.12045851 -0.23273201 0.14184016 0.10673675 0.07376857 0.054018516 0.1151599 0.058834225
0.0817033 -0.06724871 0.062133938 0.20324886 -0.06943339 -0.11750343 -0.13629326 0.11594338
-0.20761517 -0.24627884 -0.14787279 -0.06705771 0.00985856 -0.046017867 0.17171453 -0.056442674
0.053072978 0.21708138 0.18591411 0.1382875 0.108536735 0.26425987 0.0052619306 -0.07706247
0.074377924 0.25081688 0.20327495 0.40477854 0.06534471 -0.110542476 -0.1347462 -0.028475968
0.081745245 -0.09459786 -0.25817263 -0.19156048 -0.41022208 -0.062588535 0.09415835 0.022965623
0.092078306 -0.05096238 0.14933227 -1.234678 0.062027156 -0.09109001 0.064133205 -0.09430411
-0.012102005 -0.083604746 0.058175877 -0.11892725 0.0053555868 -0.05500342 0.086068235 -0.05588003
0.08444322 -0.078743935 -0.15694164 -0.089749664 -0.10706244 0.48740694 0.07309275 0.1102541
-0.11249302 -0.090064615 0.08187978 0.16089678 0.09800591 0.12135833 0.2895095 -0.06970653
-0.107626446 0.091778666 0.1005466 -0.03942058 0.35930786 0.0021654647 -0.2739099 0.00044709226
0.10280681 -0.1355342 -0.16793595 -0.12060279 0.0018928467 0.15873063 0.017399931 -0.05045085
0.02275559 -0.08460253 0.13595177 0.13571034 -0.4327595 -0.43383333 0.0022903974 -0.0045137377
-0.007512669 -0.6082358 -0.49416196 -0.37464866 -0.06113248 0.12794806 0.10737647 -0.007406979
-0.025199635 -0.024817372 0.18962914 0.12186112 0.102243885 0.029938342 -0.51222944 -0.42660597
0.12818564 -0.06237204 0.11487509 0.11682678 -0.2741309 0.04537613 -0.0054664626 0.08178298
0.17151742 -0.09550367 0.066444136 -0.08368799 0.101663925 -0.05460494 0.0814965 -0.050326478
0.06744903 0.07429106 0.10613164 0.111793905 0.21293767 -0.10104052 0.07156837 -0.13439517
-0.07734079 -0.25366738 0.10375115 -0.061744288 0.03434007 0.06123458 0.1223936 -0.054212652
0.11274416 0.030022768 0.0075965323 -0.1254141 0.1626302 0.018599357 0.0174285 0.6634942
-0.01265131 -0.15915953 -0.029575905 0.007718565 0.10194413 -0.13821958 -0.019374011 0.005836582
-0.6514586 0.006996534 0.15560217 0.050598197 0.037246812 0.014641035 0.021341432 -0.049756017
0.49615008 -0.04480584 -0.0001861983 -0.08682287 0.020963453 -0.04493806 -0.010162776 -0.014348075
0.0745146 0.35793927 0.044133008 -0.00017895509 0.09001825 -0.02851887 -0.031101141 0.024450116
-0.12160889 -0.07029212 0.47596347 0.051019598 -0.13623159 -0.048175305 -0.15735455 0.026960969
-0.04928711 0.1392764 0.062435508 0.17500551 -0.12587067 0.15417966 -0.0052962387 0.16981496
-0.13162836 -0.20545258 -0.03462428 -0.15779473 -0.8220599 0.16432416 -0.12819563 -0.17790204
-0.21107315 0.13896309 0.20570613 0.049136627 0.18061605 -0.046453673 -0.14794679 0.117622755
0.19118357 0.21510834 0.09836072 -0.066865355 -0.0112787485 -0.09486999 -0.2666671 -0.38534662
0.22238347 -0.1327066 -0.089206465 -0.1513729 -0.005384851 -0.010480214 0.07484147 0.045905985
0.14053954 0.15806746 0.09691346 0.10907463 -0.4172938 -0.35518876 -0.6099414 -0.08764625

conv.0.bias f4 [16]
00000000: 9005 5f3d 5695 0bbe fe70 7fbd 037b 0e3f
00000010: 1c7b febe ed07 a3be e4e4 313e 4ef0 1ebe
00000020: 6ddb a2be 04aa 12bd f0d6 0dbf 40f3 b8be
00000030: 782f 843e 3f36 4fbe d313 bfbd cfde 59be
0.054448664 -0.13631186 -0.062363617 0.5565645 -0.497033 -0.31841984 0.17372471 -0.15521356
-0.31808034 -0.03580667 -0.55406094 -0.36123085 0.25817466 -0.20235537 -0.09329953 -0.21276401

conv.2.weight f4 [32, 16, 3, 3]
00000000: 5b38 57bd 679a 9b3c 2378 e9bc 0e3b 89bc
00000010: 999a 7abd 0256 2bbc f662 bb3d 5404 6abc
00000020: 5628 babd 83f5 a23d 45d4 d13d b2f3 b13d
00000030: 9488 0b3e f1f0 e73d 7e92 fc3c ac40 483d
00000040: 14ee 20bd 6d16 2ebd f1ba 333e e5f9 0bbd
00000050: 3de4 42bd f4b9 f7bc 44f4 a3ba 2674 67be
00000060: 6b4e fabd 672f 79be 3fdc 3cbe f969 5c3c
00000070: 79f5 08bd c4a1 04be 5397 833c e126 7bbd
00000080: 263d 8bbd c1e6 6b3d ec11 e0bd a0c1 b3be
00000090: a5cb a53d 2833 f23d 5f79 8ebe 70c7 12be
000000a0: 8e95 25be a641 abbe aa7e eb3d b793 f7bd
000000b0: a677 2dbe c7bd 413d 2570 d93c 4ac8 b5bd
000000c0: 19c2 2e3e f16c c13d 77e5 83be 4438 a33d
000000d0: 6cb3 8f3d f1ce 02be 0f4b 353d 1e8f 443e
000000e0: 875f 5e3c 9af6 1e3e 8065 3f3d d1a7 34bd
000000f0: aab1 8a3d 53f6 ab3c 86ed 34be 7382 40be
00000100: 9453 18bd d804 983c 860e 89bd 586d 8cbc
00000110: 73e1 2abd ec03 a1bd c9dd a5bd 522b 07be
00000120: 99ab bf3d a8f3 883d 7f4d 283d fab0 91bd
00000130: 76ff 173e 6460 04be fd2d ca3d b4f8 42bd
00000140: 3574 1ebe 7acc c43d cb10 6abe 896d 2f3d
00000150: e72c de3d 5f59 1dbe d55a 21bd 3e46 2dbe
00000160: 8800 6abe 2c88 c13c 0f87 4a3d 2b31 f83b
00000170: 2ff2 fabd 58a9 e5bc a9f3 de39 833a 17be
00000180: 0dc3 9bbd a73b fdbc eace 92bd 79ec 123c
00000190: e27b 4e3a f7f6 8cbd 4de1 16be caee 52be
000001a0: b4dd 11be e50d 00be 23e3 0dbe 4713 c43b
000001b0: d78c bb3c bc75 2e3d 4c50 0c3d 9d86 00be
000001c0: d0c4 a3b8 27ff cb3c 606d 04be 8cc6 14be
000001d0: 498b bcbc 5d77 b6bb 1d24 5e3c 6e21 523d
000001e0: cfd4 853d ce13 993c d10f b4bc 801f 15bd
000001f0: 30c4 2ebd 0b8d aa3c a172 be3c 7dcd 043c
00000200: 6158 e9bb 925c 02bd 603f 34be cc00 c2bd
00000210: f2be e4bc 7d87 2cbd 6b73 b23d 0b6e 06be
00000220: 81da 5abc 383e b5bd 68d0 d0bd 0540 da3d
00000230: b6f4 243c cf0e b5bd 1785 1abe 7881 8fbd
00000240: ab20 f13d 6129 2ebd 27aa 993d 8f83 97bc
00000250: cec7 933c d974 c33d 0bf7 f1bb 0bd3 a1bc
00000260: 00fa 03bd 5725 3abd 5340 1fbd aa9a 8bbc
00000270: 9397 d33d f373 003e 6a73 533d 9d29 0ebd
00000280: b9c0 333b 5156 b63c ca70 c3bd 2bb1 6bbe
00000290: 8b1a 213d 7f94 da3c 19e7 74be ccd1 6b3e
000002a0: 1d61 bc3d 1a0b d8bd 9399 b83d 0b9b a4bf
000002b0: de58 42be 6b08 1fbd 045b 70bd 2a3f dbbc
000002c0: 6708 ae3d 3454 14bd b672 d0bc 95ca e5ba
000002d0: 83fd 5bbf 304a b33e 0dd4 0abe 6eb4 bebd
000002e0: 6016 e73c 5eeb a83d a725 f63c 1867 48bd
000002f0: 78fd 85bd 070d 29be 1fc1 a5be a207 263d
00000300: a069 86be 3f63 e63d 4816 3fbd 7e5b e9bd
00000310: df94 0a3c ab20 d4bc ef92 f1be 56f5 3d3d
00000320: 55ee 8ebe c997 043e e97f 96be a2ca 7bbe
00000330: 4f69 803d 6b62 de3c 09b6 39bd 0a9f 26be
00000340: 487d 8e3d 19b9 9ebc 0247 953d 2a40 72be
00000350: ded1 5bbe d9c9 743d ac5c 243d c819 7bbd
00000360: 5e5b ff3c a910 62be 1a81 d33d 919e da3d
00000370: c64c 903d f9b5 f13d 5858 243c 3936 4dbd
00000380: ad2d 713d 0ab4 d83e f258 e1bd 779f 0a3d
00000390: 18c4 fabd b4a8 0fbe 11a1 bebd afc3 793a
000003a0: d499 52bc fc5a ecbc 8d6b 323d 2507 f4be
000003b0: e3cb ac3e 0f3c dc3d 174f 09be e9fa 90bc
000003c0: 0f16 b03b 552f 0bbd 4e61 71bc 7005 4a3e
000003d0: e759 bebe ef25 973e efdd 1a3d a2fd 82be
000003e0: 50fc c7bd 8757 5b3c 1e62 32bd 2c90 513c
000003f0: ac02 243e 91fd 48bf f2d2 d0be c4a4 2f3e
-0.05254398 0.018994523 -0.028499668 -0.016751792 -0.061182592 -0.010457518 0.09149735 -0.0142832585
-0.09089725 0.07956984 0.10245565 0.08689059 0.13626319 0.11325253 0.030831572 0.0488898
-0.03928955 -0.042501856 0.17551781 -0.034173865 -0.047580946 -0.030240037 -0.001250871 -0.22602901
-0.12221988 -0.24334489 -0.18443392 0.013453 -0.033437226 -0.12952334 0.016063368 -0.061316375
-0.067987725 0.05759311 -0.10940918 -0.35108662 0.08095483 0.118261635 -0.27826974 -0.14333892
-0.16170332 -0.33448523 0.11498769 -0.12088721 -0.16940174 0.047300126 0.026542732 -0.08876093
0.1706623 0.09444607 -0.25761005 0.07969716 0.07016644 -0.12774254 0.044261035 0.1919522
0.01357258 0.15523759 0.046727657 -0.044105355 0.06772168 0.02099148 -0.17668733 -0.18799762
-0.03718908 0.018556997 -0.06692223 -0.017141983 -0.04171891 -0.07862076 -0.08098943 -0.13200119
0.093589015 0.06687099 0.04108953 -0.07113834 0.14843544 -0.12927395 0.09872053 -0.047600463
-0.15474017 0.09609313 -0.22857969 0.04282907 0.10848408 -0.15366124 -0.039393265 -0.16921327
-0.22851765 0.023624502 0.04944521 0.0075742207 -0.12253224 -0.028034851 0.0004252468 -0.14768414
-0.07605562 -0.030912234 -0.07168372 0.008967512 0.00078767363 -0.06883042 -0.14734383 -0.20598903
-0.1424473 -0.125053 -0.13856177 0.0059837434 0.022894306 0.04259275 0.034256265 -0.12551351
-7.809105e-05 0.02490194 -0.12932348 -0.14528865 -0.023015635 -0.0055684284 0.013558415 0.051301412
0.06534731 0.018686201 -0.021980198 -0.036406994 -0.042667568 0.020819208 0.023248019 0.008105633
-0.0071211313 -0.031826563 -0.176023 -0.09472808 -0.027923081 -0.0421214 0.087134205 -0.13127916
-0.013357759 -0.08849758 -0.10196 0.10656742 0.010068109 -0.08840715 -0.15089832 -0.07007116
0.11773809 -0.04251993 0.07503157 -0.01849535 0.01803961 0.09543771 -0.007384186 -0.019753953
-0.03222084 -0.045445766 -0.038879704 -0.017041523 0.10331645 0.12544231 0.05162374 -0.034707654
0.0027428104 0.022257956 -0.09542997 -0.23016803 0.039331954 0.026682137 -0.23916282 0.2302925
0.091982104 -0.105489925 0.09013667 -1.2859815 -0.18979213 -0.038826387 -0.05868055 -0.026763517
0.08497696 -0.036213115 -0.025445323 -0.0017531688 -0.85933703 0.35017538 -0.13557453 -0.09311758
0.028208911 0.08248018 0.03004725 -0.048926443 -0.06542486 -0.16508876 -0.32373902 0.040534623
-0.2625246 0.112493984 -0.04665211 -0.11394404 0.008458345 -0.025894484 -0.47182414 0.04637655
-0.27916208 0.12948526 -0.29394463 -0.24589017 0.06270086 0.027146539 -0.045339618 -0.16271606
0.06957489 -0.01937537 0.07288934 -0.23657289 -0.21466777 0.05976281 0.04012744 -0.061303884
0.031171497 -0.22076668 0.103273585 0.106747754 0.07045893 0.11802287 0.010030828 -0.05010054
0.05888145 0.4232486 -0.11003293 0.033843484 -0.12244433 -0.14029199 -0.09308065 0.00095277553
-0.012854058 -0.028851978 0.0435596 -0.476617 0.33749303 0.10753643 -0.13409077 -0.017697768
0.0053737233 -0.033980686 -0.014732672 0.19728637 -0.37177965 0.2952113 0.03780931 -0.2558413
-0.09764922 0.013387567 -0.043550603 0.012790721 0.16016644 -0.7851191 -0.40785939 0.17152697

conv.2.bias f4 [32]
00000000: 9c8c d73c fab6 023c 2898 55bd 430e b0bd
00000010: 2d38 cbbc ee52 c8bd 7ec4 cb3d 42de 93bd
00000020: 703d b9bd 310c 5cbe 1fcf b6bc 66f3 2b3e
00000030: a060 eebd 4e7a da3d 8158 ba3d cbfe 1b3c
00000040: c4f6 3d3d 5bd6 a03d 38fa e83d 4ba7 d5bd
00000050: aadc bdbd 9632 ef3c 65fb 59bd 90c1 12be
00000060: 33bf 73bc 95b9 013e 8bb8 7cbd 95ab fabd
00000070: f62c 0fbd facd 1a3d 00e2 febc f00f 99bc
0.026312165 0.007978195 -0.05214706 -0.0859647 -0.02480706 -0.097814426 0.09949587 -0.07220127
-0.090449214 -0.21489026 -0.02231556 0.16792068 -0.116395235 0.10667859 0.09098912 0.009521197
0.046377912 0.07853385 0.113758504 -0.10432299 -0.09270604 0.029198926 -0.053218264 -0.1433165
-0.014877128 0.1266845 -0.06169943 -0.12239758 -0.034954987 0.03779409 -0.031113625 -0.018684357

conv.4.weight f4 [64, 32, 6, 6]
00000000: 3701 49bc 0fd1 6dbd 9ef2 7d3d f4fc 7bbc
00000010: 0a8e 173d ebdb 7fbc e468 f8bc 8386 253d
00000020: 2e2f ef3c e14d e23c 3470 88bc 33ea 0b3d
00000030: 9454 a939 2bbb d23c 9961 c7bc 2fb2 30bd
00000040: 395d 01bb cf39 c43c d3e5 893c dd05 a13d
00000050: f616 373b 6693 42bd e635 44bd 9b2e 993d
00000060: 18db f23c 14d8 433b 2f65 6cbd ef44 123d
00000070: 059e f1ba cfa7 ecbb 065f 3a3c 7235 89bc
00000080: e9a2 09bd ba84 8d3b cf26 27bd 8185 b3bb
00000090: 584d d6bd 643c 47be 9170 67bd 753e efbd
000000a0: 3511 25be 50f9 36be 8d64 0dbd fbab 72bd
000000b0: 8cd6 5dbc 63ee 60bd 09b5 59be c0d0 fb3d
000000c0: b389 99bd 0903 393d 3420 b8bd 6ec2 ad3d
000000d0: 1f42 6cbd 5bac bebd be16 d2bd 61a0 0abe
000000e0: 535f cfbd dd73 d0bd 35f0 0fbe 7156 36bd
000000f0: bd34 8bbc 95e3 3ebe 33ad 4fbe 2431 f5bd
00000100: 7603 e1bd 95c5 f5bc 2692 aeb9 5f51 acbd
00000110: 526d 91bc a4c6 48bd 3822 90bd 1293 7dbe
00000120: 2e6a 9c3c f604 1ebc b4e5 8c3c a9d1 443c
00000130: 7b40 033d 6e9a 7c3c 14a8 a1bc b6ee 3c3b
00000140: 9285 3d3c 3bcc df3c e531 523c 604b 883c
00000150: 6394 aebb ce10 3b3a 9e50 80bc 8571 9f3c
00000160: 0b0e be3c daaa 4abc 12a7 d1bc e4db b73c
00000170: e6c6 fabc b21f 683c f055 07bd cdac 5cbc
00000180: a305 4dbc 520d e03c b9db a2bb 8066 d03c
00000190: f53f 0c3c b2cb 073d 58ab 9d3c b512 b53c
000001a0: 13d0 d13c 0449 0fbc b3b9 04bc b34a 9e3b
000001b0: c39f 3e3d 9270 1a3d 3183 223d 3e32 37bd
000001c0: 3963 8dbd fbf8 0e3d 82ab 57bc d591 683d
000001d0: 005c d3bd 1bfa 02bb cd7c 053d d372 82be
000001e0: cdcf 313c 0948 79bc b694 c2bc 3036 fa3b
000001f0: 2ea2 a83d 4143 f23d 08ad 9e3c 8349 12bd
00000200: 0988 8f3b e210 24bc 6d73 ac3d c5f7 783d
00000210: 3047 c03d 1d9c c23d 9235 b93d 92a3 bd3c
00000220: 38f8 be3d 5055 45be 3d7e 2d3d 5df0 bbbd
00000230: 61a7 15bd 578f 1f3c 517f 9b3d 6c46 b7bd
00000240: 535c 4fbd e52f 0fbe 4aae 26bd 1131 b7bd
00000250: d73a 623c fd76 48bd a08c a13d f8ef a13d
00000260: adc1 93be 6a4c 60be 33f7 a2be d391 2abe
00000270: aaf8 e2bd 30df a0bc ab7b ddbd 28f3 e7bd
00000280: 8fc2 d0bc 9b0a 59be f8ed ad3c 6694 5fbd
00000290: 582b 63bd 5cea f9bd 0001 83be 72c3 3dbd
000002a0: 1cc6 983d 694b 6fbd be2b 90bd 8748 05be
000002b0: 2ad5 ccbd 9b80 e63b 12c0 6ebd 8c33 c9bd
000002c0: 0683 583c a387 00be e3f0 73bd c9af aabc
000002d0: be01 bc3c f46b 8fbc f09e 523c 8113 9d3c
000002e0: 1c4b 98bc 2c83 803c 9e06 c93b f5e2 99bc
000002f0: cbc8 08bc 5825 14bd 9a04 913c d8b9 b33b
00000300: dfdd 353c 0007 b13c 709a 743c f946 ef3c
00000310: d133 733c 4659 afbc fe89 0a3d 2000 393c
00000320: 192c 0abc 6c54 25bc 45e2 fa3c 8f6a 323c
00000330: c619 7a3c b6a3 eebb 57c7 a03c 4631 f3bc
00000340: 26b2 01bb 9c4b f83b 13f2 63b9 19db 993c
00000350: b02f e0ba 6816 9d3a 88ac a43c 4039 48bc
00000360: 7103 c23c 6ad8 4e3d ab9b 893e 557f 1f3e
00000370: 3faf c73d 641a bf3d bea4 bf3d 04ab ac3d
00000380: 632e 273e 4056 6c3e 0730 0d3e 39e5 233e
00000390: dd6c 4a3e 4e9e b43d 823f 813e 98fb 233e
000003a0: d683 c93d 565a f83d 2734 4d3c b06e 573c
000003b0: e207 f83d 83cc 303e 536a 823d b325 ce3c
000003c0: 29a6 0c3c 8d3b ad3d 1397 cebb c0cd 913d
000003d0: 0b13 553c b2ec 1d3d 56d1 293d 25d5 38bd
000003e0: 0b1e b13d 24f2 ed3d 7870 07bd 582e a5bd
000003f0: 5c49 843c 73f0 8a3c d6d8 67bc b474 ba3c
-0.012268356 -0.058060702 0.061998956 -0.015380133 0.037000693 -0.015616397 -0.030323453 0.040411483
0.029197302 0.027625026 -0.016655065 0.034158897 0.00032297208 0.025724014 -0.02433853 -0.04313868
-0.0019739403 0.023953347 0.016833222 0.078624465 0.002793727 -0.04750385 -0.047902964 0.074795924
0.029645488 0.0029883431 -0.057713684 0.03571027 -0.0018433934 -0.007222153 0.011375194 -0.016749118
-0.03360263 0.0043188008 -0.040808495 -0.0054785614 -0.10463971 -0.19456631 -0.056503836 -0.116818346
-0.16119845 -0.17868543 -0.03451972 -0.059246045 -0.0135399215 -0.054914843 -0.21260466 0.12295675
-0.07496967 0.04516891 -0.08990517 0.0848435 -0.057680245 -0.09310218 -0.10258244 -0.13537742
-0.101256035 -0.10178349 -0.14056475 -0.04451603 -0.016992921 -0.18641503 -0.20280914 -0.119722635
-0.10986988 -0.030001441 -0.00033296755 -0.08413958 -0.017752323 -0.049017563 -0.07037777 -0.24763134
0.0190936 -0.0096447375 0.017199375 0.0120128775 0.032043915 0.015417678 -0.019733466 0.0028828806
0.01156749 0.027319064 0.012829279 0.016637504 -0.0053277477 0.0007135988 -0.015663441 0.01946331
0.023200056 -0.012369836 -0.02559236 0.02244372 -0.03061242 0.014167713 -0.03304094 -0.013468933
-0.012513551 0.027350102 -0.0049700406 0.0254395 0.00856017 0.033153243 0.019246742 0.022103647
0.025611913 -0.008745436 -0.008100915 0.004830682 0.04653908 0.03770501 0.039675895 -0.04472565
-0.06903691 0.034905415 -0.013163449 0.0567797 -0.10320282 -0.00199855 0.032589722 -0.2547823
0.010852766 -0.015214928 -0.023752552 0.007635854 0.08234058 0.11829234 0.019369617 -0.035714637
0.0043802303 -0.010013791 0.08420453 0.060783166 0.09388578 0.095024325 0.09043421 0.023149285
0.09324688 -0.19270825 0.04235672 -0.09176705 -0.036536578 0.009738765 0.07592643 -0.08948979
-0.050625157 -0.13983114 -0.04069356 -0.089449055 0.013807974 -0.0489416 0.0788815 0.079070985
-0.288587 -0.2190415 -0.31829223 -0.1665719 -0.11082585 -0.019637674 -0.108146034 -0.11325675
-0.025483398 -0.21195452 0.021231636 -0.054584883 -0.055461258 -0.12202904 -0.255867 -0.04632897
0.07459661 -0.058421526 -0.07039593 -0.13015948 -0.10001595 0.007034374 -0.05828864 -0.09824285
0.013214832 -0.12551741 -0.0595559 -0.020835774 0.02295005 -0.01750753 0.012855276 0.01917434
-0.018590502 0.015687548 0.006134822 -0.01878498 -0.008348654 -0.036168426 0.01770239 0.005484801
0.0111002615 0.021609783 0.014929399 0.029208647 0.014843897 -0.021404874 0.033823006 0.011291534
-0.008433365 -0.0100909285 0.030625472 0.010889663 0.015264934 -0.0072826995 0.019626303 -0.029686581
-0.0019790023 0.0075773727 -0.00021738587 0.018781232 -0.0017104056 0.0011984827 0.0201018 -0.012220681
0.023683282 0.050499357 0.26876578 0.15575917 0.097502224 0.093312055 0.09357594 0.08431056
0.16326289 0.23079777 0.13787852 0.1600541 0.1976809 0.08819257 0.25243765 0.16013944
0.09839599 0.12126605 0.012524641 0.013148949 0.121108785 0.17265515 0.06367936 0.02516446
0.008584538 0.08458624 -0.0063046305 0.07119322 0.0130050285 0.03855581 0.041459404 -0.045125145
0.08648308 0.1161845 -0.033066243 -0.0806548 0.016148262 0.016960358 -0.014150819 0.022760727

conv.4.bias f4 [64]
00000000: d18d 86bd c3be b63c c2af 12be adcc 85bd
00000010: 264d 263d 72bf a0bd f3fd 1c3b dbc4 5bbd
00000020: a0bb acbd 5fe1 09bd ab06 d9bc c65b 0abd
00000030: f6fc 1cbd b158 05be f724 cdbd a3f7 8bbd
00000040: 81b0 debd 5e57 f63d fb20 48bd 4852 2dbd
00000050: 120b bebd 1383 87bd d853 7a3e dbc2 87bd
00000060: f6d6 99bd e1b1 03be 5007 d3bd 5135 dfbd
00000070: 0eca b6bd d8a7 e6bd fff3 71bd 4577 cd3d
00000080: a157 dabd 58e5 543e c8af d3bc 6621 b3bd
00000090: 7aa1 5dbd bce8 103e 5198 a4bd acbd babc
000000a0: a684 20be cf29 f1bd a328 3dbd 9560 47be
000000b0: 04f6 59bd 4953 58bd 8b06 343e ac9c 12be
000000c0: 3e6e 3fbd 9189 9dbd e628 69bd 3eb5 ecbd
000000d0: 6647 49bd 46bd bdbd 02fa 16bd ff71 b9bd
000000e0: 3c66 45be d2d7 85bd 8aa5 5abd 7ce0 c23d
000000f0: de53 dcbd 64d1 0ebd d59a e9bd 59a1 8dbd
-0.06570018 0.02230776 -0.14324859 -0.065331794 0.04060092 -0.07849015 0.0023955076 -0.053654533
-0.08434224 -0.033662196 -0.026492437 -0.03377893 -0.03832718 -0.13022114 -0.10016816 -0.06834342
-0.10873509 0.12028383 -0.048859578 -0.042314798 -0.09279455 -0.06616797 0.24446046 -0.066289626
-0.07511704 -0.12860824 -0.10304129 -0.10898841 -0.089252576 -0.112624824 -0.059070583 0.100325145
-0.10661245 0.20790613 -0.025840655 -0.087466046 -0.054109074 0.14151281 -0.080368645 -0.02279552
-0.15675601 -0.117755525 -0.046181332 -0.19470437 -0.053213134 -0.052813802 0.17580621 -0.14317578
-0.046735995 -0.07692254 -0.05692377 -0.11558007 -0.049140356 -0.09264617 -0.03685952 -0.09054946
-0.1927728 -0.06535305 -0.053380527 0.09515473 -0.10758184 -0.03486766 -0.11406485 -0.0691554

fc.1.weight f4 [64, 1600]
00000000: 3bfb b53b beab f8ba 67ab 89bc 759e 8f3c
00000010: 5664 d73a 1a45 c6bc e919 09bc 7243 1d3c
00000020: 5029 a23c eb63 30bb cb89 b3bc 9793 993c
00000030: cce3 11bb f2bc aebc eaab 7fbc b9d5 c8bc
00000040: d379 45bc 37b6 a5bb cd5b a0bc 2ef5 cabb
00000050: 9125 8abc 40a2 29bc 50f4 3b3a e13d 57bc
00000060: 2577 02bc 96d3 b2bb bc30 8e3c c64b 433c
00000070: 5fb1 893c ae5b 223c 9fe8 ae3c e156 39bc
00000080: c2cf a83c 0475 89bc 7efd 383c 464c dc3b
00000090: f593 8ebc 8fee be3b 0163 47bc 5b7f 263c
000000a0: ff4e b0bc d1d5 f3bb 5380 b73c 0503 bfbc
000000b0: ce4f 1c3c 1b53 59bc ee76 9d3b ca3e 0ebb
000000c0: 1246 e6bb f4dc 943c 0e10 a13c 04db 9a3c
000000d0: 6c25 65bc 6e54 d23c cfc8 443b 2006 8bbc
000000e0: b9ae c2bc 78a0 33bc 8f47 ea3c 3eb8 9dbc
000000f0: 5db8 3e3c b5d7 1ebc fc0a b63c c3b0 f3bb
00000100: 1ecd 96bc a5f0 2a3c baf8 83bc be88 07bc
00000110: 800f 8bbc ab1c b2bb ae01 f23a 622e a43c
00000120: 803f f2bb fa20 f73c 4ec0 b13c 4da8 ed3b
00000130: c14d 5f3c 12bb 4d3b 3fa8 04bb bdfd 773b
00000140: 654c 3abc 966f a33c 81dd 1bbc 6f98 aabb
00000150: 8e09 e8bb 60ed b1bc 3c55 21ba 3845 a4bc
00000160: 6156 043c 33ec 553b 5827 aebc 0f0b 373c
00000170: c790 b8bc 22f9 1b3c 956d 733b a8de 2c3c
00000180: b791 b2bc 0b2e 53ba 73cb eeba 625e db3b
00000190: 12db 213c ac84 c4bb 2dca 1ebc b579 c03b
000001a0: 60f1 87bb 5309 5dbc 82a9 5a3c d0c5 9d3b
000001b0: 8744 ae3c 61b5 b03b c9d7 e0bb 150c a83b
000001c0: 4cdc eebb a6e5 b23c 2beb a83c 137b a73c
000001d0: c97f ddbc 7a69 283b 0444 043c fd71 cfbc
000001e0: a808 eebb a70d ed38 8f5b 47bc c5f0 9a3b
000001f0: da52 9ebc 03b4 93bb 0ac1 5c3c 5eb9 e3bc
00000200: ba6b 08bd e77b cbbc eddb b13b d0ae 28bc
00000210: b133 cc3b 4362 9f3c 475e a3bc 0baf 423c
00000220: 3afc 92bc f66e 98bb 902e 82bc fe06 b2bb
00000230: e8ba 0a3c 9d8c 973c 66d0 af3c 07cd 933b
00000240: 85de 9b3b cd26 08bb 0dc7 c7bc d5af 86bc
00000250: 098d 7f3a 8c00 31bc 864b 06bd 0801 953b
00000260: 1cae 08bb 0872 77bc 1428 3cbc febd c1bc
00000270: ca5f 30bd 2cf0 90bc c1a8 27bd b578 1abd
00000280: ab86 b3bc 1c9d 1bbd b097 b9bc ebcd 8cbc
00000290: fe7e 973a b936 a7bc 8e4b 8e3b 694d debc
000002a0: 2f0b 02bd 494e 16bd 9890 38bc 5514 09bc
000002b0: a10c 0bbd 73c5 0cbd 938b 343b d13b 9f3c
000002c0: 80ce eb3b 8187 c8bb 9838 d4bc 7e3e 573c
000002d0: e2f5 b8bc 598d a3bc d05f 84bb bf01 00bd
000002e0: 705a fc3a c2f7 6b3c 37e2 803c 447f 043c
000002f0: b18f a6bc 1e18 8b3a eb72 9dbb 3229 ad3c
00000300: e26b e7bc a001 30bc 2769 cfbc d18a f03b
00000310: fb3b 793c 92b6 ea3b 9818 1a3b e76f a93b
00000320: 985b 073c ca59 3f3c acd4 abbc c6db 76bc
00000330: 8893 8dbc 69ec 61bb 646d 3f3c 711c e5bc
00000340: 37e5 353c 7062 afbb b114 c43c 64c7 6c3c
00000350: 0ac8 e1bb 7ca1 95bc a526 09bc 712b 443c
00000360: 89c5 5f3c 4bf1 4d3c 7385 863b 79bf 8d3c
00000370: b1a9 afbc 1259 5abc 0c3f 91bb e604 85bc
00000380: ef64 bdbc 3255 043a c678 1dbc c427 403c
00000390: 9d3b a83b c6a0 58bb 8a45 f139 873d 91bc
000003a0: fbc4 94ba 3273 57bc fd02 f2bb 4673 b03c
000003b0: 7894 5fbc 698e 863b 5d09 1dbc 7c25 883a
000003c0: 8cea 77bc 318f 28bb 55f3 84bb c507 51bc
000003d0: 6985 d33a ee69 46bc 03f8 c7b9 fd8e 013c
000003e0: f925 d1bb 347a 3c3c 325d cc3b 2875 053c
000003f0: 3fdf 0fbc 897a 253c f27e f639 3d9a 3cbc
0.0055536306 -0.0018972082 -0.016805364 0.017531613 0.0016433101 -0.024202872 -0.008367994 0.0095986
0.01979509 -0.0026915025 -0.02191629 0.018747134 -0.0022261022 -0.02133033 -0.015604952 -0.024515973
-0.012052971 -0.005057122 -0.019575024 -0.0061937785 -0.016863616 -0.010353625 0.0007169889 -0.013137312
-0.007962977 -0.005457352 0.017357223 0.011919921 0.01680821 0.009909553 0.021351157 -0.011312217
0.02060688 -0.01677943 0.011290906 0.0067229597 -0.017404536 0.0058267782 -0.0121696 0.0101622
-0.021522043 -0.0074412604 0.022400057 -0.02331687 0.009540511 -0.013264443 0.0048054373 -0.0021704906
-0.007027396 0.018171765 0.019660976 0.018903263 -0.013985973 0.025675025 0.0030026918 -0.016970694
-0.023764955 -0.010963552 0.028598575 -0.019252893 0.011640635 -0.009694983 0.022222035 -0.007436843
-0.018408354 0.010433351 -0.016109813 -0.008272348 -0.016975164 -0.0054355464 0.0018463635 0.020041648
-0.0073928237 0.030167092 0.021698143 0.007252729 0.013629378 0.003139202 -0.0020241884 0.0037840449
-0.011370753 0.01995067 -0.00951326 -0.00520616 -0.007081217 -0.021719635 -0.00061543635 -0.020052537
0.008077235 0.0032642006 -0.021258995 0.01117207 -0.022529973 0.009519847 0.0037144173 0.010551132
-0.021797998 -0.0008055872 -0.0018218592 0.006694601 0.009878891 -0.005997261 -0.009691757 0.0058738836
-0.004148647 -0.013490993 0.013346078 0.004814841 0.02127291 0.005392716 -0.006861661 0.0051283934
-0.007289445 0.02183802 0.02061995 0.020444429 -0.027038472 0.0025697635 0.008072857 -0.025322909
-0.0072642155 0.000113035836 -0.012167825 0.004728409 -0.019326616 -0.004507543 0.0134737585 -0.02779835
-0.03330586 -0.024839355 0.0054278285 -0.010295585 0.006231748 0.019456035 -0.019942416 0.011882554
-0.017942537 -0.0046518994 -0.015891343 -0.0054329624 0.0084674135 0.018499667 0.021461677 0.004510525
0.004756751 -0.002077508 -0.024386907 -0.016441265 0.0009748494 -0.010803353 -0.03278687 0.004547242
-0.002085573 -0.015102871 -0.011484165 -0.023650166 -0.0430601 -0.017692648 -0.04093242 -0.03771277
-0.0219148 -0.037991628 -0.022655338 -0.017188033 0.0011558232 -0.020411836 0.004342503 -0.027136521
-0.031748947 -0.036695752 -0.011264943 -0.008366664 -0.03394759 -0.03436799 0.0027549013 0.019437702
0.0071962476 -0.006119669 -0.025905892 0.013137458 -0.022578184 -0.01996486 -0.004039742 -0.031251665
0.0019253027 0.014402332 0.015732868 0.008086983 -0.02033219 0.0010612046 -0.004804959 0.021137808
-0.028249685 -0.010742575 -0.025318695 0.007340767 0.015212054 0.0071628774 0.0023513194 0.0051708105
0.008261584 0.011679122 -0.020975433 -0.0150670465 -0.017282262 -0.0034473187 0.011683796 -0.027967663
0.011102012 -0.005352311 0.023935648 0.014451835 -0.0068903016 -0.018265478 -0.00837103 0.011973248
0.013657936 0.012569736 0.004105264 0.017303215 -0.02144322 -0.0133269 -0.0044325646 -0.016237687
-0.023119418 0.00050480955 -0.009611314 0.011728231 0.0051340596 -0.0033054813 0.00046018913 -0.017729534
-0.0011350209 -0.013150023 -0.00738561 0.021539342 -0.013646238 0.004106332 -0.009584752 0.0010387148
-0.015131604 -0.0025720114 -0.0040573278 -0.0127582 0.0016137782 -0.012110217 -0.0003814102 0.007907626
-0.0063827005 0.011503745 0.0062366957 0.008145608 -0.008781253 0.010100015 0.00047015358 -0.011511383

fc.1.bias f4 [64]
00000000: c80c 4a3c 4cbd f1bc 272c 0abd 0280 fa3b
00000010: b420 093e 2597 623d ca46 a3bc 6537 b8bb
00000020: ec6c 673c 63e0 f93d e132 733d 4821 2a3e
00000030: ef12 013c 7291 e13b 6be7 c63d c484 e03e
00000040: 8ca6 14b9 10bb 7e3d 4c79 10bd 20b1 b5bc
00000050: 6603 c1bc e4d5 2b3b e7c3 c8bc bb85 823d
00000060: 219a 373c f984 b5bc 2e3f eebc 919e dbbd
00000070: f643 733c 685b ab3d 22d9 1c3b d85b e7bc
00000080: 3141 08bc 8705 cf3d d999 adbb 3a60 3b3e
00000090: b368 46bc 8a35 f43d 5857 7a3c 2294 19bc
000000a0: 6435 efbc 5686 9a3d 3562 893b 7489 2b3d
000000b0: 71f4 da3c 4f4a 8abb b733 a6bc 4f41 27bb
000000c0: 1d74 84bc 39d1 85bc a2d5 f239 fe98 873b
000000d0: 5e59 173e 4ab7 033e 7ae4 3c3b 21e2 823c
000000e0: 7343 95bc 52cb 0ebd 515b 03bd f70e 303e
000000f0: 18e7 a2bb 01b6 b8bc 39c5 813b bd0d d23d
0.012332149 -0.02950921 -0.033733513 0.0076446543 0.13391382 0.055319924 -0.019931216 -0.005621838
0.01412509 0.122010015 0.059374694 0.16614258 0.007878049 0.0068837935 0.09712108 0.43851292
-0.00014176423 0.062190115 -0.035271928 -0.022179186 -0.02356119 0.0026220018 -0.024507476 0.06373163
0.011206181 -0.022158133 -0.02908286 -0.107236035 0.014847746 0.08367044 0.0023933132 -0.028242037
-0.008316324 0.10108476 -0.005297881 0.18298426 -0.012109923 0.11924274 0.015279613 -0.0093736965
-0.029200263 0.07545154 0.0041926154 0.041879132 0.026727887 -0.004220284 -0.020288331 -0.0025521105
-0.016168648 -0.016335117 0.00046317006 0.004138111 0.14780185 0.12862888 0.0028822706 0.015976967
-0.018220639 -0.03486187 -0.032069508 0.17193209 -0.004971396 -0.022547724 0.0039602784 0.102565266

fc.3.weight f4 [4, 64]
00000000: 9b01 843c fbbe 753d d04c 3d3c 6212 9c3d
00000010: 71a5 3ebe de81 293e bd06 9d3d fc19 bebd
00000020: ac2d bf3d d461 2b3c fbf3 e63d 7740 27bf
00000030: 1028 993d b3c8 923d a882 4ebf f3ff a43e
00000040: 198f 3c3d fa17 49be fc9f cf3d 1e79 fe3c
00000050: 3d16 b13e c1b5 943c 2eee 7bbd e65c 5ebe
00000060: 809f 7fbc 8405 0fbc 128f d5bd 8062 67bb
00000070: 7296 353d dcf2 233e 274a 883d eb3f 583c
00000080: bf79 a53d b217 0abf e5f4 d1bd 83ed 123e
00000090: 204c 293d 533a 0bbe f2fe 16bc 6a76 833e
000000a0: c20e 1f3d 2fa7 00bd ed25 2bbd e4b0 473e
000000b0: 237f 70be 37db 3fbd 6e1a d93d 5de4 f03d
000000c0: ef90 2b3d 312c 9b3e 255e 363d 8d80 35bd
000000d0: 7900 7cbf 6b88 dfbd 124e 03bd c970 c83d
000000e0: 250a e4bc fcaf 5e3d 8684 c6bd dcdc 33be
000000f0: a327 bb3c b8b7 84bd 196c 483d 98e8 aa3d
00000100: 2d25 2abc 192f c1bc 2175 da3d 3c1c a9bd
00000110: 47ae f9bd eac1 273e d67e 86bd ba6a 983c
00000120: 54b9 debc cc60 383e db21 5fbf 01f6 82bd
00000130: c5cc d63c bd45 24bf f572 213e 57bd 973e
00000140: b26f 80bc 019f 6dbe e88b 023d f8cc 603d
00000150: 62c0 a33d c0da 923d 61dc fe3d 356b 82be
00000160: c1e6 323d c85a aebd 7094 a93d 97d5 203d
00000170: 0f62 7abf d62e a3be 5bae d23d 34b8 bcbd
00000180: c7ce 2d3c f256 073d 3401 ea3c 9907 5bbd
00000190: f76a 54bd 0cd3 cbbd f6ba 09bc 732d 3b3e
000001a0: f9d9 debd 8ba0 13bc 72a3 fa3a 89e4 2f3e
000001b0: b07b 683e 01d0 97bd bce1 02bd a12a e4bd
000001c0: 5e5f 81bd 63b1 f23d a041 ea3d 60c4 7fbd
000001d0: 023b f93d ecea 76bd 12a3 a8bd 615a 7fbb
000001e0: cb4a c4bc 20d7 87bb 782f 3ebd 39fb 1a3e
000001f0: bb92 333d beda d63d 9a8f a53d 32c8 24be
00000200: 81e1 c7bc 3820 82bd ba50 823d 8823 9f3d
00000210: c722 3ebe 8cd6 c83e f5a5 d63d ebad 833c
00000220: cd0d f23d 255e 75be 9715 853d 7ab3 ab3e
00000230: 92c6 a93d 1517 6d3e 055c 233e 83bc 8b3e
00000240: 7e6a 673d 3da6 c5be 50d3 af3d 3404 c83d
00000250: 93c2 143d d9f2 3b3c 0f36 8c3d fcbe c03d
00000260: a6ed 863d be73 6b3c 4b2b d63c 26de 963f
00000270: 3a85 cd3d 6d94 163e 63f2 c73d 866e a9bd
00000280: 615e b9bd 0d38 823a 8fd2 3d3d 947a 5fbf
00000290: 7680 72bd 90e3 20be 66a4 7d3d b202 17bf
000002a0: f07e c43d 363b a2bd 676c 363d c011 3d3e
000002b0: 5b02 8b3d ec26 85bd 724f ba3d 69e0 a43d
000002c0: 8f18 18bc 168a 1bbe 33cb 24bb 626b 543d
000002d0: 7637 e5bd fd9e 5cbd 481b b8bc aef9 2e3c
000002e0: a759 c1bd b841 cd3d 936d 7e3a 206d 3abf
000002f0: d17c 453d 44d3 473c 0929 f13d b65b 9fbe
00000300: bcb1 1dbc fd27 c6bd 650c 21bd ea2c 5cbd
00000310: 2edb b03d 4a69 a13d 5480 50bd e268 9d3d
00000320: 8234 bbbd 88e0 1bbd f9c4 5abd 6e0d 09be
00000330: 73ce c6bd f821 973e 1d36 603e 981a 7d3e
00000340: 4ab4 43bd 0560 aebe d81c 113c 4c07 ecbd
00000350: 47f5 8cbd 1cf3 75bd 14da 9abd c7d2 86be
00000360: 329d 143d 88b7 ecbc 0532 4fbd 7126 ef3d
00000370: 16fc 7d3c 0fe3 bc3e 914d d9bd 9eeb ea3d
00000380: d4ef f53d 3eeb 33be 41dc 3f3c 14d5 8abd
00000390: b29f a3bd 7d6d 3abe 751d f1bb 1e9f 453e
000003a0: 3066 7cbd 75b6 88bf 3621 a33d 88c2 96bf
000003b0: 4c6b 8a3e 4716 d83d 25b2 1f3d 0140 f5bd
000003c0: 8fda f53d 0e04 013e e513 22bd 0b7b 9abc
000003d0: 0e50 833e 3f31 47be a4df f43c baf0 e2bb
000003e0: 0235 dcbd cef2 f33d d0ea 75bb 79fc 233d
000003f0: 7550 df3d 0467 1bbd 0af1 46bd 17ee b23d
0.016114047 0.059996586 0.011553958 0.07620694 -0.18617798 0.16553447 0.07667301 -0.092823
0.09334883 0.010460336 0.11277004 -0.6533274 0.074783444 0.071671866 -0.80668116 0.32226524
0.046034906 -0.19638053 0.101379365 0.031063613 0.3458728 0.018153073 -0.061506443 -0.21715125
-0.015601993 -0.008729342 -0.10427679 -0.0035306513 0.04433293 0.16010612 0.066547684 0.013198833
0.08079862 -0.53942406 -0.10251788 0.14348416 0.041332364 -0.13596468 -0.009216057 0.2567628
0.038832434 -0.03140944 -0.041784216 0.19501072 -0.23485999 -0.04683992 0.10600744 0.11762307
0.041886266 0.30307153 0.044523377 -0.04431205 -0.9843822 -0.109146915 -0.032056876 0.09787137
-0.027836869 0.05436705 -0.096932456 -0.1756472 0.022846049 -0.06480354 0.048931215 0.08345145
-0.01038484 -0.023582028 0.10666872 -0.082573384 -0.12191444 0.16382566 -0.06567161 0.018605579
-0.02718798 0.18005675 -0.87161034 -0.06394578 0.026220689 -0.6416891 0.15766509 0.29636642
-0.01567826 -0.23205186 0.031871706 0.054882973 0.079956785 0.071706295 0.12444378 -0.25472417
0.043677095 -0.08513409 0.08280265 0.039266195 -0.97805876 -0.3187167 0.10287162 -0.092148215
0.010608382 0.033041902 0.028565027 -0.053474043 -0.051859822 -0.09952363 -0.008406391 0.18279056
-0.10881419 -0.009010444 0.0019122197 0.17177023 0.22703433 -0.074127205 -0.03195356 -0.11140943
-0.06317018 0.1185024 0.11438298 -0.062443137 0.12169458 -0.060282633 -0.08234228 -0.0038963782
-0.023961445 -0.004145518 -0.04643199 0.15134896 0.043841105 0.104909405 0.080840304 -0.16091993
-0.02439952 -0.063538015 0.063630536 0.07770449 -0.18567954 0.39226186 0.104808725 0.016074141
0.118190385 -0.23961695 0.064982586 0.33535367 0.082898274 0.23153336 0.15953071 0.2729226
0.056498043 -0.38603392 0.085852265 0.09766427 0.036318373 0.011471474 0.06846248 0.094114274
0.065882966 0.014370857 0.02614369 1.1786544 0.100351766 0.14705057 0.097630285 -0.08273034
-0.090512045 0.0009934917 0.046343382 -0.87296414 -0.05920454 -0.15711808 0.06192436 -0.5898849
0.09594524 -0.0792145 0.044536974 0.18463802 0.06787559 -0.065015644 0.09097184 0.08050615
-0.009283199 -0.15189394 -0.002514553 0.05186022 -0.11192219 -0.05386256 -0.022473946 0.010679645
-0.09440928 0.100223005 0.0009705659 -0.7282276 0.048214737 0.012196366 0.11775405 -0.31124657
-0.009624895 -0.09675596 -0.03931846 -0.05375377 0.08635555 0.078814104 -0.050903633 0.076860204
-0.091408744 -0.038055927 -0.053410504 -0.1338403 -0.09707346 0.29518104 0.21895643 0.24717176
-0.04777936 -0.34057632 0.008856975 -0.11524829 -0.068827204 -0.0600463 -0.07561126 -0.26332685
0.036282726 -0.028896108 -0.05058481 0.11677254 0.0155019965 0.36891982 -0.10610498 0.11470722
0.12008634 -0.17570207 0.0117102275 -0.06778923 -0.07989444 -0.18205829 -0.007358248 0.1929898
-0.06162089 -1.0680681 0.07965319 -1.1778116 0.27034986 0.10551124 0.03898825 -0.119750984
0.12004577 0.12599203 -0.039569754 -0.0188575 0.25647014 -0.1945238 0.029891796 -0.0069256695
-0.10752298 0.11911546 -0.0037523992 0.0400357 0.10904018 -0.03794004 -0.048569717 0.08736818

fc.3.bias f4 [4]
00000000: 3360 723e 6993 6b3e dba5 8d3e 067a b13e
0.2366951 0.23005451 0.276656 0.3466341
