models/v17.1/model_78500_target.pt (torch, 729938 bytes, 10 tensors)

conv.0.weight f4 [16, 2, 3, 3]
00000000: 4189 463e 0c86 393d a4b2 b1bd 078c a03c
00000010: 6f5e 53bd 5e61 bc3c c4b5 3bbd f913 2cbd
00000020: db02 ef3d 013c 4bbe 41e5 c83d 3049 bb3d
00000030: a48f 233d 2eba 45bc 9dee e83d 750f 623d
00000040: 1ae3 a83d e9d5 6dbd ed96 a33d 35db 593e
00000050: dee1 d0bc 13bf 01be 47f0 d6bd 3859 1e3e
00000060: 9949 6abe 4f13 9ebe 6776 34be 3701 b7bd
00000070: cffb e1bc 39fb 283c ee7b 093e e67a 0dbe
00000080: 5938 923d a783 553e 56c4 283e b4bf 2b3e
00000090: 2b06 c33d 2b9c 8d3e f5d3 a23c 7c3b 3bbd
000000a0: 885f e53d d5e5 963e 60fe 5b3e d660 de3e
000000b0: b744 7e3d a24d c2bd 357a 7bbe 1212 b83a
000000c0: ea95 823d d625 9bbd d159 a3be 1f85 4fbe
000000d0: 0781 e8be d387 8abd 47ac 7b3d 0b18 7c3c
000000e0: b29e 833d 5367 16bd eea2 883d e519 aabf
000000f0: b666 ff3c 2bea 55bd a405 373d 8b5f 84bd
00000100: 6943 70bc 3213 4abd 5e4b 683d c8f0 5cbd
00000110: dc63 193d 87f7 d2bc 3bc8 673d 4047 58bd
00000120: d715 2f3d 690c aabd b1b5 0cbe 7d45 9cbd
00000130: 14c5 fdbd 7d9e 0f3f 2cc3 ae3c fe87 143d
00000140: 6d92 fbbd 1d2f 55bd 904e 8c3d d111 0a3e
00000150: 14ef a73d 0dc5 003e 8409 8e3e d3f1 16bd
00000160: cc7f f4bc 2272 f63d ccd4 b03d 1486 5dbd
00000170: 1eca e13e c7eb eabc 5f06 ecbe 5d7b 05bc
00000180: b406 7e3d fa0c 32be df06 f0bd 483e d6bd
00000190: 48eb f53c 3436 843c d073 383d 579f 99bc
000001a0: 290c 033c 734d 59bd d2bb 253e b0c8 d73d
000001b0: 8c69 bcbe 3cb0 dfbe eba9 9f39 6725 9b3c
000001c0: 52c9 d73c a81a 36bf b0dc debe 9174 ccbe
000001d0: 1e1c 56bd 7f8f 1e3e 41d5 423e c911 e839
000001e0: 5b99 f0bc 45d1 47bb 00fd 9e3e d70a 073e
000001f0: faa9 113e 5b63 163d 1c97 03bf 6538 09bf
00000200: c8ac 393d cf9b 75bd dc4b b33d e528 1c3e
00000210: 0bb2 21bf 0e27 c8bc 5c1b 5dbc c659 2a3e
00000220: 5e3e 6d3e 3f73 cdbd 132e 1b3d fe89 96bd
00000230: 6a32 f83d 2b49 0c3e 9e5c 4f3d 6097 9a3c
00000240: 22a0 5e3d 0dbc db3d e4c0 0d3d 1bb4 0a3e
00000250: f070 4d3e 3765 81bd 6a86 123c cc68 5cbe
00000260: 476e 57be 5faf 53be ab3b 073e 577b 42bd
00000270: 9d89 853d c517 4d3d 1541 193e 05e5 14bd
00000280: 2c9a cc3d 87d1 653d 164b 5f3c d1d1 b1bd
00000290: 4927 1b3e 8537 f43c 3b1b 64bc 9a18 333f
000002a0: 3cc0 81bc 3aee 28be 25aa 70bd 1a36 e73b
000002b0: 29e1 4e3d 46de 11be f163 4fbc 354f 003d
000002c0: c5ea 33bf 95ec 513c fe90 223e 2a73 723d
000002d0: 6c41 993c fc8a 213c 6b65 203c cab8 a7bd
000002e0: d65b 093f b027 ccbd de32 d1bb caeb c7bd
000002f0: fa2c 103d a487 0fbd 46b0 86bb 674b 61bc
00000300: 5eb5 c93d 81df b63e 3e20 b43d 0874 2c3c
00000310: 1ea2 bc3d 6b2b 77bd 808b 06bd a80f 363d
00000320: b9b8 d8bd cba1 0bbd 9bce 303f 0003 0d3d
00000330: 41b6 f6bd 3e5a 15b9 eb23 14be 6d62 d13c
00000340: 9ffa 48bd 7dd5 ef3d 6182 d13b 6f40 dfbc
00000350: 0a11 88bd cf59 023e 4a89 adbc 4a14 113e
00000360: 667c e3bd 72e4 66be 57c3 58bd a64f 21be
00000370: 5b19 9ebf 61fa bf3d bc5a 02be ab58 3bbe
00000380: 93c0 3abe 6c5e 0d3e f7ac 303e 7281 983d
00000390: 895d 153e 03f2 1cbc 748e f9bd ca3b 0d3e
000003a0: b67a 0e3e 2138 493e 0d42 993c 44b8 88bd
000003b0: e5f6 28bd 3f87 b7bd 7bae 86be 45c1 19bf
000003c0: b544 663e 104d c5bd cdd8 9ebd 9f11 90bd
000003d0: 0130 7b3d a4b1 cd3b 9a05 ad3c 454a 913d
000003e0: 6b72 803e 1356 193e 280b 023e fd61 e03d
000003f0: 74b5 17bf 67b5 e7be 81e1 3abf 39b5 10be
0.19388296 0.045293853 -0.08676651 0.01959802 -0.05160373 0.022995647 -0.045827642 -0.042011235
0.116704665 -0.19847108 0.09809352 0.09144819 0.03993191 -0.0120683145 0.11373637 0.055190522
0.08246441 -0.05806533 0.07987771 0.21275027 -0.025498327 -0.12670545 -0.10495048 0.15463722
-0.22879638 -0.30874106 -0.17623292 -0.089357786 -0.027585892 0.010313802 0.13426182 -0.13816413
0.07139654 0.20851003 0.16481146 0.16772348 0.09522661 0.2765821 0.01987646 -0.045711026
0.11199862 0.29472223 0.21483755 0.43433255 0.06207725 -0.094874635 -0.24558337 0.0014043471
0.0637625 -0.07575576 -0.31904462 -0.20265625 -0.4541094 -0.06764188 0.061443593 0.015386592
0.06426753 -0.03671963 0.06671701 -1.3289152 0.031176906 -0.052225273 0.044683114 -0.06463536
-0.014664509 -0.049334712 0.0567125 -0.053940564 0.03744875 -0.025752796 0.05658744 -0.052802324
0.042745437 -0.08303148 -0.13741185 -0.07630441 -0.12391105 0.5610121 0.0213333 0.036262505
-0.12283788 -0.052046884 0.06850922 0.13483359 0.081998974 0.12575169 0.27741635 -0.036851715
-0.029846095 0.12033488 0.08634338 -0.054082945 0.44099516 -0.02867688 -0.4609861 -0.008147088
0.06201811 -0.17387763 -0.117200606 -0.10461098 0.030019417 0.016139127 0.045032322 -0.018752737
0.007998505 -0.053052377 0.16184929 0.10536325 -0.36799276 -0.43689144 0.00030453442 0.018938733
0.026341114 -0.71134424 -0.43527746 -0.39932683 -0.05227291 0.15484427 0.19026662 0.0004426374
-0.02937 -0.0030489725 0.310524 0.13187729 0.14224997 0.036715847 -0.5140245 -0.53601676
0.045330793 -0.059963044 0.087547034 0.15249975 -0.63162297 -0.024432685 -0.0134952925 0.16635808
0.23168322 -0.10031747 0.037885737 -0.07350539 0.12118991 0.13699786 0.050625436 0.01887101
0.054351933 0.10729227 0.034607783 0.13545267 0.20062613 -0.06318133 0.00894318 -0.21524352
-0.21038161 -0.20672368 0.13206355 -0.047480907 0.06520388 0.050071497 0.14966233 -0.036351223
0.099903435 0.056108024 0.013628742 -0.086825974 0.15151705 0.02981163 -0.013922508 0.69959414
-0.015838735 -0.16497126 -0.058756012 0.00705601 0.0505077 -0.14244947 -0.012658105 0.031325538
-0.70280105 0.012812753 0.15875623 0.05919186 0.018707953 0.009859797 0.009789805 -0.081895426
0.53655756 -0.09968507 -0.0063842377 -0.0976177 0.035199143 -0.035041466 -0.004110369 -0.0137508875
0.09849046 0.35717395 0.08795212 0.010525711 0.09210609 -0.06034414 -0.03284788 0.044448525
-0.10582108 -0.034089845 0.69065255 0.03442669 -0.12046481 -0.00014243365 -0.14466827 0.025559628
-0.049067136 0.117106415 0.006393716 -0.027252404 -0.06643875 0.12729572 -0.021183629 0.14167896
-0.111077115 -0.22548082 -0.052920666 -0.1575304 -1.2351488 0.09373928 -0.12729925 -0.18295543
-0.18237524 0.1380555 0.17253481 0.07446565 0.14586462 -0.009579184 -0.12185374 0.13792339
0.13913998 0.19650318 0.018708253 -0.06675771 -0.041251082 -0.08961343 -0.26304993 -0.6006053
0.22487147 -0.09633839 -0.07756195 -0.07034611 0.061325077 0.00627728 0.021120835 0.07094244
0.25087294 0.14974241 0.12699568 0.1095619 -0.5926125 -0.45255587 -0.7300034 -0.14131631

conv.0.bias f4 [16]
00000000: 2863 083c 7be6 2dbe e605 a0bd 11cd 1b3f
00000010: cb2a 0cbf 1c36 73be e93c ef3d 657b 29be
00000020: 324e b5be e8d3 3ebd 8912 1dbf f319 b2be
00000030: c12c a03e ef08 5dbe d71d d9bc 28ee 7ebe
0.008324422 -0.16982453 -0.07813625 0.6085978 -0.54752797 -0.2375111 0.116815396 -0.16550978
-0.3541122 -0.04658881 -0.6135641 -0.34785423 0.31284145 -0.21585439 -0.026503487 -0.24895537

conv.2.weight f4 [32, 16, 3, 3]
00000000: e48d 6abd c966 663c 77e5 08bd 5be8 b1bc
00000010: da3b 87bd 908c 7dbc 3e71 b13d 8948 9ebc
00000020: eb36 c4bd bdba 983d 45d4 d13d 6492 ad3d
00000030: 7857 103e e96c de3d 7e92 fc3c ac40 483d
00000040: 14ee 20bd 6d16 2ebd f1ba 333e e5f9 0bbd
00000050: 5ec1 57bd ff2e 03bd 40c6 c5bb 2674 67be
00000060: 6b4e fabd 672f 79be 3fdc 3cbe f969 5c3c
00000070: 73e9 1cbd c4a1 04be d24d 373c ee8c 87bd
00000080: e23e 95bd bce8 573d e113 eabd a0c1 b3be
00000090: c7c7 9b3d 2833 f23d 5f79 8ebe 70c7 12be
000000a0: 8e95 25be a641 abbe aa7e eb3d b793 f7bd
000000b0: 3086 32be c7bd 413d 2570 d93c 4ac8 b5bd
000000c0: 10b1 293e f16c c13d 77e5 83be 4438 a33d
000000d0: 6cb3 8f3d f1ce 02be 0f4b 353d 0d7c 3f3e
000000e0: 875f 5e3c 9af6 1e3e 8065 3f3d d1a7 34bd
000000f0: aab1 8a3d 53f6 ab3c 86ed 34be b99f 45be
00000100: 9453 18bd d804 983c 860e 89bd 586d 8cbc
00000110: 73e1 2abd ec03 a1bd c9dd a5bd 522b 07be
00000120: 99ab bf3d 93da 873d 7f4d 283d fab0 91bd
00000130: 76ff 173e 6460 04be fd2d ca3d b4f8 42bd
00000140: 3574 1ebe 7acc c43d 165b 71be 8768 1b3d
00000150: e72c de3d 5f59 1dbe d55a 21bd 3e46 2dbe
00000160: 8800 6abe 2c88 c13c 3c44 4a3d 5490 303b
00000170: 2ff2 fabd 58a9 e5bc a9f3 de39 833a 17be
00000180: 0dc3 9bbd a73b fdbc eace 92bd ce0d 123c
00000190: 656c 85bb f7f6 8cbd 4de1 16be caee 52be
000001a0: b4dd 11be e50d 00be 23e3 0dbe 4713 c43b
000001b0: 4d9a 923c bc75 2e3d 73aa f03c f574 05be
000001c0: ea1b a3bb 27ff cb3c 09cf 09be ef88 19be
000001d0: 73e3 e6bc 5d77 b6bb 1d24 5e3c 6e21 523d
000001e0: cfd4 853d ce13 993c d10f b4bc 801f 15bd
000001f0: 30c4 2ebd 0b8d aa3c 73e7 bd3c 8c1a 503b
00000200: 6158 e9bb 925c 02bd 603f 34be cc00 c2bd
00000210: 44d3 06bd 7d87 2cbd 6b73 b23d 0b6e 06be
00000220: 81da 5abc 383e b5bd 68d0 d0bd 0540 da3d
00000230: b6f4 243c cf0e b5bd 1785 1abe 7881 8fbd
00000240: 3405 2a3e d191 233b 0e50 453e 7507 883d
00000250: f32e b53d 767c 573d 3831 553b 34d9 953c
00000260: 1a71 70bd 4c0c 6dbd 5db2 65bc b9b0 813e
00000270: 29e2 87bd 02d6 0f3e fc67 fb3d 3b61 3e3d
00000280: 584c 34be 8be7 1cbd b880 4ebe 3573 1e3d
00000290: aeed 0a3e ade9 0a3e 6a83 97be eaa3 153e
000002a0: 7153 cf3d efba 10be 4547 523d 7674 dfbf
000002b0: c63a 06bd c633 a3bd dcba 9bbd 2224 fdbc
000002c0: fb41 163d b7b0 b73c 3c23 33bd 1ec3 30bc
000002d0: c143 90bf 871d e33e 248a 81bd 3ec2 1bbb
000002e0: 5053 3a3d e32f c13d 19e1 9dbc 29d2 30bd
000002f0: 9cb9 3ebd 0245 70be fc14 aebe 70b6 0dbd
00000300: fc8d 9bbe 1069 f93d 6bbf 04be 6f1f b2bd
00000310: 6b7e b33b 3e62 ed3c fd1a 0ebe 6d40 e5be
00000320: bf8c 38be 27c0 263d d265 f1bd df67 15be
00000330: a5e0 d8bb e51c 413c 002e 09bd 4e1e 13bd
00000340: edae ed3c 967e 63be 8dc7 11bd 62b1 993c
00000350: b961 50be ce70 b73e b353 0fbb 6520 e13d
00000360: d19b 0e3e c3c1 19be bcb3 233e 64cf b73d
00000370: b22c fe3d 38cc 603b 8c4c 1e3e cd12 d33d
00000380: db29 81bd 9fc4 713e 4c6d 2fbe cfc2 1ebc
00000390: c99d eebd b57b b9bd 1d04 0abe aa79 ab3e
000003a0: 9f36 bebd 2f2b c5bd 11da d1bc 94b7 27bf
000003b0: be40 dd3e 5dbc e33d ffd9 a3bd f3d3 a5bc
000003c0: 7851 79bc 4569 a6bd e0cc 59bc 2a58 5f3e
000003d0: dc77 0dbf a6be 773e 25db b53d b1d1 b3bd
000003e0: bb10 acbd 0b97 f1bc 09d3 35bd c92a be3c
000003f0: 1c69 c63d 1f09 73bf d152 10bf 3404 483e
-0.057264224 0.014062592 -0.03342196 -0.021717241 -0.06603213 -0.015475407 0.08664177 -0.019321697
-0.09580787 0.074574925 0.10245565 0.084751874 0.14095867 0.10860617 0.030831572 0.0488898
-0.03928955 -0.042501856 0.17551781 -0.034173865 -0.052674644 -0.03202724 -0.006035596 -0.22602901
-0.12221988 -0.24334489 -0.18443392 0.013453 -0.038308572 -0.12952334 0.011187987 -0.06618677
-0.072873846 0.052712187 -0.11429573 -0.35108662 0.07606464 0.118261635 -0.27826974 -0.14333892
-0.16170332 -0.33448523 0.11498769 -0.12088721 -0.17434001 0.047300126 0.026542732 -0.08876093
0.1657145 0.09444607 -0.25761005 0.07969716 0.07016644 -0.12774254 0.044261035 0.18699665
0.01357258 0.15523759 0.046727657 -0.044105355 0.06772168 0.02099148 -0.17668733 -0.1929921
-0.03718908 0.018556997 -0.06692223 -0.017141983 -0.04171891 -0.07862076 -0.08098943 -0.13200119
0.093589015 0.066334866 0.04108953 -0.07113834 0.14843544 -0.12927395 0.09872053 -0.047600463
-0.15474017 0.09609313 -0.23569903 0.037941482 0.10848408 -0.15366124 -0.039393265 -0.16921327
-0.22851765 0.023624502 0.04938148 0.0026941495 -0.12253224 -0.028034851 0.0004252468 -0.14768414
-0.07605562 -0.030912234 -0.07168372 0.008914424 -0.0040717595 -0.06883042 -0.14734383 -0.20598903
-0.1424473 -0.125053 -0.13856177 0.0059837434 0.017895842 0.04259275 0.029378152 -0.13032897
-0.004977693 0.02490194 -0.13457884 -0.14993642 -0.028184628 -0.0055684284 0.013558415 0.051301412
0.06534731 0.018686201 -0.021980198 -0.036406994 -0.042667568 0.020819208 0.023181653 0.0031754104
-0.0071211313 -0.031826563 -0.176023 -0.09472808 -0.032916322 -0.0421214 0.087134205 -0.13127916
-0.013357759 -0.08849758 -0.10196 0.10656742 0.010068109 -0.08840715 -0.15089832 -0.07007116
0.16603547 0.002495874 0.1926882 0.06642047 0.088468455 0.05260893 0.0032530557 0.018292047
-0.058701612 -0.057873055 -0.014019576 0.2533014 -0.066349335 0.14046481 0.12275693 0.046479445
-0.17607248 -0.038306754 -0.2016629 0.03868409 0.1356723 0.13565703 -0.29592448 0.1461331
0.10123337 -0.1413381 0.0513375 -1.7457416 -0.032770894 -0.079688594 -0.07604 -0.030901019
0.036684018 0.022423131 -0.043734774 -0.010788707 -1.1270677 0.44358465 -0.06325176 -0.00237669
0.04548961 0.09432962 -0.019272374 -0.043169174 -0.04656373 -0.23463824 -0.34000385 -0.034597814
-0.30381763 0.12178242 -0.12963645 -0.08697402 0.0054777167 0.02897751 -0.13877483 -0.44775715
-0.1802244 0.040710595 -0.11786999 -0.14590405 -0.0066185766 0.011786674 -0.033491135 -0.035917573
0.029014075 -0.22216257 -0.035590697 0.01876134 -0.20349778 0.3582825 -0.0021869957 0.10992507
0.13926627 -0.1501532 0.15986532 0.089751035 0.12410869 0.0034301411 0.15458888 0.1030632
-0.063068114 0.23610161 -0.17131537 -0.009690001 -0.11651189 -0.09056798 -0.13478132 0.3349126
-0.09287762 -0.09627377 -0.025616677 -0.65514493 0.43213457 0.11119912 -0.08000564 -0.020242667
-0.015217178 -0.08125547 -0.013293475 0.21810976 -0.55261016 0.2419382 0.08879689 -0.0878023
-0.084016286 -0.029490968 -0.044390712 0.02321376 0.09688017 -0.9493579 -0.5637637 0.19532853

conv.2.bias f4 [32]
00000000: 93cd af3c 8a1f fe3c 9bc6 76bd 24ed cbbc
00000010: e098 05bc 227c 84bd 16da 103e 42de 93bd
00000020: 233e 30be 07e1 8cbe 2d59 a73d be66 613e
00000030: 587d fbbd 7315 b23d 126f d63d 4b1f 7dbd
00000040: 12a9 f93c a0b2 953d f951 2a3e 33e3 dfbd
00000050: fa05 25bd 531f 86bb 6a3a e7bc e590 1dbe
00000060: fe93 80bd 18ff 6a3e 30f0 413d 6873 02be
00000070: f62c 0fbd facd 1a3d 87a0 6bbd 2890 1e3d
0.02146033 0.031020898 -0.060248 -0.02489335 -0.008154124 -0.06468989 0.14145693 -0.07220127
-0.17211203 -0.27515432 0.08171306 0.2201185 -0.12279767 0.08695497 0.10470404 -0.06179742
0.030476127 0.07309461 0.16632833 -0.10932007 -0.040288903 -0.0040930896 -0.028226096 -0.15387304
-0.06278227 0.22948873 0.0473482 -0.12739336 -0.034954987 0.03779409 -0.057526138 0.038711697

conv.4.weight f4 [64, 32, 6, 6]
00000000: 3a01 49bc 0ed1 6dbd 9cf2 7d3d 01fd 7bbc
00000010: a328 2b3d eedb 7fbc e268 f8bc 8286 253d
00000020: 312f ef3c 1f68 ba3c 3570 88bc c6f4 1f3d
00000030: 9854 a939 26bb d23c 8aed c0bc 31b2 30bd
00000040: 4e5d 01bb 990b ec3c d1e5 893c dc05 a13d
00000050: feed 753b 6593 42bd e935 44bd 1343 a33d
00000060: 18db f23c fbd7 433b 5f2e 58bd ee44 123d
00000070: 029e f1ba be70 18bb 095f 3a3c 7235 89bc
00000080: abb2 05bd a084 8d3b d126 27bd 8385 b3bb
00000090: 123f e9bd 38a3 9dbe 359a e03c cdb2 71be
000000a0: 816c 9ebe 38bb 9abe c58b 7fbd 89b3 49bd
000000b0: 604f 59bc 4474 87be 0642 4cbe d6fc 163e
000000c0: ea44 55be a3b8 853d 24be 81bb b484 fabb
000000d0: bbe4 f0bc 2487 283c 08e7 c4bd e2ca 45be
000000e0: d1ef e6bb 1618 f9bd 1649 cfbd fe5e b0bc
000000f0: 2b41 89bd 09d7 8cbd a1f9 8dbd 84c4 d7bd
00000100: 541f 0bbe e8f4 68bc 471a 81be 42b9 98bc
00000110: edb8 d73d 9378 2dbd 571e be3c b500 f2be
00000120: 32b5 28bc 4b04 21bd d4ab bbbc e775 46bd
00000130: f722 7d3c 71c6 cbbc 5e1c 09bc 45a1 a13b
00000140: 0b02 dcba 3152 743c 1f8b de3c 7b0e 7c3c
00000150: 9b34 273c 9fe3 11bc 58e3 e4bc 90cf c43c
00000160: 50be 9e3c 746f b5bb b87d b3bc 85d4 c93c
00000170: a669 abbc 0e97 823c 2a68 09bd 46d7 17bc
00000180: 2483 09bb b28f 193d c08d 153b 989e b73c
00000190: 583d 1fbc 78b6 f93c f513 e43c 9e44 073d
000001a0: c3a9 2d3d 8656 323c 33b1 94bb 5d81 703b
000001b0: 648a 71bd aaf4 c13d dbe5 2b3d 9f3d 5cbe
000001c0: 709c dbbe bb5c ea3d 1f5b 783c 8ccb 853e
000001d0: af32 723d 4f0b 3bbd d2de 443e 44ee acbe
000001e0: f903 813e c07e 0e3e 5f74 f03d 28c7 a83d
000001f0: 0fca 413e b40f 163e 8169 2e3e 7f65 533e
00000200: 8014 113e 7f66 873b 5fb1 483e 678d 3a3e
00000210: 1fde 6f3d f2c9 433e 18eb 523e 7401 1c3e
00000220: 934f 7d3e db0d 06bf 0c80 eb3c b7ef 50be
00000230: d30e 96be 4988 92bd 8ec8 6d3e 6cb0 98be
00000240: 1f5a ebbd ef5b 49be bbd9 fdbd 3c8f adbc
00000250: 69bd 9b3d c9c8 2c3d 922d 153e 1b61 a33d
00000260: 1664 e4be f02e 99be 9d94 97be b47d 23be
00000270: 8246 3cbe 1fab 8cbd 7a37 59be b873 fcbd
00000280: 651f 1b3d af5a 89be d9d5 773d 5a5d b1bd
00000290: b9b0 6ebd 7bf8 f3bd be44 81be 1db9 a6bd
000002a0: 7762 393e b5d1 84bd 4926 4ebd 97fa c7bd
000002b0: 9df0 afbc a085 ec3c f363 94bd c64d 6c3d
000002c0: a485 d83d ff66 5fbd b950 68bd 2b57 c4be
000002d0: cf50 943d f2bd bd3c 363c 8e3d 875e 933d
000002e0: 2baa 94bc 0e04 b73b 18e0 2c3d 96ff 523c
000002f0: fcae 9a3d 0d82 c6bc 9d5d b3bc 4901 233d
00000300: 2cb3 593d a03b 16bd 62a2 543c 9877 7d3d
00000310: 3fb2 a03c 55f0 6e3b a4b1 ef3d 1381 50bb
00000320: 79dd f83b a4be fd3c 9a25 29bd 4324 5dbb
00000330: 3209 0dbd 82df cc3d 0fd8 643d a5ae a7bc
00000340: 8456 9fbd a956 73bd fe7f b3bc 880d 853d
00000350: 0497 033c 6c6b a9bd 73e6 02be 1829 2ebd
00000360: 1875 95bd b218 ec3a 4c34 683e 0135 e63d
00000370: 4c83 c43d 922d bb3d e178 d63d f839 b53d
00000380: 6cc3 fd3d 8e41 323e 1704 d83d 996c fc3d
00000390: 0f11 603e 510e 3fbd 9974 043e 0742 a23d
000003a0: 50f3 7f3d 05b6 013e 431f 39bd f75c dcbd
000003b0: ae8c 263d 1d54 dc3d 7845 dc3d 9c95 ae3c
000003c0: de26 b03c cbe4 8f3d 396c 56bc 7487 173e
000003d0: 4dd5 c83c 2fe6 1ebc 99b9 41bd 90e4 4abe
000003e0: 06b6 ec3a 3bb1 2d3e a2cf a6bd db07 60be
000003f0: 5c49 843c 73f0 8a3c d6d8 67bc b474 ba3c
-0.012268359 -0.0580607 0.06199895 -0.015380145 0.0417868 -0.0156164 -0.03032345 0.04041148
0.029197307 0.022754727 -0.016655067 0.039051794 0.0003229722 0.025724005 -0.023550767 -0.043138687
-0.0019739452 0.028814124 0.016833218 0.07862446 0.0037525888 -0.047503848 -0.047902975 0.07971778
0.029645488 0.0029883373 -0.052778598 0.035710268 -0.0018433931 -0.002326056 0.011375197 -0.016749118
-0.032641094 0.0043187886 -0.040808503 -0.0054785623 -0.11388983 -0.3078859 0.027417282 -0.23603363
-0.30942157 -0.30220962 -0.062389154 -0.049243484 -0.013263553 -0.2645589 -0.19947061 0.14744887
-0.2082707 0.06529357 -0.003959434 -0.007645214 -0.029405942 0.010286126 -0.09614378 -0.19315675
-0.0070476313 -0.12162797 -0.10121362 -0.02152967 -0.06701883 -0.06876952 -0.069323786 -0.10535529
-0.1358617 -0.014218546 -0.2521536 -0.018643025 0.10533319 -0.042351317 0.023207827 -0.47266164
-0.010297107 -0.039310735 -0.022909082 -0.048452284 0.015450231 -0.024874898 -0.00836858 0.004932555
-0.0016785277 0.014912174 0.027165947 0.015384312 0.010205413 -0.008904367 -0.027940437 0.024024755
0.019377857 -0.005536968 -0.021910533 0.02463747 -0.0209244 0.01594117 -0.033546604 -0.009267634
-0.0020982707 0.037490554 0.0022820085 0.02241449 -0.009719215 0.030482516 0.027841548 0.033024423
0.042398226 0.010884887 -0.0045377254 0.00366982 -0.05896987 0.09470494 0.041967254 -0.21507882
-0.4289279 0.11443468 0.015158444 0.26131856 0.059130367 -0.04566508 0.19225624 -0.33775532
0.25198343 0.13915539 0.11740946 0.08241111 0.18924735 0.14654428 0.17032434 0.20644186
0.14167976 0.0041320915 0.19598912 0.18218003 0.05856144 0.19120005 0.20597494 0.1523493
0.24737386 -0.5236489 0.028747581 -0.20403944 -0.29308185 -0.071549006 0.23221037 -0.298221
-0.114917986 -0.19663976 -0.123950444 -0.021186464 0.076044865 0.04218367 0.14568165 0.07977506
-0.4460761 -0.29918623 -0.2960557 -0.1596592 -0.18386272 -0.06868576 -0.21212569 -0.12326759
0.037871737 -0.26827 0.060506675 -0.086603835 -0.058274005 -0.11912628 -0.2524776 -0.08140776
0.18103968 -0.06485311 -0.05032948 -0.09764593 -0.021477038 0.028872311 -0.07245626 0.057691358
0.10572365 -0.054541584 -0.056717608 -0.38347754 0.072419755 0.023161862 0.06945078 0.07195764
-0.018147549 0.0055852 0.0422059 0.012878319 0.07552907 -0.024231935 -0.021895224 0.039796147
0.053149387 -0.036677957 0.012978168 0.06188163 0.019616244 0.0036459167 0.11703804 -0.0031815215
0.007594761 0.030974694 -0.041295625 -0.0033743537 -0.034432597 0.10003568 0.055870112 -0.02046902
-0.077801734 -0.059408817 -0.021911617 0.064967215 0.00803161 -0.08272442 -0.12783222 -0.04251966
-0.072977245 0.0018012731 0.226762 0.112405784 0.095953554 0.09139551 0.104722746 0.08848947
0.123907894 0.1740782 0.10547655 0.12325401 0.21881507 -0.046644513 0.12935103 0.0792275
0.0624879 0.12667091 -0.04519583 -0.10759919 0.040661506 0.10758231 0.107554376 0.021311574
0.021502908 0.07026061 -0.013087326 0.14797765 0.024515772 -0.009698435 -0.04729614 -0.19813752
0.0018059618 0.1696214 -0.081450716 -0.21877997 0.016148262 0.016960358 -0.014150819 0.022760727

conv.4.bias f4 [64]
00000000: fb1a febd 9319 063d 6730 74be 4552 03be
00000010: 66bc d5bb 291d 3dbe 8f1f 85bd 33f7 debd
00000020: cd16 39be 859e 1dbd 0794 abbd 2650 68bd
00000030: d66c 31bd a629 87be 8a06 6dbe 87e5 29be
00000040: f051 f7bd 0315 213e 0b88 5cbd 231f 16bd
00000050: 9dd4 6ebe 0cf3 e8bd 786c b63e 6377 08be
00000060: 1cef 1abe 8afa 4ebe 2ed3 5cbe fad0 11be
00000070: a03f 56be f29b 44be 03ed 4fbe 5fc7 193e
00000080: 7546 59be cd23 953e 2ee9 2b3c b1ae 5dbe
00000090: 1aad 0bbe 79da 523e 284b 01be fe00 d6bd
000000a0: e230 83be 2770 53be 0d6d 51bd 4fe2 85be
000000b0: 8891 95bd 06a2 22bd bbee 813e 0c14 90be
000000c0: 284b b1bd f773 1bbe 5d6b e2bd bd9a 1dbe
000000d0: 6647 49bd 910b 95bd 964d d1bd a324 76be
000000e0: 0513 8dbe 96e9 e6bd a598 f3bd 07fd 063e
000000f0: 1144 70be 8b39 d4ba af41 44be 0fde 96bd
-0.1240749 0.032739233 -0.23846589 -0.12824352 -0.006522703 -0.18468155 -0.0650016 -0.10886993
-0.18075104 -0.038481254 -0.08377843 -0.05671706 -0.043316685 -0.26398963 -0.23147026 -0.16591464
-0.12076175 0.15730672 -0.05384068 -0.036650788 -0.23323293 -0.113744825 0.3562963 -0.13326792
-0.15130275 -0.2021276 -0.21564934 -0.14239874 -0.20922709 -0.19200113 -0.20305257 0.1501746
-0.21218283 0.29128876 0.010492606 -0.2164867 -0.13640252 0.20591153 -0.12626326 -0.10449408
-0.25623232 -0.20648251 -0.05112939 -0.26149222 -0.073031485 -0.0397053 0.2537745 -0.28140295
-0.08656913 -0.15180956 -0.11055634 -0.15391059 -0.049140356 -0.07277597 -0.102198765 -0.24037413
-0.27553573 -0.11275022 -0.11894349 0.1318246 -0.23463465 -0.0016191466 -0.19165681 -0.07366573

fc.1.weight f4 [64, 1600]
00000000: 3bfb b53b beab f8ba 67ab 89bc 759e 8f3c
00000010: 5664 d73a 1a45 c6bc e919 09bc 7243 1d3c
00000020: 5029 a23c eb63 30bb cb89 b3bc 9793 993c
00000030: cce3 11bb f2bc aebc eaab 7fbc b9d5 c8bc
00000040: d379 45bc 37b6 a5bb cd5b a0bc 2ef5 cabb
00000050: 9125 8abc 40a2 29bc 50f4 3b3a e13d 57bc
00000060: 2577 02bc 96d3 b2bb bc30 8e3c c64b 433c
00000070: 5fb1 893c ae5b 223c 9fe8 ae3c e156 39bc
00000080: c2cf a83c 0475 89bc 7efd 383c 464c dc3b
00000090: f593 8ebc 8fee be3b 0163 47bc 5b7f 263c
000000a0: ff4e b0bc d1d5 f3bb 5380 b73c 0503 bfbc
000000b0: ce4f 1c3c 1b53 59bc ee76 9d3b ca3e 0ebb
000000c0: 1246 e6bb f4dc 943c 0e10 a13c 04db 9a3c
000000d0: 6c25 65bc 6e54 d23c cfc8 443b 2006 8bbc
000000e0: b9ae c2bc 78a0 33bc 8f47 ea3c 3eb8 9dbc
000000f0: 5db8 3e3c b5d7 1ebc fc0a b63c c3b0 f3bb
00000100: 1ecd 96bc a5f0 2a3c baf8 83bc be88 07bc
00000110: 800f 8bbc ab1c b2bb ae01 f23a 622e a43c
00000120: 803f f2bb fa20 f73c 4ec0 b13c 4da8 ed3b
00000130: c14d 5f3c 12bb 4d3b 3fa8 04bb bdfd 773b
00000140: 654c 3abc 966f a33c 81dd 1bbc 6f98 aabb
00000150: 8e09 e8bb 60ed b1bc 3c55 21ba 3845 a4bc
00000160: 6156 043c 33ec 553b 5827 aebc 0f0b 373c
00000170: c790 b8bc 22f9 1b3c 956d 733b a8de 2c3c
00000180: b791 b2bc 0b2e 53ba 73cb eeba 625e db3b
00000190: 12db 213c ac84 c4bb 2dca 1ebc b579 c03b
000001a0: 60f1 87bb 5309 5dbc 82a9 5a3c d0c5 9d3b
000001b0: 8744 ae3c 61b5 b03b c9d7 e0bb 150c a83b
000001c0: 4cdc eebb a6e5 b23c 2beb a83c 137b a73c
000001d0: c97f ddbc 7a69 283b 0444 043c fd71 cfbc
000001e0: a808 eebb a70d ed38 8f5b 47bc c5f0 9a3b
000001f0: da52 9ebc 03b4 93bb 0ac1 5c3c 5eb9 e3bc
00000200: ba6b 08bd e77b cbbc eddb b13b d0ae 28bc
00000210: b133 cc3b 4362 9f3c 475e a3bc 0baf 423c
00000220: 3afc 92bc f66e 98bb 902e 82bc fe06 b2bb
00000230: e8ba 0a3c 9d8c 973c 66d0 af3c 07cd 933b
00000240: 85de 9b3b cd26 08bb 0dc7 c7bc d5af 86bc
00000250: 098d 7f3a 8c00 31bc 864b 06bd 0801 953b
00000260: 1cae 08bb 0872 77bc 1428 3cbc febd c1bc
00000270: ca5f 30bd 2cf0 90bc c1a8 27bd b578 1abd
00000280: ab86 b3bc 1c9d 1bbd b097 b9bc ebcd 8cbc
00000290: fe7e 973a b936 a7bc 8e4b 8e3b 694d debc
000002a0: 2f0b 02bd 494e 16bd 9890 38bc 5514 09bc
000002b0: a10c 0bbd 73c5 0cbd 938b 343b d13b 9f3c
000002c0: 80ce eb3b 8187 c8bb 9838 d4bc 7e3e 573c
000002d0: e2f5 b8bc 598d a3bc d05f 84bb bf01 00bd
000002e0: 705a fc3a c2f7 6b3c 37e2 803c 447f 043c
000002f0: b18f a6bc 1e18 8b3a eb72 9dbb 3229 ad3c
00000300: e26b e7bc a001 30bc 2769 cfbc d18a f03b
00000310: fb3b 793c 92b6 ea3b 9818 1a3b e76f a93b
00000320: 985b 073c ca59 3f3c acd4 abbc c6db 76bc
00000330: 8893 8dbc 69ec 61bb 646d 3f3c 711c e5bc
00000340: 37e5 353c 7062 afbb b114 c43c 64c7 6c3c
00000350: 0ac8 e1bb 7ca1 95bc a526 09bc 712b 443c
00000360: 89c5 5f3c 4bf1 4d3c 7385 863b 79bf 8d3c
00000370: b1a9 afbc 1259 5abc 0c3f 91bb e604 85bc
00000380: ef64 bdbc 3255 043a c678 1dbc c427 403c
00000390: 9d3b a83b c6a0 58bb 8a45 f139 873d 91bc
000003a0: fbc4 94ba 3273 57bc fd02 f2bb 4673 b03c
000003b0: 7894 5fbc 698e 863b 5d09 1dbc 7c25 883a
000003c0: 8cea 77bc 318f 28bb 55f3 84bb c507 51bc
000003d0: 6985 d33a ee69 46bc 03f8 c7b9 fd8e 013c
000003e0: f925 d1bb 347a 3c3c 325d cc3b 2875 053c
000003f0: 3fdf 0fbc 897a 253c f27e f639 3d9a 3cbc
0.0055536306 -0.0018972082 -0.016805364 0.017531613 0.0016433101 -0.024202872 -0.008367994 0.0095986
0.01979509 -0.0026915025 -0.02191629 0.018747134 -0.0022261022 -0.02133033 -0.015604952 -0.024515973
-0.012052971 -0.005057122 -0.019575024 -0.0061937785 -0.016863616 -0.010353625 0.0007169889 -0.013137312
-0.007962977 -0.005457352 0.017357223 0.011919921 0.01680821 0.009909553 0.021351157 -0.011312217
0.02060688 -0.01677943 0.011290906 0.0067229597 -0.017404536 0.0058267782 -0.0121696 0.0101622
-0.021522043 -0.0074412604 0.022400057 -0.02331687 0.009540511 -0.013264443 0.0048054373 -0.0021704906
-0.007027396 0.018171765 0.019660976 0.018903263 -0.013985973 0.025675025 0.0030026918 -0.016970694
-0.023764955 -0.010963552 0.028598575 -0.019252893 0.011640635 -0.009694983 0.022222035 -0.007436843
-0.018408354 0.010433351 -0.016109813 -0.008272348 -0.016975164 -0.0054355464 0.0018463635 0.020041648
-0.0073928237 0.030167092 0.021698143 0.007252729 0.013629378 0.003139202 -0.0020241884 0.0037840449
-0.011370753 0.01995067 -0.00951326 -0.00520616 -0.007081217 -0.021719635 -0.00061543635 -0.020052537
0.008077235 0.0032642006 -0.021258995 0.01117207 -0.022529973 0.009519847 0.0037144173 0.010551132
-0.021797998 -0.0008055872 -0.0018218592 0.006694601 0.009878891 -0.005997261 -0.009691757 0.0058738836
-0.004148647 -0.013490993 0.013346078 0.004814841 0.02127291 0.005392716 -0.006861661 0.0051283934
-0.007289445 0.02183802 0.02061995 0.020444429 -0.027038472 0.0025697635 0.008072857 -0.025322909
-0.0072642155 0.000113035836 -0.012167825 0.004728409 -0.019326616 -0.004507543 0.0134737585 -0.02779835
-0.03330586 -0.024839355 0.0054278285 -0.010295585 0.006231748 0.019456035 -0.019942416 0.011882554
-0.017942537 -0.0046518994 -0.015891343 -0.0054329624 0.0084674135 0.018499667 0.021461677 0.004510525
0.004756751 -0.002077508 -0.024386907 -0.016441265 0.0009748494 -0.010803353 -0.03278687 0.004547242
-0.002085573 -0.015102871 -0.011484165 -0.023650166 -0.0430601 -0.017692648 -0.04093242 -0.03771277
-0.0219148 -0.037991628 -0.022655338 -0.017188033 0.0011558232 -0.020411836 0.004342503 -0.027136521
-0.031748947 -0.036695752 -0.011264943 -0.008366664 -0.03394759 -0.03436799 0.0027549013 0.019437702
0.0071962476 -0.006119669 -0.025905892 0.013137458 -0.022578184 -0.01996486 -0.004039742 -0.031251665
0.0019253027 0.014402332 0.015732868 0.008086983 -0.02033219 0.0010612046 -0.004804959 0.021137808
-0.028249685 -0.010742575 -0.025318695 0.007340767 0.015212054 0.0071628774 0.0023513194 0.0051708105
0.008261584 0.011679122 -0.020975433 -0.0150670465 -0.017282262 -0.0034473187 0.011683796 -0.027967663
0.011102012 -0.005352311 0.023935648 0.014451835 -0.0068903016 -0.018265478 -0.00837103 0.011973248
0.013657936 0.012569736 0.004105264 0.017303215 -0.02144322 -0.0133269 -0.0044325646 -0.016237687
-0.023119418 0.00050480955 -0.009611314 0.011728231 0.0051340596 -0.0033054813 0.00046018913 -0.017729534
-0.0011350209 -0.013150023 -0.00738561 0.021539342 -0.013646238 0.004106332 -0.009584752 0.0010387148
-0.015131604 -0.0025720114 -0.0040573278 -0.0127582 0.0016137782 -0.012110217 -0.0003814102 0.007907626
-0.0063827005 0.011503745 0.0062366957 0.008145608 -0.008781253 0.010100015 0.00047015358 -0.011511383

fc.1.bias f4 [64]
00000000: c80c 4a3c 8e92 053d 272c 0abd 0280 fa3b
00000010: d131 923e 2a71 2d3e 9dfe 17bd c611 17bc
00000020: ec6c 673c d065 8a3e 8415 803e 3c13 3d3e
00000030: ef12 013c 6183 eb3c 3fd1 d73d a675 183f
00000040: 8ca6 14b9 37f3 193c 4c79 10bd f7a5 debc
00000050: 5bad a33c e4d5 2b3b e7c3 c8bc 6d20 953d
00000060: 219a 373c f984 b5bc 2e3f eebc 1af0 2fbd
00000070: 2a89 823d cffc f23d 22d9 1c3b d85b e7bc
00000080: 3141 08bc 5514 893e d999 adbb 3a0b 933e
00000090: b368 46bc 7d93 9a3e 5857 7a3c 1afe 833c
000000a0: 6435 efbc 1988 193e 3562 893b 516f c43d
000000b0: 068c ae3d f4e6 e43b 2d92 053c 4f41 27bb
000000c0: 1d74 84bc aacb e03c a1f7 b23c 60db 61ba
000000d0: 78e1 5a3e 4314 a13e 7ae4 3c3b 2adb 333c
000000e0: 7343 95bc 52cb 0ebd f518 4ebd 4418 ad3e
000000f0: 18e7 a2bb 01b6 b8bc c148 b63d ddf0 223e
0.012332149 0.03261047 -0.033733513 0.0076446543 0.28553632 0.169377 -0.037108053 -0.009220546
0.01412509 0.27030802 0.25016415 0.18464369 0.007878049 0.02874917 0.105379574 0.5955452
-0.00014176423 0.009396366 -0.035271928 -0.027178748 0.019980123 0.0026220018 -0.024507476 0.07281575
0.011206181 -0.022158133 -0.02908286 -0.042953588 0.06373818 0.11864626 0.0023933132 -0.028242037
-0.008316324 0.26773325 -0.005297881 0.28719503 -0.012109923 0.3019065 0.015279613 0.016112376
-0.029200263 0.14993323 0.0041926154 0.095915444 0.08522801 0.0069855396 0.008152527 -0.0025521105
-0.016168648 0.027440865 0.021846594 -0.0008615758 0.21375072 0.3146077 0.0028822706 0.010977546
-0.018220639 -0.03486187 -0.05031677 0.33807576 -0.004971396 -0.022547724 0.089005955 0.15912195

fc.3.weight f4 [4, 64]
00000000: 9b01 843c 3ff7 463e d04c 3d3c 6212 9c3d
00000010: 5f9a 35be 3897 363e db15 bc3d fc19 bebd
00000020: ac2d bf3d f73a cd3d 3275 513d 86c3 5dbf
00000030: 1028 993d 9da8 153d 06d1 9abf b8dd c53e
00000040: 198f 3c3d c255 50be fc9f cf3d 1e79 fe3c
00000050: 7701 803e c1b5 943c 2eee 7bbd 9f8b 8cbe
00000060: 809f 7fbc 8405 0fbc 128f d5bd 118c 9fbd
00000070: 88e4 3b3c 2988 1a3e 274a 883d eb3f 583c
00000080: bf79 a53d bf98 32bf e5f4 d1bd 8704 0b3e
00000090: 204c 293d dda5 4bbe f2fe 16bc a3bb 133e
000000a0: c20e 1f3d b734 6dbd ed25 2bbd 2c18 283e
000000b0: 9fe4 46be 6e26 09bd 6824 783e 5de4 f03d
000000c0: ef90 2b3d 8ae2 7e3e eeb4 383e 8d80 35bd
000000d0: 55f9 9bbf 80da a3bd 124e 03bd d63a be3d
000000e0: 250a e4bc fcaf 5e3d a099 aabd 54a0 00be
000000f0: a327 bb3c b8b7 84bd 1575 3b3e 7195 ec3d
00000100: 2d25 2abc fcf4 25be 2175 da3d 3c1c a9bd
00000110: 7e84 bcbe c349 263e 0224 4fbd d4ba b93c
00000120: 54b9 debc 4d4d d13d 607d 93bf 9e4e 71bd
00000130: c5cc d63c 7189 73bf 899b 043e 28d8 a43e
00000140: b26f 80bc b354 2dbe e88b 023d f8cc 603d
00000150: d4ca b43d c0da 923d 61dc fe3d 0601 94bd
00000160: c1e6 323d c85a aebd 7094 a93d 94a8 30bd
00000170: d049 a4bf 8ddd 96be 5bae d23d 34b8 bcbd
00000180: c7ce 2d3c 6e24 f13c 3401 ea3c 6234 81bd
00000190: f76a 54bd dfb3 15be f6ba 09bc 6e8a 023e
000001a0: f9d9 debd cb30 52bd 72a3 fa3a 814a ed3d
000001b0: f63e 693e 9989 85be 89fc 87be a12a e4bd
000001c0: 5e5f 81bd 43da 903e 6738 6b3e 60c4 7fbd
000001d0: 40db 093d 402d 32be 12a3 a8bd 615a 7fbb
000001e0: cb4a c4bc 20d7 87bb 0f53 58bd 8e69 ae3d
000001f0: bb92 333d beda d63d 3e83 923e 3579 04bc
00000200: 81e1 c7bc a11e 05be ba50 823d 8823 9f3d
00000210: a968 00bf 61bd d63e 6bc2 af3d c773 353c
00000220: cd0d f23d c2af 43bf 9667 863c 3c24 723e
00000230: 92c6 a93d 67f8 e43d 89fc c23d 0297 9a3e
00000240: 7e6a 673d 2edc 84be 50d3 af3d 3404 c83d
00000250: f5d8 f9bc d9f2 3b3c 0f36 8c3d e165 643e
00000260: a6ed 863d be73 6b3c 4b2b d63c f7a8 e73f
00000270: 39d0 06bc 62df 0e3e 63f2 c73d 866e a9bd
00000280: 615e b9bd 875b 853a 8fd2 3d3d 8384 98bf
00000290: 7680 72bd 91b7 34be 66a4 7d3d 7799 69bf
000002a0: f07e c43d 73a4 e3bd 676c 363d fb8b 213e
000002b0: 8702 9a3d c347 273e 707b 873e 69e0 a43d
000002c0: 8f18 18bc e454 dbbe 725e 283e 88f4 3f3d
000002d0: ac48 23be 8426 0fbe 481b b8bc aef9 2e3c
000002e0: a759 c1bd b841 cd3d 83b4 363d f3d2 93bf
000002f0: d17c 453d 44d3 473c e3e7 913e 2899 89be
00000300: bcb1 1dbc e513 60bd 650c 21bd ea2c 5cbd
00000310: bb05 d53d 9092 c33d cbe7 1cbd e268 9d3d
00000320: 8234 bbbd c6b8 2dbe db5e 9abd 4016 febd
00000330: 73ce c6bd 89b1 513e 470d 053e 04d4 9d3e
00000340: 4ab4 43bd 5c6a afbe d81c 113c 5acd e1bd
00000350: 2191 f3bd 1cf3 75bd 14da 9abd a03f 87be
00000360: 329d 143d 88b7 ecbc 0532 4fbd 3053 d5ba
00000370: 2cfa a13c 9436 ac3e 914d d9bd 9eeb ea3d
00000380: d4ef f53d 6aea 19be 41dc 3f3c 4995 89bd
00000390: b29f a3bd c968 2fbf 751d f1bb cf7f 163e
000003a0: 3066 7cbd 1858 b7bf 3621 a33d 5e80 cabf
000003b0: edf1 943e b0b6 993e 0b7c 273e 0140 f5bd
000003c0: 8fda f53d d056 a33e 97ef d3be 0b7b 9abc
000003d0: 2220 363e 7def 69bf a4df f43c baf0 e2bb
000003e0: 0235 dcbd cef2 f33d ea63 a63b 8110 073d
000003f0: 7550 df3d 0467 1bbd f755 48bf 1884 013e
0.016114047 0.19430254 0.011553958 0.07620694 -0.17734669 0.17831123 0.09183856 -0.092823
0.09334883 0.10021012 0.051137157 -0.8662647 0.074783444 0.036537755 -1.2095039 0.3864572
0.046034906 -0.20345214 0.101379365 0.031063613 0.25001118 0.018153073 -0.061506443 -0.27450272
-0.015601993 -0.008729342 -0.10427679 -0.077903874 0.01146806 0.15091003 0.066547684 0.013198833
0.08079862 -0.6976432 -0.10251788 0.13575946 0.041332364 -0.1988749 -0.009216057 0.14427046
0.038832434 -0.0579116 -0.041784216 0.16415471 -0.1942315 -0.033483915 0.24232638 0.11762307
0.041886266 0.24891105 0.18037769 -0.04431205 -1.2185465 -0.0800066 -0.032056876 0.09288566
-0.027836869 0.05436705 -0.08330083 -0.1256116 0.022846049 -0.06480354 0.18306382 0.11551941
-0.01038484 -0.16206735 0.10666872 -0.082573384 -0.36819834 0.16239075 -0.05057145 0.022672094
-0.02718798 0.10219822 -1.1522636 -0.058912866 0.026220689 -0.95131594 0.12949957 0.32196164
-0.01567826 -0.16926841 0.031871706 0.054882973 0.08827749 0.071706295 0.12444378 -0.07226758
0.043677095 -0.08513409 0.08280265 -0.04312952 -1.2835026 -0.29465905 0.10287162 -0.092148215
0.010608382 0.029436316 0.028565027 -0.06308819 -0.051859822 -0.14619397 -0.008406391 0.12748119
-0.10881419 -0.051316064 0.0019122197 0.11586476 0.22777924 -0.2608154 -0.26559857 -0.11140943
-0.06317018 0.2829152 0.22970735 -0.062443137 0.03365636 -0.17400074 -0.08234228 -0.0038963782
-0.023961445 -0.004145518 -0.052813586 0.08516227 0.043841105 0.104909405 0.28615755 -0.008085539
-0.02439952 -0.12999965 0.063630536 0.07770449 -0.501597 0.4194136 0.08582004 0.011074967
0.118190385 -0.7644006 0.016406815 0.23646635 0.082898274 0.111801915 0.095208235 0.30193335
0.056498043 -0.25949234 0.085852265 0.09766427 -0.030498961 0.011471474 0.06846248 0.22304489
0.065882966 0.014370857 0.02614369 1.8098439 -0.008228355 0.13952401 0.097630285 -0.08273034
-0.090512045 0.0010174372 0.046343382 -1.1915439 -0.05920454 -0.1764815 0.06192436 -0.91249794
0.09594524 -0.111153506 0.044536974 0.15776055 0.07520013 0.16335969 0.26461363 0.08050615
-0.009283199 -0.42838204 0.16442278 0.046864063 -0.15945691 -0.13979536 -0.022473946 0.010679645
-0.09440928 0.100223005 0.044605743 -1.1548752 0.048214737 0.012196366 0.28497228 -0.2687466
-0.009624895 -0.054706473 -0.03931846 -0.05375377 0.104014836 0.09549439 -0.038306993 0.076860204
-0.091408744 -0.16965017 -0.075376235 -0.124065876 -0.09707346 0.2047788 0.12993346 0.30825818
-0.04777936 -0.34260833 0.008856975 -0.11025496 -0.118929155 -0.0600463 -0.07561126 -0.2641573
0.036282726 -0.028896108 -0.05058481 -0.0016275402 0.019772612 0.3363539 -0.10610498 0.11470722
0.12008634 -0.15030828 0.0117102275 -0.06717927 -0.07989444 -0.68519264 -0.007358248 0.14697193
-0.06162089 -1.4323759 0.07965319 -1.5820425 0.29090825 0.30022192 0.16355912 -0.119750984
0.12004577 0.3190217 -0.4139373 -0.0188575 0.17785695 -0.91381055 0.029891796 -0.0069256695
-0.10752298 0.11911546 0.0050778287 0.032974724 0.10904018 -0.03794004 -0.7825617 0.12648046

fc.3.bias f4 [4]
00000000: 92db c03e d786 cf3e 7907 c73e bd08 dc3e
0.3766752 0.40532562 0.3887289 0.42975417
