models/v17.1/model_22500.pt (torch, 729840 bytes, 10 tensors)

conv.0.weight f4 [16, 2, 3, 3]
0.18658645 0.1182867 -0.113672845 0.11340035 -0.014934568 0.03406954 -0.10266917 0.026229993
0.13190305 -0.24616137 0.1362896 0.09003913 0.10048013 0.05311028 0.07722957 0.038160052
0.068408065 -0.08275997 0.057751473 0.19190428 -0.08183698 -0.09086495 -0.12788072 0.14267117
-0.2629625 -0.29411954 -0.1880386 -0.07225425 0.012880008 -0.018943116 0.18029974 -0.10161825
0.07984583 0.20967518 0.17659618 0.07713073 0.12642045 0.23179977 -0.015356947 -0.08864318
0.035646826 0.20353696 0.18813848 0.35314286 0.063687906 -0.1267998 -0.07593429 -0.010733001
0.08439092 -0.08360112 -0.24950068 -0.20030874 -0.38194028 -0.04948157 0.18900216 0.05779681
0.11338676 -0.088373125 0.28281182 -0.94584674 0.11643726 -0.19032654 0.08654333 -0.16758914
-0.030584805 -0.08912994 0.12444786 -0.19947745 0.08877463 -0.10130843 0.18891011 -0.059999965
0.19178796 -0.13865525 -0.13316764 -0.13239582 -0.10570268 0.36559632 0.12654535 0.17132898
-0.105164155 -0.19150227 0.138352 0.12878326 0.13336016 0.09663519 0.26467338 -0.12796776
-0.15993255 0.106857605 0.12502483 -0.025357481 0.3380997 0.06710253 -0.32015634 -0.018772328
0.1402265 -0.16624613 -0.3311528 -0.12499235 -0.032382403 0.15398164 -0.059688583 -0.008005778
-0.008425758 -0.14553127 0.13993931 0.11725857 -0.43110478 -0.45772547 0.04675156 -0.026050055
-0.04600076 -0.5043281 -0.40705752 -0.40350544 -0.04799443 0.016178504 0.13236317 -0.047165003
-0.03888705 -0.17416283 0.098535135 0.057638343 0.07753734 0.006443879 -0.3886441 -0.38857293
0.11614922 -0.08840549 0.11081263 0.16109036 -0.17693801 0.12954599 0.016877806 0.1105062
0.13791294 -0.15922983 0.051244784 -0.10292757 0.1279097 -0.074944675 0.16001333 -0.08025579
0.12337255 0.07351874 0.12541713 0.16889071 0.20295529 -0.17776337 0.07416755 -0.1468201
-0.009065336 -0.15866324 0.12829056 -0.08933414 0.06251433 0.023703206 0.054525033 -0.085396096
0.13358866 0.033581957 -0.010598697 -0.16006893 0.09880335 0.045518458 0.056582663 0.59242004
-0.0057559554 -0.18789515 -0.022177905 0.005727288 0.12140571 -0.0884557 -0.05019992 0.004704196
-0.6061718 0.009131732 0.16072261 0.036672242 0.018721228 0.041097917 0.02828317 -0.057242826
0.36048654 0.024500964 0.022509925 -0.06886963 0.0046903533 -0.00037768722 -0.04130059 -0.026028844
0.089915365 0.3179571 -0.010053593 -0.014234801 0.11566603 -0.0034040587 -0.10046679 0.05965314
-0.1609747 -0.06632435 0.41762552 0.10512116 -0.17704383 -0.05801975 -0.17899065 0.074283384
-0.10635178 0.13308692 0.006348731 0.16281393 -0.16629583 0.1560265 -0.016795903 0.19527793
-0.12257881 -0.22681163 0.014699988 -0.107820824 -0.4338373 0.2513437 -0.15079841 -0.1451237
-0.22821967 0.14224611 0.22853641 0.02415016 0.08388625 0.030771062 -0.21013965 0.1649569
0.16017085 0.24693353 0.12451007 -0.022203147 0.04903966 -0.13239126 -0.25152105 -0.3660045
0.20962031 -0.1596982 -0.12276898 -0.16385007 -0.021384167 -0.03892669 0.052453335 0.029091837
0.15935248 0.16573416 0.027904639 0.068512015 -0.32114384 -0.2996631 -0.53534716 -0.105264544
00000000: 8510 3f3e 4c40 f23d 4fcd e8bd 713e e83d
00000010: 1eb0 74bc 818c 0b3d 3744 d2bd 48e0 d63c
00000020: 9811 073e ba11 7cbe 808f 0b3e 6f66 b83d
00000030: 87c8 cd3d 2a8a 593d 892a 9e3d b74d 1c3d
00000040: 8719 8c3d 0f7e a9bd cf8c 6c3d 8e82 443e
00000050: 269a a7bd 6717 babd 2af3 02be 6418 123e
00000060: 05a3 86be d696 96be 318d 40be 09fa 93bd
00000070: ab06 533c 982e 9bbc 7fa0 383e 3b1d d0bd
00000080: 3686 a33d 17b5 563e a1d5 343e b7f6 9d3d
00000090: 5d74 013e eb5c 6d3e b49b 7bbc 8e8a b5bd
000000a0: 6802 123d fe6b 503e 60a7 403e 24cf b43e
000000b0: ce6e 823d cfd7 01be 7083 9bbd 78d9 2fbc
000000c0: 26d5 ac3d 1037 abbd 1b7d 7fbe bc1d 4dbe
000000d0: ad8d c3be 30ad 4abd c889 413e 59bc 6c3d
000000e0: 5137 e83d f8fc b4bd b6cc 903e 0323 72bf
000000f0: a876 ee3d f6e4 42be a13d b13d 7d9c 2bbe
00000100: fc8c fabc c289 b6bd 85de fe3d d143 4cbe
00000110: 79cf b53d cb7a cfbd a771 413e 86c2 75bd
00000120: 1064 443e a4fb 0dbe 195d 08be c592 07be
00000130: a67a d8bd 712f bb3e 1b95 013e dd70 2f3e
00000140: 4e60 d7bd 2c19 44be 26ac 0d3e c2df 033e
00000150: 918f 083e ace8 c53d 4583 873e fb09 03be
00000160: 5cc5 23be 29d8 da3d 8206 003e 7eba cfbc
00000170: 671b ad3e 0d6d 893d 88eb a3be 6dc8 99bc
00000180: 8997 0f3e 6d3c 2abe dc8c a9be fdfb ffbd
00000190: 69a3 04bd 5dad 1d3e 047c 74bd ab2a 03bc
000001a0: 310c 0abc 2606 15be 404c 0f3e 4325 f03d
000001b0: c4b9 dcbe fe5a eabe 907e 3f3d ed66 d5bc
000001c0: 4b6b 3cbd a51b 01bf d869 d0be 4498 cebe
000001d0: cf95 44bd c888 843c 368a 073e 1730 41bd
000001e0: 0748 1fbd be57 32be cacc c93d 2f16 6c3d
000001f0: e6cb 9e3d 2d27 d33b 5cfc c6be 08f3 c6be
00000200: a4df ed3d f00d b5bd bbf1 e23d dff4 243e
00000210: 3d2f 35be b4a7 043e 5343 8a3c 1351 e23d
00000220: 0d39 0d3e 250d 23be 0de6 513d b1cb d2bd
00000230: c3fa 023e 987c 99bd 89da 233e 265d a4bd
00000240: bfaa fc3d fe90 963d 596d 003e b0f1 2c3e
00000250: 83d3 4f3e 9a07 36be 28e5 973d 0258 16be
00000260: c686 14bc 9e78 22be 9a5e 033e d1f4 b6bd
00000270: 8307 803d 3a2d c23c a455 5f3d 26e4 aebd
00000280: 77cb 083e 3c8d 093d 28a6 2dbc 1ce9 23be
00000290: 6959 ca3d 9071 3a3d 39c3 673d d7a8 173f
000002a0: 749c bcbb 9667 40be 70ae b5bc f9ab bb3b
000002b0: 8fa3 f83d 4328 b5bd 6e9e 4dbd a825 9a3b
000002c0: 132e 1bbf 439d 153c 7894 243e a235 163d
000002d0: 435d 993c 4a56 283d 1bb2 e73c 7477 6abd
000002e0: b191 b83e 3fb6 c83c bc66 b83c 850b 8dbd
000002f0: 89b1 993b 5204 c6b9 cf2a 29bd 713a d5bc
00000300: 8c25 b83d 46cb a23e d3b7 24bc 1539 69bc
00000310: 50e2 ec3d a116 5fbb 88c1 cdbd da56 743d
00000320: 8dd6 24be 10d5 87bd 03d3 d53e c349 d73d
00000330: fa4a 35be 1ea6 6dbd 5349 37be e321 983d
00000340: f6ce d9bd f047 083e 0409 d03b b2b8 263e
00000350: 7449 2abe 69c5 1f3e 9097 89bc f0f6 473e
00000360: 990a fbbd 4f41 68be 38d8 703c 2ad1 dcbd
00000370: ec1f debe 1fb0 803e e66a 1abe 4f9b 14be
00000380: 6bb2 69be f7a8 113e 7305 6a3e 8ed6 c53c
00000390: 8ecc ab3d 9813 fc3c d92e 57be 76ea 283e
000003a0: d403 243e 25dc 7c3e 23ff fe3d 60e3 b5bc
000003b0: cfdd 483d 9391 07be 5ec7 80be f164 bbbe
000003c0: b5a6 563e ed87 23be 4e6e fbbd 50c8 27be
000003d0: d92d afbc 9871 1fbd 4fd9 563d 0152 ee3c
000003e0: 4c2d 233e 37b6 293e 4598 e43c 0750 8c3d
000003f0: f76c a4be 716d 99be 830c 09bf f094 d7bd

conv.0.bias f4 [16]
0.095947035 -0.097716026 -0.028405499 0.32659462 -0.4123177 -0.287456 0.24049965 -0.14103998
-0.2772305 -0.02125509 -0.47821465 -0.31656832 0.159832 -0.15549614 -0.07860351 -0.19834009
00000000: e17f c43d 571f c8bd a6b2 e8bc 6937 a73e
00000010: 4e1b d3be 6f2d 93be 8a45 763e c96c 10be
00000020: 28f1 8dbe 281f aebc 8dd8 f4be 3e15 a2be
00000030: 00ab 233e 613a 1fbe e1fa a0bd aa19 4bbe

conv.2.weight f4 [32, 16, 3, 3]
-0.0136663 0.026325356 -0.020423155 0.0053263307 -0.026712188 0.041913263 0.11018982 0.02164483
-0.06649001 0.07538303 0.06982235 0.03561837 0.11914676 0.038652483 0.05107137 0.062304452
-0.042944264 -0.02123049 0.21044488 -0.009947199 -0.113206945 -0.031272892 -0.02754908 -0.19796956
-0.0875606 -0.27158192 -0.13814665 0.03929774 -0.012611076 -0.08544651 0.034467716 -0.064968936
-0.12079235 0.09244882 -0.09782146 -0.21844319 0.042895503 0.12732826 -0.23791052 -0.10819079
-0.17193265 -0.27337417 0.11589628 -0.099366955 -0.13850906 0.031573784 0.003067443 -0.054459095
0.092908196 0.11556738 -0.2096925 0.08185721 0.058812235 -0.17878866 -0.009135654 0.17722179
0.027251277 0.12584524 0.046953548 -0.070864186 0.08726558 0.025525013 -0.13065925 -0.21338466
-0.01917591 -0.018226994 -0.0343643 -0.035928614 0.009592461 -0.16735241 -0.08753932 -0.11087957
0.07002919 0.025428219 0.066530205 -0.025589842 0.17228904 -0.14485282 0.122894175 -0.04095336
-0.12846361 0.10716353 -0.2489283 -0.018583382 0.11211946 -0.14915368 0.010719649 -0.16777328
-0.24495989 0.06778519 0.039436646 -0.026974613 -0.11506814 0.015542551 0.021262627 -0.14053753
-0.06248498 -0.029411469 -0.04300506 -0.012638319 -0.057142697 -0.07062241 -0.12789908 -0.17851543
-0.12977915 -0.11545741 -0.13531221 0.019536726 0.04493462 0.070502326 0.033681948 -0.14680883
-0.0007553886 0.0023050387 -0.13305257 -0.10553311 0.01794703 0.008833435 0.030515548 0.083039664
0.08879492 -0.0050386675 -0.05230927 -0.021945486 -0.08690044 -0.0041812076 -0.0018010513 -0.035666678
0.04799279 -0.052916236 -0.19541107 -0.032709453 -0.07727315 -0.057216328 0.04621208 -0.09794404
0.03937843 -0.016739836 -0.0971473 0.1341358 0.016935185 -0.049418774 -0.1312676 -0.037149142
0.098738834 -0.068197414 0.037366785 -0.078414805 -0.0519322 0.12220808 0.041004665 -0.023603788
-0.04192619 -0.049456034 0.07329298 0.058371916 0.053727847 0.052842654 0.069070034 0.005209442
-0.017381717 -0.028121624 0.008591114 -0.16437922 -0.049393803 -0.057587326 -0.0749725 0.20239899
0.056425776 -0.22449318 -0.041398242 -0.35641786 -0.13456665 -0.05267851 -0.039657936 0.013451335
0.12969206 -0.104914054 -0.054711565 -0.03928203 -0.40167442 0.16620989 -0.12651776 -0.1940968
-0.03092074 0.15320234 0.041087132 -0.051412284 -0.06087914 -0.089088544 0.0771812 0.014445507
-0.23408815 0.13025025 -0.09985803 -0.3112349 -0.09400818 -0.026595423 -0.21286386 0.0002274952
-0.15780717 0.062319066 -0.13100328 -0.21674134 -0.050345205 -0.07522587 -0.085013986 -0.05422073
0.03262689 -0.04429525 0.0014779608 -0.27682972 -0.17043802 -0.02883484 -0.024949705 -0.040506307
0.04790891 -0.07044022 -0.013515788 0.082459696 0.010961841 0.22189642 0.010995095 -0.092475325
-0.04480032 0.531958 0.059420012 0.07965263 -0.046341047 -0.34595782 -0.2015313 -0.11349074
-0.051066305 -0.024297033 0.01735103 -0.12321608 0.16232257 0.079845876 -0.17516159 -0.059873674
0.024513049 -0.015891144 -0.04293008 0.14248218 -0.100623064 0.18307117 -0.06111765 -0.36130613
-0.16573828 0.035634045 -0.052176528 0.014787957 0.12574966 -0.1631426 -0.21367711 0.02747224
00000000: 9ee8 5fbc 46a8 d73c 764e a7bc 8088 ae3b
00000010: 85d3 dabc 3ead 2b3d 33ab e13d 8050 b13c
00000020: ea2b 88bd 6b62 9a3d 05ff 8e3d 91e4 113d
00000030: 3703 f43d 1152 1e3d 3630 513d f432 7f3d
00000040: 53e6 2fbd 91eb adbc dd7e 573e 94f9 22bc
00000050: 0bd9 e7bd 0118 00bd 9cae e1bc 88b8 4abe
00000060: f952 b3bd c90c 8bbe 5176 0dbe abf6 203d
00000070: b09e 4ebc 94fe aebd 052e 0d3d 6f0e 85bd
00000080: fb61 f7bd cf55 bd3d 9e56 c8bd 92af 5fbe
00000090: 32b3 2f3d 5762 023e d19e 73be 2293 ddbd
000000a0: 1d0f 30be b3f7 8bbe 075b ed3d e780 cbbd
000000b0: 52d5 0dbe 8353 013d 2707 493b 8010 5fbd
000000c0: a746 be3d 97ae ec3d a1b9 56be c1a4 a73d
000000d0: 19e5 703d 6014 37be b6ad 15bc a179 353e
000000e0: 123e df3c 93dd 003e 5d52 403d 3e21 91bd
000000f0: 4cb8 b23d d519 d13c 8acb 05be 8281 5abe
00000100: cc16 9dbc c750 95bc 95c1 0cbd e229 13bd
00000110: b329 1d3c 6e5e 2bbe d147 b3bd d414 e3bd
00000120: 776b 8f3d d74e d03c fd40 883d caa1 d1bc
00000130: 8a6c 303e 4c54 14be f1af fb3d b6be 27bd
00000140: f78b 03be 8e78 db3d 0fe7 7ebe 2d3c 98bc
00000150: e39e e53d bebb 18be 77a1 2f3c c2cc 2bbe
00000160: c4d6 7abe f6d2 8a3d 5288 213d ddf9 dcbc
00000170: d8a8 ebbd 2fa6 7e3c f62e ae3c 12e9 0fbe
00000180: 40f0 7fbd 52f0 f0bc 1326 30bd f410 4fbc
00000190: 760e 6abd 7ba2 90bd faf7 02be c0cc 36be
000001a0: d3e4 04be ef74 ecbd 498f 0abe 7c0b a03c
000001b0: 5d0d 383d 8663 903d 15f6 093d 0e55 16be
000001c0: 4505 46ba 2210 173b ef3e 08be be21 d8bd
000001d0: a605 933c 1dba 103c befb f93c b310 aa3d
000001e0: 1cda b53d 681b a5bb 3f42 56bd 05c7 b3bc
000001f0: dcf8 b1bd 8302 89bb 4111 ecba 3917 12bd
00000200: 1694 443d b2be 58bd d719 48be 59fa 05bd
00000210: 6341 9ebd ab5b 6abd e148 3d3d e396 c8bd
00000220: 474b 213d fb21 89bc 2af5 c6bd e55a 093e
00000230: a8bb 8a3c 576b 4abd 046b 06be b329 18bd
00000240: 9637 ca3d 16ab 8bbd ea0d 193d f197 a0bd
00000250: dcb6 54bd 3b48 fa3d 82f4 273d bb5c c1bc
00000260: ccba 2bbd 6992 4abd a11a 963d 6417 6f3d
00000270: bb11 5c3d 8a71 583d 9774 8d3d f8b3 aa3b
00000280: 1a64 8ebc 525f e6bc bec1 0c3c 0753 28be
00000290: 2851 4abd b0e0 6bbd 2f8b 99bd ae41 4f3e
000002a0: b71e 673d 8ae1 65be 3491 29bd 677c b6be
000002b0: d7cb 09be 6cc5 57bd 5c70 22bd fd62 5c3c
000002c0: ffcd 043e 2edd d6bd 3c19 60bd 32e6 20bd
000002d0: 45a8 cdbe ed32 2a3e df8d 01be 50c1 46be
000002e0: 7e4d fdbc 13e1 1c3e fb4a 283d b095 52bd
000002f0: 685c 79bd 0e74 b6bd 2d11 9e3d d9ac 6c3c
00000300: ceb4 6fbe 5260 053e 5e82 ccbd 2e5a 9fbe
00000310: 5c87 c0bd a5de d9bc fcf8 59be c78b 6e39
00000320: 3498 21be 4742 7f3d b925 06be 71f1 5dbe
00000330: c636 4ebd 0510 9abd d01b aebd 8e16 5ebd
00000340: c6a3 053d f06e 35bd 23b8 c13a a0bc 8dbe
00000350: 4e87 2ebe 0b37 ecbc 5363 ccbc f1e9 25bd
00000360: 223c 443d f642 90bd 5371 5dbc a1e0 a83d
00000370: 4b99 333c d138 633e c524 343c b463 bdbd
00000380: 8a80 37bd 662e 083f 6662 733d eb20 a33d
00000390: 1cd0 3dbd 6221 b1be 395e 4ebe d56d e8bd
000003a0: e72a 51bd 920a c7bc bf23 8e3c b658 fcbd
000003b0: e337 263e 3c86 a33d 8f5d 33be 193e 75bd
000003c0: 97cf c83c 252e 82bc 74d7 2fbd d9e6 113e
000003d0: 7713 cebd 0277 3b3e 8056 7abd 1efd b8be
000003e0: 4cb7 29be 01f5 113d 0eb7 55bd 3049 723c
000003f0: 85c4 003e db0e 27be 2cce 5abe 770d e13c

conv.2.bias f4 [32]
0.050899398 0.006638923 -0.047147978 -0.11141364 -0.04606356 -0.097814426 0.06890532 -0.07220127
-0.055689376 -0.15164348 -0.053035934 0.12734996 -0.08309205 0.09026965 0.08739267 0.0120265195
0.032642268 0.031127509 0.1016134 -0.10432299 -0.1023253 0.039150413 -0.074594274 -0.15324414
0.005210708 0.0645344 -0.096509986 -0.094079465 -0.034954987 0.042792965 -0.040878236 -0.059718914
00000000: e37b 503d 538b d93b 3d1e 41bd d62c e4bd
00000010: 25ad 3cbd ee52 c8bd 3b1e 8d3d 42de 93bd
00000020: 8b1a 64bd 6e48 1bbe 353c 59bd 0768 023e
00000030: 2a2c aabd 4bdf b83d eefa b23d e10a 453c
00000040: e6b3 053d 1eff fe3c b01a d03d 4ba7 d5bd
00000050: ed8f d1bd 2f5c 203d e2c4 98bd 08ec 1cbe
00000060: 96be aa3b 9d2a 843d 07a7 c5bd bcac c0bd
00000070: f62c 0fbd ad47 2f3d f06f 27bd d29b 74bd

conv.4.weight f4 [64, 32, 6, 6]
0.018865937 -0.007371916 0.011733607 -0.0008172412 0.002765538 -0.007815529 0.012506496 0.013157686
-0.0031048988 0.025934732 -0.0076140803 0.0074726576 0.026750024 0.006605751 -0.020719806 -0.02333922
0.0056805587 -0.00022526071 0.0020642148 0.018977558 0.00030891507 -0.016611138 -0.034045797 0.027852662
-0.003243676 -0.011607269 -0.021611145 0.028297544 0.014868321 -0.018677961 -0.025441302 0.025603779
0.0026925777 -0.0143199265 -0.024510272 0.01787497 -0.01998412 0.013119347 -0.027978664 -0.026273701
-0.028255131 0.02692883 0.016841944 -0.02517868 0.01283265 -0.027886365 -0.027347673 0.0042263763
0.016657416 0.0067215636 -0.004813074 0.018288705 -0.035328753 0.003636383 -0.019229552 0.0014897448
0.0138492165 -0.021094566 0.002930155 -0.005581781 0.019057466 -0.00078384136 0.004662705 0.015361549
-0.010513233 -0.039008018 0.027795263 -0.016201576 0.0067546945 0.018347977 -0.0045586033 0.013104931
0.01909357 -0.0059318286 0.0122711705 0.007059703 0.0320439 0.0154176485 -0.019733474 0.002882878
0.011567492 0.027319063 0.012829269 0.016637502 -0.0053277393 0.00071359286 -0.015663454 0.019463303
0.02320006 -0.012369836 -0.025592359 0.022443712 -0.03061242 0.01416772 -0.033040937 -0.013468934
-0.012513543 0.027350113 -0.0049700425 0.025439506 0.008560166 0.03315325 0.019246744 0.022103658
0.02561191 -0.00874546 -0.0081009185 0.004830679 0.016011821 -0.0107717505 -0.033101603 -0.03242446
-0.023561595 -0.004895879 -0.013312941 -0.017642474 -0.02655473 -0.002277836 -0.024260763 0.019130988
-0.014535489 0.0055395276 0.009669894 -0.011051053 0.023035074 0.00083212246 -0.0075681494 -0.028044108
-0.006292811 0.00023660388 0.0044335895 -0.0046797954 0.012320734 0.013311287 0.010850006 -0.014881987
0.005164411 -0.030401953 -0.03199425 -0.005035537 0.0039441916 -0.016834598 -0.024415452 0.013477342
0.010772336 -0.019458853 0.01629277 -0.022018066 0.022294585 0.015668351 -0.01995316 0.018053208
-0.026533784 -0.023450768 0.013486154 -0.017588435 -0.021920284 -0.0054355916 -0.014974867 0.018564269
0.014062497 0.012274 -0.0036250567 0.00739955 -0.0040699095 0.0030601048 -0.009426162 0.020098109
0.016467152 -0.012959269 0.00113047 -0.012908654 0.010415762 0.02418886 -0.020050656 0.00417404
-0.0061321594 -0.028798897 -0.038611516 -0.0038615894 0.02295005 -0.01750753 0.012855276 0.01917434
-0.018590502 0.015687548 0.006134822 -0.01878498 -0.008348654 -0.036168426 0.01770239 0.005484801
0.0111002615 0.021609783 0.014929399 0.029208647 0.014843897 -0.021404874 0.033823006 0.011291534
-0.008433365 -0.0100909285 0.030625472 0.010889663 0.015264934 -0.0072826995 0.019626303 -0.029686581
-0.0019790023 0.0075773727 -0.00021738587 0.018781232 -0.0017104056 0.0011984827 0.0201018 -0.012220681
-0.0118849445 -0.03428505 -0.00020189119 -0.013779846 0.007061747 0.015633866 -0.027483545 -0.017065931
0.025276205 -0.012568471 0.026208756 0.0290117 -0.0073989173 -0.023878215 0.004735307 0.0034735582
0.025604965 0.0042575547 0.016022922 -0.025264388 0.004051622 -0.0030588573 0.0084692985 -0.025768006
-0.003518687 -0.01756165 -0.019829199 0.012256028 0.004490653 0.011705121 -0.00066856743 -0.00071970705
-0.0011250296 0.015925143 -0.02038238 0.006353453 0.016148262 0.016960358 -0.014150819 0.022760727
00000000: bd8c 9a3c 1d90 f1bb 513e 403c 213c 56ba
00000010: 073e 353b b40c 00bc 0ce8 4c3c 5693 573c
00000020: 8f7b 4bbb 1375 d43c 897f f9bb 32dd f43b
00000030: de22 db3c 0e75 d83b 95bc a9bc e431 bfbc
00000040: fb23 ba3b f633 6cb9 c747 073b d376 9b3c
00000050: e1f5 a139 1514 88bc 9b73 0bbd 442b e43c
00000060: da93 54bb 6a2c 3ebc db09 b1bc 40d0 e73c
00000070: 429a 733c 8602 99bc 476a d0bc 04bf d13c
00000080: f575 303b 209e 6abc c4c9 c8bc 876e 923c
00000090: bdb5 a3bc 88f2 563c 8333 e5bc f23b d7bc
000000a0: 4e77 e7bc da99 dc3c 1ef8 893c 8543 cebc
000000b0: 0940 523c f271 e4bc 3a08 e0bc 6a7d 8a3b
000000c0: 2275 883c 9040 dc3b feb6 9dbb 32d2 953c
000000d0: e2b4 10bd 6250 6e3b 4b87 9dbc 8a43 c33a
000000e0: d3e7 623c 83ce acbc d807 403b 5fe7 b6bb
000000f0: 671e 9c3c b47a 4dba 9bc9 983b 02af 7b3c
00000100: b23f 2cbc dfc6 1fbd e4b2 e33c 2bb9 84bc
00000110: 7c56 dd3b 7f4e 963c 5660 95bb 11b6 563c
00000120: 1e6a 9c3c c95f c2bb 050d 493c 1555 e73b
00000130: 7740 033d 4e9a 7c3c 18a8 a1bc abee 3c3b
00000140: 9485 3d3c 3acc df3c db31 523c 5f4b 883c
00000150: 5194 aebb 6810 3b3a a550 80bc 8171 9f3c
00000160: 0d0e be3c daaa 4abc 11a7 d1bc e0db b73c
00000170: e6c6 fabc ba1f 683c ef55 07bd ceac 5cbc
00000180: 9a05 4dbc 580d e03c bddb a2bb 8366 d03c
00000190: f03f 0c3c b4cb 073d 59ab 9d3c bb12 b53c
000001a0: 11d0 d13c 1e49 0fbc b7b9 04bc ac4a 9e3b
000001b0: 392b 833c ff7b 30bc 8c95 07bd 83cf 04bd
000001c0: 3f04 c1bc 9c6d a0bb 861e 5abc f386 90bc
000001d0: 4e89 d9bc bf47 15bb 82be c6bc 97b8 9c3c
000001e0: 4226 6ebc ed84 b53b 7a6e 1e3c 7a0f 35bc
000001f0: 0db4 bc3c cb22 5a3a 3dfe f7bb c2bc e5bc
00000200: ed33 cebb df18 7839 a547 913b f858 99bb
00000210: e7dc 493c 9617 5a3c 39c4 313c 94d3 73bc
00000220: 383a a93b 840d f9bc 670c 03bd 2501 a5bb
00000230: 473e 813b b6e8 89bc ea02 c8bc 12d0 5c3c
00000240: 747e 303c 2c68 9fbc 6a78 853c 3b5f b4bc
00000250: 22a3 b63c ea5a 803c cf74 a3bc 52e4 933c
00000260: 615d d9bc d31b c0bc 08f5 5c3c 9f15 90bc
00000270: 2b92 b3bc 0c1d b2bb 2559 75bc 1814 983c
00000280: 6366 663c e318 493c 5c92 6dbb ed77 f23b
00000290: e05c 85bb 0a8c 483b 3070 1abc caa4 a43c
000002a0: 1fe6 863c 1d53 54bc 472c 943a d27e 53bc
000002b0: dfa6 2a3c b727 c63c 4641 a4bc 63c6 883b
000002c0: 48f0 c8bb aaeb ebbc 1c27 1ebd b812 7dbb
000002d0: be01 bc3c f46b 8fbc f09e 523c 8113 9d3c
000002e0: 1c4b 98bc 2c83 803c 9e06 c93b f5e2 99bc
000002f0: cbc8 08bc 5825 14bd 9a04 913c d8b9 b33b
00000300: dfdd 353c 0007 b13c 709a 743c f946 ef3c
00000310: d133 733c 4659 afbc fe89 0a3d 2000 393c
00000320: 192c 0abc 6c54 25bc 45e2 fa3c 8f6a 323c
00000330: c619 7a3c b6a3 eebb 57c7 a03c 4631 f3bc
00000340: 26b2 01bb 9c4b f83b 13f2 63b9 19db 993c
00000350: b02f e0ba 6816 9d3a 88ac a43c 4039 48bc
00000360: 12b9 42bc 7b6e 0cbd c1b2 53b9 ddc4 61bc
00000370: 3a66 e73b 9812 803c 2c25 e1bc dacd 8bbc
00000380: 0b10 cf3c fdeb 4dbc bfb3 d63c f2a9 ed3c
00000390: 9e72 f2bb 3f9c c3bc a22a 9b3b a3a4 633b
000003a0: 81c1 d13c f582 8b3b 8142 833c 43f7 cebc
000003b0: 78c3 843b 1c77 48bb d0c2 0a3c 6d17 d3bc
000003c0: c699 66bb 73dd 8fbc d870 a2bc 82cd 483c
000003d0: 5426 933b d6c6 3f3c cd42 2fba b9aa 3cba
000003e0: bb75 93ba 7275 823c f3f8 a6bc a030 d03b
000003f0: 5c49 843c 73f0 8a3c d6d8 67bc b474 ba3c

conv.4.bias f4 [64]
-0.036480337 0.0291035 -0.07627603 -0.026862435 0.0009921329 -0.011193081 0.03588291 -0.0062239487
-0.052336976 -0.027131848 -0.0077038216 0.014027462 -0.028334575 -0.015615549 -0.010015092 -0.010707971
-0.054776717 0.025617037 -0.038885787 -0.021042611 -0.02583994 -0.023181012 0.11194906 -0.017092131
-0.029006334 -0.03450829 -0.06760305 -0.081189595 -0.007852379 -0.06385903 -0.023484858 -0.019286575
-0.010050494 0.09201103 -0.018414738 -0.017467123 -0.034281213 0.08151662 -0.074020684 0.030560942
-0.041943338 -0.03847839 -0.03575591 -0.071491465 -0.04821922 -0.031208111 0.041593876 -0.041569103
-0.021873783 -0.026985962 -0.023687836 -0.06759632 -0.03988463 -0.062255774 -0.006032587 -0.042688936
-0.06649346 -0.055432137 -0.049182013 0.0660437 -0.031743407 -0.0113933245 -0.021836422 -0.037383776
00000000: 686c 15bd 776a ee3c 9b36 9cbd 9c0e dcbc
00000010: 750a 823a 2f63 37bc f5f9 123d 44f2 cbbb
00000020: 4c5f 56bd 9c43 debc 5770 fcbb 71d3 653c
00000030: e91d e8bc 5cd8 7fbc 5716 24bc 7c70 2fbc
00000040: 8d5d 60bd d2da d13c b446 1fbd 8e61 acbc
00000050: 48ae d3bc 1be6 bdbc 8c45 e53d cc04 8cbc
00000060: b19e edbc 9158 0dbd 7873 8abd bb46 a6bd
00000070: 44a7 00bc 86c8 82bd 5163 c0bc e1fe 9dbc
00000080: d4aa 24bc 4770 bc3d 81da 96bc 3617 8fbc
00000090: 756a 0cbd 30f2 a63d 2898 97bd f15a fa3c
000000a0: c7cc 2bbd 849b 1dbd ca74 12bd 1e6a 92bd
000000b0: 8481 45bd 27a8 ffbc 575e 2a3d 5d44 2abd
000000c0: a630 b3bc aa11 ddbc fe0c c2bc f06f 8abd
000000d0: 115e 23bd e9ff 7ebd 02ad c5bb 98da 2ebd
000000e0: b92d 88bd cf0c 63bd 1473 49bd eb41 873d
000000f0: 6005 02bd 11ab 3abc 4ce2 b2bc bb1f 19bd

fc.1.weight f4 [64, 1600]
0.0055536306 -0.0018972082 -0.016805364 0.017531613 0.0016433101 -0.024202872 -0.008367994 0.0095986
0.01979509 -0.0026915025 -0.02191629 0.018747134 -0.0022261022 -0.02133033 -0.015604952 -0.024515973
-0.012052971 -0.005057122 -0.019575024 -0.0061937785 -0.016863616 -0.010353625 0.0007169889 -0.013137312
-0.007962977 -0.005457352 0.017357223 0.011919921 0.01680821 0.009909553 0.021351157 -0.011312217
0.02060688 -0.01677943 0.011290906 0.0067229597 -0.017404536 0.0058267782 -0.0121696 0.0101622
-0.021522043 -0.0074412604 0.022400057 -0.02331687 0.009540511 -0.013264443 0.0048054373 -0.0021704906
-0.007027396 0.018171765 0.019660976 0.018903263 -0.013985973 0.025675025 0.0030026918 -0.016970694
-0.023764955 -0.010963552 0.028598575 -0.019252893 0.011640635 -0.009694983 0.022222035 -0.007436843
-0.018408354 0.010433351 -0.016109813 -0.008272348 -0.016975164 -0.0054355464 0.0018463635 0.020041648
-0.0073928237 0.030167092 0.021698143 0.007252729 0.013629378 0.003139202 -0.0020241884 0.0037840449
-0.011370753 0.01995067 -0.00951326 -0.00520616 -0.007081217 -0.021719635 -0.00061543635 -0.020052537
0.008077235 0.0032642006 -0.021258995 0.01117207 -0.022529973 0.009519847 0.0037144173 0.010551132
-0.021797998 -0.0008055872 -0.0018218592 0.006694601 0.009878891 -0.005997261 -0.009691757 0.0058738836
-0.004148647 -0.013490993 0.013346078 0.004814841 0.02127291 0.005392716 -0.006861661 0.0051283934
-0.007289445 0.02183802 0.02061995 0.020444429 -0.027038472 0.0025697635 0.008072857 -0.025322909
-0.0072642155 0.000113035836 -0.012167825 0.004728409 -0.019326616 -0.004507543 0.0134737585 -0.02779835
-0.03330586 -0.024839355 0.0054278285 -0.010295585 0.006231748 0.019456035 -0.019942416 0.011882554
-0.017942537 -0.0046518994 -0.015891343 -0.0054329624 0.0084674135 0.018499667 0.021461677 0.004510525
0.004756751 -0.002077508 -0.024386907 -0.016441265 0.0009748494 -0.010803353 -0.03278687 0.004547242
-0.002085573 -0.015102871 -0.011484165 -0.023650166 -0.0430601 -0.017692648 -0.04093242 -0.03771277
-0.0219148 -0.037991628 -0.022655338 -0.017188033 0.0011558232 -0.020411836 0.004342503 -0.027136521
-0.031748947 -0.036695752 -0.011264943 -0.008366664 -0.03394759 -0.03436799 0.0027549013 0.019437702
0.0071962476 -0.006119669 -0.025905892 0.013137458 -0.022578184 -0.01996486 -0.004039742 -0.031251665
0.0019253027 0.014402332 0.015732868 0.008086983 -0.02033219 0.0010612046 -0.004804959 0.021137808
-0.028249685 -0.010742575 -0.025318695 0.007340767 0.015212054 0.0071628774 0.0023513194 0.0051708105
0.008261584 0.011679122 -0.020975433 -0.0150670465 -0.017282262 -0.0034473187 0.011683796 -0.027967663
0.011102012 -0.005352311 0.023935648 0.014451835 -0.0068903016 -0.018265478 -0.00837103 0.011973248
0.013657936 0.012569736 0.004105264 0.017303215 -0.02144322 -0.0133269 -0.0044325646 -0.016237687
-0.023119418 0.00050480955 -0.009611314 0.011728231 0.0051340596 -0.0033054813 0.00046018913 -0.017729534
-0.0011350209 -0.013150023 -0.00738561 0.021539342 -0.013646238 0.004106332 -0.009584752 0.0010387148
-0.015131604 -0.0025720114 -0.0040573278 -0.0127582 0.0016137782 -0.012110217 -0.0003814102 0.007907626
-0.0063827005 0.011503745 0.0062366957 0.008145608 -0.008781253 0.010100015 0.00047015358 -0.011511383
00000000: 3bfb b53b beab f8ba 67ab 89bc 759e 8f3c
00000010: 5664 d73a 1a45 c6bc e919 09bc 7243 1d3c
00000020: 5029 a23c eb63 30bb cb89 b3bc 9793 993c
00000030: cce3 11bb f2bc aebc eaab 7fbc b9d5 c8bc
00000040: d379 45bc 37b6 a5bb cd5b a0bc 2ef5 cabb
00000050: 9125 8abc 40a2 29bc 50f4 3b3a e13d 57bc
00000060: 2577 02bc 96d3 b2bb bc30 8e3c c64b 433c
00000070: 5fb1 893c ae5b 223c 9fe8 ae3c e156 39bc
00000080: c2cf a83c 0475 89bc 7efd 383c 464c dc3b
00000090: f593 8ebc 8fee be3b 0163 47bc 5b7f 263c
000000a0: ff4e b0bc d1d5 f3bb 5380 b73c 0503 bfbc
000000b0: ce4f 1c3c 1b53 59bc ee76 9d3b ca3e 0ebb
000000c0: 1246 e6bb f4dc 943c 0e10 a13c 04db 9a3c
000000d0: 6c25 65bc 6e54 d23c cfc8 443b 2006 8bbc
000000e0: b9ae c2bc 78a0 33bc 8f47 ea3c 3eb8 9dbc
000000f0: 5db8 3e3c b5d7 1ebc fc0a b63c c3b0 f3bb
00000100: 1ecd 96bc a5f0 2a3c baf8 83bc be88 07bc
00000110: 800f 8bbc ab1c b2bb ae01 f23a 622e a43c
00000120: 803f f2bb fa20 f73c 4ec0 b13c 4da8 ed3b
00000130: c14d 5f3c 12bb 4d3b 3fa8 04bb bdfd 773b
00000140: 654c 3abc 966f a33c 81dd 1bbc 6f98 aabb
00000150: 8e09 e8bb 60ed b1bc 3c55 21ba 3845 a4bc
00000160: 6156 043c 33ec 553b 5827 aebc 0f0b 373c
00000170: c790 b8bc 22f9 1b3c 956d 733b a8de 2c3c
00000180: b791 b2bc 0b2e 53ba 73cb eeba 625e db3b
00000190: 12db 213c ac84 c4bb 2dca 1ebc b579 c03b
000001a0: 60f1 87bb 5309 5dbc 82a9 5a3c d0c5 9d3b
000001b0: 8744 ae3c 61b5 b03b c9d7 e0bb 150c a83b
000001c0: 4cdc eebb a6e5 b23c 2beb a83c 137b a73c
000001d0: c97f ddbc 7a69 283b 0444 043c fd71 cfbc
000001e0: a808 eebb a70d ed38 8f5b 47bc c5f0 9a3b
000001f0: da52 9ebc 03b4 93bb 0ac1 5c3c 5eb9 e3bc
00000200: ba6b 08bd e77b cbbc eddb b13b d0ae 28bc
00000210: b133 cc3b 4362 9f3c 475e a3bc 0baf 423c
00000220: 3afc 92bc f66e 98bb 902e 82bc fe06 b2bb
00000230: e8ba 0a3c 9d8c 973c 66d0 af3c 07cd 933b
00000240: 85de 9b3b cd26 08bb 0dc7 c7bc d5af 86bc
00000250: 098d 7f3a 8c00 31bc 864b 06bd 0801 953b
00000260: 1cae 08bb 0872 77bc 1428 3cbc febd c1bc
00000270: ca5f 30bd 2cf0 90bc c1a8 27bd b578 1abd
00000280: ab86 b3bc 1c9d 1bbd b097 b9bc ebcd 8cbc
00000290: fe7e 973a b936 a7bc 8e4b 8e3b 694d debc
000002a0: 2f0b 02bd 494e 16bd 9890 38bc 5514 09bc
000002b0: a10c 0bbd 73c5 0cbd 938b 343b d13b 9f3c
000002c0: 80ce eb3b 8187 c8bb 9838 d4bc 7e3e 573c
000002d0: e2f5 b8bc 598d a3bc d05f 84bb bf01 00bd
000002e0: 705a fc3a c2f7 6b3c 37e2 803c 447f 043c
000002f0: b18f a6bc 1e18 8b3a eb72 9dbb 3229 ad3c
00000300: e26b e7bc a001 30bc 2769 cfbc d18a f03b
00000310: fb3b 793c 92b6 ea3b 9818 1a3b e76f a93b
00000320: 985b 073c ca59 3f3c acd4 abbc c6db 76bc
00000330: 8893 8dbc 69ec 61bb 646d 3f3c 711c e5bc
00000340: 37e5 353c 7062 afbb b114 c43c 64c7 6c3c
00000350: 0ac8 e1bb 7ca1 95bc a526 09bc 712b 443c
00000360: 89c5 5f3c 4bf1 4d3c 7385 863b 79bf 8d3c
00000370: b1a9 afbc 1259 5abc 0c3f 91bb e604 85bc
00000380: ef64 bdbc 3255 043a c678 1dbc c427 403c
00000390: 9d3b a83b c6a0 58bb 8a45 f139 873d 91bc
000003a0: fbc4 94ba 3273 57bc fd02 f2bb 4673 b03c
000003b0: 7894 5fbc 698e 863b 5d09 1dbc 7c25 883a
000003c0: 8cea 77bc 318f 28bb 55f3 84bb c507 51bc
000003d0: 6985 d33a ee69 46bc 03f8 c7b9 fd8e 013c
000003e0: f925 d1bb 347a 3c3c 325d cc3b 2875 053c
000003f0: 3fdf 0fbc 897a 253c f27e f639 3d9a 3cbc

fc.1.bias f4 [64]
0.012332149 -0.02950921 -0.028733643 0.0076446543 0.11645101 0.0031104907 -0.019931216 0.0011287504
0.01412509 0.11104429 -0.008790234 0.14125222 0.007878049 -0.037909757 0.04477088 0.23849364
-0.00014176423 0.099982925 -0.035271928 -0.022179186 -0.04318885 0.0026220018 -0.024507476 0.09757226
0.011206181 -0.012520279 -0.024083283 -0.14976141 -0.050256055 0.030715564 0.0023933132 -0.028242037
-0.008316324 0.051702473 -0.005297881 0.13613346 -0.012109923 0.13161159 0.015279613 -0.0282435
-0.024201112 0.023516454 0.0041926154 -0.011772934 -0.036821734 -0.004220284 -0.020288331 -0.0025521105
-0.016168648 -0.03207641 0.00046317006 0.004138111 0.070056 0.111710794 0.0028822706 0.015976967
-0.013222068 -0.029862711 -0.032069508 0.10633841 -0.004971396 -0.022547724 0.0039602784 0.07644271
00000000: c80c 4a3c 4cbd f1bc d162 ebbc 0280 fa3b
00000010: de7d ee3d 60d9 4b3b ca46 a3bc 94f2 933a
00000020: ec6c 673c 306b e33d ea04 10bc 6ca4 103e
00000030: ef12 013c 4347 1bbd ac61 373d ad37 743e
00000040: 8ca6 14b9 d9c3 cc3d 4c79 10bd 20b1 b5bc
00000050: cbe6 30bd e4d5 2b3b e7c3 c8bc f7d3 c73d
00000060: 219a 373c db21 4dbc 4e4a c5bc 0e5b 19be
00000070: 4bd9 4dbd 359f fb3c 22d9 1c3b d85b e7bc
00000080: 3141 08bc f9c5 533d d999 adbb 9266 0b3e
00000090: b368 46bc 30c5 063e 5857 7a3c ea5e e7bc
000000a0: 6941 c6bc 94a5 c03c 3562 893b 44e3 40bc
000000b0: 63d2 16bd 4f4a 8abb b733 a6bc 4f41 27bb
000000c0: 1d74 84bc 8e62 03bd a2d5 f239 fe98 873b
000000d0: 8579 8f3d a1c8 e43d 7ae4 3c3b 21e2 823c
000000e0: 5fa1 58bc a5a2 f4bc 515b 03bd f4c7 d93d
000000f0: 18e7 a2bb 01b6 b8bc 39c5 813b ff8d 9c3d

fc.3.weight f4 [4, 64]
0.016114047 0.059996586 0.011553958 0.07620694 -0.119972594 0.150444 0.07667301 -0.092040695
0.09334883 -0.08584452 0.07987377 -0.45780113 0.074783444 0.06052763 -0.5587334 0.2430904
0.046034906 -0.16067941 0.101379365 0.031063613 0.3677099 0.018153073 -0.061506443 -0.075577125
-0.015601993 -0.007919674 -0.10427679 0.12451911 0.045190033 0.19923322 0.066547684 0.013198833
0.08079862 -0.28356463 -0.10251788 0.14334612 0.041332364 -0.16703436 -0.009216057 0.2258317
0.0438143 0.001229489 -0.041784216 0.14509495 -0.246479 -0.04683992 0.10600744 0.11762307
0.041886266 0.22387469 0.044523377 -0.04431205 -0.70301324 -0.06257752 -0.032056876 0.09787137
-0.027836869 0.05436705 -0.096932456 -0.15307829 0.022846049 -0.06480354 0.048931215 0.010467735
-0.01038484 -0.023582028 0.11166106 -0.082573384 -0.11060062 0.03791551 -0.06567161 0.035074804
-0.02718798 0.14360023 -0.5522074 -0.029139288 0.026220689 -0.48378128 0.10355599 0.21250731
-0.01567826 -0.14637084 0.031871706 0.054882973 -0.0064923395 0.071706295 0.12444378 -0.17985117
0.043677095 -0.08689153 0.08280265 0.12187502 -0.65944034 -0.28859535 0.10287162 -0.092148215
0.010608382 0.06584497 0.028565027 -0.054779384 -0.051859822 -0.03026541 -0.008406391 0.2015887
-0.10881419 -0.0706254 0.0019122197 0.102451645 0.24974424 -0.074127205 -0.03195356 -0.11140943
-0.06317018 0.06900466 0.11438298 -0.062443137 0.10209249 -0.13144293 -0.08234228 -0.0038963782
-0.028949307 -0.004145518 -0.04643199 0.15395479 0.043841105 0.104909405 0.080840304 -0.21474743
-0.02439952 -0.063538015 0.063630536 0.07770449 -0.20880303 0.13824685 0.104808725 0.005986868
0.118190385 -0.17666253 0.07467863 0.23517878 0.082898274 0.16437078 0.094250485 0.18598025
0.056498043 -0.1419515 0.085852265 0.09766427 -0.0053959023 0.011471474 0.06846248 0.052334808
0.065882966 0.021936746 0.02614369 0.72475666 0.11688726 0.041964203 0.097630285 -0.08273034
-0.090512045 -0.0061383885 0.046343382 -0.57200533 -0.05920454 -0.11900007 0.06192436 -0.34315518
0.09594524 -0.05044481 0.044536974 0.10324216 0.029048748 -0.065015644 0.09097184 0.08050615
-0.009283199 -0.11120434 -0.002514553 0.05186022 -0.106193446 -0.07502167 -0.022473946 0.010679645
-0.09440928 0.10520495 0.0009705659 -0.45559034 0.048214737 0.012196366 0.11775405 -0.3574643
-0.009624895 -0.09675596 -0.03931846 -0.05375377 0.053394146 -0.06548421 -0.050903633 0.0742005
-0.091408744 -0.0680434 -0.085957564 -0.12894367 -0.09707346 0.22206886 0.1637274 0.16037324
-0.04777936 -0.2080698 0.008856975 -0.11524829 -0.0868806 -0.0600463 -0.07561126 -0.18556355
0.036282726 -0.043812368 -0.055562705 0.16875312 -0.027270077 0.28457507 -0.10610498 0.11470722
0.12008634 -0.12532023 0.0117102275 -0.05069431 -0.07989444 -0.19736333 -0.007358248 0.16593009
-0.06162089 -0.7507767 0.07965319 -0.88233095 0.25168216 0.10551124 0.03898825 -0.119750984
0.12004577 0.041225836 -0.039569754 -0.0188575 0.24548139 -0.11249564 0.029891796 -0.0069256695
-0.10752298 0.11911546 -0.0037523992 0.048535164 0.10904018 -0.03794004 -0.048569717 0.012519713
00000000: 9b01 843c fbbe 753d d04c 3d3c 6212 9c3d
00000010: 31b4 f5bd fe0d 1a3e bd06 9d3d d57f bcbd
00000020: ac2d bf3d 40cf afbd dc94 a33d e964 eabe
00000030: 1028 993d d2eb 773d 2709 0fbf b1ec 783e
00000040: 198f 3c3d 2589 24be fc9f cf3d 1e79 fe3c
00000050: 7944 bc3e c1b5 943c 2eee 7bbd 2ec8 9abd
00000060: 809f 7fbc 85c1 01bc 128f d5bd e003 ff3d
00000070: 2f19 393d cb03 4c3e 274a 883d eb3f 583c
00000080: bf79 a53d 622f 91be e5f4 d1bd 53c9 123e
00000090: 204c 293d 0e0b 2bbe f2fe 16bc 6d40 673e
000000a0: a076 333d ce26 a13a ed25 2bbd c593 143e
000000b0: fe64 7cbe 37db 3fbd 6e1a d93d 5de4 f03d
000000c0: ef90 2b3d 683f 653e 255e 363d 8d80 35bd
000000d0: adf8 33bf a528 80bd 124e 03bd c970 c83d
000000e0: 250a e4bc fcaf 5e3d 8684 c6bd 8ec0 1cbe
000000f0: a327 bb3c b8b7 84bd 196c 483d dd80 2b3c
00000100: 2d25 2abc 192f c1bc 8eae e43d 3c1c a9bd
00000110: 9482 e2bd 4b4d 1b3d d67e 86bd 99aa 0f3d
00000120: 54b9 debc f00b 133e 775d 0dbf 84b5 eebc
00000130: c5cc d63c 2eb2 f7be 2a15 d43d 849b 593e
00000140: b26f 80bc 3de2 15be e88b 023d f8cc 603d
00000150: b1bd d4bb c0da 923d 61dc fe3d e82a 38be
00000160: c1e6 323d 30f4 b1bd 7094 a93d 9c99 f93d
00000170: 15d1 28bf c5c2 93be 5bae d23d 34b8 bcbd
00000180: c7ce 2d3c bad9 863d 3401 ea3c 5960 60bd
00000190: f76a 54bd 2aef f7bc f6ba 09bc 456d 4e3e
000001a0: f9d9 debd 0da4 90bd 72a3 fa3a 2bd2 d13d
000001b0: f4bc 7f3e 01d0 97bd bce1 02bd a12a e4bd
000001c0: 5e5f 81bd 5152 8d3d a041 ea3d 60c4 7fbd
000001d0: de15 d13d fa98 06be 12a3 a8bd 615a 7fbb
000001e0: 1927 edbc 20d7 87bb 782f 3ebd 53a6 1d3e
000001f0: bb92 333d beda d63d 9a8f a53d c0e6 5bbe
00000200: 81e1 c7bc 3820 82bd ba50 823d 8823 9f3d
00000210: 76d0 55be 9590 0d3e f5a5 d63d 7d2d c43b
00000220: cd0d f23d 06e7 34be 1cf1 983d b5d2 703e
00000230: 92c6 a93d d050 283e 6606 c13d 9b71 3e3e
00000240: 7e6a 673d bc5b 11be 50d3 af3d 3404 c83d
00000250: 1cd0 b0bb d9f2 3b3c 0f36 8c3d 065d 563d
00000260: a6ed 863d b1b4 b33c 4b2b d63c a789 393f
00000270: 9662 ef3d a8e2 2b3d 63f2 c73d 866e a9bd
00000280: 615e b9bd 8924 c9bb 8fd2 3d3d f16e 12bf
00000290: 7680 72bd 4fb6 f3bd 66a4 7d3d 09b2 afbe
000002a0: f07e c43d 389f 4ebd 676c 363d a070 d33d
000002b0: a4f7 ed3c ec26 85bd 724f ba3d 69e0 a43d
000002c0: 8f18 18bc 1abf e3bd 33cb 24bb 626b 543d
000002d0: f37b d9bd f6a4 99bd 481b b8bc aef9 2e3c
000002e0: a759 c1bd b175 d73d 936d 7e3a 2343 e9be
000002f0: d17c 453d 44d3 473c 0929 f13d 9005 b7be
00000300: bcb1 1dbc fd27 c6bd 650c 21bd ea2c 5cbd
00000310: d2b3 5a3d 961c 86bd 5480 50bd 6ff6 973d
00000320: 8234 bbbd 575a 8bbd 850a b0bd cf09 04be
00000330: 73ce c6bd 0566 633e 28a8 273e e238 243e
00000340: 4ab4 43bd 4010 55be d81c 113c 4c07 ecbd
00000350: 75ee b1bd 1cf3 75bd 14da 9abd 5f04 3ebe
00000360: 329d 143d 9974 33bd b895 63bd 9ecd 2c3e
00000370: 7f65 dfbc d3b3 913e 914d d9bd 9eeb ea3d
00000380: d4ef f53d f253 00be 41dc 3f3c d6a4 4fbd
00000390: b29f a3bd 9d19 4abe 751d f1bb 94e9 293e
000003a0: 3066 7cbd e732 40bf 3621 a33d 71e0 61bf
000003b0: 7cdc 803e 4716 d83d 25b2 1f3d 0140 f5bd
000003c0: 8fda f53d 6cdc 283d e513 22bd 0b7b 9abc
000003d0: 795f 7b3e 1d64 e6bd a4df f43c baf0 e2bb
000003e0: 0235 dcbd cef2 f33d d0ea 75bb cfcc 463d
000003f0: 7550 df3d 0467 1bbd 0af1 46bd 7b1f 4d3c

fc.3.bias f4 [4]
0.09739508 0.09589125 0.17102699 0.177822
00000000: 1277 c73d a262 c43d b321 2f3e f816 363e
