models/v17.1/model_142500.pt (torch, 729854 bytes, 10 tensors)

conv.0.weight f4 [16, 2, 3, 3]
0	0x3e51806b	0.20459144
1	0x3a785df7	0.0009474451
2	0xbd985158	-0.0743739
3	0x3c31bd28	0.010848321
4	0xbd268bad	-0.04066055
5	0xbd67cef8	-0.056593865
6	0xbba55e2b	-0.005046626
7	0xbd5266ce	-0.051367573
8	0x3dc7f341	0.09763194
9	0xbe4216f1	-0.18954064
10	0x3d70fa10	0.05883223
11	0x3d9b962e	0.07597004
12	0x3af1c9ae	0.0018446946
13	0xbd4168d7	-0.047219124
14	0x3d9b1d1e	0.07573913
15	0x3d897040	0.06710863
16	0x3daf0e89	0.08547694
17	0xbd990080	-0.074707985
18	0x3dfe6bb7	0.12422889
19	0x3e8201b5	0.25391927
20	0xbd701f51	-0.058623616
21	0xbd9bcfaa	-0.07607968
22	0xbe7e5f47	-0.24841033
23	0x3e16cc78	0.14726436
24	0xbe4a8faf	-0.19781373
25	0xbe889c8a	-0.2668193
26	0xbe077df7	-0.13231646
27	0xbd1d1fde	-0.03836047
28	0xbd0b1c54	-0.033962563
29	0xbc97a13f	-0.018509505
30	0x3da33952	0.07969917
31	0xbed09d70	-0.40745115
32	0x3d689ae4	0.05678834
33	0x3e564fe9	0.20928921
34	0x3dbd9bf6	0.09258263
35	0x3e25d33f	0.16193865
36	0x3d37adfb	0.044843655
37	0x3ea7526c	0.3268007
38	0xbb5fca0e	-0.0034147534
39	0xba53f197	-0.0008085011
40	0x3de43257	0.11142414
41	0x3e917ea8	0.28416944
42	0x3e3abe0b	0.18236558
43	0x3ed405bb	0.41410622
44	0x3d73b460	0.05949819
45	0xbdc3df90	-0.095641255
46	0xbea6c88a	-0.32574874
47	0x3d3222ee	0.043490343
48	0x3d008121	0.031373147
49	0xbd3f9ab5	-0.0467784
50	0xbe9cb8e9	-0.30609825
51	0xbe228623	-0.15871482
52	0xbede8f34	-0.4346863
53	0xbd010593	-0.031499457
54	0x3cc90d4f	0.024542479
55	0xbc8aeb44	-0.016957887
56	0x3d7f9817	0.062400904
57	0xbd0d20d3	-0.03445513
58	0x3c594e1e	0.0132632535
59	0xbfa32436	-1.2745426
60	0x3a43227d	0.0007443799
61	0xbd7bcc92	-0.06147439
62	0x3c5ec1e7	0.013596035
63	0xbcd3a3cf	-0.025834946
64	0x3bdd7e20	0.00675942
65	0xbda0a3e0	-0.07843757
66	0x3d18c891	0.03730065
67	0xbd0229e7	-0.031778242
68	0x3dbb5d01	0.091485985
69	0xbbf47d82	-0.0074612508
70	0x3d64dd6e	0.055875234
71	0xbcdeab0c	-0.02718117
72	0x3ceceb63	0.028920835
73	0xbdb743b2	-0.08948459
74	0xbe111a83	-0.1417027
75	0xbd8d0df5	-0.06887428
76	0xbe086fbc	-0.13323873
77	0x3f1c5d16	0.6107954
78	0x3c073277	0.008251778
79	0xbc36fd5c	-0.011168804
80	0xbe0211cd	-0.12702103
81	0xbcd2a26f	-0.02571222
82	0x3d9f0595	0.077647366
83	0x3e0661ce	0.13123247
84	0x3d702f60	0.05863893
85	0x3dfe4e60	0.124172926
86	0x3e98d1ea	0.29847652
87	0xbb806959	-0.0039188084
88	0xbc3f84e2	-0.011689397
89	0x3de64e0b	0.11245354
90	0x3d08757c	0.033315167
91	0xbd8619c9	-0.06547887
92	0x3eedcecb	0.46446833
93	0xbd37180c	-0.044700667
94	0xbf16e0bd	-0.58936673
95	0xbc9e90ba	-0.01935612
96	0x3c968683	0.018374687
97	0xbe093309	-0.13398375
98	0xbddb75ff	-0.10715865
99	0xbd3ccb7d	-0.0460925
100	0x3cb0ab7f	0.02156615
101	0xbcb124ca	-0.021623988
102	0x3d542920	0.051797032
103	0x3b53fcbf	0.0032346693
104	0x3b4e52bf	0.0031482426
105	0xbcf350e8	-0.029701665
106	0x3e1e0a6e	0.15433666
107	0x3dbb8ab0	0.09157312
108	0xbe9211e8	-0.28529286
109	0xbecc5599	-0.39909056
110	0xbbe152d5	-0.0068763294
111	0x3cc487e5	0.02399058
112	0x3cfe9565	0.031077096
113	0xbf333060	-0.6999569
114	0xbeb57509	-0.35440853
115	0xbeef862f	-0.4678206
116	0xbd8c9ddb	-0.06866046
117	0x3e8ceb00	0.2752304
118	0x3e93f45a	0.28897363
119	0x3cb2233f	0.021745322
120	0xbb1402d7	-0.00225847
121	0x3c23674c	0.009973358
122	0x3ecd4f1e	0.40099424
123	0x3e506425	0.20350702
124	0x3e868235	0.26271215
125	0x3d48c028	0.04901138
126	0xbf0762a3	-0.5288488
127	0xbf04990f	-0.5179605
128	0x3d640459	0.05566821
129	0xbdfaabb4	-0.12239781
130	0x3dca0d47	0.09865814
131	0x3e0e895f	0.1391959
132	0xbf81292d	-1.0090691
133	0xbdcbef2d	-0.099577285
134	0xbd590815	-0.052986223
135	0x3e4b983e	0.19882295
136	0x3e907984	0.2821771
137	0xbd7589c2	-0.05994583
138	0x3c857044	0.016288884
139	0xbd2af668	-0.041738898
140	0x3dd3ecbf	0.1034789
141	0x3e8093ad	0.25112668
142	0x3d895885	0.06706337
143	0x3d0d27f6	0.034461938
144	0x3d9b75c7	0.075908236
145	0x3d93dd1e	0.07219909
146	0x3bdbdad6	0.006709437
147	0x3d9fd528	0.07804328
148	0x3e672122	0.22571233
149	0xbc255252	-0.0100904275
150	0xbe767a2c	-0.24070042
151	0xbedc0a4c	-0.42976606
152	0xbee0a0b2	-0.438726
153	0xbd8a5819	-0.067550845
154	0x3ddd52d6	0.10806815
155	0x3c92d98c	0.017926
156	0x3d4765bb	0.048681002
157	0x3d7731be	0.060350172
158	0x3dfa3edf	0.12219023
159	0xbdd399b6	-0.103320524
160	0x3e3a57a2	0.18197492
161	0xbc1d3d9c	-0.009597208
162	0xbb04a92d	-0.0020242438
163	0xbd6b62ce	-0.057467274
164	0x3cd3cb4a	0.025853772
165	0x3ce66e1d	0.028128678
166	0xbd7c11b4	-0.06154032
167	0x3f0801c1	0.53127676
168	0xbca287ce	-0.019840147
169	0xbe14c9f4	-0.14530164
170	0xbdba8238	-0.091068685
171	0x39d2a4c3	0.00040177078
172	0x3d487b9a	0.048946
173	0xbd09e08e	-0.033661418
174	0xbcd3fb3e	-0.025876638
175	0x3d892c16	0.06697862
176	0xbf0d68b2	-0.5523788
177	0x3bbb53d1	0.005716779
178	0x3e16de16	0.14733157
179	0x3d80d7c4	0.06291154
180	0x3c5d9107	0.013523347
181	0xbc419e45	-0.01181752
182	0xbc10229b	-0.008797313
183	0xbd912df1	-0.07088841
184	0x3f0fec08	0.5621953
185	0xbda52204	-0.080631286
186	0x3c923a2e	0.017850008
187	0xbd806b41	-0.06270457
188	0x3d2d2c79	0.04227874
189	0xbce3fb02	-0.02782965
190	0x3cc9b71d	0.024623448
191	0xbc69f8b9	-0.0142804915
192	0x3daa47a4	0.083144456
193	0x3ec29bfb	0.3800963
194	0x3db6e653	0.089306496
195	0x3c2afa84	0.010435704
196	0x3d57dddf	0.052701827
197	0xbd84fff9	-0.064941354
198	0xbca2bca7	-0.019865347
199	0x3d3afc31	0.045650665
200	0xbd8cc26a	-0.06873019
201	0x3c967e74	0.018370844
202	0x3f52f1d0	0.82400227
203	0x3cd6e0aa	0.026230175
204	0xbda1e966	-0.07905845
205	0x3d0d62bd	0.034517992
206	0xbdc46e3d	-0.09591339
207	0x3c31d54f	0.010854079
208	0xbd96703a	-0.07345624
209	0x3d68ba06	0.05681803
210	0xbcfe369d	-0.031031901
211	0xbd9f2878	-0.07771391
212	0xbd220027	-0.039550927
213	0x3dc24a48	0.09486824
214	0xbd537123	-0.051621567
215	0x3da9d280	0.08292103
216	0xbdc80eae	-0.09768425
217	0xbe405abb	-0.18784611
218	0xbdaa95f6	-0.08329384
219	0xbdb6fc87	-0.089348845
220	0xc00fd475	-2.2473423
221	0x3cdaa88b	0.026691696
222	0xbde2e65c	-0.11079094
223	0xbe0fdde7	-0.14049493
224	0xbe14e153	-0.1453908
225	0x3def77d7	0.116927795
226	0x3de291b8	0.1106295
227	0x3dbedff6	0.09320061
228	0x3d81b42a	0.06333192
229	0x3edd503b	0.43225273
230	0xbdbce312	-0.09222998
231	0x3e08131e	0.13288543
232	0x3d82ee5a	0.06393118
233	0x3e36e682	0.17861369
234	0xbd4195be	-0.047261946
235	0xbd304f10	-0.04304415
236	0xbd9023c7	-0.07038074
237	0xbd52f902	-0.051507004
238	0xbec00719	-0.37505415
239	0xbf5598a3	-0.8343603
240	0x3e443fbb	0.19164936
241	0xbdf51bea	-0.11968215
242	0xbda61347	-0.081091456
243	0x3c87976e	0.0165517
244	0x3db4364b	0.08799418
245	0x3a2d0030	0.0006599454
246	0x3bc94665	0.006142425
247	0x3daa6cc7	0.08321529
248	0x3f07f152	0.531026
249	0x3deffafb	0.117177926
250	0x3e08038c	0.13282603
251	0x3d97ab66	0.074057385
252	0xbf043f48	-0.5165906
253	0xbf0d0449	-0.55084664
254	0xbf71f76d	-0.94518167
255	0xbdfbe7b9	-0.12300057

conv.0.bias f4 [16]
0	0xbd9b4be4	-0.07582834
1	0xbe88ce43	-0.26719865
2	0xbdf2e62c	-0.11860308
3	0x3f11e7f3	0.5699455
4	0xbf114919	-0.56752163
5	0xbe86959e	-0.26286024
6	0x3d200f5b	0.039077144
7	0xbe283fce	-0.1643059
8	0xbec37de4	-0.38181984
9	0xbd6da843	-0.058021795
10	0xbf294082	-0.66114056
11	0xbed2e1da	-0.41187936
12	0x3e9c157d	0.30485144
13	0xbe70927f	-0.23493384
14	0xbc86cda9	-0.016455488
15	0xbe50a7f2	-0.20376566

conv.2.weight f4 [32, 16, 3, 3]
0	0xbd88e0be	-0.06683491
1	0x3c6bae31	0.014384792
2	0xbd1d594d	-0.038415242
3	0xbc88f548	-0.016718522
4	0xbd8fb486	-0.07016854
5	0xbca7b6a7	-0.020472838
6	0x3da8049d	0.08204005
7	0xbced3240	-0.028954625
8	0xbdc61fd3	-0.09674039
9	0x3d8e7e07	0.069576316
10	0x3dd1d445	0.10245565
11	0x3dad9264	0.084751874
12	0x3e105778	0.14095867
13	0x3ddea25a	0.1087081
14	0x3cfc927e	0.030831572
15	0x3d4840ac	0.0488898
16	0xbd20ee14	-0.03928955
17	0xbd2e166d	-0.042501856
18	0x3e33baf1	0.17551781
19	0xbcef08a0	-0.029178917
20	0xbd434794	-0.047675684
21	0xbd032eff	-0.03202724
22	0xbbc5c640	-0.006035596
23	0xbe677426	-0.22602901
24	0xbdfa4e6b	-0.12221988
25	0xbe792f67	-0.24334489
26	0xbe41f9a4	-0.18942887
27	0x3c5c69f9	0.013453
28	0xbd1cd105	-0.038285274
29	0xbe09b458	-0.13447702
30	0x3be98480	0.007126391
31	0xbd8fc946	-0.07020812
32	0xbd9d0278	-0.076664865
33	0x3d47723e	0.048692934
34	0xbdf23076	-0.118256494
35	0xbeb3c1a0	-0.35108662
36	0x3d938c5c	0.07204506
37	0x3de7f637	0.11326259
38	0xbe91086d	-0.2832674
39	0xbe12c770	-0.14333892
40	0xbe25958e	-0.16170332
41	0xbeab41a6	-0.33448523
42	0x3deb7eaa	0.11498769
43	0xbdf793b7	-0.12088721
44	0xbe378672	-0.1792238
45	0x3d2d456f	0.042302545
46	0x3cd97025	0.026542732
47	0xbdb5c84a	-0.08876093
48	0x3e255ed6	0.16149458
49	0x3db730e9	0.08944876
50	0xbe83e577	-0.25761005
51	0x3da33844	0.07969716
52	0x3d8fb36c	0.07016644
53	0xbe02cef1	-0.12774254
54	0x3d354b0f	0.044261035
55	0x3e3a6d1b	0.18205683
56	0x3c5e5f87	0.01357258
57	0x3e1ef69a	0.15523759
58	0x3d3f6580	0.046727657
59	0xbd34a7d1	-0.044105355
60	0x3d8ab1aa	0.06772168
61	0x3cabf653	0.02099148
62	0xbe34ed86	-0.17668733
63	0xbe459fb9	-0.1929921
64	0xbd185394	-0.03718908
65	0x3c9804d8	0.018556997
66	0xbd890e86	-0.06692223
67	0xbc8c6d58	-0.017141983
68	0xbd2ae173	-0.04171891
69	0xbda103ec	-0.07862076
70	0xbda5ddc9	-0.08098943
71	0xbe072b52	-0.13200119
72	0x3db6d660	0.089276075
73	0x3d891ea7	0.066952996
74	0x3d13d3f5	0.03609081
75	0xbd91b0fa	-0.07113834
76	0x3e17ff76	0.14843544
77	0xbe046064	-0.12927395
78	0x3dca2dfd	0.09872053
79	0xbd42f8b4	-0.047600463
80	0xbe1e7435	-0.15474017
81	0x3dc4cc7a	0.09609313
82	0xbe715b16	-0.23569903
83	0x3d2fe31f	0.04294121
84	0x3dde2ce7	0.10848408
85	0xbe1d595f	-0.15366124
86	0xbd215ad5	-0.039393265
87	0xbe2d463e	-0.16921327
88	0xbe6a0088	-0.22851765
89	0x3c989584	0.018625982
90	0x3d4a68d1	0.049416367
91	0xbaa3ddf4	-0.001250206
92	0xbe029773	-0.12753086
93	0xbce5a958	-0.028034851
94	0x39def3a9	0.0004252468
95	0xbe173a83	-0.14768414
96	0xbd9bc30d	-0.07605562
97	0xbcfd3ba7	-0.030912234
98	0xbd92ceea	-0.07168372
99	0x3c12bda1	0.008956344
100	0xbc03df29	-0.008048811
101	0xbd9733d5	-0.07382933
102	0xbe16e14d	-0.14734383
103	0xbe52eeca	-0.20598903
104	0xbe11ddb4	-0.1424473
105	0xbe000de5	-0.125053
106	0xbe0de323	-0.13856177
107	0x3bc41347	0.0059837434
108	0x3c534f9f	0.012897401
109	0x3d2e75bc	0.04259275
110	0x3cf1069b	0.029422095
111	0xbe09cb4e	-0.13456461
112	0xbc111ed5	-0.008857449
113	0x3ccbff27	0.02490194
114	0xbe09cf09	-0.13457884
115	0xbe1988ef	-0.14993642
116	0xbce6e373	-0.028184628
117	0xbbb6775d	-0.0055684284
118	0x3c5e241d	0.013558415
119	0x3d52216e	0.051301412
120	0x3d85d4cf	0.06534731
121	0x3c9913ce	0.018686201
122	0xbcb40fd1	-0.021980198
123	0xbd151f80	-0.036406994
124	0xbd2ec430	-0.042667568
125	0x3caa8d0b	0.020819208
126	0x3ca5e8db	0.020252636
127	0xbadfd6fa	-0.0017077618
128	0xbbe95861	-0.0071211313
129	0xbd025c92	-0.031826563
130	0xbe343f60	-0.176023
131	0xbdc200cc	-0.09472808
132	0xbd1b43ab	-0.03790633
133	0xbd2c877d	-0.0421214
134	0x3db2736b	0.087134205
135	0xbe066e0b	-0.13127916
136	0xbc5ada81	-0.013357759
137	0xbdb53e38	-0.08849758
138	0xbdd0d068	-0.10196
139	0x3dda4005	0.10656742
140	0x3c24f4b6	0.010068109
141	0xbdb50ecf	-0.08840715
142	0xbe1a8517	-0.15089832
143	0xbd8f8178	-0.07007116
144	0x3e66224b	0.22474019
145	0xbdd74e51	-0.105129845
146	0x3e32c1e8	0.17456782
147	0x3d50cc32	0.050975986
148	0x3ddc71db	0.10763904
149	0xbd3d8ba2	-0.046275742
150	0xbcbc3012	-0.02297214
151	0x3d920747	0.07130294
152	0xbd6cd699	-0.057821844
153	0x3dea8beb	0.114524685
154	0x3cd31bef	0.025770156
155	0x3e90713e	0.28211397
156	0xbe1627f2	-0.14663675
157	0x3e35e38f	0.17762588
158	0x3d4a7e95	0.049437124
159	0x3e5e1683	0.21688275
160	0xbd3b3ad7	-0.04571041
161	0x3d3d6c96	0.046246134
162	0xbde6de9b	-0.112729274
163	0x3e901f26	0.28148764
164	0x3e3ed5bf	0.18636225
165	0x3e9ff64b	0.31242594
166	0xbe8f7039	-0.28015307
167	0xbe1cd9d0	-0.15317464
168	0x3e8f5cf9	0.2800062
169	0x3ca862e7	0.020554973
170	0x3d6b4783	0.057441246
171	0xc00d3bb6	-2.2067695
172	0x3df2a9fc	0.11848828
173	0xbdb73bff	-0.0894699
174	0xbd022ef5	-0.031783063
175	0xbcabcecc	-0.020972632
176	0x3c81ecce	0.015859988
177	0xbc9b1067	-0.01892872
178	0xbd483911	-0.048882548
179	0xbcb20c72	-0.02173445
180	0xbf84e495	-1.0382258
181	0x3ebf5b80	0.37374496
182	0xb9b449c6	-0.0003438724
183	0xbb2be42c	-0.002622853
184	0x3da6797d	0.08128641
185	0x3dd9e56c	0.10639462
186	0x3cd58c0b	0.026067754
187	0xbd372a56	-0.04471811
188	0xbc7b7a9b	-0.015349056
189	0xbe37fbef	-0.17967199
190	0xbf3a3773	-0.7274086
191	0xbda1edb2	-0.07906665
192	0xbe96ce42	-0.29454237
193	0xbcd3d910	-0.02586034
194	0xbe388a81	-0.18021585
195	0xbdbdd3eb	-0.09268936
196	0xbc6ba3f6	-0.014382353
197	0x3d2eb702	0.042655
198	0x3dd492ad	0.10379539
199	0xbdc65351	-0.0968386
200	0xbd882ef4	-0.066495806
201	0x3d9e83ef	0.07740008
202	0xbe0e1477	-0.13874994
203	0xbdb62da7	-0.08895426
204	0x3e0cae79	0.13738431
205	0xbc84e15e	-0.016220745
206	0x3c2017bd	0.009771285
207	0x3db0031d	0.08594344
208	0xbd2ea180	-0.042634487
209	0xbe098304	-0.13428885
210	0x3ddd5b47	0.108084254
211	0xbdaf84ae	-0.085702285
212	0xbe23a041	-0.15979101
213	0x3e9189d4	0.28425467
214	0xbbb6f265	-0.005583095
215	0x3df169c5	0.11787752
216	0x3e2ef12c	0.17084187
217	0xbdc9e7ec	-0.09858689
218	0x3e57fe38	0.2109307
219	0xb9097d3b	-0.0001311199
220	0x3ea5c4b1	0.32376626
221	0x3c31e5a9	0.010857978
222	0x3e33c3e0	0.17555189
223	0x3dffbcf0	0.12487209
224	0xbe334b04	-0.17509085
225	0x3db9fa96	0.090809986
226	0xbee54920	-0.44782352
227	0xbde19bb5	-0.11016027
228	0x3dd8e134	0.10589829
229	0xbd59229a	-0.053011514
230	0xbe671ead	-0.22570296
231	0x3eec1040	0.46106148
232	0xba661f4b	-0.0008778467
233	0xbdc3d692	-0.095624104
234	0xbd89bc59	-0.067253776
235	0xbedac8a1	-0.42731193
236	0x3edab8bb	0.42719063
237	0x3d82be37	0.06383937
238	0xbe35dde0	-0.1776042
239	0x3a25069c	0.00062952354
240	0xbc9c0488	-0.01904513
241	0xbd4c7927	-0.049920227
242	0xbbb90c41	-0.0056472127
243	0x3e055ea2	0.13024381
244	0xbf2068b5	-0.6265977
245	0x3e38dfd8	0.1805414
246	0x3de8310f	0.11337482
247	0xbdb130db	-0.086518966
248	0xbd50e318	-0.050997823
249	0xbd24398a	-0.040093936
250	0x3c45798d	0.012052906
251	0x3c5c797a	0.013456697
252	0x3dc56534	0.096384436
253	0xbf94b191	-1.1616689
254	0xbf266d54	-0.6501057
255	0x3e6f9b5f	0.23399113

conv.2.bias f4 [32]
0	0x3c8e5642	0.017375115
1	0x3d4b77dc	0.049674854
2	0xbd85a09f	-0.06524777
3	0x3d8401bc	0.06445643
4	0x3d0b60f1	0.034027997
5	0xbd1732d0	-0.036913693
6	0x3e5e640f	0.21717857
7	0xbd93de42	-0.07220127
8	0xbe626f44	-0.22112757
9	0xbea0d3d9	-0.31411627
10	0x3e198d9b	0.14995424
11	0x3e89caf9	0.26912668
12	0xbdb65ba6	-0.08904199
13	0x3d13703b	0.035995703
14	0x3dc37789	0.09544284
15	0xbe05148a	-0.12996116
16	0x3c6f3d5d	0.0146020325
17	0x3c3924bf	0.011300265
18	0x3e5cb83f	0.2155466
19	0xbdea2066	-0.11431961
20	0x3dbcd5eb	0.09220489
21	0xbd3ef805	-0.04662325
22	0x399027ce	0.00027495477
23	0xbdd891ef	-0.105747096
24	0xbe01fc25	-0.12693842
25	0x3e9c4b14	0.3052603
26	0x3de3b63f	0.11118745
27	0xbe027360	-0.12739325
28	0xbd0f2cf6	-0.034954987
29	0x3d065369	0.03279439
30	0xbdbdf9da	-0.09276171
31	0x3e09cb10	0.13456368

conv.4.weight f4 [64, 32, 6, 6]
0	0xbc49014d	-0.012268377
1	0xbd6dd111	-0.05806071
2	0x3d88f9d0	0.06688273
3	0xbc7bfd03	-0.015380147
4	0x3d3ec74b	0.04657678
5	0xbc7fdc04	-0.015616421
6	0xbd056288	-0.03256467
7	0x3d25867f	0.04041147
8	0x3cef2f28	0.02919729
9	0x3cb36553	0.021898901
10	0xbc887033	-0.016655063
11	0x3d1ff4c8	0.0390518
12	0xbb5cb595	-0.0033677567
13	0x3cc5c9ca	0.024144072
14	0xbcd16767	-0.025562001
15	0xbd3488ae	-0.04407566
16	0xbbe26eab	-0.0069101653
17	0x3cec0b95	0.028814116
18	0x3c433f9c	0.011917021
19	0x3d96d9aa	0.07365735
20	0xba9f5931	-0.0012157318
21	0xbd55f174	-0.05223222
22	0xbd4435ef	-0.047902998
23	0x3da34310	0.079717755
24	0x3cca4848	0.02469267
25	0xbbdfb056	-0.006826441
26	0xbd801f2b	-0.06255945
27	0x3cd61268	0.026131824
28	0xbaf19e09	-0.0018433939
29	0xbb1871cd	-0.002326119
30	0x3bd8c307	0.006615046
31	0xbc893573	-0.01674912
32	0xbd1777d8	-0.036979526
33	0x3a6a1df9	0.0008930858
34	0xbd2726ce	-0.04080849
35	0xbbb38578	-0.005478557
36	0xbb7b4de3	-0.0038345985
37	0xbd5c063f	-0.053716894
38	0x3e631ad4	0.22178203
39	0xbe17b48f	-0.14814971
40	0xbef7fcc6	-0.48435038
41	0xbe27beb8	-0.16381347
42	0x3bdb6053	0.0066948324
43	0x3ddfaca6	0.10921602
44	0x3cfbc3b3	0.030732965
45	0xbe893ced	-0.26804295
46	0xbe86b94d	-0.26313248
47	0x3ea1d054	0.31604254
48	0xbf0e69f6	-0.55630434
49	0x3de1bd09	0.11022384
50	0xbd1f6b47	-0.038920667
51	0x3dbe6ba8	0.092978776
52	0x3e4c611d	0.19958921
53	0x3e5b159e	0.21394965
54	0x3d709fc9	0.058746133
55	0xbe1bc58f	-0.15212081
56	0x3d84dc5e	0.06487344
57	0xbd787aa4	-0.060663834
58	0x3c6072eb	0.013699274
59	0x3e28c98e	0.16483137
60	0x3d4b2fd3	0.049606156
61	0x3d05d833	0.032676887
62	0x3da47121	0.0802939
63	0x3d94ba6c	0.0726212
64	0xbd0b76a6	-0.0340487
65	0x3dc39127	0.0954917
66	0xbe8afcff	-0.27146146
67	0x3e3fdd28	0.18736708
68	0x3e9c0bf3	0.30477867
69	0x3e2998f0	0.16562247
70	0x3e55da90	0.20884156
71	0xbf2bb07e	-0.6706618
72	0xbc28b531	-0.010297106
73	0xbd21044b	-0.039310735
74	0xbcbbabd5	-0.022909084
75	0xbd4675e8	-0.048452288
76	0x3c2bcdda	0.010486091
77	0xbccbc66e	-0.024874892
78	0xbc091c39	-0.008368545
79	0x3ba1a145	0.004932555
80	0xbadc028f	-0.001678543
81	0x3c74520e	0.0149121415
82	0x3cb5d546	0.022196423
83	0x3c2adcb8	0.0104286
84	0x3c273495	0.010205408
85	0xbc11e3a5	-0.008904372
86	0xbce4e35d	-0.027940447
87	0x3cc4cf8a	0.024024744
88	0x3c6d76d2	0.014493661
89	0xbc2b0679	-0.010438555
90	0xbcb37dbf	-0.021910546
91	0x3cc9d486	0.024637472
92	0xbcab69a3	-0.020924395
93	0x3c829717	0.015941186
94	0xbd1d6e9b	-0.03843556
95	0xbc17d750	-0.009267643
96	0xbb098326	-0.0020982712
97	0x3d198fb0	0.037490547
98	0x3b158dd2	0.0022820127
99	0x3cb79e95	0.022414485
100	0xbc1f3d52	-0.00971921
101	0x3cf9b67b	0.030482521
102	0x3ce413f7	0.027841551
103	0x3d07449e	0.033024423
104	0x3d2da9c2	0.04239822
105	0x3c32567e	0.010884879
106	0xbb94b141	-0.004537732
107	0x3b708154	0.003669818
108	0xbdb7d649	-0.089764185
109	0x3e419a4b	0.18906514
110	0xbd950adb	-0.07277461
111	0xbea7b46e	-0.32754844
112	0xbf00a310	-0.50248814
113	0x3e783d2d	0.24242087
114	0xbc9ca407	-0.019121183
115	0x3e9b4f79	0.3033407
116	0x3d9b1717	0.075727634
117	0xbc82a071	-0.015945645
118	0x3ed9835b	0.4248303
119	0xbec1fbc7	-0.37887403
120	0x3ebb6012	0.36596733
121	0x3e7fafeb	0.24969451
122	0x3e6ab004	0.22918707
123	0x3e08e4fa	0.13368598
124	0x3e6b9df9	0.2300948
125	0x3ea474ec	0.32120454
126	0x3e91a12a	0.2844327
127	0x3e8c0298	0.2734573
128	0x3e782c47	0.2423564
129	0xbb9b6e2b	-0.0047433577
130	0x3ea1ab7d	0.31576148
131	0x3e951a3b	0.29121575
132	0x3cd65d9d	0.026167685
133	0x3eb1d90b	0.34735903
134	0x3eb1e3b0	0.34744024
135	0x3e839af7	0.25704166
136	0x3ec4534e	0.38344806
137	0xbf07f976	-0.5311502
138	0xbc06fefa	-0.008239502
139	0xbed692e0	-0.41908932
140	0xbf0a79ce	-0.5409211
141	0xbe49c516	-0.19704089
142	0x3e2e9c06	0.17051706
143	0xbec5b4c6	-0.38614482
144	0x3d7eabfd	0.06217574
145	0x3777c34f	1.4767821e-05
146	0xbdcfc508	-0.101450026
147	0x3de28350	0.11060202
148	0x3e97aa39	0.29622057
149	0xbd8bd28a	-0.068272665
150	0x3eb75d76	0.35813493
151	0x3eaa914c	0.33313978
152	0xbec43611	-0.383225
153	0xbebb19c1	-0.36543086
154	0xbef97f97	-0.48730156
155	0xbdba4ef6	-0.09097092
156	0xbe86b4ff	-0.26309964
157	0x3e03ad54	0.12859088
158	0xbeb99ff9	-0.36254862
159	0xbdbe024f	-0.09277784
160	0x3e067c4b	0.13133352
161	0xbebc1380	-0.36733627
162	0x3e8364be	0.25662798
163	0xbdfd567c	-0.12370011
164	0xbe95c828	-0.2925427
165	0xbe34f615	-0.17671998
166	0xbe8bb55a	-0.27286798
167	0x3d7433e6	0.059619807
168	0x3e9c5b2c	0.3053831
169	0xbd571a0b	-0.05251507
170	0xbc589227	-0.013218439
171	0xbc6bfbb5	-0.014403273
172	0x3d9bcd84	0.07607558
173	0x3e58a7b2	0.2115772
174	0xbc9b9c03	-0.01899529
175	0x3dc1eb41	0.09468699
176	0x3d104395	0.0352207
177	0xbd7869ff	-0.06064796
178	0xbc797b4e	-0.015227152
179	0xbf148e2a	-0.58029425
180	0x3d8c7f16	0.06860177
181	0x3b9c5751	0.004771151
182	0x3df00541	0.11719752
183	0x3dfc435e	0.12317537
184	0xbba5cba8	-0.005059678
185	0x3b908cdb	0.0044113225
186	0x3ee4ef9f	0.44714066
187	0x3dddd0a8	0.10830814
188	0x3e6e485f	0.23269795
189	0x3e3fe376	0.18739113
190	0x3c2e90e7	0.010654665
191	0x3d95f812	0.07322706
192	0x3f01f782	0.5076829
193	0x3e277611	0.16353633
194	0x3e57a373	0.21058445
195	0x3e9d262e	0.3069319
196	0x3df090dc	0.1174638
197	0x3d200c02	0.03907395
198	0x3ebc97a7	0.36834452
199	0x3e38bb64	0.18040234
200	0x3e8b9500	0.27262115
201	0x3e860372	0.26174504
202	0x3dd0ba76	0.101918146
203	0xbda8ecdb	-0.082483016
204	0xbd1954f1	-0.037434522
205	0x3e994dc8	0.29942155
206	0x3e8f0cbd	0.27939406
207	0x3d80ad00	0.06282997
208	0x3d65596d	0.055993486
209	0xbe69900a	-0.22808853
210	0xbe047196	-0.12933955
211	0x3db51026	0.08840971
212	0x3e091b88	0.13389409
213	0x3d8c2db2	0.06844653
214	0x3d664194	0.056214884
215	0x3d08ab00	0.033366203
216	0xbb94e82f	-0.00454428
217	0x3d8b4869	0.068009205
218	0x3e5c8ef0	0.21538901
219	0x3daca90e	0.08430682
220	0x3e04253a	0.12904826
221	0x3d067c69	0.03283349
222	0x3e25afbb	0.16180317
223	0x3e0c2a98	0.13688123
224	0x3e0d2975	0.13785346
225	0x3e161914	0.14658004
226	0x3d92bc1c	0.07164785
227	0x3bd6f4bb	0.006559936
228	0x3e5be269	0.21473087
229	0x3bd7a140	0.006580502
230	0x3e1ccd5c	0.15312713
231	0x3daee2f8	0.085393846
232	0x3d9eda4f	0.07756483
233	0x3d590bbc	0.052989706
234	0x3ccc4ece	0.02493992
235	0xbd941f86	-0.07232575
236	0x3d350f21	0.04420388
237	0x3e01a19b	0.12659304
238	0x3e294eb9	0.16533937
239	0x3d1e31b1	0.03862161
240	0x3e02f2a6	0.12787876
241	0x3de3121b	0.11087438
242	0x3cc27a77	0.023740036
243	0x3e0c8937	0.13724218
244	0x3da37d32	0.079828635
245	0x3d230cb6	0.039807044
246	0x3cc418a3	0.023937529
247	0xbe008473	-0.12550525
248	0xbc0365c1	-0.0080198655
249	0x3e32d601	0.17464449
250	0xbbb4693c	-0.005505709
251	0xbdd4b2cb	-0.103856646
252	0x3c84495c	0.016148262
253	0x3c8af073	0.016960358
254	0xbc67d8d6	-0.014150819
255	0x3cba74b4	0.022760727

conv.4.bias f4 [64]
0	0xbe488f70	-0.19585967
1	0xbdafcef6	-0.085843965
2	0xbea49bd7	-0.32150146
3	0xbe7ccb35	-0.24686892
4	0xbdc66372	-0.096869364
5	0xbe67f1f3	-0.2265089
6	0xbda3718c	-0.07980642
7	0xbe1afe35	-0.15136035
8	0xbea65087	-0.32483312
9	0xbd3210c1	-0.04347301
10	0xbe018140	-0.12646961
11	0xbd3f9638	-0.04677412
12	0xbd3d67c4	-0.046241537
13	0xbed4125c	-0.41420257
14	0xbec6ba99	-0.38814238
15	0xbe9f72b5	-0.31142202
16	0xbe371d92	-0.17882374
17	0x3e0ec082	0.13940623
18	0xbd829825	-0.063766755
19	0xbe579665	-0.21053465
20	0xbe9e2d70	-0.3089404
21	0xbe280a65	-0.16410215
22	0x3eebd139	0.46058062
23	0xbe56a5ae	-0.2096164
24	0xbe89fb92	-0.26949745
25	0xbe848c32	-0.2588821
26	0xbea4af14	-0.32164824
27	0xbe53cc06	-0.20683298
28	0xbe8e41cf	-0.27784583
29	0xbeb1928d	-0.34682122
30	0xbeaf78d7	-0.3427188
31	0x3e2d659f	0.16933297
32	0xbe8d7cfa	-0.27634412
33	0x3ea8d47b	0.3297461
34	0xbe01e91f	-0.12686585
35	0xbe9cd604	-0.3063203
36	0xbe921e63	-0.28538808
37	0x3e860563	0.26175985
38	0xbe212aea	-0.15739027
39	0xbe48d4e0	-0.19612455
40	0xbeb290f1	-0.34876207
41	0xbf05447f	-0.5205764
42	0xbd516d0d	-0.05112939
43	0xbeb85fee	-0.3601069
44	0xbd959188	-0.073031485
45	0x3bbf5f73	0.005840236
46	0x3e89af85	0.26891723
47	0xbedcbb25	-0.4311153
48	0xbddd9337	-0.10819095
49	0xbe828a66	-0.25496215
50	0xbe5e09dc	-0.21683449
51	0xbe4bcd59	-0.19902553
52	0xbc925a63	-0.017865365
53	0xbda862e8	-0.0822199
54	0xbe8b0571	-0.2715259
55	0xbed69b4f	-0.41915366
56	0xbea1ad1d	-0.31577387
57	0xbe814527	-0.25248072
58	0xbe660e7f	-0.22466467
59	0x3e30f795	0.17281945
60	0xbebbb583	-0.3666192
61	0xbc140da8	-0.009036459
62	0xbe92c0a2	-0.28662592
63	0xbe25b055	-0.16180547

fc.1.weight f4 [64, 1600]
0	0x3bb5fb3b	0.0055536306
1	0xbaf8abbe	-0.0018972082
2	0xbc89ab67	-0.016805364
3	0x3c8f9e75	0.017531613
4	0x3ad76456	0.0016433101
5	0xbcc6451a	-0.024202872
6	0xbc0919e9	-0.008367994
7	0x3c1d4372	0.0095986
8	0x3ca22950	0.01979509
9	0xbb3063eb	-0.0026915025
10	0xbcb389cb	-0.02191629
11	0x3c999397	0.018747134
12	0xbb11e3cc	-0.0022261022
13	0xbcaebcf2	-0.02133033
14	0xbc7fabea	-0.015604952
15	0xbcc8d5b9	-0.024515973
16	0xbc4579d3	-0.012052971
17	0xbba5b637	-0.005057122
18	0xbca05bcd	-0.019575024
19	0xbbcaf52e	-0.0061937785
20	0xbc8a2591	-0.016863616
21	0xbc29a240	-0.010353625
22	0x3a3bf450	0.0007169889
23	0xbc573de1	-0.013137312
24	0xbc027725	-0.007962977
25	0xbbb2d396	-0.005457352
26	0x3c8e30bc	0.017357223
27	0x3c434bc6	0.011919921
28	0x3c89b15f	0.01680821
29	0x3c225bae	0.009909553
30	0x3caee89f	0.021351157
31	0xbc3956e1	-0.011312217
32	0x3ca8cfc2	0.02060688
33	0xbc897504	-0.01677943
34	0x3c38fd7e	0.011290906
35	0x3bdc4c46	0.0067229597
36	0xbc8e93f5	-0.017404536
37	0x3bbeee8f	0.0058267782
38	0xbc476301	-0.0121696
39	0x3c267f5b	0.0101622
40	0xbcb04eff	-0.021522043
41	0xbbf3d5d1	-0.0074412604
42	0x3cb78053	0.022400057
43	0xbcbf0305	-0.02331687
44	0x3c1c4fce	0.009540511
45	0xbc59531b	-0.013264443
46	0x3b9d76ee	0.0048054373
47	0xbb0e3eca	-0.0021704906
48	0xbbe64612	-0.007027396
49	0x3c94dcf4	0.018171765
50	0x3ca1100e	0.019660976
51	0x3c9adb04	0.018903263
52	0xbc65256c	-0.013985973
53	0x3cd2546e	0.025675025
54	0x3b44c8cf	0.0030026918
55	0xbc8b0620	-0.016970694
56	0xbcc2aeb9	-0.023764955
57	0xbc33a078	-0.010963552
58	0x3cea478f	0.028598575
59	0xbc9db83e	-0.019252893
60	0x3c3eb85d	0.011640635
61	0xbc1ed7b5	-0.009694983
62	0x3cb60afc	0.022222035
63	0xbbf3b0c3	-0.007436843
64	0xbc96cd1e	-0.018408354
65	0x3c2af0a5	0.010433351
66	0xbc83f8ba	-0.016109813
67	0xbc0788be	-0.008272348
68	0xbc8b0f80	-0.016975164
69	0xbbb21cab	-0.0054355464
70	0x3af201ae	0.0018463635
71	0x3ca42e62	0.020041648
72	0xbbf23f80	-0.0073928237
73	0x3cf720fa	0.030167092
74	0x3cb1c04e	0.021698143
75	0x3beda84d	0.007252729
76	0x3c5f4dc1	0.013629378
77	0x3b4dbb12	0.003139202
78	0xbb04a83f	-0.0020241884
79	0x3b77fdbd	0.0037840449
80	0xbc3a4c65	-0.011370753
81	0x3ca36f96	0.01995067
82	0xbc1bdd81	-0.00951326
83	0xbbaa986f	-0.00520616
84	0xbbe8098e	-0.007081217
85	0xbcb1ed60	-0.021719635
86	0xba21553c	-0.00061543635
87	0xbca44538	-0.020052537
88	0x3c045661	0.008077235
89	0x3b55ec33	0.0032642006
90	0xbcae2758	-0.021258995
91	0x3c370b0f	0.01117207
92	0xbcb890c7	-0.022529973
93	0x3c1bf922	0.009519847
94	0x3b736d95	0.0037144173
95	0x3c2cdea8	0.010551132
96	0xbcb291b7	-0.021797998
97	0xba532e0b	-0.0008055872
98	0xbaeecb73	-0.0018218592
99	0x3bdb5e62	0.006694601
100	0x3c21db12	0.009878891
101	0xbbc484ac	-0.005997261
102	0xbc1eca2d	-0.009691757
103	0x3bc079b5	0.0058738836
104	0xbb87f160	-0.004148647
105	0xbc5d0953	-0.013490993
106	0x3c5aa982	0.013346078
107	0x3b9dc5d0	0.004814841
108	0x3cae4487	0.02127291
109	0x3bb0b561	0.005392716
110	0xbbe0d7c9	-0.006861661
111	0x3ba80c15	0.0051283934
112	0xbbeedc4c	-0.007289445
113	0x3cb2e5a6	0.02183802
114	0x3ca8eb2b	0.02061995
115	0x3ca77b13	0.020444429
116	0xbcdd7fc9	-0.027038472
117	0x3b28697a	0.0025697635
118	0x3c044404	0.008072857
119	0xbccf71fd	-0.025322909
120	0xbbee08a8	-0.0072642155
121	0x38ed0da7	0.000113035836
122	0xbc475b8f	-0.012167825
123	0x3b9af0c5	0.004728409
124	0xbc9e52da	-0.019326616
125	0xbb93b403	-0.004507543
126	0x3c5cc10a	0.0134737585
127	0xbce3b95e	-0.02779835
128	0xbd086bba	-0.03330586
129	0xbccb7be7	-0.024839355
130	0x3bb1dbed	0.0054278285
131	0xbc28aed0	-0.010295585
132	0x3bcc33b1	0.006231748
133	0x3c9f6243	0.019456035
134	0xbca35e47	-0.019942416
135	0x3c42af0b	0.011882554
136	0xbc92fc3a	-0.017942537
137	0xbb986ef6	-0.0046518994
138	0xbc822e90	-0.015891343
139	0xbbb206fe	-0.0054329624
140	0x3c0abae8	0.0084674135
141	0x3c978c9d	0.018499667
142	0x3cafd066	0.021461677
143	0x3b93cd07	0.004510525
144	0x3b9bde85	0.004756751
145	0xbb0826cd	-0.002077508
146	0xbcc7c70d	-0.024386907
147	0xbc86afd5	-0.016441265
148	0x3a7f8d09	0.0009748494
149	0xbc31008c	-0.010803353
150	0xbd064b86	-0.03278687
151	0x3b950108	0.004547242
152	0xbb08ae1c	-0.002085573
153	0xbc777208	-0.015102871
154	0xbc3c2814	-0.011484165
155	0xbcc1bdfe	-0.023650166
156	0xbd305fca	-0.0430601
157	0xbc90f02c	-0.017692648
158	0xbd27a8c1	-0.04093242
159	0xbd1a78b5	-0.03771277
160	0xbcb386ab	-0.0219148
161	0xbd1b9d1c	-0.037991628
162	0xbcb997b0	-0.022655338
163	0xbc8ccdeb	-0.017188033
164	0x3a977efe	0.0011558232
165	0xbca736b9	-0.020411836
166	0x3b8e4b8e	0.004342503
167	0xbcde4d69	-0.027136521
168	0xbd020b2f	-0.031748947
169	0xbd164e49	-0.036695752
170	0xbc389098	-0.011264943
171	0xbc091455	-0.008366664
172	0xbd0b0ca1	-0.03394759
173	0xbd0cc573	-0.03436799
174	0x3b348b93	0.0027549013
175	0x3c9f3bd1	0.019437702
176	0x3bebce80	0.0071962476
177	0xbbc88781	-0.006119669
178	0xbcd43898	-0.025905892
179	0x3c573e7e	0.013137458
180	0xbcb8f5e2	-0.022578184
181	0xbca38d59	-0.01996486
182	0xbb845fd0	-0.004039742
183	0xbd0001bf	-0.031251665
184	0x3afc5a70	0.0019253027
185	0x3c6bf7c2	0.014402332
186	0x3c80e237	0.015732868
187	0x3c047f44	0.008086983
188	0xbca68fb1	-0.02033219
189	0x3a8b181e	0.0010612046
190	0xbb9d72eb	-0.004804959
191	0x3cad2932	0.021137808
192	0xbce76be2	-0.028249685
193	0xbc3001a0	-0.010742575
194	0xbccf6927	-0.025318695
195	0x3bf08ad1	0.007340767
196	0x3c793bfb	0.015212054
197	0x3beab692	0.0071628774
198	0x3b1a1898	0.0023513194
199	0x3ba96fe7	0.0051708105
200	0x3c075b98	0.008261584
201	0x3c3f59ca	0.011679122
202	0xbcabd4ac	-0.020975433
203	0xbc76dbc6	-0.0150670465
204	0xbc8d9388	-0.017282262
205	0xbb61ec69	-0.0034473187
206	0x3c3f6d64	0.011683796
207	0xbce51c71	-0.027967663
208	0x3c35e537	0.011102012
209	0xbbaf6270	-0.005352311
210	0x3cc414b1	0.023935648
211	0x3c6cc764	0.014451835
212	0xbbe1c80a	-0.0068903016
213	0xbc95a17c	-0.018265478
214	0xbc0926a5	-0.00837103
215	0x3c442b71	0.011973248
216	0x3c5fc589	0.013657936
217	0x3c4df14b	0.012569736
218	0x3b868573	0.004105264
219	0x3c8dbf79	0.017303215
220	0xbcafa9b1	-0.02144322
221	0xbc5a5912	-0.0133269
222	0xbb913f0c	-0.0044325646
223	0xbc8504e6	-0.016237687
224	0xbcbd64ef	-0.023119418
225	0x3a045532	0.00050480955
226	0xbc1d78c6	-0.009611314
227	0x3c4027c4	0.011728231
228	0x3ba83b9d	0.0051340596
229	0xbb58a0c6	-0.0033054813
230	0x39f1458a	0.00046018913
231	0xbc913d87	-0.017729534
232	0xba94c4fb	-0.0011350209
233	0xbc577332	-0.013150023
234	0xbbf202fd	-0.00738561
235	0x3cb07346	0.021539342
236	0xbc5f9478	-0.013646238
237	0x3b868e69	0.004106332
238	0xbc1d095d	-0.009584752
239	0x3a88257c	0.0010387148
240	0xbc77ea8c	-0.015131604
241	0xbb288f31	-0.0025720114
242	0xbb84f355	-0.0040573278
243	0xbc5107c5	-0.0127582
244	0x3ad38569	0.0016137782
245	0xbc4669ee	-0.012110217
246	0xb9c7f803	-0.0003814102
247	0x3c018efd	0.007907626
248	0xbbd125f9	-0.0063827005
249	0x3c3c7a34	0.011503745
250	0x3bcc5d32	0.0062366957
251	0x3c057528	0.008145608
252	0xbc0fdf3f	-0.008781253
253	0x3c257a89	0.010100015
254	0x39f67ef2	0.00047015358
255	0xbc3c9a3d	-0.011511383

fc.1.bias f4 [64]
0	0x3c4a0cc8	0.012332149
1	0x3dfa8eb3	0.12234249
2	0xbd0a2c27	-0.033733513
3	0x3bfa8002	0.0076446543
4	0x3ef12525	0.47098652
5	0x3e7d4b9f	0.24735878
6	0xbd17fe9d	-0.037108053
7	0xbc68f799	-0.014219188
8	0x3c635ef2	0.013877617
9	0x3eda468f	0.42631957
10	0x3ed994a0	0.42496204
11	0x3e8795da	0.26481515
12	0x3d18542a	0.03718964
13	0x3da74601	0.08167649
14	0x3e1e8282	0.15479472
15	0x3f2da9ca	0.678372
16	0xb914a68c	-0.00014176423
17	0xbb3e5bc0	-0.0029046386
18	0xbd24f157	-0.040269222
19	0xbcdea5f7	-0.027178748
20	0x3b0337eb	0.0020022343
21	0x3b2bd5e4	0.0026220018
22	0xbcc8c3e7	-0.024507476
23	0x3e7b01c6	0.24512395
24	0x3c421ec4	0.011848155
25	0xbcb584f9	-0.022158133
26	0xbcee3f2e	-0.02908286
27	0x3cf5c890	0.030002862
28	0x3e08cfb2	0.1336048
29	0x3e0f9ecd	0.14025421
30	0x3b1cd922	0.0023933132
31	0xbce75bd8	-0.028242037
32	0x3cb7cce7	0.022436572
33	0x3efa51ec	0.48890626
34	0xbc28aed7	-0.010295591
35	0x3ea22f7e	0.3167686
36	0xbc8c281c	-0.01710897
37	0x3f07588b	0.5286948
38	0x3d5bed91	0.053693358
39	0x3d2538b4	0.04033728
40	0xbcef3564	-0.029200263
41	0x3e5b8cf8	0.21440494
42	0x3b896235	0.0041926154
43	0x3e40f7b5	0.18844493
44	0x3d863169	0.06552393
45	0xbbc22694	-0.005925009
46	0x3d83a8c6	0.06428675
47	0xbb27414f	-0.0025521105
48	0xbcad6819	-0.021167802
49	0x3c86f8aa	0.016475994
50	0x3d234e11	0.03986937
51	0xba61db60	-0.0008615758
52	0x3ea514bf	0.3224239
53	0x3ead6595	0.33866563
54	0xbb0ab600	-0.002116561
55	0x3c5b0acf	0.013369276
56	0xbc954373	-0.018220639
57	0xbd26672b	-0.040625732
58	0xbd4e18f5	-0.05031677
59	0x3ecfc50c	0.40580022
60	0xbb789877	-0.0037932673
61	0xbcb8b601	-0.022547724
62	0x3e490255	0.19629796
63	0x3e7b3e40	0.24535465

fc.3.weight f4 [4, 64]
0	0x3c84019b	0.016114047
1	0x3e5ee36e	0.21766445
2	0x3c3d4cd0	0.011553958
3	0x3d9c1262	0.07620694
4	0xbe8a93a3	-0.27065763
5	0x3e10b134	0.14130098
6	0x3dbc15db	0.09183856
7	0xbdbe19fc	-0.092823
8	0x3db4f069	0.08834917
9	0x3d284955	0.04108556
10	0x3c6b2054	0.014350969
11	0xbf6dd3ee	-0.92901504
12	0x3df834c4	0.12119439
13	0x3d2e1e1b	0.04250918
14	0xbfc3580f	-1.5261248
15	0x3ed0691b	0.4070519
16	0x3d3c8f19	0.046034906
17	0xbe737823	-0.23776297
18	0x3dcf9ffc	0.101379365
19	0x3cfe791e	0.031063613
20	0x3e207a29	0.156716
21	0x3c94b5c1	0.018153073
22	0xbd7bee2e	-0.061506443
23	0xbf16ae24	-0.5885947
24	0xbc87cb1a	-0.016576339
25	0xbc0f0584	-0.008729342
26	0xbdd58f12	-0.10427679
27	0xbd5a0ff4	-0.05323787
28	0x3c42a696	0.0118805375
29	0x3d96202b	0.07330354
30	0x3d884a27	0.066547684
31	0x3c583feb	0.013198833
32	0x3d63449b	0.05548535
33	0xbf240bea	-0.6408068
34	0xbdc7cc05	-0.097557105
35	0x3db3a800	0.08772278
36	0x3d294c20	0.041332364
37	0xbe412aa8	-0.18863928
38	0xbd578ff2	-0.05262751
39	0x3dad94fb	0.084756814
40	0x3d1f0ec2	0.038832434
41	0xbd83d624	-0.064373285
42	0xbd2b25ed	-0.041784216
43	0x3df447ca	0.11927755
44	0xbe1a6886	-0.15078935
45	0xbec3ec9f	-0.38266465
46	0x3e91bda1	0.28464988
47	0x3df0e45d	0.11762307
48	0x3d2b90ef	0.041886266
49	0x3e5ce196	0.21570429
50	0x3e8fedcf	0.2811112
51	0xbd35808d	-0.04431205
52	0xbf985e5c	-1.1903796
53	0xbcdd6395	-0.027025023
54	0xbcddaac8	-0.027058974
55	0x3dd73006	0.105072066
56	0xbce40a25	-0.027836869
57	0x3d7e889f	0.06214201
58	0xbdaa99a0	-0.08330083
59	0xbd773328	-0.06035152
60	0x3ccda023	0.025100773
61	0xbd84b7b8	-0.06480354
62	0x3e1d41da	0.15357152
63	0x3dc18e22	0.09450938
64	0xbc2a252d	-0.01038484
65	0xbef85540	-0.4850254
66	0x3dda7521	0.10666872
67	0xbda91c3c	-0.082573384
68	0xbf2eed84	-0.6833117
69	0x3e43396d	0.19064875
70	0xbd4f2402	-0.05057145
71	0x3c90c925	0.017674038
72	0xbd12babd	-0.03582262
73	0x3cb5618e	0.022141244
74	0xbf87579d	-1.0573612
75	0xbd5c0c2f	-0.053722557
76	0x3e2fab02	0.17155078
77	0xbf921078	-1.1411276
78	0x3d8f92e8	0.07010442
79	0x3eabe5d7	0.3357379
80	0xbc806fb2	-0.01567826
81	0xbe143bca	-0.14475933
82	0x3cdc46d7	0.026889248
83	0x3d60ccf8	0.054882973
84	0x3da1fd48	0.07909638
85	0x3d92dac0	0.071706295
86	0x3dfedc61	0.12444378
87	0x3bcd6d61	0.0062691425
88	0x3d1f5ed8	0.03890881
89	0xbdae5ac8	-0.08513409
90	0x3da99470	0.08280265
91	0xbcb9577f	-0.02262473
92	0xbfaeea06	-1.3665168
93	0xbe4b2e40	-0.19841862
94	0x3dd2ae5b	0.10287162
95	0xbdbcb834	-0.092148215
96	0xbcac3029	-0.021019058
97	0x3c824bae	0.015905228
98	0x3cea0134	0.028565027
99	0xbd26ed14	-0.04075344
100	0xbd546af7	-0.051859822
101	0xbdd47fd6	-0.10375945
102	0x3e163c02	0.14671329
103	0x3dc11b4e	0.09429036
104	0xbdded9f9	-0.10881419
105	0xbcf7a490	-0.030229837
106	0x3afaa372	0.0019122197
107	0x3d8a1194	0.06741634
108	0x3e471bc6	0.19444188
109	0xbec89328	-0.3917477
110	0xbf1f5544	-0.6223948
111	0xbde42aa1	-0.11140943
112	0xbd6e4a06	-0.058176063
113	0x3e9791fd	0.29603568
114	0x3e6dd6e3	0.23226504
115	0xbd7fc460	-0.062443137
116	0x3d5df8fe	0.054192536
117	0xbe13d1d0	-0.14435506
118	0xbda8a312	-0.08234228
119	0xbc63109a	-0.013858939
120	0xbcc44acb	-0.023961445
121	0xbbd60170	-0.006530933
122	0xbd58530f	-0.052813586
123	0x3d858657	0.06519764
124	0x3d3392bb	0.043841105
125	0x3dd6dabe	0.104909405
126	0x3e14d003	0.14532475
127	0x3d090a0c	0.033456847
128	0xbcc7e181	-0.02439952
129	0xbe82e00d	-0.25561562
130	0x3d8250ba	0.063630536
131	0x3d9f2388	0.07770449
132	0xbef28372	-0.4736591
133	0x3eda8034	0.42675936
134	0x3dafc26b	0.08582004
135	0x3c3573c7	0.011074967
136	0x3de97b6c	0.11400494
137	0xbf38f8ce	-0.72254646
138	0x3c61f4a6	0.013791239
139	0x3db66780	0.0890646
140	0x3e84f300	0.25966644
141	0x3d940578	0.072276056
142	0x3d035ac6	0.03206899
143	0x3e99eff5	0.30065885
144	0x3d676a7e	0.056498043
145	0xbdebcf42	-0.11514141
146	0x3dafd350	0.085852265
147	0x3dc80434	0.09766427
148	0xbd9f218c	-0.077700704
149	0x3c3bf2d9	0.011471474
150	0x3d8c360f	0.06846248
151	0x3dd4745d	0.10373757
152	0x3d86eda6	0.065882966
153	0x3c6b73be	0.014370857
154	0x3cd62b4b	0.02614369
155	0x401ce47e	2.451446
156	0xbc685905	-0.01418138
157	0x3e0218cc	0.12704772
158	0x3dc7f263	0.097630285
159	0xbda96e86	-0.08273034
160	0xbdb79cf2	-0.08965482
161	0x3c5814e2	0.013188573
162	0x3d3dd28f	0.046343382
163	0xbfaac60d	-1.334169
164	0xbd728076	-0.05920454
165	0xbdf996fb	-0.12187
166	0x3dd6ba96	0.10484807
167	0xbf8b5423	-1.0885051
168	0x3dc47ef0	0.09594524
169	0xbda02694	-0.07819858
170	0x3d366c67	0.044536974
171	0x3df712df	0.12064146
172	0x3d8990bd	0.0671706
173	0x3e5e657e	0.21718404
174	0x3e9fbefb	0.31200394
175	0x3da4e069	0.08050615
176	0xbc18188f	-0.009283199
177	0xbee65d06	-0.44992846
178	0x3e2c1c67	0.1680771
179	0x3d3ff488	0.046864063
180	0xbd77d823	-0.06050886
181	0xbdf9c976	-0.12196629
182	0xbcb81b48	-0.022473946
183	0x3dac7b60	0.084219694
184	0xbdc159a7	-0.09440928
185	0x3db8f0bf	0.09030294
186	0x3d36b483	0.044605743
187	0xbfa4eccc	-1.2884765
188	0x3d457cd1	0.048214737
189	0x3c47d344	0.012196366
190	0x3e3bea43	0.18351083
191	0xbe995cc8	-0.299536
192	0xbc1db1bc	-0.009624895
193	0xbd2fa0e3	-0.042878043
194	0xbd210c65	-0.03931846
195	0xbd5c2cea	-0.05375377
196	0x3d6ef162	0.05833567
197	0x3dd79902	0.10527231
198	0xbd1ce7cb	-0.038306993
199	0x3d9d68e2	0.076860204
200	0xbda715e6	-0.08158474
201	0xbde9c8cb	-0.11415251
202	0x3c9d423f	0.019196628
203	0xbdcb0472	-0.09912957
204	0xbcf41bca	-0.029798407
205	0x3daf39f1	0.08555973
206	0x3d8729f4	0.06599799
207	0x3eb365fd	0.35038748
208	0xbd43b44a	-0.04777936
209	0xbe98d24b	-0.2984794
210	0x3c111cd8	0.008856975
211	0xbde1cd5a	-0.11025496
212	0xbdc73da7	-0.09728556
213	0xbd75f31c	-0.0600463
214	0xbd9ada14	-0.07561126
215	0xbebc9a4b	-0.36836466
216	0x3d149d32	0.036282726
217	0xbcecb788	-0.028896108
218	0xbd4f3205	-0.05058481
219	0xbc1e3688	-0.009656556
220	0xbbbf2a4c	-0.0058338996
221	0x3e4e28da	0.20132771
222	0xbdd94d91	-0.10610498
223	0x3deaeb9e	0.11470722
224	0x3e34cfc3	0.1765738
225	0xbcc0dae0	-0.023541868
226	0x3c3fdc41	0.0117102275
227	0xbd02338f	-0.03178745
228	0xbd99742d	-0.07492862
229	0xbf31a565	-0.69393
230	0x3d232b29	0.039836083
231	0x3ddc1ffa	0.107482865
232	0xbd7c6630	-0.06162089
233	0xbfbb2cd6	-1.4623058
234	0x3da32136	0.07965319
235	0xbfe72945	-1.805947
236	0x3e54e3b8	0.20789993
237	0x3e9cd833	0.30633697
238	0x3e8b3679	0.27189997
239	0xbdf54001	-0.119750984
240	0x3df5da8f	0.12004577
241	0x3eaecf78	0.3414266
242	0xbf1e389b	-0.61805123
243	0xbc9a7b0b	-0.0188575
244	0x3da88c63	0.08229902
245	0xbf819c51	-1.0125829
246	0x3cf4dfa4	0.029891796
247	0xbcabaf62	-0.020957652
248	0xbddc3502	-0.10752298
249	0x3ddf80ee	0.10913263
250	0x3ba663ea	0.0050778287
251	0x3ce33b89	0.02773835
252	0x3ddf5075	0.10904018
253	0xbd1b6704	-0.03794004
254	0xbfacef05	-1.3510443
255	0x3d5a0bc8	0.05323389

fc.3.bias f4 [4]
0	0x3ef0ef1a	0.4705742
1	0x3ef6059c	0.48051155
2	0x3ef5252f	0.4787993
3	0x3ef778a1	0.4833422
