models/v17.1/model_157500.pt (torch, 729854 bytes, 10 tensors)

conv.0.weight f4 [16, 2, 3, 3]
00000000: c652 423e a242 033c e07d 69bd 057d b33c
00000010: 28d9 443c 661d 91bd ae5a 0ebd b9b7 63bd
00000020: 1f83 003e c7bd 5ebe 0c32 8e3d cbec db3d
00000030: d10f a13c 8c5c 07bd 6c0e 993d 10fb 413d
00000040: 1472 b23d c104 4cbd 454a e33d f500 863e
00000050: eb03 49bd eda8 65bd adbb 69be 76ab 173e
00000060: 5dbf 45be b1ae 7bbe 49e8 eabd ba50 71bd
00000070: 31c7 95bc b716 97bb 693c b83d 3cb3 94be
00000080: 4848 473d 9fca 533e f882 9c3d 491e 383e
00000090: a3e4 543d 36ce a63e 9c3b b3bc 8292 8abc
000000a0: 938b d53d e1fa 813e 50fe 233e f0b4 de3e
000000b0: 3c56 373d 0588 bfbd d836 97be a6a4 e33c
000000c0: b863 053a 4c09 57bd 2ff2 93be 6336 2abe
000000d0: e874 e4be 123c cabc 7d28 d33c 3f95 7fbc
000000e0: 6dc3 8e3d f385 2cbd d7e1 843c 1476 a0bf
000000f0: 3873 ac3b 59b5 81bd 77f2 753c 2d6f 8cbc
00000100: e0d5 4e3c 9fb9 86bd 10e8 b13c 0ae3 cdbc
00000110: f986 b93d e311 81bb e342 503d c5a0 59bc
00000120: 5765 8d3c 6404 dabd 2303 fbbd dd70 6dbd
00000130: 1194 19be 64cf 1d3f 86e0 a33b 70f6 d43b
00000140: 76a0 17be d83e f7bc 30ec 9b3d 7867 123e
00000150: b71a 513d 3c05 fe3d f5aa 9a3e ed73 36bc
00000160: 4796 d2bb 1acb e23d d7ef 0f3d 9af2 c3bd
00000170: 97e0 eb3e a5d1 17bd 0e0b 20bf a00d 8ebc
00000180: a0c1 aa3c d0a7 05be e706 b5bd f4a3 fdbc
00000190: 1c0b c1ba 7fc7 7bbc 5cdb 5f3d 2b68 c1bc
000001a0: b276 eb3c d807 8abc 66d5 1b3e 4882 9f3d
000001b0: ddd7 89be ac1e b5be b6b9 bcbc e7ca b13b
000001c0: 1ba3 11bb ce85 3cbf f9aa b6be 6139 d0be
000001d0: 9c60 a4bd aa7b 7e3e 0f90 9c3e 51c7 c5bb
000001e0: 2cf3 d7bc 8099 bd3b ccb3 fc3e add7 543e
000001f0: d464 a23e 8cad 213d bed7 f4be 44aa 04bf
00000200: 0431 863d 6ca1 02be a22d a83d 555c 063e
00000210: ccea 88bf 2444 62bd 70b6 64bd e2fe 603e
00000220: e4a0 823e 1c6c 2cbd 39c6 3f3c df3f 5abd
00000230: a40d bb3d 6d59 923e 0a76 d33d 1727 c23c
00000240: c02f a33d d872 833d 8634 3c3c 5027 723d
00000250: d6e7 663e 1527 11bc dd4b 78be ff94 e7be
00000260: 1508 f6be da9d 78bd 3116 c13d 2137 163d
00000270: c229 093d 9a55 7c3d c26a 043e 4369 c9bd
00000280: 7460 6f3e efb3 5abb f2c1 f03b 2d59 28bd
00000290: e915 f43c 7649 763c 119b 6ebd 3175 fa3e
000002a0: e22a 8fbc 4353 0cbe a3b9 babd de0b 8a3b
000002b0: 4ce6 433d 4908 87bc 2333 febc e603 9f3d
000002c0: a959 f8be 2cb0 0b3c 83b1 0e3e ff3a 8e3d
000002d0: 2318 2d3c 3c70 8cbc 9a78 37bc 7bb3 9dbd
000002e0: a2ca 103f 85a5 cabd dc65 843c fbce 77bd
000002f0: 28f5 423d 7db6 b3bc 0454 ce3c 410d 3fbc
00000300: c95c ad3d a878 c33e b885 9a3d 4c62 04bb
00000310: b936 733d db72 2ebd 1849 84bc 5e40 653d
00000320: 56de 81bd 48d5 713c e7cc 543f 7446 9a3c
00000330: 15c6 7dbd 43d3 bb3c d6c2 b0bd bf36 a43c
00000340: 731c 8abd 99c0 8f3d 5466 93bc 5895 b4bd
00000350: 93bf 34bd 0b69 a63d 7cab 51bd 908c a93d
00000360: 50e1 adbd 7f77 2fbe 7379 adbd 9a74 93bd
00000370: 5f60 1dc0 3437 0f3c 365e d5bd 46b5 e9bd
00000380: 3d52 15be 4f5c de3d 20d9 c53d 14d1 bf3d
00000390: 1cc6 7b3d 2303 0e3f 40d5 9fbd 55fb 033e
000003a0: c352 833d a1b0 2c3e f0b4 5cbd 8eac 80bd
000003b0: 15da b5bd e8e5 92bd 2326 bdbe 2e49 6cbf
000003c0: 928e 4c3e 805a fabd 1e50 8fbd 8c42 05bd
000003d0: dd6b 9a3d b2ad 0f3c 83e3 38bc 6fdc a23d
000003e0: 61d6 f43e c7a0 023e e164 053e e5ba bf3d
000003f0: c61f 11bf 24b0 10bf 05dd 73bf 1729 dfbd
0.18976888 0.008011492 -0.05700481 0.0219102 0.012014665 -0.070856854 -0.034754448 -0.055595133
0.12550019 -0.21752082 0.069431394 0.10738524 0.019660862 -0.033047244 0.07473454 0.047358572
0.08713165 -0.04980922 0.1109815 0.26172605 -0.049076002 -0.056069303 -0.22825499 0.14811501
-0.1931128 -0.24578358 -0.11470086 -0.058914877 -0.018283458 -0.004610862 0.08995897 -0.29042995
0.048652917 0.20682763 0.07642168 0.17980303 0.051975857 0.325792 -0.02187901 -0.016915563
0.10427012 0.25386718 0.16014981 0.4349742 0.044759974 -0.093521155 -0.2953403 0.027788471
0.00050884066 -0.0524991 -0.2889571 -0.1662231 -0.44620442 -0.024686847 0.025776142 -0.015599548
0.06970868 -0.04211993 0.01622097 -1.2536035 0.0052627586 -0.063334174 0.015011421 -0.017142856
0.012624234 -0.06578373 0.021717101 -0.025132675 0.09058947 -0.0039389 0.05084504 -0.013282959
0.017260237 -0.10645369 -0.12256458 -0.057968963 -0.14997889 0.6164458 0.0050011305 0.006499104
-0.14807305 -0.030181333 0.076134086 0.14297283 0.051050868 0.12403342 0.30208555 -0.011136037
-0.006426606 0.11073895 0.03514084 -0.09567757 0.46069786 -0.037065167 -0.6251687 -0.017340481
0.02084428 -0.13052297 -0.08839207 -0.030961968 -0.0014728042 -0.015367388 0.054652557 -0.023609241
0.028743122 -0.016849443 0.15218124 0.07788521 -0.26922503 -0.35374963 -0.023037773 0.005425799
-0.0022222463 -0.7364167 -0.35677317 -0.40668777 -0.08026239 0.24851862 0.30578658 -0.0060357233
-0.02636107 0.005786121 0.49355924 0.20785399 0.3171755 0.039472148 -0.47820848 -0.51822305
0.06552318 -0.1275689 0.08211829 0.1312116 -1.0696654 -0.055240765 -0.05583805 0.2197223
0.25513375 -0.04209529 0.011704975 -0.05328357 0.09133461 0.2858385 0.103252485 0.02370028
0.07968092 0.06418389 0.011487132 0.059119523 0.22549376 -0.008859416 -0.2424769 -0.45230862
-0.4805304 -0.060697414 0.09428061 0.03667367 0.03348709 0.061605074 0.1293135 -0.0983453
0.23376638 -0.003337141 0.007347339 -0.04110067 0.029795604 0.015032163 -0.05825335 0.48917535
-0.017476503 -0.13703637 -0.09117439 0.0042128405 0.04782705 -0.016483443 -0.031030243 0.077644154
-0.48505905 0.008525889 0.13934903 0.06944846 0.010564837 -0.017143361 -0.011198187 -0.07700249
0.56559193 -0.098948516 0.016161852 -0.060500126 0.04759708 -0.021937603 0.025186546 -0.011660875
0.08464963 0.3817799 0.07545036 -0.002020019 0.05937836 -0.042590003 -0.016148135 0.05596959
-0.06341235 0.014760323 0.83125156 0.018832423 -0.061956484 0.022927886 -0.08630912 0.020045636
-0.067437075 0.07019157 -0.01799313 -0.088175476 -0.044128012 0.08125504 -0.05118893 0.08278763
-0.084902406 -0.17135428 -0.0847043 -0.07199974 -2.459007 0.008741189 -0.1041836 -0.11411528
-0.14582153 0.1085745 0.09660554 0.0936605 0.06146823 0.55473536 -0.07804346 0.12888844
0.0641227 0.16864254 -0.053883493 -0.06282912 -0.088794865 -0.071727574 -0.36943159 -0.92299163
0.19976261 -0.12224293 -0.06997703 -0.032534167 0.075401045 0.0087694395 -0.011284712 0.079522006
0.47819808 0.12756644 0.13026763 0.09361819 -0.5668911 -0.5651877 -0.95259124 -0.10896509

conv.0.bias f4 [16]
00000000: af18 99bd cb38 8fbe b826 debd 16dc 0d3f
00000010: 4fe6 12bf fa0c 8ebe 8c6d 223c c373 35be
00000020: 4fc2 cabe afb8 56bd ebbf 2cbf 4e32 d6be
00000030: 2300 993e ceb7 66be d950 99bc c840 24be
-0.07475411 -0.27973017 -0.10847229 0.5541395 -0.57382673 -0.27744275 0.009913813 -0.17719941
-0.3960137 -0.05242222 -0.67480344 -0.41835254 0.29882917 -0.22531053 -0.018715309 -0.16040337

conv.2.weight f4 [32, 16, 3, 3]
00000000: bee0 88bd 31ae 6b3c 4d59 1dbd 48f5 88bc
00000010: 86b4 8fbd a7b6 a7bc 9d04 a83d 4032 edbc
00000020: d31f c6bd 077e 8e3d 45d4 d13d 6492 ad3d
00000030: 7857 103e 5aa2 de3d 7e92 fc3c ac40 483d
00000040: 14ee 20bd 6d16 2ebd f1ba 333e a008 efbc
00000050: 9447 43bd ff2e 03bd 40c6 c5bb 2674 67be
00000060: 6b4e fabd 672f 79be a4f9 41be f969 5c3c
00000070: 05d1 1cbd 58b4 09be 8084 e93b 46c9 8fbd
00000080: 7802 9dbd 3e72 473d 7630 f2bd a0c1 b3be
00000090: 5c8c 933d 37f6 e73d 6d08 91be 70c7 12be
000000a0: 8e95 25be a641 abbe aa7e eb3d b793 f7bd
000000b0: 7286 37be 6f45 2d3d 2570 d93c 4ac8 b5bd
000000c0: d65e 253e e930 b73d 77e5 83be 4438 a33d
000000d0: 6cb3 8f3d f1ce 02be 0f4b 353d 1b6d 3a3e
000000e0: 875f 5e3c 9af6 1e3e 8065 3f3d d1a7 34bd
000000f0: aab1 8a3d 53f6 ab3c 86ed 34be b99f 45be
00000100: 9453 18bd d804 983c 860e 89bd 586d 8cbc
00000110: 73e1 2abd ec03 a1bd c9dd a5bd 522b 07be
00000120: 60d6 b63d a71e 893d f5d3 133d fab0 91bd
00000130: 76ff 173e 6460 04be fd2d ca3d b4f8 42bd
00000140: 3574 1ebe 7acc c43d 165b 71be 1fe3 2f3d
00000150: e72c de3d 5f59 1dbe d55a 21bd 3e46 2dbe
00000160: 8800 6abe 8495 983c d168 4a3d f4dd a3ba
00000170: 7397 02be 58a9 e5bc a9f3 de39 833a 17be
00000180: 0dc3 9bbd a73b fdbc eace 92bd a1bd 123c
00000190: 29df 03bc d533 97bd 4de1 16be caee 52be
000001a0: b4dd 11be e50d 00be 23e3 0dbe 4713 c43b
000001b0: 9f4f 533c bc75 2e3d 9b06 f13c 4ecb 09be
000001c0: d51e 11bc 27ff cb3c 09cf 09be ef88 19be
000001d0: 73e3 e6bc 5d77 b6bb 1d24 5e3c 6e21 523d
000001e0: cfd4 853d ce13 993c d10f b4bc 801f 15bd
000001f0: 30c4 2ebd 0b8d aa3c dbe8 a53c fad6 dfba
00000200: 6158 e9bb 925c 02bd 603f 34be cc00 c2bd
00000210: ab43 1bbd 7d87 2cbd 6b73 b23d 0b6e 06be
00000220: 81da 5abc 383e b5bd 68d0 d0bd 0540 da3d
00000230: b6f4 243c cf0e b5bd 1785 1abe 7881 8fbd
00000240: e6eb 2c3e 996a a0bd f5ca 363e fba8 2d3d
00000250: c4bd da3d 56ae 7fbd 6455 4abd eb26 d23c
00000260: 11dc 7cbd d267 0d3e a060 be3c ac18 873e
00000270: ed9c 44be 81d6 3e3e d001 ba3d 231e 873e
00000280: 4899 92bd 9b86 963d 9de7 91bc 5126 773e
00000290: aa33 463e 4772 893e f3d8 6dbe 7455 45be
000002a0: 8886 a23e e304 c33c 8f34 f73d e1f9 0dc0
000002b0: 5589 003e d54f bcbd 859b 35bc 93de eabc
000002c0: 7d9b be3b 4acc abbc ba9e 55bd b92f fabc
000002d0: dcd9 7fbf 6544 b93e d461 c93b 8bc4 46bc
000002e0: 3794 a63d dfc6 c03d 1506 8c3c 27f7 e0bc
000002f0: 8fa2 82bc bd78 24be 3853 5bbf f63f 51bd
00000300: 8574 8fbe de23 71bd 462d 40be 47c2 a8bd
00000310: debd 63bd e028 c0bc d914 813d 523e f13b
00000320: 85cf 99bd 007e ff3d 0188 b2bd 27ed 05be
00000330: 5f7d 4c3e 65e2 783c 92b8 973d 2717 bf3d
00000340: 7f41 9cbd 2475 27be c9be b13d 0234 c3bd
00000350: 394b 51be 36a8 a43e c74d 5eba 71b9 413e
00000360: 60c2 303e 2bbe 3dbe e6d7 373e 26a1 453d
00000370: 0b02 ab3e 0b0b a43c 2b5f 3b3e 1423 153e
00000380: e13f 14be 105c a13d f41d fdbe d012 12be
00000390: fe22 0f3e f16c 5b3d e3df 4dbe ed7e 0e3f
000003a0: 4074 a63c a650 c9bd 2514 a8bd 3c71 f6be
000003b0: 37f6 da3e 1862 473d d824 3dbe fa62 193b
000003c0: 957b 62bc 76e6 51bd 72c9 723c fd05 0d3e
000003d0: cb43 06bf 7588 3b3e 65d6 bc3d 20eb c2bd
000003e0: 28fc 46bd f249 20bd f8d8 993c cc99 ef3c
000003f0: 41dc 6f3d 91b1 94bf abe6 26bf 4657 4f3e
-0.06683491 0.014384792 -0.038415242 -0.016718522 -0.07016854 -0.020472838 0.08204005 -0.028954625
-0.09674039 0.069576316 0.10245565 0.084751874 0.14095867 0.1087081 0.030831572 0.0488898
-0.03928955 -0.042501856 0.17551781 -0.029178917 -0.047675684 -0.03202724 -0.006035596 -0.22602901
-0.12221988 -0.24334489 -0.18942887 0.013453 -0.038285274 -0.13447702 0.007126391 -0.07020812
-0.076664865 0.048692934 -0.118256494 -0.35108662 0.07204506 0.11326259 -0.2832674 -0.14333892
-0.16170332 -0.33448523 0.11498769 -0.12088721 -0.1792238 0.042302545 0.026542732 -0.08876093
0.16149458 0.08944876 -0.25761005 0.07969716 0.07016644 -0.12774254 0.044261035 0.18205683
0.01357258 0.15523759 0.046727657 -0.044105355 0.06772168 0.02099148 -0.17668733 -0.1929921
-0.03718908 0.018556997 -0.06692223 -0.017141983 -0.04171891 -0.07862076 -0.08098943 -0.13200119
0.089276075 0.066952996 0.03609081 -0.07113834 0.14843544 -0.12927395 0.09872053 -0.047600463
-0.15474017 0.09609313 -0.23569903 0.04294121 0.10848408 -0.15366124 -0.039393265 -0.16921327
-0.22851765 0.018625982 0.049416367 -0.001250206 -0.12753086 -0.028034851 0.0004252468 -0.14768414
-0.07605562 -0.030912234 -0.07168372 0.008956344 -0.008048811 -0.07382933 -0.14734383 -0.20598903
-0.1424473 -0.125053 -0.13856177 0.0059837434 0.012897401 0.04259275 0.029422095 -0.13456461
-0.008857449 0.02490194 -0.13457884 -0.14993642 -0.028184628 -0.0055684284 0.013558415 0.051301412
0.06534731 0.018686201 -0.021980198 -0.036406994 -0.042667568 0.020819208 0.020252636 -0.0017077618
-0.0071211313 -0.031826563 -0.176023 -0.09472808 -0.03790633 -0.0421214 0.087134205 -0.13127916
-0.013357759 -0.08849758 -0.10196 0.10656742 0.010068109 -0.08840715 -0.15089832 -0.07007116
0.16886863 -0.07832832 0.1785086 0.04239748 0.10680726 -0.06242212 -0.04939784 0.025653323
-0.06173331 0.13809136 0.023239434 0.2638601 -0.19200487 0.18636514 0.09082377 0.2639018
-0.07158142 0.07349893 -0.017810637 0.2413571 0.19355646 0.26845 -0.23227291 -0.19270879
0.31743264 0.023806041 0.12070572 -2.2183764 0.12552388 -0.09194914 -0.011084442 -0.028670585
0.0058168755 -0.020971436 -0.052153327 -0.030540334 -0.999418 0.36184993 0.006145695 -0.01213182
0.081337385 0.09412932 0.017092744 -0.027461601 -0.015946655 -0.16061683 -0.85673857 -0.05108639
-0.28018585 -0.058872096 -0.1876727 -0.082401805 -0.055600993 -0.02345699 0.063028045 0.0073621655
-0.07510284 0.124752045 -0.08717347 -0.13078748 0.199697 0.015190695 0.07408251 0.09330588
-0.0762968 -0.1635328 0.086789675 -0.09531404 -0.20438851 0.32159585 -0.00084802177 0.18918397
0.17261648 -0.18529575 0.17953452 0.048249386 0.33399996 0.020024797 0.18298022 0.14564162
-0.14477493 0.07878888 -0.49436915 -0.14264989 0.13978192 0.05357069 -0.20104937 0.55662423
0.020319104 -0.098298356 -0.08206967 -0.48133266 0.42765972 0.048677534 -0.18471086 0.0023404942
-0.01382341 -0.051245175 0.014818536 0.13771816 -0.52447194 0.18313773 0.0922058 -0.09517503
-0.04858032 -0.03913302 0.018780217 0.02924814 0.05855966 -1.1616689 -0.6519572 0.20248136

conv.2.bias f4 [32]
00000000: 4256 8e3c 0b8c 3e3d 59dd 8fbd a316 953d
00000010: e20a f23c 1a81 39bd 72f6 6a3e 42de 93bd
00000020: 38a8 6dbe a2d1 a3be 04d7 153e 260a 8a3e
00000030: 1dbf 9fbd 5d6b 203d 9e83 a83d 07da 17be
00000040: be56 273c 033f c3bb 24e2 553e 6620 eabd
00000050: 2629 0f3e ce7e a0bd b9f2 74bc 0a7b a6bd
00000060: b461 0bbe 218f a03e c66b d73d 6073 02be
00000070: f62c 0fbd 50b1 e33c d91d e1bd 684f 0c3e
0.017375115 0.046520274 -0.070246406 0.07279708 0.029546205 -0.045289136 0.22945574 -0.07220127
-0.23208702 -0.31995875 0.14632803 0.26960868 -0.07800124 0.03916489 0.08228229 -0.14829265
0.010213552 -0.0059584393 0.20887047 -0.11431961 0.1398054 -0.07836686 -0.014950448 -0.081289366
-0.1361149 0.313592 0.10518603 -0.12739325 -0.034954987 0.02779451 -0.10992021 0.13702166

conv.4.weight f4 [64, 32, 6, 6]
00000000: 4d01 49bc 11d1 6dbd d0f9 883d 03fd 7bbc
00000010: 4bc7 3e3d 04dc 7fbc 8862 05bd 7f86 253d
00000020: 282f ef3c 5365 b33c 3370 88bc c8f4 1f3d
00000030: 95b5 5cbb cac9 c53c 6767 d1bc ae88 34bd
00000040: ab6e e2bb 950b ec3c 9c3f 433c aad9 963d
00000050: 3159 9fba 74f1 55bd ef35 44bd 1043 a33d
00000060: 4848 ca3c 56b0 dfbb 2b1f 80bd 6812 d63c
00000070: 099e f1ba cd71 18bb 07c3 d83b 7335 89bc
00000080: d877 17bd f91d 6a3a ce26 27bd 7885 b3bb
00000090: 0e37 93bd 77ab 3dbd 541c b13e 7f9c 1cbe
000000a0: ffcf c0be c5c4 51bd 15ed 65bc 5b0a ff3d
000000b0: e0c7 8b3d 49ff c4be 51de 37be ec19 d23e
000000c0: 8163 17bf f183 093e f41b 6fbd e5ec 973d
000000d0: 9288 7d3e 944f 7b3e 5c7b f93d a4ea dbbd
000000e0: 6e64 b838 983a cfbd 2be6 553c 9be9 4b3e
000000f0: db16 bf3d 2770 da3d ed7f bd3d 9c83 293e
00000100: c167 4b3d f04c 4d3e b24f 8cbe 4a88 863e
00000110: 95de af3e 8387 3c3e 8f22 953e 47a1 19bf
00000120: 39b5 28bc 0f61 35bd d4ab bbbc ea75 46bd
00000130: e1cd 2b3c 6fc6 cbbc 8662 5abc 38a1 a13b
00000140: 7d03 dcba 1652 743c 3fd5 b53c c4dc 2a3c
00000150: e8bd b03b 61e4 62bc 59e3 e4bc 84cf c43c
00000160: bd76 6d3c 7906 2bbc c57d b3bc 6829 a13c
00000170: a869 abbc 1997 823c 996e 1dbd 4ad7 17bc
00000180: 2b83 09bb af8f 193d de8d 153b 939e b73c
00000190: 4e3d 1fbc 7cb6 f93c f413 e43c 9e44 073d
000001a0: c3a9 2d3d 7d56 323c 4ab1 94bb 3381 703b
000001b0: cf72 05be 98a2 6e3e 8956 8a3c 6503 9abe
000001c0: 989a fbbe 32d0 883e f6ef 4b3c 86c4 923e
000001d0: ec08 023e a90d 653c a823 fc3e 5efe d8be
000001e0: e458 b93e 7778 773e c3f4 2d3e 2812 e03d
000001f0: c2d7 693e 8784 ac3e 606f a83e 7447 a03e
00000200: 631f 5c3e 81e1 e93c ffe0 b53e 11b2 ae3e
00000210: 1229 f83c 9238 c03e 3604 bd3e 5c8d 803e
00000220: 58d8 da3e c7c5 fbbe ccbe 5e3c 6968 fcbe
00000230: 404a 0abf d256 77be 4fb9 5c3e 1b02 e3be
00000240: 03bc 4e3c bb23 143c 7bd4 eebd 4ebf 1d3e
00000250: 1daf 613e 1b2b fcbd db9a ad3e d5a5 a13e
00000260: b5b7 d6be e3b3 eabe 005a 2dbf 6da6 54bd
00000270: 5e00 abbe 2cb9 a23d 5d97 c2be 874c 8bbc
00000280: 6201 183e f756 d3be 7d58 8f3e 71d5 48be
00000290: d34a 94be 7b44 72be 9534 8cbe a888 933d
000002a0: 2a5e a93e 0b45 23bd f49f 8bbc 4406 93bd
000002b0: 7e9e 243d ab02 6b3e bb88 70bd ee84 1c3e
000002c0: aefe 3e3d 7eba 8bbd 7a0e 573c 15aa 3dbf
000002d0: b8b4 cd3d eab8 3e3d ccae ee3d 964f 353d
000002e0: 5b0a f43c dd60 38bd c56d fa3e 64f1 543e
000002f0: 85dc 873e d2c2 1d3e bea5 9c3d 8e69 373e
00000300: 052f 143f 8d15 6a3e 4aae 253e 8c30 8e3e
00000310: a267 943d 6d66 c13d 023f b13e eec4 323e
00000320: 79fc 823e 43b9 6b3e a4e4 aa3d 2c76 a8bd
00000330: 667c 91bc 89ba b23e 7c7b ad3e 6cd4 8c3d
00000340: 1c1f 9c3d 5a7e 66be 25fa f1bd f210 dc3d
00000350: dd37 493e b9d8 df3c bbb5 133d 7bc7 943d
00000360: ce03 75bb 68b1 833d 8d12 2d3e d7f4 b23d
00000370: a61d 073e 549c e03c e78a 413e dfef 113e
00000380: 0088 0f3e 2466 333e 0139 c43d 0852 49bd
00000390: 655d 533e 6935 393c 18e4 2d3e 92db f63d
000003a0: 545b f73d 4bbd f83c dd97 103d c6f3 a9bd
000003b0: 9e26 553d 7118 053e 4de3 2b3e 7296 6d3c
000003c0: c09d 213e 646e 053e 701b 463d 94dd 173e
000003d0: c4ec 923d de36 58bb 8a1f 213e 8ac0 71bd
000003e0: a7f5 bf3c 0b52 303e 2905 2abc eefd b2bd
000003f0: 5c49 843c 73f0 8a3c d6d8 67bc b474 ba3c
-0.012268377 -0.05806071 0.06688273 -0.015380147 0.04657678 -0.015616421 -0.03256467 0.04041147
0.02919729 0.021898901 -0.016655063 0.0390518 -0.0033677567 0.024144072 -0.025562001 -0.04407566
-0.0069101653 0.028814116 0.011917021 0.07365735 -0.0012157318 -0.05223222 -0.047902998 0.079717755
0.02469267 -0.006826441 -0.06255945 0.026131824 -0.0018433939 -0.002326119 0.006615046 -0.01674912
-0.036979526 0.0008930858 -0.04080849 -0.005478557 -0.07188235 -0.0463061 0.34591925 -0.15294074
-0.37658688 -0.051213045 -0.014033576 0.12453147 0.068252325 -0.38476017 -0.179559 0.41035402
-0.59136206 0.13429238 -0.058376268 0.07418231 0.24759129 0.24542075 0.12181732 -0.107381135
8.79251e-05 -0.10118598 0.013055365 0.19913332 0.09330531 0.106659226 0.092529155 0.16554111
0.049659494 0.2004888 -0.27404553 0.26275855 0.34349504 0.18411069 0.2912793 -0.60011715
-0.010297113 -0.044282015 -0.022909082 -0.048452295 0.010486097 -0.024874894 -0.013329154 0.004932549
-0.0016785708 0.014912149 0.02219641 0.010428611 0.0053937323 -0.013848395 -0.027940439 0.024024732
0.014493641 -0.010438555 -0.021910558 0.019673064 -0.020924404 0.01594119 -0.038435552 -0.0092676375
-0.0020982723 0.037490543 0.0022820155 0.022414481 -0.009719206 0.030482523 0.027841546 0.033024423
0.042398226 0.010884878 -0.004537736 0.0036698102 -0.13032077 0.23304212 0.016886966 -0.30080715
-0.49141383 0.2672134 0.012447348 0.2866556 0.12698716 0.013980308 0.49245954 -0.42381567
0.3620063 0.24167047 0.169879 0.10940963 0.22836211 0.3369486 0.32897472 0.31304514
0.21496348 0.028549911 0.3552322 0.3412023 0.030293021 0.3754316 0.36917275 0.2510785
0.42743182 -0.4917433 0.013595294 -0.4929841 -0.54019547 -0.24154213 0.21555065 -0.44337544
0.012618068 0.009041722 -0.11661621 0.15405008 0.22039457 -0.12312909 0.33907208 0.31571832
-0.41937032 -0.45840368 -0.67715454 -0.05191653 -0.33398718 0.07945475 -0.38006106 -0.017004265
0.14844278 -0.41277286 0.279972 -0.19612671 -0.28963336 -0.23658936 -0.27383867 0.072037995
0.33079654 -0.039860766 -0.017044045 -0.071789294 0.040190212 0.22950236 -0.058724146 0.15285084
0.0466296 -0.0682268 0.01312601 -0.7408765 0.10044235 0.046563067 0.116544336 0.044265352
0.029790094 -0.04501425 0.48911873 0.20795208 0.2653543 0.1540635 0.076488 0.1791136
0.57884246 0.22859783 0.16179767 0.27771413 0.07246329 0.09443364 0.34618384 0.17457935
0.25583246 0.2301989 0.08344391 -0.082256645 -0.017759513 0.3490794 0.33883274 0.06876454
0.07623121 -0.22509137 -0.118152894 0.107454196 0.19650216 0.027325021 0.036061984 0.072646104
-0.00373863 0.06430322 0.16901608 0.08738106 0.13194904 0.027418293 0.18900643 0.1425166
0.14016724 0.17519432 0.09581185 -0.049150497 0.20641096 0.011304238 0.16981542 0.120535985
0.12077966 0.0303637 0.035301078 -0.08298449 0.05203878 0.12997605 0.16785927 0.014501201
0.15782833 0.13030392 0.04836601 0.14830619 0.07174066 -0.0032991688 0.15734687 -0.05902151
0.023432566 0.17218797 -0.010377207 -0.087398395 0.016148262 0.016960358 -0.014150819 0.022760727

conv.4.bias f4 [64]
00000000: 8195 51be 6047 f1bd 27ea acbe 96f3 91be
00000010: 33a0 f2bd 5ee2 7ebe 0316 a3bd fd2b 16be
00000020: 37ae aebe 53a3 cbbc 1e93 16be 1790 28bd
00000030: c467 3dbd 5450 d7be 136e d9be 89be b1be
00000040: 6192 5fbe c206 0a3e 2598 82bd c1e7 68be
00000050: 9f7f a2be c54a 29be 865a f03e 8370 60be
00000060: dc0b 90be dd82 87be f4f8 a7be f04b 6dbe
00000070: 6569 a0be ec99 bebe 2e65 c1be 1f6a 2a3e
00000080: 67a5 9cbe 7a21 a93e f36c 3fbe 6e4c a7be
00000090: 0dcb a4be e5ad 853e f4dd 33be 6f53 4ebe
000000a0: 3252 bbbe f7f5 0ebf 0d6d 51bd 39a8 ccbe
000000b0: 8891 95bd 83b3 3cbb addd 8c3e 59a3 e8be
000000c0: 0698 e1bd a6d2 8abe 7323 82be 6dea 6cbe
000000d0: 3495 70bc 16bf a6bd c375 8cbe 3955 e7be
000000e0: 2a22 a0be 5ded 86be aa70 75be 1c38 353e
000000f0: b09e c8be 1304 81bc b0bc 9dbe ab09 33be
-0.20467187 -0.11781192 -0.33772394 -0.28506154 -0.11846962 -0.2489104 -0.07963183 -0.14665218
-0.3411729 -0.024858152 -0.14704558 -0.04115304 -0.046241537 -0.42053473 -0.42466792 -0.3471568
-0.21833183 0.1347914 -0.063766755 -0.22744657 -0.31737992 -0.16532429 0.46944064 -0.2191792
-0.28134048 -0.26467028 -0.32807124 -0.23173499 -0.3133041 -0.37226808 -0.37772506 0.16642044
-0.30594942 0.33033353 -0.18693905 -0.326755 -0.32186165 0.26109233 -0.17565137 -0.20149015
-0.36586148 -0.5584406 -0.05112939 -0.39972094 -0.073031485 -0.002879352 0.27512875 -0.45437124
-0.11015324 -0.27113837 -0.2541767 -0.23136301 -0.01468401 -0.081419155 -0.27433595 -0.45182207
-0.31276065 -0.2635297 -0.23968759 0.17697185 -0.3918357 -0.015749013 -0.3080802 -0.17484157

fc.1.weight f4 [64, 1600]
00000000: 3bfb b53b beab f8ba 67ab 89bc 759e 8f3c
00000010: 5664 d73a 1a45 c6bc e919 09bc 7243 1d3c
00000020: 5029 a23c eb63 30bb cb89 b3bc 9793 993c
00000030: cce3 11bb f2bc aebc eaab 7fbc b9d5 c8bc
00000040: d379 45bc 37b6 a5bb cd5b a0bc 2ef5 cabb
00000050: 9125 8abc 40a2 29bc 50f4 3b3a e13d 57bc
00000060: 2577 02bc 96d3 b2bb bc30 8e3c c64b 433c
00000070: 5fb1 893c ae5b 223c 9fe8 ae3c e156 39bc
00000080: c2cf a83c 0475 89bc 7efd 383c 464c dc3b
00000090: f593 8ebc 8fee be3b 0163 47bc 5b7f 263c
000000a0: ff4e b0bc d1d5 f3bb 5380 b73c 0503 bfbc
000000b0: ce4f 1c3c 1b53 59bc ee76 9d3b ca3e 0ebb
000000c0: 1246 e6bb f4dc 943c 0e10 a13c 04db 9a3c
000000d0: 6c25 65bc 6e54 d23c cfc8 443b 2006 8bbc
000000e0: b9ae c2bc 78a0 33bc 8f47 ea3c 3eb8 9dbc
000000f0: 5db8 3e3c b5d7 1ebc fc0a b63c c3b0 f3bb
00000100: 1ecd 96bc a5f0 2a3c baf8 83bc be88 07bc
00000110: 800f 8bbc ab1c b2bb ae01 f23a 622e a43c
00000120: 803f f2bb fa20 f73c 4ec0 b13c 4da8 ed3b
00000130: c14d 5f3c 12bb 4d3b 3fa8 04bb bdfd 773b
00000140: 654c 3abc 966f a33c 81dd 1bbc 6f98 aabb
00000150: 8e09 e8bb 60ed b1bc 3c55 21ba 3845 a4bc
00000160: 6156 043c 33ec 553b 5827 aebc 0f0b 373c
00000170: c790 b8bc 22f9 1b3c 956d 733b a8de 2c3c
00000180: b791 b2bc 0b2e 53ba 73cb eeba 625e db3b
00000190: 12db 213c ac84 c4bb 2dca 1ebc b579 c03b
000001a0: 60f1 87bb 5309 5dbc 82a9 5a3c d0c5 9d3b
000001b0: 8744 ae3c 61b5 b03b c9d7 e0bb 150c a83b
000001c0: 4cdc eebb a6e5 b23c 2beb a83c 137b a73c
000001d0: c97f ddbc 7a69 283b 0444 043c fd71 cfbc
000001e0: a808 eebb a70d ed38 8f5b 47bc c5f0 9a3b
000001f0: da52 9ebc 03b4 93bb 0ac1 5c3c 5eb9 e3bc
00000200: ba6b 08bd e77b cbbc eddb b13b d0ae 28bc
00000210: b133 cc3b 4362 9f3c 475e a3bc 0baf 423c
00000220: 3afc 92bc f66e 98bb 902e 82bc fe06 b2bb
00000230: e8ba 0a3c 9d8c 973c 66d0 af3c 07cd 933b
00000240: 85de 9b3b cd26 08bb 0dc7 c7bc d5af 86bc
00000250: 098d 7f3a 8c00 31bc 864b 06bd 0801 953b
00000260: 1cae 08bb 0872 77bc 1428 3cbc febd c1bc
00000270: ca5f 30bd 2cf0 90bc c1a8 27bd b578 1abd
00000280: ab86 b3bc 1c9d 1bbd b097 b9bc ebcd 8cbc
00000290: fe7e 973a b936 a7bc 8e4b 8e3b 694d debc
000002a0: 2f0b 02bd 494e 16bd 9890 38bc 5514 09bc
000002b0: a10c 0bbd 73c5 0cbd 938b 343b d13b 9f3c
000002c0: 80ce eb3b 8187 c8bb 9838 d4bc 7e3e 573c
000002d0: e2f5 b8bc 598d a3bc d05f 84bb bf01 00bd
000002e0: 705a fc3a c2f7 6b3c 37e2 803c 447f 043c
000002f0: b18f a6bc 1e18 8b3a eb72 9dbb 3229 ad3c
00000300: e26b e7bc a001 30bc 2769 cfbc d18a f03b
00000310: fb3b 793c 92b6 ea3b 9818 1a3b e76f a93b
00000320: 985b 073c ca59 3f3c acd4 abbc c6db 76bc
00000330: 8893 8dbc 69ec 61bb 646d 3f3c 711c e5bc
00000340: 37e5 353c 7062 afbb b114 c43c 64c7 6c3c
00000350: 0ac8 e1bb 7ca1 95bc a526 09bc 712b 443c
00000360: 89c5 5f3c 4bf1 4d3c 7385 863b 79bf 8d3c
00000370: b1a9 afbc 1259 5abc 0c3f 91bb e604 85bc
00000380: ef64 bdbc 3255 043a c678 1dbc c427 403c
00000390: 9d3b a83b c6a0 58bb 8a45 f139 873d 91bc
000003a0: fbc4 94ba 3273 57bc fd02 f2bb 4673 b03c
000003b0: 7894 5fbc 698e 863b 5d09 1dbc 7c25 883a
000003c0: 8cea 77bc 318f 28bb 55f3 84bb c507 51bc
000003d0: 6985 d33a ee69 46bc 03f8 c7b9 fd8e 013c
000003e0: f925 d1bb 347a 3c3c 325d cc3b 2875 053c
000003f0: 3fdf 0fbc 897a 253c f27e f639 3d9a 3cbc
0.0055536306 -0.0018972082 -0.016805364 0.017531613 0.0016433101 -0.024202872 -0.008367994 0.0095986
0.01979509 -0.0026915025 -0.02191629 0.018747134 -0.0022261022 -0.02133033 -0.015604952 -0.024515973
-0.012052971 -0.005057122 -0.019575024 -0.0061937785 -0.016863616 -0.010353625 0.0007169889 -0.013137312
-0.007962977 -0.005457352 0.017357223 0.011919921 0.01680821 0.009909553 0.021351157 -0.011312217
0.02060688 -0.01677943 0.011290906 0.0067229597 -0.017404536 0.0058267782 -0.0121696 0.0101622
-0.021522043 -0.0074412604 0.022400057 -0.02331687 0.009540511 -0.013264443 0.0048054373 -0.0021704906
-0.007027396 0.018171765 0.019660976 0.018903263 -0.013985973 0.025675025 0.0030026918 -0.016970694
-0.023764955 -0.010963552 0.028598575 -0.019252893 0.011640635 -0.009694983 0.022222035 -0.007436843
-0.018408354 0.010433351 -0.016109813 -0.008272348 -0.016975164 -0.0054355464 0.0018463635 0.020041648
-0.0073928237 0.030167092 0.021698143 0.007252729 0.013629378 0.003139202 -0.0020241884 0.0037840449
-0.011370753 0.01995067 -0.00951326 -0.00520616 -0.007081217 -0.021719635 -0.00061543635 -0.020052537
0.008077235 0.0032642006 -0.021258995 0.01117207 -0.022529973 0.009519847 0.0037144173 0.010551132
-0.021797998 -0.0008055872 -0.0018218592 0.006694601 0.009878891 -0.005997261 -0.009691757 0.0058738836
-0.004148647 -0.013490993 0.013346078 0.004814841 0.02127291 0.005392716 -0.006861661 0.0051283934
-0.007289445 0.02183802 0.02061995 0.020444429 -0.027038472 0.0025697635 0.008072857 -0.025322909
-0.0072642155 0.000113035836 -0.012167825 0.004728409 -0.019326616 -0.004507543 0.0134737585 -0.02779835
-0.03330586 -0.024839355 0.0054278285 -0.010295585 0.006231748 0.019456035 -0.019942416 0.011882554
-0.017942537 -0.0046518994 -0.015891343 -0.0054329624 0.0084674135 0.018499667 0.021461677 0.004510525
0.004756751 -0.002077508 -0.024386907 -0.016441265 0.0009748494 -0.010803353 -0.03278687 0.004547242
-0.002085573 -0.015102871 -0.011484165 -0.023650166 -0.0430601 -0.017692648 -0.04093242 -0.03771277
-0.0219148 -0.037991628 -0.022655338 -0.017188033 0.0011558232 -0.020411836 0.004342503 -0.027136521
-0.031748947 -0.036695752 -0.011264943 -0.008366664 -0.03394759 -0.03436799 0.0027549013 0.019437702
0.0071962476 -0.006119669 -0.025905892 0.013137458 -0.022578184 -0.01996486 -0.004039742 -0.031251665
0.0019253027 0.014402332 0.015732868 0.008086983 -0.02033219 0.0010612046 -0.004804959 0.021137808
-0.028249685 -0.010742575 -0.025318695 0.007340767 0.015212054 0.0071628774 0.0023513194 0.0051708105
0.008261584 0.011679122 -0.020975433 -0.0150670465 -0.017282262 -0.0034473187 0.011683796 -0.027967663
0.011102012 -0.005352311 0.023935648 0.014451835 -0.0068903016 -0.018265478 -0.00837103 0.011973248
0.013657936 0.012569736 0.004105264 0.017303215 -0.02144322 -0.0133269 -0.0044325646 -0.016237687
-0.023119418 0.00050480955 -0.009611314 0.011728231 0.0051340596 -0.0033054813 0.00046018913 -0.017729534
-0.0011350209 -0.013150023 -0.00738561 0.021539342 -0.013646238 0.004106332 -0.009584752 0.0010387148
-0.015131604 -0.0025720114 -0.0040573278 -0.0127582 0.0016137782 -0.012110217 -0.0003814102 0.007907626
-0.0063827005 0.011503745 0.0062366957 0.008145608 -0.008781253 0.010100015 0.00047015358 -0.011511383

fc.1.bias f4 [64]
00000000: c80c 4a3c c671 243e 272c 0abd 0280 fa3b
00000010: cd5e 003f 6c9f 813e 8578 2cbd 99f7 68bc
00000020: f25e 633c d651 e23e 39b8 ee3e e99c 8e3e
00000030: 4b7d f73c 6548 a83d d1a1 1e3e b4ff 2c3f
00000040: 8ca6 14b9 b5f7 043c f067 39bd f7a5 debc
00000050: 5908 e13a e4d5 2b3b 912e c6bc be69 943e
00000060: 7d78 e03b f984 b5bc 2e3f eebc 44b0 453d
00000070: e87d 233e 01e0 093e 6d7b 7cb9 d85b e7bc
00000080: 5e6c a53b 0d73 093f d7ae 28bc d5eb 9d3e
00000090: 1c28 8cbc 8434 173f c0d6 013d c08a 2b3d
000000a0: 6435 efbc a48e 6e3e f408 53ba d4ee 613e
000000b0: acf2 6a3d 74ae 93bb 8b4d 9c3d af75 8f3c
000000c0: 1968 adbc 9301 e33c 7dea f63c 60db 61ba
000000d0: 04ee ab3e 706e b93e 00b6 0abb 02cb 843c
000000e0: 7343 95bc 2b67 26bd f518 4ebd f040 d13e
000000f0: b0ab b3bb 01b6 b8bc 32d0 663e 2119 853e
0.012332149 0.16059026 -0.033733513 0.0076446543 0.50144655 0.25316942 -0.042107124 -0.014219188
0.013877617 0.4420306 0.46624926 0.27854088 0.030211112 0.08216933 0.15491416 0.6757767
-0.00014176423 0.008115699 -0.04526514 -0.027178748 0.0017168625 0.0026220018 -0.024192126 0.28986925
0.006850301 -0.022158133 -0.02908286 0.048263803 0.15965998 0.13464357 -0.00024078572 -0.028242037
0.0050483188 0.5369118 -0.010295591 0.30843988 -0.01710897 0.5906451 0.031698942 0.04188037
-0.029200263 0.232966 -0.00080503454 0.22063762 0.057360336 -0.0045068804 0.07631978 0.01751217
-0.021167802 0.027710712 0.03014111 -0.0008615758 0.3358003 0.3621707 -0.002116561 0.016210083
-0.018220639 -0.040625732 -0.05031677 0.40869856 -0.005483113 -0.022547724 0.22540358 0.25995734

fc.3.weight f4 [4, 64]
00000000: 9b01 843c d09d 3d3e d04c 3d3c 6212 9c3d
00000010: 81d3 91be 30ef 083e db15 bc3d fc19 bebd
00000020: 69f0 b43d 2e63 223d 534e a23b 31ef 6dbf
00000030: e73b 143e 6739 203d 3899 c9bf c82d cf3e
00000040: 198f 3c3d 6951 76be fc9f cf3d 1e79 fe3c
00000050: ccc4 1d3e c1b5 943c 2eee 7bbd 4de2 22bf
00000060: 48da 3dbc 8405 0fbc 128f d5bd 72d4 2ebd
00000070: 36df ba3a 0ea7 473d c7ed 7b3d eb3f 583c
00000080: 508b 923d 4dc9 1ebf 05cc c7bd 1fa0 a93d
00000090: 204c 293d de9a 39be 6412 04be 31ac 983d
000000a0: c20e 1f3d 6ec9 50bd ed25 2bbd a86f dd3d
000000b0: f666 1ebe 6cbd abbe a21c 723e ca07 fb3d
000000c0: ef90 2b3d bf5a 383e 8784 843e 8d80 35bd
000000d0: dd18 93bf 5b2a 2dbd c8aa ddbc 25b8 533e
000000e0: 250a e4bc 9f88 7e3d a099 aabd 9b43 48bd
000000f0: 23a0 cd3c b8b7 84bd c2b8 003e 78bb ba3d
00000100: 2d25 2abc 175d 0bbf 2175 da3d 3c1c a9bd
00000110: eb40 35bf 1228 483e 0224 4fbd 25c9 903c
00000120: bdba 12bd 7db0 0f3d 973d 7fbf 9043 5ebd
00000130: fcb6 6b3e e60a 94bf 9976 7b3d 882b ac3e
00000140: b26f 80bc d7b2 07be d746 dc3c f8cc 603d
00000150: 085e cc3d c0da 923d a3e5 f43d 961d ef3b
00000160: d85e 1f3d c85a aebd 7094 a93d 3ac4 89bc
00000170: 9ff6 aabf 852d 4dbe 2ba0 d03d 34b8 bcbd
00000180: b9dd 5b3d 719b 453c 3401 ea3c 38d5 45bd
00000190: f76a 54bd 044f c6bd bf06 203e fb72 cd3d
000001a0: f9d9 debd d5b2 01bd 72a3 fa3a 904d 683d
000001b0: d03d 3a3e 335a edbe dee4 33bf 4b29 b3bd
000001c0: 064a 6ebd 0815 7f3e 353f 5a3e 60c4 7fbd
000001d0: c162 5e3d 95e3 dabd 12a3 a8bd 68da 1ebc
000001e0: cb4a c4bc 7001 d6bb 0f53 58bd b02a 493d
000001f0: 111a 1f3d beda d63d a390 ee3d 4060 2f3d
00000200: 81e1 c7bc 2b1f 8cbe ba50 823d 8823 9f3d
00000210: fb4c d2be 3521 d33e 4b88 a53d c773 353c
00000220: 6c7b e93d c397 2dbf 4b50 9338 aad2 8d3d
00000230: 8b42 853e d37b 8d3d f1e7 ab3c e769 983e
00000240: 7e6a 673d 4f71 a8bd 50d3 af3d 3404 c83d
00000250: 9e4a 8cbd d9f2 3b3c 2772 963d ff2a e03d
00000260: a6ed 863d be73 6b3c 4b2b d63c e064 1d40
00000270: a613 4bbc 36ed d23d 252c cc3d 866e a9bd
00000280: 886e b9bd d778 1b3c 8fd2 3d3d 3734 abbf
00000290: 7680 72bd feaa ccbd 631c 353e df4c 8bbf
000002a0: f07e c43d c29f 97bd 3002 223d c9df f03d
000002b0: 375c 723d 2181 673e 771a 9f3e cb47 263e
000002c0: 8f18 18bc 38af c1be 39cf 2a3e 88f4 3f3d
000002d0: 04e0 49bd 6144 d0bd 481b b8bc be9d c43d
000002e0: a759 c1bd bff0 b83d 83b4 363d be1d a1bf
000002f0: 8e60 453d 44d3 473c c3f4 213e 7c5e 89be
00000300: bcb1 1dbc b17a 38bd 650c 21bd ea2c 5cbd
00000310: bb52 e93c 9033 d83d cbe7 1cbd e268 9d3d
00000320: e615 a7bd 06aa 08be 9c91 9e3c f8f1 a5bd
00000330: 28fa 49bc 2132 ad3d 01b9 793d 21f6 b53e
00000340: 4ab4 43bd 6994 93be fffc 7c3b 5acd e1bd
00000350: 7d5e 06be 1cf3 75bd e1a5 90bd 5b23 c7be
00000360: 329d 143d 88b7 ecbc 0532 4fbd 2ad4 37bc
00000370: 874e a8bc b712 413e 914d d9bd 9eeb ea3d
00000380: 8fad 573e dcc7 1ebc 41dc 3f3c 3c54 ffbc
00000390: 2d74 99bd 497e 23bf ff70 163d f4c3 c53d
000003a0: 3066 7cbd fa70 babf 3621 a33d bcbe ebbf
000003b0: b071 473e e493 943e 5590 6a3e 542f f4bd
000003c0: 8fda f53d debb a13e 377c 1bbf 0b7b 9abc
000003d0: 4dd7 9a3d 2683 7bbf a4df f43c c0b2 a7bd
000003e0: 0235 dcbd ee80 df3d ea63 a63b 6b27 e83c
000003f0: 7550 df3d 0467 1bbd 8aec aabf e3ff 3a3d
0.016114047 0.18517232 0.011553958 0.07620694 -0.28481677 0.13372493 0.09183856 -0.092823
0.08834917 0.039645366 0.0049531846 -0.929431 0.14475976 0.039117243 -1.5749884 0.40464616
0.046034906 -0.24054493 0.101379365 0.031063613 0.15407103 0.018153073 -0.061506443 -0.6362656
-0.011587687 -0.008729342 -0.10427679 -0.042683072 0.0014257196 0.0487433 0.06150606 0.013198833
0.07155478 -0.6202591 -0.097557105 0.08282494 0.041332364 -0.18125483 -0.1289764 0.07454718
0.038832434 -0.05097335 -0.041784216 0.10812312 -0.15468964 -0.33542955 0.23643735 0.12257345
0.041886266 0.18003367 0.2588236 -0.04431205 -1.1491963 -0.04227672 -0.027058974 0.20675714
-0.027836869 0.06214201 -0.08330083 -0.0488926 0.025100773 -0.06480354 0.1257048 0.09117788
-0.01038484 -0.5443892 0.10666872 -0.082573384 -0.7080218 0.19546536 -0.05057145 0.017674038
-0.03582262 0.03508042 -0.99703354 -0.05426365 0.23019022 -1.1565826 0.0613924 0.33626962
-0.01567826 -0.13251816 0.026889248 0.054882973 0.099788725 0.071706295 0.11957862 0.007297228
0.03890881 -0.08513409 0.08280265 -0.0168172 -1.3356513 -0.20036896 0.101867996 -0.092148215
0.053678248 0.012060986 0.028565027 -0.048299044 -0.051859822 -0.0968304 0.15627573 0.100316964
-0.10881419 -0.03166469 0.0019122197 0.056714594 0.18187642 -0.4635788 -0.702711 -0.087481104
-0.058176063 0.24910367 0.21313174 -0.062443137 0.054293398 -0.10687939 -0.08234228 -0.009695627
-0.023961445 -0.006530933 -0.052813586 0.049112976 0.03884322 0.104909405 0.11648681 0.0428164
-0.02439952 -0.2736753 0.063630536 0.07770449 -0.41074356 0.41236272 0.080826364 0.011074967
0.11400494 -0.67809695 7.024462e-05 0.069249466 0.2602733 0.06908383 0.020984622 0.29768297
0.056498043 -0.08224737 0.085852265 0.09766427 -0.068501696 0.011471474 0.073459916 0.10945701
0.065882966 0.014370857 0.02614369 2.459282 -0.012394821 0.10299151 0.099693574 -0.08273034
-0.09054285 0.00948926 0.046343382 -1.337531 -0.05920454 -0.09993552 0.1768661 -1.0882834
0.09594524 -0.07403518 0.039552867 0.11761434 0.059169974 0.22607853 0.3107488 0.16238324
-0.009283199 -0.37828994 0.16680612 0.046864063 -0.049285904 -0.10169292 -0.022473946 0.096003994
-0.09440928 0.09030294 0.044605743 -1.2587202 0.048187785 0.012196366 0.15816025 -0.26829898
-0.009624895 -0.045038883 -0.03931846 -0.05375377 0.028481832 0.1055671 -0.038306993 0.076860204
-0.08158474 -0.13346109 0.019356541 -0.081027925 -0.012327708 0.08456827 0.06096745 0.35539344
-0.04777936 -0.28824165 0.0038602946 -0.11025496 -0.13121982 -0.0600463 -0.07062889 -0.38894162
0.036282726 -0.028896108 -0.05058481 -0.011220017 -0.020545257 0.18854795 -0.10610498 0.11470722
0.21062301 -0.009691205 0.0117102275 -0.031168096 -0.07492862 -0.6386457 0.036728855 0.09656516
-0.06162089 -1.4565728 0.07965319 -1.8417583 0.19476962 0.29019082 0.22906621 -0.119230896
0.12004577 0.31588644 -0.6073641 -0.0188575 0.075605966 -0.9824699 0.029891796 -0.08188391
-0.10752298 0.10913263 0.0050778287 0.028339108 0.10904018 -0.03794004 -1.3353436 0.04565419

fc.3.bias f4 [4]
00000000: 3956 ef3e 1de3 fb3e 7d7f fa3e 6915 f73e
0.4674547 0.4919671 0.4892539 0.48258522
