models/v17.1/model_172000.pt (torch, 729854 bytes, 10 tensors)

conv.0.weight f4 [16, 2, 3, 3]
0.15925714 0.03165492 -0.07989494 0.0061543556 0.01898252 -0.100073494 0.0015688156 -0.053271517
0.10558571 -0.24278395 0.06936464 0.0851378 0.022445966 -0.06413845 0.059907 0.069256835
0.089944415 -0.06820064 0.11924265 0.25824955 -0.029732332 -0.071196586 -0.24689308 0.14979671
-0.20407529 -0.19443128 -0.13935792 -0.038776666 -0.046540424 0.023358136 0.05582389 -0.32934672
0.038298912 0.18137473 0.07017316 0.15744069 0.05127253 0.28452852 -0.038362913 0.0043091406
0.09619363 0.19488946 0.15570293 0.4188575 0.051052693 -0.07838273 -0.28721845 0.00937423
0.0043839733 -0.06463289 -0.28119326 -0.14642721 -0.47132814 -0.015017722 0.010533295 -0.008222929
0.0589061 -0.037743416 -0.006781439 -1.2334322 0.015999673 -0.0630063 0.018108362 -0.017651783
0.011224946 -0.06567892 0.035263825 -0.018101452 0.09203957 -0.01672981 0.058460988 -0.01413834
0.01656812 -0.09765991 -0.12594262 -0.058904327 -0.148386 0.6233756 0.007231064 -0.004428777
-0.14673674 -0.020574871 0.07907832 0.1367662 0.04938902 0.13893479 0.3018093 -0.0045758053
-0.0024619221 0.111663416 0.033565056 -0.07784927 0.46876565 -0.043002713 -0.6306872 -0.031638354
-0.00040233656 -0.14153272 -0.09070953 -0.02236276 0.039761987 -0.013298261 0.046176117 0.0048614363
0.019707965 -0.01657988 0.13744086 0.06576851 -0.2502714 -0.3253044 -0.034424547 0.013382601
-0.004781859 -0.7702194 -0.40633318 -0.41336483 -0.057235558 0.23405167 0.31463662 0.01361851
-0.009741383 0.015205333 0.5046434 0.21013062 0.3346994 0.044862986 -0.43018082 -0.56900615
0.03609289 -0.11749959 0.101118386 0.10719139 -1.1046206 -0.055502117 -0.057309605 0.23918648
0.21822165 -0.05235238 0.029366944 -0.032035455 0.06962105 0.35163125 0.07592169 0.059721768
0.077288285 0.043878604 0.011905571 0.06211114 0.22861043 0.00046121608 -0.30367342 -0.46983346
-0.47793353 -0.049793247 0.09760012 0.03150119 0.04151453 0.069396764 0.12239623 -0.082315855
0.2629575 -0.012741105 -0.0008615897 -0.03799193 0.033890456 0.02081723 -0.057641327 0.4618284
-0.0008950229 -0.12428094 -0.06666015 -0.0055577713 0.032813426 -0.017790869 -0.011742683 0.0803922
-0.4709426 0.024371319 0.11650433 0.084696285 0.015102974 -0.03499506 -0.0034743128 -0.07436906
0.5760425 -0.08717634 0.020065876 -0.051311843 0.04472259 -0.019303262 0.023100395 -0.007267802
0.08569568 0.3934538 0.07572592 -0.0017006091 0.060779396 -0.053603552 -0.019641763 0.037000865
-0.053328145 0.0072016614 0.83152133 0.011917511 -0.060829233 0.04011662 -0.07900741 0.016198687
-0.06426442 0.06283175 -0.023739336 -0.07165244 -0.03631819 0.07762893 -0.03525429 0.06266054
-0.07470657 -0.15576698 -0.08533757 -0.073146775 -2.7328131 0.00565711 -0.10626701 -0.12155659
-0.12611607 0.10465563 0.0880264 0.08577343 0.05225357 0.6776177 -0.07190404 0.13293916
0.028466074 0.16141821 -0.038827285 -0.04036189 -0.071191184 -0.036874536 -0.34093451 -0.9426063
0.17650346 -0.10971225 -0.0894414 0.0156973 0.08274992 0.03677352 -0.020694794 0.12022862
0.57123864 0.10472138 0.14487283 0.07045826 -0.5485881 -0.5601758 -0.94847316 -0.08864829
00000000: 4e14 233e 97a8 013d f59f a3bd 7aaa c93b
00000010: 3b81 9b3c 55f3 ccbd b7a0 cd3a 3c33 5abd
00000020: 523d d83d 5b9c 78be 0c0f 8e3d ba5c ae3d
00000030: 9ae0 b73c 055b 83bd 0b61 753d 87d6 8d3d
00000040: c734 b83d c7ac 8bbd 7e35 f43d 4939 843e
00000050: 3891 f3bc 84cf 91bd 8ad1 7cbe 4f64 193e
00000060: 1df9 50be fe18 47be d8b3 0ebe 48d4 1ebd
00000070: 2ca1 3ebd 9059 bf3c 97a7 643d 22a0 a8be
00000080: 52df 1c3d 4cba 393e f2b6 8f3d 2238 213e
00000090: 2503 523d b9ad 913e 6e22 1dbd b133 8d3b
000000a0: 2a01 c53d 1a91 473e 9770 1f3e 7e74 d63e
000000b0: a11c 513d 2087 a0bd 4c0e 93be 5f96 193c
000000c0: 6fa7 8f3b 405e 84bd 90f8 8fbe 04f1 15be
000000d0: ec51 f1be e40c 76bc d793 2c3c 77b9 06bc
000000e0: 8647 713d d798 1abd d536 debb 1be1 9dbf
000000f0: bf11 833c 7209 81bd fd57 943c 799a 90bc
00000100: d6e8 373c ab82 86bd cd70 103d 7f49 94bc
00000110: 3e7f bc3d f40c 89bc ca74 6f3d 7fa4 67bc
00000120: deb9 873c eb01 c8bd 1af7 00be aa45 71bd
00000130: 80f2 17be 8b95 1f3f 90f2 ec3b 461f 91bb
00000140: 2842 16be a28c a8bc d0f3 a13d 700c 0c3e
00000150: 244c 4a3d ec44 0e3e c086 9a3e a3f0 95bb
00000160: 3358 21bb caaf e43d 837b 093d 706f 9fbd
00000170: 0d02 f03e 9d23 30bd b774 21bf 3897 01bd
00000180: b3f0 d2b9 f4ed 10be ebc5 b9bd 1b32 b7bc
00000190: 77dd 223d f3e0 59bc 2b23 3d3d af4c 9f3b
000001a0: 9972 a13c 87d2 87bc 4cbd 0c3e a4b1 863d
000001b0: 9323 80be 4c8e a6be c100 0dbd b242 5b3c
000001c0: 24b1 9cbb 192d 45bf e70a d0be 8ea4 d3be
000001d0: d56f 6abd 3eab 6f3e 0d18 a13e 2c20 5f3c
000001e0: 529a 1fbc ca1f 793c 4f30 013f 7b2c 573e
000001f0: b85d ab3e 40c2 373d a940 dcbe 63aa 11bf
00000200: 23d6 133d a0a3 f0bd 2817 cf3d 2987 db3d
00000210: 3564 8dbf 3056 63bd 7abd 6abd 4ded 743e
00000220: 7f75 5f3e 736f 56bd f292 f03c 9c37 03bd
00000230: 7b95 8e3d 0309 b43e d57c 9b3d d09e 743d
00000240: 5249 9e3d 0dba 333d 960f 433c 4068 7e3d
00000250: da18 6a3e 60cf f139 157b 9bbe 038e f0be
00000260: b4b3 f4be 01f4 4bbd 92e2 c73d 6407 013d
00000270: 240b 2a3d e41f 8e3d e0aa fa3d 3795 a8bd
00000280: 5ea2 863e 11c0 50bc 4edc 61ba 6d9d 1bbd
00000290: b8d0 0a3d e588 aa3c 5019 6cbd c674 ec3e
000002a0: f89f 6aba 0187 febd 1e85 88bd f71d b6bb
000002b0: 5f67 063d 28be 91bc 6264 40bc aaa4 a43d
000002c0: 631f f1be 5ca6 c73c d299 ee3d 3f75 ad3d
000002d0: 7772 773c fb56 0fbd 4cb1 63bb ce4e 98bd
000002e0: 8577 133f 8289 b2bd 3161 a43c 5e2c 52bd
000002f0: 092f 373d e021 9ebc 0a3d bd3c be26 eebb
00000300: 3781 af3d c772 c93e 3116 9b3d f9e6 deba
00000310: d1f3 783d 668f 5bbd c3e7 a0bc 388e 173d
00000320: 9d6e 5abd eafb eb3b 95de 543f aa41 433c
00000330: 1328 79bd 5351 243d a3ce a1bd 1cb3 843c
00000340: 109d 83bd efad 803d ff78 c2bc 84be 92bd
00000350: 62c2 14bd ebfb 9e3d cd66 10bd 2b54 803d
00000360: c2ff 98bd 6181 1fbe 77c5 aebd facd 95bd
00000370: 69e6 2ec0 475f b93b 85a2 d9bd a9f2 f8bd
00000380: 9224 01be b155 d63d 2f47 b43d fba9 af3d
00000390: d707 563d 5b78 2d3f 6d42 93bd 3421 083e
000003a0: af31 e93c d14a 253e 5c09 1fbd 8252 25bd
000003b0: afcc 91bd c109 17bd f88e aebe a54e 71bf
000003c0: 53bd 343e d1b0 e0bd 0d2d b7bd a097 803c
000003d0: ca78 a93d d59f 163d 2188 a9bc 6c3a f63d
000003e0: b23c 123f 2a78 d63d 8b59 143e 6c4c 903d
000003f0: 4570 0cbf ae67 0fbf 23cf 72bf 3c8d b5bd

conv.0.bias f4 [16]
-0.098138794 -0.28609678 -0.1413017 0.5281135 -0.58843935 -0.27021474 -0.019271316 -0.1995883
-0.3997061 -0.0754179 -0.67844 -0.41760135 0.2938729 -0.24773021 -0.024389027 -0.14869191
00000000: fefc c8bd 477b 92be 65b1 10be 7232 073f
00000010: f6a3 16bf 9659 8abe e1de 9dbc e060 4cbe
00000020: 47a6 ccbe b374 9abd 3eae 2dbf d8cf d5be
00000030: 8276 963e fdac 7dbe 7fcb c7bc b142 18be

conv.2.weight f4 [32, 16, 3, 3]
-0.06683491 0.014384792 -0.038415242 -0.016718522 -0.07016854 -0.020472838 0.08204005 -0.028954625
-0.09674039 0.069576316 0.10245565 0.084751874 0.14095867 0.1087081 0.030831572 0.0488898
-0.03928955 -0.042501856 0.17551781 -0.029178917 -0.047675684 -0.03202724 -0.006035596 -0.22602901
-0.12221988 -0.24334489 -0.18942887 0.013453 -0.038285274 -0.13447702 0.007126391 -0.07020812
-0.076664865 0.048692934 -0.118256494 -0.35108662 0.07204506 0.11326259 -0.2832674 -0.14333892
-0.16170332 -0.33448523 0.11498769 -0.12088721 -0.1792238 0.042302545 0.026542732 -0.08876093
0.16149458 0.08944876 -0.25761005 0.07969716 0.07016644 -0.12774254 0.044261035 0.18205683
0.01357258 0.15523759 0.046727657 -0.044105355 0.06772168 0.02099148 -0.17668733 -0.1929921
-0.03718908 0.018556997 -0.06692223 -0.017141983 -0.04171891 -0.07862076 -0.08098943 -0.13200119
0.089276075 0.066952996 0.03609081 -0.07113834 0.14843544 -0.12927395 0.09872053 -0.047600463
-0.15474017 0.09609313 -0.23569903 0.04294121 0.10848408 -0.15366124 -0.039393265 -0.16921327
-0.22851765 0.018625982 0.049416367 -0.001250206 -0.12753086 -0.028034851 0.0004252468 -0.14768414
-0.07605562 -0.030912234 -0.07168372 0.008956344 -0.008048811 -0.07382933 -0.14734383 -0.20598903
-0.1424473 -0.125053 -0.13856177 0.0059837434 0.012897401 0.04259275 0.029422095 -0.13456461
-0.008857449 0.02490194 -0.13457884 -0.14993642 -0.028184628 -0.0055684284 0.013558415 0.051301412
0.06534731 0.018686201 -0.021980198 -0.036406994 -0.042667568 0.020819208 0.020252636 -0.0017077618
-0.0071211313 -0.031826563 -0.176023 -0.09472808 -0.03790633 -0.0421214 0.087134205 -0.13127916
-0.013357759 -0.08849758 -0.10196 0.10656742 0.010068109 -0.08840715 -0.15089832 -0.07007116
0.1760048 -0.1501063 0.15008694 0.07684128 0.09788361 -0.090215854 -0.02958033 0.039961684
-0.083365954 0.1361163 -0.00018044746 0.27366886 -0.15582421 0.17386793 0.084969185 0.21442989
-0.025251955 0.05621751 0.07121562 0.24701107 0.20019606 0.27689755 -0.22059508 -0.18140902
0.3813234 0.026761353 0.077585295 -2.3792326 0.12990628 -0.08035113 0.007314781 -0.03830506
0.03171272 -0.020320276 -0.03442242 -0.017136706 -0.9675631 0.3442052 -0.026966305 -0.003831681
0.0742131 0.06588601 0.027339851 -0.043382227 -0.0098874215 -0.21507752 -0.9868821 -0.0489596
-0.25675374 -0.035334967 -0.17773373 -0.08883608 -0.027926872 0.02001227 0.11923407 0.043843497
-0.08988764 0.17336155 -0.012709025 -0.12807992 0.18924223 0.019414047 -0.037106317 0.077960156
-0.08371273 -0.23319422 0.14852285 -0.10122266 -0.16937391 0.39623407 -0.013724602 0.11362415
0.17380461 -0.21652336 0.18987252 0.047600806 0.355455 0.07594972 0.210895 0.1674234
-0.09545659 0.046541605 -0.49726072 -0.07520451 0.18827252 0.050351724 -0.19193667 0.52412397
0.10971471 -0.15984552 -0.1049318 -0.47161278 0.41078278 0.026282117 -0.21310663 -0.004098778
-0.018254843 -0.04507769 -0.0019143018 0.12284836 -0.4785793 0.16786888 0.077765115 -0.105163455
-0.053770687 -0.055600684 0.032931507 -0.00022577615 0.091645665 -1.1616689 -0.6708457 0.21982317
00000000: bee0 88bd 31ae 6b3c 4d59 1dbd 48f5 88bc
00000010: 86b4 8fbd a7b6 a7bc 9d04 a83d 4032 edbc
00000020: d31f c6bd 077e 8e3d 45d4 d13d 6492 ad3d
00000030: 7857 103e 5aa2 de3d 7e92 fc3c ac40 483d
00000040: 14ee 20bd 6d16 2ebd f1ba 333e a008 efbc
00000050: 9447 43bd ff2e 03bd 40c6 c5bb 2674 67be
00000060: 6b4e fabd 672f 79be a4f9 41be f969 5c3c
00000070: 05d1 1cbd 58b4 09be 8084 e93b 46c9 8fbd
00000080: 7802 9dbd 3e72 473d 7630 f2bd a0c1 b3be
00000090: 5c8c 933d 37f6 e73d 6d08 91be 70c7 12be
000000a0: 8e95 25be a641 abbe aa7e eb3d b793 f7bd
000000b0: 7286 37be 6f45 2d3d 2570 d93c 4ac8 b5bd
000000c0: d65e 253e e930 b73d 77e5 83be 4438 a33d
000000d0: 6cb3 8f3d f1ce 02be 0f4b 353d 1b6d 3a3e
000000e0: 875f 5e3c 9af6 1e3e 8065 3f3d d1a7 34bd
000000f0: aab1 8a3d 53f6 ab3c 86ed 34be b99f 45be
00000100: 9453 18bd d804 983c 860e 89bd 586d 8cbc
00000110: 73e1 2abd ec03 a1bd c9dd a5bd 522b 07be
00000120: 60d6 b63d a71e 893d f5d3 133d fab0 91bd
00000130: 76ff 173e 6460 04be fd2d ca3d b4f8 42bd
00000140: 3574 1ebe 7acc c43d 165b 71be 1fe3 2f3d
00000150: e72c de3d 5f59 1dbe d55a 21bd 3e46 2dbe
00000160: 8800 6abe 8495 983c d168 4a3d f4dd a3ba
00000170: 7397 02be 58a9 e5bc a9f3 de39 833a 17be
00000180: 0dc3 9bbd a73b fdbc eace 92bd a1bd 123c
00000190: 29df 03bc d533 97bd 4de1 16be caee 52be
000001a0: b4dd 11be e50d 00be 23e3 0dbe 4713 c43b
000001b0: 9f4f 533c bc75 2e3d 9b06 f13c 4ecb 09be
000001c0: d51e 11bc 27ff cb3c 09cf 09be ef88 19be
000001d0: 73e3 e6bc 5d77 b6bb 1d24 5e3c 6e21 523d
000001e0: cfd4 853d ce13 993c d10f b4bc 801f 15bd
000001f0: 30c4 2ebd 0b8d aa3c dbe8 a53c fad6 dfba
00000200: 6158 e9bb 925c 02bd 603f 34be cc00 c2bd
00000210: ab43 1bbd 7d87 2cbd 6b73 b23d 0b6e 06be
00000220: 81da 5abc 383e b5bd 68d0 d0bd 0540 da3d
00000230: b6f4 243c cf0e b5bd 1785 1abe 7881 8fbd
00000240: 9a3a 343e 77b5 19be 64b0 193e f65e 9d3d
00000250: 3477 c83d 17c3 b8bd 7352 f2bc ddae 233d
00000260: c5bb aabd 1262 0b3e 7f36 3db9 531e 8c3e
00000270: 6290 1fbe 6f0a 323e 5304 ae3d 8293 5b3e
00000280: 30dd cebc 5544 663d 7fd9 913d 78f0 7c3e
00000290: 3200 4d3e 84c5 8d3e ade3 61be 49c3 39be
000002a0: d23c c33e a03a db3c 0ae5 9e3d 5945 18c0
000002b0: 2706 053e 228f a4bd d5b0 ef3b c4e5 1cbd
000002c0: 32e5 013d b576 a6bc 86fe 0cbd 4762 8cbc
000002d0: 37b2 77bf aa3b b03e 71e8 dcbc f11c 7bbb
000002e0: 0afd 973d 3fef 863d d3f7 df3c 90b1 31bd
000002f0: dafe 21bc 483d 5cbe 4ea4 7cbf dd89 48bd
00000300: 3a75 83be 66bb 10bd d5ff 35be b1ef b5bd
00000310: e5c6 e4bc c6f0 a33c fe30 f43d 3d95 333d
00000320: 0317 b8bd b185 313e 8439 50bc 6227 03be
00000330: b7c8 413e 350a 9f3c cbfc 17bd 93a9 9f3d
00000340: 9471 abbd 77ca 6ebe 6016 183e d34d cfbd
00000350: 5b70 2dbe 31df ca3e 27dd 60bc c7b3 e83d
00000360: d6f9 313e 4db8 5dbe f16d 423e 10f9 423d
00000370: 33fe b53e 878b 9b3d dcf4 573e 0a71 2b3e
00000380: bf7e c3bd 69a2 3e3d f598 febe d204 9abd
00000390: 83ca 403e 9c3d 4e3d 0c8b 44be fd2c 063f
000003a0: 1bb2 e03d 8bae 23be 7ce6 d6bd 3b77 f1be
000003b0: 1f52 d23e 984d d73c a038 5abe 0b4f 86bb
000003c0: 2e8b 95bc 62a3 38bd 4fe9 faba ec97 fb3d
000003d0: 5908 f5be d2e5 2b3e 5143 9f3d f05f d7bd
000003e0: a73e 5cbd 8bbd 63bd 30e3 063d 53be 6cb9
000003f0: b9b0 bb3d 91b1 94bf 8bbc 2bbf 5319 613e

conv.2.bias f4 [32]
0.017375115 0.027070368 -0.070246406 0.080304205 0.03823189 -0.042627618 0.22513051 -0.07220127
-0.25071362 -0.32637033 0.14959955 0.26381436 -0.09443867 0.016393952 0.08866473 -0.1619256
0.0072309067 -0.023880009 0.19521095 -0.11431961 0.1411758 -0.068981655 -0.007723706 -0.07001246
-0.1411562 0.31113416 0.11934191 -0.12739325 -0.034954987 0.02779451 -0.09896521 0.1615794
00000000: 4256 8e3c adc2 dd3c 59dd 8fbd 8876 a43d
00000010: 0b99 1c3d 4c9a 2ebd 9d88 663e 42de 93bd
00000020: 895d 80be 031a a7be a030 193e ad12 873e
00000030: 1069 c1bd 9c4c 863c db95 b53d d3cf 25be
00000040: 3ef1 ec3b 02a0 c3bc 61e5 473e 6620 eabd
00000050: 6490 103e 4146 8dbd 2417 fdbb b162 8fbd
00000060: 408b 10be fa4c 9f3e 8869 f43d 6073 02be
00000070: f62c 0fbd 50b1 e33c 46ae cabd 1275 253e

conv.4.weight f4 [64, 32, 6, 6]
-0.012268377 -0.05806071 0.06688273 -0.015380147 0.04657678 -0.015616421 -0.03256467 0.04041147
0.02919729 0.021898901 -0.016655063 0.0390518 -0.0033677567 0.024144072 -0.025562001 -0.04407566
-0.0069101653 0.028814116 0.011917021 0.07365735 -0.0012157318 -0.05223222 -0.047902998 0.079717755
0.02469267 -0.006826441 -0.06255945 0.026131824 -0.0018433939 -0.002326119 0.006615046 -0.01674912
-0.036979526 0.0008930858 -0.04080849 -0.005478557 -0.037274376 0.033175305 0.38036367 -0.05867828
-0.33521885 -0.0005441205 0.029866513 0.082607925 0.0788391 -0.41130123 -0.23049816 0.46488297
-0.5687131 0.1952664 -0.09502308 0.07700915 0.23296157 0.27039278 0.07954657 -0.12598358
-0.06349646 -0.13456976 -0.07840542 0.2084018 0.15054622 0.12693843 0.08458214 0.21664484
0.06094541 0.21766174 -0.24810341 0.37386248 0.33099583 0.20510629 0.33008128 -0.7482181
-0.010297113 -0.044282015 -0.022909082 -0.048452295 0.010486097 -0.024874894 -0.013329154 0.004932549
-0.0016785708 0.014912149 0.02219641 0.010428611 0.0053937323 -0.013848395 -0.027940439 0.024024732
0.014493641 -0.010438555 -0.021910558 0.019673064 -0.020924404 0.01594119 -0.038435552 -0.0092676375
-0.0020982723 0.037490543 0.0022820155 0.022414481 -0.009719206 0.030482523 0.027841546 0.033024423
0.042398226 0.010884878 -0.004537736 0.0036698102 -0.18369916 0.16645859 -0.011818773 -0.2512298
-0.43705234 0.28498736 0.021815946 0.25306708 0.09436444 0.036539637 0.528767 -0.39813587
0.33978638 0.19190772 0.14613454 0.11214643 0.16317822 0.35939574 0.2994932 0.2704458
0.19766155 0.06473486 0.35521555 0.35295054 0.0028531717 0.40303633 0.3260978 0.25473773
0.49107665 -0.5545682 0.049714487 -0.50540984 -0.5250648 -0.21575932 0.24404952 -0.40405306
0.019923687 0.07835338 -0.07282217 0.29810357 0.40332216 -0.09287009 0.3762563 0.32338646
-0.41845286 -0.4187311 -0.6619339 0.007155272 -0.40983605 0.10438017 -0.34264922 -0.0031078004
0.18557599 -0.4153545 0.3042863 -0.20009887 -0.32482204 -0.25258067 -0.346636 0.062784985
0.39755145 0.031165686 -0.002701826 -0.05085586 0.09677703 0.27045426 -0.13477664 0.18477598
0.061313085 -0.07783746 0.011135022 -0.77500904 0.040001046 0.018053265 0.11935263 0.040673487
0.14124554 0.04029803 0.46431583 0.18827713 0.26481047 0.08319692 0.04361177 0.13696711
0.5394185 0.26900417 0.1442425 0.31666672 0.09936734 0.102768436 0.2896583 0.18716311
0.23052797 0.20034501 0.025156705 -0.09080342 0.027992034 0.34898487 0.32501602 0.07119283
0.0638196 -0.20183733 -0.077251256 0.11537592 0.15895955 0.047675885 0.05174516 0.11723197
0.02443063 0.07979185 0.17114922 0.102378204 0.15146318 0.04454424 0.18910216 0.14714964
0.16171493 0.17643668 0.11398059 -0.009811379 0.18462381 0.021630175 0.19567594 0.12948446
0.08921494 -0.015464468 0.048936367 -0.07862763 0.04634379 0.123368 0.14394304 0.0025628656
0.15072933 0.134658 0.055685993 0.18620515 0.08225966 0.016883416 0.16437964 -0.08307276
0.017332727 0.13991614 -0.052220467 -0.08087475 0.016148262 0.016960358 -0.014150819 0.022760727
00000000: 4d01 49bc 11d1 6dbd d0f9 883d 03fd 7bbc
00000010: 4bc7 3e3d 04dc 7fbc 8862 05bd 7f86 253d
00000020: 282f ef3c 5365 b33c 3370 88bc c8f4 1f3d
00000030: 95b5 5cbb cac9 c53c 6767 d1bc ae88 34bd
00000040: ab6e e2bb 950b ec3c 9c3f 433c aad9 963d
00000050: 3159 9fba 74f1 55bd ef35 44bd 1043 a33d
00000060: 4848 ca3c 56b0 dfbb 2b1f 80bd 6812 d63c
00000070: 099e f1ba cd71 18bb 07c3 d83b 7335 89bc
00000080: d877 17bd f91d 6a3a ce26 27bd 7885 b3bb
00000090: 04ad 18bd d4e2 073d 07bf c23e a358 70bd
000000a0: cea1 abbe 4fa3 0eba 9eaa f43c 582e a93d
000000b0: 6576 a13d 1396 d2be b607 6cbe 2405 ee3e
000000c0: 2f97 11bf eaf3 473e 769b c2bd f9b6 9d3d
000000d0: 7a8d 6e3e ec70 8a3e 50e9 a23d d701 01be
000000e0: 6f0a 82bd a8cc 09be 0593 a0bd 4867 553e
000000f0: ca28 1a3e 26fc 013e 6739 ad3d 25d8 5d3e
00000100: e5a1 793d b8e2 5e3e d20e 7ebe e76a bf3e
00000110: 4978 a93e 6207 523e 6a00 a93e 398b 3fbf
00000120: 39b5 28bc 0f61 35bd d4ab bbbc ea75 46bd
00000130: e1cd 2b3c 6fc6 cbbc 8662 5abc 38a1 a13b
00000140: 7d03 dcba 1652 743c 3fd5 b53c c4dc 2a3c
00000150: e8bd b03b 61e4 62bc 59e3 e4bc 84cf c43c
00000160: bd76 6d3c 7906 2bbc c57d b3bc 6829 a13c
00000170: a869 abbc 1997 823c 996e 1dbd 4ad7 17bc
00000180: 2b83 09bb af8f 193d de8d 153b 939e b73c
00000190: 4e3d 1fbc 7cb6 f93c f413 e43c 9e44 073d
000001a0: c3a9 2d3d 7d56 323c 4ab1 94bb 3381 703b
000001b0: a21b 3cbe 1f74 2a3e 87a3 41bc 31a1 80be
000001c0: 53c5 dfbe dde9 913e 5bb7 b23c 0292 813e
000001d0: 2542 c13d 96aa 153d 465d 073f 77d8 cbbe
000001e0: 7bf8 ad3e 7583 443e 4ba4 153e 07ad e53d
000001f0: 3118 273e b802 b83e 2c57 993e df77 8a3e
00000200: ca67 4a3e b693 843d d0de b53e efb5 b43e
00000210: 47fc 3a3b c75a ce3e 4af6 a63e fc6c 823e
00000220: 666e fb3e 2ef8 0dbf 6ba1 4b3d 8a62 01bf
00000230: a66a 06bf 03f0 5cbe 1ee8 793e 0be0 cebe
00000240: 0037 a33c bd77 a03d ca23 95bd 08a1 983e
00000250: 3e80 ce3e ac32 bebd aaa4 c03e e992 a53e
00000260: 743f d6be ec63 d6be 8074 29bf c676 ea3b
00000270: 08d6 d1be 45c5 d53d b86f afbe 3dac 4bbb
00000280: a207 3e3e 58a9 d4be 6acb 9b3e b8e6 4cbe
00000290: 134f a6be 4152 81be 467a b1be 6a95 803d
000002a0: dd8b cb3e 2e4f ff3c 1e11 31bb 3c4e 50bd
000002b0: 0933 c63d fb78 8a3e e302 0abe ea35 3d3e
000002c0: 6e23 7b3d 3f69 9fbd ab6f 363c fe66 46bf
000002d0: 23d8 233d 71e4 933c 276f f43d 3e99 263d
000002e0: aca2 103e 8c0f 253d ceba ed3e b8cb 403e
000002f0: 3d95 873e 2663 aa3d 41a2 323d 1b41 0c3e
00000300: 5517 0a3f eaba 893e 4eb4 133e 2422 a23e
00000310: 1b81 cb3d 4278 d23d 184e 943e b0a7 3f3e
00000320: 860f 6c3e 3e27 4d3e 6f15 ce3c 25f7 b9bd
00000330: 8d4f e53c 25ae b23e 8068 a63e 8ccd 913d
00000340: dab3 823d 72ae 4ebe e835 9ebd 364a ec3d
00000350: 4bc6 223e ca47 433d bcf2 533d 5117 f03d
00000360: bf22 c83c e969 a33d be41 2f3e aaab d13d
00000370: 2a19 1b3e 0574 363d ffa3 413e 65ae 163e
00000380: 9998 253e d1ab 343e a86e e93d e8bf 20bc
00000390: 060e 3d3e c431 b13c 465f 483e 9397 043e
000003a0: 53b6 b63d ae5e 7dbc 8071 483d 8607 a1bd
000003b0: fcd2 3d3d 5da8 fc3d ce65 133e c0f5 273b
000003c0: ca58 1a3e c9e3 093e ff16 643d 90ac 3e3e
000003d0: c177 a83d 174f 8a3c 2353 283e 0d22 aabd
000003e0: 5dfd 8d3c 2d46 0f3e 21e5 55bd a9a1 a5bd
000003f0: 5c49 843c 73f0 8a3c d6d8 67bc b474 ba3c

conv.4.bias f4 [64]
-0.2188267 -0.1415976 -0.355374 -0.2973917 -0.13208978 -0.26423037 -0.098668054 -0.15007147
-0.3730722 -0.046846814 -0.1608611 -0.044873416 -0.046241537 -0.46752635 -0.45205274 -0.3776354
-0.21809794 0.13318333 -0.063766755 -0.2639946 -0.33190897 -0.17050488 0.48256192 -0.21673189
-0.30920073 -0.28991723 -0.35784575 -0.2224349 -0.2813539 -0.41124427 -0.39587143 0.17390591
-0.32245725 0.338796 -0.2234986 -0.33729553 -0.338934 0.25664964 -0.19197349 -0.19277667
-0.36776093 -0.62568533 -0.05112939 -0.41048276 -0.073031485 -0.010324609 0.2766663 -0.49357104
-0.14153491 -0.31008852 -0.2747763 -0.25215685 0.008206357 -0.07289983 -0.301947 -0.5076241
-0.32881317 -0.29335496 -0.251904 0.19157761 -0.41109776 -0.0017903455 -0.3421206 -0.16071667
00000000: 1b14 60be f6fe 10be 95f3 b5be ba43 98be
00000010: 8b42 07be 3449 87be 7a12 cabd 56ac 19be
00000020: 5203 bfbe 72e2 3fbd c6b8 24be 30cd 37bd
00000030: c467 3dbd 9d5f efbe 7573 e7be 6d59 c1be
00000040: 1155 5fbe 3661 083e 2598 82bd 4d2a 87be
00000050: f9ef a9be d598 2ebe 5b12 f73e f7ee 5dbe
00000060: 8f4f 9ebe 0870 94be 8f37 b7be f9c5 63be
00000070: 9e0d 90be 9c8e d2be a9af cabe 6414 323e
00000080: 1e19 a5be ab76 ad3e d1dc 64be 00b2 acbe
00000090: c288 adbe 9567 833e b394 44be 3f67 45be
000000a0: 294b bcbe ea2c 20bf 0d6d 51bd cc2a d2be
000000b0: 8891 95bd 8c28 29bc 35a7 8d3e 58b5 fcbe
000000c0: 87ee 10be ecc3 9ebe 7baf 8cbe b41a 81be
000000d0: f573 063c 824c 95bd cc98 9abe a7f3 01bf
000000e0: 335a a8be 9f32 96be 90f9 80be ec2c 443e
000000f0: 687b d2be 07aa eaba 6e2a afbe e992 24be

fc.1.weight f4 [64, 1600]
0.0055536306 -0.0018972082 -0.016805364 0.017531613 0.0016433101 -0.024202872 -0.008367994 0.0095986
0.01979509 -0.0026915025 -0.02191629 0.018747134 -0.0022261022 -0.02133033 -0.015604952 -0.024515973
-0.012052971 -0.005057122 -0.019575024 -0.0061937785 -0.016863616 -0.010353625 0.0007169889 -0.013137312
-0.007962977 -0.005457352 0.017357223 0.011919921 0.01680821 0.009909553 0.021351157 -0.011312217
0.02060688 -0.01677943 0.011290906 0.0067229597 -0.017404536 0.0058267782 -0.0121696 0.0101622
-0.021522043 -0.0074412604 0.022400057 -0.02331687 0.009540511 -0.013264443 0.0048054373 -0.0021704906
-0.007027396 0.018171765 0.019660976 0.018903263 -0.013985973 0.025675025 0.0030026918 -0.016970694
-0.023764955 -0.010963552 0.028598575 -0.019252893 0.011640635 -0.009694983 0.022222035 -0.007436843
-0.018408354 0.010433351 -0.016109813 -0.008272348 -0.016975164 -0.0054355464 0.0018463635 0.020041648
-0.0073928237 0.030167092 0.021698143 0.007252729 0.013629378 0.003139202 -0.0020241884 0.0037840449
-0.011370753 0.01995067 -0.00951326 -0.00520616 -0.007081217 -0.021719635 -0.00061543635 -0.020052537
0.008077235 0.0032642006 -0.021258995 0.01117207 -0.022529973 0.009519847 0.0037144173 0.010551132
-0.021797998 -0.0008055872 -0.0018218592 0.006694601 0.009878891 -0.005997261 -0.009691757 0.0058738836
-0.004148647 -0.013490993 0.013346078 0.004814841 0.02127291 0.005392716 -0.006861661 0.0051283934
-0.007289445 0.02183802 0.02061995 0.020444429 -0.027038472 0.0025697635 0.008072857 -0.025322909
-0.0072642155 0.000113035836 -0.012167825 0.004728409 -0.019326616 -0.004507543 0.0134737585 -0.02779835
-0.03330586 -0.024839355 0.0054278285 -0.010295585 0.006231748 0.019456035 -0.019942416 0.011882554
-0.017942537 -0.0046518994 -0.015891343 -0.0054329624 0.0084674135 0.018499667 0.021461677 0.004510525
0.004756751 -0.002077508 -0.024386907 -0.016441265 0.0009748494 -0.010803353 -0.03278687 0.004547242
-0.002085573 -0.015102871 -0.011484165 -0.023650166 -0.0430601 -0.017692648 -0.04093242 -0.03771277
-0.0219148 -0.037991628 -0.022655338 -0.017188033 0.0011558232 -0.020411836 0.004342503 -0.027136521
-0.031748947 -0.036695752 -0.011264943 -0.008366664 -0.03394759 -0.03436799 0.0027549013 0.019437702
0.0071962476 -0.006119669 -0.025905892 0.013137458 -0.022578184 -0.01996486 -0.004039742 -0.031251665
0.0019253027 0.014402332 0.015732868 0.008086983 -0.02033219 0.0010612046 -0.004804959 0.021137808
-0.028249685 -0.010742575 -0.025318695 0.007340767 0.015212054 0.0071628774 0.0023513194 0.0051708105
0.008261584 0.011679122 -0.020975433 -0.0150670465 -0.017282262 -0.0034473187 0.011683796 -0.027967663
0.011102012 -0.005352311 0.023935648 0.014451835 -0.0068903016 -0.018265478 -0.00837103 0.011973248
0.013657936 0.012569736 0.004105264 0.017303215 -0.02144322 -0.0133269 -0.0044325646 -0.016237687
-0.023119418 0.00050480955 -0.009611314 0.011728231 0.0051340596 -0.0033054813 0.00046018913 -0.017729534
-0.0011350209 -0.013150023 -0.00738561 0.021539342 -0.013646238 0.004106332 -0.009584752 0.0010387148
-0.015131604 -0.0025720114 -0.0040573278 -0.0127582 0.0016137782 -0.012110217 -0.0003814102 0.007907626
-0.0063827005 0.011503745 0.0062366957 0.008145608 -0.008781253 0.010100015 0.00047015358 -0.011511383
00000000: 3bfb b53b beab f8ba 67ab 89bc 759e 8f3c
00000010: 5664 d73a 1a45 c6bc e919 09bc 7243 1d3c
00000020: 5029 a23c eb63 30bb cb89 b3bc 9793 993c
00000030: cce3 11bb f2bc aebc eaab 7fbc b9d5 c8bc
00000040: d379 45bc 37b6 a5bb cd5b a0bc 2ef5 cabb
00000050: 9125 8abc 40a2 29bc 50f4 3b3a e13d 57bc
00000060: 2577 02bc 96d3 b2bb bc30 8e3c c64b 433c
00000070: 5fb1 893c ae5b 223c 9fe8 ae3c e156 39bc
00000080: c2cf a83c 0475 89bc 7efd 383c 464c dc3b
00000090: f593 8ebc 8fee be3b 0163 47bc 5b7f 263c
000000a0: ff4e b0bc d1d5 f3bb 5380 b73c 0503 bfbc
000000b0: ce4f 1c3c 1b53 59bc ee76 9d3b ca3e 0ebb
000000c0: 1246 e6bb f4dc 943c 0e10 a13c 04db 9a3c
000000d0: 6c25 65bc 6e54 d23c cfc8 443b 2006 8bbc
000000e0: b9ae c2bc 78a0 33bc 8f47 ea3c 3eb8 9dbc
000000f0: 5db8 3e3c b5d7 1ebc fc0a b63c c3b0 f3bb
00000100: 1ecd 96bc a5f0 2a3c baf8 83bc be88 07bc
00000110: 800f 8bbc ab1c b2bb ae01 f23a 622e a43c
00000120: 803f f2bb fa20 f73c 4ec0 b13c 4da8 ed3b
00000130: c14d 5f3c 12bb 4d3b 3fa8 04bb bdfd 773b
00000140: 654c 3abc 966f a33c 81dd 1bbc 6f98 aabb
00000150: 8e09 e8bb 60ed b1bc 3c55 21ba 3845 a4bc
00000160: 6156 043c 33ec 553b 5827 aebc 0f0b 373c
00000170: c790 b8bc 22f9 1b3c 956d 733b a8de 2c3c
00000180: b791 b2bc 0b2e 53ba 73cb eeba 625e db3b
00000190: 12db 213c ac84 c4bb 2dca 1ebc b579 c03b
000001a0: 60f1 87bb 5309 5dbc 82a9 5a3c d0c5 9d3b
000001b0: 8744 ae3c 61b5 b03b c9d7 e0bb 150c a83b
000001c0: 4cdc eebb a6e5 b23c 2beb a83c 137b a73c
000001d0: c97f ddbc 7a69 283b 0444 043c fd71 cfbc
000001e0: a808 eebb a70d ed38 8f5b 47bc c5f0 9a3b
000001f0: da52 9ebc 03b4 93bb 0ac1 5c3c 5eb9 e3bc
00000200: ba6b 08bd e77b cbbc eddb b13b d0ae 28bc
00000210: b133 cc3b 4362 9f3c 475e a3bc 0baf 423c
00000220: 3afc 92bc f66e 98bb 902e 82bc fe06 b2bb
00000230: e8ba 0a3c 9d8c 973c 66d0 af3c 07cd 933b
00000240: 85de 9b3b cd26 08bb 0dc7 c7bc d5af 86bc
00000250: 098d 7f3a 8c00 31bc 864b 06bd 0801 953b
00000260: 1cae 08bb 0872 77bc 1428 3cbc febd c1bc
00000270: ca5f 30bd 2cf0 90bc c1a8 27bd b578 1abd
00000280: ab86 b3bc 1c9d 1bbd b097 b9bc ebcd 8cbc
00000290: fe7e 973a b936 a7bc 8e4b 8e3b 694d debc
000002a0: 2f0b 02bd 494e 16bd 9890 38bc 5514 09bc
000002b0: a10c 0bbd 73c5 0cbd 938b 343b d13b 9f3c
000002c0: 80ce eb3b 8187 c8bb 9838 d4bc 7e3e 573c
000002d0: e2f5 b8bc 598d a3bc d05f 84bb bf01 00bd
000002e0: 705a fc3a c2f7 6b3c 37e2 803c 447f 043c
000002f0: b18f a6bc 1e18 8b3a eb72 9dbb 3229 ad3c
00000300: e26b e7bc a001 30bc 2769 cfbc d18a f03b
00000310: fb3b 793c 92b6 ea3b 9818 1a3b e76f a93b
00000320: 985b 073c ca59 3f3c acd4 abbc c6db 76bc
00000330: 8893 8dbc 69ec 61bb 646d 3f3c 711c e5bc
00000340: 37e5 353c 7062 afbb b114 c43c 64c7 6c3c
00000350: 0ac8 e1bb 7ca1 95bc a526 09bc 712b 443c
00000360: 89c5 5f3c 4bf1 4d3c 7385 863b 79bf 8d3c
00000370: b1a9 afbc 1259 5abc 0c3f 91bb e604 85bc
00000380: ef64 bdbc 3255 043a c678 1dbc c427 403c
00000390: 9d3b a83b c6a0 58bb 8a45 f139 873d 91bc
000003a0: fbc4 94ba 3273 57bc fd02 f2bb 4673 b03c
000003b0: 7894 5fbc 698e 863b 5d09 1dbc 7c25 883a
000003c0: 8cea 77bc 318f 28bb 55f3 84bb c507 51bc
000003d0: 6985 d33a ee69 46bc 03f8 c7b9 fd8e 013c
000003e0: f925 d1bb 347a 3c3c 325d cc3b 2875 053c
000003f0: 3fdf 0fbc 897a 253c f27e f639 3d9a 3cbc

fc.1.bias f4 [64]
0.012332149 0.18854761 -0.033733513 0.0076446543 0.53430283 0.26164755 -0.042107124 -0.014219188
0.013877617 0.46620283 0.48871619 0.28825742 0.020348057 0.086771786 0.17045322 0.67693716
-0.00014176423 0.015527384 -0.04526514 -0.027178748 0.008497193 0.0026220018 -0.024192126 0.3035999
0.006850301 -0.022158133 -0.02908286 0.08127638 0.17639546 0.1337123 -0.005240378 -0.028242037
0.012141999 0.5515751 -0.010295591 0.31624174 -0.01710897 0.6194579 0.034022506 0.061032213
-0.029200263 0.2302564 -0.00080503454 0.24098574 0.04919331 0.0076678763 0.09615463 0.029522764
-0.021167802 0.015227524 0.057507724 -0.0008615758 0.360343 0.36066824 -0.002116561 -0.01737065
-0.018220639 -0.04560991 -0.05031677 0.4179181 -0.005483113 -0.022547724 0.22787277 0.29084626
00000000: c80c 4a3c a012 413e 272c 0abd 0280 fa3b
00000010: 12c8 083f abf6 853e 8578 2cbd 99f7 68bc
00000020: f25e 633c 23b2 ee3e 0239 fa3e 7a96 933e
00000030: f8b0 a63c 68b5 b13d 4a8b 2e3e c14b 2d3f
00000040: 8ca6 14b9 9266 7e3c f067 39bd f7a5 debc
00000050: d037 0b3c e4d5 2b3b 912e c6bc 7271 9b3e
00000060: 7d78 e03b f984 b5bc 2e3f eebc 3b74 a63d
00000070: 03a1 343e e1eb 083e 7ab7 abbb d85b e7bc
00000080: 3cef 463c 0734 0d3f d7ae 28bc 70ea a13e
00000090: 1c28 8cbc cb94 1e3f 2f5b 0b3d eafc 793d
000000a0: 6435 efbc 55c8 6b3e f408 53ba f7c4 763e
000000b0: ed7e 493d cf42 fb3b b8ec c43d b9d9 f13c
000000c0: 1968 adbc dd7c 793c 388d 6b3d 60db 61ba
000000d0: e17e b83e 82a9 b83e 00b6 0abb e54c 8ebc
000000e0: 7343 95bc 75d1 3abd f518 4ebd 5cf9 d53e
000000f0: b0ab b3bb 01b6 b8bc 7b57 693e cde9 943e

fc.3.weight f4 [4, 64]
0.016114047 0.16001426 0.011553958 0.07620694 -0.32166448 0.13173062 0.09183856 -0.092823
0.08834917 0.049195196 -0.0022431961 -0.92343765 0.1288301 0.04457885 -1.6176932 0.40326104
0.046034906 -0.24381703 0.101379365 0.031063613 0.14449252 0.018153073 -0.061506443 -0.6646969
-0.011587687 -0.008729342 -0.10427679 -0.06199463 0.004189809 0.04834651 0.06150606 0.013198833
0.11560991 -0.6065365 -0.097557105 0.071173534 0.041332364 -0.211725 -0.17409505 0.08260512
0.038832434 -0.039818827 -0.041784216 0.106325395 -0.1414885 -0.4179626 0.25374842 0.20668553
0.041886266 0.19385639 0.2596004 -0.04431205 -1.1325291 -0.041516356 -0.027058974 0.21474685
-0.027836869 0.06214201 -0.08330083 -0.05621143 0.025100773 -0.06480354 0.12509443 0.076809965
-0.01038484 -0.60190326 0.10666872 -0.082573384 -0.69803953 0.20089857 -0.05057145 0.017674038
-0.03582262 0.014065704 -0.93736506 -0.054267026 0.21944205 -1.1616808 0.060428683 0.33866826
-0.01567826 -0.124975756 0.026889248 0.054882973 0.11298074 0.071706295 0.11957862 -0.015469659
0.03890881 -0.08513409 0.08280265 -0.0047182622 -1.3632587 -0.19443664 0.101867996 -0.092148215
0.035553534 0.0073127565 0.028565027 -0.05266207 -0.051859822 -0.12337957 0.19749063 0.087485895
-0.10881419 -0.026671344 0.0019122197 0.064638294 0.17728902 -0.43937778 -0.721542 -0.050806686
-0.058176063 0.25224537 0.21009125 -0.062443137 0.0631268 -0.1587686 -0.08234228 0.032582194
-0.023961445 -0.0015424122 -0.052813586 0.050357375 0.03884322 0.104909405 0.12611458 0.028355489
-0.02439952 -0.24183962 0.063630536 0.07770449 -0.4280838 0.41899863 0.080826364 0.011074967
0.11400494 -0.69242585 0.0002127084 0.076196134 0.27728564 0.062291257 0.021207023 0.29910538
0.056498043 -0.08689749 0.085852265 0.09766427 -0.08323698 0.011471474 0.073459916 0.11155902
0.065882966 0.014370857 0.02614369 2.5006428 -0.009874542 0.12426401 0.09612606 -0.08273034
-0.19296165 0.014410681 0.046343382 -1.3513399 -0.05920454 -0.13414565 0.20599052 -1.074402
0.09594524 -0.06265927 0.039552867 0.11105408 0.056856938 0.2725741 0.33052546 0.17465872
-0.009283199 -0.3483752 0.1694638 0.046864063 -0.030762658 -0.12750764 -0.022473946 0.1370525
-0.09440928 0.09030294 0.044605743 -1.2535837 0.048187785 0.012196366 0.16075328 -0.27181393
-0.009624895 -0.055963196 -0.03931846 -0.05375377 0.0167477 0.10412103 -0.038306993 0.076860204
-0.08158474 -0.12515844 0.019092867 -0.06714316 0.019988922 0.07776354 0.08128394 0.36016497
-0.04777936 -0.26389533 0.0038602946 -0.11025496 -0.1392495 -0.0600463 -0.07062889 -0.37828705
0.036282726 -0.028896108 -0.05058481 -0.02975262 -0.011656107 0.182547 -0.10610498 0.11470722
0.18581806 0.016619615 0.0117102275 -0.030778494 -0.07492862 -0.5809313 -0.011136054 0.10535976
-0.06162089 -1.3972013 0.07965319 -1.8156258 0.17061223 0.31493962 0.22926109 -0.09051522
0.12004577 0.31005615 -0.59927285 -0.0188575 0.061975352 -0.9604235 0.029891796 -0.1470392
-0.10752298 0.10913263 0.0050778287 0.020837454 0.10904018 -0.03794004 -1.3295954 0.039981123
00000000: 9b01 843c c7da 233e d04c 3d3c 6212 9c3d
00000010: 35b1 a4be 64e4 063e db15 bc3d fc19 bebd
00000020: 69f0 b43d e780 493d 9602 13bb 6966 6cbf
00000030: 0aec 033e 5098 363d 9210 cfbf 3b78 ce3e
00000040: 198f 3c3d 2cab 79be fc9f cf3d 1e79 fe3c
00000050: d9f5 133e c1b5 943c 2eee 7bbd 9329 2abf
00000060: 48da 3dbc 8405 0fbc 128f d5bd 15ee 7dbd
00000070: aa4a 893b fd06 463d c7ed 7b3d eb3f 583c
00000080: e3c4 ec3d fa45 1bbf 05cc c7bd 6ec3 913d
00000090: 204c 293d 70ce 58be f945 32be e02c a93d
000000a0: c20e 1f3d 1119 23bd ed25 2bbd 21c1 d93d
000000b0: 5de2 10be 32ff d5be 50eb 813e 5fa5 533e
000000c0: ef90 2b3d 4a82 463e 58ea 843e 8d80 35bd
000000d0: b7f6 90bf 0e0d 2abd c8aa ddbc 99e6 5b3e
000000e0: 250a e4bc 9f88 7e3d a099 aabd f53d 66bd
000000f0: 23a0 cd3c b8b7 84bd c118 003e 8b4e 9d3d
00000100: 2d25 2abc 5516 1abf 2175 da3d 3c1c a9bd
00000110: b8b2 32bf 5bb8 4d3e 0224 4fbd 25c9 903c
00000120: bdba 12bd d773 663c 28f7 6fbf 1a47 5ebd
00000130: 6bb5 603e f5b1 94bf 1184 773d ed65 ad3e
00000140: b26f 80bc 4af3 ffbd d746 dc3c f8cc 603d
00000150: 7262 e73d c0da 923d a3e5 f43d 7474 7dbc
00000160: d85e 1f3d c85a aebd 7094 a93d a79b 9abb
00000170: 437f aebf 661a 47be 2ba0 d03d 34b8 bcbd
00000180: 95a0 113d d99f ef3b 3401 ea3c 2fb4 57bd
00000190: f76a 54bd 6eae fcbd fc3a 4a3e ce2b b33d
000001a0: f9d9 debd dd7d dabc 72a3 fa3a 1561 843d
000001b0: 418b 353e 20f6 e0be fab6 38bf ac1a 50bd
000001c0: 064a 6ebd 4e26 813e 2922 573e 60c4 7fbd
000001d0: a048 813d 3c94 22be 12a3 a8bd e874 053d
000001e0: cb4a c4bc c42a caba 0f53 58bd 8943 4e3d
000001f0: 111a 1f3d beda d63d 2e24 013e c549 e83c
00000200: 81e1 c7bc cea4 77be ba50 823d 8823 9f3d
00000210: cd2d dbbe fd86 d63e 4b88 a53d c773 353c
00000220: 6c7b e93d d242 31bf 7a0a 5f39 b80c 9c3d
00000230: 62f8 8d3e 1e25 7f3d 5aba ad3c 5724 993e
00000240: 7e6a 673d 50f7 b1bd 50d3 af3d 3404 c83d
00000250: 2678 aabd d9f2 3b3c 2772 963d 0e79 e43d
00000260: a6ed 863d be73 6b3c 4b2b d63c 880a 2040
00000270: d5c8 21bc 217e fe3d bddd c43d 866e a9bd
00000280: bd97 45be c71a 6c3c 8fd2 3d3d b5f8 acbf
00000290: 7680 72bd 7a5d 09be 2eef 523e 0186 89bf
000002a0: f07e c43d 8153 80bd 3002 223d 5270 e33d
000002b0: d2e2 683d d58e 8b3e a23a a93e bcd9 323e
000002c0: 8f18 18bc 3c5e b2be eb87 2d3e 88f4 3f3d
000002d0: f801 fcbc 5d91 02be 481b b8bc 7e57 0c3e
000002e0: a759 c1bd bff0 b83d 83b4 363d 6e75 a0bf
000002f0: 8e60 453d 44d3 473c 829c 243e 322b 8bbe
00000300: bcb1 1dbc aa39 65bd 650c 21bd ea2c 5cbd
00000310: 7932 893c 683d d53d cbe7 1cbd e268 9d3d
00000320: e615 a7bd 8929 00be a568 9c3c 5a82 89bd
00000330: cfbf a33c 7e42 9f3d 3278 a63d 8b67 b83e
00000340: 4ab4 43bd 4a1d 87be fffc 7c3b 5acd e1bd
00000350: 6c97 0ebe 1cf3 75bd e1a5 90bd d7ae c1be
00000360: 329d 143d 88b7 ecbc 0532 4fbd c4bb f3bc
00000370: 42f9 3ebc 9aed 3a3e 914d d9bd 9eeb ea3d
00000380: 1747 3e3e dc25 883c 41dc 3f3c 2e23 fcbc
00000390: 2d74 99bd eab7 14bf ff73 36bc dcc6 d73d
000003a0: 3066 7cbd 7ed7 b2bf 3621 a33d 6d66 e8bf
000003b0: f9b4 2e3e c43f a13e 6bc3 6a3e 0b60 b9bd
000003c0: 8fda f53d aebf 9e3e f269 19bf 0b7b 9abc
000003d0: ded9 7d3d 51de 75bf a4df f43c 7291 16be
000003e0: 0235 dcbd ee80 df3d ea63 a63b 4fb3 aa3c
000003f0: 7550 df3d 0467 1bbd 2f30 aabf 3fc3 233d

fc.3.bias f4 [4]
0.4685642 0.51197875 0.49745104 0.48591685
00000000: a6e7 ef3e 0a11 033f e7b1 fe3e 18ca f83e
