models/v17.1/model_118000.pt (torch, 729854 bytes, 10 tensors)

conv.0.weight f4 [16, 2, 3, 3]
00000000: f5cc 463e ebca 973c ce18 8dbd bbac 103c
00000010: b894 19bd 7dad 03bc 8dd4 bfbc 59f4 66bd
00000020: fd86 cd3d 1afc 4abe 0b9f 9e3d 8502 a13d
00000030: 4b68 813c 8697 15bd 00e9 c93d 111b 6a3d
00000040: 7bd3 ae3d 7259 a9bd e477 f23d f4f6 7b3e
00000050: 9657 23bd de80 e2bd 2542 49be 9bfe 0f3e
00000060: 1d05 42be 0e00 98be 97b2 07be 251c 26bd
00000070: 3442 c8bc 2046 14bb 6021 bd3d 6d04 86be
00000080: 975d 423d f105 6b3e ce40 073e e30e 2e3e
00000090: a63d 7a3d 098c 9f3e 3e82 76bb c544 f6bc
000000a0: 8adf e13d 74e1 9a3e d23a 563e 458e d33e
000000b0: 694b 803d 2332 ecbd 1107 8fbe e234 a23c
000000c0: 8f94 083d eabf 77bd 3527 a7be 96b8 34be
000000d0: f3cd e2be b3b3 4abd d0fa dc3c 2873 edbb
000000e0: 677b 7b3d 1383 2abd 0850 013d dac3 a7bf
000000f0: 9314 9f3c 4c59 86bd 7d25 ff3c 8c48 3abd
00000100: 4858 22bb 4d81 76bd d7c1 223d fc7f 18bd
00000110: 8018 913d 2d6a 91ba f0b0 7f3d e3ce 92bc
00000120: 9317 013d 1ce6 b3bd ae39 05be 8c5b 9dbd
00000130: b6ce 00be 0df1 173f 5d8f 033b cfc4 9b3b
00000140: 9da7 00be 7285 d8bc 25db a83d 8df6 023e
00000150: 5595 983d ce8f f23d bb37 963e 6a0e 0abc
00000160: 9b97 92bc c48e c93d 283f 8c3d 1f00 4ebd
00000170: 0645 f03e 9ef5 3bbd 77a3 13bf b691 72bc
00000180: e026 6c3c 302e 3fbe 80c0 b2bd d64b 89bd
00000190: 4aa1 253d 67c3 82bc 728a 6f3d 6853 27bd
000001a0: 6e74 34ba efb7 1dbd 8cea 043e 1e33 c93d
000001b0: ea6d b9be ffd3 d0be 711f dbbc 5745 863c
000001c0: c462 4d3d b21a 36bf 1477 b6be 4505 eebe
000001d0: 95d0 a3bd 93ad 593e 22a9 6f3e 0e1c 8a3b
000001e0: 5552 33bc 3143 8d3c 40d8 bb3e 6cb4 563e
000001f0: eb37 683e e6db 543d 1df6 14bf 9e5f 09bf
00000200: af88 3b3d b604 c0bd c8e5 bb3d 9a19 0d3e
00000210: bcc7 55bf 0b8f bdbd d04a e4bc d07a 613e
00000220: e989 8a3e 8671 a2bd 5fcc 613c b9a0 34bd
00000230: f0b0 ce3d 89a8 6f3e d73c 493d e135 663d
00000240: 8a02 ab3d 628a c53d cc19 163d ef7e a33d
00000250: 859c 5d3e 5fa9 e9bc fe3b 31be 1e06 c6be
00000260: b26a b6be e745 a7bd 4a78 043e fd1a 133c
00000270: 53f9 153d 2711 603d c972 fb3d 4c3f ccbd
00000280: 0868 d73d d95a 85bb c44d 4ebb b52a 85bd
00000290: 4adc 793d 2ef4 b83c a0c3 16bd df18 193f
000002a0: f330 01bd ec56 1ebe eeda 9bbd 5937 d13b
000002b0: df9b 493d 56ec 9dbd c60e 8cbc 2446 603d
000002c0: 6f26 2abf 7e00 2dbb f469 203e 0763 943d
000002d0: df56 9a3c e189 2dbc d543 a63c 4443 aabd
000002e0: b851 0d3f 7875 cabd c3b1 393c f29f 8fbd
000002f0: d943 223d 56ac b8bc 92b8 61ba 8d01 4739
00000300: e3dc bc3d ae58 be3e 9721 b73d 99f0 80ba
00000310: 6095 8b3d 6315 89bd 605a c9bc 0f0f 803d
00000320: 72d3 98bd 7ff0 c13b 7279 4e3f fee6 be3c
00000330: 1684 bdbd 0cce 0c3d 18b6 d7bd 240e 963c
00000340: 95ce 71bd 5d58 873d 70f0 fdbc 5219 84bd
00000350: d77f 81bd f254 da3d 0c95 42bd 07c1 e13d
00000360: 51b7 cfbd 2a0f 53be 4e46 95bd 18f5 e0bd
00000370: 16aa e7bf 701e 143d 060b ecbd 84e0 28be
00000380: e54c 20be 2609 f23d b730 073e 9ee5 a23d
00000390: ce48 bc3d a85f 8e3e b2c3 ccbd c505 083e
000003a0: 6fd6 c23d 9748 433e fd13 38bd 8d09 91bd
000003b0: c78e 52bd 26f9 7bbd a5fb b7be b739 62bf
000003c0: 503f 4e3e bfdb bbbd 371e a1bd ceba 30bd
000003d0: 93ca 793d 8d9b 0a3d 8a85 d0ba fdbb 773d
000003e0: 89a6 a03e f06d ff3d c08f 1f3e 7033 9e3d
000003f0: 6428 0ebf fd38 09bf 2f3e 66bf 970f 03be
0.19414122 0.018529376 -0.06889497 0.008830245 -0.037495345 -0.008036968 -0.023416782 -0.05638537
0.100355126 -0.19822732 0.07745179 0.07861809 0.015796801 -0.036521457 0.09858894 0.05715472
0.085364304 -0.082690135 0.118392736 0.24605924 -0.03987845 -0.11059736 -0.19654138 0.14061968
-0.18947263 -0.29687542 -0.1325172 -0.040554184 -0.02444563 -0.0022624806 0.092348814 -0.26175252
0.047452535 0.22951485 0.13208315 0.16997866 0.06109395 0.31161526 -0.0037614251 -0.030062089
0.11028965 0.30250132 0.20920876 0.4131948 0.06264383 -0.11533 -0.2793508 0.019800607
0.0333448 -0.060485758 -0.326471 -0.17648539 -0.44297752 -0.04948778 0.026975065 -0.0072463937
0.061396983 -0.04162891 0.031570464 -1.3106644 0.01941899 -0.06560001 0.031145805 -0.045479342
-0.0024771858 -0.060181905 0.03973564 -0.03723143 0.07084751 -0.0011094265 0.0624246 -0.017920917
0.031516623 -0.08784124 -0.13010284 -0.07683477 -0.12578854 0.5935219 0.0020074465 0.004753686
-0.1256394 -0.02643082 0.082449235 0.12789364 0.07450358 0.11843835 0.29339394 -0.008426288
-0.017894557 0.098416835 0.068479836 -0.050293084 0.4692766 -0.045888536 -0.576713 -0.014805248
0.014413565 -0.18669963 -0.08728123 -0.06703918 0.04043702 -0.015962316 0.05848164 -0.040851027
-0.00068838045 -0.03850549 0.12980098 0.09824203 -0.3621667 -0.4078674 -0.02674839 0.016390486
0.05014302 -0.71134484 -0.35637724 -0.46488395 -0.07998768 0.2125762 0.23404363 0.00421477
-0.010944922 0.017243953 0.36688423 0.20967263 0.22677581 0.051967524 -0.5818804 -0.53661525
0.04578465 -0.093758985 0.09174687 0.13779297 -0.83507895 -0.09255799 -0.027867705 0.22019506
0.27058342 -0.07931809 0.013781636 -0.04409859 0.10092342 0.23404135 0.049130287 0.056203727
0.08350094 0.09645535 0.036645696 0.07983195 0.21641739 -0.028523145 -0.17308041 -0.38676542
-0.35628277 -0.0816763 0.12936512 0.0089786025 0.036614727 0.054703858 0.12277753 -0.099730104
0.10517889 -0.004069668 -0.0031479457 -0.06502286 0.0610011 0.022577371 -0.036807656 0.59803575
-0.031540822 -0.15462846 -0.07610117 0.006384772 0.049220916 -0.07711093 -0.017096888 0.05475439
-0.66464895 -0.0026397998 0.15665418 0.072454505 0.018840251 -0.010591955 0.020296017 -0.08313611
0.5520282 -0.09885687 0.011333886 -0.07012929 0.039615486 -0.022543114 -0.0008610572 0.00018978697
0.09221818 0.37177032 0.08941954 -0.0009837329 0.068156004 -0.06693532 -0.024579227 0.06252872
-0.07462205 0.005918562 0.8065406 0.023303505 -0.09253709 0.03437619 -0.105327785 0.01831729
-0.059034903 0.06608651 -0.030998439 -0.06450142 -0.06323212 0.10660733 -0.047505423 0.11023145
-0.10142387 -0.20611253 -0.072888 -0.10984248 -1.8098781 0.03616184 -0.1152554 -0.16491896
-0.15654333 0.11818151 0.13202177 0.07953952 0.09193574 0.27807355 -0.099982634 0.13283451
0.09513556 0.1907066 -0.044940937 -0.070819 -0.051405694 -0.061516903 -0.35934177 -0.88369316
0.2014134 -0.091727726 -0.07867091 -0.0431469 0.060984205 0.03383975 -0.0015908938 0.060482014
0.31377056 0.12472141 0.1558218 0.07724655 -0.5553038 -0.5360258 -0.89938635 -0.12798916

conv.0.bias f4 [16]
00000000: a050 e9bc bb71 67be 0c0b f3bd 792c 163f
00000010: ef17 0ebf 48ea 7cbe 6522 8a3d 370f 2dbe
00000020: b2af c0be ff99 68bd 9e5c 26bf f8e6 ccbe
00000030: 7e81 9c3e ebac 6bbe 3018 3eba 7b91 87be
-0.028480828 -0.22601978 -0.118673414 0.5866161 -0.5550527 -0.24698746 0.067448415 -0.16900335
-0.37634045 -0.056787487 -0.6498507 -0.40019965 0.30567545 -0.23015182 -0.0007251529 -0.2647818

conv.2.weight f4 [32, 16, 3, 3]
00000000: e48d 6abd c966 663c 77e5 08bd 5be8 b1bc
00000010: da3b 87bd 908c 7dbc 3e71 b13d 8948 9ebc
00000020: eb36 c4bd bdba 983d 45d4 d13d 6492 ad3d
00000030: 7857 103e e96c de3d 7e92 fc3c ac40 483d
00000040: 14ee 20bd 6d16 2ebd f1ba 333e e5f9 0bbd
00000050: 5ec1 57bd ff2e 03bd 40c6 c5bb 2674 67be
00000060: 6b4e fabd 672f 79be 3fdc 3cbe f969 5c3c
00000070: 73e9 1cbd c4a1 04be d24d 373c ee8c 87bd
00000080: e23e 95bd bce8 573d e113 eabd a0c1 b3be
00000090: c7c7 9b3d 2833 f23d 5f79 8ebe 70c7 12be
000000a0: 8e95 25be a641 abbe aa7e eb3d b793 f7bd
000000b0: 3086 32be c7bd 413d 2570 d93c 4ac8 b5bd
000000c0: 10b1 293e f16c c13d 77e5 83be 4438 a33d
000000d0: 6cb3 8f3d f1ce 02be 0f4b 353d 0d7c 3f3e
000000e0: 875f 5e3c 9af6 1e3e 8065 3f3d d1a7 34bd
000000f0: aab1 8a3d 53f6 ab3c 86ed 34be b99f 45be
00000100: 9453 18bd d804 983c 860e 89bd 586d 8cbc
00000110: 73e1 2abd ec03 a1bd c9dd a5bd 522b 07be
00000120: 99ab bf3d 93da 873d 7f4d 283d fab0 91bd
00000130: 76ff 173e 6460 04be fd2d ca3d b4f8 42bd
00000140: 3574 1ebe 7acc c43d 165b 71be 8768 1b3d
00000150: e72c de3d 5f59 1dbe d55a 21bd 3e46 2dbe
00000160: 8800 6abe 2c88 c13c 3c44 4a3d 5490 303b
00000170: 2ff2 fabd 58a9 e5bc a9f3 de39 833a 17be
00000180: 0dc3 9bbd a73b fdbc eace 92bd ce0d 123c
00000190: 656c 85bb f7f6 8cbd 4de1 16be caee 52be
000001a0: b4dd 11be e50d 00be 23e3 0dbe 4713 c43b
000001b0: 4d9a 923c bc75 2e3d 73aa f03c f574 05be
000001c0: ea1b a3bb 27ff cb3c 09cf 09be ef88 19be
000001d0: 73e3 e6bc 5d77 b6bb 1d24 5e3c 6e21 523d
000001e0: cfd4 853d ce13 993c d10f b4bc 801f 15bd
000001f0: 30c4 2ebd 0b8d aa3c 73e7 bd3c 8c1a 503b
00000200: 6158 e9bb 925c 02bd 603f 34be cc00 c2bd
00000210: 44d3 06bd 7d87 2cbd 6b73 b23d 0b6e 06be
00000220: 81da 5abc 383e b5bd 68d0 d0bd 0540 da3d
00000230: b6f4 243c cf0e b5bd 1785 1abe 7881 8fbd
00000240: ea91 8a3e 1bf7 a2bd 5fb3 4d3e d71b 653d
00000250: 2217 203e 7f54 1a3c 1fc8 103d f8f3 413d
00000260: 0a8b 94bd 843f 8b3d 6cca c4bb 2d5e 8c3e
00000270: 528c 3bbe bdcf 363e 1df2 b53d 9ffe cd3d
00000280: 85d9 ffbd 05f0 333d 16bc 22be 8274 873e
00000290: 64af 7b3e bb18 7f3e 8bfb 90be ac1f cfbd
000002a0: 2f1d 7a3e e488 503c 9cd8 993d 85ec 05c0
000002b0: c720 9f3d 98e6 c4bd ade9 3fbd 5743 053c
000002c0: 8770 c13c 6d91 a6bb 50e0 02bd c603 01bd
000002d0: b967 85bf f57f ca3e b173 64bd 3ff3 493b
000002e0: d3df 843d 5fe7 b93d 8b53 fb3a 7156 21bd
000002f0: e3c0 12bd fd1b 7fbe 61c0 18bf bebe 88bd
00000300: ed3c a8be 38b9 093d 9a28 5ebe b4e3 1abe
00000310: 0f05 9abb 26e7 973b c4ea cc3d 8f5c 7abe
00000320: cd43 04be ca69 613d e336 d8bd 6a96 27be
00000330: c0de c93d 0725 dbbb 3b71 00bc 2221 2a3e
00000340: 0b7a bcbd 5a9a dcbd d5fd cc3d 3121 98bd
00000350: 6f62 67be bd6b af3e c1e8 3bbc 37be bf3d
00000360: 5b3c 223e c76a 90bd dcf0 d03d cb09 9d3d
00000370: 4db9 a03e 0b28 86bc fe76 fc3d e866 cb3d
00000380: 216f 09be 9457 093e 4aee c7be a60a bfbd
00000390: f596 5b3d e94b c3bd 53bd 50be 555e d43e
000003a0: 696d f63a 8efd 31be 78c6 84bd 368b 03bf
000003b0: 2236 dd3e cb04 a83d 3edd 0abe 46c7 a5bc
000003c0: 15a7 64bc 2ef7 72bd f059 31bc 8620 1c3e
000003d0: fcbf 19bf 1bb5 523e e5fb e73d 5e82 b4bd
000003e0: 95b0 8cbd daf9 1cbd d686 3bbc 704a a23c
000003f0: 0508 3a3d 1c6c 93bf c981 1abf e64c 743e
-0.057264224 0.014062592 -0.03342196 -0.021717241 -0.06603213 -0.015475407 0.08664177 -0.019321697
-0.09580787 0.074574925 0.10245565 0.084751874 0.14095867 0.10860617 0.030831572 0.0488898
-0.03928955 -0.042501856 0.17551781 -0.034173865 -0.052674644 -0.03202724 -0.006035596 -0.22602901
-0.12221988 -0.24334489 -0.18443392 0.013453 -0.038308572 -0.12952334 0.011187987 -0.06618677
-0.072873846 0.052712187 -0.11429573 -0.35108662 0.07606464 0.118261635 -0.27826974 -0.14333892
-0.16170332 -0.33448523 0.11498769 -0.12088721 -0.17434001 0.047300126 0.026542732 -0.08876093
0.1657145 0.09444607 -0.25761005 0.07969716 0.07016644 -0.12774254 0.044261035 0.18699665
0.01357258 0.15523759 0.046727657 -0.044105355 0.06772168 0.02099148 -0.17668733 -0.1929921
-0.03718908 0.018556997 -0.06692223 -0.017141983 -0.04171891 -0.07862076 -0.08098943 -0.13200119
0.093589015 0.066334866 0.04108953 -0.07113834 0.14843544 -0.12927395 0.09872053 -0.047600463
-0.15474017 0.09609313 -0.23569903 0.037941482 0.10848408 -0.15366124 -0.039393265 -0.16921327
-0.22851765 0.023624502 0.04938148 0.0026941495 -0.12253224 -0.028034851 0.0004252468 -0.14768414
-0.07605562 -0.030912234 -0.07168372 0.008914424 -0.0040717595 -0.06883042 -0.14734383 -0.20598903
-0.1424473 -0.125053 -0.13856177 0.0059837434 0.017895842 0.04259275 0.029378152 -0.13032897
-0.004977693 0.02490194 -0.13457884 -0.14993642 -0.028184628 -0.0055684284 0.013558415 0.051301412
0.06534731 0.018686201 -0.021980198 -0.036406994 -0.042667568 0.020819208 0.023181653 0.0031754104
-0.0071211313 -0.031826563 -0.176023 -0.09472808 -0.032916322 -0.0421214 0.087134205 -0.13127916
-0.013357759 -0.08849758 -0.10196 0.10656742 0.010068109 -0.08840715 -0.15089832 -0.07007116
0.2706445 -0.07957288 0.20087956 0.055934753 0.15633824 0.0094195595 0.0353471 0.047351807
-0.07253082 0.06799224 -0.006005576 0.274156 -0.18315247 0.17852683 0.0888407 0.10058331
-0.124926604 0.043930072 -0.15892062 0.26456076 0.24578625 0.24911778 -0.28316912 -0.10113463
0.24425195 0.01272795 0.07512018 -2.092561 0.07769924 -0.09614295 -0.04685371 0.008133731
0.023613228 -0.005083254 -0.031952202 -0.03149774 -1.0422279 0.39550748 -0.055774394 0.0030815152
0.064880036 0.09077334 0.0019174678 -0.039389078 -0.035828482 -0.2491302 -0.59668547 -0.06677006
-0.32858983 0.033623904 -0.21695176 -0.15125924 -0.00470031 0.0046357093 0.100057155 -0.24449371
-0.12916489 0.05503253 -0.10557344 -0.16365972 0.09856939 -0.0066877636 -0.007839496 0.16614202
-0.09202965 -0.10771628 0.10009352 -0.07428206 -0.22596143 0.34261885 -0.011469067 0.093624525
0.15843336 -0.07051616 0.1020219 0.076678835 0.31391373 -0.016376516 0.123273835 0.09931737
-0.13421299 0.13412315 -0.39048988 -0.09328203 0.05361076 -0.09535963 -0.20384721 0.4147822
0.0018800917 -0.1738188 -0.064831674 -0.51384294 0.43205363 0.08204039 -0.1356096 -0.020236623
-0.013955851 -0.05931776 -0.010824665 0.15246782 -0.6005857 0.20576899 0.11327342 -0.08813928
-0.06869618 -0.038324215 -0.011445722 0.019810885 0.045417804 -1.1517367 -0.60354286 0.2385746

conv.2.bias f4 [32]
00000000: 93cd af3c e712 7f3d 9fa0 85bd 6b90 0e3d
00000010: 1f92 9f3c 0be7 28bd 23d8 463e 42de 93bd
00000020: 50c0 5ebe 30b2 9cbe ad09 f63d fd90 7b3e
00000030: 2446 dbbd 7717 543d b13d d43d 3bae eabd
00000040: ccd8 963c 34ee 453d 9fe6 4e3e 33e3 dfbd
00000050: bf48 0c3d 4bf5 d7bc 2d2c 3dbc 15bf fabd
00000060: cb8d d5bd deb4 933e 77cb c53d 6073 02be
00000070: f62c 0fbd facd 1a3d 792b 9cbd 8de8 b03d
0.02146033 0.062273886 -0.06524777 0.034805696 0.019478856 -0.041235965 0.19418387 -0.07220127
-0.21753049 -0.30604696 0.12013564 0.24567027 -0.10706738 0.05178019 0.10363329 -0.11459013
0.018413924 0.04832287 0.20205162 -0.10932007 0.034249064 -0.026362082 -0.011546177 -0.12243477
-0.104274355 0.28848928 0.096579485 -0.12739325 -0.034954987 0.03779409 -0.07625479 0.086381055

conv.4.weight f4 [64, 32, 6, 6]
00000000: 3a01 49bc 0ed1 6dbd 9cf2 7d3d 01fd 7bbc
00000010: a328 2b3d eedb 7fbc e268 f8bc 8286 253d
00000020: 312f ef3c 1f68 ba3c 3570 88bc c6f4 1f3d
00000030: 9854 a939 26bb d23c 8aed c0bc 31b2 30bd
00000040: 4e5d 01bb 990b ec3c d1e5 893c dc05 a13d
00000050: feed 753b 6593 42bd e935 44bd 1343 a33d
00000060: 18db f23c fbd7 433b 5f2e 58bd ee44 123d
00000070: 029e f1ba be70 18bb 095f 3a3c 7235 89bc
00000080: abb2 05bd a084 8d3b d126 27bd 8385 b3bb
00000090: 7365 dbbd d87c a7be a62a 9f3d 64bc 27be
000000a0: 00fe f7be bf94 75be 01ac 293b 8dd9 2e3d
000000b0: 227e 9c3b 4e33 99be 4e46 a5be 09eb 7b3e
000000c0: 6872 b3be b5f7 043e 2491 efbc e625 c33c
000000d0: 2bb4 b43d 0f9a 8d3d f03c 7a3d 924b adbd
000000e0: bf12 7a3d d0c1 68bd d9ee 1a3c 167d ad3d
000000f0: 97a2 bcbc cd5c c9b8 943e 983c 1c2a 893d
00000100: a0cd 21bd 1fb5 be3d 3cb1 84be b15b 913d
00000110: b381 413e d86b cb3d 8064 fb3d b3a4 0abf
00000120: 31b5 28bc 4b04 21bd d5ab bbbc e875 46bd
00000130: dacd 2b3c 6ec6 cbbc 391c 09bc 45a1 a13b
00000140: 8f02 dcba 0e52 743c 46d5 b53c b8dc 2a3c
00000150: 9534 273c a5e3 11bc 5de3 e4bc 8acf c43c
00000160: d276 6d3c 7906 2bbc bf7d b3bc 86d4 c93c
00000170: a369 abbc 1797 823c 9b6e 1dbd 50d7 17bc
00000180: 2683 09bb b08f 193d d28d 153b 959e b73c
00000190: 523d 1fbc 7bb6 f93c f713 e43c 9e44 073d
000001a0: c2a9 2d3d 7e56 323c 41b1 94bb 5481 703b
000001b0: 581f a4bd a008 c63d 6825 7e3b 13c5 97be
000001c0: cd2c debe 3b23 643e 680a 04bd 56ba 883e
000001d0: 2c08 8d3d bd44 99bd a306 a13e 0cc2 acbe
000001e0: cf32 893e 3720 873e 07a4 5a3e b44b f03d
000001f0: 62f6 893e 958d 8b3e 896c 7b3e c532 a23e
00000200: d234 633e 6738 513d f54d 953e 6fdb 983e
00000210: 9cde f1b9 e0a6 933e 862d 8f3e af5a 6e3e
00000220: 8247 b43e 75fc f8be 9181 04bb 2d6f 9ebe
00000230: 4919 d5be d98c 04be d009 713e a26d 82be
00000240: da68 c0bc 66e3 62be 4230 fcbd d1bd 0c3d
00000250: 046c 363e b737 01bb 5cfd 843e ebea 883e
00000260: c2ee b5be 1fc5 8fbe 9e58 d6be e34a 12be
00000270: 74eb ffbd 2b20 663d bd59 9cbe 5c2b 16be
00000280: 649c 043e 66a3 d6be 9432 333e 1fa3 c5bd
00000290: 9818 81be 487d 4dbe 1e76 9cbe d3c7 a5bd
000002a0: 3c06 7d3e 0c92 00be 753d 50bd 82b7 5cbd
000002b0: 4201 e83b 3dce 183e c38d 833d 8ad5 853d
000002c0: 0835 d33c f261 93bd e538 b4bb 3be5 cbbe
000002d0: 77c4 083e 8eff 793d 743a 723d a6cd d13c
000002e0: 9184 68bd 46ac fa3b 8bca 843e 026a d6ba
000002f0: ce02 073e b44e a43d 56af d53b 465b e73d
00000300: eb23 a43e a408 d5bc d202 2e3e 1ff4 6b3e
00000310: cc4a a43d e167 803d 7e14 7d3e f34b a83d
00000320: d5a2 783e 164e 463e 3a57 473d b0dc 83bc
00000330: aa51 5dbd 080f 2d3e 4898 6a3e a760 9d3d
00000340: 2d32 593d 18cb 7dbd 05cc 6dbd 51b7 4e3d
00000350: 0852 d83d d876 ba3d 7120 d23d cdd0 7a3d
00000360: ea2c 05bd 1945 693c 5fcb 423e 8550 a53d
00000370: 6297 a33d 9405 27bc bf25 283e 3d64 f03d
00000380: c56c ec3d 732f 293e d6f8 8a3d 3d28 b33b
00000390: 5694 743e 0877 0ebc 8c1d 093e 00df f13d
000003a0: 4477 e93d dfb5 b63d 980c 173d 0cd7 43bd
000003b0: d102 8b3d 8fe6 093e e11f 1f3e 9ddd 45bc
000003c0: 1a4a 023e 362d e83d 55a8 933c 5b29 293e
000003d0: c6bb a53d ed7c 5cbb 2741 a9bb 087b febd
000003e0: 7f03 8a3c aa47 293e 4593 8bbd 287b 52be
000003f0: 5c49 843c 73f0 8a3c d6d8 67bc b474 ba3c
-0.012268359 -0.0580607 0.06199895 -0.015380145 0.0417868 -0.0156164 -0.03032345 0.04041148
0.029197307 0.022754727 -0.016655067 0.039051794 0.0003229722 0.025724005 -0.023550767 -0.043138687
-0.0019739452 0.028814124 0.016833218 0.07862446 0.0037525888 -0.047503848 -0.047902975 0.07971778
0.029645488 0.0029883373 -0.052778598 0.035710268 -0.0018433931 -0.002326056 0.011375197 -0.016749118
-0.032641094 0.0043187886 -0.040808503 -0.0054785623 -0.10712709 -0.32712436 0.077718064 -0.16380459
-0.48435974 -0.23982523 0.0025889876 0.04268794 0.0047757784 -0.29921955 -0.322802 0.24601378
-0.35048223 0.12985118 -0.029244013 0.023821782 0.08823427 0.0691415 0.06109327 -0.084616795
0.061053034 -0.05682546 0.00945636 0.08471124 -0.023026748 -9.6017124e-05 0.018584527 0.06697485
-0.03950274 0.0931189 -0.2591647 0.07097567 0.18897133 0.09932679 0.12275028 -0.5415756
-0.010297106 -0.039310735 -0.022909084 -0.048452288 0.010486091 -0.024874892 -0.008368545 0.004932555
-0.001678543 0.0149121415 0.022196423 0.0104286 0.010205408 -0.008904372 -0.027940447 0.024024744
0.014493661 -0.010438555 -0.021910546 0.024637472 -0.020924395 0.015941186 -0.03843556 -0.009267643
-0.0020982712 0.037490547 0.0022820127 0.022414485 -0.00971921 0.030482521 0.027841551 0.033024423
0.04239822 0.010884879 -0.004537732 0.003669818 -0.08013791 0.09669614 0.003877962 -0.29642543
-0.43393555 0.22279064 -0.032236487 0.26704663 0.06886324 -0.07483814 0.31450376 -0.33741796
0.26796576 0.26391765 0.21351634 0.11733189 0.26945788 0.27256456 0.24553122 0.3167936
0.22188118 0.05107918 0.2916104 0.29854915 -0.0004613296 0.28838253 0.2796442 0.2327678
0.35210806 -0.4863011 -0.002021883 -0.30944195 -0.41620854 -0.12944354 0.235389 -0.25474268
-0.023487497 -0.22157058 -0.12313892 0.03436071 0.17814642 -0.0019717047 0.25974548 0.26741728
-0.3553372 -0.2808008 -0.41864485 -0.1428638 -0.12496081 0.05618302 -0.30537215 -0.14664978
0.12950283 -0.41921538 0.17499763 -0.096502535 -0.25214076 -0.20067322 -0.30558866 -0.08094754
0.2470941 -0.12555712 -0.05083986 -0.053885944 0.007080228 0.14922424 0.06423523 0.0653487
0.025782123 -0.07196416 -0.0054999464 -0.39823326 0.13356195 0.06103473 0.059137776 0.025610756
-0.05676705 0.007649931 0.25935778 -0.0016358497 0.13184664 0.08022824 0.006521146 0.11296706
0.32058653 -0.026005097 0.16993263 0.23042344 0.08022079 0.06269813 0.24714848 0.08217611
0.24280865 0.19365725 0.04866717 -0.016096443 -0.05403296 0.16900265 0.22909653 0.076844506
0.053026367 -0.061961263 -0.058055896 0.050467793 0.10562521 0.09104699 0.10260094 0.061234284
-0.032513537 0.014237666 0.19022892 0.080719985 0.07987858 -0.010194201 0.16420649 0.11737869
0.11544184 0.16522007 0.06785743 0.0054674433 0.2388471 -0.008695371 0.13390177 0.11810112
0.11399701 0.08921408 0.036877245 -0.047812507 0.067876466 0.13466857 0.15539505 -0.0120767625
0.1272358 0.11336748 0.018024603 0.16519682 0.080924556 -0.0033643798 -0.0051652375 -0.1242581
0.01684737 0.16531244 -0.06815199 -0.20554793 0.016148262 0.016960358 -0.014150819 0.022760727

conv.4.bias f4 [64]
00000000: 88f2 32be b8aa a73b c51d 91be 1ed7 55be
00000010: 9522 87bd 59da 5bbe bbae 9ebd 3e77 fdbd
00000020: 1d2c 81be c110 32bd da62 f7bd edb4 89bd
00000030: c467 3dbd 3e76 b7be 1abf a6be 9cc2 85be
00000040: 6c41 21be 4374 243e 2598 82bd 8449 02be
00000050: 32af 90be 13c3 f7bd e17f d93e de5d 47be
00000060: b7e0 69be a533 76be 7e56 a0be 6f4e 2fbe
00000070: 34b7 87be dbbe 91be 5e72 96be 3045 343e
00000080: 5e51 87be 5078 a83e 0367 adbd d0b0 8cbe
00000090: 8af1 6ebe 345f 793e a387 1dbe d76a 30be
000000a0: 5660 9ebe 94cb d7be 0d6d 51bd 15a9 a1be
000000b0: 8891 95bd 6d06 8abb 683b 8d3e 0d97 bdbe
000000c0: 6bbd c6bd 310c 54be c795 2dbe d7a0 2ebe
000000d0: 9a64 b63b e6cf 9abd 19c9 39be 24c3 bcbe
000000e0: 67ca a6be 4db0 80be aa4f 3ebe fbc9 1a3e
000000f0: 0380 a9be 188d 8abc f156 5ebe 8411 0bbe
-0.17475331 0.005116787 -0.28343025 -0.20882842 -0.06598393 -0.21470012 -0.07748171 -0.12376259
-0.25228968 -0.04347301 -0.12079401 -0.06723962 -0.046241537 -0.358324 -0.32567674 -0.26125038
-0.15747613 0.16059975 -0.063766755 -0.12723356 -0.28258663 -0.12097754 0.42480376 -0.19469401
-0.22839628 -0.24043138 -0.31315988 -0.17119764 -0.2650696 -0.28465924 -0.2938413 0.17604518
-0.26429266 0.3290429 -0.084669136 -0.27478647 -0.23334327 0.24352723 -0.15383773 -0.17228256
-0.30932873 -0.42147505 -0.05112939 -0.31574312 -0.073031485 -0.004212192 0.27584386 -0.37029305
-0.09704097 -0.20707776 -0.16951667 -0.17053543 0.005566192 -0.07559185 -0.18143119 -0.3686763
-0.32576296 -0.25134507 -0.18585077 0.15116112 -0.33105478 -0.016912982 -0.21712853 -0.135809

fc.1.weight f4 [64, 1600]
00000000: 3bfb b53b beab f8ba 67ab 89bc 759e 8f3c
00000010: 5664 d73a 1a45 c6bc e919 09bc 7243 1d3c
00000020: 5029 a23c eb63 30bb cb89 b3bc 9793 993c
00000030: cce3 11bb f2bc aebc eaab 7fbc b9d5 c8bc
00000040: d379 45bc 37b6 a5bb cd5b a0bc 2ef5 cabb
00000050: 9125 8abc 40a2 29bc 50f4 3b3a e13d 57bc
00000060: 2577 02bc 96d3 b2bb bc30 8e3c c64b 433c
00000070: 5fb1 893c ae5b 223c 9fe8 ae3c e156 39bc
00000080: c2cf a83c 0475 89bc 7efd 383c 464c dc3b
00000090: f593 8ebc 8fee be3b 0163 47bc 5b7f 263c
000000a0: ff4e b0bc d1d5 f3bb 5380 b73c 0503 bfbc
000000b0: ce4f 1c3c 1b53 59bc ee76 9d3b ca3e 0ebb
000000c0: 1246 e6bb f4dc 943c 0e10 a13c 04db 9a3c
000000d0: 6c25 65bc 6e54 d23c cfc8 443b 2006 8bbc
000000e0: b9ae c2bc 78a0 33bc 8f47 ea3c 3eb8 9dbc
000000f0: 5db8 3e3c b5d7 1ebc fc0a b63c c3b0 f3bb
00000100: 1ecd 96bc a5f0 2a3c baf8 83bc be88 07bc
00000110: 800f 8bbc ab1c b2bb ae01 f23a 622e a43c
00000120: 803f f2bb fa20 f73c 4ec0 b13c 4da8 ed3b
00000130: c14d 5f3c 12bb 4d3b 3fa8 04bb bdfd 773b
00000140: 654c 3abc 966f a33c 81dd 1bbc 6f98 aabb
00000150: 8e09 e8bb 60ed b1bc 3c55 21ba 3845 a4bc
00000160: 6156 043c 33ec 553b 5827 aebc 0f0b 373c
00000170: c790 b8bc 22f9 1b3c 956d 733b a8de 2c3c
00000180: b791 b2bc 0b2e 53ba 73cb eeba 625e db3b
00000190: 12db 213c ac84 c4bb 2dca 1ebc b579 c03b
000001a0: 60f1 87bb 5309 5dbc 82a9 5a3c d0c5 9d3b
000001b0: 8744 ae3c 61b5 b03b c9d7 e0bb 150c a83b
000001c0: 4cdc eebb a6e5 b23c 2beb a83c 137b a73c
000001d0: c97f ddbc 7a69 283b 0444 043c fd71 cfbc
000001e0: a808 eebb a70d ed38 8f5b 47bc c5f0 9a3b
000001f0: da52 9ebc 03b4 93bb 0ac1 5c3c 5eb9 e3bc
00000200: ba6b 08bd e77b cbbc eddb b13b d0ae 28bc
00000210: b133 cc3b 4362 9f3c 475e a3bc 0baf 423c
00000220: 3afc 92bc f66e 98bb 902e 82bc fe06 b2bb
00000230: e8ba 0a3c 9d8c 973c 66d0 af3c 07cd 933b
00000240: 85de 9b3b cd26 08bb 0dc7 c7bc d5af 86bc
00000250: 098d 7f3a 8c00 31bc 864b 06bd 0801 953b
00000260: 1cae 08bb 0872 77bc 1428 3cbc febd c1bc
00000270: ca5f 30bd 2cf0 90bc c1a8 27bd b578 1abd
00000280: ab86 b3bc 1c9d 1bbd b097 b9bc ebcd 8cbc
00000290: fe7e 973a b936 a7bc 8e4b 8e3b 694d debc
000002a0: 2f0b 02bd 494e 16bd 9890 38bc 5514 09bc
000002b0: a10c 0bbd 73c5 0cbd 938b 343b d13b 9f3c
000002c0: 80ce eb3b 8187 c8bb 9838 d4bc 7e3e 573c
000002d0: e2f5 b8bc 598d a3bc d05f 84bb bf01 00bd
000002e0: 705a fc3a c2f7 6b3c 37e2 803c 447f 043c
000002f0: b18f a6bc 1e18 8b3a eb72 9dbb 3229 ad3c
00000300: e26b e7bc a001 30bc 2769 cfbc d18a f03b
00000310: fb3b 793c 92b6 ea3b 9818 1a3b e76f a93b
00000320: 985b 073c ca59 3f3c acd4 abbc c6db 76bc
00000330: 8893 8dbc 69ec 61bb 646d 3f3c 711c e5bc
00000340: 37e5 353c 7062 afbb b114 c43c 64c7 6c3c
00000350: 0ac8 e1bb 7ca1 95bc a526 09bc 712b 443c
00000360: 89c5 5f3c 4bf1 4d3c 7385 863b 79bf 8d3c
00000370: b1a9 afbc 1259 5abc 0c3f 91bb e604 85bc
00000380: ef64 bdbc 3255 043a c678 1dbc c427 403c
00000390: 9d3b a83b c6a0 58bb 8a45 f139 873d 91bc
000003a0: fbc4 94ba 3273 57bc fd02 f2bb 4673 b03c
000003b0: 7894 5fbc 698e 863b 5d09 1dbc 7c25 883a
000003c0: 8cea 77bc 318f 28bb 55f3 84bb c507 51bc
000003d0: 6985 d33a ee69 46bc 03f8 c7b9 fd8e 013c
000003e0: f925 d1bb 347a 3c3c 325d cc3b 2875 053c
000003f0: 3fdf 0fbc 897a 253c f27e f639 3d9a 3cbc
0.0055536306 -0.0018972082 -0.016805364 0.017531613 0.0016433101 -0.024202872 -0.008367994 0.0095986
0.01979509 -0.0026915025 -0.02191629 0.018747134 -0.0022261022 -0.02133033 -0.015604952 -0.024515973
-0.012052971 -0.005057122 -0.019575024 -0.0061937785 -0.016863616 -0.010353625 0.0007169889 -0.013137312
-0.007962977 -0.005457352 0.017357223 0.011919921 0.01680821 0.009909553 0.021351157 -0.011312217
0.02060688 -0.01677943 0.011290906 0.0067229597 -0.017404536 0.0058267782 -0.0121696 0.0101622
-0.021522043 -0.0074412604 0.022400057 -0.02331687 0.009540511 -0.013264443 0.0048054373 -0.0021704906
-0.007027396 0.018171765 0.019660976 0.018903263 -0.013985973 0.025675025 0.0030026918 -0.016970694
-0.023764955 -0.010963552 0.028598575 -0.019252893 0.011640635 -0.009694983 0.022222035 -0.007436843
-0.018408354 0.010433351 -0.016109813 -0.008272348 -0.016975164 -0.0054355464 0.0018463635 0.020041648
-0.0073928237 0.030167092 0.021698143 0.007252729 0.013629378 0.003139202 -0.0020241884 0.0037840449
-0.011370753 0.01995067 -0.00951326 -0.00520616 -0.007081217 -0.021719635 -0.00061543635 -0.020052537
0.008077235 0.0032642006 -0.021258995 0.01117207 -0.022529973 0.009519847 0.0037144173 0.010551132
-0.021797998 -0.0008055872 -0.0018218592 0.006694601 0.009878891 -0.005997261 -0.009691757 0.0058738836
-0.004148647 -0.013490993 0.013346078 0.004814841 0.02127291 0.005392716 -0.006861661 0.0051283934
-0.007289445 0.02183802 0.02061995 0.020444429 -0.027038472 0.0025697635 0.008072857 -0.025322909
-0.0072642155 0.000113035836 -0.012167825 0.004728409 -0.019326616 -0.004507543 0.0134737585 -0.02779835
-0.03330586 -0.024839355 0.0054278285 -0.010295585 0.006231748 0.019456035 -0.019942416 0.011882554
-0.017942537 -0.0046518994 -0.015891343 -0.0054329624 0.0084674135 0.018499667 0.021461677 0.004510525
0.004756751 -0.002077508 -0.024386907 -0.016441265 0.0009748494 -0.010803353 -0.03278687 0.004547242
-0.002085573 -0.015102871 -0.011484165 -0.023650166 -0.0430601 -0.017692648 -0.04093242 -0.03771277
-0.0219148 -0.037991628 -0.022655338 -0.017188033 0.0011558232 -0.020411836 0.004342503 -0.027136521
-0.031748947 -0.036695752 -0.011264943 -0.008366664 -0.03394759 -0.03436799 0.0027549013 0.019437702
0.0071962476 -0.006119669 -0.025905892 0.013137458 -0.022578184 -0.01996486 -0.004039742 -0.031251665
0.0019253027 0.014402332 0.015732868 0.008086983 -0.02033219 0.0010612046 -0.004804959 0.021137808
-0.028249685 -0.010742575 -0.025318695 0.007340767 0.015212054 0.0071628774 0.0023513194 0.0051708105
0.008261584 0.011679122 -0.020975433 -0.0150670465 -0.017282262 -0.0034473187 0.011683796 -0.027967663
0.011102012 -0.005352311 0.023935648 0.014451835 -0.0068903016 -0.018265478 -0.00837103 0.011973248
0.013657936 0.012569736 0.004105264 0.017303215 -0.02144322 -0.0133269 -0.0044325646 -0.016237687
-0.023119418 0.00050480955 -0.009611314 0.011728231 0.0051340596 -0.0033054813 0.00046018913 -0.017729534
-0.0011350209 -0.013150023 -0.00738561 0.021539342 -0.013646238 0.004106332 -0.009584752 0.0010387148
-0.015131604 -0.0025720114 -0.0040573278 -0.0127582 0.0016137782 -0.012110217 -0.0003814102 0.007907626
-0.0063827005 0.011503745 0.0062366957 0.008145608 -0.008781253 0.010100015 0.00047015358 -0.011511383

fc.1.bias f4 [64]
00000000: c80c 4a3c e566 fb3d 272c 0abd 0280 fa3b
00000010: 912b db3e f9ca 6d3e 9dfe 17bd c611 17bc
00000020: ec6c 673c 0a2b c13e fcbd c03e 8697 6d3e
00000030: 846f da3c 88aa 343d c513 0e3e 60e5 283f
00000040: 8ca6 14b9 3410 aebb 57f1 24bd f7a5 debc
00000050: e496 6dba e4d5 2b3b e7c3 c8bc 462e 4c3e
00000060: 219a 373c f984 b5bc 2e3f eebc 9bee 6a3c
00000070: 5db8 d73d 0c2a 0d3e 22d9 1c3b d85b e7bc
00000080: 3141 08bc 1a8f d33e d999 adbb a498 953e
00000090: 1c28 8cbc 9e10 e13e 5857 7a3c 9b40 9a3c
000000a0: 6435 efbc 925d 453e 3562 893b 9dc6 1f3e
000000b0: c5a1 a13d b86b 423c b4c2 8d3d 4f41 27bb
000000c0: 1d74 84bc 10f6 9c3c b87c fe3c 60db 61ba
000000d0: c87f 8d3e db0b a93e 7ae4 3c3b 2adb 333c
000000e0: 7343 95bc 52cb 0ebd f518 4ebd 7f68 c13e
000000f0: 18e7 a2bb 01b6 b8bc e738 0f3e 0bc1 4d3e
0.012332149 0.12275485 -0.033733513 0.0076446543 0.42806676 0.23221959 -0.037108053 -0.009220546
0.01412509 0.3772815 0.37644947 0.23202333 0.026664503 0.044107944 0.13874729 0.65975
-0.00014176423 -0.00531199 -0.040269222 -0.027178748 -0.0009063317 0.0026220018 -0.024507476 0.19939527
0.011206181 -0.022158133 -0.02908286 0.014339115 0.105332114 0.13785571 0.0023933132 -0.028242037
-0.008316324 0.41320115 -0.005297881 0.29218018 -0.01710897 0.4395799 0.015279613 0.018829634
-0.029200263 0.19273975 0.0041926154 0.15603109 0.07892183 0.011866502 0.06921902 -0.0025521105
-0.016168648 0.0191603 0.03106533 -0.0008615758 0.27636552 0.33016858 0.0028822706 0.010977546
-0.018220639 -0.03486187 -0.05031677 0.37775037 -0.004971396 -0.022547724 0.1398655 0.20093171

fc.3.weight f4 [4, 64]
00000000: 9b01 843c e7f7 533e d04c 3d3c 6212 9c3d
00000010: dd95 80be 66ed 233e db15 bc3d fc19 bebd
00000020: ac2d bf3d ac62 213d 0369 813c 6c9a 6dbf
00000030: 861f 6e3d 00e0 263d 96c5 bbbf 9211 d13e
00000040: 198f 3c3d 3679 73be fc9f cf3d 1e79 fe3c
00000050: cd62 503e c1b5 943c 2eee 7bbd 1743 eebe
00000060: 809f 7fbc 8405 0fbc 128f d5bd 81b3 38bd
00000070: 2fc4 de3b 16dc b03d 274a 883d eb3f 583c
00000080: bf79 a53d 873d 33bf e5f4 d1bd 2862 d23d
00000090: 204c 293d 8524 43be f2fe 16bc ec33 953d
000000a0: c20e 1f3d 8093 8ebd ed25 2bbd fc0e 093e
000000b0: a174 25be ac59 9abe ca3c 793e 5de4 f03d
000000c0: ef90 2b3d 4730 4f3e e641 8e3e 8d80 35bd
000000d0: 3444 9fbf 2f32 0bbd 124e 03bd d63a be3d
000000e0: 250a e4bc fcaf 5e3d a099 aabd 0f96 adbd
000000f0: a327 bb3c b8b7 84bd 9127 2e3e 0636 db3d
00000100: 2d25 2abc 681b b4be 2175 da3d 3c1c a9bd
00000110: a822 25bf 817a 383e 0224 4fbd d4ba b93c
00000120: 54b9 debc dd94 f83a 0c81 96bf 742c 41bd
00000130: c8cc ed3d acf1 8cbf 1771 c43d 6b4c ac3e
00000140: b26f 80bc a51d 16be d746 dc3c f8cc 603d
00000150: 31b7 b73d c0da 923d 61dc fe3d 9cc5 77bd
00000160: c1e6 323d c85a aebd 7094 a93d 7a2d e8bc
00000170: 97d6 aebf 0b1b 7dbe 5bae d23d 34b8 bcbd
00000180: c7ce 2d3c 6aa0 82bb 3401 ea3c 6efc 5abd
00000190: f76a 54bd 072c 08be f6ba 09bc c2d8 e13d
000001a0: f9d9 debd 679e 3bbd 72a3 fa3a 5102 b03d
000001b0: 2463 5e3e 0485 d3be eeea 14bf a12a e4bd
000001c0: 5e5f 81bd 77e3 a93e dac0 8d3e 60c4 7fbd
000001d0: 77fa 403d 63a6 01be 12a3 a8bd 615a 7fbb
000001e0: cb4a c4bc 20d7 87bb 0f53 58bd d22e 653d
000001f0: bb92 333d beda d63d d46e 2e3e bb2b 213d
00000200: 81e1 c7bc 7afe 6abe ba50 823d 8823 9f3d
00000210: 4d00 fabe 2979 d93e 6bc2 af3d c773 353c
00000220: cd0d f23d d6cc 3cbf a52d 5b3b fdcc f13d
00000230: 650a f23d 571d b23d cdd5 243d 3249 9c3e
00000240: 7e6a 673d 3f11 14be 50d3 af3d 3404 c83d
00000250: 46a2 7bbd d9f2 3b3c 0f36 8c3d 6e18 e23d
00000260: a6ed 863d be73 6b3c 4b2b d63c 7a05 1540
00000270: 4158 10bc 5791 033e 63f2 c73d 866e a9bd
00000280: 615e b9bd 28f6 753b 8fd2 3d3d 7f2c a8bf
00000290: 7680 72bd 5edf 1abe 66a4 7d3d 875b 87bf
000002a0: f07e c43d d4e3 d4bd 676c 363d e175 033e
000002b0: d740 8f3d 481f 753e b57d 973e 69e0 a43d
000002c0: 8f18 18bc 6948 dcbe def8 363e 88f4 3f3d
000002d0: 5d32 bcbd 6264 0ebe 481b b8bc aef9 2e3c
000002e0: a759 c1bd b841 cd3d 83b4 363d 7e13 a0bf
000002f0: d17c 453d 44d3 473c 5142 513e a6fd 97be
00000300: bcb1 1dbc 23ec 3ebd 650c 21bd ea2c 5cbd
00000310: 5681 a33d 0db5 d63d cbe7 1cbd e268 9d3d
00000320: 8234 bbbd 5b90 14be 5304 92ba 7a52 cfbd
00000330: 7d20 9cbd 62d2 d83d 54a5 8d3d ea93 ac3e
00000340: 4ab4 43bd b535 9fbe d81c 113c 5acd e1bd
00000350: e441 b2bd 1cf3 75bd 14da 9abd 76cd b8be
00000360: 329d 143d 88b7 ecbc 0532 4fbd 5afc 01bc
00000370: 4082 af3b ebc9 803e 914d d9bd 9eeb ea3d
00000380: d4ef f53d 65ae 43bd 41dc 3f3c 0011 55bd
00000390: 2d74 99bd 5465 3bbf 751d f1bb 100d f83d
000003a0: 3066 7cbd d7b3 c4bf 3621 a33d b46d e4bf
000003b0: f262 773e 5992 a43e f7e4 853e 0140 f5bd
000003c0: 8fda f53d 9d1a aa3e f3dd 13bf 0b7b 9abc
000003d0: edc8 cf3d b39d 82bf a4df f43c baf0 e2bb
000003e0: 0235 dcbd cef2 f33d ea63 a63b 5e43 033d
000003f0: 7550 df3d 0467 1bbd a437 9bbf 1fb5 9f3d
0.016114047 0.20700036 0.011553958 0.07620694 -0.25114337 0.16008529 0.09183856 -0.092823
0.09334883 0.03940074 0.015797144 -0.92813754 0.05813553 0.040740967 -1.4669673 0.40833718
0.046034906 -0.23776707 0.101379365 0.031063613 0.2035019 0.018153073 -0.061506443 -0.4653556
-0.015601993 -0.008729342 -0.10427679 -0.045093063 0.0067982893 0.08635728 0.066547684 0.013198833
0.08079862 -0.7001576 -0.10251788 0.10272628 0.041332364 -0.190569 -0.009216057 0.07285294
0.038832434 -0.06961727 -0.041784216 0.13384622 -0.16157772 -0.3014654 0.24339595 0.11762307
0.041886266 0.2023326 0.27784652 -0.04431205 -1.2442689 -0.033983406 -0.032056876 0.09288566
-0.027836869 0.05436705 -0.08330083 -0.08475887 0.022846049 -0.06480354 0.17007281 0.107036635
-0.01038484 -0.3517716 0.10666872 -0.082573384 -0.64506006 0.18015482 -0.05057145 0.022672094
-0.02718798 0.0018965263 -1.1758132 -0.047161534 0.116113245 -1.1011252 0.09591883 0.33652052
-0.01567826 -0.14659746 0.026889248 0.054882973 0.08970488 0.071706295 0.12444378 -0.06049119
0.043677095 -0.08513409 0.08280265 -0.028341997 -1.3659238 -0.24717347 0.10287162 -0.092148215
0.010608382 -0.003986408 0.028565027 -0.053463392 -0.051859822 -0.13298045 -0.008406391 0.110276714
-0.10881419 -0.04580536 0.0019122197 0.08594192 0.21717507 -0.4131242 -0.58170974 -0.11140943
-0.06317018 0.33181354 0.27686197 -0.062443137 0.047113862 -0.12661128 -0.08234228 -0.0038963782
-0.023961445 -0.004145518 -0.052813586 0.055952854 0.043841105 0.104909405 0.17034465 0.039348345
-0.02439952 -0.22948638 0.063630536 0.07770449 -0.48828354 0.4247525 0.08582004 0.011074967
0.118190385 -0.73750055 0.0033443954 0.118066765 0.11818389 0.086970024 0.04024296 0.30524594
0.056498043 -0.14459704 0.085852265 0.09766427 -0.061434053 0.011471474 0.06846248 0.11039816
0.065882966 0.014370857 0.02614369 2.3284593 -0.008810104 0.12848412 0.097630285 -0.08273034
-0.090512045 0.0037530754 0.046343382 -1.3138579 -0.05920454 -0.1512427 0.06192436 -1.0574807
0.09594524 -0.10395017 0.044536974 0.12837936 0.06994789 0.23937714 0.29588094 0.08050615
-0.009283199 -0.43023995 0.17868373 0.046864063 -0.091892935 -0.1390548 -0.022473946 0.010679645
-0.09440928 0.100223005 0.044605743 -1.2505949 0.048214737 0.012196366 0.20435454 -0.29685706
-0.009624895 -0.046611916 -0.03931846 -0.05375377 0.07983653 0.104837514 -0.038306993 0.076860204
-0.091408744 -0.14508192 -0.0011140205 -0.10123153 -0.07623384 0.10587002 0.069162995 0.337066
-0.04777936 -0.31095663 0.008856975 -0.11025496 -0.08703974 -0.0600463 -0.07561126 -0.36094254
0.036282726 -0.028896108 -0.05058481 -0.0079337 0.005356103 0.2515405 -0.10610498 0.11470722
0.12008634 -0.047773737 0.0117102275 -0.052018166 -0.07492862 -0.7320149 -0.007358248 0.121118665
-0.06162089 -1.5367383 0.07965319 -1.7845979 0.24158838 0.32142904 0.2615125 -0.119750984
0.12004577 0.3322343 -0.5776054 -0.0188575 0.101457454 -1.0204376 0.029891796 -0.0069256695
-0.10752298 0.11911546 0.0050778287 0.03204667 0.10904018 -0.03794004 -1.2126355 0.07798218

fc.3.bias f4 [4]
00000000: 80aa e33e 1586 e73e 292e ef3e 7f62 ef3e
0.4446602 0.45219484 0.46714905 0.46754834
