models/v17.1/model_193500.pt (torch, 729854 bytes, 10 tensors)

conv.0.weight f4 [16, 2, 3, 3]
000000 77 9d 43 3e e5 01 e3 3b 59 87 2e bd 95 d6 f7 ba
       0.19103037 0.006927716 -0.042609546 -0.0018908555
000010 20 52 1c bc eb d9 c6 bd 7c a5 f0 3b 68 84 08 bd
       -0.0095410645 -0.09709533 0.007343946 -0.033329397
000020 93 d9 83 3d 1b 15 76 be 84 c2 16 3d 89 09 e3 3d
       0.06437983 -0.24031489 0.0368066 0.11085803
000030 7b ba 1c bc bb df cb bd dc 6e 94 3d b9 7a 81 3d
       -0.009565945 -0.099547826 0.07247707 0.063222356
000040 82 4d c2 3d 06 f0 8f bd bb 28 01 3e d0 36 93 3e
       0.0948744 -0.07028203 0.12613194 0.28752756
000050 63 e0 39 bd 20 dc 32 bd 46 8e 7e be ce 72 13 3e
       -0.045380007 -0.04366696 -0.2485896 0.14399263
000060 c2 85 22 be 39 84 50 be 2a 5c ff bd 0a d1 0e bd
       -0.15871337 -0.20362939 -0.12468751 -0.034867324
000070 e2 4b 89 bc 73 3d 1f 3c 78 e0 3a 3d a4 05 c3 be
       -0.016759817 0.0097192405 0.045624226 -0.3809024
000080 33 9e d8 3c 59 fd 4d 3e cf e9 05 ba a3 b5 1c 3e
       0.026442623 0.20116176 -0.00051083876 0.15303664
000090 8a 37 66 3d ac fe 97 3e 20 81 05 bd 14 5c 83 3c
       0.05620531 0.29686487 -0.032593846 0.016035117
0000a0 13 c9 b1 3d 9f 7d 46 3e 68 39 16 3e 05 64 e6 3e
       0.0868093 0.19383858 0.14670336 0.44998184
0000b0 54 8c 25 3d b7 cf 71 bd 8e 13 88 be 47 92 88 3c
       0.04041703 -0.059035983 -0.2657742 0.016671313
0000c0 6a 3b da ba da 34 86 bd 23 ee 54 be b8 a9 02 be
       -0.0016649787 -0.065530494 -0.20793967 -0.12760055
0000d0 3c f2 0e bf a6 ae 94 bc 07 bc 01 3c e0 ba 5c bc
       -0.5583837 -0.018149685 0.007918364 -0.013472289
0000e0 21 af 5c 3d 45 20 19 bd 34 b0 2b 3c 5a c2 97 bf
       0.053877953 -0.03738429 0.010479022 -1.1856186
0000f0 a3 c3 15 3c 3e 5e 51 bd 1f f5 3c 3c 59 e9 19 bc
       0.009140882 -0.051115267 0.011533051 -0.009394013
000100 c8 70 4f 3c 9c 2f 5c bd 69 b5 2b 3d a9 b3 7f 3b
       0.0126611665 -0.05375634 0.041921053 0.0039016998
000110 11 a4 be 3d 7b 7b 1b bc d3 b1 3c 3d cd cc d8 bc
       0.09308637 -0.009489889 0.046068024 -0.026464844
000120 0a ef 4c 3c e7 8a b1 bd 5d 11 01 be 54 03 5a bd
       0.012508163 -0.08669072 -0.1260428 -0.05322583
000130 09 d8 1d be c0 2e 21 3f 58 ea 01 3b 1e 2d 96 3b
       -0.15414442 0.6296196 0.0019823518 0.004583015
000140 68 e5 13 be e8 71 83 3b 72 b7 96 3d b4 e7 16 3e
       -0.1444298 0.0040113814 0.07359208 0.14736825
000150 fd a7 1e 3d 01 6e 16 3e 8e b9 9e 3e 79 3f 29 bc
       0.038734425 0.146904 0.31000942 -0.0103300745
000160 3e 95 d9 3c a0 4b f1 3d b3 19 f9 3c d7 34 f1 bd
       0.026560422 0.117820024 0.030407762 -0.117776565
000170 e1 2a ee 3e 08 c6 cd bc fe eb 26 bf e1 bd e8 bc
       0.4651709 -0.025118843 -0.65203846 -0.028410854
000180 cd 4c 7a bc 6e c1 d0 bd 1b 3b 86 bd c8 0e d1 bb
       -0.0152771 -0.10193144 -0.06554242 -0.006379936
000190 51 2a 93 3c d9 c0 d0 bc 82 fd 2d 3d 0f fc de 3b
       0.017964514 -0.025482582 0.042478092 0.00680495
0001a0 9c 10 a7 3b 41 3b b5 3b da a5 e3 3d 14 ee 93 3d
       0.0050984155 0.0055307453 0.11115618 0.07223144
0001b0 3d ad 7a be 6e 63 99 be 0f 6f 48 bc 1c cb 83 3c
       -0.24480148 -0.2995867 -0.01223351 0.016088061
0001c0 1f 40 90 bb 4f 7e 5d bf 92 14 aa be 9d 9f c6 be
       -0.004402175 -0.86520857 -0.3321882 -0.3879365
0001d0 af 96 9b bd 75 a5 42 3e 92 1c 9d 3e 65 10 ea 3c
       -0.075971 0.1900843 0.3068586 0.02857227
0001e0 17 37 d8 bc a2 38 94 3c c0 6a 18 3f 7f 93 87 3e
       -0.026393456 0.01809341 0.5953789 0.26479718
0001f0 0f 39 b0 3e 84 42 a1 3c 2e ce c3 be 2d 58 14 bf
       0.34418532 0.019685037 -0.3824324 -0.57947046
000200 47 fb ba 3d 54 ea 0e be f3 a2 d1 3d 02 fd ec 3d
       0.091299586 -0.13956577 0.10236158 0.11571695
000210 7b 88 99 bf 53 ad fe bc 49 fe 66 bd 0f 2f 66 3e
       -1.1994776 -0.031088507 -0.05639485 0.22478889
000220 da 69 6d 3e 6d bf 32 bd c7 72 07 3d 1f ca 9b bc
       0.2318491 -0.04363959 0.033068445 -0.019017277
000230 8c b5 9c 3d b8 2a ce 3e 79 16 b2 3d e6 08 78 3d
       0.07651815 0.40266967 0.086956926 0.06055536
000240 da b8 8f 3d dc bb 37 3d 34 58 62 bc ec a9 5e 3d
       0.070176795 0.04485689 -0.013814975 0.05436127
000250 7b 56 6b 3e 2a cf ef ba 6f d6 b5 be 8b 3f 02 bf
       0.22982208 -0.0018295993 -0.35515162 -0.5087821
000260 45 19 09 bf 84 04 10 bd 13 92 d9 3d cf 93 22 3d
       -0.53554183 -0.035160556 0.106235646 0.039691743
000270 16 35 39 3d f4 cf 9a 3d 57 ae e9 3d a4 d2 39 bd
       0.045216642 0.07559195 0.11410206 -0.0453669
000280 3b eb 8b 3e cc b8 2b bd 63 dc 37 3c f3 90 84 bc
       0.27327904 -0.041924283 0.011221978 -0.016182398
000290 f6 c0 93 3c 08 1b ef 3c 5f 0c 8d bd 8d 22 d6 3e
       0.018036347 0.029187694 -0.06887125 0.41823235
0002a0 12 a8 06 bc 11 22 e8 bd fa 1f 92 bd 7b e6 8f 3b
       -0.008218782 -0.11334623 -0.07135005 0.004391489
0002b0 26 96 f8 3c bf 2f 96 bb 3a 31 4f bc 02 20 93 3d
       0.030345034 -0.0045833285 -0.012646014 0.071838394
0002c0 e2 eb da be 62 9f 87 3c 16 ef d3 3d ad e1 a1 3d
       -0.4275809 0.016555492 0.103483364 0.07904372
0002d0 13 30 3f 3c 8e 0c 0d bd ec 06 cb bc 51 51 94 bd
       0.011669177 -0.0344358 -0.024783574 -0.072420724
0002e0 55 3a 14 3f 1f dd a0 bd 18 35 be b9 7a ab 68 bd
       0.5790151 -0.078546755 -0.00036279182 -0.056804158
0002f0 b6 16 ac 3c 15 07 27 bc a0 c5 14 3d 76 c3 71 3c
       0.021006923 -0.01019456 0.036321282 0.014756074
000300 a1 b3 a5 3d 0e f7 ca 3e 41 a2 9e 3d e4 31 14 bb
       0.08090902 0.39641613 0.07745791 -0.0022612745
000310 7f a5 88 3d a7 9a 4e bd 1c db 95 bc 8d 44 66 3d
       0.06672191 -0.050440457 -0.018292956 0.05621772
000320 af c7 88 bd 1b 60 8c 3c 34 e7 54 3f d7 e6 07 bc
       -0.066787116 0.01713567 0.8316529 -0.008294783
000330 e0 d0 89 bd 78 97 15 3d 74 8e 6e bd 43 89 a4 3c
       -0.06729293 0.036521405 -0.058241323 0.020084983
000340 76 a9 80 bd d0 49 5b 3d d5 f2 e6 bc c2 ca 80 bd
       -0.06282322 0.05353719 -0.028191963 -0.06288673
000350 32 75 1c bd 1c 0f 91 3d e1 64 07 bd ad 93 96 3d
       -0.038197704 0.0708296 -0.03305519 0.07352386
000360 7e 02 7b bd 89 72 09 be 43 42 9d bd b8 9a 5f bd
       -0.061281674 -0.13422598 -0.07678654 -0.05459091
000370 37 34 39 c0 1e 57 ca bb f0 c2 cd bd 8c 65 b3 bd
       -2.893812 -0.006174936 -0.10046947 -0.08759603
000380 3d bb f6 bd 2d a7 d2 3d 9f 0a 9f 3d 3a ec b5 3d
       -0.120474316 0.102857925 0.07765698 0.08882947
000390 52 66 56 3d 67 33 46 3f b5 31 8f bd 0a c9 f5 3d
       0.052343674 0.77422184 -0.06991903 0.12001236
0003a0 5e 0d 98 3c 74 dd 1c 3e c5 fa 1d bd cf 1b dc bc
       0.018561061 0.15318853 -0.03856923 -0.026868729
0003b0 d1 99 85 bd 02 69 21 bd 97 e2 ad be 23 f0 78 bf
       -0.06523479 -0.039406784 -0.33961937 -0.9724142
0003c0 2f a2 27 3e 0f 87 f1 bd 9f 7a 8a bd fe f4 d7 3c
       0.16370462 -0.117933385 -0.06761669 0.026361939
0003d0 1c 25 b4 3d 1c 24 0a 3d e6 04 f9 bc 7f f5 a8 3d
       0.087961406 0.033725843 -0.030397844 0.0824995
0003e0 a2 f6 19 3f 5f 21 c1 3d 06 f9 18 3e 42 d1 aa 3d
       0.60141957 0.09430193 0.14938745 0.08340694
0003f0 02 63 0f bf 24 64 0d bf ea 03 58 bf d8 2e b0 bd
       -0.5601045 -0.5523093 -0.8438097 -0.08602685

conv.0.bias f4 [16]
000000 7a 1d 10 be 76 01 94 be e2 a2 00 be 6a b6 01 3f
       -0.14073744 -0.28907365 -0.12562135 0.50668967
000010 89 95 16 bf 00 24 8d be 3f 57 2b bd af 07 46 be
       -0.5882192 -0.27566528 -0.04183125 -0.19338869
000020 6e 55 cd be 47 d2 bb bd 0d 0b 31 bf e3 9c d4 be
       -0.4010424 -0.091709666 -0.6915749 -0.41525945
000030 10 d6 92 3e 9e ed 85 be 20 b7 a2 bc 4d 2e 27 be
       0.28678942 -0.2615785 -0.019862711 -0.16326256

conv.2.weight f4 [32, 16, 3, 3]
000000 be e0 88 bd 31 ae 6b 3c 4d 59 1d bd 48 f5 88 bc
       -0.06683491 0.014384792 -0.038415242 -0.016718522
000010 86 b4 8f bd a7 b6 a7 bc 9d 04 a8 3d 40 32 ed bc
       -0.07016854 -0.020472838 0.08204005 -0.028954625
000020 d3 1f c6 bd 07 7e 8e 3d 45 d4 d1 3d 64 92 ad 3d
       -0.09674039 0.069576316 0.10245565 0.084751874
000030 78 57 10 3e 5a a2 de 3d 7e 92 fc 3c ac 40 48 3d
       0.14095867 0.1087081 0.030831572 0.0488898
000040 14 ee 20 bd 6d 16 2e bd f1 ba 33 3e a0 08 ef bc
       -0.03928955 -0.042501856 0.17551781 -0.029178917
000050 94 47 43 bd ff 2e 03 bd 40 c6 c5 bb 26 74 67 be
       -0.047675684 -0.03202724 -0.006035596 -0.22602901
000060 6b 4e fa bd 67 2f 79 be a4 f9 41 be f9 69 5c 3c
       -0.12221988 -0.24334489 -0.18942887 0.013453
000070 05 d1 1c bd 58 b4 09 be 80 84 e9 3b 46 c9 8f bd
       -0.038285274 -0.13447702 0.007126391 -0.07020812
000080 78 02 9d bd 3e 72 47 3d 76 30 f2 bd a0 c1 b3 be
       -0.076664865 0.048692934 -0.118256494 -0.35108662
000090 5c 8c 93 3d 37 f6 e7 3d 6d 08 91 be 70 c7 12 be
       0.07204506 0.11326259 -0.2832674 -0.14333892
0000a0 8e 95 25 be a6 41 ab be aa 7e eb 3d b7 93 f7 bd
       -0.16170332 -0.33448523 0.11498769 -0.12088721
0000b0 72 86 37 be 6f 45 2d 3d 25 70 d9 3c 4a c8 b5 bd
       -0.1792238 0.042302545 0.026542732 -0.08876093
0000c0 d6 5e 25 3e e9 30 b7 3d 77 e5 83 be 44 38 a3 3d
       0.16149458 0.08944876 -0.25761005 0.07969716
0000d0 6c b3 8f 3d f1 ce 02 be 0f 4b 35 3d 1b 6d 3a 3e
       0.07016644 -0.12774254 0.044261035 0.18205683
0000e0 87 5f 5e 3c 9a f6 1e 3e 80 65 3f 3d d1 a7 34 bd
       0.01357258 0.15523759 0.046727657 -0.044105355
0000f0 aa b1 8a 3d 53 f6 ab 3c 86 ed 34 be b9 9f 45 be
       0.06772168 0.02099148 -0.17668733 -0.1929921
000100 94 53 18 bd d8 04 98 3c 86 0e 89 bd 58 6d 8c bc
       -0.03718908 0.018556997 -0.06692223 -0.017141983
000110 73 e1 2a bd ec 03 a1 bd c9 dd a5 bd 52 2b 07 be
       -0.04171891 -0.07862076 -0.08098943 -0.13200119
000120 60 d6 b6 3d a7 1e 89 3d f5 d3 13 3d fa b0 91 bd
       0.089276075 0.066952996 0.03609081 -0.07113834
000130 76 ff 17 3e 64 60 04 be fd 2d ca 3d b4 f8 42 bd
       0.14843544 -0.12927395 0.09872053 -0.047600463
000140 35 74 1e be 7a cc c4 3d 16 5b 71 be 1f e3 2f 3d
       -0.15474017 0.09609313 -0.23569903 0.04294121
000150 e7 2c de 3d 5f 59 1d be d5 5a 21 bd 3e 46 2d be
       0.10848408 -0.15366124 -0.039393265 -0.16921327
000160 88 00 6a be 84 95 98 3c d1 68 4a 3d f4 dd a3 ba
       -0.22851765 0.018625982 0.049416367 -0.001250206
000170 73 97 02 be 58 a9 e5 bc a9 f3 de 39 83 3a 17 be
       -0.12753086 -0.028034851 0.0004252468 -0.14768414
000180 0d c3 9b bd a7 3b fd bc ea ce 92 bd a1 bd 12 3c
       -0.07605562 -0.030912234 -0.07168372 0.008956344
000190 29 df 03 bc d5 33 97 bd 4d e1 16 be ca ee 52 be
       -0.008048811 -0.07382933 -0.14734383 -0.20598903
0001a0 b4 dd 11 be e5 0d 00 be 23 e3 0d be 47 13 c4 3b
       -0.1424473 -0.125053 -0.13856177 0.0059837434
0001b0 9f 4f 53 3c bc 75 2e 3d 9b 06 f1 3c 4e cb 09 be
       0.012897401 0.04259275 0.029422095 -0.13456461
0001c0 d5 1e 11 bc 27 ff cb 3c 09 cf 09 be ef 88 19 be
       -0.008857449 0.02490194 -0.13457884 -0.14993642
0001d0 73 e3 e6 bc 5d 77 b6 bb 1d 24 5e 3c 6e 21 52 3d
       -0.028184628 -0.0055684284 0.013558415 0.051301412
0001e0 cf d4 85 3d ce 13 99 3c d1 0f b4 bc 80 1f 15 bd
       0.06534731 0.018686201 -0.021980198 -0.036406994
0001f0 30 c4 2e bd 0b 8d aa 3c db e8 a5 3c fa d6 df ba
       -0.042667568 0.020819208 0.020252636 -0.0017077618
000200 61 58 e9 bb 92 5c 02 bd 60 3f 34 be cc 00 c2 bd
       -0.0071211313 -0.031826563 -0.176023 -0.09472808
000210 ab 43 1b bd 7d 87 2c bd 6b 73 b2 3d 0b 6e 06 be
       -0.03790633 -0.0421214 0.087134205 -0.13127916
000220 81 da 5a bc 38 3e b5 bd 68 d0 d0 bd 05 40 da 3d
       -0.013357759 -0.08849758 -0.10196 0.10656742
000230 b6 f4 24 3c cf 0e b5 bd 17 85 1a be 78 81 8f bd
       0.010068109 -0.08840715 -0.15089832 -0.07007116
000240 2b ba e8 3d f3 6c 18 be 5d 53 3b 3e ca e8 22 3e
       0.11363634 -0.14885311 0.1829352 0.15909114
000250 88 b3 8e 3d af a0 70 bd 74 4c dd bd d5 b6 80 3d
       0.069678366 -0.05874699 -0.10805598 0.062848724
000260 76 4a 42 bb 63 45 31 3e 4c 25 42 3d 0e 32 8d 3e
       -0.0029646433 0.17311625 0.04739885 0.2757725
000270 fe ac af bd ab de 3b 3e 41 0d 82 3d c1 aa 78 3e
       -0.085779175 0.1834666 0.06350184 0.24283887
000280 a7 08 1d bd 5d e6 39 3e 20 1a 5c 3e ca ab 77 3e
       -0.03833833 0.18154283 0.21494341 0.24186626
000290 0a 83 5d 3e 1d de c9 3e 54 4a 56 be 6f 0d 3b be
       0.21632019 0.3942727 -0.20926791 -0.18266843
0002a0 52 f9 9c 3e 00 91 73 3d 07 31 d7 3d 09 ee 1c c0
       0.30658966 0.059464455 0.10507398 -2.4520285
0002b0 6a ae 0e 3e be fd ac bd 70 29 a0 3c 6f 86 3f bd
       0.13933721 -0.08446835 0.019551009 -0.046759065
0002c0 48 a7 98 3c 03 e5 49 bd fe f8 51 bd 8d 5f 4d bc
       0.018634453 -0.04929067 -0.051262848 -0.012534988
0002d0 18 f0 5e bf dd bb 9c 3e 80 68 c2 bc 78 ff 99 3a
       -0.87085104 0.30612078 -0.02373147 0.0011749109
0002e0 9d c6 b1 3d c5 c0 7d 3d 30 2b 3e 3d a5 32 66 bd
       0.086804606 0.061951417 0.046427906 -0.056200642
0002f0 aa 02 56 bc f2 7d 74 be fc 5d 85 bf 69 e6 15 3c
       -0.013062159 -0.2387617 -1.0419307 0.009149172
000300 25 bf 78 be 7b e5 8b bd 19 ad 3c be 1e 3b 12 bd
       -0.24291666 -0.06830879 -0.18425407 -0.03570091
000310 71 76 2d bd fe 0d 31 3d c9 05 44 3d ab 91 c0 3d
       -0.042349283 0.043226235 0.04785708 0.09402784
000320 75 43 18 be 62 6d 64 3e f0 52 e0 3c 23 c4 32 be
       -0.14869483 0.22307351 0.027383298 -0.17457633
000330 6e c2 5f 3e b9 c9 34 3c c0 d7 2f bd f2 92 65 3d
       0.21851513 0.011034423 -0.042930365 0.05604834
000340 e1 eb c9 bc 2e 80 40 be 9c 09 61 3d 16 f0 92 bd
       -0.024648609 -0.18798897 0.054940805 -0.07174699
000350 bf ac f9 bd 08 65 9a 3e da aa a7 3b 58 a1 85 3d
       -0.12191152 0.30155206 0.0051168026 0.065249145
000360 05 b0 20 3e d2 6b 88 be 38 f5 6b 3e 93 4d 90 3d
       0.15692146 -0.2664476 0.23042762 0.07046046
000370 89 9e d6 3e cf 27 08 3e ac f7 54 3e 19 c5 42 3e
       0.41917828 0.13296436 0.20797604 0.190205
000380 e8 7f c0 bd a5 c5 9e 3a 4f 88 14 bf 6a 34 da bd
       -0.09399396 0.0012113346 -0.5802049 -0.106545284
000390 a5 2f 8c 3e 3c 9a 53 3d 06 95 8b be 9c 0d 20 3f
       0.273801 0.05166076 -0.27262133 0.62520766
0003a0 78 59 09 3e 4b 02 e9 bd 72 89 c9 bd 83 d0 f1 be
       0.13413036 -0.113773905 -0.09840669 -0.47229394
0003b0 95 8d c5 3e cc 9c 16 3d 5b a4 76 be 96 41 37 3c
       0.3858458 0.036770627 -0.24086134 0.0111850705
0003c0 79 30 cc 3b 03 f1 23 bd 7d 21 d1 bb 6e 75 05 3e
       0.0062313643 -0.04002477 -0.006382166 0.13033077
0003d0 a1 50 e6 be ad 23 17 3e 0a 49 d2 3d ba 61 d9 bd
       -0.4498339 0.14759703 0.10267837 -0.10614343
0003e0 f0 fa 48 bd d7 4a 2c bd 15 51 4a 3d 14 d9 3b bc
       -0.049067438 -0.04206356 0.049393732 -0.01146533
0003f0 f8 c9 79 3d 91 b1 94 bf 28 f4 2c bf dd 0a 41 3e
       0.060983628 -1.1616689 -0.6756005 0.188518

conv.2.bias f4 [32]
000000 42 56 8e 3c 7b 0f ff 3b 59 dd 8f bd ec 9d b6 3d
       0.017375115 0.007783828 -0.070246406 0.0891684
000010 01 ce 14 3d 33 7e 3c bd 24 d7 72 3e 42 de 93 bd
       0.036329273 -0.04601879 0.23714882 -0.07220127
000020 c4 a1 85 be 61 a5 a6 be 30 de 19 3e a7 0d 89 3e
       -0.2609998 -0.3254805 0.15026164 0.26768228
000030 15 bc e3 bd 5b e1 67 3c 49 50 93 3d 2e 6e 40 be
       -0.11119858 0.01415285 0.071930476 -0.1879203
000040 af 30 d7 b9 d6 cf 60 bd 25 5a 39 3e 66 20 ea bd
       -0.00041044268 -0.054885708 0.18100794 -0.11431961
000050 65 a0 22 3e 0c 65 a1 bd 53 6b ba bc cf 07 72 bd
       0.15881498 -0.07880601 -0.022756254 -0.059089478
000060 d5 17 12 be 80 9d a8 3e cc 78 ef 3d 60 73 02 be
       -0.14266904 0.32932663 0.11692962 -0.12739325
000070 f6 2c 0f bd 50 b1 e3 3c 3b 49 d2 bd 86 74 21 3e
       -0.034954987 0.02779451 -0.10267874 0.15767106

conv.4.weight f4 [64, 32, 6, 6]
000000 4d 01 49 bc 11 d1 6d bd d0 f9 88 3d 03 fd 7b bc
       -0.012268377 -0.05806071 0.06688273 -0.015380147
000010 4b c7 3e 3d 04 dc 7f bc 88 62 05 bd 7f 86 25 3d
       0.04657678 -0.015616421 -0.03256467 0.04041147
000020 28 2f ef 3c 53 65 b3 3c 33 70 88 bc c8 f4 1f 3d
       0.02919729 0.021898901 -0.016655063 0.0390518
000030 95 b5 5c bb ca c9 c5 3c 67 67 d1 bc ae 88 34 bd
       -0.0033677567 0.024144072 -0.025562001 -0.04407566
000040 ab 6e e2 bb 95 0b ec 3c 9c 3f 43 3c aa d9 96 3d
       -0.0069101653 0.028814116 0.011917021 0.07365735
000050 31 59 9f ba 74 f1 55 bd ef 35 44 bd 10 43 a3 3d
       -0.0012157318 -0.05223222 -0.047902998 0.079717755
000060 48 48 ca 3c 56 b0 df bb 2b 1f 80 bd 68 12 d6 3c
       0.02469267 -0.006826441 -0.06255945 0.026131824
000070 09 9e f1 ba cd 71 18 bb 07 c3 d8 3b 73 35 89 bc
       -0.0018433939 -0.002326119 0.006615046 -0.01674912
000080 d8 77 17 bd f9 1d 6a 3a ce 26 27 bd 78 85 b3 bb
       -0.036979526 0.0008930858 -0.04080849 -0.005478557
000090 9c 00 b2 bd 34 a6 cf 3b d9 f3 be 3e 1e d6 f4 bd
       -0.086915225 0.0063369516 0.37295416 -0.11954902
0000a0 5c b8 d9 bd 10 e3 4c 3c c3 dc 44 bd 14 73 a3 3d
       -0.10630867 0.012505308 -0.048062097 0.07980934
0000b0 e2 a2 70 3d aa 6a 01 bf 53 65 17 be e3 79 02 3f
       0.058749087 -0.5055338 -0.14784746 0.50967234
0000c0 ea 80 22 bf 6e 74 82 3e ac 1b ab bd 07 87 15 3e
       -0.6347796 0.25479454 -0.08354887 0.1460229
0000d0 0f ba 9a 3e a3 18 b5 3e 36 6b b9 3d 08 2c 16 be
       0.30220076 0.3537036 0.09053652 -0.14665234
0000e0 88 1c 70 bd 2d 15 68 bd 8d a5 60 bd 2f 4d 78 3e
       -0.05862096 -0.05666082 -0.05484538 0.24248193
0000f0 9e f1 30 3e b1 cd 3d 3e 29 ad 3d 3e f5 e8 90 3e
       0.1727967 0.18535496 0.18523087 0.28302732
000100 bc 5e f0 3d 88 7e 87 3e 9f 57 9d be b4 5d d7 3e
       0.11736819 0.26463723 -0.30730912 0.42063677
000110 25 77 d3 3e 5e 21 6a 3e 30 a5 b7 3e 6e 68 2a bf
       0.41301838 0.22864291 0.35868216 -0.665656
000120 39 b5 28 bc 0f 61 35 bd d4 ab bb bc ea 75 46 bd
       -0.010297113 -0.044282015 -0.022909082 -0.048452295
000130 e1 cd 2b 3c 6f c6 cb bc 86 62 5a bc 38 a1 a1 3b
       0.010486097 -0.024874894 -0.013329154 0.004932549
000140 7d 03 dc ba 16 52 74 3c 3f d5 b5 3c c4 dc 2a 3c
       -0.0016785708 0.014912149 0.02219641 0.010428611
000150 e8 bd b0 3b 61 e4 62 bc 59 e3 e4 bc 84 cf c4 3c
       0.0053937323 -0.013848395 -0.027940439 0.024024732
000160 bd 76 6d 3c 79 06 2b bc c5 7d b3 bc 68 29 a1 3c
       0.014493641 -0.010438555 -0.021910558 0.019673064
000170 a8 69 ab bc 19 97 82 3c 99 6e 1d bd 4a d7 17 bc
       -0.020924404 0.01594119 -0.038435552 -0.0092676375
000180 2b 83 09 bb af 8f 19 3d de 8d 15 3b 93 9e b7 3c
       -0.0020982723 0.037490543 0.0022820155 0.022414481
000190 4e 3d 1f bc 7c b6 f9 3c f4 13 e4 3c 9e 44 07 3d
       -0.009719206 0.030482523 0.027841546 0.033024423
0001a0 c3 a9 2d 3d 7d 56 32 3c 4a b1 94 bb 33 81 70 3b
       0.042398226 0.010884878 -0.004537736 0.0036698102
0001b0 6c 04 a4 bd d0 14 63 3e c5 3a 1f bd 1a 32 8e be
       -0.08008656 0.22175908 -0.038874406 -0.277726
0001c0 46 8c d2 be 84 be 8f 3e c8 e0 82 3d 87 9f aa 3e
       -0.41122645 0.2807504 0.0639053 0.33324835
0001d0 46 74 0b 3e 75 71 2b 3d 53 55 f9 3e ac bf b2 be
       0.13618574 0.041856248 0.4869791 -0.3491186
0001e0 d3 96 c8 3e 24 1b 8d 3e 36 26 3c 3e ed 48 18 3e
       0.3917757 0.2755977 0.18373951 0.14871569
0001f0 a2 99 15 3e 0d ad ba 3e 9d 36 93 3e 15 9c ae 3e
       0.14609388 0.36460152 0.28752604 0.34103456
000200 ce 9d 77 3e e9 0b 8e 3d a5 52 c3 3e a6 09 be 3e
       0.24181291 0.069358654 0.3814899 0.37116736
000210 31 00 2b 3d a7 1b d9 3e 7a 0e bf 3e ac 52 a9 3e
       0.04174823 0.4240391 0.37315732 0.33070886
000220 11 cb 0a 3f fd 09 18 bf 08 aa d9 3d c3 91 e6 be
       0.54216105 -0.5939024 0.10628134 -0.45033082
000230 60 6c d0 be 34 1d 35 be a0 3e 7f 3e 7d 10 0b bf
       -0.40707684 -0.17686921 0.24926233 -0.54322034
000240 66 ba e1 3d 5a 10 07 3e 75 fd ca bd 65 90 9b 3e
       0.11021881 0.13189831 -0.09911624 0.30383602
000250 ec 34 fb 3e 30 ab 07 be 23 ef e2 3e 2d 29 c1 3e
       0.49063814 -0.13248897 0.44323072 0.37726727
000260 61 5c eb be 38 34 f6 be 2e 33 20 bf 23 f7 68 3d
       -0.45968917 -0.48086715 -0.62578094 0.056876313
000270 9c e9 15 bf c4 f1 08 3e ec 63 a9 be 31 bb 7f 3d
       -0.58559585 0.13373476 -0.33084047 0.06243438
000280 c2 64 89 3e c5 cd d1 be 85 88 c0 3e bf 4c 57 be
       0.26834685 -0.40977302 0.37604156 -0.2102537
000290 df c6 cc be f9 27 4b be 4e 0a 81 be 3a 2f 04 3e
       -0.39995477 -0.19839467 -0.25203174 0.1290864
0002a0 e1 bf db 3e a1 c8 3b 3d d4 38 62 bd 8d f8 af bc
       0.4291983 0.04584563 -0.055229977 -0.021480823
0002b0 83 94 0c 3e 4b 46 b8 3e 2e 41 43 be 92 d3 86 3e
       0.13728528 0.3599113 -0.19067833 0.2633329
0002c0 a1 f4 52 3d 9b 3b d1 bd 38 60 8f 3d 7b 37 3c bf
       0.051502828 -0.10216447 0.07000774 -0.73522156
0002d0 7c 66 99 bc 6f f2 44 3d 03 e3 3b 3e 0e cd df 3d
       -0.018725626 0.048082765 0.18348317 0.10927783
0002e0 a7 0d 16 3e 70 9f c7 3c e7 3b f3 3e 96 39 7b 3e
       0.14653645 0.024368018 0.4750664 0.24533686
0002f0 68 21 6f 3e 85 6f ed 3d a3 5f 42 3d d9 ca 90 3d
       0.23352587 0.11593536 0.047454488 0.0706994
000300 c6 18 0a 3f cb 00 b1 3e 7f a4 17 3e 99 09 a5 3e
       0.5394405 0.34570917 0.14808844 0.32233885
000310 c0 2d 27 3e c1 bf 71 3d a8 e8 d2 3e 21 f4 35 3e
       0.16326046 0.05902076 0.41193128 0.17768909
000320 d7 95 4d 3e 01 eb 4f 3e 46 2e 9e 3d 89 06 0e be
       0.2007669 0.2030449 0.0772367 -0.1386968
000330 31 7c 9b 3c 2a ae c1 3e c7 55 a3 3e fb a4 87 3c
       0.018980118 0.3782819 0.3190138 0.016558161
000340 94 22 41 3d 9c a5 7f be 30 a4 cb bd c3 1f ae 3d
       0.047152117 -0.24965519 -0.09943426 0.08502152
000350 0e 0e 40 3e 05 23 cc 3d fd 89 40 3d 21 9e 89 3d
       0.18755361 0.09967617 0.047006596 0.06719614
000360 a7 82 ca 3d 3b 72 eb 3d 27 46 23 3e e8 03 cd 3d
       0.09888201 0.11496397 0.1594473 0.10010511
000370 cf 9b 14 3e bb f0 b2 bc fd b6 57 3e c2 72 48 3e
       0.14512561 -0.021843305 0.21065898 0.19575027
000380 be 6e 1c 3e 9c b5 14 3e d1 50 90 3d c5 4f 9d bd
       0.1527662 0.14522403 0.070466645 -0.076812305
000390 0c 40 2b 3e 60 85 e6 3c 06 45 3c 3e 9b 27 0a 3e
       0.1672365 0.02813977 0.18385705 0.13491671
0003a0 f0 74 e9 3d 9d fd 09 bd 8f 72 e8 3c a3 b8 60 bd
       0.11399257 -0.03368913 0.028374938 -0.054863583
0003b0 d7 e6 f4 3c 1c 01 d9 3d 71 96 09 3e fb 9f 33 bc
       0.02989523 0.10595915 0.13436295 -0.010963435
0003c0 a2 dc 20 3e 5b c1 1a 3e 08 2f 4e 3d 2d 8b 1f 3e
       0.15709165 0.15112822 0.05033782 0.15580435
0003d0 23 de 89 3d 09 19 0b bc 79 f4 38 3e 4f 8a e5 bd
       0.06731822 -0.008489856 0.18062009 -0.11208021
0003e0 03 d1 db bc 3e ff d6 3d 5f 64 1a bd c2 52 a8 bd
       -0.026833063 0.10497902 -0.037693378 -0.0821891
0003f0 5c 49 84 3c 73 f0 8a 3c d6 d8 67 bc b4 74 ba 3c
       0.016148262 0.016960358 -0.014150819 0.022760727

conv.4.bias f4 [64]
000000 f1 71 7e be 97 1e 31 be c3 2c ba be 11 ef b6 be
       -0.24848153 -0.17296825 -0.36362275 -0.35729268
000010 9d 2f 24 be b2 a3 88 be 58 7f c6 bd b4 c5 1a be
       -0.16033788 -0.2668739 -0.09692258 -0.1511448
000020 bc f7 d4 be e5 eb 6e bd 73 19 47 be 0f 3b 51 bd
       -0.41595256 -0.058330435 -0.19443302 -0.051081713
000030 c4 67 3d bd 55 af fd be bb 33 fc be 81 fd ee be
       -0.046241537 -0.4954783 -0.49258217 -0.46677783
000040 64 a1 58 be 33 59 03 3e 25 98 82 bd 7a 2d a1 be
       -0.21155316 0.12826996 -0.063766755 -0.31480008
000050 2a 89 c0 be 96 85 2d be 75 74 04 3f 42 e3 6a be
       -0.37604648 -0.1694549 0.517402 -0.22938254
000060 ef d3 ad be 26 26 97 be c6 a4 be be 25 93 82 be
       -0.33950755 -0.29521292 -0.37235087 -0.25502887
000070 be a9 a2 be e9 9b d6 be f7 71 e8 be 1c fc 2a 3e
       -0.31770128 -0.41915825 -0.45399448 0.16697735
000080 05 98 b3 be 28 4b ab 3e 35 bb 90 be ec 37 b9 be
       -0.3507692 0.33455777 -0.28267828 -0.36175478
000090 10 11 cf be 87 14 8e 3e 11 6a 4e be 37 fa 5a be
       -0.40442705 0.27750036 -0.20157649 -0.21384512
0000a0 53 a2 bc be f6 3b 2a bf 0d 6d 51 bd 1d 56 ef be
       -0.36842594 -0.66497743 -0.05112939 -0.46745387
0000b0 88 91 95 bd 10 b8 8e bc 7f 55 8b 3e 0f 1a 0a bf
       -0.073031485 -0.017421752 0.27213666 -0.5394601
0000c0 6e eb 0e be d5 c8 ae be 87 25 a8 be e4 9f 85 be
       -0.13956997 -0.34137598 -0.3284113 -0.2609855
0000d0 80 bd 94 3b 7a 95 c6 bd ae 17 a7 be 21 8c 0b bf
       0.0045391917 -0.09696479 -0.32635254 -0.54510695
0000e0 d8 8a b5 be 74 63 a6 be c6 13 9c be 42 9b 58 3e
       -0.35457492 -0.32497752 -0.30483836 0.21152976
0000f0 57 d0 e3 be 21 8d 7a bc 82 ca c7 be 95 6e 3d be
       -0.44494888 -0.015292437 -0.3902169 -0.18499215

fc.1.weight f4 [64, 1600]
000000 3b fb b5 3b be ab f8 ba 67 ab 89 bc 75 9e 8f 3c
       0.0055536306 -0.0018972082 -0.016805364 0.017531613
000010 56 64 d7 3a 1a 45 c6 bc e9 19 09 bc 72 43 1d 3c
       0.0016433101 -0.024202872 -0.008367994 0.0095986
000020 50 29 a2 3c eb 63 30 bb cb 89 b3 bc 97 93 99 3c
       0.01979509 -0.0026915025 -0.02191629 0.018747134
000030 cc e3 11 bb f2 bc ae bc ea ab 7f bc b9 d5 c8 bc
       -0.0022261022 -0.02133033 -0.015604952 -0.024515973
000040 d3 79 45 bc 37 b6 a5 bb cd 5b a0 bc 2e f5 ca bb
       -0.012052971 -0.005057122 -0.019575024 -0.0061937785
000050 91 25 8a bc 40 a2 29 bc 50 f4 3b 3a e1 3d 57 bc
       -0.016863616 -0.010353625 0.0007169889 -0.013137312
000060 25 77 02 bc 96 d3 b2 bb bc 30 8e 3c c6 4b 43 3c
       -0.007962977 -0.005457352 0.017357223 0.011919921
000070 5f b1 89 3c ae 5b 22 3c 9f e8 ae 3c e1 56 39 bc
       0.01680821 0.009909553 0.021351157 -0.011312217
000080 c2 cf a8 3c 04 75 89 bc 7e fd 38 3c 46 4c dc 3b
       0.02060688 -0.01677943 0.011290906 0.0067229597
000090 f5 93 8e bc 8f ee be 3b 01 63 47 bc 5b 7f 26 3c
       -0.017404536 0.0058267782 -0.0121696 0.0101622
0000a0 ff 4e b0 bc d1 d5 f3 bb 53 80 b7 3c 05 03 bf bc
       -0.021522043 -0.0074412604 0.022400057 -0.02331687
0000b0 ce 4f 1c 3c 1b 53 59 bc ee 76 9d 3b ca 3e 0e bb
       0.009540511 -0.013264443 0.0048054373 -0.0021704906
0000c0 12 46 e6 bb f4 dc 94 3c 0e 10 a1 3c 04 db 9a 3c
       -0.007027396 0.018171765 0.019660976 0.018903263
0000d0 6c 25 65 bc 6e 54 d2 3c cf c8 44 3b 20 06 8b bc
       -0.013985973 0.025675025 0.0030026918 -0.016970694
0000e0 b9 ae c2 bc 78 a0 33 bc 8f 47 ea 3c 3e b8 9d bc
       -0.023764955 -0.010963552 0.028598575 -0.019252893
0000f0 5d b8 3e 3c b5 d7 1e bc fc 0a b6 3c c3 b0 f3 bb
       0.011640635 -0.009694983 0.022222035 -0.007436843
000100 1e cd 96 bc a5 f0 2a 3c ba f8 83 bc be 88 07 bc
       -0.018408354 0.010433351 -0.016109813 -0.008272348
000110 80 0f 8b bc ab 1c b2 bb ae 01 f2 3a 62 2e a4 3c
       -0.016975164 -0.0054355464 0.0018463635 0.020041648
000120 80 3f f2 bb fa 20 f7 3c 4e c0 b1 3c 4d a8 ed 3b
       -0.0073928237 0.030167092 0.021698143 0.007252729
000130 c1 4d 5f 3c 12 bb 4d 3b 3f a8 04 bb bd fd 77 3b
       0.013629378 0.003139202 -0.0020241884 0.0037840449
000140 65 4c 3a bc 96 6f a3 3c 81 dd 1b bc 6f 98 aa bb
       -0.011370753 0.01995067 -0.00951326 -0.00520616
000150 8e 09 e8 bb 60 ed b1 bc 3c 55 21 ba 38 45 a4 bc
       -0.007081217 -0.021719635 -0.00061543635 -0.020052537
000160 61 56 04 3c 33 ec 55 3b 58 27 ae bc 0f 0b 37 3c
       0.008077235 0.0032642006 -0.021258995 0.01117207
000170 c7 90 b8 bc 22 f9 1b 3c 95 6d 73 3b a8 de 2c 3c
       -0.022529973 0.009519847 0.0037144173 0.010551132
000180 b7 91 b2 bc 0b 2e 53 ba 73 cb ee ba 62 5e db 3b
       -0.021797998 -0.0008055872 -0.0018218592 0.006694601
000190 12 db 21 3c ac 84 c4 bb 2d ca 1e bc b5 79 c0 3b
       0.009878891 -0.005997261 -0.009691757 0.0058738836
0001a0 60 f1 87 bb 53 09 5d bc 82 a9 5a 3c d0 c5 9d 3b
       -0.004148647 -0.013490993 0.013346078 0.004814841
0001b0 87 44 ae 3c 61 b5 b0 3b c9 d7 e0 bb 15 0c a8 3b
       0.02127291 0.005392716 -0.006861661 0.0051283934
0001c0 4c dc ee bb a6 e5 b2 3c 2b eb a8 3c 13 7b a7 3c
       -0.007289445 0.02183802 0.02061995 0.020444429
0001d0 c9 7f dd bc 7a 69 28 3b 04 44 04 3c fd 71 cf bc
       -0.027038472 0.0025697635 0.008072857 -0.025322909
0001e0 a8 08 ee bb a7 0d ed 38 8f 5b 47 bc c5 f0 9a 3b
       -0.0072642155 0.000113035836 -0.012167825 0.004728409
0001f0 da 52 9e bc 03 b4 93 bb 0a c1 5c 3c 5e b9 e3 bc
       -0.019326616 -0.004507543 0.0134737585 -0.02779835
000200 ba 6b 08 bd e7 7b cb bc ed db b1 3b d0 ae 28 bc
       -0.03330586 -0.024839355 0.0054278285 -0.010295585
000210 b1 33 cc 3b 43 62 9f 3c 47 5e a3 bc 0b af 42 3c
       0.006231748 0.019456035 -0.019942416 0.011882554
000220 3a fc 92 bc f6 6e 98 bb 90 2e 82 bc fe 06 b2 bb
       -0.017942537 -0.0046518994 -0.015891343 -0.0054329624
000230 e8 ba 0a 3c 9d 8c 97 3c 66 d0 af 3c 07 cd 93 3b
       0.0084674135 0.018499667 0.021461677 0.004510525
000240 85 de 9b 3b cd 26 08 bb 0d c7 c7 bc d5 af 86 bc
       0.004756751 -0.002077508 -0.024386907 -0.016441265
000250 09 8d 7f 3a 8c 00 31 bc 86 4b 06 bd 08 01 95 3b
       0.0009748494 -0.010803353 -0.03278687 0.004547242
000260 1c ae 08 bb 08 72 77 bc 14 28 3c bc fe bd c1 bc
       -0.002085573 -0.015102871 -0.011484165 -0.023650166
000270 ca 5f 30 bd 2c f0 90 bc c1 a8 27 bd b5 78 1a bd
       -0.0430601 -0.017692648 -0.04093242 -0.03771277
000280 ab 86 b3 bc 1c 9d 1b bd b0 97 b9 bc eb cd 8c bc
       -0.0219148 -0.037991628 -0.022655338 -0.017188033
000290 fe 7e 97 3a b9 36 a7 bc 8e 4b 8e 3b 69 4d de bc
       0.0011558232 -0.020411836 0.004342503 -0.027136521
0002a0 2f 0b 02 bd 49 4e 16 bd 98 90 38 bc 55 14 09 bc
       -0.031748947 -0.036695752 -0.011264943 -0.008366664
0002b0 a1 0c 0b bd 73 c5 0c bd 93 8b 34 3b d1 3b 9f 3c
       -0.03394759 -0.03436799 0.0027549013 0.019437702
0002c0 80 ce eb 3b 81 87 c8 bb 98 38 d4 bc 7e 3e 57 3c
       0.0071962476 -0.006119669 -0.025905892 0.013137458
0002d0 e2 f5 b8 bc 59 8d a3 bc d0 5f 84 bb bf 01 00 bd
       -0.022578184 -0.01996486 -0.004039742 -0.031251665
0002e0 70 5a fc 3a c2 f7 6b 3c 37 e2 80 3c 44 7f 04 3c
       0.0019253027 0.014402332 0.015732868 0.008086983
0002f0 b1 8f a6 bc 1e 18 8b 3a eb 72 9d bb 32 29 ad 3c
       -0.02033219 0.0010612046 -0.004804959 0.021137808
000300 e2 6b e7 bc a0 01 30 bc 27 69 cf bc d1 8a f0 3b
       -0.028249685 -0.010742575 -0.025318695 0.007340767
000310 fb 3b 79 3c 92 b6 ea 3b 98 18 1a 3b e7 6f a9 3b
       0.015212054 0.0071628774 0.0023513194 0.0051708105
000320 98 5b 07 3c ca 59 3f 3c ac d4 ab bc c6 db 76 bc
       0.008261584 0.011679122 -0.020975433 -0.0150670465
000330 88 93 8d bc 69 ec 61 bb 64 6d 3f 3c 71 1c e5 bc
       -0.017282262 -0.0034473187 0.011683796 -0.027967663
000340 37 e5 35 3c 70 62 af bb b1 14 c4 3c 64 c7 6c 3c
       0.011102012 -0.005352311 0.023935648 0.014451835
000350 0a c8 e1 bb 7c a1 95 bc a5 26 09 bc 71 2b 44 3c
       -0.0068903016 -0.018265478 -0.00837103 0.011973248
000360 89 c5 5f 3c 4b f1 4d 3c 73 85 86 3b 79 bf 8d 3c
       0.013657936 0.012569736 0.004105264 0.017303215
000370 b1 a9 af bc 12 59 5a bc 0c 3f 91 bb e6 04 85 bc
       -0.02144322 -0.0133269 -0.0044325646 -0.016237687
000380 ef 64 bd bc 32 55 04 3a c6 78 1d bc c4 27 40 3c
       -0.023119418 0.00050480955 -0.009611314 0.011728231
000390 9d 3b a8 3b c6 a0 58 bb 8a 45 f1 39 87 3d 91 bc
       0.0051340596 -0.0033054813 0.00046018913 -0.017729534
0003a0 fb c4 94 ba 32 73 57 bc fd 02 f2 bb 46 73 b0 3c
       -0.0011350209 -0.013150023 -0.00738561 0.021539342
0003b0 78 94 5f bc 69 8e 86 3b 5d 09 1d bc 7c 25 88 3a
       -0.013646238 0.004106332 -0.009584752 0.0010387148
0003c0 8c ea 77 bc 31 8f 28 bb 55 f3 84 bb c5 07 51 bc
       -0.015131604 -0.0025720114 -0.0040573278 -0.0127582
0003d0 69 85 d3 3a ee 69 46 bc 03 f8 c7 b9 fd 8e 01 3c
       0.0016137782 -0.012110217 -0.0003814102 0.007907626
0003e0 f9 25 d1 bb 34 7a 3c 3c 32 5d cc 3b 28 75 05 3c
       -0.0063827005 0.011503745 0.0062366957 0.008145608
0003f0 3f df 0f bc 89 7a 25 3c f2 7e f6 39 3d 9a 3c bc
       -0.008781253 0.010100015 0.00047015358 -0.011511383

fc.1.bias f4 [64]
000000 c8 0c 4a 3c aa 19 60 3e 27 2c 0a bd f9 61 2d 3b
       0.012332149 0.2188479 -0.033733513 0.0026456101
000010 ff 3e 0b 3f ef 64 8f 3e 85 78 2c bd 99 f7 68 bc
       0.54393 0.28006694 -0.042107124 -0.014219188
000020 45 e8 63 3c 91 1c 04 3f eb 09 0a 3f ed 9b 8c 3e
       0.013910358 0.5160609 0.53921384 0.27462712
000030 32 87 d2 3c c5 57 df 3d 04 4a 3e 3e 87 90 33 3f
       0.025699232 0.109054126 0.18582922 0.70142406
000040 5d 74 a8 bb 08 26 0d 3c f0 67 39 bd fe c8 03 bd
       -0.0051408247 0.008615024 -0.04526514 -0.032174103
000050 24 df b7 3c e4 d5 2b 3b d7 23 ef bc 4b 7b bc 3e
       0.022445269 0.0026220018 -0.029191894 0.36812815
000060 7d 78 e0 3b f9 84 b5 bc 2e 3f ee bc cc 94 e5 3d
       0.006850301 -0.022158133 -0.02908286 0.112100214
000070 d3 59 36 3e e8 b0 0d 3e 7a b7 ab bb d8 5b e7 bc
       0.17807703 0.13837016 -0.005240378 -0.028242037
000080 54 d9 50 3d 4d 7c 1b 3f d7 ae 28 bc 85 d4 9f 3e
       0.05098851 0.6073654 -0.010295591 0.31216827
000090 1c 28 8c bc 9f 78 2b 3f a0 16 3c 3d 75 07 74 3d
       -0.01710897 0.6698093 0.045920014 0.059577424
0000a0 d7 14 0c bd 4e 5c 81 3e f4 08 53 ba 0b 22 8e 3e
       -0.034199562 0.25265735 -0.00080503454 0.27760348
0000b0 d5 6c 31 3d 62 bd 28 3d b1 b7 09 3e 33 44 cf 3b
       0.04331668 0.041196235 0.13448979 0.0063252687
0000c0 19 68 ad bc e4 25 d4 3c 68 d9 54 3d 60 db 61 ba
       -0.021167802 0.025896974 0.051965147 -0.0008615758
0000d0 7e 65 c4 3e ee 4e cb 3e 00 b6 0a bb e2 e8 98 bc
       0.38358682 0.39708656 -0.002116561 -0.018665735
0000e0 73 43 95 bc 75 d1 3a bd f5 18 4e bd 79 58 de 3e
       -0.018220639 -0.04560991 -0.05031677 0.43426874
0000f0 b0 ab b3 bb 01 b6 b8 bc 61 33 86 3e 61 a7 ae 3e
       -0.005483113 -0.022547724 0.26211074 0.34112075

fc.3.weight f4 [4, 64]
000000 9b 01 84 3c a9 41 20 3e d0 4c 3d 3c 62 12 9c 3d
       0.016114047 0.15650047 0.011553958 0.07620694
000010 b1 58 a1 be b1 0f fd 3d db 15 bc 3d fc 19 be bd
       -0.3151298 0.123565085 0.09183856 -0.092823
000020 69 f0 b4 3d 26 d6 41 3d 22 64 08 3c 19 c4 67 bf
       0.08834917 0.04732337 0.008324655 -0.90533596
000030 11 5a 0c 3e 99 2e 26 3d 15 01 d4 bf 5e 3d d0 3e
       0.13706233 0.040571783 -1.656283 0.4067182
000040 19 8f 3c 3d 23 4f 53 be fc 9f cf 3d c9 c9 d6 3c
       0.046034906 -0.20635657 0.101379365 0.026219266
000050 33 1e 0e 3e c1 b5 94 3c 2e ee 7b bd 30 15 32 bf
       0.13878708 0.018153073 -0.061506443 -0.6956358
000060 48 da 3d bc 84 05 0f bc 12 8f d5 bd 87 ef 32 bd
       -0.011587687 -0.008729342 -0.10427679 -0.043685462
000070 91 9b 34 3c 8b 4f 0c 3d c7 ed 7b 3d eb 3f 58 3c
       0.011023418 0.034255546 0.06150606 0.013198833
000080 c5 ec 35 3e 30 85 05 bf 05 cc c7 bd 18 2a 91 3d
       0.17766102 -0.52156353 -0.097557105 0.07088107
000090 20 4c 29 3d 38 6a 3e be 9c b5 13 be 90 92 a5 3d
       0.041332364 -0.18595207 -0.14424747 0.08084595
0000a0 c2 0e 1f 3d 5a 62 c3 bc ed 25 2b bd 89 ee c5 3d
       0.038832434 -0.023850609 -0.041784216 0.096646376
0000b0 47 95 10 be 55 12 f0 be fe a9 57 3e a8 d4 54 3e
       -0.14119445 -0.46888986 0.2106094 0.20784247
0000c0 ef 90 2b 3d e6 a9 3b 3e d9 fd 81 3e 8d 80 35 bd
       0.041886266 0.1832653 0.25388983 -0.04431205
0000d0 04 f9 87 bf e2 30 68 bd c8 aa dd bc ea 84 6a 3e
       -1.0622869 -0.056687243 -0.027058974 0.22902265
0000e0 25 0a e4 bc 9f 88 7e 3d a0 99 aa bd 5a bc 65 bd
       -0.027836869 0.06214201 -0.08330083 -0.05608783
0000f0 23 a0 cd 3c b8 b7 84 bd fd 2d ba 3d f3 fc 81 3d
       0.025100773 -0.06480354 0.09090803 0.06347074
000100 2d 25 2a bc c8 93 28 bf 21 75 da 3d 3c 1c a9 bd
       -0.01038484 -0.65850496 0.10666872 -0.082573384
000110 70 74 3b bf 3a 11 4e 3e 02 24 4f bd 25 c9 90 3c
       -0.73224545 0.20123759 -0.05057145 0.017674038
000120 ba b2 0e bd 48 f0 f3 3c 71 b7 58 bf 87 a5 2d bd
       -0.034838416 0.029777661 -0.8465491 -0.042394187
000130 73 3a 68 3e a8 51 9c bf 60 60 8d 3d 5c c2 b1 3e
       0.22678547 -1.221242 0.06903148 0.34718597
000140 b2 6f 80 bc 1d b7 af bd d7 46 dc 3c f8 cc 60 3d
       -0.01567826 -0.08579848 0.026889248 0.054882973
000150 70 65 c0 3d c0 da 92 3d a3 e5 f4 3d d4 82 2a 3d
       0.09394348 0.071706295 0.11957862 0.041628674
000160 d8 5e 1f 3d c8 5a ae bd 70 94 a9 3d 72 f3 29 bc
       0.03890881 -0.08513409 0.08280265 -0.010372983
000170 c1 9f ac bf d5 c6 36 be 2b a0 d0 3d 34 b8 bc bd
       -1.3486253 -0.17849286 0.101867996 -0.092148215
000180 b3 a8 77 3d 6f e4 10 3d 34 01 ea 3c 29 3e 23 bd
       0.06046362 0.0353741 0.028565027 -0.039854202
000190 f7 6a 54 bd b3 aa 03 be 28 40 49 3e 6e 59 c8 3d
       -0.051859822 -0.12858085 0.1965338 0.09782682
0001a0 f9 d9 de bd e3 cb c0 bb 72 a3 fa 3a dc 26 8a 3d
       -0.10881419 -0.00588368 0.0019122197 0.06745693
0001b0 75 50 21 3e 8e d0 ea be cb 9f 50 bf e5 d9 93 bd
       0.15753348 -0.4586224 -0.81493825 -0.072192945
0001c0 06 4a 6e bd 5e 29 81 3e 74 53 52 3e 60 c4 7f bd
       -0.058176063 0.25226873 0.20539647 -0.062443137
0001d0 c7 7c 54 3d 8c 76 16 be 12 a3 a8 bd 1d 44 6f 3d
       0.05187681 -0.1469366 -0.08234228 0.058414567
0001e0 cb 4a c4 bc c4 2a ca ba 0f 53 58 bd a5 06 58 3d
       -0.023961445 -0.0015424122 -0.052813586 0.05274071
0001f0 11 1a 1f 3d be da d6 3d 11 ff c1 3d f8 27 04 3d
       0.03884322 0.104909405 0.09472478 0.03226468
000200 81 e1 c7 bc 65 60 6e be ba 50 82 3d 88 23 9f 3d
       -0.02439952 -0.23278959 0.063630536 0.07770449
000210 8d 3b de be e6 2b d3 3e 4b 88 a5 3d c7 73 35 3c
       -0.4340481 0.4124443 0.080826364 0.011074967
000220 6c 7b e9 3d 8b f5 28 bf 4f 63 78 3c 26 59 81 3d
       0.11400494 -0.6599967 0.015160396 0.06315832
000230 b6 b4 84 3e 6f e6 5a 3d 33 42 b4 3c 78 85 99 3e
       0.25919122 0.053442415 0.022004222 0.2998464
000240 79 64 53 3d 3c b5 4d bd 50 d3 af 3d 34 04 c8 3d
       0.05160949 -0.050221667 0.085852265 0.09766427
000250 75 16 cf bd d9 f2 3b 3c 27 72 96 3d db b1 bb 3d
       -0.10111705 0.011471474 0.073459916 0.091647826
000260 a6 ed 86 3d be 73 6b 3c 4b 2b d6 3c cf 6f 22 40
       0.065882966 0.014370857 0.02614369 2.5380743
000270 d9 3b 0a bb cf 45 e1 3d bd dd c4 3d 86 6e a9 bd
       -0.00210928 0.10999643 0.09612606 -0.08273034
000280 55 1f 57 be 33 8c c9 3c 8f d2 3d 3d 84 06 b2 bf
       -0.21008046 0.024602985 0.046343382 -1.3908238
000290 76 80 72 bd 05 ab 12 be ff bf 29 3e 1a 36 8c bf
       -0.05920454 -0.14323051 0.16577147 -1.095401
0002a0 30 43 ba 3d 3c 67 6c bd 30 02 22 3d b4 92 d4 3d
       0.09094846 -0.05771564 0.039552867 0.10379544
0002b0 b0 7c 30 3d 27 bf 55 3e 32 8f 89 3e 70 f1 e9 3d
       0.04308766 0.208737 0.26867062 0.11423004
0002c0 8f 18 18 bc ec 33 cf be 2d 84 29 3e 88 f4 3f 3d
       -0.009283199 -0.404693 0.16554327 0.046864063
0002d0 a1 a2 17 bd 1e f2 46 be 48 1b b8 bc 40 b4 f4 3d
       -0.03702033 -0.19428298 -0.022473946 0.119484425
0002e0 a7 59 c1 bd bf f0 b8 3d 83 b4 36 3d 09 9a 9e bf
       -0.09440928 0.09030294 0.044605743 -1.2390758
0002f0 8e 60 45 3d 44 d3 47 3c b6 28 24 3e 6d 9b a2 be
       0.048187785 0.012196366 0.16031155 -0.31759205
000300 bc b1 1d bc f0 7d e8 bc 65 0c 21 bd 19 b9 47 bd
       -0.009624895 -0.028380364 -0.03931846 -0.048760507
000310 44 e4 2b 3d 9a 53 e0 3d cb e7 1c bd e2 68 9d 3d
       0.041965738 0.10953446 -0.038306993 0.076860204
000320 e6 15 a7 bd 19 3d f3 bd 41 59 9a 3c 0b 06 a1 bd
       -0.08158474 -0.11876888 0.018841388 -0.07862481
000330 ec a0 7f 3d ff ed 97 3d 84 45 90 3d 04 31 bc 3e
       0.062409326 0.07418441 0.07044509 0.36756146
000340 4a b4 43 bd 0e b4 69 be ff fc 7c 3b 5a cd e1 bd
       -0.04777936 -0.22822592 0.0038602946 -0.11025496
000350 ef 5d 28 be 1c f3 75 bd e7 6c 86 bd 27 d2 e7 be
       -0.16442083 -0.0600463 -0.0656374 -0.4527752
000360 32 9d 14 3d 88 b7 ec bc 05 32 4f bd b8 33 5a bc
       0.036282726 -0.028896108 -0.05058481 -0.013317995
000370 e1 15 3e bc 58 15 35 3e 91 4d d9 bd 9e eb ea 3d
       -0.011601896 0.17683923 -0.10610498 0.11470722
000380 91 9f 70 3e 77 a0 2c 3c 41 dc 3f 3c ee 38 d0 bc
       0.2349837 0.010536305 0.0117102275 -0.025417771
000390 2d 74 99 bd c0 1d 14 bf a9 62 8a 3d 67 90 ed 3d
       -0.07492862 -0.57857895 0.06757099 0.11599808
0003a0 30 66 7c bd 24 fb ab bf 36 21 a3 3d f9 4e e5 bf
       -0.06162089 -1.3436017 0.07965319 -1.7914726
0003b0 11 88 25 3e 35 e8 93 3e 21 f7 50 3e 21 8a c2 3a
       0.16165186 0.28888097 0.20406772 0.0014842191
0003c0 8f da f5 3d cd ee 9d 3e 3f 24 07 bf 0b 7b 9a bc
       0.12004577 0.30846253 -0.5278968 -0.0188575
0003d0 a9 47 5d 3d cc 12 76 bf a4 df f4 3c b4 2e 8e be
       0.05402342 -0.9612243 0.029891796 -0.27770007
0003e0 02 35 dc bd ee 80 df 3d ea 63 a6 3b c0 71 ec 3c
       -0.10752298 0.10913263 0.0050778287 0.028862834
0003f0 75 50 df 3d 04 67 1b bd b7 1c b3 bf 9d 7d 3d 3d
       0.10904018 -0.03794004 -1.3993138 0.046262372

fc.3.bias f4 [4]
000000 e5 e7 00 3f 45 2e 0d 3f 5c 74 01 3f b2 c0 00 3f
       0.5035384 0.55148727 0.50568175 0.5029403
