models/v17.1/model_182500_target.pt (torch, 729952 bytes, 10 tensors)

conv.0.weight f4 [16, 2, 3, 3]
000000 9a 45 48 3e 67 b3 4e 3d b9 a2 5c bd ae ee a7 3c
       0.19557801 0.05046406 -0.053866122 0.020499554
000010 2c 33 5f bb ee c6 9b bd 8e fa 93 bc 23 e8 86 bd
       -0.00340576 -0.07606302 -0.01806381 -0.06587245
000020 e6 b9 cd 3d 41 dc 66 be fa fe b5 3d 3e 4d d3 3d
       0.10045223 -0.22544958 0.088865235 0.10317467
000030 25 6f a7 3c 01 fb 74 bd a6 7d 8a 3d 10 be 35 3d
       0.02043874 -0.05980969 0.06762247 0.04437071
000040 94 05 96 3d da 60 89 bd 5c bb f5 3d 26 3c 8e 3e
       0.07325283 -0.06707926 0.119986266 0.27780265
000050 25 47 84 bd 93 32 25 bd b7 0e 7c be 87 0f 13 3e
       -0.06458882 -0.040331434 -0.24614988 0.14361392
000060 dc 96 16 be fd 52 4c be 8c be 0d be 4d 1a 0b bd
       -0.14705986 -0.19953533 -0.13842219 -0.03396063
000070 31 8f a9 bc 51 0a e6 bb e0 a9 aa 3d 08 e9 b5 be
       -0.020698162 -0.007020273 0.08333182 -0.3552935
000080 8f 7f d9 3c d2 34 64 3e 69 26 68 3d ef 1e 1d 3e
       0.026550082 0.22285774 0.056677256 0.15343831
000090 a0 a1 4f 3d 1a 93 95 3e 30 a3 da bc 14 b7 8e 3a
       0.050691247 0.29213792 -0.026689142 0.0010888302
0000a0 77 ca b5 3d ea 86 4f 3e dd 56 16 3e 29 30 de 3e
       0.08876508 0.2026631 0.14681573 0.43396118
0000b0 8f 5a 39 3d 6e 6d 82 bd ba 80 8d be 94 62 b4 3c
       0.04525238 -0.06368528 -0.27637273 0.022019662
0000c0 78 1a f8 bb a8 78 91 bd 69 8c 73 be 52 27 12 be
       -0.0075715147 -0.071030915 -0.23784031 -0.14272812
0000d0 6a f1 03 bf f9 c8 a7 bc 54 69 6f 3a 13 16 55 bc
       -0.51540244 -0.020481573 0.00091328216 -0.013005751
0000e0 b9 f6 7e 3d 9c 2f 2e bd b7 86 c4 3b 57 2e 9a bf
       0.06224701 -0.042525873 0.0059975046 -1.2045392
0000f0 b6 04 9c 3b f5 5a 76 bd a0 cd bc 3c 0c 39 a9 bc
       0.004761304 -0.060145337 0.023047268 -0.020657085
000100 89 23 47 3c ad 8a 83 bd cb 49 16 3d 24 24 76 bb
       0.012154468 -0.06422935 0.03669147 -0.0037558163
000110 04 4e ce 3d 5e fe 8c bc 4b b7 3e 3d 2e 73 af bc
       0.10073474 -0.017211135 0.04656152 -0.021417227
000120 6e d1 24 3b d4 6e bb bd c4 17 07 be 25 a9 83 bd
       0.0025149244 -0.09151998 -0.1319266 -0.06428746
000130 e3 76 17 be fa 9e 21 3f 37 9b f3 3b fa 63 d6 bb
       -0.14791445 0.63133204 0.0074342745 -0.00654268
000140 91 b6 14 be 92 82 4a bc a7 a7 93 3d 28 84 14 3e
       -0.14522769 -0.012360232 0.072097115 0.14503539
000150 d1 d2 16 3d e3 b3 0a 3e 5a ee 9e 3e 57 84 cf 3a
       0.036822144 0.13545184 0.31041223 0.0015832287
000160 db 45 a0 3c d8 84 dd 3d 00 dc b6 3c ee 1e d2 bd
       0.01956456 0.108163536 0.022321701 -0.102598056
000170 80 c4 f0 3e 96 4e 11 bd c7 2f 26 bf b4 4e e0 bc
       0.47024918 -0.035475336 -0.6491665 -0.027381279
000180 75 d6 37 3b 70 a9 0c be 65 a3 98 bd b9 36 c8 bc
       0.002805141 -0.1373651 -0.0745304 -0.024440156
000190 3c a4 f8 3c 11 53 8c bc 88 8a 45 3d c0 58 94 bb
       0.03035175 -0.017129453 0.048227817 -0.0045271814
0001a0 c3 b9 79 bb 68 46 85 bb 4a 7c ed 3d 58 cd 90 3d
       -0.0038105107 -0.004067231 0.11595972 0.07070416
0001b0 10 45 7c be 77 f0 9b be 7e a9 f8 bc 6b 56 0f 3d
       -0.2463572 -0.30456898 -0.030354258 0.034994524
0001c0 0c ec ae bc 1a f0 57 bf 9e e4 c1 be 14 89 be be
       -0.02135279 -0.8435074 -0.37869734 -0.37213957
0001d0 73 9e 93 bd d3 a9 5d 3e aa d2 9d 3e 4a 6e bb 3c
       -0.07207956 0.21646814 0.30824786 0.022879738
0001e0 1c 63 c6 bc 71 8e e1 3b a1 b3 08 3f d6 ea 6c 3e
       -0.02421718 0.0068834354 0.5339909 0.23136458
0001f0 10 c2 bb 3e 96 0a eb 3c f9 35 c8 be 77 46 16 bf
       0.36671495 0.028691571 -0.39103678 -0.5870127
000200 56 fe 94 3d 63 d8 11 be 88 77 df 3d ae 09 e9 3d
       0.07275073 -0.14242701 0.10911471 0.113787994
000210 0f 8b 8f bf ca 05 fe bc 7f 67 1f bd cb 43 6b 3e
       -1.1214312 -0.03100862 -0.03891706 0.2297508
000220 a2 f4 65 3e 43 e0 49 bd b8 eb 1b 3c fb cd a6 bc
       0.22456601 -0.04928614 0.009516649 -0.020361891
000230 64 6b 9e 3d 81 39 cb 3e a7 25 b0 3d 6a 6a 94 3d
       0.07735327 0.3969231 0.086009316 0.07246859
000240 13 de 7e 3d 27 90 0c 3d e1 82 51 bc 22 27 8c 3d
       0.062223505 0.034317162 -0.012787552 0.068434015
000250 aa c8 65 3e 1b 4d d9 3a a1 c4 ac be 89 4c fe be
       0.22439829 0.0016578765 -0.33743766 -0.49667767
000260 67 27 03 bf 83 a4 68 bd f0 c8 b4 3d 75 52 17 3d
       -0.51232 -0.056797516 0.08827388 0.03694387
000270 67 81 4c 3d 9a 1e 83 3d 12 31 fa 3d c1 72 ac bd
       0.049928095 0.06402321 0.12216391 -0.08420325
000280 5d 42 82 3e 49 30 13 bd 5f f5 66 3c bd 40 03 bd
       0.25441256 -0.03593472 0.014096587 -0.03204416
000290 a0 94 c2 3c c4 e3 ea 3c 30 63 62 bd 14 cd e0 3e
       0.02375251 0.02867306 -0.055270374 0.43906462
0002a0 b3 b3 4c bc 75 57 d7 bd f1 be 95 bd 16 c1 9c 3b
       -0.0124940155 -0.10514728 -0.0731181 0.00478376
0002b0 cf 07 e3 3c d8 0b 16 bc ef 7a bc bb 87 5d 9d 3d
       0.027713684 -0.009158097 -0.0057519595 0.076838546
0002c0 c6 d8 e9 be 39 8d 1c 3c 1f a2 fc 3d c3 a7 b0 3d
       -0.45673198 0.0095551545 0.1233561 0.08625748
0002d0 5f f3 a0 3c b9 f2 18 bd 8e 25 80 bc 37 42 8f bd
       0.019647298 -0.037340853 -0.015642907 -0.06995051
0002e0 80 62 14 3f ea c9 b1 bd ee f2 15 3a 00 52 5f bd
       0.579628 -0.0868109 0.0005720098 -0.05452156
0002f0 61 ce 39 3d eb c0 c1 bb 43 fe 00 3d 53 bc 2c 3c
       0.045362834 -0.00591289 0.031492483 0.010542947
000300 11 45 9b 3d 3b 47 cb 3e c5 d0 89 3d c6 84 15 bc
       0.07581533 0.39702782 0.06729273 -0.009125894
000310 c5 c8 7b 3d 19 db 00 bd 51 1f 81 bc 31 bd 49 3d
       0.061470766 -0.031458948 -0.015762003 0.049252693
000320 5c 43 8d bd 03 7a fe 3b 6f 9c 53 3f 4a d0 a3 3b
       -0.068976134 0.00776601 0.82660574 0.004999195
000330 ec 16 89 bd 27 4e d4 3c 23 f9 89 bd f8 a2 95 3c
       -0.06693825 0.025916172 -0.06736972 0.018266186
000340 e6 bd 56 bd 01 46 89 3d d5 56 da bc 4e ee 90 bd
       -0.052427195 0.06702805 -0.026652733 -0.07076703
000350 9c 82 19 bd fe 50 92 3d d7 15 54 bd dd 32 8c 3d
       -0.037478074 0.07144354 -0.05177864 0.06845639
000360 61 f1 a6 bd 26 b7 15 be 91 6b ae bd 68 13 7a bd
       -0.08151508 -0.14620647 -0.085166104 -0.061053663
000370 71 6e 32 c0 7d f4 27 3c 50 40 f0 bd d8 4f cb bd
       -2.7879908 0.010251162 -0.11731017 -0.09927338
000380 73 da 03 be 03 b0 bc 3d b5 92 aa 3d 65 ce b3 3d
       -0.128763 0.09213259 0.083287634 0.08779601
000390 44 4b 3a 3d 0c 21 3d 3f 64 05 81 bd bb 8b f8 3d
       0.045481935 0.7387855 -0.06299856 0.121360265
0003a0 f3 3e dc 3c 1b af 1f 3e c2 6e fa bc 40 e0 ea bc
       0.026885485 0.15594141 -0.030570392 -0.028671384
0003b0 60 fe 73 bd f1 03 49 bd 8a e3 97 be 57 93 77 bf
       -0.059568763 -0.049076024 -0.29665786 -0.967092
0003c0 59 84 29 3e 6f fe d8 bd cd 48 95 bd cd 81 7d 3c
       0.16554393 -0.10595404 -0.07289276 0.015472841
0003d0 b1 b6 a8 3d db b2 62 3d ac 48 2e bd d3 0b 04 3e
       0.082379706 0.05534635 -0.042549774 0.12895136
0003e0 f0 07 0d 3f 91 7b c2 3d 4a 6b 24 3e a9 58 a6 3d
       0.55090237 0.09496225 0.16056553 0.08122379
0003f0 a7 a5 0e bf c5 d7 0b bf be 8c 64 bf b6 2f c1 bd
       -0.55721515 -0.54626113 -0.89277256 -0.09432928

conv.0.bias f4 [16]
000000 b3 3e e0 bd e9 f1 91 be 64 96 0a be 4a 7a 04 3f
       -0.10949459 -0.28504875 -0.13533932 0.517491
000010 40 bd 15 bf 1c 38 89 be 95 38 a9 bc cf 16 49 be
       -0.584919 -0.2680062 -0.020656863 -0.19637607
000020 53 b3 ce be 5e 9b aa bd 21 c9 2f bf 8f 59 d9 be
       -0.4037119 -0.08330415 -0.68666273 -0.4245114
000030 a2 1c 94 3e 4f 21 84 be f1 82 db bc 17 bf 23 be
       0.28928095 -0.25806662 -0.026795836 -0.15990864

conv.2.weight f4 [32, 16, 3, 3]
000000 be e0 88 bd 31 ae 6b 3c 4d 59 1d bd 48 f5 88 bc
       -0.06683491 0.014384792 -0.038415242 -0.016718522
000010 86 b4 8f bd a7 b6 a7 bc 9d 04 a8 3d 40 32 ed bc
       -0.07016854 -0.020472838 0.08204005 -0.028954625
000020 d3 1f c6 bd 07 7e 8e 3d 45 d4 d1 3d 64 92 ad 3d
       -0.09674039 0.069576316 0.10245565 0.084751874
000030 78 57 10 3e 5a a2 de 3d 7e 92 fc 3c ac 40 48 3d
       0.14095867 0.1087081 0.030831572 0.0488898
000040 14 ee 20 bd 6d 16 2e bd f1 ba 33 3e a0 08 ef bc
       -0.03928955 -0.042501856 0.17551781 -0.029178917
000050 94 47 43 bd ff 2e 03 bd 40 c6 c5 bb 26 74 67 be
       -0.047675684 -0.03202724 -0.006035596 -0.22602901
000060 6b 4e fa bd 67 2f 79 be a4 f9 41 be f9 69 5c 3c
       -0.12221988 -0.24334489 -0.18942887 0.013453
000070 05 d1 1c bd 58 b4 09 be 80 84 e9 3b 46 c9 8f bd
       -0.038285274 -0.13447702 0.007126391 -0.07020812
000080 78 02 9d bd 3e 72 47 3d 76 30 f2 bd a0 c1 b3 be
       -0.076664865 0.048692934 -0.118256494 -0.35108662
000090 5c 8c 93 3d 37 f6 e7 3d 6d 08 91 be 70 c7 12 be
       0.07204506 0.11326259 -0.2832674 -0.14333892
0000a0 8e 95 25 be a6 41 ab be aa 7e eb 3d b7 93 f7 bd
       -0.16170332 -0.33448523 0.11498769 -0.12088721
0000b0 72 86 37 be 6f 45 2d 3d 25 70 d9 3c 4a c8 b5 bd
       -0.1792238 0.042302545 0.026542732 -0.08876093
0000c0 d6 5e 25 3e e9 30 b7 3d 77 e5 83 be 44 38 a3 3d
       0.16149458 0.08944876 -0.25761005 0.07969716
0000d0 6c b3 8f 3d f1 ce 02 be 0f 4b 35 3d 1b 6d 3a 3e
       0.07016644 -0.12774254 0.044261035 0.18205683
0000e0 87 5f 5e 3c 9a f6 1e 3e 80 65 3f 3d d1 a7 34 bd
       0.01357258 0.15523759 0.046727657 -0.044105355
0000f0 aa b1 8a 3d 53 f6 ab 3c 86 ed 34 be b9 9f 45 be
       0.06772168 0.02099148 -0.17668733 -0.1929921
000100 94 53 18 bd d8 04 98 3c 86 0e 89 bd 58 6d 8c bc
       -0.03718908 0.018556997 -0.06692223 -0.017141983
000110 73 e1 2a bd ec 03 a1 bd c9 dd a5 bd 52 2b 07 be
       -0.04171891 -0.07862076 -0.08098943 -0.13200119
000120 60 d6 b6 3d a7 1e 89 3d f5 d3 13 3d fa b0 91 bd
       0.089276075 0.066952996 0.03609081 -0.07113834
000130 76 ff 17 3e 64 60 04 be fd 2d ca 3d b4 f8 42 bd
       0.14843544 -0.12927395 0.09872053 -0.047600463
000140 35 74 1e be 7a cc c4 3d 16 5b 71 be 1f e3 2f 3d
       -0.15474017 0.09609313 -0.23569903 0.04294121
000150 e7 2c de 3d 5f 59 1d be d5 5a 21 bd 3e 46 2d be
       0.10848408 -0.15366124 -0.039393265 -0.16921327
000160 88 00 6a be 84 95 98 3c d1 68 4a 3d f4 dd a3 ba
       -0.22851765 0.018625982 0.049416367 -0.001250206
000170 73 97 02 be 58 a9 e5 bc a9 f3 de 39 83 3a 17 be
       -0.12753086 -0.028034851 0.0004252468 -0.14768414
000180 0d c3 9b bd a7 3b fd bc ea ce 92 bd a1 bd 12 3c
       -0.07605562 -0.030912234 -0.07168372 0.008956344
000190 29 df 03 bc d5 33 97 bd 4d e1 16 be ca ee 52 be
       -0.008048811 -0.07382933 -0.14734383 -0.20598903
0001a0 b4 dd 11 be e5 0d 00 be 23 e3 0d be 47 13 c4 3b
       -0.1424473 -0.125053 -0.13856177 0.0059837434
0001b0 9f 4f 53 3c bc 75 2e 3d 9b 06 f1 3c 4e cb 09 be
       0.012897401 0.04259275 0.029422095 -0.13456461
0001c0 d5 1e 11 bc 27 ff cb 3c 09 cf 09 be ef 88 19 be
       -0.008857449 0.02490194 -0.13457884 -0.14993642
0001d0 73 e3 e6 bc 5d 77 b6 bb 1d 24 5e 3c 6e 21 52 3d
       -0.028184628 -0.0055684284 0.013558415 0.051301412
0001e0 cf d4 85 3d ce 13 99 3c d1 0f b4 bc 80 1f 15 bd
       0.06534731 0.018686201 -0.021980198 -0.036406994
0001f0 30 c4 2e bd 0b 8d aa 3c db e8 a5 3c fa d6 df ba
       -0.042667568 0.020819208 0.020252636 -0.0017077618
000200 61 58 e9 bb 92 5c 02 bd 60 3f 34 be cc 00 c2 bd
       -0.0071211313 -0.031826563 -0.176023 -0.09472808
000210 ab 43 1b bd 7d 87 2c bd 6b 73 b2 3d 0b 6e 06 be
       -0.03790633 -0.0421214 0.087134205 -0.13127916
000220 81 da 5a bc 38 3e b5 bd 68 d0 d0 bd 05 40 da 3d
       -0.013357759 -0.08849758 -0.10196 0.10656742
000230 b6 f4 24 3c cf 0e b5 bd 17 85 1a be 78 81 8f bd
       0.010068109 -0.08840715 -0.15089832 -0.07007116
000240 80 77 36 3e 9b 29 2e be a7 b9 35 3e c6 21 09 3e
       0.17819023 -0.17008059 0.17746602 0.1339179
000250 f0 34 f5 3d 16 6e f5 bd b0 6f d0 bd 56 e6 3d 3d
       0.11972988 -0.11983888 -0.10177553 0.046362244
000260 ee 82 30 bd 30 c8 0e 3e 76 cd 06 3d 8f 43 66 3e
       -0.043093614 0.13943553 0.032910787 0.22486709
000270 30 88 a0 bd 33 cc 1d 3e 92 15 d5 3d f0 53 81 3e
       -0.07838476 0.15409927 0.10404505 0.25259352
000280 63 86 b2 3a ff 38 fd 3d e4 70 e5 3d 39 9d 55 3e
       0.0013620373 0.12364387 0.11203173 0.20860757
000290 69 3c 30 3e 04 c8 96 3e e6 a1 5f be 61 05 1a be
       0.17210545 0.29449475 -0.21839103 -0.15041114
0002a0 80 1e b2 3e 7d a0 0d 3d c1 4f 27 3d 1b 82 1e c0
       0.34788895 0.03457688 0.040847544 -2.476691
0002b0 6f 43 02 3e 8f da 9a bd d5 6f 8c 3c 1b c6 f2 bc
       0.12721036 -0.07561218 0.01714317 -0.02963548
0002c0 8b 49 fe 3c cc 9e 15 bd fb e1 30 bd 6b bb 89 bc
       0.031040927 -0.036528394 -0.04318426 -0.016813
0002d0 84 c1 63 bf fc b2 9e 3e 98 da 5d bd ca d9 5c 3c
       -0.88967156 0.3099593 -0.054163545 0.013479659
0002e0 2a 7a ae 3d a7 65 82 3d 5d 24 13 3d 02 b9 31 bd
       0.08519395 0.06367045 0.03592335 -0.043389328
0002f0 9b 14 63 bc b6 01 64 be 78 ca 83 bf ed 06 68 bb
       -0.013859893 -0.22266278 -1.0296164 -0.0035404519
000300 20 0d 65 be 8f c9 20 bd 9c 11 11 be a6 86 0b bd
       -0.22368288 -0.03925472 -0.14166874 -0.034063958
000310 16 47 79 3c 5d 5a ba 3c 76 47 05 3d 79 52 c5 3d
       0.015214702 0.022748167 0.032538854 0.09634871
000320 8a c8 e7 bd 3c cc 20 3e 94 e9 96 3b 2d 9e e0 bd
       -0.11317547 0.15702909 0.0046054814 -0.1096767
000330 3f 17 6b 3e d3 15 67 bc 11 0f b0 bc ad e6 89 3d
       0.22958086 -0.014104324 -0.02149156 0.06733451
000340 37 07 a6 bd 22 f5 76 be fc 7d 3e 3d 8d ac ad bd
       -0.08106845 -0.24116948 0.046506867 -0.08480177
000350 52 03 31 be ff 67 b3 3e 79 85 94 bd e9 90 c7 3d
       -0.17286423 0.3504028 -0.072520204 0.09744436
000360 98 66 47 3e a4 83 6d be e7 c7 5a 3e 96 c5 ba 3d
       0.1947273 -0.23194748 0.21365319 0.09119718
000370 dc 99 d2 3e 5e 37 ce 3d 96 54 71 3e 9c 16 4e 3e
       0.4113301 0.10069154 0.23567423 0.20125812
000380 32 8e bb bd 06 99 6a bc 61 ba 04 bf a7 03 b4 bd
       -0.09157981 -0.01431871 -0.5184689 -0.08789759
000390 24 9b 63 3e fe e1 64 3c 5e a6 6f be 9e 42 15 3f
       0.2222715 0.013969896 -0.23403308 0.58304775
0003a0 ea cb 2a 3e 31 c0 f2 bd 7a 92 dc bd ad 34 ef be
       0.1667935 -0.11853064 -0.10770126 -0.46719876
0003b0 d1 84 c4 3e f7 24 12 3d 37 ff 62 be 04 dd a5 3b
       0.3838258 0.035679784 -0.22167669 0.0050617475
0003c0 cb cb bc 3c 5c 8a 2f bd 29 7f 8b 3b 6c 98 e7 3d
       0.023046395 -0.04285656 0.004257102 0.11308369
0003d0 4e 45 eb be a1 bd 0a 3e 65 ce cc 3d a0 0f d2 bd
       -0.45951313 0.135489 0.10000304 -0.102568865
0003e0 6e dc 53 bd 07 aa c6 bc d5 11 31 3d 41 ea 02 3b
       -0.05172389 -0.024250997 0.043229897 0.0019976052
0003f0 f0 5d 8a 3d 91 b1 94 bf d7 d3 34 bf f5 90 47 3e
       0.067561984 -1.1616689 -0.7063574 0.1948889

conv.2.bias f4 [32]
000000 42 56 8e 3c 5f 84 18 3c 59 dd 8f bd cf 68 a7 3d
       0.017375115 0.0093089035 -0.070246406 0.081742875
000010 58 a8 10 3d 81 61 3c bd 77 5d 6f 3e 42 de 93 bd
       0.035316795 -0.045991424 0.23375498 -0.07220127
000020 34 08 7a be eb 6c a7 be 31 41 1b 3e ad 32 88 3e
       -0.24417192 -0.32700285 0.15161587 0.26601163
000030 e1 70 dc bd e8 08 5c 3c de fb a8 3d 57 20 39 be
       -0.107637174 0.013429858 0.08251165 -0.18078743
000040 5b 7f 0e bb c4 77 15 bd ba 49 3e 3e 66 20 ea bd
       -0.002174339 -0.03649117 0.18582812 -0.11431961
000050 54 04 1f 3e d3 47 92 bd a4 a5 39 bc 9b a7 6a bd
       0.15528995 -0.07142606 -0.011330996 -0.057288747
000060 46 ac 0f be f0 1a a4 3e 23 c8 f6 3d 60 73 02 be
       -0.14030561 0.32051802 0.12049892 -0.12739325
000070 f6 2c 0f bd 50 b1 e3 3c 49 a8 bf bd 3d 7d 19 3e
       -0.034954987 0.02779451 -0.0935827 0.14989181

conv.4.weight f4 [64, 32, 6, 6]
000000 4d 01 49 bc 11 d1 6d bd d0 f9 88 3d 03 fd 7b bc
       -0.012268377 -0.05806071 0.06688273 -0.015380147
000010 4b c7 3e 3d 04 dc 7f bc 88 62 05 bd 7f 86 25 3d
       0.04657678 -0.015616421 -0.03256467 0.04041147
000020 28 2f ef 3c 53 65 b3 3c 33 70 88 bc c8 f4 1f 3d
       0.02919729 0.021898901 -0.016655063 0.0390518
000030 95 b5 5c bb ca c9 c5 3c 67 67 d1 bc ae 88 34 bd
       -0.0033677567 0.024144072 -0.025562001 -0.04407566
000040 ab 6e e2 bb 95 0b ec 3c 9c 3f 43 3c aa d9 96 3d
       -0.0069101653 0.028814116 0.011917021 0.07365735
000050 31 59 9f ba 74 f1 55 bd ef 35 44 bd 10 43 a3 3d
       -0.0012157318 -0.05223222 -0.047902998 0.079717755
000060 48 48 ca 3c 56 b0 df bb 2b 1f 80 bd 68 12 d6 3c
       0.02469267 -0.006826441 -0.06255945 0.026131824
000070 09 9e f1 ba cd 71 18 bb 07 c3 d8 3b 73 35 89 bc
       -0.0018433939 -0.002326119 0.006615046 -0.01674912
000080 d8 77 17 bd f9 1d 6a 3a ce 26 27 bd 78 85 b3 bb
       -0.036979526 0.0008930858 -0.04080849 -0.005478557
000090 06 ca 8c bd 52 94 00 3d fa 03 c8 3e 2c 77 6f bd
       -0.068744704 0.03139145 0.39065534 -0.05846326
0000a0 1f d3 79 be f9 81 69 bd e3 a1 01 bd 57 ea c9 3d
       -0.24396943 -0.057008717 -0.031648528 0.0985915
0000b0 71 5a cb 3d 01 32 e1 be c9 bc 82 be b6 bf f0 3e
       0.0992936 -0.43983462 -0.25534657 0.47021264
0000c0 36 06 2c bf 4b 34 65 3e cc ed 82 bd b6 5b 25 3e
       -0.6719698 0.2238323 -0.063930124 0.16148266
0000d0 a9 65 a1 3e e6 cb 8a 3e 50 be bc 3d b5 8e 04 be
       0.31522873 0.27108687 0.09215987 -0.12945063
0000e0 e5 bc 41 bd 4b 54 69 bd 6e 78 1e bd 0b 16 81 3e
       -0.047299284 -0.056965154 -0.03868907 0.2521213
0000f0 4e 9c 12 3e 0f 04 23 3e 2e aa 15 3e 3f 2c 92 3e
       0.14317438 0.15919517 0.146157 0.28549382
000100 1c f1 b3 3d ff 93 72 3e ae b0 a3 be 83 20 bd 3e
       0.08786222 0.23689269 -0.31970733 0.36938867
000110 ae 26 c0 3e b1 e6 4c 3e 40 d8 ba 3e 22 97 39 bf
       0.3752951 0.20009877 0.3649311 -0.72496235
000120 39 b5 28 bc 0f 61 35 bd d4 ab bb bc ea 75 46 bd
       -0.010297113 -0.044282015 -0.022909082 -0.048452295
000130 e1 cd 2b 3c 6f c6 cb bc 86 62 5a bc 38 a1 a1 3b
       0.010486097 -0.024874894 -0.013329154 0.004932549
000140 7d 03 dc ba 16 52 74 3c 3f d5 b5 3c c4 dc 2a 3c
       -0.0016785708 0.014912149 0.02219641 0.010428611
000150 e8 bd b0 3b 61 e4 62 bc 59 e3 e4 bc 84 cf c4 3c
       0.0053937323 -0.013848395 -0.027940439 0.024024732
000160 bd 76 6d 3c 79 06 2b bc c5 7d b3 bc 68 29 a1 3c
       0.014493641 -0.010438555 -0.021910558 0.019673064
000170 a8 69 ab bc 19 97 82 3c 99 6e 1d bd 4a d7 17 bc
       -0.020924404 0.01594119 -0.038435552 -0.0092676375
000180 2b 83 09 bb af 8f 19 3d de 8d 15 3b 93 9e b7 3c
       -0.0020982723 0.037490543 0.0022820155 0.022414481
000190 4e 3d 1f bc 7c b6 f9 3c f4 13 e4 3c 9e 44 07 3d
       -0.009719206 0.030482523 0.027841546 0.033024423
0001a0 c3 a9 2d 3d 7d 56 32 3c 4a b1 94 bb 33 81 70 3b
       0.042398226 0.010884878 -0.004537736 0.0036698102
0001b0 3e e5 16 be a8 a3 6b 3e f8 e2 50 bd 07 4c 42 be
       -0.14735886 0.23011649 -0.050997704 -0.18974315
0001c0 55 cb ca be dd 4b 92 3e 91 28 21 3d 6c 0f 96 3e
       -0.39608255 0.28573504 0.039345328 0.2930864
0001d0 cf 53 f0 3d 39 c9 49 3d bf 81 05 3f 51 75 c9 be
       0.11734735 0.049264167 0.521511 -0.39347318
0001e0 98 a5 c2 3e 4a e9 79 3e 82 ed 1e 3e bb a8 28 3e
       0.38016963 0.24405399 0.1552029 0.16470616
0001f0 aa 46 2b 3e 30 5f b9 3e 49 60 99 3e 26 c8 93 3e
       0.16726175 0.36205435 0.29956272 0.2886364
000200 57 d3 5a 3e 6b 2e a4 3d 5f 63 b2 3e af 70 b2 3e
       0.21369682 0.08016666 0.3484144 0.34851596
000210 a4 05 1f bc 5b 20 c4 3e db cb b3 3e 50 54 92 3e
       -0.009705935 0.38305935 0.35116467 0.2857995
000220 be a2 06 3f 6b 8b 0a bf f5 61 10 3d 82 0b 04 bf
       0.52592075 -0.54118985 0.03524967 -0.5158006
000230 b0 8f f8 be 72 89 21 be 69 22 7f 3e af 27 c5 be
       -0.48547125 -0.15775087 0.2491547 -0.3850684
000240 6b 82 03 3e c4 cc 33 3e 45 8a 80 bd 48 fb 80 3e
       0.1284272 0.1755858 -0.06276373 0.25191712
000250 76 fc ce 3e 62 8b 08 be 0b 75 d4 3e 8e 87 b3 3e
       0.40426987 -0.1333442 0.41495547 0.35064358
000260 61 5c dc be e0 32 ef be 4e 21 2a bf 99 6b 2b bb
       -0.4303923 -0.46718502 -0.6645707 -0.0026156662
000270 1c 50 05 bf fc c5 c4 3d 77 8f b5 be 2f ce ed 3c
       -0.5207536 0.09608075 -0.35461017 0.02902898
000280 b1 cf 88 3e 63 41 b8 be 8e 89 ac 3e 54 0f 62 be
       0.26720956 -0.35987386 0.33698696 -0.2207616
000290 24 60 bb be 18 2c 8f be 31 a4 9b be 8c de eb 3d
       -0.36596787 -0.27963328 -0.30398706 0.11517057
0002a0 28 80 dd 3e 4a a9 10 3d 8b 26 33 bd 70 24 4d bd
       0.43261838 0.035317697 -0.04373793 -0.050083578
0002b0 90 9d da 3d ef b8 b4 3e b5 9a 14 be 5b 2b 60 3e
       0.10674584 0.35297343 -0.14512141 0.21891539
0002c0 99 27 2a 3d b7 1f de bd 27 c1 b8 3b ef e4 42 bf
       0.04154167 -0.10845893 0.00563826 -0.76130575
0002d0 eb 02 bf 3c 05 2f cf 3c 9e 5c 19 3e 52 40 94 3d
       0.023316821 0.025290975 0.14976737 0.072388306
0002e0 b3 3a 20 3e f9 d9 94 3d 7c fb f4 3e cc d8 68 3e
       0.15647392 0.072681375 0.47848117 0.22738951
0002f0 bd 91 91 3e 48 50 f5 3d c7 9f 9a 3c 50 51 12 3e
       0.28431502 0.11978203 0.018875016 0.14288831
000300 9b dc 0c 3f 43 8a a1 3e ad 1e 28 3e 06 9e af 3e
       0.5502412 0.31550798 0.16417952 0.3430025
000310 33 07 09 3e 54 4f c7 3d 9c 9d a8 3e b9 ab 57 3e
       0.13381653 0.097319275 0.32932746 0.210616
000320 99 99 57 3e c1 18 4f 3e 73 00 ae 3d fd c4 11 be
       0.21054687 0.20224287 0.084961794 -0.14235301
000330 0a 38 ef 3c 1f 0c b2 3e 8b 66 cc 3e 2f 3a c0 3d
       0.029201526 0.34774873 0.39921984 0.09386098
000340 08 7a 8a 3d 66 93 83 be 3f 70 bc bd 60 93 15 3e
       0.06761557 -0.25698394 -0.09201097 0.14607
000350 f6 b8 81 3e 74 bb e1 3d 98 4c 90 3d d7 56 76 3d
       0.25336426 0.11022082 0.07045859 0.06014141
000360 40 e1 9f 3d 76 4b d4 3d 1a 0b 28 3e 70 eb b7 3d
       0.07806635 0.103659555 0.16410485 0.08980453
000370 67 6f 17 3e 62 dd cb ba 0a 6b 4d 3e 0f 63 20 3e
       0.1478859 -0.0015553648 0.20060363 0.15662788
000380 39 1b 1c 3e 8d b7 1c 3e 70 db 9c 3d cc ed 84 bd
       0.1524476 0.15304394 0.07659042 -0.06490669
000390 8a 48 3c 3e 0c 5e b6 3c e5 ef 41 3e fb 6c ec 3d
       0.18387046 0.022261642 0.18939169 0.11544224
0003a0 12 09 a8 3d 57 d4 34 bd 45 7b 50 3d aa 31 81 bd
       0.08204855 -0.044147816 0.05089881 -0.06308301
0003b0 6e 8d 13 3d 90 3b e9 3d 10 bc 04 3e 70 e7 4f 3c
       0.03602355 0.11388314 0.12962365 0.012689456
0003c0 08 40 2c 3e 1b 91 2d 3e f1 39 92 3d 84 82 24 3e
       0.16821301 0.16949885 0.07139958 0.16065413
0003d0 69 c6 87 3d 4e 65 28 3c 0b 1c 32 3e a8 9c a3 bd
       0.066296406 0.010278059 0.1739351 -0.07988864
0003e0 fa b8 88 3c db b5 04 3e c8 80 4b bd 65 29 d3 bd
       0.016689766 0.12959997 -0.049683362 -0.1031063
0003f0 5c 49 84 3c 73 f0 8a 3c d6 d8 67 bc b4 74 ba 3c
       0.016148262 0.016960358 -0.014150819 0.022760727

conv.4.bias f4 [64]
000000 f6 a5 6f be 98 2d 34 be c6 f1 b5 be ae ca ab be
       -0.23403153 -0.17595518 -0.3553602 -0.3355307
000010 4f fc 0b be af f4 8a be 43 6d c0 bd ba 9e 2e be
       -0.13670467 -0.27139804 -0.0939584 -0.17052737
000020 9c d4 d0 be 2e a7 35 bd f4 6b 2c be 1c 9a 3e bd
       -0.40787208 -0.044348888 -0.16838056 -0.04653369
000030 c4 67 3d bd 79 6c f1 be f5 dd ec be 26 da d9 be
       -0.046241537 -0.4715307 -0.4626309 -0.42549247
000040 15 cc 6f be 7b ad 0a 3e 25 98 82 bd 65 3e 93 be
       -0.23417695 0.1354274 -0.063766755 -0.2875854
000050 9d a5 bc be a0 92 34 be 28 02 01 3f 60 c7 7b be
       -0.36845103 -0.17634058 0.50393915 -0.24587774
000060 e7 46 ab be 90 b0 96 be 50 51 b5 be df 5b 74 be
       -0.33452532 -0.29431581 -0.354136 -0.23863171
000070 c5 e7 a0 be 66 00 ce be cf f5 da be ae b6 2f 3e
       -0.31426826 -0.4023468 -0.42765662 0.1715953
000080 01 04 ad be c1 90 aa 3e 6b 09 7a be d1 7d b6 be
       -0.33792117 0.33313563 -0.24417655 -0.35642865
000090 86 52 bf be c6 c4 89 3e 2f 5a 48 be e5 77 59 be
       -0.37367648 0.2690794 -0.19565652 -0.21237142
0000a0 a1 0c c1 be 03 39 27 bf 0d 6d 51 bd 1f f8 d4 be
       -0.37704948 -0.6532137 -0.05112939 -0.4159555
0000b0 88 91 95 bd c7 21 a3 bc 7f ae 89 3e 78 8b 02 bf
       -0.073031485 -0.019913567 0.26890942 -0.5099406
0000c0 ae 40 09 be 3d 03 a2 be ea 5f 97 be 63 d9 87 be
       -0.1340358 -0.31643096 -0.29565364 -0.2653304
0000d0 3a 5b 46 3c 58 21 c9 bd 3d 57 a3 be 8e 18 04 bf
       0.012106711 -0.09820813 -0.31902495 -0.5159997
0000e0 d1 08 b2 be ac 7b 95 be 68 6d 8c be f0 88 54 3e
       -0.3477235 -0.29195917 -0.2742722 0.20755363
0000f0 14 46 d6 be cd 1f 39 bb b1 b7 bb be 7c 8b 3a be
       -0.4185034 -0.0028247715 -0.36663583 -0.18217272

fc.1.weight f4 [64, 1600]
000000 3b fb b5 3b be ab f8 ba 67 ab 89 bc 75 9e 8f 3c
       0.0055536306 -0.0018972082 -0.016805364 0.017531613
000010 56 64 d7 3a 1a 45 c6 bc e9 19 09 bc 72 43 1d 3c
       0.0016433101 -0.024202872 -0.008367994 0.0095986
000020 50 29 a2 3c eb 63 30 bb cb 89 b3 bc 97 93 99 3c
       0.01979509 -0.0026915025 -0.02191629 0.018747134
000030 cc e3 11 bb f2 bc ae bc ea ab 7f bc b9 d5 c8 bc
       -0.0022261022 -0.02133033 -0.015604952 -0.024515973
000040 d3 79 45 bc 37 b6 a5 bb cd 5b a0 bc 2e f5 ca bb
       -0.012052971 -0.005057122 -0.019575024 -0.0061937785
000050 91 25 8a bc 40 a2 29 bc 50 f4 3b 3a e1 3d 57 bc
       -0.016863616 -0.010353625 0.0007169889 -0.013137312
000060 25 77 02 bc 96 d3 b2 bb bc 30 8e 3c c6 4b 43 3c
       -0.007962977 -0.005457352 0.017357223 0.011919921
000070 5f b1 89 3c ae 5b 22 3c 9f e8 ae 3c e1 56 39 bc
       0.01680821 0.009909553 0.021351157 -0.011312217
000080 c2 cf a8 3c 04 75 89 bc 7e fd 38 3c 46 4c dc 3b
       0.02060688 -0.01677943 0.011290906 0.0067229597
000090 f5 93 8e bc 8f ee be 3b 01 63 47 bc 5b 7f 26 3c
       -0.017404536 0.0058267782 -0.0121696 0.0101622
0000a0 ff 4e b0 bc d1 d5 f3 bb 53 80 b7 3c 05 03 bf bc
       -0.021522043 -0.0074412604 0.022400057 -0.02331687
0000b0 ce 4f 1c 3c 1b 53 59 bc ee 76 9d 3b ca 3e 0e bb
       0.009540511 -0.013264443 0.0048054373 -0.0021704906
0000c0 12 46 e6 bb f4 dc 94 3c 0e 10 a1 3c 04 db 9a 3c
       -0.007027396 0.018171765 0.019660976 0.018903263
0000d0 6c 25 65 bc 6e 54 d2 3c cf c8 44 3b 20 06 8b bc
       -0.013985973 0.025675025 0.0030026918 -0.016970694
0000e0 b9 ae c2 bc 78 a0 33 bc 8f 47 ea 3c 3e b8 9d bc
       -0.023764955 -0.010963552 0.028598575 -0.019252893
0000f0 5d b8 3e 3c b5 d7 1e bc fc 0a b6 3c c3 b0 f3 bb
       0.011640635 -0.009694983 0.022222035 -0.007436843
000100 1e cd 96 bc a5 f0 2a 3c ba f8 83 bc be 88 07 bc
       -0.018408354 0.010433351 -0.016109813 -0.008272348
000110 80 0f 8b bc ab 1c b2 bb ae 01 f2 3a 62 2e a4 3c
       -0.016975164 -0.0054355464 0.0018463635 0.020041648
000120 80 3f f2 bb fa 20 f7 3c 4e c0 b1 3c 4d a8 ed 3b
       -0.0073928237 0.030167092 0.021698143 0.007252729
000130 c1 4d 5f 3c 12 bb 4d 3b 3f a8 04 bb bd fd 77 3b
       0.013629378 0.003139202 -0.0020241884 0.0037840449
000140 65 4c 3a bc 96 6f a3 3c 81 dd 1b bc 6f 98 aa bb
       -0.011370753 0.01995067 -0.00951326 -0.00520616
000150 8e 09 e8 bb 60 ed b1 bc 3c 55 21 ba 38 45 a4 bc
       -0.007081217 -0.021719635 -0.00061543635 -0.020052537
000160 61 56 04 3c 33 ec 55 3b 58 27 ae bc 0f 0b 37 3c
       0.008077235 0.0032642006 -0.021258995 0.01117207
000170 c7 90 b8 bc 22 f9 1b 3c 95 6d 73 3b a8 de 2c 3c
       -0.022529973 0.009519847 0.0037144173 0.010551132
000180 b7 91 b2 bc 0b 2e 53 ba 73 cb ee ba 62 5e db 3b
       -0.021797998 -0.0008055872 -0.0018218592 0.006694601
000190 12 db 21 3c ac 84 c4 bb 2d ca 1e bc b5 79 c0 3b
       0.009878891 -0.005997261 -0.009691757 0.0058738836
0001a0 60 f1 87 bb 53 09 5d bc 82 a9 5a 3c d0 c5 9d 3b
       -0.004148647 -0.013490993 0.013346078 0.004814841
0001b0 87 44 ae 3c 61 b5 b0 3b c9 d7 e0 bb 15 0c a8 3b
       0.02127291 0.005392716 -0.006861661 0.0051283934
0001c0 4c dc ee bb a6 e5 b2 3c 2b eb a8 3c 13 7b a7 3c
       -0.007289445 0.02183802 0.02061995 0.020444429
0001d0 c9 7f dd bc 7a 69 28 3b 04 44 04 3c fd 71 cf bc
       -0.027038472 0.0025697635 0.008072857 -0.025322909
0001e0 a8 08 ee bb a7 0d ed 38 8f 5b 47 bc c5 f0 9a 3b
       -0.0072642155 0.000113035836 -0.012167825 0.004728409
0001f0 da 52 9e bc 03 b4 93 bb 0a c1 5c 3c 5e b9 e3 bc
       -0.019326616 -0.004507543 0.0134737585 -0.02779835
000200 ba 6b 08 bd e7 7b cb bc ed db b1 3b d0 ae 28 bc
       -0.03330586 -0.024839355 0.0054278285 -0.010295585
000210 b1 33 cc 3b 43 62 9f 3c 47 5e a3 bc 0b af 42 3c
       0.006231748 0.019456035 -0.019942416 0.011882554
000220 3a fc 92 bc f6 6e 98 bb 90 2e 82 bc fe 06 b2 bb
       -0.017942537 -0.0046518994 -0.015891343 -0.0054329624
000230 e8 ba 0a 3c 9d 8c 97 3c 66 d0 af 3c 07 cd 93 3b
       0.0084674135 0.018499667 0.021461677 0.004510525
000240 85 de 9b 3b cd 26 08 bb 0d c7 c7 bc d5 af 86 bc
       0.004756751 -0.002077508 -0.024386907 -0.016441265
000250 09 8d 7f 3a 8c 00 31 bc 86 4b 06 bd 08 01 95 3b
       0.0009748494 -0.010803353 -0.03278687 0.004547242
000260 1c ae 08 bb 08 72 77 bc 14 28 3c bc fe bd c1 bc
       -0.002085573 -0.015102871 -0.011484165 -0.023650166
000270 ca 5f 30 bd 2c f0 90 bc c1 a8 27 bd b5 78 1a bd
       -0.0430601 -0.017692648 -0.04093242 -0.03771277
000280 ab 86 b3 bc 1c 9d 1b bd b0 97 b9 bc eb cd 8c bc
       -0.0219148 -0.037991628 -0.022655338 -0.017188033
000290 fe 7e 97 3a b9 36 a7 bc 8e 4b 8e 3b 69 4d de bc
       0.0011558232 -0.020411836 0.004342503 -0.027136521
0002a0 2f 0b 02 bd 49 4e 16 bd 98 90 38 bc 55 14 09 bc
       -0.031748947 -0.036695752 -0.011264943 -0.008366664
0002b0 a1 0c 0b bd 73 c5 0c bd 93 8b 34 3b d1 3b 9f 3c
       -0.03394759 -0.03436799 0.0027549013 0.019437702
0002c0 80 ce eb 3b 81 87 c8 bb 98 38 d4 bc 7e 3e 57 3c
       0.0071962476 -0.006119669 -0.025905892 0.013137458
0002d0 e2 f5 b8 bc 59 8d a3 bc d0 5f 84 bb bf 01 00 bd
       -0.022578184 -0.01996486 -0.004039742 -0.031251665
0002e0 70 5a fc 3a c2 f7 6b 3c 37 e2 80 3c 44 7f 04 3c
       0.0019253027 0.014402332 0.015732868 0.008086983
0002f0 b1 8f a6 bc 1e 18 8b 3a eb 72 9d bb 32 29 ad 3c
       -0.02033219 0.0010612046 -0.004804959 0.021137808
000300 e2 6b e7 bc a0 01 30 bc 27 69 cf bc d1 8a f0 3b
       -0.028249685 -0.010742575 -0.025318695 0.007340767
000310 fb 3b 79 3c 92 b6 ea 3b 98 18 1a 3b e7 6f a9 3b
       0.015212054 0.0071628774 0.0023513194 0.0051708105
000320 98 5b 07 3c ca 59 3f 3c ac d4 ab bc c6 db 76 bc
       0.008261584 0.011679122 -0.020975433 -0.0150670465
000330 88 93 8d bc 69 ec 61 bb 64 6d 3f 3c 71 1c e5 bc
       -0.017282262 -0.0034473187 0.011683796 -0.027967663
000340 37 e5 35 3c 70 62 af bb b1 14 c4 3c 64 c7 6c 3c
       0.011102012 -0.005352311 0.023935648 0.014451835
000350 0a c8 e1 bb 7c a1 95 bc a5 26 09 bc 71 2b 44 3c
       -0.0068903016 -0.018265478 -0.00837103 0.011973248
000360 89 c5 5f 3c 4b f1 4d 3c 73 85 86 3b 79 bf 8d 3c
       0.013657936 0.012569736 0.004105264 0.017303215
000370 b1 a9 af bc 12 59 5a bc 0c 3f 91 bb e6 04 85 bc
       -0.02144322 -0.0133269 -0.0044325646 -0.016237687
000380 ef 64 bd bc 32 55 04 3a c6 78 1d bc c4 27 40 3c
       -0.023119418 0.00050480955 -0.009611314 0.011728231
000390 9d 3b a8 3b c6 a0 58 bb 8a 45 f1 39 87 3d 91 bc
       0.0051340596 -0.0033054813 0.00046018913 -0.017729534
0003a0 fb c4 94 ba 32 73 57 bc fd 02 f2 bb 46 73 b0 3c
       -0.0011350209 -0.013150023 -0.00738561 0.021539342
0003b0 78 94 5f bc 69 8e 86 3b 5d 09 1d bc 7c 25 88 3a
       -0.013646238 0.004106332 -0.009584752 0.0010387148
0003c0 8c ea 77 bc 31 8f 28 bb 55 f3 84 bb c5 07 51 bc
       -0.015131604 -0.0025720114 -0.0040573278 -0.0127582
0003d0 69 85 d3 3a ee 69 46 bc 03 f8 c7 b9 fd 8e 01 3c
       0.0016137782 -0.012110217 -0.0003814102 0.007907626
0003e0 f9 25 d1 bb 34 7a 3c 3c 32 5d cc 3b 28 75 05 3c
       -0.0063827005 0.011503745 0.0062366957 0.008145608
0003f0 3f df 0f bc 89 7a 25 3c f2 7e f6 39 3d 9a 3c bc
       -0.008781253 0.010100015 0.00047015358 -0.011511383

fc.1.bias f4 [64]
000000 c8 0c 4a 3c 0c ef 45 3e 27 2c 0a bd 02 80 fa 3b
       0.012332149 0.1932947 -0.033733513 0.0076446543
000010 29 ca 08 3f 49 17 8b 3e 85 78 2c bd 99 f7 68 bc
       0.5343347 0.27166203 -0.042107124 -0.014219188
000020 45 e8 63 3c e4 3e f9 3e bf 3c 03 3f 57 61 90 3e
       0.013910358 0.48680794 0.51264566 0.28199264
000030 60 8d 24 3d 26 01 d7 3d eb 77 33 3e b8 f6 30 3f
       0.04017389 0.10498266 0.17526214 0.6912646
000040 5d 74 a8 bb 8d ed bc 3b f0 67 39 bd fe c8 03 bd
       -0.0051408247 0.005765623 -0.04526514 -0.032174103
000050 2f 62 77 3c e4 d5 2b 3b d7 23 ef bc 53 ec a8 3e
       0.015099092 0.0026220018 -0.029191894 0.329928
000060 7d 78 e0 3b f9 84 b5 bc 2e 3f ee bc 8f c8 c1 3d
       0.006850301 -0.022158133 -0.02908286 0.09462082
000070 cf 47 30 3e 69 de 07 3e 7a b7 ab bb d8 5b e7 bc
       0.17214893 0.13268436 -0.005240378 -0.028242037
000080 f4 56 33 3d d7 8c 13 3f d7 ae 28 bc 37 9b a5 3e
       0.043784097 0.5763678 -0.010295591 0.32344982
000090 1c 28 8c bc ac 75 25 3f 5b fe ed 3c 0a c0 8f 3d
       -0.01710897 0.6463268 0.02905195 0.070190504
0000a0 64 35 ef bc b7 48 81 3e f4 08 53 ba 80 90 88 3e
       -0.029200263 0.2525079 -0.00080503454 0.26672745
0000b0 39 99 31 3d 28 bb 61 3c 75 0f f9 3d 41 e2 61 3b
       0.043359015 0.013777532 0.12161151 0.0034467133
0000c0 19 68 ad bc 14 c1 12 3d d2 a5 7a 3d 60 db 61 ba
       -0.021167802 0.035828665 0.061193295 -0.0008615758
0000d0 86 94 c0 3e 61 73 c1 3e 00 b6 0a bb c3 7e af bc
       0.37613314 0.3778334 -0.002116561 -0.02142275
0000e0 73 43 95 bc 75 d1 3a bd f5 18 4e bd 5f fd d8 3e
       -0.018220639 -0.04560991 -0.05031677 0.42380807
0000f0 b0 ab b3 bb 01 b6 b8 bc ad 32 73 3e 34 88 a1 3e
       -0.005483113 -0.022547724 0.237498 0.31549227

fc.3.weight f4 [4, 64]
000000 9b 01 84 3c f3 ce 21 3e d0 4c 3d 3c 62 12 9c 3d
       0.016114047 0.15801601 0.011553958 0.07620694
000010 f9 40 a4 be 05 25 01 3e db 15 bc 3d fc 19 be bd
       -0.3208082 0.12611778 0.09183856 -0.092823
000020 69 f0 b4 3d 27 e2 4b 3d 2b cb 48 3c 98 a1 67 bf
       0.08834917 0.049776223 0.01225547 -0.9048095
000030 1e ef 28 3e 4c ec 0f 3d 7f ce cf bf 08 f5 cd 3e
       0.16497466 0.03513746 -1.6234893 0.40226007
000040 19 8f 3c 3d b6 74 61 be fc 9f cf 3d c9 c9 d6 3c
       0.046034906 -0.22017178 0.101379365 0.026219266
000050 c0 04 14 3e c1 b5 94 3c 2e ee 7b bd 05 a9 2f bf
       0.14454937 0.018153073 -0.061506443 -0.6861728
000060 48 da 3d bc 84 05 0f bc 12 8f d5 bd 24 f1 8b bd
       -0.011587687 -0.008729342 -0.10427679 -0.06833103
000070 09 52 44 3c 0d c3 59 3d c7 ed 7b 3d eb 3f 58 3c
       0.011982449 0.05316453 0.06150606 0.013198833
000080 bd 27 0d 3e 8c b5 0e bf 05 cc c7 bd 57 39 96 3d
       0.1378469 -0.5574577 -0.097557105 0.073351555
000090 20 4c 29 3d 97 7b 3d be c1 12 31 be 8f 8c ae 3d
       0.041332364 -0.18504177 -0.1729231 0.08522903
0000a0 c2 0e 1f 3d 47 93 07 bd ed 25 2b bd dc c7 cc 3d
       0.038832434 -0.03309944 -0.041784216 0.09999058
0000b0 48 ed 0e be fb 29 db be 0d a1 81 3e 4f d9 41 3e
       -0.13957703 -0.42805466 0.25318184 0.18930553
0000c0 ef 90 2b 3d f8 bf 44 3e 59 20 8c 3e 8d 80 35 bd
       0.041886266 0.19213855 0.2736843 -0.04431205
0000d0 39 a2 8c bf 08 3f 71 bd c8 aa dd bc 61 c1 68 3e
       -1.0987006 -0.058898002 -0.027058974 0.22730018
0000e0 25 0a e4 bc 9f 88 7e 3d a0 99 aa bd e3 74 41 bd
       -0.027836869 0.06214201 -0.08330083 -0.047230612
0000f0 23 a0 cd 3c b8 b7 84 bd 69 3c ff 3d 07 89 a8 3d
       0.025100773 -0.06480354 0.12462694 0.08229261
000100 2d 25 2a bc 58 40 21 bf 21 75 da 3d 3c 1c a9 bd
       -0.01038484 -0.62988806 0.10666872 -0.082573384
000110 3a 7f 38 bf 00 0c 4f 3e 02 24 4f bd 25 c9 90 3c
       -0.7206913 0.20219421 -0.05057145 0.017674038
000120 ba b2 0e bd 78 6b 16 3d 4f fc 69 bf 9b 76 27 bd
       -0.034838416 0.036723584 -0.9140062 -0.040884595
000130 36 8b 7e 3e a0 5e 96 bf a5 2e 5f 3d 83 d9 af 3e
       0.24857792 -1.1747627 0.054487843 0.34345636
000140 b2 6f 80 bc 97 a5 d4 bd d7 46 dc 3c f8 cc 60 3d
       -0.01567826 -0.10383146 0.026889248 0.054882973
000150 50 3d cd 3d c0 da 92 3d a3 e5 f4 3d 62 af 08 3d
       0.1002146 0.071706295 0.11957862 0.033370383
000160 d8 5e 1f 3d c8 5a ae bd 70 94 a9 3d 36 18 01 bd
       0.03890881 -0.08513409 0.08280265 -0.03151723
000170 f7 94 ad bf 01 5f 24 be 2b a0 d0 3d 34 b8 bc bd
       -1.3561085 -0.16051866 0.101867996 -0.092148215
000180 53 8c 4c 3d 77 c9 e4 3c 34 01 ea 3c 25 cc 44 bd
       0.04993851 0.027928097 0.028565027 -0.04804625
000190 f7 6a 54 bd b5 ea cd bd 14 ed 4b 3e bc 57 b8 3d
       -0.051859822 -0.100545324 0.19914657 0.09001109
0001a0 f9 d9 de bd cd c7 c4 bc 72 a3 fa 3a a5 94 85 3d
       -0.10881419 -0.024021054 0.0019122197 0.06522492
0001b0 21 f0 21 3e 36 19 e7 be f6 d0 49 bf 1e 69 51 bd
       0.15814258 -0.45136422 -0.78834474 -0.05112564
0001c0 06 4a 6e bd 31 af 86 3e da 2c 45 3e 60 c4 7f bd
       -0.058176063 0.26305535 0.19255391 -0.062443137
0001d0 5d 8d 60 3d b5 5a 2f be 12 a3 a8 bd fc f4 83 3d
       0.054822315 -0.17124446 -0.08234228 0.064432114
0001e0 cb 4a c4 bc c4 2a ca ba 0f 53 58 bd 10 6a 5e 3d
       -0.023961445 -0.0015424122 -0.052813586 0.054300368
0001f0 11 1a 1f 3d be da d6 3d 0e 9e df 3d 17 0b 55 3d
       0.03884322 0.104909405 0.109188184 0.05201253
000200 81 e1 c7 bc 1e d3 5e be ba 50 82 3d 88 23 9f 3d
       -0.02439952 -0.21760222 0.063630536 0.07770449
000210 3f 14 e8 be f1 5d d3 3e 4b 88 a5 3d c7 73 35 3c
       -0.45327947 0.4128261 0.080826364 0.011074967
000220 6c 7b e9 3d c6 dc 2e bf 0c 1f 1c 3c 39 1e 38 3d
       0.11400494 -0.68305624 0.0095288865 0.044950698
000230 ad da 94 3e a8 5d 56 3d 82 39 c7 3c 9e f5 98 3e
       0.29073086 0.05233541 0.024319414 0.2987489
000240 79 64 53 3d 0e 33 a0 bd 50 d3 af 3d 34 04 c8 3d
       0.05160949 -0.07822238 0.085852265 0.09766427
000250 62 8a ab bd d9 f2 3b 3c 27 72 96 3d 09 28 c5 3d
       -0.08376004 0.011471474 0.073459916 0.09626777
000260 a6 ed 86 3d be 73 6b 3c 4b 2b d6 3c 6c fc 21 40
       0.065882966 0.014370857 0.02614369 2.5310316
000270 e1 d6 d7 bb 69 30 f2 3d bd dd c4 3d 86 6e a9 bd
       -0.006586895 0.1182564 0.09612606 -0.08273034
000280 79 cf 7c be 00 90 12 3d 8f d2 3d 3d c6 b6 ae bf
       -0.2468852 0.03578186 0.046343382 -1.3649528
000290 76 80 72 bd ed 2c ed bd 22 32 40 3e 90 6e 8b bf
       -0.05920454 -0.115808345 0.18769124 -1.0893116
0002a0 f0 7e c4 3d 5c d6 84 bd 30 02 22 3d eb eb f4 3d
       0.09594524 -0.06486198 0.039552867 0.1195906
0002b0 8e 98 47 3d ee 21 5d 3e d0 d9 8f 3e 6d 58 d4 3d
       0.04872947 0.21594974 0.28095865 0.103684284
0002c0 8f 18 18 bc c4 8e c7 be c6 6b 0d 3e 88 f4 3f 3d
       -0.009283199 -0.3897611 0.13810644 0.046864063
0002d0 55 75 12 bd 6b 00 07 be 48 1b b8 bc 65 90 ed 3d
       -0.035756428 -0.13183753 -0.022473946 0.11599807
0002e0 a7 59 c1 bd bf f0 b8 3d 83 b4 36 3d 56 4d 9f bf
       -0.09440928 0.09030294 0.044605743 -1.2445476
0002f0 8e 60 45 3d 44 d3 47 3c 62 27 15 3e f0 fd 9a be
       0.048187785 0.012196366 0.14565805 -0.30271864
000300 bc b1 1d bc bf 8f f0 bc 65 0c 21 bd ea 2c 5c bd
       -0.009624895 -0.029365418 -0.03931846 -0.05375377
000310 6f f1 f2 3c 96 d7 c8 3d cb e7 1c bd e2 68 9d 3d
       0.02965614 0.09806745 -0.038306993 0.076860204
000320 e6 15 a7 bd 0d 79 f6 bd a6 88 ac 3c dd 0b 9a bd
       -0.08158474 -0.12034807 0.021061253 -0.07521794
000330 91 86 5c 3d 11 1c 8c 3d 2b 43 9b 3d 3d e2 b9 3e
       0.05383927 0.06841291 0.07581171 0.3630542
000340 4a b4 43 bd 84 a8 7a be ff fc 7c 3b 5a cd e1 bd
       -0.04777936 -0.24478346 0.0038602946 -0.11025496
000350 1d ba 04 be 1c f3 75 bd e7 6c 86 bd 52 48 e3 be
       -0.12961622 -0.0600463 -0.0656374 -0.44391114
000360 32 9d 14 3d 88 b7 ec bc 05 32 4f bd d3 32 79 bc
       0.036282726 -0.028896108 -0.05058481 -0.015209871
000370 08 f5 81 3b dc 63 2d 3e 91 4d d9 bd 9e eb ea 3d
       0.0039659776 0.16932625 -0.10610498 0.11470722
000380 6a c2 55 3e 7f 18 07 bb 41 dc 3f 3c 9f 7c e2 bc
       0.20874944 -0.0020613966 0.0117102275 -0.027647315
000390 2d 74 99 bd be ba 1b bf 1f 18 a0 3d 40 56 e7 3d
       -0.07492862 -0.6083182 0.07817101 0.11295748
0003a0 30 66 7c bd 9d d7 b0 bf 36 21 a3 3d 42 6d e8 bf
       -0.06162089 -1.38158 0.07965319 -1.8158343
0003b0 c8 a8 27 3e cd 10 96 3e aa 8a 5e 3e a7 03 a4 bc
       0.16372979 0.29309693 0.21732584 -0.020021273
0003c0 8f da f5 3d 9b c4 a9 3e 7c ee 0e bf 0b 7b 9a bc
       0.12004577 0.3315781 -0.5583265 -0.0188575
0003d0 1d 26 83 3d df f3 7c bf a4 df f4 3c c5 c7 2a be
       0.06403754 -0.9880962 0.029891796 -0.16677769
0003e0 02 35 dc bd ee 80 df 3d ea 63 a6 3b 17 9d 05 3d
       -0.10752298 0.10913263 0.0050778287 0.032620516
0003f0 75 50 df 3d 04 67 1b bd f8 7a ac bf 5a 47 6d 3d
       0.10904018 -0.03794004 -1.3475027 0.057929374

fc.3.bias f4 [4]
000000 93 47 fb 3e ac e7 08 3f ea 5a fd 3e e6 04 fe 3e
       0.49078044 0.53478503 0.49483424 0.49613112
