models/v17.1/model_121500_target.pt (torch, 729952 bytes, 10 tensors)

conv.0.weight f4 [16, 2, 3, 3]
000000 40 8f 46 3e 73 47 4d 3c 7d 11 9e bd 58 74 8a 3c
       0.19390583 0.012529242 -0.077181794 0.01690118
000010 db 45 10 bd 70 dc a9 bc a6 6f d3 bc 0b 22 4d bd
       -0.03522287 -0.020734996 -0.025810074 -0.050081294
000020 e3 0b ef 3d c2 01 4f be 64 4d 8c 3d 3f 8c 85 3d
       0.11672189 -0.20215514 0.068506986 0.065208904
000030 44 4b 8e 3c da ae 11 bd e1 b8 ab 3d 57 e0 4c 3d
       0.017369874 -0.035567142 0.08384872 0.050018635
000040 f4 af c0 3d d1 69 86 bd 36 c9 f3 3d 09 31 78 3e
       0.094085604 -0.06563152 0.11903612 0.24237455
000050 0e 9d 03 bd 52 e7 d7 bd 0c a6 44 be 88 c8 09 3e
       -0.0321322 -0.10542168 -0.19203967 0.13455403
000060 6d c9 3b be 10 7e 9a be 72 dc 03 be c0 f9 38 bd
       -0.18338557 -0.30174303 -0.12877062 -0.045160055
000070 18 b1 01 bd ab 10 d2 3b f7 62 c0 3d 0f cd 9b be
       -0.03166303 0.0064106784 0.09393876 -0.30429885
000080 13 99 33 3d 18 7d 75 3e 27 f3 f4 3d d5 02 2a 3e
       0.043847155 0.239735 0.1196044 0.16602643
000090 7e 91 80 3d f8 d5 a2 3e c8 6b b6 bc ae 05 73 bc
       0.062777504 0.3180387 -0.022268191 -0.014832897
0000a0 cc 4a ed 3d 17 c2 97 3e e2 f1 4f 3e 5d ef dd 3e
       0.11586532 0.29640266 0.20307115 0.43346682
0000b0 f7 73 9c 3d a9 b5 d8 bd ae 0b 8f be 2b b9 eb 3b
       0.07639306 -0.10581524 -0.27938598 0.0071937046
0000c0 e5 60 2c 3d c9 59 3c bd 6b a7 ae be 71 bc 32 be
       0.042084593 -0.045984063 -0.34112105 -0.17454697
0000d0 12 cf dc be 3c 1a 04 bd 24 1a dc 3c df 34 53 bc
       -0.43126732 -0.03225158 0.026867934 -0.012891023
0000e0 f5 a9 7e 3d 50 e3 24 bd ab 29 fc 3c 7d d7 a5 bf
       0.062173802 -0.040255845 0.030781588 -1.2956387
0000f0 5b 5f 62 3c 46 e7 82 bd d5 d5 bf 3c cd 6d 2f bd
       0.01381668 -0.06391768 0.023417393 -0.042829324
000100 b3 ad 8a 3a 5c 41 7e bd 64 bd 1d 3d aa e8 19 bd
       0.0010580331 -0.06207405 0.038510695 -0.0375754
000110 4d 12 a8 3d e7 53 fe bb 34 4f 89 3d d5 8c ad bc
       0.082066156 -0.007761467 0.0670456 -0.021185318
000120 06 e2 af 3c 26 8c b3 bd ab 8c fd bd 79 f1 9d bd
       0.021470081 -0.087669656 -0.12380346 -0.07712073
000130 f2 c6 0a be 45 7b 18 3f 76 5a a2 3b 5a 1c 57 3c
       -0.13552454 0.59563094 0.0049546314 0.013129318
000140 ca 45 0c be fa 29 23 bd 35 b0 b1 3d ee 69 0e 3e
       -0.13698497 -0.039834954 0.08676187 0.13907596
000150 63 59 8b 3d 88 1e fe 3d b9 c2 95 3e 8d e8 18 bc
       0.068041585 0.12408167 0.29250124 -0.009332788
000160 35 9c 17 bc 49 b1 d6 3d f1 57 4c 3d e7 e6 78 bd
       -0.009253551 0.10483033 0.049888555 -0.06076708
000170 fe d9 e9 3e 94 62 54 bd 1d 53 1a bf 47 60 cf bc
       0.45674127 -0.051851824 -0.6028307 -0.025314463
000180 ea 40 d6 3c b0 f5 1f be 4e e6 ce bd 03 df 81 bd
       0.026154 -0.15621066 -0.10102521 -0.06341364
000190 70 bd fa 3c 2f c8 dc bc 16 af 0a 3d 10 04 6b bd
       0.030607909 -0.026950924 0.03385838 -0.05737692
0001a0 95 f8 b3 bb f9 e7 a0 bc c4 60 23 3e 79 29 9a 3d
       -0.00549228 -0.019641863 0.15954882 0.075274415
0001b0 d0 da b0 be 16 bb d0 be 72 76 99 bc 19 f8 82 3c
       -0.3454194 -0.40767735 -0.018733237 0.015987443
0001c0 6b 65 07 3d 34 32 36 bf 82 e5 bf be 3d a9 f4 be
       0.033055704 -0.71170354 -0.37479788 -0.4778537
0001d0 93 e3 a8 bd cd 8d 5e 3e 5d 47 68 3e 80 97 4f 3c
       -0.08246531 0.2173378 0.22683473 0.012670398
0001e0 36 f8 ff bb c2 0c 5d 3a a3 45 be 3e e5 f9 48 3e
       -0.0078115715 0.0008432382 0.37162504 0.19626577
0001f0 cc 0a 70 3e 1e 8e 3f 3d da 27 08 bf 99 d5 05 bf
       0.23441619 0.046766393 -0.5318581 -0.5227905
000200 34 66 42 3d 2b d0 af bd 2d f1 da 3d 50 c8 0f 3e
       0.04746075 -0.08584627 0.10690532 0.14041257
000210 54 75 5d bf 98 c1 bc bd fb 1a 10 bd a7 06 88 3e
       -0.86507154 -0.092166126 -0.03518198 0.26567575
000220 12 82 92 3e c7 5f a6 bd bf 43 c8 3c 7f 87 08 bd
       0.2861486 -0.08123737 0.024446366 -0.033332344
000230 e5 ff d2 3d d2 de 7f 3e ec 1d 8f 3d ec e8 5a 3d
       0.10302714 0.24987343 0.06988129 0.053444788
000240 c2 57 a1 3d 03 7f bb 3d 15 9b 08 3d 4b 14 99 3d
       0.078780666 0.09155085 0.033351023 0.07474574
000250 b5 dd 65 3e 0c f6 b0 bc 8b b4 39 be 2c 5e cd be
       0.22447856 -0.0216017 -0.18135278 -0.4011091
000260 33 b9 b1 be f4 81 b5 bd 5a f0 f6 3d 97 5d 19 3c
       -0.34711608 -0.08862677 0.12057562 0.009360692
000270 da fe 1f 3d 49 47 7d 3d 91 ba 01 3e 9f db c1 bd
       0.039061405 0.06183556 0.12668826 -0.094657175
000280 b3 34 be 3d 6b ad c3 3b 32 2f ad bb 49 86 7e bd
       0.09287395 0.005971601 -0.005285167 -0.062139783
000290 ba 2e 4d 3d 0b bc e2 3c 95 bd 25 bd 23 13 16 3f
       0.05009339 0.027677556 -0.040464003 0.5862295
0002a0 b6 09 ac bc 20 d1 28 be 0d 6a 9a bd 81 15 a8 3b
       -0.021000724 -0.16486025 -0.07539759 0.0051295166
0002b0 f5 d5 53 3d 90 6a 98 bd 12 13 8e bc ed c4 71 3d
       0.051717717 -0.074422 -0.017343078 0.059025694
0002c0 ff 5e 1f bf 88 4e f7 3b 60 9a 14 3e 72 7e 95 3d
       -0.6225433 0.0075472035 0.14512014 0.07299508
0002d0 d0 7d dd 3c b8 e1 b1 bb fb 30 5a 3b 07 f2 ac bd
       0.027037531 -0.005428519 0.0033293355 -0.084446006
0002e0 9d 93 0c 3f 4d 0e c1 bd fd 8a 90 3c e0 44 8c bd
       0.5491274 -0.09426556 0.0176444 -0.06849074
0002f0 1b e5 4d 3d 19 52 49 bc c2 be ff 3b 18 40 4d bc
       0.05026732 -0.01228764 0.0078047225 -0.012527488
000300 b5 98 ba 3d 8f dc bc 3e 07 00 af 3d 8d 8c 04 3b
       0.09111158 0.36887023 0.08544927 0.0020225376
000310 16 65 a1 3d bc d9 89 bd f7 eb c1 bc a9 79 78 3d
       0.07880609 -0.06730983 -0.023672087 0.0606629
000320 41 a3 93 bd f7 21 61 3c 71 d0 4e 3f be 5a c6 3c
       -0.072088726 0.013741008 0.80786806 0.024213191
000330 8e 77 be bd 22 ea d1 3c ec 9f cc bd 90 43 8b 3c
       -0.09300147 0.025624339 -0.0999144 0.01699999
000340 93 e1 7e bd f2 92 8b 3d e9 ed a9 bc cf 88 86 bd
       -0.062226843 0.06815137 -0.020743327 -0.06569063
000350 66 43 a1 bd 36 90 d1 3d c5 74 49 bd 26 22 d2 3d
       -0.07874183 0.10232584 -0.049183626 0.102604195
000360 7a 41 c5 bd b2 f9 48 be df 93 9c bd e4 03 d3 bd
       -0.09631629 -0.19626501 -0.07645392 -0.103034765
000370 9e 18 ed bf 7c 6e 35 3d 90 e5 f2 bd be 8b 20 be
       -1.8523138 0.04429482 -0.11860192 -0.15678307
000380 b6 fb 26 be c1 6d fb 3d 02 9b 0c 3e 49 b9 a1 3d
       -0.16306958 0.12276793 0.13731006 0.078966685
000390 7c d9 ab 3d 72 8d 92 3e ac 40 bc bd d0 fb 04 3e
       0.08391091 0.2862354 -0.09192023 0.12986684
0003a0 96 47 ad 3d 93 08 3b 3e d3 8a 75 bd a3 8b 81 bd
       0.084609196 0.1826499 -0.059946846 -0.06325462
0003b0 e2 48 32 bd 8d 0c 9b bd 6e 2a c3 be cd 9f 5a bf
       -0.043526538 -0.07570753 -0.3811831 -0.85400087
0003c0 1c 77 4e 3e 87 f2 cf bd 84 ba 99 bd 98 25 42 bd
       0.20162624 -0.1015368 -0.07506278 -0.047399133
0003d0 7c 96 63 3d 17 48 b2 3c d7 24 41 bc 35 1c 5a 3d
       0.055563435 0.02176289 -0.011788568 0.053249557
0003e0 27 d4 b2 3e e4 34 00 3e 20 ff 15 3e 3b 50 a7 3d
       0.34927484 0.12520176 0.14648104 0.081695996
0003f0 b6 fb 0d bf c6 19 07 bf ad 3e 6a bf 05 d4 00 be
       -0.55462205 -0.527737 -0.91501886 -0.12580879

conv.0.bias f4 [16]
000000 5a 15 1d bd ab d3 75 be 51 54 d8 bd 46 d6 15 3f
       -0.03835044 -0.24006526 -0.10562957 0.5853008
000010 b2 cf 0e bf 79 01 84 be 99 08 8a 3d e5 d6 27 be
       -0.5578567 -0.25782374 0.06739921 -0.1639057
000020 5c 9b bd be 9f a6 4a bd f1 b6 27 bf 64 31 d1 be
       -0.37032592 -0.04947531 -0.6551352 -0.40857995
000030 42 8a 9d 3e c4 e6 6a be 3b c8 f2 bb 9e 2f 83 be
       0.30769545 -0.22939593 -0.0074091232 -0.25622267

conv.2.weight f4 [32, 16, 3, 3]
000000 6b 05 7f bd 31 ae 6b 3c 4d 59 1d bd 48 f5 88 bc
       -0.062261026 0.014384792 -0.038415242 -0.016718522
000010 2d d6 85 bd a7 b6 a7 bc fb b4 b1 3d a3 28 c7 bc
       -0.065349914 -0.020472838 0.086770974 -0.02431137
000020 44 4b bc bd 07 7e 8e 3d 45 d4 d1 3d 64 92 ad 3d
       -0.09194043 0.069576316 0.10245565 0.084751874
000030 78 57 10 3e 6c a9 e8 3d 7e 92 fc 3c ac 40 48 3d
       0.14095867 0.1136044 0.030831572 0.0488898
000040 14 ee 20 bd 6d 16 2e bd f1 ba 33 3e a0 08 ef bc
       -0.03928955 -0.042501856 0.17551781 -0.029178917
000050 94 47 43 bd ff 2e 03 bd 40 c6 c5 bb 26 74 67 be
       -0.047675684 -0.03202724 -0.006035596 -0.22602901
000060 6b 4e fa bd 67 2f 79 be a4 f9 41 be f9 69 5c 3c
       -0.12221988 -0.24334489 -0.18942887 0.013453
000070 c9 6e 08 bd c4 a1 04 be 20 50 46 3c 90 a4 85 bd
       -0.033308778 -0.12952334 0.012104064 -0.065255284
000080 bc dd 92 bd a5 bd 5b 3d e1 0a e8 bd a0 c1 b3 be
       -0.07171199 0.053647656 -0.113302 -0.35108662
000090 dc b9 9d 3d 37 f6 e7 3d 6d 08 91 be 70 c7 12 be
       0.077014655 0.11326259 -0.2832674 -0.14333892
0000a0 8e 95 25 be a6 41 ab be aa 7e eb 3d b7 93 f7 bd
       -0.16170332 -0.33448523 0.11498769 -0.12088721
0000b0 30 86 32 be 6f 45 2d 3d 25 70 d9 3c 4a c8 b5 bd
       -0.17434001 0.042302545 0.026542732 -0.08876093
0000c0 ba 67 2a 3e e9 30 b7 3d 77 e5 83 be 44 38 a3 3d
       0.16641131 0.08944876 -0.25761005 0.07969716
0000d0 6c b3 8f 3d f1 ce 02 be 0f 4b 35 3d 0d 7c 3f 3e
       0.07016644 -0.12774254 0.044261035 0.18699665
0000e0 87 5f 5e 3c 9a f6 1e 3e 80 65 3f 3d d1 a7 34 bd
       0.01357258 0.15523759 0.046727657 -0.044105355
0000f0 aa b1 8a 3d 53 f6 ab 3c 86 ed 34 be b9 9f 45 be
       0.06772168 0.02099148 -0.17668733 -0.1929921
000100 94 53 18 bd d8 04 98 3c 86 0e 89 bd 58 6d 8c bc
       -0.03718908 0.018556997 -0.06692223 -0.017141983
000110 73 e1 2a bd ec 03 a1 bd c9 dd a5 bd 52 2b 07 be
       -0.04171891 -0.07862076 -0.08098943 -0.13200119
000120 f7 72 c0 3d a7 1e 89 3d f5 d3 13 3d fa b0 91 bd
       0.09396928 0.066952996 0.03609081 -0.07113834
000130 76 ff 17 3e 64 60 04 be fd 2d ca 3d b4 f8 42 bd
       0.14843544 -0.12927395 0.09872053 -0.047600463
000140 35 74 1e be 7a cc c4 3d 16 5b 71 be 1f e3 2f 3d
       -0.15474017 0.09609313 -0.23569903 0.04294121
000150 e7 2c de 3d 5f 59 1d be d5 5a 21 bd 3e 46 2d be
       0.10848408 -0.15366124 -0.039393265 -0.16921327
000160 88 00 6a be 84 95 98 3c a6 be 5e 3d 32 05 73 3b
       -0.22851765 0.018625982 0.054381035 0.0037081954
000170 73 97 02 be 58 a9 e5 bc a9 f3 de 39 83 3a 17 be
       -0.12753086 -0.028034851 0.0004252468 -0.14768414
000180 0d c3 9b bd a7 3b fd bc ea ce 92 bd a3 f7 63 3c
       -0.07605562 -0.030912234 -0.07168372 0.013914022
000190 6e 43 4a bb d5 33 97 bd 4d e1 16 be ca ee 52 be
       -0.0030862945 -0.07382933 -0.14734383 -0.20598903
0001a0 b4 dd 11 be e5 0d 00 be 23 e3 0d be 47 13 c4 3b
       -0.1424473 -0.125053 -0.13856177 0.0059837434
0001b0 9f 4f 53 3c bc 75 2e 3d c8 cf 0c 3d 29 b8 04 be
       0.012897401 0.04259275 0.034377843 -0.12960877
0001c0 37 df 7f bb 27 ff cb 3c 09 cf 09 be ef 88 19 be
       -0.0039042959 0.02490194 -0.13457884 -0.14993642
0001d0 73 e3 e6 bc 5d 77 b6 bb 1d 24 5e 3c 6e 21 52 3d
       -0.028184628 -0.0055684284 0.013558415 0.051301412
0001e0 cf d4 85 3d ce 13 99 3c d1 0f b4 bc 80 1f 15 bd
       0.06534731 0.018686201 -0.021980198 -0.036406994
0001f0 30 c4 2e bd 0b 8d aa 3c 73 e7 bd 3c 8c 1a 50 3b
       -0.042667568 0.020819208 0.023181653 0.0031754104
000200 61 58 e9 bb 92 5c 02 bd 60 3f 34 be cc 00 c2 bd
       -0.0071211313 -0.031826563 -0.176023 -0.09472808
000210 ab 43 1b bd 7d 87 2c bd 6b 73 b2 3d 0b 6e 06 be
       -0.03790633 -0.0421214 0.087134205 -0.13127916
000220 81 da 5a bc 38 3e b5 bd 68 d0 d0 bd 05 40 da 3d
       -0.013357759 -0.08849758 -0.10196 0.10656742
000230 b6 f4 24 3c cf 0e b5 bd 17 85 1a be 78 81 8f bd
       0.010068109 -0.08840715 -0.15089832 -0.07007116
000240 8b 5f 8a 3e 22 91 a3 bd b3 2d 49 3e ee 28 6c 3d
       0.27026019 -0.07986666 0.19646339 0.05765622
000250 3d 72 25 3e 65 6e 47 3b 20 de 8f bc 39 9d e6 3c
       0.1615686 0.003043079 -0.017561972 0.028151141
000260 8b ff 80 bd cd ce bf 3d 42 dd 58 ba ce b5 85 3e
       -0.06298741 0.09365616 -0.0008272716 0.26115268
000270 aa c7 29 be 1b 20 57 3e ff 21 db 3d 4b 16 e1 3d
       -0.16580072 0.21008341 0.106998436 0.1099058
000280 f1 48 d0 bd fb a1 2e 3d a2 3a 0b be a8 58 a3 3e
       -0.101701625 0.042634945 -0.13596585 0.31903577
000290 71 60 84 3e 19 28 8b 3e b2 89 90 be 15 5b 8e bd
       0.2585483 0.2717903 -0.28230053 -0.06950966
0002a0 85 12 8f 3e 15 57 db 3c 2a f5 50 3d 0c fb 06 c0
       0.27943817 0.026774922 0.051015057 -2.1090727
0002b0 d0 62 93 3d 0f 55 c5 bd 46 84 55 bd 81 fd 17 bc
       0.07196581 -0.09635364 -0.0521281 -0.009276749
0002c0 f1 0d b1 3c f7 f9 87 bc ac 6b 13 bd 0a 5b 2f bd
       0.021613093 -0.016598685 -0.035991356 -0.04281143
0002d0 c8 85 86 bf 33 ad c7 3e 1f ce c9 bc e1 66 4f 3c
       -1.0509577 0.38999328 -0.024634419 0.012658806
0002e0 f5 25 b1 3d ad b7 be 3d f9 cb 70 bb f3 31 60 bd
       0.08649818 0.09312377 -0.003674267 -0.054735135
0002f0 61 d6 80 bc 72 82 54 be d8 45 16 bf 89 6b aa bd
       -0.015727224 -0.20752886 -0.58700323 -0.08321292
000300 f5 aa a8 be 8f 80 bc 3c e2 7d 4d be b7 bf 15 be
       -0.3294293 0.02301052 -0.20067552 -0.14623915
000310 ce 6f e4 3b 9f 0c cd 3c 04 95 1e 3e d8 2f 47 be
       0.006971336 0.025030432 0.15486532 -0.19451845
000320 82 ee b5 bd fe 43 c6 3c b8 cf d6 bd 35 31 3e be
       -0.088833824 0.024202343 -0.10488838 -0.18573458
000330 5b 73 c7 3d 8b 2c 89 bb dc ee 74 3b 17 24 2f 3e
       0.09738799 -0.004186218 0.0037373817 0.17103611
000340 24 29 00 be 93 f6 c8 bd ab df a9 3d 61 8f 94 bd
       -0.12515694 -0.09812655 0.082946144 -0.0725391
000350 36 e1 35 be 1a b3 b5 3e 2e 7d 29 bd ab 16 be 3d
       -0.17761692 0.35488206 -0.041379146 0.09281667
000360 29 2d 47 3e cb 25 4b bd 00 9c 9e 3d 47 c5 6e 3d
       0.19450821 -0.04959659 0.077445984 0.058293607
000370 ff b1 94 3e a2 c3 de bc b6 a8 06 3e f2 b6 dd 3d
       0.2904205 -0.027192894 0.13150296 0.1082591
000380 ea 52 0b be 4d 69 fd 3d 70 bb c9 be 0e 64 e7 bd
       -0.13605848 0.123736 -0.39400816 -0.11298381
000390 5f 00 ce 3d 0b c9 04 be 19 25 53 be a9 22 ea 3e
       0.100586645 -0.12967317 -0.2061962 0.4572957
0003a0 cb af e1 bc a8 39 26 be b4 af 73 bd e5 49 0b bf
       -0.027549645 -0.16232932 -0.059493735 -0.5440963
0003b0 81 48 dd 3e 9d c0 0e 3d 72 a1 0f be dd 99 82 3b
       0.4321938 0.03485166 -0.1402643 0.003985627
0003c0 7b e5 03 bd 8c f2 87 bd 46 dd 95 bc 0d 48 1c 3e
       -0.03220127 -0.06638059 -0.018293988 0.1526186
0003d0 01 63 1c bf 73 27 50 3e 4b 36 90 3d 5c b1 a3 bd
       -0.6108857 0.20327549 0.070416056 -0.07992813
0003e0 b1 1a 31 bd 81 25 6c bd d4 df 9c bc 97 e9 3c 3c
       -0.043238346 -0.057652954 -0.019149698 0.0115303015
0003f0 4a e5 64 3d 7a cd 93 bf 8d 9d 1e bf 7e e0 81 3e
       0.05588273 -1.1547081 -0.61959153 0.25366586

conv.2.bias f4 [32]
000000 fb 32 b7 3c 54 b8 63 3d 9f a0 85 bd aa fb 17 3d
       0.022363177 0.05559571 -0.06524777 0.03710524
000010 7d e1 cf 3c 86 c4 16 bd 77 4e 46 3e 42 de 93 bd
       0.025376076 -0.036808513 0.1936587 -0.07220127
000020 29 7b 59 be 1e 0a 9d be 0c b0 f7 3d d4 7c 82 3e
       -0.21238388 -0.3067178 0.12094125 0.2548586
000030 85 d4 cb bd d0 00 38 3d 67 3c d2 3d a6 7b eb bd
       -0.09952644 0.04492265 0.10265427 -0.114981934
000040 c4 cb 8f 3c 6d c9 2b 3d bf 26 53 3e 33 e3 df bd
       0.017553218 0.04194014 0.20620249 -0.10932007
000050 9c 71 17 3d eb db d8 bc 20 27 09 bb 1c 93 05 be
       0.03697358 -0.026472053 -0.0020927861 -0.13044399
000060 f6 bc da bd f9 36 92 3e 9e c6 c5 3d 60 73 02 be
       -0.10680573 0.28557566 0.09657024 -0.12739325
000070 f6 2c 0f bd fa cd 1a 3d 12 16 91 bd 0b 0d bd 3d
       -0.034954987 0.03779409 -0.07084288 0.092310034

conv.4.weight f4 [64, 32, 6, 6]
000000 4c 01 49 bc 11 d1 6d bd d0 f9 88 3d 02 fd 7b bc
       -0.012268376 -0.05806071 0.06688273 -0.015380146
000010 4b c7 3e 3d 02 dc 7f bc 88 62 05 bd 80 86 25 3d
       0.04657678 -0.015616419 -0.03256467 0.040411472
000020 28 2f ef 3c 52 65 b3 3c 33 70 88 bc c8 f4 1f 3d
       0.02919729 0.0218989 -0.016655063 0.0390518
000030 96 b5 5c bb c9 c9 c5 3c 67 67 d1 bc ae 88 34 bd
       -0.003367757 0.02414407 -0.025562001 -0.04407566
000040 a9 6e e2 bb 96 0b ec 3c 9b 3f 43 3c aa d9 96 3d
       -0.0069101644 0.028814118 0.01191702 0.07365735
000050 35 59 9f ba 63 93 42 bd ef 35 44 bd 10 43 a3 3d
       -0.0012157323 -0.04750384 -0.047902998 0.079717755
000060 48 48 ca 3c 2f 0d 02 bb e6 84 6c bd 59 00 fc 3c
       0.02469267 -0.0019844284 -0.05774393 0.030761885
000070 e4 9d f1 ba ae 71 18 bb 01 5f 3a 3c 72 35 89 bc
       -0.0018433896 -0.0023261118 0.01137519 -0.016749118
000080 a9 b2 05 bd be 84 8d 3b cd 26 27 bd 7c 85 b3 bb
       -0.032641087 0.0043188026 -0.040808488 -0.005478559
000090 cb 7f 21 be 02 f8 9d be 9e 76 00 3e b4 58 31 be
       -0.15771405 -0.30853277 0.12545249 -0.17318994
0000a0 a5 13 ee be 15 57 64 be 51 c4 0a bd 7e 63 3f 3d
       -0.46499363 -0.22298844 -0.03387863 0.046725743
0000b0 5b a0 ba bb 3a ed 8f be 1f 9c 92 be 2a ed 79 3e
       -0.0056953854 -0.28110677 -0.28634736 0.24406877
0000c0 a9 ac c2 be ae bc 00 3e 7a 2c f0 bc bb 3e 05 3d
       -0.38022354 0.12571976 -0.029318083 0.032530528
0000d0 6f 33 a3 3d a1 67 8e 3d 42 89 7f 3d ae a0 9d bd
       0.079687946 0.069533594 0.06238676 -0.07696663
0000e0 f7 62 b7 3d 00 99 30 bd 7c 6b 29 3c 74 0c 90 3d
       0.08954423 -0.043114662 0.010340568 0.07033625
0000f0 1e cf a2 bc 0c bc 93 bc 76 39 2f 3b a4 09 6e 3d
       -0.019874152 -0.018034004 0.002673713 0.058114663
000100 3a f2 45 bd 89 31 b4 3d a8 2d 63 be c1 75 ad 3d
       -0.04832671 0.087985106 -0.22185385 0.084697254
000110 09 5f 4e 3e 1c 01 ce 3d 62 d3 09 3e e0 9a 16 bf
       0.2015344 0.10058805 0.13459542 -0.5883007
000120 31 b5 28 bc 4b 04 21 bd d5 ab bb bc e8 75 46 bd
       -0.010297106 -0.039310735 -0.022909084 -0.048452288
000130 da cd 2b 3c 6e c6 cb bc 39 1c 09 bc 45 a1 a1 3b
       0.010486091 -0.024874892 -0.008368545 0.004932555
000140 8f 02 dc ba 0e 52 74 3c 46 d5 b5 3c b8 dc 2a 3c
       -0.001678543 0.0149121415 0.022196423 0.0104286
000150 95 34 27 3c a5 e3 11 bc 5d e3 e4 bc 8a cf c4 3c
       0.010205408 -0.008904372 -0.027940447 0.024024744
000160 d2 76 6d 3c 79 06 2b bc bf 7d b3 bc 86 d4 c9 3c
       0.014493661 -0.010438555 -0.021910546 0.024637472
000170 a3 69 ab bc 17 97 82 3c 9b 6e 1d bd 50 d7 17 bc
       -0.020924395 0.015941186 -0.03843556 -0.009267643
000180 26 83 09 bb b0 8f 19 3d d2 8d 15 3b 95 9e b7 3c
       -0.0020982712 0.037490547 0.0022820127 0.022414485
000190 52 3d 1f bc 7b b6 f9 3c f7 13 e4 3c 9e 44 07 3d
       -0.00971921 0.030482521 0.027841551 0.033024423
0001a0 c2 a9 2d 3d 7e 56 32 3c 41 b1 94 bb 54 81 70 3b
       0.04239822 0.010884879 -0.004537732 0.003669818
0001b0 00 36 c4 bd 60 8c 84 3d 2c 25 03 bc 2f f9 97 be
       -0.09580612 0.06472087 -0.008004468 -0.296823
0001c0 8d 8b dc be 69 19 64 3e 03 4f b9 bc ba f4 71 3e
       -0.4307522 0.22275318 -0.022620684 0.23628512
0001d0 67 cf 5a 3d 5d 89 a7 bd 82 79 a5 3e b3 9c b1 be
       0.05342045 -0.08180497 0.32319266 -0.34689865
0001e0 ab 25 8e 3e 64 59 82 3e 32 7e 75 3e 88 f9 00 3e
       0.27763113 0.25458825 0.23973921 0.12595189
0001f0 9b 53 85 3e f0 6c 85 3e 9e 8e 7a 3e 07 67 86 3e
       0.26040348 0.26059675 0.24468467 0.2625048
000200 f4 dd 47 3e 92 1a 2b 3c c6 66 90 3e 6c e0 95 3e
       0.19518262 0.010443347 0.2820341 0.29272783
000210 2f 86 72 3c c4 1b 97 3e 93 52 97 3e fe 3e 7c 3e
       0.0148025 0.2951337 0.29555187 0.24633405
000220 59 b6 c2 3e 1e 1f 08 bf d3 3e 81 bc 7c 51 9b be
       0.38029745 -0.5317248 -0.015777027 -0.30335605
000230 b4 50 d7 be a2 db 09 be cf 17 88 3e b5 96 92 be
       -0.4205376 -0.1346269 0.26580665 -0.28630605
000240 5d b6 94 ba 17 9d 5d be 82 1b ef bd bb 63 95 3d
       -0.0011345852 -0.21641956 -0.116751686 0.07294413
000250 e8 f9 6c 3e 5e a3 47 3c 3c b0 92 3e 7d b5 92 3e
       0.23142207 0.012184946 0.2865008 0.2865409
000260 7f 30 bf be 19 e4 8d be 3a 9b d0 be 19 90 0a be
       -0.37341687 -0.27713087 -0.40743428 -0.13531531
000270 78 54 17 be 27 d9 cf 3d 40 ec a8 be d0 4d 01 be
       -0.14778316 0.101488404 -0.32992744 -0.1262734
000280 a3 fd 18 3e 6a ba d2 be 9f fb 75 3e 6f 0b 91 bd
       0.14940505 -0.41157848 0.24021767 -0.07082259
000290 8c 28 7f be 56 7a 31 be d8 b1 89 be ec 38 29 bd
       -0.24917811 -0.17331824 -0.26893497 -0.04131405
0002a0 f0 ec 8f 3e 74 60 cc bd a3 1b 2d bd 1e 03 df bc
       0.28110456 -0.099793345 -0.042262685 -0.027223166
0002b0 b0 ff 2e 3d 96 7b 29 3e 19 10 c9 3d 7a d1 9d 3d
       0.04272431 0.1655105 0.098175235 0.0770597
0002c0 8c a5 3b 3c cd 13 83 bd c5 24 79 3c 20 95 d0 be
       0.011453044 -0.06400261 0.01520652 -0.40738773
0002d0 9c a8 14 3e df 8d b9 3d 3b 63 ac 3d ef 07 81 3d
       0.14517444 0.09060263 0.08417364 0.06300341
0002e0 53 ba 6b bd 23 14 9f bc 5c f0 96 3e 05 bb 7d 3d
       -0.05755074 -0.019418782 0.29480255 0.061945934
0002f0 f3 b8 0f 3e 6c 58 da 3d 46 95 79 3c 32 d4 f6 3d
       0.14035396 0.106613964 0.0152333435 0.12052192
000300 bc 6d b5 3e 07 cb 06 3d 0c fd 50 3e f2 2c 76 3e
       0.35435283 0.032908466 0.2040903 0.24040583
000310 d9 0f 8e 3d d0 06 90 3d 88 64 8d 3e 5c 61 0e 3e
       0.069366165 0.070325494 0.27615762 0.13904327
000320 84 ff 7b 3e 5d 0e 5a 3e 49 fa 3d 3d 70 60 13 bd
       0.2460919 0.21294542 0.04638127 -0.03598064
000330 54 68 8f bd f6 5b 73 3e 77 1e 65 3e 50 e2 9c 3d
       -0.07002321 0.23765549 0.22374903 0.07660353
000340 13 1a 93 3d 13 db c2 bd 03 88 99 bd 13 7e 91 3d
       0.07182708 -0.09514441 -0.07496645 0.07104125
000350 57 4f b3 3d f1 b0 f2 3d 9f d0 a0 3d 1f 7d 13 3d
       0.08755367 0.11850155 0.07852291 0.036007997
000360 30 ad 20 bd ff 75 ac 3b 28 e6 3b 3e 4d 5e 87 3d
       -0.039227664 0.0052630897 0.18349516 0.06609783
000370 b8 02 8d 3d 18 1d 3d bc 9b a0 22 3e a6 ae d9 3d
       0.06885284 -0.011542581 0.15881579 0.10629015
000380 b3 b5 d8 3d 2a da 1b 3e eb a2 68 3d 09 8d cb ba
       0.105815314 0.15219942 0.056795996 -0.0015529703
000390 1b ae 7f 3e 71 8e df 3a 73 ec 03 3e 9b 40 b7 3d
       0.2496876 0.0017056001 0.12883167 0.089478694
0003a0 5e fb a3 3d 56 0f 8b 3d 1a 7b 47 3d 3e eb 6d bd
       0.08006929 0.067900345 0.048701383 -0.058085673
0003b0 e6 21 86 3d 50 38 1b 3e 37 ab 1f 3e 54 54 56 bc
       0.06549434 0.151582 0.15592657 -0.013081629
0003c0 5e 58 26 3e 25 29 02 3e ab 54 09 3d 12 62 26 3e
       0.16244647 0.12711008 0.03352801 0.16248348
0003d0 ca f8 72 3d 61 76 02 bd 7e 02 d4 3c b9 dd cc bd
       0.059319295 -0.031851176 0.025880095 -0.10003228
0003e0 0a 7c f2 3c c1 4d 2a 3e b9 f4 80 bd 8b 11 52 be
       0.029600162 0.16631223 -0.06296677 -0.20514505
0003f0 5c 49 84 3c 73 f0 8a 3c d6 d8 67 bc b4 74 ba 3c
       0.016148262 0.016960358 -0.014150819 0.022760727

conv.4.bias f4 [64]
000000 06 41 30 be b1 84 9b bc 8b 41 96 be 17 79 53 be
       -0.17212304 -0.01898417 -0.2934688 -0.20651661
000010 a4 3a 96 bd 85 2b 68 be 6b 5a 9c bd e6 a9 04 be
       -0.073354036 -0.22672851 -0.07634433 -0.12955436
000020 e4 8d 85 be c1 10 32 bd b7 f4 ff bd 8d 2a 67 bd
       -0.26084816 -0.04347301 -0.124978475 -0.056437064
000030 c4 67 3d bd 16 33 b5 be 8c 76 af be d2 16 83 be
       -0.046241537 -0.35390538 -0.34270132 -0.25603348
000040 7b 87 15 be 1e 29 22 3e 25 98 82 bd f3 c9 05 be
       -0.14602463 0.15835997 -0.063766755 -0.13065319
000050 3a dc 96 be c7 4e 06 be 80 3f de 3e f2 32 46 be
       -0.29464895 -0.13115989 0.43407822 -0.19355372
000060 98 b7 71 be 18 83 7f be 19 3c 9f be 75 ec 46 be
       -0.23605192 -0.24952352 -0.31100538 -0.19426139
000070 1e 92 8d be c8 17 92 be 1b ce 95 be 4f 73 35 3e
       -0.2765054 -0.2853377 -0.29258808 0.17719768
000080 e2 75 85 be c8 b2 aa 3e 75 2a ae bd 19 6e 93 be
       -0.260665 0.33339524 -0.08504192 -0.28794935
000090 bd 9f 7a be 2b 74 7e 3e bd d6 21 be 3b e5 2f be
       -0.24474998 0.24849002 -0.15804572 -0.17177288
0000a0 5b 62 9c be 6b 38 e2 be 0d 6d 51 bd c4 9a a9 be
       -0.3054379 -0.44183668 -0.05112939 -0.3312589
0000b0 88 91 95 bd a6 76 88 3a 92 82 8c 3e 71 00 c3 be
       -0.073031485 0.0010411337 0.27443367 -0.38086274
0000c0 ce f7 d1 bd 94 c3 58 be 68 0c 2e be f0 88 42 be
       -0.10252343 -0.21168357 -0.1699692 -0.1899755
0000d0 62 7d 2f bc 32 8a 82 bd 90 59 52 be 91 82 bf be
       -0.010711046 -0.06374015 -0.20541978 -0.37404302
0000e0 ed 97 a3 be a6 ee 76 be ff 31 4f be 12 ab 21 3e
       -0.31951848 -0.24114475 -0.20233916 0.15787914
0000f0 a5 50 b8 be 84 bf 79 bc 6f bc 5c be ad 1c 18 be
       -0.35999027 -0.015243415 -0.21556257 -0.14854689

fc.1.weight f4 [64, 1600]
000000 3b fb b5 3b be ab f8 ba 67 ab 89 bc 75 9e 8f 3c
       0.0055536306 -0.0018972082 -0.016805364 0.017531613
000010 56 64 d7 3a 1a 45 c6 bc e9 19 09 bc 72 43 1d 3c
       0.0016433101 -0.024202872 -0.008367994 0.0095986
000020 50 29 a2 3c eb 63 30 bb cb 89 b3 bc 97 93 99 3c
       0.01979509 -0.0026915025 -0.02191629 0.018747134
000030 cc e3 11 bb f2 bc ae bc ea ab 7f bc b9 d5 c8 bc
       -0.0022261022 -0.02133033 -0.015604952 -0.024515973
000040 d3 79 45 bc 37 b6 a5 bb cd 5b a0 bc 2e f5 ca bb
       -0.012052971 -0.005057122 -0.019575024 -0.0061937785
000050 91 25 8a bc 40 a2 29 bc 50 f4 3b 3a e1 3d 57 bc
       -0.016863616 -0.010353625 0.0007169889 -0.013137312
000060 25 77 02 bc 96 d3 b2 bb bc 30 8e 3c c6 4b 43 3c
       -0.007962977 -0.005457352 0.017357223 0.011919921
000070 5f b1 89 3c ae 5b 22 3c 9f e8 ae 3c e1 56 39 bc
       0.01680821 0.009909553 0.021351157 -0.011312217
000080 c2 cf a8 3c 04 75 89 bc 7e fd 38 3c 46 4c dc 3b
       0.02060688 -0.01677943 0.011290906 0.0067229597
000090 f5 93 8e bc 8f ee be 3b 01 63 47 bc 5b 7f 26 3c
       -0.017404536 0.0058267782 -0.0121696 0.0101622
0000a0 ff 4e b0 bc d1 d5 f3 bb 53 80 b7 3c 05 03 bf bc
       -0.021522043 -0.0074412604 0.022400057 -0.02331687
0000b0 ce 4f 1c 3c 1b 53 59 bc ee 76 9d 3b ca 3e 0e bb
       0.009540511 -0.013264443 0.0048054373 -0.0021704906
0000c0 12 46 e6 bb f4 dc 94 3c 0e 10 a1 3c 04 db 9a 3c
       -0.007027396 0.018171765 0.019660976 0.018903263
0000d0 6c 25 65 bc 6e 54 d2 3c cf c8 44 3b 20 06 8b bc
       -0.013985973 0.025675025 0.0030026918 -0.016970694
0000e0 b9 ae c2 bc 78 a0 33 bc 8f 47 ea 3c 3e b8 9d bc
       -0.023764955 -0.010963552 0.028598575 -0.019252893
0000f0 5d b8 3e 3c b5 d7 1e bc fc 0a b6 3c c3 b0 f3 bb
       0.011640635 -0.009694983 0.022222035 -0.007436843
000100 1e cd 96 bc a5 f0 2a 3c ba f8 83 bc be 88 07 bc
       -0.018408354 0.010433351 -0.016109813 -0.008272348
000110 80 0f 8b bc ab 1c b2 bb ae 01 f2 3a 62 2e a4 3c
       -0.016975164 -0.0054355464 0.0018463635 0.020041648
000120 80 3f f2 bb fa 20 f7 3c 4e c0 b1 3c 4d a8 ed 3b
       -0.0073928237 0.030167092 0.021698143 0.007252729
000130 c1 4d 5f 3c 12 bb 4d 3b 3f a8 04 bb bd fd 77 3b
       0.013629378 0.003139202 -0.0020241884 0.0037840449
000140 65 4c 3a bc 96 6f a3 3c 81 dd 1b bc 6f 98 aa bb
       -0.011370753 0.01995067 -0.00951326 -0.00520616
000150 8e 09 e8 bb 60 ed b1 bc 3c 55 21 ba 38 45 a4 bc
       -0.007081217 -0.021719635 -0.00061543635 -0.020052537
000160 61 56 04 3c 33 ec 55 3b 58 27 ae bc 0f 0b 37 3c
       0.008077235 0.0032642006 -0.021258995 0.01117207
000170 c7 90 b8 bc 22 f9 1b 3c 95 6d 73 3b a8 de 2c 3c
       -0.022529973 0.009519847 0.0037144173 0.010551132
000180 b7 91 b2 bc 0b 2e 53 ba 73 cb ee ba 62 5e db 3b
       -0.021797998 -0.0008055872 -0.0018218592 0.006694601
000190 12 db 21 3c ac 84 c4 bb 2d ca 1e bc b5 79 c0 3b
       0.009878891 -0.005997261 -0.009691757 0.0058738836
0001a0 60 f1 87 bb 53 09 5d bc 82 a9 5a 3c d0 c5 9d 3b
       -0.004148647 -0.013490993 0.013346078 0.004814841
0001b0 87 44 ae 3c 61 b5 b0 3b c9 d7 e0 bb 15 0c a8 3b
       0.02127291 0.005392716 -0.006861661 0.0051283934
0001c0 4c dc ee bb a6 e5 b2 3c 2b eb a8 3c 13 7b a7 3c
       -0.007289445 0.02183802 0.02061995 0.020444429
0001d0 c9 7f dd bc 7a 69 28 3b 04 44 04 3c fd 71 cf bc
       -0.027038472 0.0025697635 0.008072857 -0.025322909
0001e0 a8 08 ee bb a7 0d ed 38 8f 5b 47 bc c5 f0 9a 3b
       -0.0072642155 0.000113035836 -0.012167825 0.004728409
0001f0 da 52 9e bc 03 b4 93 bb 0a c1 5c 3c 5e b9 e3 bc
       -0.019326616 -0.004507543 0.0134737585 -0.02779835
000200 ba 6b 08 bd e7 7b cb bc ed db b1 3b d0 ae 28 bc
       -0.03330586 -0.024839355 0.0054278285 -0.010295585
000210 b1 33 cc 3b 43 62 9f 3c 47 5e a3 bc 0b af 42 3c
       0.006231748 0.019456035 -0.019942416 0.011882554
000220 3a fc 92 bc f6 6e 98 bb 90 2e 82 bc fe 06 b2 bb
       -0.017942537 -0.0046518994 -0.015891343 -0.0054329624
000230 e8 ba 0a 3c 9d 8c 97 3c 66 d0 af 3c 07 cd 93 3b
       0.0084674135 0.018499667 0.021461677 0.004510525
000240 85 de 9b 3b cd 26 08 bb 0d c7 c7 bc d5 af 86 bc
       0.004756751 -0.002077508 -0.024386907 -0.016441265
000250 09 8d 7f 3a 8c 00 31 bc 86 4b 06 bd 08 01 95 3b
       0.0009748494 -0.010803353 -0.03278687 0.004547242
000260 1c ae 08 bb 08 72 77 bc 14 28 3c bc fe bd c1 bc
       -0.002085573 -0.015102871 -0.011484165 -0.023650166
000270 ca 5f 30 bd 2c f0 90 bc c1 a8 27 bd b5 78 1a bd
       -0.0430601 -0.017692648 -0.04093242 -0.03771277
000280 ab 86 b3 bc 1c 9d 1b bd b0 97 b9 bc eb cd 8c bc
       -0.0219148 -0.037991628 -0.022655338 -0.017188033
000290 fe 7e 97 3a b9 36 a7 bc 8e 4b 8e 3b 69 4d de bc
       0.0011558232 -0.020411836 0.004342503 -0.027136521
0002a0 2f 0b 02 bd 49 4e 16 bd 98 90 38 bc 55 14 09 bc
       -0.031748947 -0.036695752 -0.011264943 -0.008366664
0002b0 a1 0c 0b bd 73 c5 0c bd 93 8b 34 3b d1 3b 9f 3c
       -0.03394759 -0.03436799 0.0027549013 0.019437702
0002c0 80 ce eb 3b 81 87 c8 bb 98 38 d4 bc 7e 3e 57 3c
       0.0071962476 -0.006119669 -0.025905892 0.013137458
0002d0 e2 f5 b8 bc 59 8d a3 bc d0 5f 84 bb bf 01 00 bd
       -0.022578184 -0.01996486 -0.004039742 -0.031251665
0002e0 70 5a fc 3a c2 f7 6b 3c 37 e2 80 3c 44 7f 04 3c
       0.0019253027 0.014402332 0.015732868 0.008086983
0002f0 b1 8f a6 bc 1e 18 8b 3a eb 72 9d bb 32 29 ad 3c
       -0.02033219 0.0010612046 -0.004804959 0.021137808
000300 e2 6b e7 bc a0 01 30 bc 27 69 cf bc d1 8a f0 3b
       -0.028249685 -0.010742575 -0.025318695 0.007340767
000310 fb 3b 79 3c 92 b6 ea 3b 98 18 1a 3b e7 6f a9 3b
       0.015212054 0.0071628774 0.0023513194 0.0051708105
000320 98 5b 07 3c ca 59 3f 3c ac d4 ab bc c6 db 76 bc
       0.008261584 0.011679122 -0.020975433 -0.0150670465
000330 88 93 8d bc 69 ec 61 bb 64 6d 3f 3c 71 1c e5 bc
       -0.017282262 -0.0034473187 0.011683796 -0.027967663
000340 37 e5 35 3c 70 62 af bb b1 14 c4 3c 64 c7 6c 3c
       0.011102012 -0.005352311 0.023935648 0.014451835
000350 0a c8 e1 bb 7c a1 95 bc a5 26 09 bc 71 2b 44 3c
       -0.0068903016 -0.018265478 -0.00837103 0.011973248
000360 89 c5 5f 3c 4b f1 4d 3c 73 85 86 3b 79 bf 8d 3c
       0.013657936 0.012569736 0.004105264 0.017303215
000370 b1 a9 af bc 12 59 5a bc 0c 3f 91 bb e6 04 85 bc
       -0.02144322 -0.0133269 -0.0044325646 -0.016237687
000380 ef 64 bd bc 32 55 04 3a c6 78 1d bc c4 27 40 3c
       -0.023119418 0.00050480955 -0.009611314 0.011728231
000390 9d 3b a8 3b c6 a0 58 bb 8a 45 f1 39 87 3d 91 bc
       0.0051340596 -0.0033054813 0.00046018913 -0.017729534
0003a0 fb c4 94 ba 32 73 57 bc fd 02 f2 bb 46 73 b0 3c
       -0.0011350209 -0.013150023 -0.00738561 0.021539342
0003b0 78 94 5f bc 69 8e 86 3b 5d 09 1d bc 7c 25 88 3a
       -0.013646238 0.004106332 -0.009584752 0.0010387148
0003c0 8c ea 77 bc 31 8f 28 bb 55 f3 84 bb c5 07 51 bc
       -0.015131604 -0.0025720114 -0.0040573278 -0.0127582
0003d0 69 85 d3 3a ee 69 46 bc 03 f8 c7 b9 fd 8e 01 3c
       0.0016137782 -0.012110217 -0.0003814102 0.007907626
0003e0 f9 25 d1 bb 34 7a 3c 3c 32 5d cc 3b 28 75 05 3c
       -0.0063827005 0.011503745 0.0062366957 0.008145608
0003f0 3f df 0f bc 89 7a 25 3c f2 7e f6 39 3d 9a 3c bc
       -0.008781253 0.010100015 0.00047015358 -0.011511383

fc.1.bias f4 [64]
000000 c8 0c 4a 3c e0 f4 f0 3d 27 2c 0a bd 02 80 fa 3b
       0.012332149 0.11765456 -0.033733513 0.0076446543
000010 8e 19 de 3e f5 81 71 3e 9d fe 17 bd c6 11 17 bc
       0.43378872 0.23584731 -0.037108053 -0.009220546
000020 ec 6c 67 3c a0 36 c3 3e 1e bc c2 3e 4b 30 77 3e
       0.01412509 0.38127613 0.38034147 0.24139516
000030 27 57 3c 3d ea 3c 5f 3d 34 f5 11 3e 25 04 2a 3f
       0.045981552 0.05450145 0.14253694 0.66412574
000040 8c a6 14 b9 3f 5d 91 bb 57 f1 24 bd f7 a5 de bc
       -0.00014176423 -0.0044361646 -0.040269222 -0.027178748
000050 90 d8 c3 bb e4 d5 2b 3b e7 c3 c8 bc aa 1f 5e 3e
       -0.005976744 0.0026220018 -0.024507476 0.21691766
000060 21 9a 37 3c f9 84 b5 bc 2e 3f ee bc d2 18 80 3b
       0.011206181 -0.022158133 -0.02908286 0.003909209
000070 28 c6 bb 3d 50 6a 0b 3e 22 d9 1c 3b d8 5b e7 bc
       0.09168655 0.13614774 0.0023933132 -0.028242037
000080 31 41 08 bc 1f 55 de 3e d9 99 ad bb 15 3b 9b 3e
       -0.008316324 0.43424317 -0.005297881 0.30318514
000090 1c 28 8c bc 10 b7 e9 3e 58 57 7a 3c e2 f1 8e 3c
       -0.01710897 0.45647478 0.015279613 0.017449323
0000a0 64 35 ef bc f1 ea 4c 3e 35 62 89 3b 7e 18 25 3e
       -0.029200263 0.20011498 0.0041926154 0.16122624
0000b0 56 e0 97 3d d3 68 0c 3c 15 03 85 3d 4f 41 27 bb
       0.074158356 0.008569914 0.064947285 -0.0025521105
0000c0 1d 74 84 bc e9 55 ba 3c 84 ce 03 3d 60 db 61 ba
       -0.016168648 0.022746043 0.03217937 -0.0008615758
0000d0 7c ca 90 3e a8 57 a5 3e 00 b6 0a bb 2a db 33 3c
       0.28279483 0.3229344 -0.002116561 0.010977546
0000e0 73 43 95 bc 52 cb 0e bd f5 18 4e bd 81 4c c6 3e
       -0.018220639 -0.03486187 -0.05031677 0.38730243
0000f0 18 e7 a2 bb 01 b6 b8 bc 69 17 2b 3e cb ad 53 3e
       -0.004971396 -0.022547724 0.16708149 0.20671766

fc.3.weight f4 [4, 64]
000000 9b 01 84 3c 66 90 5c 3e d0 4c 3d 3c 62 12 9c 3d
       0.016114047 0.21539459 0.011553958 0.07620694
000010 39 49 7e be bb 28 22 3e db 15 bc 3d fc 19 be bd
       -0.2483262 0.1583585 0.09183856 -0.092823
000020 ac 2d bf 3d 92 b7 d8 3c 9f 4e 4e 3c 93 8c 73 bf
       0.09334883 0.02645472 0.012591987 -0.95136374
000030 8a e9 c3 3d 62 15 08 3d ae fb bf bf 5c c7 d0 3e
       0.095660284 0.033223517 -1.4998682 0.407771
000040 19 8f 3c 3d 69 72 73 be fc 9f cf 3d 1e 79 fe 3c
       0.046034906 -0.23774113 0.101379365 0.031063613
000050 3e 4f 45 3e c1 b5 94 3c 2e ee 7b bd c5 d4 f7 be
       0.1926851 0.018153073 -0.061506443 -0.48404518
000060 80 9f 7f bc 84 05 0f bc 12 8f d5 bd 3e 04 36 bd
       -0.015601993 -0.008729342 -0.10427679 -0.04443764
000070 d4 bc 48 bb 61 c5 de 3d 27 4a 88 3d eb 3f 58 3c
       -0.0030630128 0.10877491 0.066547684 0.013198833
000080 bf 79 a5 3d 10 ed 32 bf e5 f4 d1 bd b3 30 d0 3d
       0.08079862 -0.6989298 -0.10251788 0.10165539
000090 20 4c 29 3d f5 f9 4a be f2 fe 16 bc 00 3b c2 3d
       0.041332364 -0.19821914 -0.009216057 0.094839096
0000a0 c2 0e 1f 3d 59 2e 8a bd ed 25 2b bd db 74 0f 3e
       0.038832434 -0.06747121 -0.041784216 0.1400942
0000b0 61 3d 25 be a9 e6 9f be 08 58 7f 3e 5d e4 f0 3d
       -0.16136695 -0.31230667 0.24935925 0.11762307
0000c0 ef 90 2b 3d 2b ff 51 3e 15 c3 8c 3e 8d 80 35 bd
       0.041886266 0.20507495 0.27492586 -0.04431205
0000d0 99 51 9f bf c8 38 1e bd c8 aa dd bc d6 3a be 3d
       -1.2446777 -0.03862837 -0.027058974 0.09288566
0000e0 25 0a e4 bc fc af 5e 3d a0 99 aa bd 35 38 b4 bd
       -0.027836869 0.05436705 -0.08330083 -0.08799783
0000f0 a3 27 bb 3c b8 b7 84 bd dc 21 30 3e f0 ca e3 3d
       0.022846049 -0.06480354 0.17200416 0.11122692
000100 2d 25 2a bc 74 00 b6 be 21 75 da 3d 3c 1c a9 bd
       -0.01038484 -0.3554722 0.10666872 -0.082573384
000110 65 6f 28 bf 27 bd 39 3e 02 24 4f bd d4 ba b9 3c
       -0.65794975 0.18138562 -0.05057145 0.022672094
000120 54 b9 de bc 9d 52 5f 3c e4 61 94 bf 32 0e 55 bd
       -0.02718798 0.013630536 -1.1592374 -0.05201549
000130 14 20 f8 3d fb 75 90 bf aa 2c 9e 3d 76 51 ab 3e
       0.121154934 -1.1286005 0.07723363 0.33460587
000140 b2 6f 80 bc 54 10 1b be d7 46 dc 3c f8 cc 60 3d
       -0.01567826 -0.15142947 0.026889248 0.054882973
000150 0a ac 8b 3d c0 da 92 3d 61 dc fe 3d 25 a0 5c bd
       0.06819923 0.071706295 0.12444378 -0.053863663
000160 c1 e6 32 3d c8 5a ae bd 70 94 a9 3d 87 50 17 bd
       0.043677095 -0.08513409 0.08280265 -0.03694203
000170 51 16 b0 bf ef d8 6f be 5b ae d2 3d 34 b8 bc bd
       -1.375681 -0.23422597 0.10287162 -0.092148215
000180 c7 ce 2d 3c 11 0b 12 39 34 01 ea 3c 23 ea 4f bd
       0.010608382 0.00013927768 0.028565027 -0.0507604
000190 f7 6a 54 bd bd cc 13 be f6 ba 09 bc 34 98 d7 3d
       -0.051859822 -0.1443357 -0.008406391 0.10527077
0001a0 f9 d9 de bd 6b cb 41 bd 72 a3 fa 3a 6e f0 92 3d
       -0.10881419 -0.047313135 0.0019122197 0.071747646
0001b0 04 4d 5f 3e 6b dc da be 58 64 1e bf a1 2a e4 bd
       0.21806723 -0.4274629 -0.6187186 -0.11140943
0001c0 5e 5f 81 bd a3 bc 98 3e b1 a9 8a 3e 60 c4 7f bd
       -0.06317018 0.29831418 0.2708259 -0.062443137
0001d0 0b 8e 38 3d 92 bc 01 be 12 a3 a8 bd 61 5a 7f bb
       0.045057338 -0.1266959 -0.08234228 -0.0038963782
0001e0 cb 4a c4 bc 20 d7 87 bb 0f 53 58 bd ba f6 75 3d
       -0.023961445 -0.004145518 -0.052813586 0.06004975
0001f0 bb 92 33 3d be da d6 3d b0 3b 2b 3e 23 04 f0 3c
       0.043841105 0.104909405 0.16721988 0.029298848
000200 81 e1 c7 bc b3 1d 6d be ba 50 82 3d 88 23 9f 3d
       -0.02439952 -0.2315586 0.063630536 0.07770449
000210 15 6a e8 be e1 8d d5 3e 6b c2 af 3d c7 73 35 3c
       -0.45393434 0.41709808 0.08582004 0.011074967
000220 cd 0d f2 3d fc 7d 3a bf 50 e5 e6 3b 74 41 f9 3d
       0.118190385 -0.72848487 0.007046379 0.12170687
000230 82 02 11 3e ab e5 99 3d da b3 06 3d f6 75 9a 3e
       0.14161113 0.07514509 0.032886364 0.30168122
000240 7e 6a 67 3d 70 6f 03 be 50 d3 af 3d 34 04 c8 3d
       0.056498043 -0.12835479 0.085852265 0.09766427
000250 e1 39 9c bd d9 f2 3b 3c 0f 36 8c 3d f6 98 f9 3d
       -0.07628227 0.011471474 0.06846248 0.12187378
000260 a6 ed 86 3d be 73 6b 3c 4b 2b d6 3c 32 a2 14 40
       0.065882966 0.014370857 0.02614369 2.3223996
000270 4c db 0e bc 41 f7 0f 3e 63 f2 c7 3d 86 6e a9 bd
       -0.008719277 0.14059164 0.097630285 -0.08273034
000280 61 5e b9 bd 82 22 89 3c 8f d2 3d 3d 7f a0 a8 bf
       -0.090512045 0.016740087 0.046343382 -1.317398
000290 76 80 72 bd d8 5f fa bd 66 a4 7d 3d a8 93 87 bf
       -0.05920454 -0.12225312 0.06192436 -1.0591936
0002a0 f0 7e c4 3d fd 17 b6 bd 67 6c 36 3d 63 a8 07 3e
       0.09594524 -0.08891294 0.044536974 0.13247828
0002b0 78 9e 8b 3d 57 7b 55 3e 92 cd 92 3e 69 e0 a4 3d
       0.06817335 0.20847832 0.28672463 0.08050615
0002c0 8f 18 18 bc 41 dd df be d2 1b 31 3e 88 f4 3f 3d
       -0.009283199 -0.4372349 0.17295769 0.046864063
0002d0 a9 1e a1 bd d5 76 14 be 48 1b b8 bc ae f9 2e 3c
       -0.07867176 -0.14498456 -0.022473946 0.010679645
0002e0 a7 59 c1 bd b8 41 cd 3d 83 b4 36 3d 58 9a a0 bf
       -0.09440928 0.100223005 0.044605743 -1.2547102
0002f0 d1 7c 45 3d 44 d3 47 3c 1d ff 42 3e a9 8b 94 be
       0.048214737 0.012196366 0.1904263 -0.29012802
000300 bc b1 1d bc 22 8a 32 bd 65 0c 21 bd ea 2c 5c bd
       -0.009624895 -0.043588765 -0.03931846 -0.05375377
000310 71 b9 85 3d e7 bf d1 3d cb e7 1c bd e2 68 9d 3d
       0.06529511 0.102416806 -0.038306993 0.076860204
000320 82 34 bb bd f0 65 15 be d1 3f 95 3b e5 fd cd bd
       -0.091408744 -0.14589667 0.0045547266 -0.10058192
000330 13 6a b1 bd a0 cd c1 3d 04 5b 82 3d 4b 7c ad 3e
       -0.0866281 0.09463048 0.06365016 0.3388389
000340 4a b4 43 bd cb 8c 9e be d8 1c 11 3c 5a cd e1 bd
       -0.04777936 -0.30966792 0.008856975 -0.11025496
000350 56 85 de bd 1c f3 75 bd 14 da 9a bd 9f 4e bf be
       -0.108652756 -0.0600463 -0.07561126 -0.3736467
000360 32 9d 14 3d 88 b7 ec bc 05 32 4f bd a4 ba 93 bc
       0.036282726 -0.028896108 -0.05058481 -0.018033333
000370 44 aa 1d bb bf 08 79 3e 91 4d d9 bd 9e eb ea 3d
       -0.0024057785 0.24319743 -0.10610498 0.11470722
000380 d4 ef f5 3d 83 70 25 bd 41 dc 3f 3c e2 a1 13 bd
       0.12008634 -0.040390503 0.0117102275 -0.036043055
000390 2d 74 99 bd 89 80 3b bf 75 1d f1 bb 34 8c f3 3d
       -0.07492862 -0.73243004 -0.007358248 0.11891976
0003a0 30 66 7c bd 69 f4 c2 bf 36 21 a3 3d 43 af e5 bf
       -0.06162089 -1.5230838 0.07965319 -1.7944111
0003b0 6e 13 70 3e 53 37 93 3e c0 5e 7b 3e 01 40 f5 bd
       0.23444912 0.28753147 0.24547863 -0.119750984
0003c0 8f da f5 3d 67 f2 ae 3e d9 2b 0f bf 0b 7b 9a bc
       0.12004577 0.34169313 -0.5592628 -0.0188575
0003d0 b1 6b cb 3d 4c 5b 82 bf a4 df f4 3c ba f0 e2 bb
       0.0993265 -1.0184112 0.029891796 -0.0069256695
0003e0 02 35 dc bd ce f2 f3 3d ea 63 a6 3b ff 77 26 3d
       -0.10752298 0.11911546 0.0050778287 0.04064178
0003f0 75 50 df 3d 04 67 1b bd 41 81 9c bf d6 83 9b 3d
       0.10904018 -0.03794004 -1.2226945 0.07593505

fc.3.bias f4 [4]
000000 c2 c5 e7 3e fe 0e eb 3e 75 09 f0 3e 90 b3 ee 3e
       0.45268065 0.45909876 0.46882215 0.4662137
