models/v17.1/model_143500_target.pt (torch, 729952 bytes, 10 tensors)

conv.0.weight f4 [16, 2, 3, 3]
000000 f2 ba 4f 3e c9 ab 74 3c 83 0a aa bd 48 be a0 3c
       0.20286158 0.014933535 -0.08302786 0.019621983
000010 3b ca f4 bc ee b5 7c bd 59 4e 49 bc 03 85 3f bd
       -0.029881587 -0.06169694 -0.012286746 -0.04675771
000020 a9 2e d3 3d 73 52 45 be f1 c2 91 3d 74 3f 93 3d
       0.10311634 -0.19269733 0.0711726 0.07189837
000030 fc 96 3f 3c a8 02 28 bd 95 aa 98 3d 19 04 76 3d
       0.011693712 -0.04101816 0.07454411 0.0600625
000040 78 3b ba 3d ec 9f 88 bd 3c 6d 01 3e 83 51 86 3e
       0.09093374 -0.06671128 0.12639326 0.26234064
000050 09 da 25 bd 56 36 9f bd 20 61 6d be 87 7f 24 3e
       -0.040491138 -0.07774036 -0.23181581 0.16064273
000060 5c 74 39 be 42 01 86 be 68 b3 00 be a1 85 17 bd
       -0.18110794 -0.26172835 -0.12568438 -0.036992673
000070 7f d7 e8 bc 15 40 e6 3a 8e 38 9f 3d 28 7a cb be
       -0.028423069 0.0017566705 0.07774459 -0.39741635
000080 1a a9 8b 3d 82 b4 5e 3e ba 65 bc 3d 88 62 2e 3e
       0.06819363 0.21748546 0.0919909 0.17029774
000090 fb 65 48 3d 2d 13 a7 3e df e4 44 bc 28 1a 2b 3c
       0.04892538 0.32631817 -0.012017458 0.010443248
0000a0 31 55 f2 3d 00 d2 8f 3e 29 c4 3f 3e 9d d1 da 3e
       0.11832655 0.28089905 0.18727173 0.42738047
0000b0 10 f2 5f 3d b9 1d ba bd 66 b8 a1 be fe e1 13 3d
       0.05467421 -0.090877004 -0.31585997 0.036104195
0000c0 0d e1 24 3d 27 4d 1e bd 1a 38 9b be 58 70 1f be
       0.040253688 -0.038647797 -0.3031624 -0.155702
0000d0 7d e3 dc be 9d 2c 0a bd 19 9c ac 3c 5b 80 6c bc
       -0.4314231 -0.033733953 0.021070527 -0.014434899
0000e0 5b fe 95 3d 30 6f 29 bd 78 76 62 3c 5f a8 a3 bf
       0.07323905 -0.041365802 0.01382219 -1.2785758
0000f0 61 7e e7 3b 36 db 85 bd 77 6a 87 3c 31 03 eb bc
       0.007064626 -0.06535952 0.016530259 -0.028688045
000100 7f 40 f5 3b c6 bf 91 bd 26 0d 03 3d d8 95 af bc
       0.007484495 -0.07116656 0.03199496 -0.021433756
000110 13 57 b6 3d 76 43 8f bb e7 f1 61 3d 80 41 e5 bc
       0.08903327 -0.0043720556 0.055162337 -0.027985334
000120 69 84 05 3d 8d 39 cb bd 75 1e 0c be c2 06 7d bd
       0.03259698 -0.09923086 -0.13683493 -0.061774023
000130 71 cc 08 be 0d eb 1b 3f 97 87 56 3c 7e 37 7e bc
       -0.13359238 0.60905534 0.013093851 -0.01551616
000140 d5 49 06 be 87 36 be bc 7a c7 8b 3d 24 35 0c 3e
       -0.13114102 -0.02321936 0.068251565 0.13692147
000150 4f 44 87 3d 6c fa fa 3d 9a 37 98 3e 42 54 f1 39
       0.06604826 0.122547954 0.2972992 0.0004602988
000160 95 3a 95 bc 89 31 df 3d b9 71 3e 3d 43 79 6f bd
       -0.01821641 0.1089812 0.046495173 -0.058465254
000170 e5 76 f2 3e d7 cc 16 bd 61 f1 17 bf d5 50 df bc
       0.47356334 -0.036816444 -0.5935269 -0.027260223
000180 94 5c ad 3c 7b 4e 0e be 94 2c d8 bd 06 8f 17 bd
       0.021162309 -0.13897125 -0.105553776 -0.037001632
000190 b1 3f ee 3c f4 8f 53 bc 2e 34 80 3d cc 1f 05 bb
       0.029083105 -0.012912739 0.062599525 -0.0020313142
0001a0 18 97 09 bb 69 2c ea bc eb 25 1b 3e 64 a3 c5 3d
       -0.00209946 -0.02858563 0.15151183 0.09650305
0001b0 d1 75 91 be a1 5b c7 be 3f a0 9a bc 2f 35 8f 3c
       -0.284102 -0.38937095 -0.01887524 0.017481415
0001c0 1e 67 3a 3d ac f4 31 bf 58 62 b8 be 91 ea f2 be
       0.045508496 -0.69513965 -0.3601253 -0.47444585
0001d0 e7 7b a7 bd 60 29 8a 3e 83 46 94 3e 9c 7d 53 3c
       -0.08177929 0.26984692 0.28960046 0.012908366
0001e0 30 f9 c1 b4 f7 25 bb 3c 3c 18 d3 3e 3d 20 4f 3e
       -3.613036e-07 0.022845251 0.41229427 0.20227142
0001f0 d8 ac 83 3e 18 b2 00 3d e8 c2 03 bf 00 3d 03 bf
       0.25717807 0.031419843 -0.5146928 -0.51264954
000200 8c 06 5a 3d 1f 44 07 be d8 98 d8 3d 78 ec 10 3e
       0.0532289 -0.1320958 0.10576028 0.14152706
000210 1d 38 7e bf 82 e4 b4 bd 0c f9 2f bd 1b 93 50 3e
       -0.9930437 -0.08832647 -0.04296212 0.20368616
000220 dd a3 90 3e 8c f9 65 bd 54 25 ee 3b b7 75 0c bd
       0.28250018 -0.05614619 0.0072676335 -0.03429195
000230 69 fc d7 3d 45 86 88 3e 12 f7 9c 3d 15 b6 2f 3d
       0.1054619 0.2666494 0.076643124 0.042898256
000240 a3 96 a0 3d 81 8e 76 3d c9 64 65 3b e4 30 9b 3d
       0.07841232 0.060194496 0.00350027 0.075776845
000250 66 f6 65 3e 5e 12 e9 bb ed 7d 83 be 09 7b e1 be
       0.22457275 -0.0071127852 -0.2568201 -0.4403918
000260 a1 cc de be 96 c9 80 bd 68 ac c6 3d 7e ae 88 3c
       -0.43515494 -0.062884495 0.09700853 0.016684767
000270 99 64 42 3d be 75 72 3d c4 0f fe 3d 29 52 ef bd
       0.04745922 0.05919432 0.12405351 -0.11685593
000280 c6 bb 38 3e 13 9c d0 bb c7 6a 86 b9 1a ec 72 bd
       0.1804038 -0.0063662617 -0.00025638027 -0.059307195
000290 42 de 88 3c aa c7 02 3d 8a 0f 7a bd f3 9d 05 3f
       0.016707543 0.031928696 -0.061049975 0.52194136
0002a0 1e 39 c2 bc db 0b 1a be 56 9f b5 bd 59 f3 d5 3a
       -0.023708876 -0.15043585 -0.088682815 0.0016323134
0002b0 39 b6 40 3d ef 70 38 bd 20 44 b7 bc 83 aa 86 3d
       0.04704878 -0.045029577 -0.022371352 0.06575491
0002c0 9d 6e 0b bf 9e 53 19 3b 30 9b 10 3e a9 4f 8b 3d
       -0.5446566 0.0023395787 0.141217 0.06802303
0002d0 b5 28 93 3c f5 2d b4 bb fb 09 8f bb c6 26 8e bd
       0.017963747 -0.0054986426 -0.0043652034 -0.06940989
0002e0 67 57 10 3f 25 40 bf bd e1 bb 82 3c 06 dd 6b bd
       0.56383365 -0.093384065 0.015958728 -0.05758383
0002f0 07 3d 3a 3d 4a 48 a5 bc 23 bf e4 3c ae db 93 bb
       0.045468356 -0.020176072 0.027923172 -0.004512272
000300 6f e8 a3 3d 3f 73 c3 3e 5f 0d a6 3d c4 2f 0b 3c
       0.080033176 0.38173863 0.08108019 0.008495275
000310 1f 77 6e 3d 88 a2 83 bd af 21 d5 bc c7 22 60 3d
       0.05821907 -0.06427485 -0.026017038 0.054720666
000320 19 4e 8b bd f3 58 a5 3c 47 6f 53 3f 0f 86 45 3c
       -0.06802005 0.020184016 0.8259167 0.012055888
000330 b4 e6 9f bd ac 87 ff 3c e7 00 bb bd cd 51 00 3c
       -0.07807675 0.031192623 -0.091310315 0.007832003
000340 fa c3 81 bd 7b f5 74 3d d7 cd f6 bc e7 24 a2 bd
       -0.06336208 0.05980442 -0.030127449 -0.07917195
000350 ce 06 5d bd 3a 25 bf 3d 1b 06 59 bd 4c 2d ae 3d
       -0.053961568 0.09333272 -0.05298434 0.085047334
000360 a6 54 c6 bd 2a 80 43 be b9 85 ac bd 0a 29 b4 bd
       -0.09684114 -0.1909186 -0.08423943 -0.0879689
000370 5d 17 11 c0 00 8e 12 3d 00 8a e1 bd be 52 09 be
       -2.267051 0.035779953 -0.110126495 -0.1341047
000380 f4 61 13 be 27 ab e7 3d 6f e6 da 3d 09 f6 bd 3d
       -0.14392835 0.113119416 0.10688483 0.09275443
000390 42 67 8a 3d 0b 3f e3 3e 86 b0 a9 bd e6 d8 09 3e
       0.06757976 0.44384035 -0.08285622 0.13461646
0003a0 00 db 8a 3d 32 16 38 3e ef 10 65 bd 89 10 34 bd
       0.06780052 0.17977217 -0.055924352 -0.04396108
0003b0 1e d4 7b bd bf a8 7c bd 2f e8 bc be fc 4e 59 bf
       -0.061481588 -0.061684366 -0.36895892 -0.84886146
0003c0 c3 d6 3e 3e 5a ee 00 be 64 66 a8 bd 81 95 f5 3b
       0.18636613 -0.12590924 -0.082226545 0.007494629
0003d0 51 6b b6 3d 77 b9 11 3c c4 e5 25 bc cc cf 9f 3d
       0.08907188 0.008894316 -0.010125581 0.07803306
0003e0 9c f9 06 3f 54 08 e5 3d 1d 55 02 3e a8 a1 97 3d
       0.52724624 0.11183229 0.1272778 0.0740388
0003f0 4c 75 08 bf 98 6d 0c bf 67 6b 6e bf 77 f4 02 be
       -0.5330398 -0.54854727 -0.9313263 -0.12788568

conv.0.bias f4 [16]
000000 64 02 90 bd e2 84 84 be 68 41 ee bd 72 09 11 3f
       -0.07031706 -0.25882632 -0.11633569 0.5665504
000010 c3 86 11 bf c7 99 81 be 02 4d 07 3d f1 79 27 be
       -0.56846255 -0.25312635 0.033032425 -0.1635511
000020 15 55 c6 be 81 e2 70 bd a9 bb 28 bf 04 fd d1 be
       -0.38736787 -0.05880976 -0.65911347 -0.41013348
000030 3a 01 9d 3e 3c 03 76 be 39 d9 65 bc 92 1c 4d be
       0.30664998 -0.24024671 -0.014028841 -0.2003043

conv.2.weight f4 [32, 16, 3, 3]
000000 be e0 88 bd 31 ae 6b 3c 4d 59 1d bd 48 f5 88 bc
       -0.06683491 0.014384792 -0.038415242 -0.016718522
000010 86 b4 8f bd a7 b6 a7 bc 9d 04 a8 3d 40 32 ed bc
       -0.07016854 -0.020472838 0.08204005 -0.028954625
000020 d3 1f c6 bd 07 7e 8e 3d 45 d4 d1 3d 64 92 ad 3d
       -0.09674039 0.069576316 0.10245565 0.084751874
000030 78 57 10 3e 5a a2 de 3d 7e 92 fc 3c ac 40 48 3d
       0.14095867 0.1087081 0.030831572 0.0488898
000040 14 ee 20 bd 6d 16 2e bd f1 ba 33 3e a0 08 ef bc
       -0.03928955 -0.042501856 0.17551781 -0.029178917
000050 94 47 43 bd ff 2e 03 bd 40 c6 c5 bb 26 74 67 be
       -0.047675684 -0.03202724 -0.006035596 -0.22602901
000060 6b 4e fa bd 67 2f 79 be a4 f9 41 be f9 69 5c 3c
       -0.12221988 -0.24334489 -0.18942887 0.013453
000070 05 d1 1c bd 58 b4 09 be 80 84 e9 3b 46 c9 8f bd
       -0.038285274 -0.13447702 0.007126391 -0.07020812
000080 78 02 9d bd 3e 72 47 3d 76 30 f2 bd a0 c1 b3 be
       -0.076664865 0.048692934 -0.118256494 -0.35108662
000090 5c 8c 93 3d 37 f6 e7 3d 6d 08 91 be 70 c7 12 be
       0.07204506 0.11326259 -0.2832674 -0.14333892
0000a0 8e 95 25 be a6 41 ab be aa 7e eb 3d b7 93 f7 bd
       -0.16170332 -0.33448523 0.11498769 -0.12088721
0000b0 72 86 37 be 6f 45 2d 3d 25 70 d9 3c 4a c8 b5 bd
       -0.1792238 0.042302545 0.026542732 -0.08876093
0000c0 d6 5e 25 3e e9 30 b7 3d 77 e5 83 be 44 38 a3 3d
       0.16149458 0.08944876 -0.25761005 0.07969716
0000d0 6c b3 8f 3d f1 ce 02 be 0f 4b 35 3d 1b 6d 3a 3e
       0.07016644 -0.12774254 0.044261035 0.18205683
0000e0 87 5f 5e 3c 9a f6 1e 3e 80 65 3f 3d d1 a7 34 bd
       0.01357258 0.15523759 0.046727657 -0.044105355
0000f0 aa b1 8a 3d 53 f6 ab 3c 86 ed 34 be b9 9f 45 be
       0.06772168 0.02099148 -0.17668733 -0.1929921
000100 94 53 18 bd d8 04 98 3c 86 0e 89 bd 58 6d 8c bc
       -0.03718908 0.018556997 -0.06692223 -0.017141983
000110 73 e1 2a bd ec 03 a1 bd c9 dd a5 bd 52 2b 07 be
       -0.04171891 -0.07862076 -0.08098943 -0.13200119
000120 60 d6 b6 3d a7 1e 89 3d f5 d3 13 3d fa b0 91 bd
       0.089276075 0.066952996 0.03609081 -0.07113834
000130 76 ff 17 3e 64 60 04 be fd 2d ca 3d b4 f8 42 bd
       0.14843544 -0.12927395 0.09872053 -0.047600463
000140 35 74 1e be 7a cc c4 3d 16 5b 71 be 1f e3 2f 3d
       -0.15474017 0.09609313 -0.23569903 0.04294121
000150 e7 2c de 3d 5f 59 1d be d5 5a 21 bd 3e 46 2d be
       0.10848408 -0.15366124 -0.039393265 -0.16921327
000160 88 00 6a be 84 95 98 3c d1 68 4a 3d f4 dd a3 ba
       -0.22851765 0.018625982 0.049416367 -0.001250206
000170 73 97 02 be 58 a9 e5 bc a9 f3 de 39 83 3a 17 be
       -0.12753086 -0.028034851 0.0004252468 -0.14768414
000180 0d c3 9b bd a7 3b fd bc ea ce 92 bd a1 bd 12 3c
       -0.07605562 -0.030912234 -0.07168372 0.008956344
000190 29 df 03 bc d5 33 97 bd 4d e1 16 be ca ee 52 be
       -0.008048811 -0.07382933 -0.14734383 -0.20598903
0001a0 b4 dd 11 be e5 0d 00 be 23 e3 0d be 47 13 c4 3b
       -0.1424473 -0.125053 -0.13856177 0.0059837434
0001b0 9f 4f 53 3c bc 75 2e 3d 9b 06 f1 3c 4e cb 09 be
       0.012897401 0.04259275 0.029422095 -0.13456461
0001c0 d5 1e 11 bc 27 ff cb 3c 09 cf 09 be ef 88 19 be
       -0.008857449 0.02490194 -0.13457884 -0.14993642
0001d0 73 e3 e6 bc 5d 77 b6 bb 1d 24 5e 3c 6e 21 52 3d
       -0.028184628 -0.0055684284 0.013558415 0.051301412
0001e0 cf d4 85 3d ce 13 99 3c d1 0f b4 bc 80 1f 15 bd
       0.06534731 0.018686201 -0.021980198 -0.036406994
0001f0 30 c4 2e bd 0b 8d aa 3c db e8 a5 3c fa d6 df ba
       -0.042667568 0.020819208 0.020252636 -0.0017077618
000200 61 58 e9 bb 92 5c 02 bd 60 3f 34 be cc 00 c2 bd
       -0.0071211313 -0.031826563 -0.176023 -0.09472808
000210 ab 43 1b bd 7d 87 2c bd 6b 73 b2 3d 0b 6e 06 be
       -0.03790633 -0.0421214 0.087134205 -0.13127916
000220 81 da 5a bc 38 3e b5 bd 68 d0 d0 bd 05 40 da 3d
       -0.013357759 -0.08849758 -0.10196 0.10656742
000230 b6 f4 24 3c cf 0e b5 bd 17 85 1a be 78 81 8f bd
       0.010068109 -0.08840715 -0.15089832 -0.07007116
000240 78 7b 66 3e 4f aa d5 bd 72 5b 2b 3e 8f ea 46 3d
       0.22508037 -0.104328744 0.16734102 0.048563536
000250 98 55 cb 3d 20 58 77 bd aa 75 0e bd c0 7c 82 3d
       0.09928435 -0.060386777 -0.034780182 0.063714504
000260 0a 04 58 bd 5e 9b f3 3d 49 fe e9 3c 3d de 7d 3e
       -0.052738227 0.11894868 0.028563635 0.24791808
000270 bc d5 15 be c7 2e 33 3e 06 7f 33 3d 68 db 65 3e
       -0.14632314 0.17498313 0.04382231 0.22446978
000280 7e 7b 5d bd f5 2d 63 3d 67 21 e7 bd 47 a6 8e 3e
       -0.05407285 0.05546375 -0.11285668 0.27861235
000290 de b7 59 3e 98 3b 9c 3e ba ff 8f be 03 b7 35 be
       0.21261546 0.30514216 -0.2812479 -0.17745595
0002a0 36 02 8f 3e 97 00 49 bb ca de 9f 3d c4 de 0d c0
       0.27931374 -0.0030670518 0.078061655 -2.2167215
0002b0 6d 16 e2 3d ba 05 d2 bd 8f 72 05 bd 94 fd b1 bc
       0.11039434 -0.102549985 -0.032579955 -0.02172736
0002c0 80 ee 80 3c 8d de ba bc df 8a 46 bd 2a f4 e3 bc
       0.015738726 -0.022811199 -0.04847228 -0.027826387
0002d0 58 c1 85 bf 76 e9 bf 3e 02 a4 a8 bb ea 66 04 3b
       -1.0449629 0.37482804 -0.0051465044 0.0020202943
0002e0 79 01 9d 3d 4e 12 d0 3d fb 9e f2 3c f7 ac 50 bd
       0.076662965 0.10159741 0.029616823 -0.050946202
0002f0 d2 ea 95 bc ce 1f 3f be 31 9a 37 bf ad 69 b7 bd
       -0.018300448 -0.18664476 -0.7171965 -0.08955703
000300 fd 74 9c be 63 12 b1 bc 05 cd 2c be 03 38 c9 bd
       -0.30558005 -0.021615213 -0.16875084 -0.098251365
000310 f9 00 48 bc 53 be 31 3d fc 4e cb 3d 62 07 99 bd
       -0.012207263 0.043394398 0.099271744 -0.07472111
000320 73 55 93 bd e8 ef 87 3d a0 e2 ff bd 74 0b b4 bd
       -0.071940325 0.06637555 -0.12494397 -0.08791247
000330 d2 b2 fe 3d 37 39 71 bc b8 14 de bb b6 3c 95 3d
       0.12436451 -0.014723114 -0.006777372 0.0728697
000340 a7 ce 4b bd 8a cc 0d be 16 5b ce 3d b6 f3 b3 bd
       -0.049757626 -0.13847557 0.10075967 -0.087867185
000350 ff 92 2c be c7 6b 95 3e a8 5f 14 bb b9 b5 f6 3d
       -0.1685295 0.2918379 -0.0022640023 0.120463796
000360 de 83 2c 3e b8 85 f6 bd 29 e5 48 3e e1 41 de 3b
       0.16847178 -0.120372236 0.19618668 0.0067827557
000370 67 75 a7 3e 86 f0 9b 3c 28 f7 36 3e 47 24 06 3e
       0.32706758 0.019035589 0.1786772 0.13099776
000380 15 27 34 be 3b d5 aa 3d 11 b2 e2 be 2b e8 c7 bd
       -0.17593034 0.08341452 -0.4427648 -0.097610794
000390 ad ba d8 3d 39 cf 19 bd f9 0b 5b be 68 b9 f4 3e
       0.105824806 -0.03755114 -0.21391286 0.47797704
0003a0 7a 47 ea bc 44 fb b3 bd 68 22 8e bd e9 98 e1 be
       -0.028598536 -0.087881595 -0.06940156 -0.44061974
0003b0 b3 28 db 3e b5 a0 60 3d b9 63 33 be d3 8d 4d bb
       0.4280449 0.054840762 -0.1751851 -0.0031365051
0003c0 b7 68 8a bc e6 60 42 bd d1 9e 3f bc 83 bb 03 3e
       -0.016895635 -0.04745569 -0.01169558 0.12864499
0003d0 42 87 22 bf 21 68 39 3e 63 ec d5 3d ca 4f ae bd
       -0.6348764 0.18106128 0.10445478 -0.08511312
0003e0 67 62 69 bd fa c2 1a bd d8 41 69 3c 3b 4b fe 3b
       -0.05697861 -0.0377836 0.01423689 0.007760433
0003f0 a8 20 ab 3d 91 b1 94 bf 3d d6 29 bf ec 88 69 3e
       0.08355838 -1.1616689 -0.66342527 0.22806138

conv.2.bias f4 [32]
000000 42 56 8e 3c 8b ea 32 3d 9f a0 85 bd 38 07 85 3d
       0.017375115 0.04368071 -0.06524777 0.064955175
000010 d6 6f 13 3d 2b b6 20 bd 91 a1 5c 3e 42 de 93 bd
       0.035995327 -0.03923623 0.21546008 -0.07220127
000020 85 df 63 be f2 2b a5 be 20 43 12 3e 6f 11 89 3e
       -0.22253235 -0.3226009 0.14283419 0.26771113
000030 cb 36 b5 bd 52 55 0f 3d a6 a7 c5 3d d1 ef 0c be
       -0.088483416 0.034993477 0.09651117 -0.13763358
000040 0f 2b b5 3c e8 72 05 3c 59 67 59 3e 66 20 ea bd
       0.022115258 0.008145072 0.2123083 -0.11431961
000050 2a 17 d4 3d c0 b2 5b bd 92 cb 37 3b a0 45 e0 bd
       0.10355981 -0.053637266 0.0028044921 -0.1095078
000060 b1 74 01 be a2 6a a0 3e 8f 2d e5 3d 60 73 02 be
       -0.1264217 0.31331354 0.1119033 -0.12739325
000070 f6 2c 0f bd 69 53 06 3d 1b 2c bb bd db 12 0e 3e
       -0.034954987 0.03279439 -0.09139272 0.1387438

conv.4.weight f4 [64, 32, 6, 6]
000000 4d 01 49 bc 11 d1 6d bd d0 f9 88 3d 03 fd 7b bc
       -0.012268377 -0.05806071 0.06688273 -0.015380147
000010 4b c7 3e 3d 04 dc 7f bc 88 62 05 bd 7f 86 25 3d
       0.04657678 -0.015616421 -0.03256467 0.04041147
000020 28 2f ef 3c 53 65 b3 3c 33 70 88 bc c8 f4 1f 3d
       0.02919729 0.021898901 -0.016655063 0.0390518
000030 95 b5 5c bb ca c9 c5 3c 67 67 d1 bc ae 88 34 bd
       -0.0033677567 0.024144072 -0.025562001 -0.04407566
000040 ab 6e e2 bb 95 0b ec 3c 9c 3f 43 3c aa d9 96 3d
       -0.0069101653 0.028814116 0.011917021 0.07365735
000050 31 59 9f ba 74 f1 55 bd ef 35 44 bd 10 43 a3 3d
       -0.0012157318 -0.05223222 -0.047902998 0.079717755
000060 48 48 ca 3c 56 b0 df bb 2b 1f 80 bd 68 12 d6 3c
       0.02469267 -0.006826441 -0.06255945 0.026131824
000070 09 9e f1 ba cd 71 18 bb 07 c3 d8 3b 73 35 89 bc
       -0.0018433939 -0.002326119 0.006615046 -0.01674912
000080 d8 77 17 bd f9 1d 6a 3a ce 26 27 bd 78 85 b3 bb
       -0.036979526 0.0008930858 -0.04080849 -0.005478557
000090 70 cd f4 bc 37 8d 98 bd d2 99 6a 3e c4 30 fd bd
       -0.029883116 -0.074488096 0.2291024 -0.12362817
0000a0 58 37 f2 be 5b 2b 23 be 33 47 fe bc 93 62 a9 3d
       -0.4730785 -0.15934508 -0.03103981 0.08270755
0000b0 3b dc 0e 3d 52 ad 81 be ba 63 7f be cb 66 a7 3e
       0.034877997 -0.25327545 -0.24940386 0.32695612
0000c0 4c 75 0f bf c9 80 c7 3d af 59 39 bd 9f d1 95 3d
       -0.56038356 0.09741361 -0.045251545 0.07315373
0000d0 16 25 42 3e 2e 35 55 3e 5f 85 89 3d df 00 16 be
       0.1895946 0.20821068 0.06714892 -0.1464877
0000e0 0a a7 27 3d 4d 5f a7 bd df 14 4c 3b 1d 39 24 3e
       0.040930785 -0.08172474 0.003114037 0.16037412
0000f0 27 6a 4f 3d 40 a8 fc 3c b4 05 98 3d d6 5e 8f 3d
       0.050638344 0.030841947 0.07422963 0.070005104
000100 24 86 dd bc 8e ea e6 3d 5b 74 93 be 0e 10 48 3e
       -0.027041502 0.112752065 -0.2879971 0.19537374
000110 f6 84 99 3e fc c6 2a 3e 59 25 59 3e b3 8a 28 bf
       0.29984254 0.16677469 0.21205653 -0.6583664
000120 31 b5 28 bc 4b 04 21 bd d5 ab bb bc e8 75 46 bd
       -0.010297106 -0.039310735 -0.022909084 -0.048452288
000130 da cd 2b 3c 6e c6 cb bc 39 1c 09 bc 45 a1 a1 3b
       0.010486091 -0.024874892 -0.008368545 0.004932555
000140 8f 02 dc ba 0e 52 74 3c 46 d5 b5 3c b8 dc 2a 3c
       -0.001678543 0.0149121415 0.022196423 0.0104286
000150 95 34 27 3c a5 e3 11 bc 5d e3 e4 bc 8a cf c4 3c
       0.010205408 -0.008904372 -0.027940447 0.024024744
000160 d2 76 6d 3c 79 06 2b bc bf 7d b3 bc 86 d4 c9 3c
       0.014493661 -0.010438555 -0.021910546 0.024637472
000170 a3 69 ab bc 17 97 82 3c 9b 6e 1d bd 50 d7 17 bc
       -0.020924395 0.015941186 -0.03843556 -0.009267643
000180 26 83 09 bb b0 8f 19 3d d2 8d 15 3b 95 9e b7 3c
       -0.0020982712 0.037490547 0.0022820127 0.022414485
000190 52 3d 1f bc 7b b6 f9 3c f7 13 e4 3c 9e 44 07 3d
       -0.00971921 0.030482521 0.027841551 0.033024423
0001a0 c2 a9 2d 3d 7e 56 32 3c 41 b1 94 bb 54 81 70 3b
       0.04239822 0.010884879 -0.004537732 0.003669818
0001b0 30 95 88 bd 8a b2 49 3e f1 36 47 bd d0 ea a5 be
       -0.0666908 0.19697013 -0.04863638 -0.3240571
0001c0 5b 64 08 bf de ca 6c 3e 2d 3d 3f ba c5 4d 9a 3e
       -0.5327813 0.23124263 -0.00072951877 0.30137458
0001d0 4b a0 bb 3d 17 00 fc bc 65 73 d1 3e 4c 1a cb be
       0.09161433 -0.030761762 0.40908352 -0.396685
0001e0 69 3a c2 3e 39 8d 87 3e d6 9b 67 3e 1c dc 11 3e
       0.37935188 0.26474932 0.2261804 0.14244121
0001f0 ce 64 6a 3e 83 9d a7 3e 1a b1 90 3e 8c 3e 90 3e
       0.22890016 0.3273736 0.28260118 0.2817272
000200 1a ad 7e 3e b2 9f 81 bb 0f 72 a6 3e d7 23 9e 3e
       0.2487072 -0.0039558047 0.32508895 0.3088672
000210 d5 e3 bd 3c 22 f1 b7 3e 82 f2 b3 3e 0f 92 85 3e
       0.023179928 0.35926157 0.35145956 0.26087996
000220 ac 7b c1 3e 5f 9e 0c bf b9 6f 7b bb e8 2c e2 be
       0.37789667 -0.54929155 -0.0038366152 -0.44174886
000230 c4 b6 0d bf 7a c8 55 be 01 4b 39 3e 8c 09 ca be
       -0.55357003 -0.20877257 0.18095018 -0.3946041
000240 a4 38 9b 3d a6 9e 37 3c ec 6c f4 bd 7e 45 e9 3d
       0.07579163 0.011207258 -0.11934838 0.11390208
000250 4d 8d 9b 3e fc 91 80 bd 35 d6 ba 3e 99 5c b0 3e
       0.3038124 -0.06277844 0.36491552 0.34445646
000260 49 2e c4 be 4d ef b7 be 7d 9d fb be b8 df a1 bd
       -0.38316563 -0.3592476 -0.49143592 -0.07903999
000270 b6 62 83 be ff 91 16 3e 14 e0 b8 be 39 86 b1 bd
       -0.25661248 0.1470413 -0.36108458 -0.08668179
000280 cb df 00 3e fd 2d c3 be 50 55 85 3e 2f 76 03 be
       0.1258537 -0.38121024 0.2604165 -0.12838052
000290 83 af 9f be 68 ef 55 be 93 5b 9b be 04 1b 57 3d
       -0.31188592 -0.20892107 -0.30343303 0.052516
0002a0 f1 2d a0 3e 9e 2d 3f bd 8c 2e ba bc 06 e9 ad bc
       0.3128505 -0.046674363 -0.022727273 -0.021229278
0002b0 5f 8d 70 3d 4d 2e 3c 3e b4 2c 5c bd 8b 17 c6 3d
       0.058728572 0.18377037 -0.05375357 0.09672459
0002c0 99 2d 80 3c 63 26 8a bd 38 6a b0 bc 71 6a 1b bf
       0.015646743 -0.06745603 -0.021535024 -0.6070929
0002d0 e2 fb 8c 3d a8 c7 0c bc 8f 4a c6 3d d9 65 de 3d
       0.0688398 -0.008592524 0.0968219 0.1085927
0002e0 9e cb 80 bc 0b f1 92 3a 01 bf e6 3e b0 a9 09 3e
       -0.015722092 0.0011210752 0.450676 0.13443637
0002f0 97 9f 81 3e 5d 8b 3d 3e 70 44 6e 3c 32 9c b2 3d
       0.2531707 0.18510194 0.014542684 0.08721198
000300 e4 7b 04 3f 97 bd 42 3e 9f 1e 61 3e ed f0 98 3e
       0.5175154 0.19017635 0.21984337 0.29871312
000310 31 a7 0a 3e bd 26 57 3d 3f 09 c5 3e e6 83 50 3e
       0.13540341 0.052527178 0.38483617 0.20362815
000320 3f a0 8a 3e 86 33 7e 3e 9a 2c d1 3d 61 ef 94 bd
       0.27075383 0.24824342 0.10213585 -0.072722204
000330 40 13 db bc 87 a3 a1 3e 5f 32 8f 3e a6 09 79 3d
       -0.026742578 0.31570074 0.27968118 0.060800217
000340 04 bd 74 3d bb 00 72 be 4e 44 fd bd 54 15 bb 3d
       0.05975057 -0.23633091 -0.12366544 0.091349274
000350 10 a5 16 3e 88 48 70 3d 14 34 5f 3d b8 30 9a 3c
       0.14711404 0.05866292 0.054493025 0.018822059
000360 e8 cf e1 bb 44 1d 76 3d 50 ee 4f 3e 59 7a af 3d
       -0.0068912394 0.060086504 0.20305753 0.08568258
000370 d5 c5 07 3e 60 bf 07 3d 2f 2f 25 3e 33 76 06 3e
       0.1325906 0.033141494 0.1613128 0.13131027
000380 73 26 03 3e 49 65 11 3e dc af 97 3d 09 1e b4 3b
       0.12807636 0.14198793 0.074065894 0.0054967445
000390 1a 0c 59 3e c5 26 e7 3b e4 8d 17 3e 49 7a bd 3d
       0.21196023 0.0070541822 0.1480022 0.0925184
0003a0 b4 85 9c 3d 06 db 4b 3d c5 66 21 3d 3c 9e 6b bd
       0.07642689 0.049769424 0.03940465 -0.05752395
0003b0 1d 8d 5b 3d 44 43 0c 3e 08 04 35 3e 0a 48 46 3d
       0.053601373 0.13697535 0.17677319 0.048408546
0003c0 a5 62 14 3e 52 94 03 3e db 3d 13 3d 63 0e 19 3e
       0.14490755 0.12849548 0.03594766 0.14946894
0003d0 8a ee b6 3d b8 42 29 3d c3 05 19 3d cd c4 f3 bd
       0.089322165 0.041323394 0.03735901 -0.11902771
0003e0 bb 04 94 bb f8 b3 3a 3e 37 2f 3c bc 1e b4 d1 bd
       -0.0045171655 0.18232715 -0.011485866 -0.10239433
0003f0 5c 49 84 3c 73 f0 8a 3c d6 d8 67 bc b4 74 ba 3c
       0.016148262 0.016960358 -0.014150819 0.022760727

conv.4.bias f4 [64]
000000 c3 2c 4d be 1b df ae bd e4 be a4 be 94 9b 81 be
       -0.20036606 -0.08538648 -0.32176888 -0.2531401
000010 8c 8d db bd 02 e7 66 be 4b fb a1 bd 68 fc 14 be
       -0.10720357 -0.2254906 -0.079092585 -0.1454941
000020 34 0d a3 be c1 10 32 bd 54 37 07 be 87 80 39 bd
       -0.3184601 -0.04347301 -0.132047 -0.04528859
000030 c4 67 3d bd 52 54 da be c0 4b cb be 66 13 9d be
       -0.046241537 -0.42642456 -0.3970623 -0.30678862
000040 61 68 37 be a5 c1 0f 3e 25 98 82 bd 3e 30 4e be
       -0.17910911 0.14038713 -0.063766755 -0.2013559
000050 68 fc 9d be 67 72 24 be 89 f3 ea 3e 38 e0 53 be
       -0.30856633 -0.16059266 0.45888928 -0.20691001
000060 20 10 8b be 76 c2 88 be 87 06 9e be c9 0a 56 be
       -0.2716074 -0.26710862 -0.30864355 -0.20902552
000070 2a ea 8d be a1 47 af be aa 9a b1 be f0 e4 2f 3e
       -0.27717716 -0.34234336 -0.34688312 0.17177176
000080 ef 39 92 be 88 f4 a8 3e 91 07 f2 bd bf df 9f be
       -0.28559825 0.32999063 -0.118178494 -0.31225392
000090 12 cf 91 be b4 39 85 3e 84 2d 20 be bd b9 48 be
       -0.28478295 0.26020586 -0.15642363 -0.19602104
0000a0 58 d6 ad be 69 64 04 bf 0d 6d 51 bd 51 78 b9 be
       -0.33952594 -0.51715714 -0.05112939 -0.36224607
0000b0 88 91 95 bd 2a da ed 3c b0 ab 89 3e 90 0c d9 be
       -0.073031485 0.029034693 0.268888 -0.42392397
0000c0 41 50 e3 bd 1c d1 81 be e5 8c 56 be cb 02 46 be
       -0.110992916 -0.2535485 -0.20952184 -0.19337003
0000d0 b4 a9 4f bc 0b 1c a6 bd c4 42 89 be 25 42 d1 be
       -0.012674738 -0.081108175 -0.2680875 -0.40870777
0000e0 7c eb a0 be 66 b2 85 be cb 5a 65 be e9 df 31 3e
       -0.3142966 -0.2611267 -0.22397916 0.17370571
0000f0 41 a8 bd be 2c a4 13 bb 24 1f 89 be a5 22 21 be
       -0.3704243 -0.0022528274 -0.2678157 -0.15735872

fc.1.weight f4 [64, 1600]
000000 3b fb b5 3b be ab f8 ba 67 ab 89 bc 75 9e 8f 3c
       0.0055536306 -0.0018972082 -0.016805364 0.017531613
000010 56 64 d7 3a 1a 45 c6 bc e9 19 09 bc 72 43 1d 3c
       0.0016433101 -0.024202872 -0.008367994 0.0095986
000020 50 29 a2 3c eb 63 30 bb cb 89 b3 bc 97 93 99 3c
       0.01979509 -0.0026915025 -0.02191629 0.018747134
000030 cc e3 11 bb f2 bc ae bc ea ab 7f bc b9 d5 c8 bc
       -0.0022261022 -0.02133033 -0.015604952 -0.024515973
000040 d3 79 45 bc 37 b6 a5 bb cd 5b a0 bc 2e f5 ca bb
       -0.012052971 -0.005057122 -0.019575024 -0.0061937785
000050 91 25 8a bc 40 a2 29 bc 50 f4 3b 3a e1 3d 57 bc
       -0.016863616 -0.010353625 0.0007169889 -0.013137312
000060 25 77 02 bc 96 d3 b2 bb bc 30 8e 3c c6 4b 43 3c
       -0.007962977 -0.005457352 0.017357223 0.011919921
000070 5f b1 89 3c ae 5b 22 3c 9f e8 ae 3c e1 56 39 bc
       0.01680821 0.009909553 0.021351157 -0.011312217
000080 c2 cf a8 3c 04 75 89 bc 7e fd 38 3c 46 4c dc 3b
       0.02060688 -0.01677943 0.011290906 0.0067229597
000090 f5 93 8e bc 8f ee be 3b 01 63 47 bc 5b 7f 26 3c
       -0.017404536 0.0058267782 -0.0121696 0.0101622
0000a0 ff 4e b0 bc d1 d5 f3 bb 53 80 b7 3c 05 03 bf bc
       -0.021522043 -0.0074412604 0.022400057 -0.02331687
0000b0 ce 4f 1c 3c 1b 53 59 bc ee 76 9d 3b ca 3e 0e bb
       0.009540511 -0.013264443 0.0048054373 -0.0021704906
0000c0 12 46 e6 bb f4 dc 94 3c 0e 10 a1 3c 04 db 9a 3c
       -0.007027396 0.018171765 0.019660976 0.018903263
0000d0 6c 25 65 bc 6e 54 d2 3c cf c8 44 3b 20 06 8b bc
       -0.013985973 0.025675025 0.0030026918 -0.016970694
0000e0 b9 ae c2 bc 78 a0 33 bc 8f 47 ea 3c 3e b8 9d bc
       -0.023764955 -0.010963552 0.028598575 -0.019252893
0000f0 5d b8 3e 3c b5 d7 1e bc fc 0a b6 3c c3 b0 f3 bb
       0.011640635 -0.009694983 0.022222035 -0.007436843
000100 1e cd 96 bc a5 f0 2a 3c ba f8 83 bc be 88 07 bc
       -0.018408354 0.010433351 -0.016109813 -0.008272348
000110 80 0f 8b bc ab 1c b2 bb ae 01 f2 3a 62 2e a4 3c
       -0.016975164 -0.0054355464 0.0018463635 0.020041648
000120 80 3f f2 bb fa 20 f7 3c 4e c0 b1 3c 4d a8 ed 3b
       -0.0073928237 0.030167092 0.021698143 0.007252729
000130 c1 4d 5f 3c 12 bb 4d 3b 3f a8 04 bb bd fd 77 3b
       0.013629378 0.003139202 -0.0020241884 0.0037840449
000140 65 4c 3a bc 96 6f a3 3c 81 dd 1b bc 6f 98 aa bb
       -0.011370753 0.01995067 -0.00951326 -0.00520616
000150 8e 09 e8 bb 60 ed b1 bc 3c 55 21 ba 38 45 a4 bc
       -0.007081217 -0.021719635 -0.00061543635 -0.020052537
000160 61 56 04 3c 33 ec 55 3b 58 27 ae bc 0f 0b 37 3c
       0.008077235 0.0032642006 -0.021258995 0.01117207
000170 c7 90 b8 bc 22 f9 1b 3c 95 6d 73 3b a8 de 2c 3c
       -0.022529973 0.009519847 0.0037144173 0.010551132
000180 b7 91 b2 bc 0b 2e 53 ba 73 cb ee ba 62 5e db 3b
       -0.021797998 -0.0008055872 -0.0018218592 0.006694601
000190 12 db 21 3c ac 84 c4 bb 2d ca 1e bc b5 79 c0 3b
       0.009878891 -0.005997261 -0.009691757 0.0058738836
0001a0 60 f1 87 bb 53 09 5d bc 82 a9 5a 3c d0 c5 9d 3b
       -0.004148647 -0.013490993 0.013346078 0.004814841
0001b0 87 44 ae 3c 61 b5 b0 3b c9 d7 e0 bb 15 0c a8 3b
       0.02127291 0.005392716 -0.006861661 0.0051283934
0001c0 4c dc ee bb a6 e5 b2 3c 2b eb a8 3c 13 7b a7 3c
       -0.007289445 0.02183802 0.02061995 0.020444429
0001d0 c9 7f dd bc 7a 69 28 3b 04 44 04 3c fd 71 cf bc
       -0.027038472 0.0025697635 0.008072857 -0.025322909
0001e0 a8 08 ee bb a7 0d ed 38 8f 5b 47 bc c5 f0 9a 3b
       -0.0072642155 0.000113035836 -0.012167825 0.004728409
0001f0 da 52 9e bc 03 b4 93 bb 0a c1 5c 3c 5e b9 e3 bc
       -0.019326616 -0.004507543 0.0134737585 -0.02779835
000200 ba 6b 08 bd e7 7b cb bc ed db b1 3b d0 ae 28 bc
       -0.03330586 -0.024839355 0.0054278285 -0.010295585
000210 b1 33 cc 3b 43 62 9f 3c 47 5e a3 bc 0b af 42 3c
       0.006231748 0.019456035 -0.019942416 0.011882554
000220 3a fc 92 bc f6 6e 98 bb 90 2e 82 bc fe 06 b2 bb
       -0.017942537 -0.0046518994 -0.015891343 -0.0054329624
000230 e8 ba 0a 3c 9d 8c 97 3c 66 d0 af 3c 07 cd 93 3b
       0.0084674135 0.018499667 0.021461677 0.004510525
000240 85 de 9b 3b cd 26 08 bb 0d c7 c7 bc d5 af 86 bc
       0.004756751 -0.002077508 -0.024386907 -0.016441265
000250 09 8d 7f 3a 8c 00 31 bc 86 4b 06 bd 08 01 95 3b
       0.0009748494 -0.010803353 -0.03278687 0.004547242
000260 1c ae 08 bb 08 72 77 bc 14 28 3c bc fe bd c1 bc
       -0.002085573 -0.015102871 -0.011484165 -0.023650166
000270 ca 5f 30 bd 2c f0 90 bc c1 a8 27 bd b5 78 1a bd
       -0.0430601 -0.017692648 -0.04093242 -0.03771277
000280 ab 86 b3 bc 1c 9d 1b bd b0 97 b9 bc eb cd 8c bc
       -0.0219148 -0.037991628 -0.022655338 -0.017188033
000290 fe 7e 97 3a b9 36 a7 bc 8e 4b 8e 3b 69 4d de bc
       0.0011558232 -0.020411836 0.004342503 -0.027136521
0002a0 2f 0b 02 bd 49 4e 16 bd 98 90 38 bc 55 14 09 bc
       -0.031748947 -0.036695752 -0.011264943 -0.008366664
0002b0 a1 0c 0b bd 73 c5 0c bd 93 8b 34 3b d1 3b 9f 3c
       -0.03394759 -0.03436799 0.0027549013 0.019437702
0002c0 80 ce eb 3b 81 87 c8 bb 98 38 d4 bc 7e 3e 57 3c
       0.0071962476 -0.006119669 -0.025905892 0.013137458
0002d0 e2 f5 b8 bc 59 8d a3 bc d0 5f 84 bb bf 01 00 bd
       -0.022578184 -0.01996486 -0.004039742 -0.031251665
0002e0 70 5a fc 3a c2 f7 6b 3c 37 e2 80 3c 44 7f 04 3c
       0.0019253027 0.014402332 0.015732868 0.008086983
0002f0 b1 8f a6 bc 1e 18 8b 3a eb 72 9d bb 32 29 ad 3c
       -0.02033219 0.0010612046 -0.004804959 0.021137808
000300 e2 6b e7 bc a0 01 30 bc 27 69 cf bc d1 8a f0 3b
       -0.028249685 -0.010742575 -0.025318695 0.007340767
000310 fb 3b 79 3c 92 b6 ea 3b 98 18 1a 3b e7 6f a9 3b
       0.015212054 0.0071628774 0.0023513194 0.0051708105
000320 98 5b 07 3c ca 59 3f 3c ac d4 ab bc c6 db 76 bc
       0.008261584 0.011679122 -0.020975433 -0.0150670465
000330 88 93 8d bc 69 ec 61 bb 64 6d 3f 3c 71 1c e5 bc
       -0.017282262 -0.0034473187 0.011683796 -0.027967663
000340 37 e5 35 3c 70 62 af bb b1 14 c4 3c 64 c7 6c 3c
       0.011102012 -0.005352311 0.023935648 0.014451835
000350 0a c8 e1 bb 7c a1 95 bc a5 26 09 bc 71 2b 44 3c
       -0.0068903016 -0.018265478 -0.00837103 0.011973248
000360 89 c5 5f 3c 4b f1 4d 3c 73 85 86 3b 79 bf 8d 3c
       0.013657936 0.012569736 0.004105264 0.017303215
000370 b1 a9 af bc 12 59 5a bc 0c 3f 91 bb e6 04 85 bc
       -0.02144322 -0.0133269 -0.0044325646 -0.016237687
000380 ef 64 bd bc 32 55 04 3a c6 78 1d bc c4 27 40 3c
       -0.023119418 0.00050480955 -0.009611314 0.011728231
000390 9d 3b a8 3b c6 a0 58 bb 8a 45 f1 39 87 3d 91 bc
       0.0051340596 -0.0033054813 0.00046018913 -0.017729534
0003a0 fb c4 94 ba 32 73 57 bc fd 02 f2 bb 46 73 b0 3c
       -0.0011350209 -0.013150023 -0.00738561 0.021539342
0003b0 78 94 5f bc 69 8e 86 3b 5d 09 1d bc 7c 25 88 3a
       -0.013646238 0.004106332 -0.009584752 0.0010387148
0003c0 8c ea 77 bc 31 8f 28 bb 55 f3 84 bb c5 07 51 bc
       -0.015131604 -0.0025720114 -0.0040573278 -0.0127582
0003d0 69 85 d3 3a ee 69 46 bc 03 f8 c7 b9 fd 8e 01 3c
       0.0016137782 -0.012110217 -0.0003814102 0.007907626
0003e0 f9 25 d1 bb 34 7a 3c 3c 32 5d cc 3b 28 75 05 3c
       -0.0063827005 0.011503745 0.0062366957 0.008145608
0003f0 3f df 0f bc 89 7a 25 3c f2 7e f6 39 3d 9a 3c bc
       -0.008781253 0.010100015 0.00047015358 -0.011511383

fc.1.bias f4 [64]
000000 c8 0c 4a 3c e2 04 04 3e 27 2c 0a bd 02 80 fa 3b
       0.012332149 0.12892488 -0.033733513 0.0076446543
000010 66 38 f0 3e 1a dc 7e 3e 9d fe 17 bd 99 f7 68 bc
       0.4691803 0.2488865 -0.037108053 -0.014219188
000020 f2 5e 63 3c 9e 3a dd 3e a3 7e d6 3e d5 58 83 3e
       0.013877617 0.43208784 0.4189349 0.2565371
000030 a6 a6 01 3d 54 88 a1 3d 87 2a 1d 3e 77 c7 2d 3f
       0.03165307 0.07887331 0.15348254 0.67882484
000040 8c a6 14 b9 99 fa 79 bb 57 f1 24 bd f7 a5 de bc
       -0.00014176423 -0.0038143753 -0.040269222 -0.027178748
000050 56 ab 7b 3b e4 d5 2b 3b e7 c3 c8 bc bc a5 82 3e
       0.0038401685 0.0026220018 -0.024507476 0.2551707
000060 7d 78 e0 3b f9 84 b5 bc 2e 3f ee bc ac 2f 13 3d
       0.006850301 -0.022158133 -0.02908286 0.035934135
000070 fe 40 05 3e 39 76 10 3e 22 d9 1c 3b d8 5b e7 bc
       0.13013074 0.14107598 0.0023933132 -0.028242037
000080 25 eb 32 3c 0d 89 f8 3e d7 ae 28 bc 04 21 a1 3e
       0.010920321 0.4854206 -0.010295591 0.314705
000090 1c 28 8c bc 51 8d 09 3f 9c 21 34 3d f0 5b 0e 3d
       -0.01710897 0.53731257 0.043977365 0.034755647
0000a0 64 35 ef bc 0d 2e 68 3e 35 62 89 3b cb 58 4a 3e
       -0.029200263 0.22673817 0.0041926154 0.19760434
0000b0 f6 9d 7c 3d 00 db b7 ba 17 e7 81 3d 4f 41 27 bb
       0.06167408 -0.0014027059 0.06342905 -0.0025521105
0000c0 19 68 ad bc a0 56 c4 3c 62 15 28 3d 60 db 61 ba
       -0.021167802 0.023967087 0.041036017 -0.0008615758
0000d0 c0 8e a5 3e 95 ff b1 3e 00 b6 0a bb 1d 5d 02 3d
       0.32335472 0.34765306 -0.002116561 0.03182708
0000e0 73 43 95 bc 2b 67 26 bd f5 18 4e bd a1 3d cf 3e
       -0.018220639 -0.040625732 -0.05031677 0.40476707
0000f0 77 98 78 bb 01 b6 b8 bc bb c3 46 3e ba 19 80 3e
       -0.0037932673 -0.022547724 0.19410603 0.25019628

fc.3.weight f4 [4, 64]
000000 9b 01 84 3c 1c 12 55 3e d0 4c 3d 3c 62 12 9c 3d
       0.016114047 0.2080769 0.011553958 0.07620694
000010 3b 9d 8b be 2a 41 10 3e db 15 bc 3d fc 19 be bd
       -0.27268395 0.14087358 0.09183856 -0.092823
000020 69 f0 b4 3d 56 c5 2c 3d be 1b 94 3c 0c a6 6a bf
       0.08834917 0.04218038 0.018079635 -0.9165962
000030 29 8c 01 3e 46 81 38 3d b5 c4 c2 bf 7b 66 d0 3e
       0.12651123 0.04504516 -1.521628 0.40703186
000040 19 8f 3c 3d ea e3 6c be fc 9f cf 3d 1e 79 fe 3c
       0.046034906 -0.23133817 0.101379365 0.031063613
000050 e7 ba 22 3e c1 b5 94 3c 2e ee 7b bd 9e 3c 19 bf
       0.1589161 0.018153073 -0.061506443 -0.5985812
000060 48 da 3d bc 84 05 0f bc 12 8f d5 bd c8 b5 40 bd
       -0.011587687 -0.008729342 -0.10427679 -0.04704836
000070 4f 92 8f 3c 4c c2 a8 3d 27 4a 88 3d eb 3f 58 3c
       0.01752582 0.08240184 0.066547684 0.013198833
000080 fa 3b bf 3d 69 ec 22 bf 05 cc c7 bd 8f fa b5 3d
       0.093376115 -0.63641983 -0.097557105 0.08885681
000090 20 4c 29 3d b4 da 3a be c8 f4 5a bd 7c ac a6 3d
       0.041332364 -0.18247491 -0.053456098 0.081383675
0000a0 c2 0e 1f 3d 69 15 6a bd ed 25 2b bd 76 65 00 3e
       0.038832434 -0.057149325 -0.041784216 0.12538704
0000b0 8c 16 1f be 0f 12 c9 be e3 fc 93 3e 5d e4 f0 3d
       -0.15535945 -0.3927159 0.28903875 0.11762307
0000c0 ef 90 2b 3d 08 e3 56 3e 64 8b 95 3e 8d 80 35 bd
       0.041886266 0.20985043 0.2920791 -0.04431205
0000d0 8b e9 96 bf 30 a9 12 bd c8 aa dd bc 09 40 e6 3d
       -1.1790022 -0.03580588 -0.027058974 0.112426825
0000e0 25 0a e4 bc 9f 88 7e 3d a0 99 aa bd cf f4 71 bd
       -0.027836869 0.06214201 -0.08330083 -0.05907136
0000f0 23 a0 cd 3c b8 b7 84 bd 0a 46 17 3e 61 c0 c3 3d
       0.025100773 -0.06480354 0.14772812 0.09558178
000100 2d 25 2a bc 2d e8 fa be 21 75 da 3d 3c 1c a9 bd
       -0.01038484 -0.4900526 0.10666872 -0.082573384
000110 5b 32 30 bf 00 ed 46 3e 02 24 4f bd 25 c9 90 3c
       -0.68826836 0.19426346 -0.05057145 0.017674038
000120 bd ba 12 bd 92 fb b1 3c 83 14 86 bf 0e 76 65 bd
       -0.03582262 0.021726403 -1.047501 -0.05602079
000130 47 d2 41 3e e3 3a 90 bf de 14 87 3d 90 01 ad 3e
       0.1892787 -1.1267971 0.06595777 0.33790255
000140 b2 6f 80 bc 90 8f 0d be d7 46 dc 3c f8 cc 60 3d
       -0.01567826 -0.13824296 0.026889248 0.054882973
000150 05 88 a9 3d c0 da 92 3d 61 dc fe 3d be a1 8c 3a
       0.08277897 0.071706295 0.12444378 0.0010729355
000160 d8 5e 1f 3d c8 5a ae bd 70 94 a9 3d 01 dc f6 bc
       0.03890881 -0.08513409 0.08280265 -0.030134203
000170 62 27 ad bf f0 90 4e be 5b ae d2 3d 34 b8 bc bd
       -1.3527644 -0.20172477 0.10287162 -0.092148215
000180 1f 3e 9c bb 5d 00 1a 3c 34 01 ea 3c 8a 16 3d bd
       -0.0047681476 0.009399501 0.028565027 -0.046164073
000190 f7 6a 54 bd 25 7b ca bd c6 fd 04 3e 13 14 c8 3d
       -0.051859822 -0.09886769 0.12987432 0.09769454
0001a0 f9 d9 de bd 63 05 0c bd 72 a3 fa 3a dd 83 7f 3d
       -0.10881419 -0.034184825 0.0019122197 0.062381614
0001b0 8a e5 4a 3e a8 99 ce be 49 8d 24 bf a1 2a e4 bd
       0.19814125 -0.40351605 -0.64278084 -0.11140943
0001c0 06 4a 6e bd de c6 9c 3e f1 d3 69 3e 60 c4 7f bd
       -0.058176063 0.30620474 0.22834755 -0.062443137
0001d0 45 e9 42 3d d0 10 1b be 12 a3 a8 bd 1f 7d 07 bd
       0.047585744 -0.15143132 -0.08234228 -0.03307831
0001e0 cb 4a c4 bc 70 01 d6 bb 0f 53 58 bd 59 6a 75 3d
       -0.023961445 -0.006530933 -0.052813586 0.059915874
0001f0 bb 92 33 3d be da d6 3d 19 37 16 3e 3c f4 12 3d
       0.043841105 0.104909405 0.14669456 0.03587745
000200 81 e1 c7 bc 77 03 85 be ba 50 82 3d 88 23 9f 3d
       -0.02439952 -0.25979206 0.063630536 0.07770449
000210 5c d3 eb be ba dc d8 3e 6b c2 af 3d c7 73 35 3c
       -0.46059692 0.423559 0.08582004 0.011074967
000220 6c 7b e9 3d 53 b2 38 bf 86 03 99 3c 0a f4 ac 3d
       0.11400494 -0.721471 0.018678438 0.08444984
000230 6c e9 7f 3e d6 32 9e 3d 7f 87 0a 3d 2a 2e 99 3e
       0.24991387 0.0772454 0.033820625 0.29918033
000240 7e 6a 67 3d cc 22 f1 bd 50 d3 af 3d 34 04 c8 3d
       0.056498043 -0.11774215 0.085852265 0.09766427
000250 5e c5 a9 bd d9 f2 3b 3c 0f 36 8c 3d 54 89 ef 3d
       -0.08289598 0.011471474 0.06846248 0.11696115
000260 a6 ed 86 3d be 73 6b 3c 4b 2b d6 3c 5c 29 1d 40
       0.065882966 0.014370857 0.02614369 2.4556494
000270 48 01 3b bc 44 28 04 3e 63 f2 c7 3d 86 6e a9 bd
       -0.01141388 0.12905985 0.097630285 -0.08273034
000280 0d 6b ca bd cc 54 4e 3c 8f d2 3d 3d f2 06 ac bf
       -0.098836996 0.012593459 0.046343382 -1.343962
000290 76 80 72 bd 0d a1 fa bd 0a 2b fd 3d 63 0e 8d bf
       -0.05920454 -0.12237749 0.12361725 -1.1020015
0002a0 f0 7e c4 3d ce 93 a1 bd 67 6c 36 3d b5 a2 f8 3d
       0.09594524 -0.0788952 0.044536974 0.12140409
0002b0 21 5d 89 3d 65 06 63 3e 7f c0 a1 3e 69 e0 a4 3d
       0.06707216 0.22170408 0.31592175 0.08050615
0002c0 8f 18 18 bc 56 55 e1 be 29 81 17 3e 88 f4 3f 3d
       -0.009283199 -0.4401042 0.14795364 0.046864063
0002d0 a8 3a 77 bd ad 6e 01 be 48 1b b8 bc c9 62 8f 3d
       -0.060358673 -0.12639876 -0.022473946 0.07001264
0002e0 a7 59 c1 bd bf f0 b8 3d 83 b4 36 3d c3 15 a5 bf
       -0.09440928 0.09030294 0.044605743 -1.2897266
0002f0 d1 7c 45 3d 44 d3 47 3c d0 17 39 3e 20 97 9f be
       0.048214737 0.012196366 0.1807549 -0.31169987
000300 bc b1 1d bc e6 ab 5d bd 65 0c 21 bd ea 2c 5c bd
       -0.009624895 -0.054119013 -0.03931846 -0.05375377
000310 7f dd 78 3d 02 e9 d6 3d cb e7 1c bd e2 68 9d 3d
       0.06075811 0.104936615 -0.038306993 0.076860204
000320 e6 15 a7 bd 3f 1e fc bd 04 a1 ab 3c b0 97 d0 bd
       -0.08158474 -0.123104565 0.020950802 -0.10185182
000330 cf c1 eb bc 90 99 af 3d 6f 91 8a 3d 74 b6 b3 3e
       -0.028778939 0.085742116 0.067660205 0.35100138
000340 4a b4 43 bd f2 1a 9b be d8 1c 11 3c 5a cd e1 bd
       -0.04777936 -0.30293995 0.008856975 -0.11025496
000350 6c 7b de bd 1c f3 75 bd 14 da 9a bd 08 9d c4 be
       -0.108633846 -0.0600463 -0.07561126 -0.38401055
000360 32 9d 14 3d 88 b7 ec bc 05 32 4f bd 0d c0 85 bc
       0.036282726 -0.028896108 -0.05058481 -0.016326929
000370 86 4f b3 bb d3 f9 4d 3e 91 4d d9 bd 9e eb ea 3d
       -0.0054721264 0.20114832 -0.10610498 0.11470722
000380 95 a6 28 3e 04 56 f8 bc 41 dc 3f 3c fe 69 c8 bc
       0.16469796 -0.030314453 0.0117102275 -0.024464604
000390 2d 74 99 bd c7 4c 32 bf 78 f9 05 3d e7 b6 dd 3d
       -0.07492862 -0.696484 0.032708615 0.108259015
0003a0 30 66 7c bd 97 f5 bb bf 36 21 a3 3d 34 4c e8 bf
       -0.06162089 -1.4684323 0.07965319 -1.8148255
0003b0 a1 7b 53 3e 5d 6d 9c 3e 9c 97 8b 3e 01 40 f5 bd
       0.2065263 0.30552188 0.27264106 -0.119750984
0003c0 8f da f5 3d e5 a2 b0 3e 83 58 1a bf 0b 7b 9a bc
       0.12004577 0.3449928 -0.6029131 -0.0188575
0003d0 ef bc 9b 3d b7 d1 81 bf a4 df f4 3c 93 c7 12 bc
       0.076043956 -1.0142125 0.029891796 -0.008958715
0003e0 02 35 dc bd ee 80 df 3d ea 63 a6 3b 0c 57 01 3d
       -0.10752298 0.10913263 0.0050778287 0.031577155
0003f0 75 50 df 3d 04 67 1b bd ec 19 ad bf 5d a4 77 3d
       0.10904018 -0.03794004 -1.3523536 0.060459483

fc.3.bias f4 [4]
000000 7b 03 f3 3e f9 aa f7 3e 59 d6 f3 3e 98 0c f6 3e
       0.47463593 0.4837263 0.47624472 0.48056483
