models/v17.1/model_153000.pt (torch, 729854 bytes, 10 tensors)

conv.0.weight f4 [16, 2, 3, 3]
00000000: dd05 3f3e 9516 933c ebff a9bd 8152 bb3c
00000010: 71ee c2bb 2276 a2bd 7e0f c8bc fc7b 42bd
00000020: cc2f de3d b43a 56be 4341 aa3d aa4f 9d3d
00000030: d2d2 dd3c 6d05 53bd 4f0a 843d 01cf 7b3d
00000040: 68a6 c03d 8781 88bd 18d9 fa3d 1752 893e
00000050: 782f 43bd 3596 89bd 473f 64be 17f5 fb3d
00000060: 1c26 42be 455b 6bbe b293 13be dc5c 40bd
00000070: 9c6e 3ebc ae98 3ebc c96a c23d 0105 9cbe
00000080: 8cc0 173d 56ce 5a3e 9f2b a03d d3e5 233e
00000090: 10c1 8c3d d8ef a03e 81f0 19bd d9c1 7ebc
000000a0: a855 cf3d 92c4 893e f5c9 313e 397d df3e
000000b0: 23f3 163d d0b2 a7bd c51a 99be 4e43 b13c
000000c0: d17f cf3b 71c7 66bd dd0a 96be c8a7 20be
000000d0: 2c51 ddbe 6d18 32bd 32b1 973c 07df 93bc
000000e0: 9479 903d 0dc0 01bd fb54 c03c 37d5 a1bf
000000f0: 3b11 ef3b 5246 5fbd 6c07 993c c7ea adbc
00000100: c2f8 753c 2a6a 89bd df74 063d cba8 95bc
00000110: 77a8 aa3d a9c7 61bb df3f 5d3d 9e74 32bc
00000120: 6a42 f23c 844e c4bd f626 03be 48ed 84bd
00000130: ba47 0ebe a33e 1d3f 5cf5 fa3a 2ecb 4a3c
00000140: 5300 04be fed8 c4bc c4ce a43d 9d13 053e
00000150: 6d17 443d f399 f23d fcb6 983e 56cc 08bc
00000160: 869d 11bb 299d e83d 17a4 093d 2853 8ebd
00000170: bff5 eb3e a073 0bbd daf4 1dbf 5e0c afbc
00000180: 054b 263c aefa 0cbe edee cebd d84d 42bd
00000190: c662 a43c 5ff1 56bc 516f 6c3d 3351 35bc
000001a0: 245d fb3c e19f c6bc d1a4 173e efdd 973d
000001b0: 14fa 8cbe d64a b1be 41bc 9cbc 9dcc 433c
000001c0: 5116 5a3c 1eb0 39bf a4e2 babe 4198 dbbe
000001d0: 3f84 aebd f423 833e 2193 a13e 61de b4bb
000001e0: c440 b3bc 9cae 803c 171d e93e 9575 463e
000001f0: c4b0 9a3e c719 1d3d e4f1 fabe f443 fcbe
00000200: 90d2 7e3d b6db 02be be3f a93d 0808 093e
00000210: 0119 83bf d9b4 b4bd ccb8 7abd e1c9 5f3e
00000220: 2b30 983e cc45 2dbd 5830 ac3b 98c0 6dbd
00000230: d655 c33d c073 823e c89b a03d acde 143d
00000240: ea86 813d efb6 753d dcc7 3b3b fc8d 8d3d
00000250: be52 663e 4a0c 33bc da0d 74be df64 e7be
00000260: cc52 e0be 1031 9dbd 3eea b23d c848 bd3c
00000270: be97 203d 5df3 803d 3cbd f73d e5da f0bd
00000280: e436 553e 32ec ddbb 8006 043c 152d 5cbd
00000290: c3f5 473c 9915 bd3c a50e 90bd bff3 ff3e
000002a0: e21e 1bbc 8f9e 15be ff4d b4bd 104f c93b
000002b0: 1144 213d f359 1cbd f2c5 b4bc 1f53 733d
000002c0: 8299 04bf d0ba 893c d0e0 0a3e e37f 933d
000002d0: 856c 4b3c 7d97 01bc fa24 36bc b23d a0bd
000002e0: b39f 113f 695f bdbd 7528 693c 8020 67bd
000002f0: 0dc8 4a3d 2554 d2bc 91af a53c 6d26 9ebb
00000300: 359b a63d c522 c53e e124 b63d b6b8 1fbc
00000310: f896 663d c812 49bd dd6a c1bc 64fd 623d
00000320: 0a83 72bd 5afe 123c 5b23 553f 5d41 913c
00000330: 1162 85bd 6238 f33c ecb9 c8bd 0378 863c
00000340: 3536 93bd 97bb 963d cd92 dabc cef7 98bd
00000350: 8dbc 2dbd 5350 9f3d 42b1 50bd 0ea1 873d
00000360: 74e9 babd 895b 32be ba67 a3bd ef53 a9bd
00000370: c61a 1ac0 135f 933c 6d94 e3bd b7cb 07be
00000380: 562b 14be fd8b dc3d c652 de3d 1a82 be3d
00000390: 583a 633d 0896 0b3f 981b 9cbd 9bf2 fe3d
000003a0: a5ab 733d d2b4 323e 1009 5cbd 463e a8bd
000003b0: 5423 69bd ae08 88bd df6c bfbe 447b 65bf
000003c0: bf3a 4d3e bc38 dabd 63f0 84bd 82d2 e6bc
000003d0: 2293 5c3d 0fd8 e93c bcec 32bc 07a8 b63d
000003e0: 41e9 fe3e 4292 023e da62 173e 5d72 c93d
000003f0: 2c10 17bf 99bc 0cbf 1ad4 6fbf 7914 dfbd
0.1865458 0.017955104 -0.083007656 0.02286649 -0.0059488346 -0.07932688 -0.02442145 -0.047481522
0.1084896 -0.20920831 0.08313229 0.0768121 0.027078066 -0.051518846 0.06447279 0.06147671
0.094067395 -0.066653304 0.122484386 0.26820442 -0.04765269 -0.06718103 -0.22289763 0.123026066
-0.1895985 -0.22984035 -0.1441181 -0.046963558 -0.011623051 -0.011633081 0.09493024 -0.30472568
0.03704886 0.21367773 0.0782082 0.1600564 0.06872761 0.31432986 -0.037582878 -0.015549147
0.101237595 0.26907784 0.17362197 0.43650225 0.036852967 -0.08188403 -0.29903236 0.021638539
0.0063323756 -0.056342546 -0.29305163 -0.15689003 -0.43225992 -0.043480325 0.01851711 -0.018050684
0.07054439 -0.031677295 0.023478022 -1.2643193 0.007295755 -0.054510422 0.018680297 -0.021230115
0.015012922 -0.06709702 0.0328263 -0.018268963 0.08332913 -0.0034451282 0.05401599 -0.0108920615
0.029572684 -0.09585288 -0.12807831 -0.0649057 -0.13894549 0.614237 0.0019146609 0.012377543
-0.12890749 -0.024029251 0.0804725 0.12995763 0.047873903 0.1184577 0.29827106 -0.008349499
-0.0022219135 0.11358101 0.033603754 -0.069494545 0.46085927 -0.034045815 -0.6170174 -0.021368202
0.010149722 -0.13767502 -0.10104165 -0.04743752 0.02006663 -0.013119071 0.057723347 -0.011066723
0.030684061 -0.024246158 0.14808966 0.07415377 -0.27534544 -0.34627408 -0.019132735 0.011950639
0.013310985 -0.7253436 -0.36501038 -0.42889598 -0.08521318 0.25613368 0.31557563 -0.0055196737
-0.021881469 0.01570826 0.45530006 0.19380791 0.30212986 0.03835466 -0.49012673 -0.49270594
0.062212527 -0.12779126 0.08264111 0.1338197 -1.0242006 -0.088235565 -0.061211392 0.21854354
0.2972425 -0.04230289 0.0052547865 -0.058045 0.09537856 0.25478935 0.07842213 0.03634517
0.06324561 0.059988912 0.002865306 0.06911847 0.22492501 -0.010928223 -0.23833409 -0.45194146
-0.4381317 -0.076753736 0.087360844 0.023105994 0.039207213 0.06296418 0.120966405 -0.11760501
0.2082172 -0.0067725414 0.00805819 -0.05375393 0.01220459 0.023081588 -0.07034043 0.4999065
-0.009467812 -0.14611267 -0.08803939 0.006143458 0.039371554 -0.03817172 -0.022067044 0.059405442
-0.51796734 0.016812712 0.13562322 0.07202127 0.01241601 -0.007909653 -0.011117214 -0.078242674
0.56884307 -0.09246714 0.014230837 -0.05642748 0.04950719 -0.025674889 0.020225318 -0.004826358
0.08135072 0.3850309 0.08893753 -0.009748628 0.05629632 -0.049090177 -0.023610527 0.055417433
-0.059207 0.008971775 0.83257073 0.017731363 -0.06512845 0.029689971 -0.09801087 0.016414648
-0.071880735 0.07359999 -0.026681328 -0.0746914 -0.042416144 0.077789925 -0.050950296 0.066225156
-0.09126559 -0.1741773 -0.07978769 -0.08267962 -2.4078841 0.01798967 -0.11112294 -0.13261305
-0.14469656 0.10768888 0.108556315 0.09302159 0.055475563 0.54525805 -0.076224506 0.12448617
0.059489865 0.1745179 -0.05371958 -0.08215003 -0.056918457 -0.066422805 -0.3738775 -0.89641213
0.20041941 -0.106553525 -0.06491163 -0.02817655 0.053851254 0.028545408 -0.0109207 0.089187674
0.49787334 0.12751105 0.14783803 0.09836266 -0.5900905 -0.5497528 -0.93683016 -0.10892577

conv.0.bias f4 [16]
00000000: 994a 9ebd 7fb4 8cbe 43d5 f3bd a072 0d3f
00000010: 3587 13bf ed3d 8dbe 6632 b43c 8cda 31be
00000020: d811 cbbe 63a7 6abd b38b 2abf 1715 d4be
00000030: a206 9b3e 6408 66be 9690 2ebc 90f7 2dbe
-0.07729072 -0.27481458 -0.11905911 0.5525303 -0.57628185 -0.27586308 0.021996688 -0.17368525
-0.3966205 -0.05728854 -0.66619414 -0.4142234 0.30278498 -0.22464138 -0.010654589 -0.16988969

conv.2.weight f4 [32, 16, 3, 3]
00000000: bee0 88bd 31ae 6b3c 4d59 1dbd 48f5 88bc
00000010: 86b4 8fbd a7b6 a7bc 9d04 a83d 4032 edbc
00000020: d31f c6bd 077e 8e3d 45d4 d13d 6492 ad3d
00000030: 7857 103e 5aa2 de3d 7e92 fc3c ac40 483d
00000040: 14ee 20bd 6d16 2ebd f1ba 333e a008 efbc
00000050: 9447 43bd ff2e 03bd 40c6 c5bb 2674 67be
00000060: 6b4e fabd 672f 79be a4f9 41be f969 5c3c
00000070: 05d1 1cbd 58b4 09be 8084 e93b 46c9 8fbd
00000080: 7802 9dbd 3e72 473d 7630 f2bd a0c1 b3be
00000090: 5c8c 933d 37f6 e73d 6d08 91be 70c7 12be
000000a0: 8e95 25be a641 abbe aa7e eb3d b793 f7bd
000000b0: 7286 37be 6f45 2d3d 2570 d93c 4ac8 b5bd
000000c0: d65e 253e e930 b73d 77e5 83be 4438 a33d
000000d0: 6cb3 8f3d f1ce 02be 0f4b 353d 1b6d 3a3e
000000e0: 875f 5e3c 9af6 1e3e 8065 3f3d d1a7 34bd
000000f0: aab1 8a3d 53f6 ab3c 86ed 34be b99f 45be
00000100: 9453 18bd d804 983c 860e 89bd 586d 8cbc
00000110: 73e1 2abd ec03 a1bd c9dd a5bd 522b 07be
00000120: 60d6 b63d a71e 893d f5d3 133d fab0 91bd
00000130: 76ff 173e 6460 04be fd2d ca3d b4f8 42bd
00000140: 3574 1ebe 7acc c43d 165b 71be 1fe3 2f3d
00000150: e72c de3d 5f59 1dbe d55a 21bd 3e46 2dbe
00000160: 8800 6abe 8495 983c d168 4a3d f4dd a3ba
00000170: 7397 02be 58a9 e5bc a9f3 de39 833a 17be
00000180: 0dc3 9bbd a73b fdbc eace 92bd a1bd 123c
00000190: 29df 03bc d533 97bd 4de1 16be caee 52be
000001a0: b4dd 11be e50d 00be 23e3 0dbe 4713 c43b
000001b0: 9f4f 533c bc75 2e3d 9b06 f13c 4ecb 09be
000001c0: d51e 11bc 27ff cb3c 09cf 09be ef88 19be
000001d0: 73e3 e6bc 5d77 b6bb 1d24 5e3c 6e21 523d
000001e0: cfd4 853d ce13 993c d10f b4bc 801f 15bd
000001f0: 30c4 2ebd 0b8d aa3c dbe8 a53c fad6 dfba
00000200: 6158 e9bb 925c 02bd 603f 34be cc00 c2bd
00000210: ab43 1bbd 7d87 2cbd 6b73 b23d 0b6e 06be
00000220: 81da 5abc 383e b5bd 68d0 d0bd 0540 da3d
00000230: b6f4 243c cf0e b5bd 1785 1abe 7881 8fbd
00000240: a31e 4b3e cbf7 a8bd ad5c 443e 3f8a 5b3d
00000250: 5a55 bd3d 18b1 7bbd d09e bbbc d66a 3a3d
00000260: 9e78 61bd 51be ef3d a8e0 013d 7884 953e
00000270: 4763 36be 41fd 2b3e 9b43 b63d dc85 763e
00000280: 066c 4dbd 178b 963d 3f0d 80bd 8d4c 843e
00000290: 9852 443e f460 983e 87c5 8abe 420e 32be
000002a0: e839 873e edde 063c ebc1 413d fd0b 0cc0
000002b0: d12c 013e f005 dcbd ff6a 7bbc 8fba 80bc
000002c0: 7eb9 1a3c 148f 9cbc a783 19bd 76ad 15bd
000002d0: d8a2 81bf b557 ba3e 98e7 22bb 6639 2fbc
000002e0: ead3 9f3d 20c8 d33d 31ba 803c d7a3 7bbd
000002f0: 3418 07bc 53be 49be 594f 57bf f99c 4bbd
00000300: a730 a0be 3e23 7bbd e697 33be 26db a8bd
00000310: 3dac 80bd d9fd f13c ea8d ab3d f222 9cbc
00000320: f7f8 4dbd 7566 003e 021e c6bd 72b3 0dbe
00000330: 5532 1c3e af49 cbba 9b60 493d 78ce 903d
00000340: 19e5 9abd 0cf6 1cbe a4a9 cc3d 6b92 d1bd
00000350: 6020 26be 6bc5 993e 94d5 843c 80a7 083e
00000360: 53aa 483e 1b13 44be 7bb1 353e 7b34 2f3d
00000370: 667a a63e 1b61 ec3c 9d18 4d3e 77d7 1e3e
00000380: 98ff 05be f1da bd3d 28f7 05bf 50da cfbd
00000390: 3812 153e 8882 4ebd 7de0 48be d351 053f
000003a0: 7a40 e43c 9189 0cbe 9069 acbd d6a4 eabe
000003b0: 25c3 d93e 9d09 673d 9b3e 43be b848 473b
000003c0: b004 80bc 84ab 6dbd 0e90 aebc 1077 013e
000003d0: 29ba 11bf 5f00 3c3e 0116 d43d 45d4 bbbd
000003e0: 0002 5bbd 9d0c 1fbd 3cae 143c c292 2dbb
000003f0: 9a03 3a3d 91b1 94bf 65da 25bf 7014 6a3e
-0.06683491 0.014384792 -0.038415242 -0.016718522 -0.07016854 -0.020472838 0.08204005 -0.028954625
-0.09674039 0.069576316 0.10245565 0.084751874 0.14095867 0.1087081 0.030831572 0.0488898
-0.03928955 -0.042501856 0.17551781 -0.029178917 -0.047675684 -0.03202724 -0.006035596 -0.22602901
-0.12221988 -0.24334489 -0.18942887 0.013453 -0.038285274 -0.13447702 0.007126391 -0.07020812
-0.076664865 0.048692934 -0.118256494 -0.35108662 0.07204506 0.11326259 -0.2832674 -0.14333892
-0.16170332 -0.33448523 0.11498769 -0.12088721 -0.1792238 0.042302545 0.026542732 -0.08876093
0.16149458 0.08944876 -0.25761005 0.07969716 0.07016644 -0.12774254 0.044261035 0.18205683
0.01357258 0.15523759 0.046727657 -0.044105355 0.06772168 0.02099148 -0.17668733 -0.1929921
-0.03718908 0.018556997 -0.06692223 -0.017141983 -0.04171891 -0.07862076 -0.08098943 -0.13200119
0.089276075 0.066952996 0.03609081 -0.07113834 0.14843544 -0.12927395 0.09872053 -0.047600463
-0.15474017 0.09609313 -0.23569903 0.04294121 0.10848408 -0.15366124 -0.039393265 -0.16921327
-0.22851765 0.018625982 0.049416367 -0.001250206 -0.12753086 -0.028034851 0.0004252468 -0.14768414
-0.07605562 -0.030912234 -0.07168372 0.008956344 -0.008048811 -0.07382933 -0.14734383 -0.20598903
-0.1424473 -0.125053 -0.13856177 0.0059837434 0.012897401 0.04259275 0.029422095 -0.13456461
-0.008857449 0.02490194 -0.13457884 -0.14993642 -0.028184628 -0.0055684284 0.013558415 0.051301412
0.06534731 0.018686201 -0.021980198 -0.036406994 -0.042667568 0.020819208 0.020252636 -0.0017077618
-0.0071211313 -0.031826563 -0.176023 -0.09472808 -0.03790633 -0.0421214 0.087134205 -0.13127916
-0.013357759 -0.08849758 -0.10196 0.10656742 0.010068109 -0.08840715 -0.15089832 -0.07007116
0.19835906 -0.08250388 0.19175978 0.05359864 0.09244795 -0.061448187 -0.022902876 0.045512043
-0.05504667 0.11706222 0.03170839 0.29202628 -0.17811309 0.16795827 0.088996135 0.24074501
-0.050151847 0.07350748 -0.062525265 0.25839654 0.19172132 0.2976147 -0.27103826 -0.17388251
0.26411366 0.008231861 0.047304075 -2.1882317 0.12614752 -0.1074332 -0.015345334 -0.015713958
0.009443639 -0.019111194 -0.03747907 -0.03654238 -1.0127821 0.3639504 -0.002485728 -0.010694837
0.07804091 0.10340905 0.015713783 -0.061435547 -0.008245517 -0.19701509 -0.8410545 -0.049710248
-0.3128712 -0.061312906 -0.17538413 -0.08244924 -0.06282852 0.02953999 0.08376677 -0.019059632
-0.05028626 0.12539084 -0.09673692 -0.13837984 0.15253575 -0.001550963 0.049164396 0.07070631
-0.07563228 -0.15328234 0.09993294 -0.10233005 -0.16223288 0.3003343 0.016215123 0.13345146
0.19596224 -0.19147913 0.17743485 0.04277466 0.32515258 0.028854897 0.2002892 0.15511881
-0.13085783 0.092702754 -0.52330256 -0.10149062 0.14557731 -0.050417453 -0.19616885 0.5207798
0.027862776 -0.13724352 -0.08418572 -0.45828885 0.42531696 0.056405652 -0.19066851 0.0030408334
-0.015627235 -0.0580249 -0.021308925 0.12643075 -0.5692468 0.18359517 0.103557594 -0.091713466
-0.053468704 -0.03883039 0.009074744 -0.002648518 0.04541359 -1.1616689 -0.6478637 0.22859359

conv.2.bias f4 [32]
00000000: 4256 8e3c 1ea7 443d 59dd 8fbd 7408 9e3d
00000010: 151c 0a3d ae11 35bd f1be 633e 42de 93bd
00000020: 1687 73be 0ce8 a3be c6e7 153e fa38 873e
00000030: b544 d1bd 12c8 db3c c660 b83d 7318 10be
00000040: 59a8 6a3c 9ead 353a 65f3 553e 6620 eabd
00000050: 2aed e83d 24ce 8cbd f1a5 efbb 3c2b a3bd
00000060: 8826 10be 1922 a03e 0767 e23d 6073 02be
00000070: f62c 0fbd 50b1 e33c 234e cbbd 5254 fd3d
0.017375115 0.048010938 -0.070246406 0.07716456 0.033718187 -0.044206314 0.22240807 -0.07220127
-0.23782 -0.32012975 0.14639196 0.26410657 -0.10218183 0.0268288 0.09002833 -0.14071827
0.014322364 0.0006930473 0.20893629 -0.11431961 0.113733605 -0.06875256 -0.007313483 -0.07967231
-0.14077199 0.31276014 0.11054807 -0.12739325 -0.034954987 0.02779451 -0.09927013 0.123695984

conv.4.weight f4 [64, 32, 6, 6]
00000000: 4d01 49bc 11d1 6dbd d0f9 883d 03fd 7bbc
00000010: 4bc7 3e3d 04dc 7fbc 8862 05bd 7f86 253d
00000020: 282f ef3c 5365 b33c 3370 88bc c8f4 1f3d
00000030: 95b5 5cbb cac9 c53c 6767 d1bc ae88 34bd
00000040: ab6e e2bb 950b ec3c 9c3f 433c aad9 963d
00000050: 3159 9fba 74f1 55bd ef35 44bd 1043 a33d
00000060: 4848 ca3c 56b0 dfbb 2b1f 80bd 6812 d63c
00000070: 099e f1ba cd71 18bb 07c3 d83b 7335 89bc
00000080: d877 17bd f91d 6a3a ce26 27bd 7885 b3bb
00000090: db9f 2bbd 4312 c4bc a930 933e b1e2 1abe
000000a0: 377a cdbe c0e3 b7bd 865d 273d b014 053e
000000b0: ddfa 603d 2c3c a0be f4b6 4fbe 56b1 c63e
000000c0: 7fa0 13bf 05d9 083e c696 a9bd 9d23 963d
000000d0: 3f24 623e d629 8b3e bbaf f53d 430a fcbd
000000e0: 3819 2ebc 602f b1bd af20 0c3d afa8 453e
000000f0: f3bb aa3d ea38 8c3d c0e0 9f3d f9f2 0a3e
00000100: d6ba d53c be41 2f3e 50d4 9fbe 220f 863e
00000110: d9f9 ad3e 8de4 453e 8c3b 853e 93ce 1cbf
00000120: 39b5 28bc 0f61 35bd d4ab bbbc ea75 46bd
00000130: e1cd 2b3c 6fc6 cbbc 8662 5abc 38a1 a13b
00000140: 7d03 dcba 1652 743c 3fd5 b53c c4dc 2a3c
00000150: e8bd b03b 61e4 62bc 59e3 e4bc 84cf c43c
00000160: bd76 6d3c 7906 2bbc c57d b3bc 6829 a13c
00000170: a869 abbc 1997 823c 996e 1dbd 4ad7 17bc
00000180: 2b83 09bb af8f 193d de8d 153b 939e b73c
00000190: 4e3d 1fbc 7cb6 f93c f413 e43c 9e44 073d
000001a0: c3a9 2d3d 7d56 323c 4ab1 94bb 3381 703b
000001b0: a07b 9abd 2669 4e3e a104 04bd 4ef7 80be
000001c0: 3765 efbe c2d6 593e 43df 9a3c 5a32 803e
000001d0: 7752 8c3d 3cfd 2cbd 0f2d d13e 5a0f d0be
000001e0: 8927 be3e b770 763e 3a0c 373e 42ac ed3d
000001f0: 9740 703e 01a8 a23e 8f9d 933e cf4b 893e
00000200: 3d42 4c3e 9030 763b d33d ab3e ff9d a53e
00000210: c9bc bbbc 08e8 b93e a850 bc3e fb33 8a3e
00000220: 854a dc3e bac0 febe a8ef 953a 5cc6 e3be
00000230: c7f8 fcbe 3376 69be 2b3f 533e aba5 d4be
00000240: 32a9 a53c 103e c23c 84da c7bd 3a8a 0f3e
00000250: 5f2d 7e3e 1c19 e7bd e3b6 be3e 8557 a83e
00000260: 9865 e2be ec82 d6be 6c51 26bf 50ab a0bd
00000270: 2e73 6ebe 8a6f e43d ffc5 bcbe 0d19 eabc
00000280: 01dd 193e cabb c9be 02a0 9a3e 4027 3bbe
00000290: 38e3 8fbe b951 77be df32 91be 76ca 3f3d
000002a0: 17e3 ae3e f79b 10bd f102 6cbc 1cc4 17bd
000002b0: 011c 2e3d b3ec 593e 439e 43bd ea69 2a3e
000002c0: 4226 493d 8506 77bd 34e6 a3bc 8283 36bf
000002d0: 903c 9f3d e87c 9d3c 5b76 e33d 8b36 703d
000002e0: 0d7a e23a 3b68 93bd 394f eb3e 477a 2e3e
000002f0: 40b2 893e 4d82 2a3e b4cf 803d 81c1 2c3e
00000300: a3a5 033f 1b49 4d3e c877 283e 2cbe 8b3e
00000310: 3a1d cf3d a6f1 e23d a6c7 a63e dfbe 213e
00000320: 1680 8e3e a066 873e 908e be3d be0e 96bd
00000330: 314c e5bc ad4a aa3e 4ee0 9c3e c28a 553d
00000340: e97a 9e3d bad8 65be 07d8 e2bd ba40 d93d
00000350: 90b5 123e 1807 053d 0de7 ee3c f408 6c3d
00000360: 6cad bcbc 0b18 2b3d 956f 253e 77ed 873d
00000370: 2181 cc3d a111 21bb 456f 363e 1114 093e
00000380: 51d3 073e d40d 2d3e cec8 b33d 064f 71bd
00000390: 4927 483e e78d cfbb 9b36 0d3e b316 bb3d
000003a0: 4c47 c83d d5eb 583d 8694 413d 8da1 84bd
000003b0: 02be 363d 3aaa 0a3e bd61 2d3e a289 c23c
000003c0: 22fb 153e 510c 063e a5df f83c 6ddf 043e
000003d0: 37af 993d 6934 a0bb a601 e33d 10ab babd
000003e0: faa9 5dbc 9e71 1a3e c2f3 efbc 6c46 aebd
000003f0: 5c49 843c 73f0 8a3c d6d8 67bc b474 ba3c
-0.012268377 -0.05806071 0.06688273 -0.015380147 0.04657678 -0.015616421 -0.03256467 0.04041147
0.02919729 0.021898901 -0.016655063 0.0390518 -0.0033677567 0.024144072 -0.025562001 -0.04407566
-0.0069101653 0.028814116 0.011917021 0.07365735 -0.0012157318 -0.05223222 -0.047902998 0.079717755
0.02469267 -0.006826441 -0.06255945 0.026131824 -0.0018433939 -0.002326119 0.006615046 -0.01674912
-0.036979526 0.0008930858 -0.04080849 -0.005478557 -0.041900497 -0.02393449 0.28748062 -0.15125538
-0.40132305 -0.08978987 0.040860675 0.12996173 0.054926742 -0.31295907 -0.20284635 0.38807172
-0.5766677 0.13364036 -0.08280711 0.073310114 0.2208414 0.27180356 0.119964086 -0.12306645
-0.01062613 -0.08651614 0.034210857 0.19302629 0.0833663 0.06846793 0.078065395 0.13569249
0.026090067 0.17114922 -0.3121667 0.2618342 0.3397968 0.19325466 0.26021993 -0.6125271
-0.010297113 -0.044282015 -0.022909082 -0.048452295 0.010486097 -0.024874894 -0.013329154 0.004932549
-0.0016785708 0.014912149 0.02219641 0.010428611 0.0053937323 -0.013848395 -0.027940439 0.024024732
0.014493641 -0.010438555 -0.021910558 0.019673064 -0.020924404 0.01594119 -0.038435552 -0.0092676375
-0.0020982723 0.037490543 0.0022820155 0.022414481 -0.009719206 0.030482523 0.027841546 0.033024423
0.042398226 0.010884878 -0.004537736 0.0036698102 -0.07543111 0.20157298 -0.032230977 -0.25188679
-0.46756908 0.2127333 0.018905288 0.25038415 0.068516664 -0.04223369 0.4085469 -0.40636712
0.37139538 0.24066435 0.17875758 0.11605121 0.23462139 0.31768802 0.28831145 0.2681565
0.19947143 0.0037565567 0.33445606 0.32347104 -0.022917168 0.36309838 0.36780286 0.26992783
0.43025604 -0.49756414 0.0011439221 -0.44487274 -0.49408552 -0.22798996 0.20629565 -0.41532645
0.02022228 0.023711234 -0.097584754 0.14017573 0.24821995 -0.11284086 0.37248906 0.32879272
-0.44218135 -0.4189676 -0.6496799 -0.07845175 -0.23286125 0.11154087 -0.3686981 -0.028576398
0.15025713 -0.39401084 0.302002 -0.18276691 -0.28103042 -0.24152268 -0.28359124 0.04682394
0.3415763 -0.03530499 -0.014404998 -0.03705226 0.042507175 0.212817 -0.047758352 0.16641966
0.04910875 -0.060308952 -0.02000723 -0.71294415 0.07775223 0.019224599 0.11106559 0.058645766
0.0017278806 -0.07197615 0.4595888 0.17038833 0.26893806 0.16651268 0.06289616 0.16870691
0.51424617 0.20047419 0.16451943 0.27293527 0.101129964 0.11081247 0.32574195 0.15795468
0.27832097 0.26445484 0.093045354 -0.073270306 -0.027990432 0.33260098 0.3063988 0.052134283
0.07738287 -0.22445956 -0.1107636 0.10608049 0.14327073 0.03247747 0.029162908 0.057625726
-0.023031913 0.041770976 0.16155846 0.0663709 0.09985567 -0.0024577158 0.17815883 0.13386561
0.13264205 0.16899806 0.08778535 -0.058913253 0.19546236 -0.0063340547 0.13790362 0.09135189
0.09779224 0.052959282 0.047260784 -0.06476126 0.0446148 0.13541499 0.16931815 0.023747269
0.14646581 0.13090636 0.03038008 0.12975855 0.07504123 -0.0048890603 0.11084299 -0.09114659
-0.013529295 0.15082404 -0.029291037 -0.08509526 0.016148262 0.016960358 -0.014150819 0.022760727

conv.4.bias f4 [64]
00000000: 29f5 50be a5b6 bcbd b143 a8be 7bc4 91be
00000010: 14f7 d8bd 060d 7bbe b3b5 b1bd 5db1 19be
00000020: e073 afbe e407 a3bc f049 09be 2115 66bd
00000030: c467 3dbd 13fb dbbe a61e d3be f7af abbe
00000040: 32a4 42be 8aaf 083e 2598 82bd c85d 56be
00000050: 2c6f abbe 8c3b 20be 17e5 ef3e 0bf6 65be
00000060: bcdd 8cbe c189 8bbe f5e4 a2be 0bae 61be
00000070: 7153 9bbe e60d bbbe 0634 bfbe 075b 2c3e
00000080: 8b13 96be 514f a93e 0090 37be feaf a4be
00000090: e75b a1be 3e70 853e fcc7 29be 8d14 53be
000000a0: 9d9f adbe 229d 0ebf 0d6d 51bd 86ac c9be
000000b0: 8891 95bd d276 c9ba 8ad0 893e 0c92 e1be
000000c0: e450 fcbd faf1 8ebe faa4 65be f41c 69be
000000d0: cb19 ffbb aeef 9ebd 26d4 8ebe 1e6f e3be
000000e0: 9d61 a3be 0481 8cbe 7e53 79be 5544 3c3e
000000f0: 9c62 c4be d010 86bc 732e 97be 2acc 29be
-0.20406021 -0.09214524 -0.32864144 -0.28470215 -0.105940014 -0.24516687 -0.086772345 -0.15009065
-0.34268093 -0.019901223 -0.13407111 -0.056172494 -0.046241537 -0.42964992 -0.4123432 -0.33532688
-0.19007948 0.13348213 -0.063766755 -0.20934212 -0.33483255 -0.15647715 0.4685447 -0.22457139
-0.2751292 -0.27253535 -0.31815305 -0.22039048 -0.30337098 -0.3653404 -0.37344378 0.16831599
-0.29311785 0.33068326 -0.17926025 -0.3216552 -0.31515428 0.26062196 -0.16580194 -0.20613308
-0.33910838 -0.55708516 -0.05112939 -0.39389437 -0.073031485 -0.0015370494 0.26916915 -0.44056737
-0.12320116 -0.27918988 -0.22426215 -0.22764951 -0.007785057 -0.07760559 -0.2789623 -0.44420713
-0.3191041 -0.2744218 -0.24348256 0.18385442 -0.38356483 -0.016365439 -0.29527625 -0.16581789

fc.1.weight f4 [64, 1600]
00000000: 3bfb b53b beab f8ba 67ab 89bc 759e 8f3c
00000010: 5664 d73a 1a45 c6bc e919 09bc 7243 1d3c
00000020: 5029 a23c eb63 30bb cb89 b3bc 9793 993c
00000030: cce3 11bb f2bc aebc eaab 7fbc b9d5 c8bc
00000040: d379 45bc 37b6 a5bb cd5b a0bc 2ef5 cabb
00000050: 9125 8abc 40a2 29bc 50f4 3b3a e13d 57bc
00000060: 2577 02bc 96d3 b2bb bc30 8e3c c64b 433c
00000070: 5fb1 893c ae5b 223c 9fe8 ae3c e156 39bc
00000080: c2cf a83c 0475 89bc 7efd 383c 464c dc3b
00000090: f593 8ebc 8fee be3b 0163 47bc 5b7f 263c
000000a0: ff4e b0bc d1d5 f3bb 5380 b73c 0503 bfbc
000000b0: ce4f 1c3c 1b53 59bc ee76 9d3b ca3e 0ebb
000000c0: 1246 e6bb f4dc 943c 0e10 a13c 04db 9a3c
000000d0: 6c25 65bc 6e54 d23c cfc8 443b 2006 8bbc
000000e0: b9ae c2bc 78a0 33bc 8f47 ea3c 3eb8 9dbc
000000f0: 5db8 3e3c b5d7 1ebc fc0a b63c c3b0 f3bb
00000100: 1ecd 96bc a5f0 2a3c baf8 83bc be88 07bc
00000110: 800f 8bbc ab1c b2bb ae01 f23a 622e a43c
00000120: 803f f2bb fa20 f73c 4ec0 b13c 4da8 ed3b
00000130: c14d 5f3c 12bb 4d3b 3fa8 04bb bdfd 773b
00000140: 654c 3abc 966f a33c 81dd 1bbc 6f98 aabb
00000150: 8e09 e8bb 60ed b1bc 3c55 21ba 3845 a4bc
00000160: 6156 043c 33ec 553b 5827 aebc 0f0b 373c
00000170: c790 b8bc 22f9 1b3c 956d 733b a8de 2c3c
00000180: b791 b2bc 0b2e 53ba 73cb eeba 625e db3b
00000190: 12db 213c ac84 c4bb 2dca 1ebc b579 c03b
000001a0: 60f1 87bb 5309 5dbc 82a9 5a3c d0c5 9d3b
000001b0: 8744 ae3c 61b5 b03b c9d7 e0bb 150c a83b
000001c0: 4cdc eebb a6e5 b23c 2beb a83c 137b a73c
000001d0: c97f ddbc 7a69 283b 0444 043c fd71 cfbc
000001e0: a808 eebb a70d ed38 8f5b 47bc c5f0 9a3b
000001f0: da52 9ebc 03b4 93bb 0ac1 5c3c 5eb9 e3bc
00000200: ba6b 08bd e77b cbbc eddb b13b d0ae 28bc
00000210: b133 cc3b 4362 9f3c 475e a3bc 0baf 423c
00000220: 3afc 92bc f66e 98bb 902e 82bc fe06 b2bb
00000230: e8ba 0a3c 9d8c 973c 66d0 af3c 07cd 933b
00000240: 85de 9b3b cd26 08bb 0dc7 c7bc d5af 86bc
00000250: 098d 7f3a 8c00 31bc 864b 06bd 0801 953b
00000260: 1cae 08bb 0872 77bc 1428 3cbc febd c1bc
00000270: ca5f 30bd 2cf0 90bc c1a8 27bd b578 1abd
00000280: ab86 b3bc 1c9d 1bbd b097 b9bc ebcd 8cbc
00000290: fe7e 973a b936 a7bc 8e4b 8e3b 694d debc
000002a0: 2f0b 02bd 494e 16bd 9890 38bc 5514 09bc
000002b0: a10c 0bbd 73c5 0cbd 938b 343b d13b 9f3c
000002c0: 80ce eb3b 8187 c8bb 9838 d4bc 7e3e 573c
000002d0: e2f5 b8bc 598d a3bc d05f 84bb bf01 00bd
000002e0: 705a fc3a c2f7 6b3c 37e2 803c 447f 043c
000002f0: b18f a6bc 1e18 8b3a eb72 9dbb 3229 ad3c
00000300: e26b e7bc a001 30bc 2769 cfbc d18a f03b
00000310: fb3b 793c 92b6 ea3b 9818 1a3b e76f a93b
00000320: 985b 073c ca59 3f3c acd4 abbc c6db 76bc
00000330: 8893 8dbc 69ec 61bb 646d 3f3c 711c e5bc
00000340: 37e5 353c 7062 afbb b114 c43c 64c7 6c3c
00000350: 0ac8 e1bb 7ca1 95bc a526 09bc 712b 443c
00000360: 89c5 5f3c 4bf1 4d3c 7385 863b 79bf 8d3c
00000370: b1a9 afbc 1259 5abc 0c3f 91bb e604 85bc
00000380: ef64 bdbc 3255 043a c678 1dbc c427 403c
00000390: 9d3b a83b c6a0 58bb 8a45 f139 873d 91bc
000003a0: fbc4 94ba 3273 57bc fd02 f2bb 4673 b03c
000003b0: 7894 5fbc 698e 863b 5d09 1dbc 7c25 883a
000003c0: 8cea 77bc 318f 28bb 55f3 84bb c507 51bc
000003d0: 6985 d33a ee69 46bc 03f8 c7b9 fd8e 013c
000003e0: f925 d1bb 347a 3c3c 325d cc3b 2875 053c
000003f0: 3fdf 0fbc 897a 253c f27e f639 3d9a 3cbc
0.0055536306 -0.0018972082 -0.016805364 0.017531613 0.0016433101 -0.024202872 -0.008367994 0.0095986
0.01979509 -0.0026915025 -0.02191629 0.018747134 -0.0022261022 -0.02133033 -0.015604952 -0.024515973
-0.012052971 -0.005057122 -0.019575024 -0.0061937785 -0.016863616 -0.010353625 0.0007169889 -0.013137312
-0.007962977 -0.005457352 0.017357223 0.011919921 0.01680821 0.009909553 0.021351157 -0.011312217
0.02060688 -0.01677943 0.011290906 0.0067229597 -0.017404536 0.0058267782 -0.0121696 0.0101622
-0.021522043 -0.0074412604 0.022400057 -0.02331687 0.009540511 -0.013264443 0.0048054373 -0.0021704906
-0.007027396 0.018171765 0.019660976 0.018903263 -0.013985973 0.025675025 0.0030026918 -0.016970694
-0.023764955 -0.010963552 0.028598575 -0.019252893 0.011640635 -0.009694983 0.022222035 -0.007436843
-0.018408354 0.010433351 -0.016109813 -0.008272348 -0.016975164 -0.0054355464 0.0018463635 0.020041648
-0.0073928237 0.030167092 0.021698143 0.007252729 0.013629378 0.003139202 -0.0020241884 0.0037840449
-0.011370753 0.01995067 -0.00951326 -0.00520616 -0.007081217 -0.021719635 -0.00061543635 -0.020052537
0.008077235 0.0032642006 -0.021258995 0.01117207 -0.022529973 0.009519847 0.0037144173 0.010551132
-0.021797998 -0.0008055872 -0.0018218592 0.006694601 0.009878891 -0.005997261 -0.009691757 0.0058738836
-0.004148647 -0.013490993 0.013346078 0.004814841 0.02127291 0.005392716 -0.006861661 0.0051283934
-0.007289445 0.02183802 0.02061995 0.020444429 -0.027038472 0.0025697635 0.008072857 -0.025322909
-0.0072642155 0.000113035836 -0.012167825 0.004728409 -0.019326616 -0.004507543 0.0134737585 -0.02779835
-0.03330586 -0.024839355 0.0054278285 -0.010295585 0.006231748 0.019456035 -0.019942416 0.011882554
-0.017942537 -0.0046518994 -0.015891343 -0.0054329624 0.0084674135 0.018499667 0.021461677 0.004510525
0.004756751 -0.002077508 -0.024386907 -0.016441265 0.0009748494 -0.010803353 -0.03278687 0.004547242
-0.002085573 -0.015102871 -0.011484165 -0.023650166 -0.0430601 -0.017692648 -0.04093242 -0.03771277
-0.0219148 -0.037991628 -0.022655338 -0.017188033 0.0011558232 -0.020411836 0.004342503 -0.027136521
-0.031748947 -0.036695752 -0.011264943 -0.008366664 -0.03394759 -0.03436799 0.0027549013 0.019437702
0.0071962476 -0.006119669 -0.025905892 0.013137458 -0.022578184 -0.01996486 -0.004039742 -0.031251665
0.0019253027 0.014402332 0.015732868 0.008086983 -0.02033219 0.0010612046 -0.004804959 0.021137808
-0.028249685 -0.010742575 -0.025318695 0.007340767 0.015212054 0.0071628774 0.0023513194 0.0051708105
0.008261584 0.011679122 -0.020975433 -0.0150670465 -0.017282262 -0.0034473187 0.011683796 -0.027967663
0.011102012 -0.005352311 0.023935648 0.014451835 -0.0068903016 -0.018265478 -0.00837103 0.011973248
0.013657936 0.012569736 0.004105264 0.017303215 -0.02144322 -0.0133269 -0.0044325646 -0.016237687
-0.023119418 0.00050480955 -0.009611314 0.011728231 0.0051340596 -0.0033054813 0.00046018913 -0.017729534
-0.0011350209 -0.013150023 -0.00738561 0.021539342 -0.013646238 0.004106332 -0.009584752 0.0010387148
-0.015131604 -0.0025720114 -0.0040573278 -0.0127582 0.0016137782 -0.012110217 -0.0003814102 0.007907626
-0.0063827005 0.011503745 0.0062366957 0.008145608 -0.008781253 0.010100015 0.00047015358 -0.011511383

fc.1.bias f4 [64]
00000000: c80c 4a3c 1943 1a3e 272c 0abd 0280 fa3b
00000010: db5f f93e dffa 7f3e 8578 2cbd 99f7 68bc
00000020: f25e 633c 4590 e23e c6a7 e53e 7bd1 8d3e
00000030: 1454 133d 2893 b53d 10da 1d3e cdfc 2c3f
00000040: 8ca6 14b9 0817 fb3b f067 39bd f7a5 debc
00000050: dac1 9e3a e4d5 2b3b 912e c6bc 7118 913e
00000060: 7d78 e03b f984 b5bc 2e3f eebc e0d6 323d
00000070: 8124 203e 9a72 0c3e 22d9 1c3b d85b e7bc
00000080: 97fe a63c cf73 033f d7ae 28bc 4d70 a13e
00000090: 1c28 8cbc cdd5 133f 690a 1b3d 81bc c53c
000000a0: 6435 efbc 5fd8 6a3e f408 53ba 4c1f 5b3e
000000b0: add3 6e3d a802 8bbb 3f9c 8d3d 95ae 003d
000000c0: 1968 adbc 5fc4 b63c 2b17 203d 60db 61ba
000000d0: 3eea a83e bb7b ae3e 00b6 0abb 9af5 113c
000000e0: 7343 95bc 2b67 26bd f518 4ebd 5cd2 cf3e
000000f0: b0ab b3bb 01b6 b8bc c579 583e 9ef4 823e
0.012332149 0.15064658 -0.033733513 0.0076446543 0.48705944 0.24998043 -0.042107124 -0.014219188
0.013877617 0.44250694 0.44854563 0.27698883 0.035968855 0.088659585 0.15415215 0.67573243
-0.00014176423 0.0076626576 -0.04526514 -0.027178748 0.0012112216 0.0026220018 -0.024192126 0.2833896
0.006850301 -0.022158133 -0.02908286 0.043661952 0.15638925 0.13715592 0.0023933132 -0.028242037
0.02038507 0.51348585 -0.010295591 0.3153099 -0.01710897 0.5774811 0.037851725 0.024137737
-0.029200263 0.22934102 -0.00080503454 0.21398658 0.05830734 -0.00424226 0.06914567 0.031416494
-0.021167802 0.022310434 0.039084595 -0.0008615758 0.32991213 0.34078774 -0.002116561 0.008908654
-0.018220639 -0.040625732 -0.05031677 0.4059018 -0.005483113 -0.022547724 0.21140201 0.25577253

fc.3.weight f4 [4, 64]
00000000: 9b01 843c 3c1d 413e d04c 3d3c 6212 9c3d
00000010: 16ec 87be ea78 0f3e db15 bc3d fc19 bebd
00000020: 69f0 b43d 86dd 093d e4c7 2d3c c26b 6cbf
00000030: 9900 083e 7b8a 1e3d d283 c6bf 733c d13e
00000040: 198f 3c3d 7a6f 6fbe fc9f cf3d 1e79 fe3c
00000050: ddf8 143e c1b5 943c 2eee 7bbd 2c45 24bf
00000060: 48da 3dbc 8405 0fbc 128f d5bd 6e12 78bd
00000070: 5635 ca3b 099d 923d 274a 883d eb3f 583c
00000080: 9790 c33d 0712 1ebf 05cc c7bd 72fa 9f3d
00000090: 204c 293d f137 31be 5af2 c3bd 5da9 a93d
000000a0: c20e 1f3d e22d 71bd ed25 2bbd e5b8 e13d
000000b0: bbf9 1cbe c018 b2be 29bc 703e fcdf 013e
000000c0: ef90 2b3d 5dc3 2f3e 8502 8d3e 8d80 35bd
000000d0: e81a 94bf 8c06 f2bc c8aa ddbc a402 4c3e
000000e0: 250a e4bc 9f88 7e3d a099 aabd 6dde 72bd
000000f0: 23a0 cd3c b8b7 84bd 9d68 0d3e bf2b ae3d
00000100: 2d25 2abc d16e 05bf 2175 da3d 3c1c a9bd
00000110: 9e9a 30bf fcf2 4b3e 0224 4fbd 25c9 903c
00000120: bdba 12bd aad8 663c a0f5 7dbf a20e 44bd
00000130: 2ea7 573e 0039 91bf 7840 6c3d bd06 ad3e
00000140: b26f 80bc 202f 05be d746 dc3c f8cc 603d
00000150: d7d7 a83d c0da 923d a3e5 f43d 356a f7ba
00000160: d85e 1f3d c85a aebd 7094 a93d 37c7 8dbc
00000170: 1db3 a9bf c122 41be 5bae d23d 34b8 bcbd
00000180: 01bf b43d 813b 473c 3401 ea3c 1151 35bd
00000190: f76a 54bd 207e c7bd 24b5 563e 6c54 cc3d
000001a0: f9d9 debd 93cb febc 72a3 fa3a 3de3 8f3d
000001b0: e93b 443e 2ded e4be 4d1b 2dbf 98b1 aabd
000001c0: 064a 6ebd 78c1 893e b011 6c3e 60c4 7fbd
000001d0: 6a8e 343d 0ef8 cdbd 12a3 a8bd e288 283b
000001e0: cb4a c4bc 7001 d6bb 0f53 58bd aa32 643d
000001f0: 111a 1f3d beda d63d 1eab 063e a751 3b3d
00000200: 81e1 c7bc f47d 89be ba50 823d 8823 9f3d
00000210: 4cb9 e3be ab68 d43e 4b88 a53d c773 353c
00000220: 6c7b e93d 4a0d 2ebf 2e61 883c 427c b03d
00000230: 9cac 893e cd05 9c3d 03a0 243d e69a 973e
00000240: 7e6a 673d d42f d2bd 50d3 af3d 3404 c83d
00000250: 8fcc 81bd d9f2 3b3c 2772 963d afb3 e33d
00000260: a6ed 863d be73 6b3c 4b2b d63c db28 1f40
00000270: f17a a1bb e9db fb3d 63f2 c73d 866e a9bd
00000280: 54be efbd f6b2 323c 8fd2 3d3d 68aa a8bf
00000290: 7680 72bd 0e52 cfbd 218e 433e a805 89bf
000002a0: f07e c43d 15c0 9abd 3002 223d 0013 fd3d
000002b0: a188 863d 63b1 833e fdfb 9a3e 61a3 1e3e
000002c0: 8f18 18bc c6be d2be 697f 4b3e 88f4 3f3d
000002d0: 838c 4ebd 8805 c9bd 481b b8bc 82db d03d
000002e0: a759 c1bd bff0 b83d 83b4 363d 40db a0bf
000002f0: 8e60 453d 44d3 473c 341c 253e f5f0 89be
00000300: bcb1 1dbc 2a52 1cbd 650c 21bd ea2c 5cbd
00000310: b74b 123d 6f8a ce3d cbe7 1cbd e268 9d3d
00000320: e615 a7bd 0759 0abe 412a fa3c 0f79 9ebd
00000330: 38a5 bbbb 2020 b83d af63 6e3d 82bd b23e
00000340: 4ab4 43bd fb3d 9abe fffc 7c3b 5acd e1bd
00000350: 3a93 18be 1cf3 75bd e1a5 90bd 2c0f d9be
00000360: 329d 143d 88b7 ecbc 0532 4fbd 6462 debc
00000370: dd82 bbbc ac20 543e 914d d9bd 9eeb ea3d
00000380: 1553 433e 2beb 64bb 41dc 3f3c 35ae f6bc
00000390: 2d74 99bd c4c6 29bf 5d18 a83c 41b2 ed3d
000003a0: 3066 7cbd 436d bbbf 3621 a33d 59ea eabf
000003b0: 2954 473e 5183 a33e 8fcf 733e ceb6 d3bd
000003c0: 8fda f53d 7e5b ab3e 9dc3 1abf 0b7b 9abc
000003d0: 9385 b23d f3d9 79bf a4df f43c 3d7b b3bd
000003e0: 0235 dcbd ee80 df3d ea63 a63b 39e6 da3c
000003f0: 7550 df3d 0467 1bbd f45c aabf 09b4 763d
0.016114047 0.18858808 0.011553958 0.07620694 -0.26547307 0.14010969 0.09183856 -0.092823
0.08834917 0.033658527 0.01060674 -0.92351925 0.13281478 0.038706284 -1.5508978 0.40866432
0.046034906 -0.23382369 0.101379365 0.031063613 0.14548059 0.018153073 -0.061506443 -0.6416805
-0.011587687 -0.008729342 -0.10427679 -0.06056445 0.006170909 0.07158858 0.066547684 0.013198833
0.09549063 -0.6174626 -0.097557105 0.078114405 0.041332364 -0.17306496 -0.09567709 0.082842566
0.038832434 -0.058881648 -0.041784216 0.11021594 -0.1532964 -0.34784508 0.23509277 0.126831
0.041886266 0.17164369 0.27540985 -0.04431205 -1.1570711 -0.029544137 -0.027058974 0.19922882
-0.027836869 0.06214201 -0.08330083 -0.059294153 0.025100773 -0.06480354 0.13809438 0.08504438
-0.01038484 -0.5212222 0.10666872 -0.082573384 -0.6898593 0.1991691 -0.05057145 0.017674038
-0.03582262 0.014089743 -0.9920292 -0.047865517 0.21059868 -1.134552 0.05767867 0.33794203
-0.01567826 -0.13006258 0.026889248 0.054882973 0.08244293 0.071706295 0.11957862 -0.0018876257
0.03890881 -0.08513409 0.08280265 -0.017306907 -1.3257786 -0.18860914 0.10287162 -0.092148215
0.088254936 0.012160183 0.028565027 -0.044266764 -0.051859822 -0.09740853 0.20967537 0.0997704
-0.10881419 -0.031102931 0.0019122197 0.07025764 0.19163479 -0.447122 -0.6761978 -0.083346546
-0.058176063 0.26905417 0.23053622 -0.062443137 0.04408113 -0.10057078 -0.08234228 0.0025716354
-0.023961445 -0.006530933 -0.052813586 0.05571238 0.03884322 0.104909405 0.13151214 0.045732167
-0.02439952 -0.26853907 0.063630536 0.07770449 -0.44477308 0.41486105 0.080826364 0.011074967
0.11400494 -0.6798903 0.016647901 0.0861745 0.26889503 0.07618294 0.04019166 0.29610366
0.056498043 -0.10263029 0.085852265 0.09766427 -0.063378446 0.011471474 0.073459916 0.11118256
0.065882966 0.014370857 0.02614369 2.4868686 -0.004927986 0.12297804 0.097630285 -0.08273034
-0.11706224 0.010906925 0.046343382 -1.3177004 -0.05920454 -0.101230726 0.19097187 -1.0704851
0.09594524 -0.07556168 0.039552867 0.123571396 0.06569029 0.25721273 0.30270377 0.15492012
-0.009283199 -0.41161174 0.19872822 0.046864063 -0.05042697 -0.09815508 -0.022473946 0.10198118
-0.09440928 0.09030294 0.044605743 -1.256691 0.048187785 0.012196366 0.1612404 -0.26941648
-0.009624895 -0.038164295 -0.03931846 -0.05375377 0.03571674 0.10084998 -0.038306993 0.076860204
-0.08158474 -0.13510524 0.030537726 -0.07737934 -0.0057264827 0.08990502 0.058200534 0.34910208
-0.04777936 -0.30125412 0.0038602946 -0.11025496 -0.14899912 -0.0600463 -0.07062889 -0.42394388
0.036282726 -0.028896108 -0.05058481 -0.027146526 -0.022889549 0.20715588 -0.10610498 0.11470722
0.19074662 -0.003493021 0.0117102275 -0.030112365 -0.07492862 -0.6631892 0.02051943 0.11606265
-0.06162089 -1.4642719 0.07965319 -1.8352767 0.19465698 0.31936124 0.23809646 -0.103376016
0.12004577 0.3346824 -0.6045473 -0.0188575 0.087168835 -0.9759819 0.029891796 -0.0876374
-0.10752298 0.10913263 0.0050778287 0.026721107 0.10904018 -0.03794004 -1.3309617 0.06023029

fc.3.bias f4 [4]
00000000: 6a59 f03e b8dd fb3e bf62 f83e 7531 f43e
0.46943218 0.49192595 0.48512837 0.47693983
