models/v17.1/model_146500.pt (torch, 729854 bytes, 10 tensors)

conv.0.weight f4 [16, 2, 3, 3]
0	0x3e507912	0.20358685
1	0x3c9d37c8	0.019191638
2	0xbda00a33	-0.07814445
3	0x3cce420d	0.02517798
4	0xbc9a453e	-0.018831845
5	0xbd97d28e	-0.07413207
6	0xbcd29b35	-0.025708774
7	0xbd505057	-0.050857868
8	0x3de9f323	0.11423328
9	0xbe4e57c3	-0.20150666
10	0x3d9db8e9	0.077012844
11	0x3d934240	0.071903706
12	0x3c6d5980	0.0144866705
13	0xbd531fb1	-0.051543895
14	0x3d8fab2f	0.070150726
15	0x3d5855d5	0.05281623
16	0x3dad8b01	0.084737785
17	0xbd5b8e8d	-0.053602744
18	0x3deef78a	0.11668308
19	0x3e8ac9eb	0.27107176
20	0xbd47868e	-0.048712306
21	0xbdbb2461	-0.09137798
22	0xbe73ebfd	-0.23820491
23	0x3e04adb5	0.12956889
24	0xbe33b99c	-0.17551273
25	0xbe82dc88	-0.25558877
26	0xbe0b8727	-0.13625775
27	0xbd4ad438	-0.049518794
28	0xbba97c83	-0.0051723137
29	0xbc2ba558	-0.010476433
30	0x3d99004a	0.07470758
31	0xbeb879ae	-0.36030334
32	0x3d2accda	0.041699268
33	0x3e5eacb8	0.21745574
34	0x3d9b66c0	0.075879574
35	0x3e25067c	0.16115755
36	0x3d840273	0.0644578
37	0x3ea724c0	0.32645226
38	0xbcaa2864	-0.020771213
39	0xbaf1ec71	-0.0018457306
40	0x3dce0f72	0.1006154
41	0x3e8cba71	0.27485994
42	0x3e2935e3	0.16524462
43	0x3eddf9d6	0.43354672
44	0x3d486919	0.048928354
45	0xbda47ac9	-0.08031232
46	0xbe9ce128	-0.3064053
47	0x3d06add8	0.032880634
48	0x3cc85fa2	0.024459664
49	0xbd54ed72	-0.051984258
50	0xbea08e73	-0.3135868
51	0xbe3250ad	-0.17413588
52	0xbede7351	-0.43447354
53	0xbd0089e7	-0.031381514
54	0x3c903b89	0.017606514
55	0xbc9d18a9	-0.019176798
56	0x3d85fdbb	0.06542536
57	0xbd1893c4	-0.037250295
58	0x3c9115cb	0.017710587
59	0xbfa18cd0	-1.2621098
60	0x3c095011	0.008380906
61	0xbd7360cf	-0.059418496
62	0x3c30050d	0.010743392
63	0xbcd40ce0	-0.025885046
64	0x3b279184	0.0025568912
65	0xbd99cfdc	-0.07510349
66	0x3d0e68c8	0.034767896
67	0xbcca4fb9	-0.024696218
68	0x3dc33eb2	0.095334426
69	0xba89e64d	-0.0010520905
70	0x3d59f185	0.053208847
71	0xbca95d43	-0.020674353
72	0x3cc100c0	0.023559928
73	0xbddb1f1f	-0.10699295
74	0xbe094e1a	-0.134087
75	0xbd8d323a	-0.068943456
76	0xbe09d187	-0.13458835
77	0x3f1b95b1	0.60775286
78	0x3c6da00a	0.014503488
79	0xbbc38cc4	-0.0059677083
80	0xbe02aec3	-0.12761979
81	0xbd1b125e	-0.037859313
82	0x3d804f38	0.0626511
83	0x3e0dfcdf	0.13865994
84	0x3d4bedf6	0.049787484
85	0x3e048475	0.12941153
86	0x3e973e29	0.29539612
87	0x3bbe26cd	0.0058029653
88	0xbaa73cc4	-0.0012759198
89	0x3de650a0	0.11245847
90	0x3d1680cc	0.036743924
91	0xbd6f5de4	-0.05843915
92	0x3eef8524	0.46781266
93	0xbd121fbd	-0.0356748
94	0xbf1638ea	-0.58680594
95	0xbd100ab0	-0.035166442
96	0x3cc3a791	0.023883613
97	0xbe11da12	-0.14243343
98	0xbdc2337a	-0.094824746
99	0xbd460979	-0.048348878
100	0x3ce7a7ec	0.028278314
101	0xbc19b905	-0.009382491
102	0x3d8c0cc7	0.068383746
103	0x3c6c52a7	0.014424003
104	0x3b115443	0.0022175468
105	0xbca32741	-0.019916179
106	0x3e1294a2	0.14314511
107	0x3dd0d9ec	0.10197815
108	0xbe908906	-0.2822954
109	0xbec0740a	-0.3758853
110	0xbd19e1aa	-0.037568726
111	0x3c7d2dd6	0.015452823
112	0x3d16a0a0	0.036774278
113	0xbf2d6a2d	-0.67740136
114	0xbec62c8c	-0.38705862
115	0xbf019dba	-0.50631297
116	0xbda8845c	-0.082283705
117	0x3e84862c	0.25883615
118	0x3e990ec5	0.2989408
119	0xbbaed8a1	-0.005335883
120	0x3a0ffc9c	0.0005492659
121	0x3c9ab476	0.018884879
122	0x3ee29565	0.44254604
123	0x3e28085e	0.16409442
124	0x3e72a211	0.23694636
125	0x3d1aeb32	0.037821956
126	0xbf010764	-0.504019
127	0xbf036a00	-0.5133362
128	0x3d513e16	0.0510846
129	0xbdf85c92	-0.121270314
130	0x3dcaff4e	0.09911977
131	0x3e0310f3	0.12799434
132	0xbf7d25dd	-0.988859
133	0xbdb16a47	-0.08662849
134	0xbd60b82e	-0.054863147
135	0x3e5a5434	0.21321183
136	0x3e90bc5a	0.282687
137	0xbd70aa0f	-0.05875593
138	0x3cab7264	0.02092857
139	0xbd2fab5f	-0.04288804
140	0x3db96216	0.090519115
141	0x3e804d0c	0.25058782
142	0x3da26e68	0.079312146
143	0x3d276725	0.04086985
144	0x3d945bc7	0.07244068
145	0x3d8c6581	0.06855298
146	0x3a9b911b	0.0011868806
147	0x3d8c4bb0	0.06850374
148	0x3e6af48c	0.2294485
149	0xbc41ba20	-0.011824161
150	0xbe84e8bb	-0.2595881
151	0xbee881f6	-0.45411652
152	0xbedf8938	-0.43659377
153	0xbd961421	-0.07328058
154	0x3ddf3a9d	0.108998515
155	0x3c842a64	0.016133495
156	0x3d2ac424	0.04169096
157	0x3d86316d	0.06552396
158	0x3df44e19	0.119289584
159	0xbdefe206	-0.117130324
160	0x3e3ee686	0.18642625
161	0xbc319f9c	-0.0108412765
162	0xba32866c	-0.00068101916
163	0xbd39e4ef	-0.045384344
164	0x3cd7eb95	0.026357451
165	0x3c5a7f0f	0.013335957
166	0xbd957467	-0.072975926
167	0x3f061a96	0.52384317
168	0xbb953357	-0.0045532393
169	0xbe226d9f	-0.1586213
170	0xbd9f83a7	-0.077887826
171	0x3b8c98f9	0.0042906967
172	0x3d74daac	0.059778854
173	0xbd05b837	-0.032646384
174	0xbd27bff5	-0.04095455
175	0x3d5caf45	0.053878088
176	0xbf09e52a	-0.538653
177	0x3ca7353e	0.02041113
178	0x3e06cace	0.13163301
179	0x3da6a597	0.081370525
180	0x3cc402ba	0.023927081
181	0xbc3b14a4	-0.011418495
182	0xba482c1f	-0.0007635969
183	0xbd9d0a58	-0.076679885
184	0x3f0fa9e1	0.5611859
185	0xbdb92912	-0.09041037
186	0x3c08f237	0.00835853
187	0xbd7cd364	-0.061725035
188	0x3d54b93f	0.051934477
189	0xbc7b5ca0	-0.015341908
190	0x3ccc90e0	0.024971426
191	0xbbd25ede	-0.0064200005
192	0x3da462b3	0.08026638
193	0x3ec1390e	0.37738842
194	0x3da3fcd9	0.08007211
195	0x3ba63eb2	0.005073392
196	0x3d5a1c26	0.0532495
197	0xbd6075ac	-0.05479972
198	0xbcbb3594	-0.022852696
199	0x3d635a55	0.05550607
200	0xbd8ba8fb	-0.0681934
201	0x3cd3a935	0.02583752
202	0x3f5285c4	0.8223536
203	0x3ca967e6	0.020679425
204	0xbdaca811	-0.084304936
205	0x3d0eb8cc	0.034844205
206	0xbdc3da73	-0.0956315
207	0x3c10a5d7	0.008828602
208	0xbd841e65	-0.0645111
209	0x3d590aa8	0.05298868
210	0xbca5618b	-0.020188114
211	0xbd9a1f85	-0.07525543
212	0xbd3be96e	-0.045876913
213	0x3dad9ae2	0.08476807
214	0xbd4c1705	-0.04982664
215	0x3d9dbf68	0.077025235
216	0xbdb570bb	-0.08859392
217	0xbe377afb	-0.17918007
218	0xbdb3ec17	-0.08785265
219	0xbdbd8164	-0.09253195
220	0xc015505f	-2.3330305
221	0x3cec880a	0.028873462
222	0xbdd240d5	-0.10266272
223	0xbe0564d9	-0.13026752
224	0xbe0feb5a	-0.14054623
225	0x3de9f7c1	0.114242084
226	0x3ded70dd	0.115937926
227	0x3db7730e	0.08957492
228	0x3d667603	0.05626489
229	0x3eee615d	0.46558657
230	0xbdae71f2	-0.08517827
231	0x3e0de970	0.1385858
232	0x3d88863e	0.0666623
233	0x3e337ab9	0.17527284
234	0xbd34f20a	-0.04417614
235	0xbd1a5cf4	-0.037686303
236	0xbd6b34e8	-0.057423502
237	0xbd98ce5d	-0.07461236
238	0xbebb1dd6	-0.365462
239	0xbf5ce23d	-0.8628271
240	0x3e4c66be	0.19961068
241	0xbdee27ec	-0.11628708
242	0xbdb8d311	-0.09024633
243	0x3c961772	0.018321726
244	0x3dc9a5b7	0.09846061
245	0x3cd1c6f7	0.02560757
246	0xbd00c502	-0.03143788
247	0x3da74d72	0.081690684
248	0x3f076edf	0.5290355
249	0x3e007ebe	0.12548348
250	0x3e0b18f7	0.13583742
251	0x3d8a2948	0.06746155
252	0xbf09cdec	-0.53829837
253	0xbf1092b0	-0.5647383
254	0xbf752b1b	-0.957689
255	0xbdd719ea	-0.105029896

conv.0.bias f4 [16]
0	0xbd816b37	-0.06319278
1	0xbe89067c	-0.2676276
2	0xbdf6f91d	-0.12059233
3	0x3f10ae91	0.5651637
4	0xbf1325a7	-0.5747933
5	0xbe87fac2	-0.265585
6	0x3cb18132	0.02166805
7	0xbe37cefa	-0.17950049
8	0xbec55143	-0.3853856
9	0xbd56b958	-0.05242285
10	0xbf2a0cff	-0.6642608
11	0xbed60769	-0.41802529
12	0x3e9d84fb	0.3076552
13	0xbe67238e	-0.22572157
14	0xbc46f949	-0.012144395
15	0xbe4347de	-0.19070384

conv.2.weight f4 [32, 16, 3, 3]
0	0xbd88e0be	-0.06683491
1	0x3c6bae31	0.014384792
2	0xbd1d594d	-0.038415242
3	0xbc88f548	-0.016718522
4	0xbd8fb486	-0.07016854
5	0xbca7b6a7	-0.020472838
6	0x3da8049d	0.08204005
7	0xbced3240	-0.028954625
8	0xbdc61fd3	-0.09674039
9	0x3d8e7e07	0.069576316
10	0x3dd1d445	0.10245565
11	0x3dad9264	0.084751874
12	0x3e105778	0.14095867
13	0x3ddea25a	0.1087081
14	0x3cfc927e	0.030831572
15	0x3d4840ac	0.0488898
16	0xbd20ee14	-0.03928955
17	0xbd2e166d	-0.042501856
18	0x3e33baf1	0.17551781
19	0xbcef08a0	-0.029178917
20	0xbd434794	-0.047675684
21	0xbd032eff	-0.03202724
22	0xbbc5c640	-0.006035596
23	0xbe677426	-0.22602901
24	0xbdfa4e6b	-0.12221988
25	0xbe792f67	-0.24334489
26	0xbe41f9a4	-0.18942887
27	0x3c5c69f9	0.013453
28	0xbd1cd105	-0.038285274
29	0xbe09b458	-0.13447702
30	0x3be98480	0.007126391
31	0xbd8fc946	-0.07020812
32	0xbd9d0278	-0.076664865
33	0x3d47723e	0.048692934
34	0xbdf23076	-0.118256494
35	0xbeb3c1a0	-0.35108662
36	0x3d938c5c	0.07204506
37	0x3de7f637	0.11326259
38	0xbe91086d	-0.2832674
39	0xbe12c770	-0.14333892
40	0xbe25958e	-0.16170332
41	0xbeab41a6	-0.33448523
42	0x3deb7eaa	0.11498769
43	0xbdf793b7	-0.12088721
44	0xbe378672	-0.1792238
45	0x3d2d456f	0.042302545
46	0x3cd97025	0.026542732
47	0xbdb5c84a	-0.08876093
48	0x3e255ed6	0.16149458
49	0x3db730e9	0.08944876
50	0xbe83e577	-0.25761005
51	0x3da33844	0.07969716
52	0x3d8fb36c	0.07016644
53	0xbe02cef1	-0.12774254
54	0x3d354b0f	0.044261035
55	0x3e3a6d1b	0.18205683
56	0x3c5e5f87	0.01357258
57	0x3e1ef69a	0.15523759
58	0x3d3f6580	0.046727657
59	0xbd34a7d1	-0.044105355
60	0x3d8ab1aa	0.06772168
61	0x3cabf653	0.02099148
62	0xbe34ed86	-0.17668733
63	0xbe459fb9	-0.1929921
64	0xbd185394	-0.03718908
65	0x3c9804d8	0.018556997
66	0xbd890e86	-0.06692223
67	0xbc8c6d58	-0.017141983
68	0xbd2ae173	-0.04171891
69	0xbda103ec	-0.07862076
70	0xbda5ddc9	-0.08098943
71	0xbe072b52	-0.13200119
72	0x3db6d660	0.089276075
73	0x3d891ea7	0.066952996
74	0x3d13d3f5	0.03609081
75	0xbd91b0fa	-0.07113834
76	0x3e17ff76	0.14843544
77	0xbe046064	-0.12927395
78	0x3dca2dfd	0.09872053
79	0xbd42f8b4	-0.047600463
80	0xbe1e7435	-0.15474017
81	0x3dc4cc7a	0.09609313
82	0xbe715b16	-0.23569903
83	0x3d2fe31f	0.04294121
84	0x3dde2ce7	0.10848408
85	0xbe1d595f	-0.15366124
86	0xbd215ad5	-0.039393265
87	0xbe2d463e	-0.16921327
88	0xbe6a0088	-0.22851765
89	0x3c989584	0.018625982
90	0x3d4a68d1	0.049416367
91	0xbaa3ddf4	-0.001250206
92	0xbe029773	-0.12753086
93	0xbce5a958	-0.028034851
94	0x39def3a9	0.0004252468
95	0xbe173a83	-0.14768414
96	0xbd9bc30d	-0.07605562
97	0xbcfd3ba7	-0.030912234
98	0xbd92ceea	-0.07168372
99	0x3c12bda1	0.008956344
100	0xbc03df29	-0.008048811
101	0xbd9733d5	-0.07382933
102	0xbe16e14d	-0.14734383
103	0xbe52eeca	-0.20598903
104	0xbe11ddb4	-0.1424473
105	0xbe000de5	-0.125053
106	0xbe0de323	-0.13856177
107	0x3bc41347	0.0059837434
108	0x3c534f9f	0.012897401
109	0x3d2e75bc	0.04259275
110	0x3cf1069b	0.029422095
111	0xbe09cb4e	-0.13456461
112	0xbc111ed5	-0.008857449
113	0x3ccbff27	0.02490194
114	0xbe09cf09	-0.13457884
115	0xbe1988ef	-0.14993642
116	0xbce6e373	-0.028184628
117	0xbbb6775d	-0.0055684284
118	0x3c5e241d	0.013558415
119	0x3d52216e	0.051301412
120	0x3d85d4cf	0.06534731
121	0x3c9913ce	0.018686201
122	0xbcb40fd1	-0.021980198
123	0xbd151f80	-0.036406994
124	0xbd2ec430	-0.042667568
125	0x3caa8d0b	0.020819208
126	0x3ca5e8db	0.020252636
127	0xbadfd6fa	-0.0017077618
128	0xbbe95861	-0.0071211313
129	0xbd025c92	-0.031826563
130	0xbe343f60	-0.176023
131	0xbdc200cc	-0.09472808
132	0xbd1b43ab	-0.03790633
133	0xbd2c877d	-0.0421214
134	0x3db2736b	0.087134205
135	0xbe066e0b	-0.13127916
136	0xbc5ada81	-0.013357759
137	0xbdb53e38	-0.08849758
138	0xbdd0d068	-0.10196
139	0x3dda4005	0.10656742
140	0x3c24f4b6	0.010068109
141	0xbdb50ecf	-0.08840715
142	0xbe1a8517	-0.15089832
143	0xbd8f8178	-0.07007116
144	0x3e59b264	0.21259457
145	0xbddda7a3	-0.1082299
146	0x3e2c393d	0.1681871
147	0x3da229cb	0.079181276
148	0x3dcc38b2	0.09971751
149	0xbd67a922	-0.056557782
150	0xbcdc508a	-0.026893873
151	0x3d54e9eb	0.051980894
152	0xbdacf0a0	-0.08444333
153	0x3e05456c	0.13014764
154	0x3cf20e86	0.029547941
155	0x3e8c29b6	0.27375573
156	0xbe3878d2	-0.1801484
157	0x3e1e9b34	0.15488893
158	0x3cff5ff3	0.031173682
159	0x3e53c983	0.2068234
160	0xbc58decf	-0.013236715
161	0x3d39c967	0.045358088
162	0xbdbebd5b	-0.093134604
163	0x3e85256e	0.2600512
164	0x3e4eadc3	0.20183472
165	0x3e91637a	0.28396207
166	0xbe8f2e74	-0.27965128
167	0xbe42bd8a	-0.19017616
168	0x3e8d87f4	0.27642787
169	0xbba88e01	-0.0051438813
170	0x3dc5a283	0.09650137
171	0xc010a8e7	-2.260309
172	0x3ddb034e	0.1069399
173	0xbdc8bcc0	-0.09801626
174	0xbca510f0	-0.020149678
175	0xbcaf9632	-0.021433923
176	0x3c713a98	0.0147234425
177	0xbc95128a	-0.018197317
178	0xbd720bb7	-0.059093203
179	0xbc9f6454	-0.01945702
180	0xbf84c1a9	-1.03716
181	0x3ec2b633	0.38029632
182	0xbabe461f	-0.0014516747
183	0xbca0e785	-0.019641647
184	0x3d97b94b	0.07408389
185	0x3dc8077d	0.09767053
186	0x3cfd8d8b	0.030951282
187	0xbd2ab583	-0.04167701
188	0xbd0097cb	-0.03139476
189	0xbe42f299	-0.19037856
190	0xbf3e2946	-0.7428173
191	0xbda64d6d	-0.081202365
192	0xbeb0246d	-0.3440279
193	0xbd13055d	-0.035893787
194	0xbe4219b6	-0.1895512
195	0xbdef7393	-0.11691966
196	0xbd2e97e8	-0.042625338
197	0x3d2cd010	0.04219061
198	0x3df76809	0.1208039
199	0xbd0473db	-0.03233705
200	0xbda35bfe	-0.079765305
201	0x3da1d2b6	0.07901518
202	0xbdc4436b	-0.095831715
203	0xbde23b57	-0.110464744
204	0x3e00b14d	0.12567635
205	0x3c347e9d	0.011016515
206	0x3ce77f84	0.028259046
207	0x3d8fd120	0.07022309
208	0xbdb88e94	-0.090115696
209	0xbe171062	-0.14752343
210	0x3db614b4	0.088906676
211	0xbdbd909b	-0.09256097
212	0xbe1c1936	-0.15243992
213	0x3e8c4bd1	0.27401593
214	0xbc65fa73	-0.0140367625
215	0x3dd409c7	0.103534274
216	0x3e39676a	0.18105856
217	0xbe2bfc61	-0.16795494
218	0x3e47a8c0	0.19497967
219	0x3cc0c9a2	0.023533646
220	0x3e9f9360	0.31167126
221	0x3c8ee8e2	0.017445032
222	0x3e44e909	0.19229521
223	0x3e0ca226	0.1373373
224	0xbe194d8b	-0.14970987
225	0x3dc2c35a	0.095099166
226	0xbef0bed4	-0.4702059
227	0xbdccd2ea	-0.10001166
228	0x3dcb1926	0.09916906
229	0xbbea3f34	-0.0071486477
230	0xbe5c3cb3	-0.2150753
231	0x3ef55a14	0.47920287
232	0x3b8faee9	0.0043848646
233	0xbdfdca14	-0.12392059
234	0xbd804e03	-0.062648796
235	0xbee236a9	-0.44182327
236	0x3ede2a92	0.43391854
237	0x3d69024b	0.056886952
238	0xbe44417d	-0.19165607
239	0xbb2e3548	-0.002658205
240	0xbc8c5500	-0.017130375
241	0xbd311015	-0.043228228
242	0xba7a78c3	-0.0009554738
243	0x3e10439f	0.14088295
244	0xbf1cb9f7	-0.6122126
245	0x3e414db9	0.18877305
246	0x3dd9a40b	0.10626992
247	0xbdcaca10	-0.099018216
248	0xbd76e298	-0.06027469
249	0xbd239b73	-0.03994317
250	0x3c829195	0.01593856
251	0x3c82aa09	0.01595022
252	0x3d9f7ca4	0.07787445
253	0xbf94b191	-1.1616689
254	0xbf2d7aa2	-0.6776525
255	0x3e6b2b1f	0.22965668

conv.2.bias f4 [32]
0	0x3c8e5642	0.017375115
1	0x3d49bdc9	0.04925326
2	0xbd85a09f	-0.06524777
3	0x3d9cb52f	0.076517455
4	0x3cfed871	0.031109067
5	0xbd1780e1	-0.036988143
6	0x3e5d98f5	0.2164038
7	0xbd93de42	-0.07220127
8	0xbe666883	-0.22500806
9	0xbea19b09	-0.31563595
10	0x3e0fb7c2	0.14034942
11	0x3e89b80e	0.26898235
12	0xbdc1055c	-0.0942485
13	0x3d1ee923	0.038796555
14	0x3dcb0552	0.09913124
15	0xbe087d34	-0.13329011
16	0x3ca19699	0.01972513
17	0x3b8843a4	0.004158454
18	0x3e59e28f	0.21277831
19	0xbdea2066	-0.11431961
20	0x3ddb8af3	0.10719862
21	0xbd434f49	-0.047683034
22	0xbc33015f	-0.01092562
23	0xbdaca5ff	-0.08430099
24	0xbe07ba02	-0.1325455
25	0x3ea2fb88	0.31832528
26	0x3de2b41c	0.110695094
27	0xbe027360	-0.12739325
28	0xbd0f2cf6	-0.034954987
29	0x3ce3b150	0.02779451
30	0xbdcc3a54	-0.09972063
31	0x3e00a7c9	0.12564005

conv.4.weight f4 [64, 32, 6, 6]
0	0xbc49014d	-0.012268377
1	0xbd6dd111	-0.05806071
2	0x3d88f9d0	0.06688273
3	0xbc7bfd03	-0.015380147
4	0x3d3ec74b	0.04657678
5	0xbc7fdc04	-0.015616421
6	0xbd056288	-0.03256467
7	0x3d25867f	0.04041147
8	0x3cef2f28	0.02919729
9	0x3cb36553	0.021898901
10	0xbc887033	-0.016655063
11	0x3d1ff4c8	0.0390518
12	0xbb5cb595	-0.0033677567
13	0x3cc5c9ca	0.024144072
14	0xbcd16767	-0.025562001
15	0xbd3488ae	-0.04407566
16	0xbbe26eab	-0.0069101653
17	0x3cec0b95	0.028814116
18	0x3c433f9c	0.011917021
19	0x3d96d9aa	0.07365735
20	0xba9f5931	-0.0012157318
21	0xbd55f174	-0.05223222
22	0xbd4435ef	-0.047902998
23	0x3da34310	0.079717755
24	0x3cca4848	0.02469267
25	0xbbdfb056	-0.006826441
26	0xbd801f2b	-0.06255945
27	0x3cd61268	0.026131824
28	0xbaf19e09	-0.0018433939
29	0xbb1871cd	-0.002326119
30	0x3bd8c307	0.006615046
31	0xbc893573	-0.01674912
32	0xbd1777d8	-0.036979526
33	0x3a6a1df9	0.0008930858
34	0xbd2726ce	-0.04080849
35	0xbbb38578	-0.005478557
36	0xbcaf4e3b	-0.021399608
37	0xbcc6c5e8	-0.02426429
38	0x3e890619	0.26762465
39	0xbdf33fb5	-0.118773855
40	0xbee2b328	-0.4427731
41	0xbe155d5c	-0.14586395
42	0x3d1a477a	0.03766582
43	0x3e032f12	0.12810925
44	0x3d9242ab	0.07141622
45	0xbe8425c7	-0.25810072
46	0xbe5e23f5	-0.21693404
47	0x3eb7ed72	0.35923344
48	0xbf10afdf	-0.5651836
49	0x3e01d4eb	0.12678878
50	0xbd3ad9a7	-0.045617726
51	0x3d94df1e	0.07269119
52	0x3e42787d	0.18991275
53	0x3e7648f2	0.24051264
54	0x3db17beb	0.086662136
55	0xbdfc24f4	-0.12311736
56	0x3ce788db	0.0282635
57	0xbda628af	-0.081132285
58	0x3b94b76b	0.0045384667
59	0x3e3017b4	0.17196542
60	0x3d978569	0.07398493
61	0x3d0eb8cf	0.034844216
62	0x3d8bc492	0.06824602
63	0x3d9718f5	0.07377807
64	0xbce97d5d	-0.02850216
65	0x3e073d48	0.1320697
66	0xbe98e8c9	-0.298651
67	0x3e6407a9	0.22268547
68	0x3e9c9d63	0.30588827
69	0x3e167520	0.14693117
70	0x3e5e4676	0.21706566
71	0xbf283fd6	-0.65722406
72	0xbc28b531	-0.010297106
73	0xbd21044b	-0.039310735
74	0xbcbbabd5	-0.022909084
75	0xbd4675e8	-0.048452288
76	0x3c2bcdda	0.010486091
77	0xbccbc66e	-0.024874892
78	0xbc091c39	-0.008368545
79	0x3ba1a145	0.004932555
80	0xbadc028f	-0.001678543
81	0x3c74520e	0.0149121415
82	0x3cb5d546	0.022196423
83	0x3c2adcb8	0.0104286
84	0x3c273495	0.010205408
85	0xbc11e3a5	-0.008904372
86	0xbce4e35d	-0.027940447
87	0x3cc4cf8a	0.024024744
88	0x3c6d76d2	0.014493661
89	0xbc2b0679	-0.010438555
90	0xbcb37dbf	-0.021910546
91	0x3cc9d486	0.024637472
92	0xbcab69a3	-0.020924395
93	0x3c829717	0.015941186
94	0xbd1d6e9b	-0.03843556
95	0xbc17d750	-0.009267643
96	0xbb098326	-0.0020982712
97	0x3d198fb0	0.037490547
98	0x3b158dd2	0.0022820127
99	0x3cb79e95	0.022414485
100	0xbc1f3d52	-0.00971921
101	0x3cf9b67b	0.030482521
102	0x3ce413f7	0.027841551
103	0x3d07449e	0.033024423
104	0x3d2da9c2	0.04239822
105	0x3c32567e	0.010884879
106	0xbb94b141	-0.004537732
107	0x3b708154	0.003669818
108	0xbd8b8412	-0.068123
109	0x3e6bbf7e	0.23022267
110	0xbcbcdff8	-0.023056015
111	0xbe9e48d6	-0.30914944
112	0xbf040f39	-0.5158573
113	0x3e6fa51d	0.2340283
114	0xbb91154b	-0.004427587
115	0x3e99a278	0.30006766
116	0x3df571fd	0.11984632
117	0xbcd73356	-0.026269596
118	0x3ecebef6	0.40380067
119	0xbecb7f9e	-0.39745802
120	0x3eb8babc	0.36079967
121	0x3e890442	0.2676106
122	0x3e671b15	0.22568925
123	0x3e09a6cf	0.13442539
124	0x3e5e6853	0.21719484
125	0x3ea9b337	0.33144543
126	0x3e82c983	0.25544366
127	0x3e8a6be7	0.27035448
128	0x3e7aaf3c	0.24480909
129	0xbc7ef41f	-0.015561133
130	0x3ea0d75a	0.314143
131	0x3ea7e2a2	0.32790095
132	0x3ce58cea	0.028021295
133	0x3ec0132e	0.37514633
134	0x3eba55dd	0.36393633
135	0x3e7bf520	0.24605227
136	0x3ec74ad8	0.3892429
137	0xbf01b67d	-0.5066908
138	0x3c05e41f	0.008172064
139	0xbee0c670	-0.43901396
140	0xbf112ce7	-0.5670914
141	0xbe5f9c35	-0.21836932
142	0x3e4d0ebd	0.20025153
143	0xbeb97c0c	-0.36227453
144	0x3cac5ac8	0.021039382
145	0x3ba96725	0.0051697665
146	0xbe1c3f92	-0.15258625
147	0x3da142b8	0.07874054
148	0x3e83f95d	0.25776187
149	0xbdcaeb74	-0.0990819
150	0x3eb3d92a	0.3512662
151	0x3eadf833	0.33978423
152	0xbecd6747	-0.40117857
153	0xbed535ca	-0.416426
154	0xbf0ed3ef	-0.55792135
155	0xbdedd2dc	-0.11612484
156	0xbe8d9a5a	-0.27656823
157	0x3e05db25	0.13071878
158	0xbec6153c	-0.38688076
159	0xbd95fac5	-0.07323221
160	0x3df42b4c	0.11922321
161	0xbecf55a7	-0.40495035
162	0x3e80b602	0.2513886
163	0xbe1c755b	-0.15279143
164	0xbea65738	-0.32488418
165	0xbe5d2c8d	-0.21599026
166	0xbea04b95	-0.31307665
167	0x3d398322	0.045291074
168	0x3eab39af	0.33442447
169	0xbc8608a6	-0.016361546
170	0xbc9c89fc	-0.019108765
171	0xbcde5148	-0.027138367
172	0x3d472a41	0.04862428
173	0x3e3ead4e	0.18620798
174	0xbc361875	-0.011114229
175	0x3e171d45	0.14757259
176	0x3d001554	0.03127034
177	0xbd96b452	-0.07358612
178	0xbcb601e2	-0.022217695
179	0xbf24ac63	-0.6432554
180	0x3da93e81	0.08263875
181	0x3d2a8c88	0.041637927
182	0x3e0ee3fd	0.13954158
183	0x3dbefe49	0.09325845
184	0x3b7d4482	0.003864557
185	0xbd3f8602	-0.04675866
186	0x3ee8e61b	0.45488057
187	0x3e0052fb	0.12531655
188	0x3e7bedd1	0.24602439
189	0x3e305496	0.17219767
190	0x3d11ad25	0.035565514
191	0x3db75f80	0.08953762
192	0x3f01057b	0.5039899
193	0x3e3bec48	0.18351853
194	0x3e421c4d	0.18956108
195	0x3e999f14	0.3000418
196	0x3df878ad	0.12132392
197	0x3d9e6281	0.07733632
198	0x3ebf2ed6	0.3734042
199	0x3e328444	0.17433268
200	0x3e870902	0.2637406
201	0x3e7e45de	0.2483134
202	0x3dd71383	0.105017684
203	0xbd85f520	-0.065408945
204	0xbc431650	-0.011907175
205	0x3ea54c31	0.32284692
206	0x3e9c6cb3	0.3055168
207	0x3d472436	0.048618518
208	0x3d82d860	0.063889265
209	0xbe83e2ea	-0.2575906
210	0xbe0fc74e	-0.14040872
211	0x3dca71d2	0.09884991
212	0x3e2a02da	0.1660265
213	0x3db0d38f	0.086341016
214	0x3d86cbfc	0.06581876
215	0x3d8e5db1	0.06951464
216	0xbc21665f	-0.009851067
217	0x3d70c713	0.058783602
218	0x3e3d638a	0.18495002
219	0x3da38e6f	0.079861514
220	0x3deb2399	0.11481399
221	0x3c90e31a	0.017686415
222	0x3e3aa9f4	0.18228894
223	0x3e125c6a	0.14293066
224	0x3e0bd627	0.13655911
225	0x3e28035c	0.16407531
226	0x3dc534fd	0.09629247
227	0x3c165bef	0.009177192
228	0x3e5200f0	0.2050817
229	0xbca16cdd	-0.01970523
230	0x3e0916ba	0.13387576
231	0x3dab1226	0.08353071
232	0x3dbaf849	0.09129388
233	0x3d8a285b	0.067459784
234	0x3d384c9c	0.044994935
235	0xbd667a93	-0.05626924
236	0x3d39a119	0.04531965
237	0x3df4f675	0.119610704
238	0x3e213488	0.15742695
239	0x3d1958c7	0.03743818
240	0x3e1ddde4	0.15416676
241	0x3e0a21f1	0.1348951
242	0x3d356c03	0.04429246
243	0x3e0a5e72	0.1351259
244	0x3d84d636	0.0648617
245	0xbb4d827e	-0.0031358297
246	0x3d9c2875	0.07624904
247	0xbdc2448a	-0.09485729
248	0xbae25d6a	-0.0017270271
249	0x3e21d373	0.15803318
250	0xbd0d3612	-0.034475394
251	0xbdd4d862	-0.10392834
252	0x3c84495c	0.016148262
253	0x3c8af073	0.016960358
254	0xbc67d8d6	-0.014150819
255	0x3cba74b4	0.022760727

conv.4.bias f4 [64]
0	0xbe51729b	-0.20453875
1	0xbd9be164	-0.07611349
2	0xbea588db	-0.32330975
3	0xbe85a794	-0.26104414
4	0xbdd367ab	-0.103225075
5	0xbe5bc74c	-0.21462744
6	0xbda68c8d	-0.08132277
7	0xbe1d9261	-0.1538787
8	0xbea14c26	-0.3150341
9	0xbd3210c1	-0.04347301
10	0xbe0b6800	-0.13613892
11	0xbd59a5f9	-0.0531368
12	0xbd3d67c4	-0.046241537
13	0xbed9a1da	-0.42506295
14	0xbecca95b	-0.39972958
15	0xbea881b5	-0.3291146
16	0xbe3e6767	-0.18594132
17	0x3e0d3880	0.13791084
18	0xbd829825	-0.063766755
19	0xbe56081b	-0.2090153
20	0xbeaa5f21	-0.33275703
21	0xbe25f877	-0.16208063
22	0x3eebfb17	0.46090004
23	0xbe5edb0a	-0.21763244
24	0xbe8a084d	-0.26959458
25	0xbe8eb897	-0.27875206
26	0xbeaa758b	-0.33292803
27	0xbe5bd59c	-0.21468204
28	0xbe8df208	-0.27723718
29	0xbeb2ec46	-0.34945887
30	0xbeb09277	-0.34486744
31	0x3e240586	0.16017732
32	0xbe974106	-0.29541796
33	0x3ea8c205	0.32960525
34	0xbe009d00	-0.12559891
35	0xbe9efeee	-0.3105387
36	0xbe95fea1	-0.2929583
37	0x3e85f8a3	0.26166257
38	0xbe25439d	-0.16139074
39	0xbe4b9b33	-0.19883423
40	0xbea8f95b	-0.33002743
41	0xbf0bdb07	-0.54631084
42	0xbd516d0d	-0.05112939
43	0xbebb43fc	-0.36575305
44	0xbd959188	-0.073031485
45	0x3a3ae76e	0.00071298226
46	0x3e88c79e	0.26714796
47	0xbedbc87e	-0.429264
48	0xbdda6ed3	-0.10665669
49	0xbe87dda7	-0.26536295
50	0xbe6b47e6	-0.22976646
51	0xbe4634cb	-0.19356076
52	0xbafd0b1e	-0.0019305681
53	0xbdc0b1e5	-0.09408931
54	0xbe8c21fd	-0.2736968
55	0xbedb2d53	-0.42808017
56	0xbea91872	-0.33026463
57	0xbe86b85d	-0.26312533
58	0xbe7faa33	-0.2496727
59	0x3e32cfa7	0.17462026
60	0xbec0f761	-0.37688735
61	0xbce1dfad	-0.027572477
62	0xbe906397	-0.2820098
63	0xbe1dcbe5	-0.15409811

fc.1.weight f4 [64, 1600]
0	0x3bb5fb3b	0.0055536306
1	0xbaf8abbe	-0.0018972082
2	0xbc89ab67	-0.016805364
3	0x3c8f9e75	0.017531613
4	0x3ad76456	0.0016433101
5	0xbcc6451a	-0.024202872
6	0xbc0919e9	-0.008367994
7	0x3c1d4372	0.0095986
8	0x3ca22950	0.01979509
9	0xbb3063eb	-0.0026915025
10	0xbcb389cb	-0.02191629
11	0x3c999397	0.018747134
12	0xbb11e3cc	-0.0022261022
13	0xbcaebcf2	-0.02133033
14	0xbc7fabea	-0.015604952
15	0xbcc8d5b9	-0.024515973
16	0xbc4579d3	-0.012052971
17	0xbba5b637	-0.005057122
18	0xbca05bcd	-0.019575024
19	0xbbcaf52e	-0.0061937785
20	0xbc8a2591	-0.016863616
21	0xbc29a240	-0.010353625
22	0x3a3bf450	0.0007169889
23	0xbc573de1	-0.013137312
24	0xbc027725	-0.007962977
25	0xbbb2d396	-0.005457352
26	0x3c8e30bc	0.017357223
27	0x3c434bc6	0.011919921
28	0x3c89b15f	0.01680821
29	0x3c225bae	0.009909553
30	0x3caee89f	0.021351157
31	0xbc3956e1	-0.011312217
32	0x3ca8cfc2	0.02060688
33	0xbc897504	-0.01677943
34	0x3c38fd7e	0.011290906
35	0x3bdc4c46	0.0067229597
36	0xbc8e93f5	-0.017404536
37	0x3bbeee8f	0.0058267782
38	0xbc476301	-0.0121696
39	0x3c267f5b	0.0101622
40	0xbcb04eff	-0.021522043
41	0xbbf3d5d1	-0.0074412604
42	0x3cb78053	0.022400057
43	0xbcbf0305	-0.02331687
44	0x3c1c4fce	0.009540511
45	0xbc59531b	-0.013264443
46	0x3b9d76ee	0.0048054373
47	0xbb0e3eca	-0.0021704906
48	0xbbe64612	-0.007027396
49	0x3c94dcf4	0.018171765
50	0x3ca1100e	0.019660976
51	0x3c9adb04	0.018903263
52	0xbc65256c	-0.013985973
53	0x3cd2546e	0.025675025
54	0x3b44c8cf	0.0030026918
55	0xbc8b0620	-0.016970694
56	0xbcc2aeb9	-0.023764955
57	0xbc33a078	-0.010963552
58	0x3cea478f	0.028598575
59	0xbc9db83e	-0.019252893
60	0x3c3eb85d	0.011640635
61	0xbc1ed7b5	-0.009694983
62	0x3cb60afc	0.022222035
63	0xbbf3b0c3	-0.007436843
64	0xbc96cd1e	-0.018408354
65	0x3c2af0a5	0.010433351
66	0xbc83f8ba	-0.016109813
67	0xbc0788be	-0.008272348
68	0xbc8b0f80	-0.016975164
69	0xbbb21cab	-0.0054355464
70	0x3af201ae	0.0018463635
71	0x3ca42e62	0.020041648
72	0xbbf23f80	-0.0073928237
73	0x3cf720fa	0.030167092
74	0x3cb1c04e	0.021698143
75	0x3beda84d	0.007252729
76	0x3c5f4dc1	0.013629378
77	0x3b4dbb12	0.003139202
78	0xbb04a83f	-0.0020241884
79	0x3b77fdbd	0.0037840449
80	0xbc3a4c65	-0.011370753
81	0x3ca36f96	0.01995067
82	0xbc1bdd81	-0.00951326
83	0xbbaa986f	-0.00520616
84	0xbbe8098e	-0.007081217
85	0xbcb1ed60	-0.021719635
86	0xba21553c	-0.00061543635
87	0xbca44538	-0.020052537
88	0x3c045661	0.008077235
89	0x3b55ec33	0.0032642006
90	0xbcae2758	-0.021258995
91	0x3c370b0f	0.01117207
92	0xbcb890c7	-0.022529973
93	0x3c1bf922	0.009519847
94	0x3b736d95	0.0037144173
95	0x3c2cdea8	0.010551132
96	0xbcb291b7	-0.021797998
97	0xba532e0b	-0.0008055872
98	0xbaeecb73	-0.0018218592
99	0x3bdb5e62	0.006694601
100	0x3c21db12	0.009878891
101	0xbbc484ac	-0.005997261
102	0xbc1eca2d	-0.009691757
103	0x3bc079b5	0.0058738836
104	0xbb87f160	-0.004148647
105	0xbc5d0953	-0.013490993
106	0x3c5aa982	0.013346078
107	0x3b9dc5d0	0.004814841
108	0x3cae4487	0.02127291
109	0x3bb0b561	0.005392716
110	0xbbe0d7c9	-0.006861661
111	0x3ba80c15	0.0051283934
112	0xbbeedc4c	-0.007289445
113	0x3cb2e5a6	0.02183802
114	0x3ca8eb2b	0.02061995
115	0x3ca77b13	0.020444429
116	0xbcdd7fc9	-0.027038472
117	0x3b28697a	0.0025697635
118	0x3c044404	0.008072857
119	0xbccf71fd	-0.025322909
120	0xbbee08a8	-0.0072642155
121	0x38ed0da7	0.000113035836
122	0xbc475b8f	-0.012167825
123	0x3b9af0c5	0.004728409
124	0xbc9e52da	-0.019326616
125	0xbb93b403	-0.004507543
126	0x3c5cc10a	0.0134737585
127	0xbce3b95e	-0.02779835
128	0xbd086bba	-0.03330586
129	0xbccb7be7	-0.024839355
130	0x3bb1dbed	0.0054278285
131	0xbc28aed0	-0.010295585
132	0x3bcc33b1	0.006231748
133	0x3c9f6243	0.019456035
134	0xbca35e47	-0.019942416
135	0x3c42af0b	0.011882554
136	0xbc92fc3a	-0.017942537
137	0xbb986ef6	-0.0046518994
138	0xbc822e90	-0.015891343
139	0xbbb206fe	-0.0054329624
140	0x3c0abae8	0.0084674135
141	0x3c978c9d	0.018499667
142	0x3cafd066	0.021461677
143	0x3b93cd07	0.004510525
144	0x3b9bde85	0.004756751
145	0xbb0826cd	-0.002077508
146	0xbcc7c70d	-0.024386907
147	0xbc86afd5	-0.016441265
148	0x3a7f8d09	0.0009748494
149	0xbc31008c	-0.010803353
150	0xbd064b86	-0.03278687
151	0x3b950108	0.004547242
152	0xbb08ae1c	-0.002085573
153	0xbc777208	-0.015102871
154	0xbc3c2814	-0.011484165
155	0xbcc1bdfe	-0.023650166
156	0xbd305fca	-0.0430601
157	0xbc90f02c	-0.017692648
158	0xbd27a8c1	-0.04093242
159	0xbd1a78b5	-0.03771277
160	0xbcb386ab	-0.0219148
161	0xbd1b9d1c	-0.037991628
162	0xbcb997b0	-0.022655338
163	0xbc8ccdeb	-0.017188033
164	0x3a977efe	0.0011558232
165	0xbca736b9	-0.020411836
166	0x3b8e4b8e	0.004342503
167	0xbcde4d69	-0.027136521
168	0xbd020b2f	-0.031748947
169	0xbd164e49	-0.036695752
170	0xbc389098	-0.011264943
171	0xbc091455	-0.008366664
172	0xbd0b0ca1	-0.03394759
173	0xbd0cc573	-0.03436799
174	0x3b348b93	0.0027549013
175	0x3c9f3bd1	0.019437702
176	0x3bebce80	0.0071962476
177	0xbbc88781	-0.006119669
178	0xbcd43898	-0.025905892
179	0x3c573e7e	0.013137458
180	0xbcb8f5e2	-0.022578184
181	0xbca38d59	-0.01996486
182	0xbb845fd0	-0.004039742
183	0xbd0001bf	-0.031251665
184	0x3afc5a70	0.0019253027
185	0x3c6bf7c2	0.014402332
186	0x3c80e237	0.015732868
187	0x3c047f44	0.008086983
188	0xbca68fb1	-0.02033219
189	0x3a8b181e	0.0010612046
190	0xbb9d72eb	-0.004804959
191	0x3cad2932	0.021137808
192	0xbce76be2	-0.028249685
193	0xbc3001a0	-0.010742575
194	0xbccf6927	-0.025318695
195	0x3bf08ad1	0.007340767
196	0x3c793bfb	0.015212054
197	0x3beab692	0.0071628774
198	0x3b1a1898	0.0023513194
199	0x3ba96fe7	0.0051708105
200	0x3c075b98	0.008261584
201	0x3c3f59ca	0.011679122
202	0xbcabd4ac	-0.020975433
203	0xbc76dbc6	-0.0150670465
204	0xbc8d9388	-0.017282262
205	0xbb61ec69	-0.0034473187
206	0x3c3f6d64	0.011683796
207	0xbce51c71	-0.027967663
208	0x3c35e537	0.011102012
209	0xbbaf6270	-0.005352311
210	0x3cc414b1	0.023935648
211	0x3c6cc764	0.014451835
212	0xbbe1c80a	-0.0068903016
213	0xbc95a17c	-0.018265478
214	0xbc0926a5	-0.00837103
215	0x3c442b71	0.011973248
216	0x3c5fc589	0.013657936
217	0x3c4df14b	0.012569736
218	0x3b868573	0.004105264
219	0x3c8dbf79	0.017303215
220	0xbcafa9b1	-0.02144322
221	0xbc5a5912	-0.0133269
222	0xbb913f0c	-0.0044325646
223	0xbc8504e6	-0.016237687
224	0xbcbd64ef	-0.023119418
225	0x3a045532	0.00050480955
226	0xbc1d78c6	-0.009611314
227	0x3c4027c4	0.011728231
228	0x3ba83b9d	0.0051340596
229	0xbb58a0c6	-0.0033054813
230	0x39f1458a	0.00046018913
231	0xbc913d87	-0.017729534
232	0xba94c4fb	-0.0011350209
233	0xbc577332	-0.013150023
234	0xbbf202fd	-0.00738561
235	0x3cb07346	0.021539342
236	0xbc5f9478	-0.013646238
237	0x3b868e69	0.004106332
238	0xbc1d095d	-0.009584752
239	0x3a88257c	0.0010387148
240	0xbc77ea8c	-0.015131604
241	0xbb288f31	-0.0025720114
242	0xbb84f355	-0.0040573278
243	0xbc5107c5	-0.0127582
244	0x3ad38569	0.0016137782
245	0xbc4669ee	-0.012110217
246	0xb9c7f803	-0.0003814102
247	0x3c018efd	0.007907626
248	0xbbd125f9	-0.0063827005
249	0x3c3c7a34	0.011503745
250	0x3bcc5d32	0.0062366957
251	0x3c057528	0.008145608
252	0xbc0fdf3f	-0.008781253
253	0x3c257a89	0.010100015
254	0x39f67ef2	0.00047015358
255	0xbc3c9a3d	-0.011511383

fc.1.bias f4 [64]
0	0x3c4a0cc8	0.012332149
1	0x3e0c3304	0.13691336
2	0xbd0a2c27	-0.033733513
3	0x3bfa8002	0.0076446543
4	0x3efcaa85	0.49348846
5	0x3e7e6db2	0.24846533
6	0xbd17fe9d	-0.037108053
7	0xbc68f799	-0.014219188
8	0x3c635ef2	0.013877617
9	0x3ee15528	0.44010282
10	0x3edd4487	0.43216345
11	0x3e895f7d	0.26830664
12	0x3d1a5e5b	0.03768764
13	0x3db212ac	0.08694968
14	0x3e233714	0.1593898
15	0x3f2c8352	0.6738788
16	0xb914a68c	-0.00014176423
17	0x3a345607	0.0006879274
18	0xbd3967f0	-0.04526514
19	0xbcdea5f7	-0.027178748
20	0x3b4c38c4	0.0031161765
21	0x3b2bd5e4	0.0026220018
22	0xbcc8c3e7	-0.024507476
23	0x3e85f29e	0.26161665
24	0x3be0787d	0.006850301
25	0xbcb584f9	-0.022158133
26	0xbcee3f2e	-0.02908286
27	0x3cf42953	0.029804861
28	0x3e0dee04	0.13860327
29	0x3e190abb	0.149455
30	0x3b1cd922	0.0023933132
31	0xbce75bd8	-0.028242037
32	0x3ceafbf9	0.028684603
33	0x3eff8981	0.49909595
34	0xbc28aed7	-0.010295591
35	0x3ea3d16e	0.3199572
36	0xbc8c281c	-0.01710897
37	0x3f0a8a7b	0.54117554
38	0x3d4eba10	0.05047041
39	0x3d030c8c	0.031994388
40	0xbcef3564	-0.029200263
41	0x3e68117e	0.22662923
42	0xba5308f4	-0.00080503454
43	0x3e3f9cbe	0.18712136
44	0x3d7cda15	0.061731417
45	0xbb5bbfd3	-0.0033531084
46	0x3d91a935	0.07112352
47	0x3c8fd285	0.017556438
48	0xbcad6819	-0.021167802
49	0x3cdfef3a	0.027335752
50	0x3d1ace52	0.03779442
51	0xba61db60	-0.0008615758
52	0x3ea69356	0.32534283
53	0x3eacdc32	0.33761746
54	0xbb0ab600	-0.002116561
55	0x3c973952	0.01845995
56	0xbc954373	-0.018220639
57	0xbd26672b	-0.040625732
58	0xbd4e18f5	-0.05031677
59	0x3ed61e2c	0.41819894
60	0xbb789877	-0.0037932673
61	0xbcb8b601	-0.022547724
62	0x3e45d95d	0.19321199
63	0x3e85ac0d	0.26107827

fc.3.weight f4 [4, 64]
0	0x3c84019b	0.016114047
1	0x3e47676c	0.19473046
2	0x3c3d4cd0	0.011553958
3	0x3d9c1262	0.07620694
4	0xbe80f001	-0.25183108
5	0x3e0ed85a	0.13949719
6	0x3dbc15db	0.09183856
7	0xbdbe19fc	-0.092823
8	0x3db4f069	0.08834917
9	0x3d1e4f35	0.038649756
10	0xbb518a0a	-0.0031973147
11	0xbf69200b	-0.9106452
12	0x3e14c8f0	0.14529777
13	0x3d12702a	0.0357515
14	0xbfc3ae41	-1.5287553
15	0x3ed04395	0.4067656
16	0x3d3c8f19	0.046034906
17	0xbe79d5fc	-0.24398035
18	0x3dcf9ffc	0.101379365
19	0x3cfe791e	0.031063613
20	0x3e1669ca	0.14688793
21	0x3c94b5c1	0.018153073
22	0xbd7bee2e	-0.061506443
23	0xbf1d87aa	-0.6153513
24	0xbc3dda48	-0.011587687
25	0xbc0f0584	-0.008729342
26	0xbdd58f12	-0.10427679
27	0xbd5d7e9f	-0.054075833
28	0xbbaea3ef	-0.005329601
29	0x3d67a115	0.056550104
30	0x3d884a27	0.066547684
31	0x3c583feb	0.013198833
32	0x3ddc50a6	0.1075757
33	0xbf1f1a11	-0.6214915
34	0xbdc7cc05	-0.097557105
35	0x3daa29e4	0.08308771
36	0x3d294c20	0.041332364
37	0xbe42d48c	-0.19026393
38	0xbd65f055	-0.0561374
39	0x3d9ba057	0.07598942
40	0x3d1f0ec2	0.038832434
41	0xbd6f3c68	-0.058407217
42	0xbd2b25ed	-0.041784216
43	0x3dede040	0.11615038
44	0xbe2100b7	-0.15722929
45	0xbed45d26	-0.41477317
46	0x3e89d117	0.26917335
47	0x3dbe500c	0.092926115
48	0x3d2b90ef	0.041886266
49	0x3e53d045	0.20684917
50	0x3e8f148b	0.2794536
51	0xbd35808d	-0.04431205
52	0xbf95c71d	-1.170139
53	0xbcb33348	-0.021875039
54	0xbcddaac8	-0.027058974
55	0x3e05622b	0.1302573
56	0xbce40a25	-0.027836869
57	0x3d7e889f	0.06214201
58	0xbdaa99a0	-0.08330083
59	0xbd835793	-0.06413188
60	0x3ccda023	0.025100773
61	0xbd84b7b8	-0.06480354
62	0x3e092e19	0.13396491
63	0x3dbebfa5	0.09313897
64	0xbc2a252d	-0.01038484
65	0xbef647ff	-0.48101804
66	0x3dda7521	0.10666872
67	0xbda91c3c	-0.082573384
68	0xbf32542d	-0.6965969
69	0x3e45fabe	0.19333932
70	0xbd4f2402	-0.05057145
71	0x3c90c925	0.017674038
72	0xbd12babd	-0.03582262
73	0x3d0bf7ca	0.034171857
74	0xbf86e5ba	-1.0538857
75	0xbd5f6aff	-0.0545454
76	0x3e503b5c	0.20335144
77	0xbf91c4ee	-1.1388223
78	0x3d6e1c5d	0.058132518
79	0x3eabe98f	0.3357663
80	0xbc806fb2	-0.01567826
81	0xbe0def73	-0.13860874
82	0x3cdc46d7	0.026889248
83	0x3d60ccf8	0.054882973
84	0x3d9f4e26	0.077785775
85	0x3d92dac0	0.071706295
86	0x3dfedc61	0.12444378
87	0xbb6778cf	-0.003531981
88	0x3d1f5ed8	0.03890881
89	0xbdae5ac8	-0.08513409
90	0x3da99470	0.08280265
91	0xbc9f340f	-0.019434003
92	0xbfacb034	-1.3491273
93	0xbe61afe4	-0.22039753
94	0x3dd2ae5b	0.10287162
95	0xbdbcb834	-0.092148215
96	0xbba090da	-0.00490008
97	0x3b0a7331	0.0021125788
98	0x3cea0134	0.028565027
99	0xbd48c3a9	-0.04901472
100	0xbd546af7	-0.051859822
101	0xbdc4138e	-0.09574042
102	0x3e0a48ce	0.13504335
103	0x3dbda784	0.09260467
104	0xbdded9f9	-0.10881419
105	0xbd137569	-0.036000643
106	0x3afaa372	0.0019122197
107	0x3d7b943c	0.061420664
108	0x3e42441d	0.18971296
109	0xbed80435	-0.4219071
110	0xbf2f9b3a	-0.6859623
111	0xbda3aad5	-0.07991568
112	0xbd6e4a06	-0.058176063
113	0x3e90c091	0.28271917
114	0x3e80ae26	0.25132865
115	0xbd7fc460	-0.062443137
116	0x3d1ba12f	0.037995514
117	0xbe1511d7	-0.14557587
118	0xbda8a312	-0.08234228
119	0xbd1e97f6	-0.03871914
120	0xbcc44acb	-0.023961445
121	0xbbd60170	-0.006530933
122	0xbd58530f	-0.052813586
123	0x3d541847	0.051780965
124	0x3d3392bb	0.043841105
125	0x3dd6dabe	0.104909405
126	0x3e1a1ff2	0.15051249
127	0x3d1933a0	0.03740275
128	0xbcc7e181	-0.02439952
129	0xbe8d563d	-0.27604857
130	0x3d8250ba	0.063630536
131	0x3d9f2388	0.07770449
132	0xbee84c4b	-0.45370707
133	0x3ed6c93f	0.41950414
134	0x3dafc26b	0.08582004
135	0x3c3573c7	0.011074967
136	0x3de97b6c	0.11400494
137	0xbf363896	-0.71180093
138	0x3c13f1ad	0.009029788
139	0x3dafa354	0.08576074
140	0x3e913144	0.283579
141	0x3d96276c	0.07331738
142	0x3d14bce6	0.03631296
143	0x3e981f01	0.29711154
144	0x3d676a7e	0.056498043
145	0xbddc166c	-0.10746464
146	0x3dafd350	0.085852265
147	0x3dc80434	0.09766427
148	0xbd8d9413	-0.069130085
149	0x3c3bf2d9	0.011471474
150	0x3d8c360f	0.06846248
151	0x3dc505ba	0.09620233
152	0x3d86eda6	0.065882966
153	0x3c6b73be	0.014370857
154	0x3cd62b4b	0.02614369
155	0x401f45c1	2.4886324
156	0xbbdb72d0	-0.0066970363
157	0x3deba67b	0.11506363
158	0x3dc7f263	0.097630285
159	0xbda96e86	-0.08273034
160	0xbddf43b7	-0.109015875
161	0x3b3d7745	0.0028910202
162	0x3d3dd28f	0.046343382
163	0xbfa9efcc	-1.3276305
164	0xbd728076	-0.05920454
165	0xbdfa0d11	-0.122095235
166	0x3e1ed890	0.155123
167	0xbf8af11c	-1.0854831
168	0x3dc47ef0	0.09594524
169	0xbda19c25	-0.0789111
170	0x3d220230	0.039552867
171	0x3dfb1bd9	0.12261171
172	0x3d738c77	0.05946013
173	0x3e6845e0	0.22682905
174	0x3ea6082c	0.3242811
175	0x3e0b0c96	0.1357902
176	0xbc18188f	-0.009283199
177	0xbed36946	-0.41291255
178	0x3e3c684f	0.18399166
179	0x3d3ff488	0.046864063
180	0xbd68f1f1	-0.05687136
181	0xbdb49ed9	-0.0881936
182	0xbcb81b48	-0.022473946
183	0x3d605a28	0.05477348
184	0xbdc159a7	-0.09440928
185	0x3db8f0bf	0.09030294
186	0x3d36b483	0.044605743
187	0xbfa37f33	-1.2773193
188	0x3d457cd1	0.048214737
189	0x3c47d344	0.012196366
190	0x3e448b19	0.19193687
191	0xbe90176d	-0.28142872
192	0xbc1db1bc	-0.009624895
193	0xbd221950	-0.03957492
194	0xbd210c65	-0.03931846
195	0xbd5c2cea	-0.05375377
196	0x3d76975e	0.06020295
197	0x3dc8176c	0.09770092
198	0xbd1ce7cb	-0.038306993
199	0x3d9d68e2	0.076860204
200	0xbda715e6	-0.08158474
201	0xbde952c9	-0.11392743
202	0x3cf1c643	0.029513484
203	0xbdc0b4eb	-0.09409507
204	0xbc8f3c16	-0.017484706
205	0x3db71761	0.08940006
206	0x3d8fbadc	0.070180625
207	0x3eb1f4ad	0.34756985
208	0xbd43b44a	-0.04777936
209	0xbe97cb18	-0.29647136
210	0x3b7cfcff	0.0038602946
211	0xbde1cd5a	-0.11025496
212	0xbdd8b34e	-0.10581075
213	0xbd75f31c	-0.0600463
214	0xbd9ada14	-0.07561126
215	0xbec6f23a	-0.3885668
216	0x3d149d32	0.036282726
217	0xbcecb788	-0.028896108
218	0xbd4f3205	-0.05058481
219	0xbcea29b2	-0.028584335
220	0xbc437e42	-0.011931958
221	0x3e47ab8d	0.19499035
222	0xbdd94d91	-0.10610498
223	0x3deaeb9e	0.11470722
224	0x3e32a70b	0.17446534
225	0xbcfc6b1f	-0.030812798
226	0x3c3fdc41	0.0117102275
227	0xbd1a5d50	-0.037686646
228	0xbd99742d	-0.07492862
229	0xbf2ab633	-0.66684264
230	0x3d45204a	0.048126496
231	0x3dd35e27	0.103206925
232	0xbd7c6630	-0.06162089
233	0xbfbb3806	-1.4626472
234	0x3da32136	0.07965319
235	0xbfe7a903	-1.8098453
236	0x3e4e1c67	0.20128022
237	0x3ea56847	0.3230612
238	0x3e88ecd6	0.2674319
239	0xbe02cbb1	-0.12773015
240	0x3df5da8f	0.12004577
241	0x3eb858ed	0.36005345
242	0xbf1915fb	-0.59799165
243	0xbc9a7b0b	-0.0188575
244	0x3da113dd	0.07865117
245	0xbf7f050d	-0.9961708
246	0x3cf4dfa4	0.029891796
247	0xbd5395ae	-0.051656418
248	0xbddc3502	-0.10752298
249	0x3ddf80ee	0.10913263
250	0x3ba663ea	0.0050778287
251	0x3caf30ac	0.021385513
252	0x3ddf5075	0.10904018
253	0xbd1b6704	-0.03794004
254	0xbfa88c6d	-1.3167855
255	0x3d43047f	0.04761171

fc.3.bias f4 [4]
0	0x3eef3d99	0.46726683
1	0x3ef5760c	0.47941625
2	0x3ef48aa4	0.47762024
3	0x3ef7ebd1	0.484221
