models/v17.1/model_196500.pt (torch, 729854 bytes, 10 tensors)

conv.0.weight f4 [16, 2, 3, 3]
0	0x3e67a685	0.22622116
1	0x3c0733c1	0.008252085
2	0xbcfb9a59	-0.030713247
3	0x3b9be866	0.0047579287
4	0xbc2434ba	-0.010022337
5	0xbdc7a640	-0.097485065
6	0xbc4c4895	-0.012468477
7	0xbd65a997	-0.056069937
8	0x3d8e04dc	0.069345206
9	0xbe6a828a	-0.22901359
10	0x3d491312	0.049090452
11	0x3df79134	0.12088242
12	0xbb8c64b0	-0.004284464
13	0xbdacb7c5	-0.08433489
14	0x3d8becb0	0.06832254
15	0x3d3891bf	0.04506087
16	0x3d9b1326	0.07572012
17	0xbd914706	-0.07093625
18	0x3ddf87f9	0.109146066
19	0x3e8c02b4	0.27345812
20	0xbd4bf442	-0.04979349
21	0xbd171e58	-0.036894172
22	0xbe850a06	-0.2598421
23	0x3e18df88	0.1492902
24	0xbe28353a	-0.16426554
25	0xbe4bb78b	-0.19894235
26	0xbde3be24	-0.11120251
27	0xbd58fab0	-0.05297345
28	0xbcf98902	-0.030460838
29	0xb549556b	-7.5002635e-07
30	0x3d486f0e	0.048934035
31	0xbebd1e4b	-0.36937174
32	0x3d07ff0b	0.033202212
33	0x3e414a42	0.18875983
34	0x3b90571f	0.004404917
35	0x3e3191d8	0.17340791
36	0x3d5bba7d	0.053644646
37	0x3e915dc9	0.28391865
38	0xbc6702de	-0.014099805
39	0x3bc2f156	0.0059491796
40	0x3dbb6d0e	0.0915166
41	0x3e3ca692	0.18422917
42	0x3e18f086	0.14935502
43	0x3ee44190	0.4458127
44	0x3d4d127f	0.050066467
45	0xbd800e46	-0.062527224
46	0xbe89e234	-0.26930392
47	0x3cf77727	0.030208183
48	0xbc7e48cb	-0.015520285
49	0xbd62f6d8	-0.05541119
50	0xbe579ed6	-0.21056685
51	0xbe036682	-0.12832072
52	0xbf1158ec	-0.5677631
53	0xbbd242e8	-0.0064166673
54	0x3b4a9605	0.0030912173
55	0xbc894deb	-0.016760787
56	0x3d830e90	0.06399262
57	0xbd2551c7	-0.040361192
58	0x3a018b15	0.00049416843
59	0xbf950a5e	-1.1643789
60	0x3c28043b	0.010254915
61	0xbd72496e	-0.05915206
62	0x3c9ebcf9	0.019377219
63	0xbc7808ec	-0.015138846
64	0x3be5c894	0.007012436
65	0xbd80667e	-0.06269549
66	0x3d2277a4	0.03966488
67	0xbb0e130b	-0.002167883
68	0x3dd0c893	0.101945065
69	0xbbecbc32	-0.007224583
70	0x3d22e732	0.039771266
71	0xbc239e1b	-0.009986426
72	0x3b43e22e	0.0029889452
73	0xbda8aaef	-0.08235728
74	0xbe0abde0	-0.13548994
75	0xbd422218	-0.047395796
76	0xbe155c52	-0.14585999
77	0x3f1fdcf1	0.62446505
78	0x3b90dcca	0.0044208514
79	0xbb8be1f2	-0.004268878
80	0xbe184b3f	-0.14872454
81	0xbb69627c	-0.003561168
82	0x3da8e39a	0.082465366
83	0x3e0bc591	0.13649584
84	0x3d318b19	0.043345544
85	0x3e1ebbed	0.15501375
86	0x3e994f34	0.2994324
87	0xbba04d2a	-0.004892011
88	0x3c8a3344	0.016870148
89	0x3dd805ea	0.10548003
90	0x3c990a31	0.018681617
91	0xbde6865c	-0.11256096
92	0x3ef1d4bd	0.4723262
93	0xbd041b5c	-0.032252654
94	0xbf24f42a	-0.64435065
95	0xbcbe7eb6	-0.02325378
96	0xbccc8660	-0.024966419
97	0xbdd3fbba	-0.103507474
98	0xbd4ae072	-0.049530454
99	0xbc42660e	-0.011865152
100	0x3c9fa613	0.01948837
101	0xbc35e320	-0.011101514
102	0x3d1fc783	0.03900863
103	0x3c43a7ab	0.011941831
104	0x3bf30ee5	0.007417547
105	0xbbdaccbc	-0.0066772383
106	0x3dc69353	0.096960686
107	0x3da2c378	0.07947439
108	0xbe6115fc	-0.21981043
109	0xbe955b52	-0.29171234
110	0xbcac7069	-0.021049695
111	0xba9a2315	-0.0011759723
112	0xbb059d07	-0.0020387785
113	0xbf65fb27	-0.89836353
114	0xbeb56e32	-0.35435635
115	0xbebe6fb1	-0.3719459
116	0xbd831fe9	-0.06402571
117	0x3e504ac4	0.20341021
118	0x3e9d98ce	0.30780643
119	0x3caaecbc	0.020864837
120	0xbd030e52	-0.03199608
121	0x3cef6aa8	0.029225662
122	0x3f192644	0.59824014
123	0x3e7c81b1	0.24658848
124	0x3eb42658	0.35185504
125	0x3cfc6172	0.030808184
126	0xbec6dbbe	-0.38839525
127	0xbf0e944c	-0.55695033
128	0x3ddbbad9	0.10728998
129	0xbdf8aa23	-0.12141826
130	0x3ddbf165	0.10739402
131	0x3de4521d	0.11148474
132	0xbf9ca780	-1.2238617
133	0xbd96295f	-0.0733211
134	0xbd908869	-0.07057268
135	0x3e4febdb	0.20304815
136	0x3e87b40d	0.26504555
137	0xbd08c86e	-0.03339427
138	0x3d5f09ec	0.05445282
139	0xbc398406	-0.011322981
140	0x3da79b13	0.08183875
141	0x3ec530d0	0.38513803
142	0x3d503e9e	0.050840966
143	0x3d006ef5	0.031355817
144	0x3d5d11bb	0.053971987
145	0x3d333f7b	0.04376171
146	0xbbb01e77	-0.0053747254
147	0x3d25b339	0.040454123
148	0x3e7438a9	0.23849739
149	0x3c831883	0.016002899
150	0xbec81ab0	-0.3908286
151	0xbf028c7c	-0.5099561
152	0xbf06aab0	-0.526042
153	0xbd41ac06	-0.047283195
154	0x3ddef2e0	0.108861685
155	0x3d3a4de8	0.045484453
156	0x3ce757f0	0.028240174
157	0x3da91c40	0.082573414
158	0x3dfc6964	0.12324789
159	0xbd8e83f2	-0.0695876
160	0x3e894b38	0.268152
161	0xbcdbc53e	-0.02682745
162	0x3c5527f3	0.013010013
163	0xbcdfd59f	-0.027323542
164	0x3c97820a	0.018494625
165	0x3cc34c9e	0.023840245
166	0xbd895ec5	-0.06707529
167	0x3ed4e29e	0.41579145
168	0xb8d7bce9	-0.00010287186
169	0xbde75866	-0.112961575
170	0xbd8fc4fd	-0.070199944
171	0x3baad46c	0.005213311
172	0x3c9718ca	0.018444438
173	0x3a06f589	0.0005148282
174	0xbc67fa62	-0.014158817
175	0x3d98a2cf	0.07452928
176	0xbee077a0	-0.43841267
177	0x3c9857d4	0.018596567
178	0x3dc6998a	0.09697254
179	0x3d9b59ef	0.07585513
180	0x3bc9b205	0.006155255
181	0xbd2daf50	-0.04240352
182	0xbcaa7390	-0.020807058
183	0xbda6cd82	-0.08144666
184	0x3f1532cd	0.5828064
185	0xbd9d83dc	-0.07691166
186	0xbb1a91c8	-0.0023585428
187	0xbd4a7dec	-0.049436495
188	0x3d19ecd6	0.03757938
189	0xbc789905	-0.015173201
190	0x3d225c45	0.039638776
191	0x3c80cde2	0.015723173
192	0x3d972807	0.073806815
193	0x3ecce7f1	0.40020707
194	0x3d75bcf6	0.05999466
195	0xbb59f62c	-0.0033258302
196	0x3d8c5633	0.06852379
197	0xbcfc4d39	-0.030798541
198	0xbc578332	-0.013153838
199	0x3d516303	0.051119816
200	0xbd6aef4c	-0.057357118
201	0x3c8f2f0e	0.017478492
202	0x3f53acf4	0.8268578
203	0x3b405222	0.002934583
204	0xbd9a1f3c	-0.07525489
205	0x3cd37309	0.025811689
206	0xbd918e95	-0.071072735
207	0x3ccca4eb	0.024980983
208	0xbd7d7c4e	-0.061886124
209	0x3d57de51	0.05270225
210	0xbcc6894f	-0.024235396
211	0xbd947fd2	-0.07250942
212	0xbcf7037c	-0.030153029
213	0x3d8060aa	0.06268437
214	0xbd467709	-0.048453365
215	0x3d81b8c6	0.06334071
216	0xbd9e21f8	-0.07721323
217	0xbdfbb92c	-0.12291178
218	0xbdabbd50	-0.08385718
219	0xbd59455d	-0.053044666
220	0xc03a85d4	-2.9144182
221	0xb9b3c69b	-0.00034289513
222	0xbdd1e1f5	-0.10248176
223	0xbdb233bf	-0.08701276
224	0xbdf041e8	-0.117313206
225	0x3dac3aae	0.0840963
226	0x3d98b39a	0.07456131
227	0x3da00c33	0.07814827
228	0x3d5455fb	0.05183981
229	0x3f484167	0.78224796
230	0xbd829397	-0.06375807
231	0x3df3fb98	0.11913222
232	0x3c8428aa	0.016132671
233	0x3e2059ae	0.1565921
234	0xbccb821a	-0.02484231
235	0xbc9f3529	-0.019434528
236	0xbd7fc66c	-0.06244509
237	0xbd70f15f	-0.05882394
238	0xbe98910b	-0.2979816
239	0xbf767727	-0.9627556
240	0x3e2b6e36	0.16741261
241	0xbdde2706	-0.10847287
242	0xbd799c2f	-0.060939964
243	0x3ccb795a	0.024838138
244	0x3dcc0cb3	0.0996336
245	0x3d30ed72	0.043195195
246	0xbd68d7a2	-0.05684627
247	0x3e00ed11	0.12590434
248	0x3f1b1ee1	0.6059399
249	0x3dc6775d	0.096907355
250	0x3e2471ba	0.16059008
251	0x3dbdd155	0.092684425
252	0xbf0efa5f	-0.55850786
253	0xbf0d317a	-0.5515362
254	0xbf5a781d	-0.8533953
255	0xbdaf4050	-0.085571885

conv.0.bias f4 [16]
0	0xbe0d6cd2	-0.13811043
1	0xbe9aec1c	-0.30258262
2	0xbe075f60	-0.13219976
3	0x3f027cb2	0.5097152
4	0xbf1a2e95	-0.6022733
5	0xbe8d5bb1	-0.27609017
6	0xbd50e5ca	-0.051000394
7	0xbe4bd5da	-0.19905797
8	0xbeca4053	-0.395022
9	0xbdb599eb	-0.08867248
10	0xbf30f12c	-0.69118
11	0xbed5e875	-0.41778913
12	0x3e930b1e	0.2871942
13	0xbe84d862	-0.25946337
14	0xbccb8eda	-0.02484839
15	0xbe30a7e2	-0.17251542

conv.2.weight f4 [32, 16, 3, 3]
0	0xbd88e0be	-0.06683491
1	0x3c6bae31	0.014384792
2	0xbd1d594d	-0.038415242
3	0xbc88f548	-0.016718522
4	0xbd8fb486	-0.07016854
5	0xbca7b6a7	-0.020472838
6	0x3da8049d	0.08204005
7	0xbced3240	-0.028954625
8	0xbdc61fd3	-0.09674039
9	0x3d8e7e07	0.069576316
10	0x3dd1d445	0.10245565
11	0x3dad9264	0.084751874
12	0x3e105778	0.14095867
13	0x3ddea25a	0.1087081
14	0x3cfc927e	0.030831572
15	0x3d4840ac	0.0488898
16	0xbd20ee14	-0.03928955
17	0xbd2e166d	-0.042501856
18	0x3e33baf1	0.17551781
19	0xbcef08a0	-0.029178917
20	0xbd434794	-0.047675684
21	0xbd032eff	-0.03202724
22	0xbbc5c640	-0.006035596
23	0xbe677426	-0.22602901
24	0xbdfa4e6b	-0.12221988
25	0xbe792f67	-0.24334489
26	0xbe41f9a4	-0.18942887
27	0x3c5c69f9	0.013453
28	0xbd1cd105	-0.038285274
29	0xbe09b458	-0.13447702
30	0x3be98480	0.007126391
31	0xbd8fc946	-0.07020812
32	0xbd9d0278	-0.076664865
33	0x3d47723e	0.048692934
34	0xbdf23076	-0.118256494
35	0xbeb3c1a0	-0.35108662
36	0x3d938c5c	0.07204506
37	0x3de7f637	0.11326259
38	0xbe91086d	-0.2832674
39	0xbe12c770	-0.14333892
40	0xbe25958e	-0.16170332
41	0xbeab41a6	-0.33448523
42	0x3deb7eaa	0.11498769
43	0xbdf793b7	-0.12088721
44	0xbe378672	-0.1792238
45	0x3d2d456f	0.042302545
46	0x3cd97025	0.026542732
47	0xbdb5c84a	-0.08876093
48	0x3e255ed6	0.16149458
49	0x3db730e9	0.08944876
50	0xbe83e577	-0.25761005
51	0x3da33844	0.07969716
52	0x3d8fb36c	0.07016644
53	0xbe02cef1	-0.12774254
54	0x3d354b0f	0.044261035
55	0x3e3a6d1b	0.18205683
56	0x3c5e5f87	0.01357258
57	0x3e1ef69a	0.15523759
58	0x3d3f6580	0.046727657
59	0xbd34a7d1	-0.044105355
60	0x3d8ab1aa	0.06772168
61	0x3cabf653	0.02099148
62	0xbe34ed86	-0.17668733
63	0xbe459fb9	-0.1929921
64	0xbd185394	-0.03718908
65	0x3c9804d8	0.018556997
66	0xbd890e86	-0.06692223
67	0xbc8c6d58	-0.017141983
68	0xbd2ae173	-0.04171891
69	0xbda103ec	-0.07862076
70	0xbda5ddc9	-0.08098943
71	0xbe072b52	-0.13200119
72	0x3db6d660	0.089276075
73	0x3d891ea7	0.066952996
74	0x3d13d3f5	0.03609081
75	0xbd91b0fa	-0.07113834
76	0x3e17ff76	0.14843544
77	0xbe046064	-0.12927395
78	0x3dca2dfd	0.09872053
79	0xbd42f8b4	-0.047600463
80	0xbe1e7435	-0.15474017
81	0x3dc4cc7a	0.09609313
82	0xbe715b16	-0.23569903
83	0x3d2fe31f	0.04294121
84	0x3dde2ce7	0.10848408
85	0xbe1d595f	-0.15366124
86	0xbd215ad5	-0.039393265
87	0xbe2d463e	-0.16921327
88	0xbe6a0088	-0.22851765
89	0x3c989584	0.018625982
90	0x3d4a68d1	0.049416367
91	0xbaa3ddf4	-0.001250206
92	0xbe029773	-0.12753086
93	0xbce5a958	-0.028034851
94	0x39def3a9	0.0004252468
95	0xbe173a83	-0.14768414
96	0xbd9bc30d	-0.07605562
97	0xbcfd3ba7	-0.030912234
98	0xbd92ceea	-0.07168372
99	0x3c12bda1	0.008956344
100	0xbc03df29	-0.008048811
101	0xbd9733d5	-0.07382933
102	0xbe16e14d	-0.14734383
103	0xbe52eeca	-0.20598903
104	0xbe11ddb4	-0.1424473
105	0xbe000de5	-0.125053
106	0xbe0de323	-0.13856177
107	0x3bc41347	0.0059837434
108	0x3c534f9f	0.012897401
109	0x3d2e75bc	0.04259275
110	0x3cf1069b	0.029422095
111	0xbe09cb4e	-0.13456461
112	0xbc111ed5	-0.008857449
113	0x3ccbff27	0.02490194
114	0xbe09cf09	-0.13457884
115	0xbe1988ef	-0.14993642
116	0xbce6e373	-0.028184628
117	0xbbb6775d	-0.0055684284
118	0x3c5e241d	0.013558415
119	0x3d52216e	0.051301412
120	0x3d85d4cf	0.06534731
121	0x3c9913ce	0.018686201
122	0xbcb40fd1	-0.021980198
123	0xbd151f80	-0.036406994
124	0xbd2ec430	-0.042667568
125	0x3caa8d0b	0.020819208
126	0x3ca5e8db	0.020252636
127	0xbadfd6fa	-0.0017077618
128	0xbbe95861	-0.0071211313
129	0xbd025c92	-0.031826563
130	0xbe343f60	-0.176023
131	0xbdc200cc	-0.09472808
132	0xbd1b43ab	-0.03790633
133	0xbd2c877d	-0.0421214
134	0x3db2736b	0.087134205
135	0xbe066e0b	-0.13127916
136	0xbc5ada81	-0.013357759
137	0xbdb53e38	-0.08849758
138	0xbdd0d068	-0.10196
139	0x3dda4005	0.10656742
140	0x3c24f4b6	0.010068109
141	0xbdb50ecf	-0.08840715
142	0xbe1a8517	-0.15089832
143	0xbd8f8178	-0.07007116
144	0x3e0b7a2e	0.13620827
145	0xbe1c8c39	-0.15287866
146	0x3e3525c5	0.17690189
147	0x3e1a98cc	0.1509735
148	0x3d904d00	0.070459366
149	0xbd973b05	-0.07384304
150	0xbd8d0693	-0.068860196
151	0x3dd96982	0.10615827
152	0xbb861bd2	-0.004092672
153	0x3e40e2ed	0.18836565
154	0x3d55d1b2	0.052201934
155	0x3e926139	0.285898
156	0xbd780e23	-0.060560357
157	0x3e4850b4	0.19562036
158	0x3d570f6d	0.052504946
159	0x3e48d900	0.19614029
160	0xbca62459	-0.020281004
161	0x3e2aded4	0.16686565
162	0x3e79072b	0.2431914
163	0x3e8727d5	0.26397577
164	0x3e7643e2	0.24049333
165	0x3ecd0600	0.4004364
166	0xbe6150f6	-0.2200354
167	0xbe26d234	-0.16291124
168	0x3e95bed6	0.2924716
169	0x3db45b92	0.08806528
170	0x3de39c62	0.11113812
171	0xc01ecdec	-2.4813185
172	0x3e1b6487	0.15175067
173	0xbda8a246	-0.08234076
174	0x3c86961c	0.016429
175	0xbd29714f	-0.041367825
176	0x3c9d5b12	0.019208465
177	0xbd02aadd	-0.03190123
178	0xbd6876b5	-0.056753833
179	0xbc56e432	-0.013115929
180	0xbf5da7dd	-0.86584264
181	0x3e99dba9	0.300504
182	0xbc956cd6	-0.018240374
183	0x3c13055a	0.008973444
184	0x3d9dc70c	0.07703981
185	0x3d9573f5	0.07297508
186	0x3d35deb4	0.04440184
187	0xbd019efb	-0.031645756
188	0x3c84f2ce	0.01622906
189	0xbe6230a6	-0.2208887
190	0xbf84d4a1	-1.0377389
191	0xbae77981	-0.0017660112
192	0xbe643ee1	-0.22289611
193	0xbdbadcc6	-0.091241404
194	0xbe534f79	-0.20635785
195	0xbb899445	-0.0041985833
196	0xbc4bd078	-0.01243984
197	0x3d3c747b	0.046009522
198	0x3d367951	0.04454929
199	0x3de94233	0.113895796
200	0xbe32b41b	-0.17451517
201	0x3e5fe83e	0.21865937
202	0xb950b9c8	-0.00019905635
203	0xbe3ffdd7	-0.18749176
204	0x3e7cae9d	0.24675985
205	0x3c52d76c	0.012868743
206	0xbd3510e6	-0.04420557
207	0x3d40ec91	0.047100607
208	0xbd33534c	-0.04378061
209	0xbe3b07a6	-0.18264636
210	0x3d958938	0.07301563
211	0xbd869dcc	-0.06573066
212	0xbda12746	-0.07868819
213	0x3e871b84	0.2638818
214	0xbcc493d6	-0.023996275
215	0x3d617cd0	0.05505067
216	0x3e3ab73e	0.18233964
217	0xbe94177a	-0.2892416
218	0x3e42797f	0.1899166
219	0x3d9697ec	0.073531955
220	0x3ed5096c	0.4160875
221	0x3e0170b1	0.12640645
222	0x3e5a3cb1	0.21312214
223	0x3e3d66a3	0.18496184
224	0xbda55afa	-0.08073993
225	0x3bc4259d	0.005985929
226	0xbf176b5d	-0.591482
227	0xbe048dfb	-0.12944786
228	0x3ea0e8f0	0.31427717
229	0x3d98e588	0.074656546
230	0xbe6dd5e1	-0.2322612
231	0x3f23b408	0.6394658
232	0x3e16947e	0.14705083
233	0xbdc69c6a	-0.09697802
234	0xbde0d1cc	-0.109775156
235	0xbee34830	-0.44391012
236	0x3ec27135	0.37976995
237	0x3d58b86e	0.05291026
238	0xbe757639	-0.2397088
239	0x3be612e0	0.007021293
240	0x3c8c45bd	0.017123098
241	0xbd2c329a	-0.042040445
242	0x3ca0519b	0.019570163
243	0x3dfb7f9f	0.12280201
244	0xbeea8212	-0.4580236
245	0x3e0b2d2d	0.13591452
246	0x3df728dc	0.1206834
247	0xbdc31c71	-0.09526909
248	0xbd5f471a	-0.054511167
249	0xbd1a9616	-0.03774079
250	0x3d4c6c84	0.049908176
251	0x3c6af5b6	0.014340809
252	0x3da33ace	0.079702005
253	0xbf94b191	-1.1616689
254	0xbf2cee4c	-0.6755111
255	0x3e361058	0.17779672

conv.2.bias f4 [32]
0	0x3c8e5642	0.017375115
1	0x3c02c1e2	0.007980796
2	0xbd8fdd59	-0.070246406
3	0x3daf95d4	0.08573499
4	0x3d274dd8	0.040845722
5	0xbd2f2f37	-0.042769637
6	0x3e75e84a	0.24014392
7	0xbd93de42	-0.07220127
8	0xbe8653f2	-0.2623592
9	0xbea50cc3	-0.322363
10	0x3e0f3380	0.1398449
11	0x3e87f396	0.2655303
12	0xbdc267c7	-0.0949245
13	0x3c3d9ca8	0.011572994
14	0x3d91f56b	0.07126888
15	0xbe4140c2	-0.1887236
16	0x399a97f3	0.0002948638
17	0xbd6a1710	-0.0571509
18	0x3e41f95b	0.18942778
19	0xbdea2066	-0.11431961
20	0x3e247d19	0.16063346
21	0xbdac7725	-0.084211625
22	0xbcb86a7b	-0.022511711
23	0xbd6692ea	-0.056292452
24	0xbe1232fe	-0.14277264
25	0x3ea9109f	0.33020493
26	0x3de7441e	0.11292289
27	0xbe027360	-0.12739325
28	0xbd0f2cf6	-0.034954987
29	0x3ce3b150	0.02779451
30	0xbdcff254	-0.10153642
31	0x3e2840a0	0.16430902

conv.4.weight f4 [64, 32, 6, 6]
0	0xbc49014d	-0.012268377
1	0xbd6dd111	-0.05806071
2	0x3d88f9d0	0.06688273
3	0xbc7bfd03	-0.015380147
4	0x3d3ec74b	0.04657678
5	0xbc7fdc04	-0.015616421
6	0xbd056288	-0.03256467
7	0x3d25867f	0.04041147
8	0x3cef2f28	0.02919729
9	0x3cb36553	0.021898901
10	0xbc887033	-0.016655063
11	0x3d1ff4c8	0.0390518
12	0xbb5cb595	-0.0033677567
13	0x3cc5c9ca	0.024144072
14	0xbcd16767	-0.025562001
15	0xbd3488ae	-0.04407566
16	0xbbe26eab	-0.0069101653
17	0x3cec0b95	0.028814116
18	0x3c433f9c	0.011917021
19	0x3d96d9aa	0.07365735
20	0xba9f5931	-0.0012157318
21	0xbd55f174	-0.05223222
22	0xbd4435ef	-0.047902998
23	0x3da34310	0.079717755
24	0x3cca4848	0.02469267
25	0xbbdfb056	-0.006826441
26	0xbd801f2b	-0.06255945
27	0x3cd61268	0.026131824
28	0xbaf19e09	-0.0018433939
29	0xbb1871cd	-0.002326119
30	0x3bd8c307	0.006615046
31	0xbc893573	-0.01674912
32	0xbd1777d8	-0.036979526
33	0x3a6a1df9	0.0008930858
34	0xbd2726ce	-0.04080849
35	0xbbb38578	-0.005478557
36	0xbd875d0f	-0.066095464
37	0x3c92041c	0.017824225
38	0x3eced429	0.4039624
39	0xbddfb6da	-0.10923548
40	0xbdb777f0	-0.08958423
41	0x3c907700	0.017634869
42	0xbcc1f7d0	-0.023677737
43	0x3dbb2518	0.091379344
44	0x3dde1bcf	0.10845148
45	0xbefef73d	-0.49798003
46	0xbe067390	-0.13130021
47	0x3f020fe7	0.50805515
48	0xbf26c04e	-0.65137184
49	0x3e8bf5ca	0.2733596
50	0xbd86c910	-0.065813184
51	0x3e1748a3	0.14773802
52	0x3e9d6057	0.30737564
53	0x3eb7a074	0.35864604
54	0x3da41dc1	0.080134876
55	0xbe1aaf8f	-0.15106033
56	0xbd801822	-0.06254603
57	0xbd888c67	-0.066674046
58	0xbd8b12bb	-0.06790682
59	0x3e68220e	0.22669241
60	0x3e322785	0.17397888
61	0x3e31ff25	0.17382486
62	0x3e423925	0.18967111
63	0x3e8f3743	0.2797185
64	0x3de8f8f7	0.11375611
65	0x3e8edef0	0.27904463
66	0xbe8b90eb	-0.27259
67	0x3ed25e9a	0.410878
68	0x3ed5658d	0.4167904
69	0x3e625b22	0.22105077
70	0x3eb7354b	0.35782847
71	0xbf27c190	-0.6552973
72	0xbc28b539	-0.010297113
73	0xbd35610f	-0.044282015
74	0xbcbbabd4	-0.022909082
75	0xbd4675ea	-0.048452295
76	0x3c2bcde1	0.010486097
77	0xbccbc66f	-0.024874894
78	0xbc5a6286	-0.013329154
79	0x3ba1a138	0.004932549
80	0xbadc037d	-0.0016785708
81	0x3c745216	0.014912149
82	0x3cb5d53f	0.02219641
83	0x3c2adcc4	0.010428611
84	0x3bb0bde8	0.0053937323
85	0xbc62e461	-0.013848395
86	0xbce4e359	-0.027940439
87	0x3cc4cf84	0.024024732
88	0x3c6d76bd	0.014493641
89	0xbc2b0679	-0.010438555
90	0xbcb37dc5	-0.021910558
91	0x3ca12968	0.019673064
92	0xbcab69a8	-0.020924404
93	0x3c829719	0.01594119
94	0xbd1d6e99	-0.038435552
95	0xbc17d74a	-0.0092676375
96	0xbb09832b	-0.0020982723
97	0x3d198faf	0.037490543
98	0x3b158dde	0.0022820155
99	0x3cb79e93	0.022414481
100	0xbc1f3d4e	-0.009719206
101	0x3cf9b67c	0.030482523
102	0x3ce413f4	0.027841546
103	0x3d07449e	0.033024423
104	0x3d2da9c3	0.042398226
105	0x3c32567d	0.010884878
106	0xbb94b14a	-0.004537736
107	0x3b708133	0.0036698102
108	0xbd35b00e	-0.044357352
109	0x3e6294a7	0.22127019
110	0xbc799104	-0.015232328
111	0xbe99d31b	-0.30043873
112	0xbed43aa1	-0.4145098
113	0x3e86b440	0.26309395
114	0x3dc1c3ee	0.09461199
115	0x3eac037a	0.33596402
116	0x3e168c2a	0.14701906
117	0x3cfeba42	0.031094674
118	0x3ef45a66	0.4772522
119	0xbeb08fc3	-0.3448468
120	0x3ecb07a6	0.39654273
121	0x3e8307a5	0.2559177
122	0x3e2c72bc	0.16840643
123	0x3e082e82	0.13298991
124	0x3e1b4164	0.15161663
125	0x3ebb2a04	0.36555493
126	0x3e94b3f0	0.2904353
127	0x3ea5db68	0.32393956
128	0x3e71e9a3	0.23624282
129	0x3d8b5501	0.068033226
130	0x3ec99f93	0.39379558
131	0x3ed42a45	0.414385
132	0x3da0c191	0.0784942
133	0x3ec51118	0.38489604
134	0x3eb015d6	0.3439166
135	0x3e963ece	0.2934479
136	0x3f0ccef3	0.5500328
137	0xbf176d9a	-0.59151614
138	0x3de49fbb	0.11163279
139	0xbedb79be	-0.4286632
140	0xbec4c850	-0.38434076
141	0xbe4f513e	-0.20245835
142	0x3e83d526	0.25748557
143	0xbf0d9258	-0.5530143
144	0x3e09715f	0.13422154
145	0x3e32d22a	0.17462984
146	0xbd96e35f	-0.07367586
147	0x3ea641f6	0.324722
148	0x3f01db82	0.5072557
149	0xbde5e40e	-0.112251386
150	0x3ef119be	0.47089952
151	0x3ecd241b	0.4006661
152	0xbee4b70b	-0.446709
153	0xbf001574	-0.50032735
154	0xbf19321c	-0.59842086
155	0x3d98da5f	0.07463526
156	0xbf0e15b4	-0.55501866
157	0x3e28ad9a	0.16472474
158	0xbea6f2ec	-0.3260721
159	0x3d9e0b52	0.07717003
160	0x3e9363b3	0.28787002
161	0xbec8b03c	-0.39196956
162	0x3ecf0184	0.40430844
163	0xbe3185bd	-0.17336173
164	0xbed6d5d3	-0.4196001
165	0xbe605170	-0.21906066
166	0xbe8db1b3	-0.27674636
167	0x3e134275	0.1438082
168	0x3ee3e839	0.4451311
169	0x3d6884b4	0.05676718
170	0xbd928d99	-0.07155914
171	0xbc7d2920	-0.0154516995
172	0x3e17a04c	0.14807242
173	0x3eba7c5f	0.36423013
174	0xbe1eb6f8	-0.15499485
175	0x3e85d847	0.2614157
176	0x3d629496	0.055317484
177	0xbde86960	-0.11348224
178	0x3da3fc1a	0.08007069
179	0xbf32968e	-0.6976098
180	0xba370873	-0.0006982155
181	0x3d98271a	0.07429333
182	0x3e2b1dda	0.16710606
183	0x3dd8084e	0.10548459
184	0x3e0147ef	0.12625097
185	0x3cbbfc30	0.0229474
186	0x3efecc00	0.49765015
187	0x3e8be2b5	0.273214
188	0x3e7e4d14	0.2483409
189	0x3e2185f4	0.15773755
190	0x3d8136ef	0.06309306
191	0x3da98c5b	0.08278724
192	0x3f0d4ecb	0.55198354
193	0x3eb820f8	0.35962653
194	0x3e1c8e96	0.15288767
195	0x3ea0b6b9	0.31389406
196	0x3e2738fb	0.1633033
197	0x3d0bcf8c	0.03413348
198	0x3eda5c6e	0.42648643
199	0x3e27a7e8	0.16372645
200	0x3e3932b1	0.18085743
201	0x3e45ca5a	0.19315472
202	0x3d8a5446	0.06754355
203	0xbe23a0ef	-0.1597936
204	0x3be4ab49	0.0069784266
205	0x3eb65de2	0.35618502
206	0x3e928b7f	0.28622052
207	0x39b11433	0.0003377512
208	0x3d48f2f6	0.04905983
209	0xbe88298b	-0.26594195
210	0xbdbc9715	-0.09208504
211	0x3d895e42	0.067074314
212	0x3e45ec0d	0.19328327
213	0x3d99444f	0.07483732
214	0x3c913ef9	0.017730223
215	0x3d37ef34	0.044905856
216	0x3db750f0	0.089509845
217	0x3debb530	0.11509168
218	0x3e2242ea	0.15845838
219	0x3dc3bbfe	0.09557341
220	0x3e1148aa	0.14187875
221	0xbb5d94aa	-0.0033810535
222	0x3e46d867	0.19418488
223	0x3e409625	0.18807276
224	0x3e1fce8f	0.1560614
225	0x3e188573	0.14894657
226	0x3d8fc609	0.07020194
227	0xbd9a78fa	-0.07542606
228	0x3e1ab7b1	0.15109135
229	0x3ca66bd1	0.020315083
230	0x3e41a790	0.18911576
231	0x3e1a3a7f	0.15061377
232	0x3dfd1284	0.12357047
233	0xbccfc948	-0.025364533
234	0x3bee6606	0.0072753457
235	0xbd9cc831	-0.07655371
236	0x3c89f888	0.016842142
237	0x3dd8b266	0.10580902
238	0x3e063061	0.13104393
239	0xbcc7c4da	-0.024385858
240	0x3e1568aa	0.14590707
241	0x3e1086a2	0.14113858
242	0x3d303c92	0.043026514
243	0x3e1526fc	0.14565653
244	0x3d374c4e	0.044750504
245	0xbcf83702	-0.030299667
246	0x3e3b5a90	0.18296266
247	0xbddfd7bf	-0.10929822
248	0xbcb3b31a	-0.021935988
249	0x3de6820b	0.112552725
250	0xbc98eaa1	-0.018666567
251	0xbd35ebbd	-0.04441427
252	0x3c84495c	0.016148262
253	0x3c8af073	0.016960358
254	0xbc67d8d6	-0.014150819
255	0x3cba74b4	0.022760727

conv.4.bias f4 [64]
0	0xbe816895	-0.25275102
1	0xbe3ec526	-0.18629894
2	0xbebadbc2	-0.36495787
3	0xbebf9075	-0.374149
4	0xbe1be4b9	-0.1522397
5	0xbe8cf5a3	-0.27531156
6	0xbdb53da8	-0.088496506
7	0xbe1ff4d6	-0.15620741
8	0xbedab2dc	-0.42714584
9	0xbd717bd9	-0.058956
10	0xbe3aeaa0	-0.18253565
11	0xbd547047	-0.05186489
12	0xbd3d67c4	-0.046241537
13	0xbf00bb6f	-0.50286
14	0xbf024fe4	-0.50903153
15	0xbeebb352	-0.46035248
16	0xbe681f08	-0.22668087
17	0x3e068e6d	0.13140269
18	0xbd829825	-0.063766755
19	0xbea9fa62	-0.3319884
20	0xbec63254	-0.38710272
21	0xbe3d9b51	-0.1851628
22	0x3f06cbdf	0.5265483
23	0xbe7c599f	-0.24643563
24	0xbead1c08	-0.3381045
25	0xbe978a37	-0.29597637
26	0xbec1bfa3	-0.3784152
27	0xbe819280	-0.25307083
28	0xbea6929b	-0.32533726
29	0xbede6d31	-0.4344268
30	0xbeeb67c6	-0.4597761
31	0x3e350f36	0.17681584
32	0xbeb10bfb	-0.34579453
33	0x3eac5297	0.3365676
34	0xbe99dcfa	-0.30051404
35	0xbeb91765	-0.3615066
36	0xbecd0fd2	-0.40051132
37	0x3e8eba19	0.27876356
38	0xbe3f8bfc	-0.18705744
39	0xbe591061	-0.21197654
40	0xbebc910f	-0.3682942
41	0xbf2a188e	-0.6644372
42	0xbd516d0d	-0.05112939
43	0xbeead410	-0.45864916
44	0xbd959188	-0.073031485
45	0xbca75117	-0.020424409
46	0x3e8c7c40	0.27438545
47	0xbf0d3685	-0.55161315
48	0xbe099f96	-0.13439783
49	0xbeb75994	-0.3581053
50	0xbea59663	-0.32341298
51	0xbe8474df	-0.25870416
52	0x3c36144f	0.01111324
53	0xbdc239a8	-0.09483653
54	0xbead2c61	-0.3382292
55	0xbf081e31	-0.5317107
56	0xbeb682ca	-0.3564666
57	0xbea36453	-0.3191248
58	0xbe99fa86	-0.30073947
59	0x3e619ce8	0.22032511
60	0xbedd94dd	-0.43277636
61	0xbc984f9b	-0.018592646
62	0xbec07093	-0.37585887
63	0xbe38f04c	-0.18060416

fc.1.weight f4 [64, 1600]
0	0x3bb5fb3b	0.0055536306
1	0xbaf8abbe	-0.0018972082
2	0xbc89ab67	-0.016805364
3	0x3c8f9e75	0.017531613
4	0x3ad76456	0.0016433101
5	0xbcc6451a	-0.024202872
6	0xbc0919e9	-0.008367994
7	0x3c1d4372	0.0095986
8	0x3ca22950	0.01979509
9	0xbb3063eb	-0.0026915025
10	0xbcb389cb	-0.02191629
11	0x3c999397	0.018747134
12	0xbb11e3cc	-0.0022261022
13	0xbcaebcf2	-0.02133033
14	0xbc7fabea	-0.015604952
15	0xbcc8d5b9	-0.024515973
16	0xbc4579d3	-0.012052971
17	0xbba5b637	-0.005057122
18	0xbca05bcd	-0.019575024
19	0xbbcaf52e	-0.0061937785
20	0xbc8a2591	-0.016863616
21	0xbc29a240	-0.010353625
22	0x3a3bf450	0.0007169889
23	0xbc573de1	-0.013137312
24	0xbc027725	-0.007962977
25	0xbbb2d396	-0.005457352
26	0x3c8e30bc	0.017357223
27	0x3c434bc6	0.011919921
28	0x3c89b15f	0.01680821
29	0x3c225bae	0.009909553
30	0x3caee89f	0.021351157
31	0xbc3956e1	-0.011312217
32	0x3ca8cfc2	0.02060688
33	0xbc897504	-0.01677943
34	0x3c38fd7e	0.011290906
35	0x3bdc4c46	0.0067229597
36	0xbc8e93f5	-0.017404536
37	0x3bbeee8f	0.0058267782
38	0xbc476301	-0.0121696
39	0x3c267f5b	0.0101622
40	0xbcb04eff	-0.021522043
41	0xbbf3d5d1	-0.0074412604
42	0x3cb78053	0.022400057
43	0xbcbf0305	-0.02331687
44	0x3c1c4fce	0.009540511
45	0xbc59531b	-0.013264443
46	0x3b9d76ee	0.0048054373
47	0xbb0e3eca	-0.0021704906
48	0xbbe64612	-0.007027396
49	0x3c94dcf4	0.018171765
50	0x3ca1100e	0.019660976
51	0x3c9adb04	0.018903263
52	0xbc65256c	-0.013985973
53	0x3cd2546e	0.025675025
54	0x3b44c8cf	0.0030026918
55	0xbc8b0620	-0.016970694
56	0xbcc2aeb9	-0.023764955
57	0xbc33a078	-0.010963552
58	0x3cea478f	0.028598575
59	0xbc9db83e	-0.019252893
60	0x3c3eb85d	0.011640635
61	0xbc1ed7b5	-0.009694983
62	0x3cb60afc	0.022222035
63	0xbbf3b0c3	-0.007436843
64	0xbc96cd1e	-0.018408354
65	0x3c2af0a5	0.010433351
66	0xbc83f8ba	-0.016109813
67	0xbc0788be	-0.008272348
68	0xbc8b0f80	-0.016975164
69	0xbbb21cab	-0.0054355464
70	0x3af201ae	0.0018463635
71	0x3ca42e62	0.020041648
72	0xbbf23f80	-0.0073928237
73	0x3cf720fa	0.030167092
74	0x3cb1c04e	0.021698143
75	0x3beda84d	0.007252729
76	0x3c5f4dc1	0.013629378
77	0x3b4dbb12	0.003139202
78	0xbb04a83f	-0.0020241884
79	0x3b77fdbd	0.0037840449
80	0xbc3a4c65	-0.011370753
81	0x3ca36f96	0.01995067
82	0xbc1bdd81	-0.00951326
83	0xbbaa986f	-0.00520616
84	0xbbe8098e	-0.007081217
85	0xbcb1ed60	-0.021719635
86	0xba21553c	-0.00061543635
87	0xbca44538	-0.020052537
88	0x3c045661	0.008077235
89	0x3b55ec33	0.0032642006
90	0xbcae2758	-0.021258995
91	0x3c370b0f	0.01117207
92	0xbcb890c7	-0.022529973
93	0x3c1bf922	0.009519847
94	0x3b736d95	0.0037144173
95	0x3c2cdea8	0.010551132
96	0xbcb291b7	-0.021797998
97	0xba532e0b	-0.0008055872
98	0xbaeecb73	-0.0018218592
99	0x3bdb5e62	0.006694601
100	0x3c21db12	0.009878891
101	0xbbc484ac	-0.005997261
102	0xbc1eca2d	-0.009691757
103	0x3bc079b5	0.0058738836
104	0xbb87f160	-0.004148647
105	0xbc5d0953	-0.013490993
106	0x3c5aa982	0.013346078
107	0x3b9dc5d0	0.004814841
108	0x3cae4487	0.02127291
109	0x3bb0b561	0.005392716
110	0xbbe0d7c9	-0.006861661
111	0x3ba80c15	0.0051283934
112	0xbbeedc4c	-0.007289445
113	0x3cb2e5a6	0.02183802
114	0x3ca8eb2b	0.02061995
115	0x3ca77b13	0.020444429
116	0xbcdd7fc9	-0.027038472
117	0x3b28697a	0.0025697635
118	0x3c044404	0.008072857
119	0xbccf71fd	-0.025322909
120	0xbbee08a8	-0.0072642155
121	0x38ed0da7	0.000113035836
122	0xbc475b8f	-0.012167825
123	0x3b9af0c5	0.004728409
124	0xbc9e52da	-0.019326616
125	0xbb93b403	-0.004507543
126	0x3c5cc10a	0.0134737585
127	0xbce3b95e	-0.02779835
128	0xbd086bba	-0.03330586
129	0xbccb7be7	-0.024839355
130	0x3bb1dbed	0.0054278285
131	0xbc28aed0	-0.010295585
132	0x3bcc33b1	0.006231748
133	0x3c9f6243	0.019456035
134	0xbca35e47	-0.019942416
135	0x3c42af0b	0.011882554
136	0xbc92fc3a	-0.017942537
137	0xbb986ef6	-0.0046518994
138	0xbc822e90	-0.015891343
139	0xbbb206fe	-0.0054329624
140	0x3c0abae8	0.0084674135
141	0x3c978c9d	0.018499667
142	0x3cafd066	0.021461677
143	0x3b93cd07	0.004510525
144	0x3b9bde85	0.004756751
145	0xbb0826cd	-0.002077508
146	0xbcc7c70d	-0.024386907
147	0xbc86afd5	-0.016441265
148	0x3a7f8d09	0.0009748494
149	0xbc31008c	-0.010803353
150	0xbd064b86	-0.03278687
151	0x3b950108	0.004547242
152	0xbb08ae1c	-0.002085573
153	0xbc777208	-0.015102871
154	0xbc3c2814	-0.011484165
155	0xbcc1bdfe	-0.023650166
156	0xbd305fca	-0.0430601
157	0xbc90f02c	-0.017692648
158	0xbd27a8c1	-0.04093242
159	0xbd1a78b5	-0.03771277
160	0xbcb386ab	-0.0219148
161	0xbd1b9d1c	-0.037991628
162	0xbcb997b0	-0.022655338
163	0xbc8ccdeb	-0.017188033
164	0x3a977efe	0.0011558232
165	0xbca736b9	-0.020411836
166	0x3b8e4b8e	0.004342503
167	0xbcde4d69	-0.027136521
168	0xbd020b2f	-0.031748947
169	0xbd164e49	-0.036695752
170	0xbc389098	-0.011264943
171	0xbc091455	-0.008366664
172	0xbd0b0ca1	-0.03394759
173	0xbd0cc573	-0.03436799
174	0x3b348b93	0.0027549013
175	0x3c9f3bd1	0.019437702
176	0x3bebce80	0.0071962476
177	0xbbc88781	-0.006119669
178	0xbcd43898	-0.025905892
179	0x3c573e7e	0.013137458
180	0xbcb8f5e2	-0.022578184
181	0xbca38d59	-0.01996486
182	0xbb845fd0	-0.004039742
183	0xbd0001bf	-0.031251665
184	0x3afc5a70	0.0019253027
185	0x3c6bf7c2	0.014402332
186	0x3c80e237	0.015732868
187	0x3c047f44	0.008086983
188	0xbca68fb1	-0.02033219
189	0x3a8b181e	0.0010612046
190	0xbb9d72eb	-0.004804959
191	0x3cad2932	0.021137808
192	0xbce76be2	-0.028249685
193	0xbc3001a0	-0.010742575
194	0xbccf6927	-0.025318695
195	0x3bf08ad1	0.007340767
196	0x3c793bfb	0.015212054
197	0x3beab692	0.0071628774
198	0x3b1a1898	0.0023513194
199	0x3ba96fe7	0.0051708105
200	0x3c075b98	0.008261584
201	0x3c3f59ca	0.011679122
202	0xbcabd4ac	-0.020975433
203	0xbc76dbc6	-0.0150670465
204	0xbc8d9388	-0.017282262
205	0xbb61ec69	-0.0034473187
206	0x3c3f6d64	0.011683796
207	0xbce51c71	-0.027967663
208	0x3c35e537	0.011102012
209	0xbbaf6270	-0.005352311
210	0x3cc414b1	0.023935648
211	0x3c6cc764	0.014451835
212	0xbbe1c80a	-0.0068903016
213	0xbc95a17c	-0.018265478
214	0xbc0926a5	-0.00837103
215	0x3c442b71	0.011973248
216	0x3c5fc589	0.013657936
217	0x3c4df14b	0.012569736
218	0x3b868573	0.004105264
219	0x3c8dbf79	0.017303215
220	0xbcafa9b1	-0.02144322
221	0xbc5a5912	-0.0133269
222	0xbb913f0c	-0.0044325646
223	0xbc8504e6	-0.016237687
224	0xbcbd64ef	-0.023119418
225	0x3a045532	0.00050480955
226	0xbc1d78c6	-0.009611314
227	0x3c4027c4	0.011728231
228	0x3ba83b9d	0.0051340596
229	0xbb58a0c6	-0.0033054813
230	0x39f1458a	0.00046018913
231	0xbc913d87	-0.017729534
232	0xba94c4fb	-0.0011350209
233	0xbc577332	-0.013150023
234	0xbbf202fd	-0.00738561
235	0x3cb07346	0.021539342
236	0xbc5f9478	-0.013646238
237	0x3b868e69	0.004106332
238	0xbc1d095d	-0.009584752
239	0x3a88257c	0.0010387148
240	0xbc77ea8c	-0.015131604
241	0xbb288f31	-0.0025720114
242	0xbb84f355	-0.0040573278
243	0xbc5107c5	-0.0127582
244	0x3ad38569	0.0016137782
245	0xbc4669ee	-0.012110217
246	0xb9c7f803	-0.0003814102
247	0x3c018efd	0.007907626
248	0xbbd125f9	-0.0063827005
249	0x3c3c7a34	0.011503745
250	0x3bcc5d32	0.0062366957
251	0x3c057528	0.008145608
252	0xbc0fdf3f	-0.008781253
253	0x3c257a89	0.010100015
254	0x39f67ef2	0.00047015358
255	0xbc3c9a3d	-0.011511383

fc.1.bias f4 [64]
0	0x3c4a0cc8	0.012332149
1	0x3e55ac2f	0.20866464
2	0xbd0a2c27	-0.033733513
3	0x3b2d61f9	0.0026456101
4	0x3f0c1d0a	0.5473181
5	0x3e91dd5b	0.28489193
6	0xbd2c7885	-0.042107124
7	0xbc68f799	-0.014219188
8	0x3c63e845	0.013910358
9	0x3f018e12	0.5060741
10	0x3f0c720f	0.5486154
11	0x3e95eac6	0.2928068
12	0x3ce4b145	0.02791656
13	0x3de78ac9	0.11305768
14	0x3e437d9d	0.19090886
15	0x3f34035f	0.70317644
16	0xbba8745d	-0.0051408247
17	0x3bd734c9	0.006567572
18	0xbd3967f0	-0.04526514
19	0xbd03c8fe	-0.032174103
20	0x3ca54a3c	0.020177
21	0x3b2bd5e4	0.0026220018
22	0xbcef23d7	-0.029191894
23	0x3ec6d276	0.38832444
24	0x3be0787d	0.006850301
25	0xbcb584f9	-0.022158133
26	0xbcee3f2e	-0.02908286
27	0x3de9bcec	0.11412987
28	0x3e394009	0.18090834
29	0x3e08e5e0	0.1336894
30	0xbbabb77a	-0.005240378
31	0xbce75bd8	-0.028242037
32	0x3d48be6c	0.049009725
33	0x3f1d346a	0.614081
34	0xbc28aed7	-0.010295591
35	0x3ea34761	0.31890395
36	0xbc8c281c	-0.01710897
37	0x3f2e08b8	0.67982054
38	0x3d3bb1b9	0.045823786
39	0x3d617342	0.05504156
40	0xbd0c14d7	-0.034199562
41	0x3e82a2ad	0.25514737
42	0xba5308f4	-0.00080503454
43	0x3e95dd55	0.29270425
44	0x3d2e50b4	0.042557433
45	0x3cbdfc40	0.023191571
46	0x3e1baaf6	0.15201935
47	0xbc66487a	-0.014055366
48	0xbcad6819	-0.021167802
49	0x3ce73310	0.02822259
50	0x3d69a467	0.057041552
51	0xba61db60	-0.0008615758
52	0x3ecb2b26	0.39681357
53	0x3ed0ad9d	0.40757456
54	0xbb0ab600	-0.002116561
55	0xbc0afca7	-0.008483089
56	0xbc954373	-0.018220639
57	0xbd3ad175	-0.04560991
58	0xbd4e18f5	-0.05031677
59	0x3ee1b128	0.44080472
60	0xbbb3abb0	-0.005483113
61	0xbcb8b601	-0.022547724
62	0x3e89db9b	0.26925358
63	0x3eb3919d	0.35072032

fc.3.weight f4 [4, 64]
0	0x3c84019b	0.016114047
1	0x3e20ca25	0.15702112
2	0x3c3d4cd0	0.011553958
3	0x3d9c1262	0.07620694
4	0xbea8eab8	-0.32991576
5	0x3e01aafc	0.12662882
6	0x3dbc15db	0.09183856
7	0xbdbe19fc	-0.092823
8	0x3db4f069	0.08834917
9	0x3d5745e3	0.052556884
10	0x3c2ca5bd	0.010537562
11	0xbf6bb421	-0.9207173
12	0x3e0e250c	0.1388132
13	0x3d25826b	0.04040758
14	0xbfd71a1f	-1.6804847
15	0x3ed0502a	0.4068616
16	0x3d3c8f19	0.046034906
17	0xbe57a737	-0.21059881
18	0x3dcf9ffc	0.101379365
19	0x3cd6c9c9	0.026219266
20	0x3e0d9353	0.13825731
21	0x3c94b5c1	0.018153073
22	0xbd7bee2e	-0.061506443
23	0xbf34f5d9	-0.70687634
24	0xbc3dda48	-0.011587687
25	0xbc0f0584	-0.008729342
26	0xbdd58f12	-0.10427679
27	0xbd125329	-0.03572384
28	0x3b0a1416	0.00210691
29	0x3d53572f	0.051596817
30	0x3d7bedc7	0.06150606
31	0x3c583feb	0.013198833
32	0x3e402a03	0.18766026
33	0xbf061ac8	-0.52384615
34	0xbdc7cc05	-0.097557105
35	0x3d8c23f0	0.06842792
36	0x3d294c20	0.041332364
37	0xbe4120c8	-0.18860161
38	0xbe40ff9e	-0.1884751
39	0x3dbfa17c	0.093569726
40	0x3d1f0ec2	0.038832434
41	0xbcd3dfe5	-0.025863597
42	0xbd2b25ed	-0.041784216
43	0x3daf93d9	0.085731216
44	0xbe0f77cb	-0.14010541
45	0xbeede9c1	-0.46467403
46	0x3e5313b2	0.20612982
47	0x3e2ae57c	0.16689104
48	0x3d2b90ef	0.041886266
49	0x3e4671ce	0.1937935
50	0x3e885d95	0.26633897
51	0xbd35808d	-0.04431205
52	0xbf88c97f	-1.0686492
53	0xbd48ed28	-0.049054295
54	0xbcddaac8	-0.027058974
55	0x3e775717	0.24154316
56	0xbce40a25	-0.027836869
57	0x3d7e889f	0.06214201
58	0xbdaa99a0	-0.08330083
59	0xbd5725b2	-0.052526183
60	0x3ccda023	0.025100773
61	0xbd84b7b8	-0.06480354
62	0x3dd66b64	0.10469702
63	0x3d8c88fa	0.06862064
64	0xbc2a252d	-0.01038484
65	0xbf2104e0	-0.62898064
66	0x3dda7521	0.10666872
67	0xbda91c3c	-0.082573384
68	0xbf3f2d4a	-0.7467848
69	0x3e517db6	0.20458111
70	0xbd4f2402	-0.05057145
71	0x3c90c925	0.017674038
72	0xbd0eb2ba	-0.034838416
73	0x3cf2c1e2	0.029633466
74	0xbf5b7783	-0.85729235
75	0xbd393c03	-0.045223247
76	0x3e6cf3fb	0.23139946
77	0xbf9dfa0b	-1.2341932
78	0x3d7d049e	0.06177198
79	0x3eb30d6f	0.34971187
80	0xbc806fb2	-0.01567826
81	0xbdb71770	-0.08940017
82	0x3cdc46d7	0.026889248
83	0x3d60ccf8	0.054882973
84	0x3db2ce7b	0.08730789
85	0x3d92dac0	0.071706295
86	0x3df4e5a3	0.11957862
87	0x3d457fec	0.0482177
88	0x3d1f5ed8	0.03890881
89	0xbdae5ac8	-0.08513409
90	0x3da99470	0.08280265
91	0xbd15aa86	-0.036539577
92	0xbfae6efa	-1.3627617
93	0xbe31941a	-0.17341653
94	0x3dd0a02b	0.101867996
95	0xbdbcb834	-0.092148215
96	0x3d494d32	0.049145885
97	0x3c8b2443	0.016985064
98	0x3cea0134	0.028565027
99	0xbd3dd76d	-0.046348024
100	0xbd546af7	-0.051859822
101	0xbe0f0ee0	-0.13970518
102	0x3e274897	0.16336285
103	0x3dbeb36a	0.09311564
104	0xbdded9f9	-0.10881419
105	0xbcb18c31	-0.021673294
106	0x3afaa372	0.0019122197
107	0x3d8168d0	0.063188195
108	0x3e210831	0.15725781
109	0xbee7deb0	-0.45287085
110	0xbf587de0	-0.8456707
111	0xbdaaa813	-0.08332839
112	0xbd6e4a06	-0.058176063
113	0x3e8556e5	0.26042858
114	0x3e522e97	0.20525585
115	0xbd7fc460	-0.062443137
116	0x3d469ff8	0.0484924
117	0xbe25552f	-0.16145776
118	0xbda8a312	-0.08234228
119	0x3d6999b4	0.05703135
120	0xbcc44acb	-0.023961445
121	0xbaca2ac4	-0.0015424122
122	0xbd58530f	-0.052813586
123	0x3d2c7c02	0.04211045
124	0x3d1f1a11	0.03884322
125	0x3dd6dabe	0.104909405
126	0x3dd1c49a	0.10242577
127	0x3d0f015e	0.034913413
128	0xbcc7e181	-0.02439952
129	0xbe727a99	-0.2367958
130	0x3d8250ba	0.063630536
131	0x3d9f2388	0.07770449
132	0xbee1a435	-0.44070593
133	0x3ed18af9	0.4092634
134	0x3da5884b	0.080826364
135	0x3c3573c7	0.011074967
136	0x3de97b6c	0.11400494
137	0xbf2424d8	-0.6411872
138	0x3b278467	0.0025561096
139	0x3d6fe3ec	0.058566973
140	0x3e918319	0.28420332
141	0x3d6cb26a	0.057787336
142	0x3cf484f2	0.02984855
143	0x3e9ada2c	0.30244577
144	0x3d536479	0.05160949
145	0xbd3162f9	-0.04330728
146	0x3dafd350	0.085852265
147	0x3dc80434	0.09766427
148	0xbdc8cfaa	-0.09805234
149	0x3c3bf2d9	0.011471474
150	0x3d967227	0.073459916
151	0x3dad87ab	0.08473142
152	0x3d86eda6	0.065882966
153	0x3c6b73be	0.014370857
154	0x3cd62b4b	0.02614369
155	0x4022cae0	2.5436325
156	0xbc14703a	-0.00905996
157	0x3db726ba	0.089429334
158	0x3dc4ddbd	0.09612606
159	0xbda96e86	-0.08273034
160	0xbe53a638	-0.20668876
161	0x3c6161af	0.0137562
162	0x3d3dd28f	0.046343382
163	0xbfb308e3	-1.3987087
164	0xbd728076	-0.05920454
165	0xbe157387	-0.14594851
166	0x3e1a5719	0.15072288
167	0xbf8a2118	-1.079135
168	0x3dba4330	0.09094846
169	0xbd6eb6f5	-0.05827995
170	0x3d220230	0.039552867
171	0x3dce80d7	0.10083168
172	0x3d24fa4e	0.04027777
173	0x3e4eb4a0	0.2018609
174	0x3e82c7ee	0.2554316
175	0x3dca9192	0.098910466
176	0xbc18188f	-0.009283199
177	0xbeb941c0	-0.36182976
178	0x3e36104d	0.17779656
179	0x3d3ff488	0.046864063
180	0xbd04cbd1	-0.032420937
181	0xbe57ab42	-0.21061423
182	0xbcb81b48	-0.022473946
183	0x3deddadc	0.1161401
184	0xbdc159a7	-0.09440928
185	0x3db8f0bf	0.09030294
186	0x3d36b483	0.044605743
187	0xbf9d7241	-1.2300493
188	0x3d45608e	0.048187785
189	0x3c47d344	0.012196366
190	0x3e1dea49	0.15421404
191	0xbe9ea254	-0.30983222
192	0xbc1db1bc	-0.009624895
193	0xbc5edd84	-0.013602618
194	0xbd210c65	-0.03931846
195	0xbd47b919	-0.048760507
196	0x3d00bfd0	0.031432927
197	0x3ddd1e60	0.10796809
198	0xbd1ce7cb	-0.038306993
199	0x3d9d68e2	0.076860204
200	0xbda715e6	-0.08158474
201	0xbe09bd57	-0.13451134
202	0x3cb94a82	0.022618536
203	0xbd9488a9	-0.07252628
204	0x3d620fec	0.055190966
205	0x3d8ce232	0.06879081
206	0x3d937deb	0.07201751
207	0x3ebc0810	0.367249
208	0xbd43b44a	-0.04777936
209	0xbe5a29ea	-0.21305051
210	0x3b7cfcff	0.0038602946
211	0xbde1cd5a	-0.11025496
212	0xbe22e7a1	-0.15908672
213	0xbd75f31c	-0.0600463
214	0xbd866ce7	-0.0656374
215	0xbef776ff	-0.48332974
216	0x3d149d32	0.036282726
217	0xbcecb788	-0.028896108
218	0xbd4f3205	-0.05058481
219	0xbcb3aa05	-0.021931658
220	0xbc3bee8a	-0.011470446
221	0x3e2e60cb	0.17029111
222	0xbdd94d91	-0.10610498
223	0x3deaeb9e	0.11470722
224	0x3e6fdf51	0.23425032
225	0x3b032b7f	0.002001494
226	0x3c3fdc41	0.0117102275
227	0xbcd2ec88	-0.025747553
228	0xbd99742d	-0.07492862
229	0xbf145230	-0.5793791
230	0x3d5d31b1	0.054002468
231	0x3dde843d	0.10865066
232	0xbd7c6630	-0.06162089
233	0xbfacc09a	-1.3496277
234	0x3da32136	0.07965319
235	0xbfe6f0a1	-1.8042184
236	0x3e1e6ce8	0.15471232
237	0x3e96d63e	0.2946033
238	0x3e4eff36	0.20214543
239	0x3c9294fe	0.01789331
240	0x3df5da8f	0.12004577
241	0x3e99f71c	0.30071342
242	0xbf04921e	-0.5178546
243	0xbc9a7b0b	-0.0188575
244	0x3d6b3fb0	0.057433784
245	0xbf75b62a	-0.95981085
246	0x3cf4dfa4	0.029891796
247	0xbea0cb8e	-0.314053
248	0xbddc3502	-0.10752298
249	0x3ddf80ee	0.10913263
250	0x3ba663ea	0.0050778287
251	0x3cdd1585	0.0269878
252	0x3ddf5075	0.10904018
253	0xbd1b6704	-0.03794004
254	0xbfb1936e	-1.3873117
255	0x3d2eda53	0.04268868

fc.3.bias f4 [4]
0	0x3f0161e7	0.5054001
1	0x3f0e1223	0.55496424
2	0x3f01b658	0.5066886
3	0x3f0188ce	0.5059937
