models/v17.1/model_137000.pt (torch, 729854 bytes, 10 tensors)

conv.0.weight f4 [16, 2, 3, 3]
0	0x3e3bad0b	0.1832773
1	0x3bc988d2	0.0061503435
2	0xbd9bd537	-0.07609027
3	0x3badefff	0.005308151
4	0xbd35c7dc	-0.044380054
5	0xbd55a7e8	-0.05216208
6	0xbc939424	-0.018014975
7	0xbd3a6bae	-0.045512848
8	0x3dd8ba7b	0.10582443
9	0xbe603aef	-0.21897481
10	0x3d7e343d	0.062061537
11	0x3da3aa4c	0.07991466
12	0x3c42d875	0.011892428
13	0xbd4f2e41	-0.05058122
14	0x3d9db24c	0.07700023
15	0x3d4d50f4	0.05012603
16	0x3dbb2c86	0.091393515
17	0xbd8ac0e1	-0.0677507
18	0x3df9590e	0.12175189
19	0x3e818535	0.2529694
20	0xbd275746	-0.040854715
21	0xbdb5ce37	-0.08877223
22	0xbe869794	-0.2628752
23	0x3e12cb12	0.14335278
24	0xbe42d8b2	-0.19027975
25	0xbe8ac57a	-0.27103788
26	0xbe008c4b	-0.12553518
27	0xbd441768	-0.047873884
28	0xbcf9d07b	-0.030494919
29	0xbac63ee4	-0.0015124944
30	0x3db4c8cf	0.08827364
31	0xbed881a2	-0.42286402
32	0x3d51a6d0	0.051184475
33	0x3e6009df	0.21878766
34	0x3dd89f36	0.10577242
35	0x3e2ceddf	0.16887616
36	0x3d8bd425	0.06827573
37	0x3ea3fd58	0.32029223
38	0xbc1317c4	-0.008977834
39	0xbc03b715	-0.008039256
40	0x3e015b03	0.12632374
41	0x3e970573	0.29496345
42	0x3e4c1777	0.19930826
43	0x3edbc1e9	0.4292138
44	0x3d487232	0.04893703
45	0xbda49eb3	-0.08038082
46	0xbe9e02fc	-0.30861652
47	0x3d15cc0e	0.036571555
48	0x3cf95e5f	0.030440507
49	0xbd09a02d	-0.03360002
50	0xbea0e19f	-0.31422135
51	0xbe101c96	-0.14073405
52	0xbede077d	-0.43365088
53	0xbd32ba66	-0.043634795
54	0x3cb45b61	0.02201623
55	0xbca9c176	-0.020722132
56	0x3da054e9	0.07828695
57	0xbd15d282	-0.03657771
58	0x3c791fa5	0.015205299
59	0xbfa3e1b4	-1.2803254
60	0x3c0404a9	0.008057752
61	0xbd8b66cd	-0.06806717
62	0x3bfc217d	0.007694422
63	0xbd17343d	-0.036915053
64	0xbada0ce6	-0.0016635924
65	0xbd894a99	-0.067036815
66	0x3d2ba303	0.041903507
67	0xbc7afcd3	-0.015319067
68	0x3db6654d	0.0890604
69	0xba2153cc	-0.00061541493
70	0x3d50f2b9	0.05101273
71	0xbcc9ee10	-0.02464965
72	0x3cd6f931	0.02624187
73	0xbdbf884e	-0.0935217
74	0xbe0908ab	-0.13382213
75	0xbd9369ad	-0.071978904
76	0xbe09fc13	-0.13475065
77	0x3f1a5ec6	0.6030086
78	0xbb0d4907	-0.002155842
79	0xbc82ae20	-0.01595217
80	0xbdfe6a71	-0.12422646
81	0xbd09ce5b	-0.03364406
82	0x3db026aa	0.086011246
83	0x3e0ec92f	0.13943933
84	0x3d6477a1	0.05577815
85	0x3ded2bc8	0.11580616
86	0x3e97ef3b	0.29674706
87	0xbc0fd1eb	-0.008778076
88	0xbca23495	-0.019800464
89	0x3df1bf4d	0.11804066
90	0x3d59376f	0.05303138
91	0xbd8f8820	-0.07008386
92	0x3ef32a01	0.47492984
93	0xbd10ec0c	-0.03538136
94	0xbf154152	-0.58302796
95	0xbcd870b9	-0.026420938
96	0x3b4cee6e	0.0031270045
97	0xbe0b52fb	-0.13605873
98	0xbde75ead	-0.11297355
99	0xbd283974	-0.041070417
100	0x3cd18651	0.025576742
101	0xbcbdf952	-0.023190174
102	0x3d791709	0.060812984
103	0x3c0b6a07	0.008509166
104	0xbc4754e4	-0.012166236
105	0xbd5d2cb7	-0.05399772
106	0x3e286525	0.16444834
107	0x3daa89ca	0.083270624
108	0xbea19031	-0.31555322
109	0xbedbd84c	-0.4293846
110	0xbc9eff2b	-0.019408783
111	0x3cae6232	0.021287058
112	0x3d14d9ce	0.036340527
113	0xbf2f1056	-0.683843
114	0xbec886ca	-0.39165336
115	0xbef3ed68	-0.47642064
116	0xbd887dcb	-0.06664618
117	0x3e782c4f	0.24235652
118	0x3e7a52dc	0.24445671
119	0x3c8c08f8	0.01709412
120	0xbbb8965d	-0.005633159
121	0x3c2fadda	0.010722602
122	0x3ecd21ec	0.40064943
123	0x3e3384aa	0.17531076
124	0x3e811128	0.25208402
125	0x3d5c5421	0.05379117
126	0xbf052260	-0.5200558
127	0xbf1023e7	-0.5630478
128	0x3d6d860f	0.057989176
129	0xbde75698	-0.11295813
130	0x3de36afc	0.1110439
131	0x3e07c74d	0.13259621
132	0xbf7599d8	-0.9593787
133	0xbde0b65e	-0.10972284
134	0xbd462a35	-0.048380096
135	0x3e6cc453	0.23121767
136	0x3e8498e9	0.2589791
137	0xbd7b2db0	-0.061322868
138	0x3cafc08b	0.021454116
139	0xbceec7b3	-0.029147958
140	0x3dc390f0	0.09549129
141	0x3e867980	0.26264572
142	0x3da00080	0.07812595
143	0x3ce9bf84	0.028533705
144	0x3d649af2	0.05581183
145	0x3d81fc09	0.063469
146	0x3d03922f	0.032121833
147	0x3d9aeba0	0.07564473
148	0x3e5972cc	0.21235198
149	0xbc4ea57d	-0.012612698
150	0xbe86dfeb	-0.2634271
151	0xbed3428a	-0.41261703
152	0xbecd3433	-0.40078887
153	0xbdc0f8c3	-0.094224475
154	0x3dca6ffb	0.0988464
155	0x3cc6dc9a	0.024275113
156	0x3d381c71	0.044949
157	0x3d41f8af	0.047356304
158	0x3df9bcc8	0.1219421
159	0xbe03d266	-0.1287323
160	0x3e24d41e	0.16096541
161	0xbc808b0d	-0.015691305
162	0xbc44eee7	-0.012019849
163	0xbd87d486	-0.066323325
164	0x3d2b7d70	0.041867673
165	0x3cb07dbd	0.021544332
166	0xbd81f73c	-0.06345984
167	0x3f0c9658	0.54916906
168	0xbc623add	-0.013807979
169	0xbe243d28	-0.16038954
170	0xbdc1597c	-0.09440896
171	0xbb878cf0	-0.004136674
172	0x3d305ebb	0.043059092
173	0xbd2120be	-0.039337866
174	0xbcf3bba1	-0.029752554
175	0x3d74875c	0.0596994
176	0xbf0baf9b	-0.5456483
177	0x3c3cf32c	0.011532586
178	0x3e14f3b9	0.14546098
179	0x3d747238	0.05967924
180	0x3cda2d08	0.0266328
181	0xbc4fc68a	-0.012681613
182	0xbb82cfce	-0.0039920574
183	0xbd9ed621	-0.077556856
184	0x3f0e306c	0.55542636
185	0xbdbb9fa7	-0.09161311
186	0x3c434b37	0.011919788
187	0xbd63e16f	-0.055634912
188	0x3d505084	0.050858036
189	0xbc5de83c	-0.0135441385
190	0x3cc499f9	0.023999201
191	0xbc6f00a1	-0.014587552
192	0x3da4ee93	0.08053317
193	0x3ec01238	0.375139
194	0x3dad6fc2	0.08468582
195	0x3b80be45	0.003928932
196	0x3d792a33	0.06083126
197	0xbd8595a3	-0.065226816
198	0xbc8ab76d	-0.016933167
199	0x3d5b7ac6	0.053583883
200	0xbd96ef40	-0.07369852
201	0x3c8342fd	0.016023153
202	0x3f529382	0.8225633
203	0x3d05ab2d	0.03263395
204	0xbdb4c2cb	-0.08826216
205	0x3d0faca6	0.03507676
206	0xbdc83446	-0.09775595
207	0x3cb41e66	0.021987151
208	0xbd86df92	-0.065856114
209	0x3d72d100	0.05928135
210	0xbcf33de3	-0.029692596
211	0xbdb21a85	-0.086964644
212	0xbd39e19f	-0.045381185
213	0x3db58fd1	0.088653214
214	0xbd5beef4	-0.05369468
215	0x3d9fdc8f	0.0780574
216	0xbdc9ee2a	-0.09859879
217	0xbe3c2c80	-0.1837635
218	0xbda0b91d	-0.078478076
219	0xbdc618f9	-0.09672732
220	0xc0079936	-2.1187263
221	0x3cfe4436	0.031038385
222	0xbde5da5e	-0.11223291
223	0xbe1824fe	-0.14857861
224	0xbe107c26	-0.14109859
225	0x3de31aa1	0.110890634
226	0x3dfcf24e	0.123509035
227	0x3dcca4e0	0.09992385
228	0x3d7a4317	0.061099138
229	0x3ec1867a	0.3779791
230	0xbdba38cd	-0.09092865
231	0x3e0f0a1a	0.13968697
232	0x3d924371	0.0714177
233	0x3e404e52	0.18779877
234	0xbd8abcd9	-0.06774301
235	0xbd5f0c43	-0.054455053
236	0xbd838196	-0.06421201
237	0xbd758559	-0.059941623
238	0xbee85ab2	-0.45381695
239	0xbf57a62c	-0.84237933
240	0x3e46881b	0.19387858
241	0xbdd96e95	-0.10616795
242	0xbdaafe32	-0.08349265
243	0xbcaf8d34	-0.021429636
244	0x3d98650c	0.07441148
245	0x3c2c3cd6	0.010512551
246	0x3b8b01cd	0.004242158
247	0x3c8c5d52	0.017134342
248	0x3eebc3bf	0.4604778
249	0x3df38a2d	0.11891589
250	0x3e13a7b4	0.14419442
251	0x3d9ca6df	0.07649016
252	0xbf0de7e9	-0.5543199
253	0xbf0cd764	-0.5501616
254	0xbf6e6131	-0.9311705
255	0xbdfd869c	-0.1237919

conv.0.bias f4 [16]
0	0xbd6b6645	-0.05747058
1	0xbe84eae0	-0.25960445
2	0xbde9012f	-0.11377179
3	0x3f1269aa	0.5719248
4	0xbf10166c	-0.56284213
5	0xbe7fd0aa	-0.24981943
6	0x3cf207d1	0.029544743
7	0xbe2c16f3	-0.1680563
8	0xbec72b5a	-0.38900262
9	0xbd57eb52	-0.052714653
10	0xbf2940cd	-0.66114503
11	0xbed2770d	-0.41106454
12	0x3e9d663a	0.30742055
13	0xbe70b452	-0.23506287
14	0xbc843c74	-0.016142108
15	0xbe617b5d	-0.22019716

conv.2.weight f4 [32, 16, 3, 3]
0	0xbd7f056b	-0.062261026
1	0x3c6bae31	0.014384792
2	0xbd1d594d	-0.038415242
3	0xbc88f548	-0.016718522
4	0xbd85d62d	-0.065349914
5	0xbca7b6a7	-0.020472838
6	0x3db1b4fb	0.086770974
7	0xbcc728a3	-0.02431137
8	0xbdbc4b44	-0.09194043
9	0x3d8e7e07	0.069576316
10	0x3dd1d445	0.10245565
11	0x3dad9264	0.084751874
12	0x3e105778	0.14095867
13	0x3de8a96c	0.1136044
14	0x3cfc927e	0.030831572
15	0x3d4840ac	0.0488898
16	0xbd20ee14	-0.03928955
17	0xbd2e166d	-0.042501856
18	0x3e33baf1	0.17551781
19	0xbcef08a0	-0.029178917
20	0xbd434794	-0.047675684
21	0xbd032eff	-0.03202724
22	0xbbc5c640	-0.006035596
23	0xbe677426	-0.22602901
24	0xbdfa4e6b	-0.12221988
25	0xbe792f67	-0.24334489
26	0xbe41f9a4	-0.18942887
27	0x3c5c69f9	0.013453
28	0xbd086ec9	-0.033308778
29	0xbe04a1c4	-0.12952334
30	0x3c465020	0.012104064
31	0xbd85a490	-0.065255284
32	0xbd92ddbc	-0.07171199
33	0x3d5bbda5	0.053647656
34	0xbde80ae1	-0.113302
35	0xbeb3c1a0	-0.35108662
36	0x3d9db9dc	0.077014655
37	0x3de7f637	0.11326259
38	0xbe91086d	-0.2832674
39	0xbe12c770	-0.14333892
40	0xbe25958e	-0.16170332
41	0xbeab41a6	-0.33448523
42	0x3deb7eaa	0.11498769
43	0xbdf793b7	-0.12088721
44	0xbe328630	-0.17434001
45	0x3d2d456f	0.042302545
46	0x3cd97025	0.026542732
47	0xbdb5c84a	-0.08876093
48	0x3e2a67ba	0.16641131
49	0x3db730e9	0.08944876
50	0xbe83e577	-0.25761005
51	0x3da33844	0.07969716
52	0x3d8fb36c	0.07016644
53	0xbe02cef1	-0.12774254
54	0x3d354b0f	0.044261035
55	0x3e3f7c0d	0.18699665
56	0x3c5e5f87	0.01357258
57	0x3e1ef69a	0.15523759
58	0x3d3f6580	0.046727657
59	0xbd34a7d1	-0.044105355
60	0x3d8ab1aa	0.06772168
61	0x3cabf653	0.02099148
62	0xbe34ed86	-0.17668733
63	0xbe459fb9	-0.1929921
64	0xbd185394	-0.03718908
65	0x3c9804d8	0.018556997
66	0xbd890e86	-0.06692223
67	0xbc8c6d58	-0.017141983
68	0xbd2ae173	-0.04171891
69	0xbda103ec	-0.07862076
70	0xbda5ddc9	-0.08098943
71	0xbe072b52	-0.13200119
72	0x3dc072f7	0.09396928
73	0x3d891ea7	0.066952996
74	0x3d13d3f5	0.03609081
75	0xbd91b0fa	-0.07113834
76	0x3e17ff76	0.14843544
77	0xbe046064	-0.12927395
78	0x3dca2dfd	0.09872053
79	0xbd42f8b4	-0.047600463
80	0xbe1e7435	-0.15474017
81	0x3dc4cc7a	0.09609313
82	0xbe715b16	-0.23569903
83	0x3d2fe31f	0.04294121
84	0x3dde2ce7	0.10848408
85	0xbe1d595f	-0.15366124
86	0xbd215ad5	-0.039393265
87	0xbe2d463e	-0.16921327
88	0xbe6a0088	-0.22851765
89	0x3c989584	0.018625982
90	0x3d5ebea6	0.054381035
91	0x3b730532	0.0037081954
92	0xbe029773	-0.12753086
93	0xbce5a958	-0.028034851
94	0x39def3a9	0.0004252468
95	0xbe173a83	-0.14768414
96	0xbd9bc30d	-0.07605562
97	0xbcfd3ba7	-0.030912234
98	0xbd92ceea	-0.07168372
99	0x3c63f7a3	0.013914022
100	0xbb4a436e	-0.0030862945
101	0xbd9733d5	-0.07382933
102	0xbe16e14d	-0.14734383
103	0xbe52eeca	-0.20598903
104	0xbe11ddb4	-0.1424473
105	0xbe000de5	-0.125053
106	0xbe0de323	-0.13856177
107	0x3bc41347	0.0059837434
108	0x3c534f9f	0.012897401
109	0x3d2e75bc	0.04259275
110	0x3d0ccfc8	0.034377843
111	0xbe04b829	-0.12960877
112	0xbb7fdf37	-0.0039042959
113	0x3ccbff27	0.02490194
114	0xbe09cf09	-0.13457884
115	0xbe1988ef	-0.14993642
116	0xbce6e373	-0.028184628
117	0xbbb6775d	-0.0055684284
118	0x3c5e241d	0.013558415
119	0x3d52216e	0.051301412
120	0x3d85d4cf	0.06534731
121	0x3c9913ce	0.018686201
122	0xbcb40fd1	-0.021980198
123	0xbd151f80	-0.036406994
124	0xbd2ec430	-0.042667568
125	0x3caa8d0b	0.020819208
126	0x3cbde773	0.023181653
127	0x3b501a8c	0.0031754104
128	0xbbe95861	-0.0071211313
129	0xbd025c92	-0.031826563
130	0xbe343f60	-0.176023
131	0xbdc200cc	-0.09472808
132	0xbd1b43ab	-0.03790633
133	0xbd2c877d	-0.0421214
134	0x3db2736b	0.087134205
135	0xbe066e0b	-0.13127916
136	0xbc5ada81	-0.013357759
137	0xbdb53e38	-0.08849758
138	0xbdd0d068	-0.10196
139	0x3dda4005	0.10656742
140	0x3c24f4b6	0.010068109
141	0xbdb50ecf	-0.08840715
142	0xbe1a8517	-0.15089832
143	0xbd8f8178	-0.07007116
144	0x3e6f8e2f	0.23394082
145	0xbdb64a6a	-0.08900912
146	0x3e39c648	0.18142045
147	0x3d816c31	0.06319464
148	0x3e15c92f	0.14627527
149	0xbd21be47	-0.039488103
150	0xbd604ab7	-0.054758754
151	0x3cd11964	0.025524803
152	0xbdb963a5	-0.09052209
153	0x3e13f6f8	0.1444968
154	0xbc9612a3	-0.018319434
155	0x3e82a9af	0.25520083
156	0xbe5c7c58	-0.21531808
157	0x3e4185fc	0.18898767
158	0x3d9cf8ec	0.076646656
159	0x3e3ba262	0.18323663
160	0xbd10c7d8	-0.035346836
161	0x3cc607db	0.024173668
162	0xbe1772c1	-0.14789869
163	0x3e9a7022	0.30163676
164	0x3e313c10	0.17308068
165	0x3e98767c	0.29777896
166	0xbe9297f8	-0.28631568
167	0xbe05d241	-0.13068487
168	0x3e85303f	0.2601337
169	0xbb7ee8ec	-0.0038896156
170	0x3d9c9e26	0.07647352
171	0xc00beef8	-2.1864605
172	0x3dddfd72	0.108393565
173	0xbda336e8	-0.07969457
174	0xbd14af04	-0.03629972
175	0xbc859006	-0.016304027
176	0x3c1e7c51	0.009673194
177	0xbc6125dc	-0.013741937
178	0xbd5990eb	-0.05311672
179	0xbd121c96	-0.035671793
180	0xbf873003	-1.0561527
181	0x3ec2af98	0.38024592
182	0xbce43662	-0.027857963
183	0x3b7075e8	0.0036691371
184	0x3d8bfd63	0.06835439
185	0x3dc86c48	0.09786278
186	0x3d05b5a9	0.032643948
187	0xbd4a02d5	-0.049319107
188	0xbc1c8416	-0.009552976
189	0xbe3d5f3f	-0.18493365
190	0xbf311182	-0.6916734
191	0xbd90cd7d	-0.07070444
192	0xbea0fce5	-0.31442943
193	0xbc08306b	-0.008312325
194	0xbe585ce0	-0.21129179
195	0xbde571cc	-0.11203346
196	0x3c0d71bf	0.008633076
197	0x3c7ca7f6	0.015420904
198	0x3e1da680	0.15395546
199	0xbe16253a	-0.14662638
200	0xbde801c8	-0.11328465
201	0x3d862c4e	0.06551419
202	0xbe092b26	-0.13395366
203	0xbdf459df	-0.11931204
204	0x3e28ef58	0.16497552
205	0x3d135d57	0.035977688
206	0xbb77e387	-0.0037824826
207	0x3db5ebb0	0.088828444
208	0xbd30ee48	-0.043195993
209	0xbe02393f	-0.1271715
210	0x3dfe1559	0.124064155
211	0xbdd9e3b7	-0.10639136
212	0xbe2ca565	-0.16859968
213	0x3e9e1408	0.30874658
214	0x3cfae9da	0.030629087
215	0x3de2a63a	0.110668615
216	0x3e49d824	0.19711357
217	0xbde3ed01	-0.11129189
218	0x3e2b2bfa	0.16715994
219	0x3d36ebd1	0.044658486
220	0x3e9f5a2a	0.31123477
221	0x3a5ad67a	0.00083479995
222	0x3e2bd7f8	0.16781604
223	0x3e13a535	0.1441849
224	0xbe232350	-0.1593144
225	0x3db1f5d2	0.08689465
226	0xbef92f06	-0.4866869
227	0xbdea69b0	-0.114459395
228	0x3de23345	0.11044935
229	0xbc170ba7	-0.009219087
230	0xbe388b4f	-0.18021892
231	0x3ee9685f	0.4558744
232	0x3c738ea0	0.014865547
233	0xbda06b5d	-0.07832978
234	0xbd5904e7	-0.05298319
235	0xbf02ab11	-0.51042277
236	0x3edcdc90	0.43137026
237	0x3d519004	0.051162735
238	0xbe299a7f	-0.16562842
239	0xbc6b0171	-0.014343605
240	0xbb52c5b8	-0.0032161307
241	0xbd1a8e65	-0.037733454
242	0xbc228b84	-0.009920958
243	0x3e1ecd89	0.15508093
244	0xbf25b0a8	-0.6472268
245	0x3e3f1fba	0.18664446
246	0x3dc8128d	0.09769163
247	0xbdafb58c	-0.08579549
248	0xbd71b4e0	-0.059010386
249	0xbcb479ec	-0.022030793
250	0x3c6b08c9	0.014345356
251	0x3c36dae0	0.011160582
252	0x3db0103b	0.08596846
253	0xbf94b191	-1.1616689
254	0xbf23232f	-0.6372556
255	0x3e85cd7d	0.26133338

conv.2.bias f4 [32]
0	0x3cb732fb	0.022363177
1	0x3d3e218b	0.046418708
2	0xbd85a09f	-0.06524777
3	0x3d81de7f	0.06341266
4	0x3d06d582	0.03291846
5	0xbd1b1c69	-0.03786889
6	0x3e58b9f3	0.21164684
7	0xbd93de42	-0.07220127
8	0xbe6c8f3d	-0.23101516
9	0xbe9c6a6d	-0.30549946
10	0x3e0c427d	0.13697238
11	0x3e87c528	0.26517606
12	0xbdb6ac1d	-0.08919547
13	0x3d637f31	0.05554122
14	0x3dc83ca2	0.0977719
15	0xbe05bc24	-0.13060051
16	0x3c9ed873	0.01939032
17	0x3c8d3938	0.017239198
18	0x3e5f294d	0.21793099
19	0xbddfe333	-0.10932007
20	0x3dba09b2	0.090838805
21	0xbd35c34e	-0.04437571
22	0xbafaa128	-0.0019121515
23	0xbdedefed	-0.11618028
24	0xbde4dd2f	-0.11175
25	0x3e9b7902	0.3036576
26	0x3dd80129	0.10547096
27	0xbe027360	-0.12739325
28	0xbd0f2cf6	-0.034954987
29	0x3d065369	0.03279439
30	0xbdae458e	-0.0850936
31	0x3e0efcf4	0.13963681

conv.4.weight f4 [64, 32, 6, 6]
0	0xbc49014c	-0.012268376
1	0xbd6dd111	-0.05806071
2	0x3d88f9d0	0.06688273
3	0xbc7bfd02	-0.015380146
4	0x3d3ec74b	0.04657678
5	0xbc7fdc02	-0.015616419
6	0xbd056288	-0.03256467
7	0x3d258680	0.040411472
8	0x3cef2f28	0.02919729
9	0x3cb36552	0.0218989
10	0xbc887033	-0.016655063
11	0x3d1ff4c8	0.0390518
12	0xbb5cb596	-0.003367757
13	0x3cc5c9c9	0.02414407
14	0xbcd16767	-0.025562001
15	0xbd3488ae	-0.04407566
16	0xbbe26ea9	-0.0069101644
17	0x3cec0b96	0.028814118
18	0x3c433f9b	0.01191702
19	0x3d96d9aa	0.07365735
20	0xba9f5935	-0.0012157323
21	0xbd429363	-0.04750384
22	0xbd4435ef	-0.047902998
23	0x3da34310	0.079717755
24	0x3cca4848	0.02469267
25	0xbb020d2f	-0.0019844284
26	0xbd6c84e6	-0.05774393
27	0x3cfc0059	0.030761885
28	0xbaf19de4	-0.0018433896
29	0xbb1871ae	-0.0023261118
30	0x3c3a5f01	0.01137519
31	0xbc893572	-0.016749118
32	0xbd05b2a9	-0.032641087
33	0x3b8d84be	0.0043188026
34	0xbd2726cd	-0.040808488
35	0xbbb3857c	-0.005478559
36	0xbd865ff9	-0.06561274
37	0xbe13f881	-0.14450265
38	0x3e1957c4	0.14974886
39	0xbe355378	-0.17707622
40	0xbeeb4c3d	-0.45956603
41	0xbe281577	-0.16414438
42	0xbd2be2a2	-0.04196418
43	0x3cc4a94a	0.024006505
44	0x3c650226	0.013977563
45	0xbe869ade	-0.2629003
46	0xbe8ae48c	-0.27127492
47	0x3e85ba0d	0.26118508
48	0xbf03ade8	-0.51437235
49	0x3d9246d7	0.07142418
50	0xbda478bb	-0.0803084
51	0x3d6b9c22	0.057521947
52	0x3e0f2e74	0.13982564
53	0x3e279aea	0.16367689
54	0x3d88692f	0.06660687
55	0xbe2aef27	-0.16692792
56	0x3d6f13b9	0.05836842
57	0xbd95c362	-0.07312657
58	0x3b99866e	0.0046852147
59	0x3e226ff4	0.15863019
60	0x3d2352ff	0.039874073
61	0x3d35bf4e	0.044371895
62	0x3d2ccf60	0.042189956
63	0x3d82ea1a	0.063923076
64	0xbcff6700	-0.031177044
65	0x3dc30ff6	0.09524529
66	0xbe594a74	-0.21219808
67	0x3e350a8c	0.17679805
68	0x3e841009	0.25793484
69	0x3e37ff08	0.1796838
70	0x3e57a3de	0.21058604
71	0xbf241823	-0.6409933
72	0xbc28b531	-0.010297106
73	0xbd21044b	-0.039310735
74	0xbcbbabd5	-0.022909084
75	0xbd4675e8	-0.048452288
76	0x3c2bcdda	0.010486091
77	0xbccbc66e	-0.024874892
78	0xbc091c39	-0.008368545
79	0x3ba1a145	0.004932555
80	0xbadc028f	-0.001678543
81	0x3c74520e	0.0149121415
82	0x3cb5d546	0.022196423
83	0x3c2adcb8	0.0104286
84	0x3c273495	0.010205408
85	0xbc11e3a5	-0.008904372
86	0xbce4e35d	-0.027940447
87	0x3cc4cf8a	0.024024744
88	0x3c6d76d2	0.014493661
89	0xbc2b0679	-0.010438555
90	0xbcb37dbf	-0.021910546
91	0x3cc9d486	0.024637472
92	0xbcab69a3	-0.020924395
93	0x3c829717	0.015941186
94	0xbd1d6e9b	-0.03843556
95	0xbc17d750	-0.009267643
96	0xbb098326	-0.0020982712
97	0x3d198fb0	0.037490547
98	0x3b158dd2	0.0022820127
99	0x3cb79e95	0.022414485
100	0xbc1f3d52	-0.00971921
101	0x3cf9b67b	0.030482521
102	0x3ce413f7	0.027841551
103	0x3d07449e	0.033024423
104	0x3d2da9c2	0.04239822
105	0x3c32567e	0.010884879
106	0xbb94b141	-0.004537732
107	0x3b708154	0.003669818
108	0xbe06e01d	-0.1317143
109	0x3e110466	0.14161834
110	0xbd4ac5c6	-0.049505018
111	0xbea04b8d	-0.3130764
112	0xbf073bd1	-0.5282565
113	0x3e6b5757	0.22982536
114	0xbd5cab24	-0.05387415
115	0x3e8900a1	0.26758292
116	0x3d145f25	0.03622355
117	0xbd173c2b	-0.036922615
118	0x3ebe9a54	0.37227118
119	0xbed2d999	-0.4118164
120	0x3eb181f1	0.3466945
121	0x3e7027d9	0.234527
122	0x3e52c6ed	0.20583697
123	0x3df99b37	0.12187808
124	0x3e5a555c	0.21321625
125	0x3e9f8c5b	0.3116177
126	0x3e969ae2	0.2941504
127	0x3e8dc3af	0.27688357
128	0x3e63dc49	0.22252001
129	0xbc28b20e	-0.010296358
130	0x3e965264	0.29359734
131	0x3e8d25ab	0.275678
132	0x3d44928b	0.047991317
133	0x3eb52c64	0.3538543
134	0x3eab5d4d	0.3346962
135	0x3e81eaf0	0.25374556
136	0x3ec0ce68	0.37657475
137	0xbf098ab6	-0.5372728
138	0xbc6c9156	-0.014438948
139	0xbee8af29	-0.45446137
140	0xbf08c87f	-0.5343093
141	0xbe3d1ad2	-0.18467262
142	0x3e287c48	0.1645366
143	0xbec73475	-0.3890721
144	0x3d33be98	0.043882936
145	0xbdd557f8	-0.10417169
146	0xbdf10b7c	-0.117697686
147	0x3dc8c1f9	0.09802622
148	0x3ea19c3e	0.31564516
149	0xbc0f46dd	-0.0087449225
150	0x3eafdcf9	0.34348276
151	0x3ea5954d	0.3234047
152	0xbec3d873	-0.38251075
153	0xbea3bd6f	-0.31980464
154	0xbeefa4ec	-0.46805513
155	0xbdbbfc3b	-0.091789685
156	0xbe58d077	-0.21173273
157	0x3de9b6ed	0.114118434
158	0xbeb95bbf	-0.3620281
159	0xbd847d5f	-0.06469225
160	0x3e2d3ce8	0.16917765
161	0xbec1e4a5	-0.37869754
162	0x3e7ec7ba	0.24880877
163	0xbdb9098f	-0.09035026
164	0xbe82ccdd	-0.25546923
165	0xbe3f5790	-0.18685746
166	0xbe930af9	-0.2871931
167	0x3cb14dd8	0.021643564
168	0x3e971e8a	0.29515487
169	0xbd8eebfc	-0.06978604
170	0xbc9c1544	-0.019053109
171	0xbc8cc5d1	-0.01718417
172	0x3d51377c	0.051078305
173	0x3e382750	0.17983747
174	0xbd4daf95	-0.050216276
175	0x3d8793c8	0.06619984
176	0x3c037e77	0.008025757
177	0xbd9c17c5	-0.07621721
178	0x3d329246	0.04359653
179	0xbf004aa3	-0.50113887
180	0x3d3556de	0.044272296
181	0x3cd34332	0.025788877
182	0x3ddfe6e0	0.10932708
183	0x3dcf28f3	0.10115232
184	0xbd672fc4	-0.056442037
185	0xbd163f19	-0.03668127
186	0x3ed0b6cf	0.40764472
187	0x3dc7ac6f	0.09749686
188	0x3e43e160	0.19128942
189	0x3e4508b7	0.19241606
190	0x3cef0041	0.029174926
191	0x3d689225	0.05678
192	0x3efd2634	0.4944321
193	0x3e132d2f	0.14372705
194	0x3e67b08f	0.22625946
195	0x3ea28e59	0.31749228
196	0x3e136143	0.14392571
197	0x3ce9dd72	0.028547976
198	0x3ebde0a3	0.37085447
199	0x3e3657fb	0.17807
200	0x3e85e799	0.26153257
201	0x3e7bca28	0.24588835
202	0x3d8b0408	0.06787878
203	0xbd7ef47c	-0.062244877
204	0xbcd2ca5c	-0.025731258
205	0x3ea29c86	0.31760043
206	0x3e97ed14	0.29673064
207	0x3da048b8	0.0782637
208	0x3d68ca58	0.056833595
209	0xbe693940	-0.22775745
210	0xbdceed74	-0.10103884
211	0x3dd2c2c6	0.10291056
212	0x3e140be7	0.14457665
213	0x3d77b1ae	0.060472183
214	0x3cf480e6	0.02984662
215	0x3bd06172	0.0063592726
216	0xbd1091ea	-0.035295404
217	0x3cd19ffe	0.025588986
218	0x3e3dbf07	0.18529902
219	0x3da025ca	0.07819708
220	0x3de6da47	0.11272102
221	0x3c81223d	0.015763396
222	0x3e037e1d	0.12841077
223	0x3de737e9	0.11289961
224	0x3de688c1	0.112565525
225	0x3e1859bc	0.14877981
226	0x3d9cb26a	0.07651217
227	0x3c98fb43	0.018674498
228	0x3e60e3b2	0.21961859
229	0x3c2c2c56	0.010508617
230	0x3e0a581e	0.13510177
231	0x3d9281ad	0.0715364
232	0x3d9b8fe5	0.07595805
233	0x3d424aa4	0.047434464
234	0x3c6258e5	0.013815139
235	0xbd8d3586	-0.068949744
236	0x3d375715	0.044760782
237	0x3e0855f6	0.13314041
238	0x3e26e78e	0.16299269
239	0x3c126b40	0.008936703
240	0x3db9e972	0.09077729
241	0x3dbf6197	0.09344786
242	0x3c1f8502	0.009736301
243	0x3e0b1e9a	0.13585892
244	0x3d7ed16a	0.06221143
245	0x3cbde508	0.0231805
246	0x3be56631	0.0070007076
247	0xbe15701e	-0.1459355
248	0xbc40c560	-0.011765808
249	0x3e3d0323	0.18458228
250	0x39f7974d	0.0004722424
251	0xbe104e68	-0.1409241
252	0x3c84495c	0.016148262
253	0x3c8af073	0.016960358
254	0xbc67d8d6	-0.014150819
255	0x3cba74b4	0.022760727

conv.4.bias f4 [64]
0	0xbe3f8a9d	-0.1870522
1	0xbd85ec16	-0.065391704
2	0xbe9fd7d2	-0.31219345
3	0xbe7b00e1	-0.24512054
4	0xbdcf3a2b	-0.101185165
5	0xbe671d51	-0.22569777
6	0xbda3ffac	-0.0800775
7	0xbe09d99e	-0.1346192
8	0xbea55a27	-0.32295343
9	0xbd3210c1	-0.04347301
10	0xbe063e06	-0.13109598
11	0xbd3e5817	-0.046470728
12	0xbd3d67c4	-0.046241537
13	0xbed0e6ad	-0.40800992
14	0xbec00f84	-0.37511837
15	0xbea0ad76	-0.3138234
16	0xbe332dcf	-0.17497943
17	0x3e1537b9	0.14572038
18	0xbd829825	-0.063766755
19	0xbe44283c	-0.19155973
20	0xbe9ba679	-0.30400446
21	0xbe2018a7	-0.15634404
22	0x3ee8fb26	0.4550411
23	0xbe4cf028	-0.20013487
24	0xbe75c34c	-0.24000281
25	0xbe7d5341	-0.2473879
26	0xbe9b053b	-0.30277428
27	0xbe4ed3a7	-0.20197926
28	0xbe90f33d	-0.28310576
29	0xbea5a7f5	-0.32354704
30	0xbea9be69	-0.33153084
31	0x3e2fa963	0.1715446
32	0xbe8c20f6	-0.27368897
33	0x3ea94480	0.33060074
34	0xbdfdc2be	-0.1239066
35	0xbe9e6e24	-0.30943406
36	0xbe8e31df	-0.27772424
37	0x3e83971a	0.2570122
38	0xbe26e4a6	-0.1629816
39	0xbe46344b	-0.19355886
40	0xbea63c25	-0.32467762
41	0xbefe43bc	-0.49661052
42	0xbd516d0d	-0.05112939
43	0xbeb76522	-0.35819346
44	0xbd959188	-0.073031485
45	0xbc069822	-0.008214982
46	0x3e8c8370	0.2744403
47	0xbed350bd	-0.41272536
48	0xbdb94ada	-0.0904748
49	0xbe8457a1	-0.25848106
50	0xbe5d5d91	-0.21617724
51	0xbe3371f4	-0.17523938
52	0xbc1d0f59	-0.009586179
53	0xbdb85abf	-0.090016834
54	0xbe7c3239	-0.24628533
55	0xbecd674a	-0.40117866
56	0xbea5160b	-0.3224338
57	0xbe768acb	-0.24076383
58	0xbe6adfb3	-0.22936897
59	0x3e326ac9	0.17423548
60	0xbeb5631c	-0.35427177
61	0xbb8e335f	-0.00433962
62	0xbe8900e0	-0.2675848
63	0xbe2f2c7f	-0.17106818

fc.1.weight f4 [64, 1600]
0	0x3bb5fb3b	0.0055536306
1	0xbaf8abbe	-0.0018972082
2	0xbc89ab67	-0.016805364
3	0x3c8f9e75	0.017531613
4	0x3ad76456	0.0016433101
5	0xbcc6451a	-0.024202872
6	0xbc0919e9	-0.008367994
7	0x3c1d4372	0.0095986
8	0x3ca22950	0.01979509
9	0xbb3063eb	-0.0026915025
10	0xbcb389cb	-0.02191629
11	0x3c999397	0.018747134
12	0xbb11e3cc	-0.0022261022
13	0xbcaebcf2	-0.02133033
14	0xbc7fabea	-0.015604952
15	0xbcc8d5b9	-0.024515973
16	0xbc4579d3	-0.012052971
17	0xbba5b637	-0.005057122
18	0xbca05bcd	-0.019575024
19	0xbbcaf52e	-0.0061937785
20	0xbc8a2591	-0.016863616
21	0xbc29a240	-0.010353625
22	0x3a3bf450	0.0007169889
23	0xbc573de1	-0.013137312
24	0xbc027725	-0.007962977
25	0xbbb2d396	-0.005457352
26	0x3c8e30bc	0.017357223
27	0x3c434bc6	0.011919921
28	0x3c89b15f	0.01680821
29	0x3c225bae	0.009909553
30	0x3caee89f	0.021351157
31	0xbc3956e1	-0.011312217
32	0x3ca8cfc2	0.02060688
33	0xbc897504	-0.01677943
34	0x3c38fd7e	0.011290906
35	0x3bdc4c46	0.0067229597
36	0xbc8e93f5	-0.017404536
37	0x3bbeee8f	0.0058267782
38	0xbc476301	-0.0121696
39	0x3c267f5b	0.0101622
40	0xbcb04eff	-0.021522043
41	0xbbf3d5d1	-0.0074412604
42	0x3cb78053	0.022400057
43	0xbcbf0305	-0.02331687
44	0x3c1c4fce	0.009540511
45	0xbc59531b	-0.013264443
46	0x3b9d76ee	0.0048054373
47	0xbb0e3eca	-0.0021704906
48	0xbbe64612	-0.007027396
49	0x3c94dcf4	0.018171765
50	0x3ca1100e	0.019660976
51	0x3c9adb04	0.018903263
52	0xbc65256c	-0.013985973
53	0x3cd2546e	0.025675025
54	0x3b44c8cf	0.0030026918
55	0xbc8b0620	-0.016970694
56	0xbcc2aeb9	-0.023764955
57	0xbc33a078	-0.010963552
58	0x3cea478f	0.028598575
59	0xbc9db83e	-0.019252893
60	0x3c3eb85d	0.011640635
61	0xbc1ed7b5	-0.009694983
62	0x3cb60afc	0.022222035
63	0xbbf3b0c3	-0.007436843
64	0xbc96cd1e	-0.018408354
65	0x3c2af0a5	0.010433351
66	0xbc83f8ba	-0.016109813
67	0xbc0788be	-0.008272348
68	0xbc8b0f80	-0.016975164
69	0xbbb21cab	-0.0054355464
70	0x3af201ae	0.0018463635
71	0x3ca42e62	0.020041648
72	0xbbf23f80	-0.0073928237
73	0x3cf720fa	0.030167092
74	0x3cb1c04e	0.021698143
75	0x3beda84d	0.007252729
76	0x3c5f4dc1	0.013629378
77	0x3b4dbb12	0.003139202
78	0xbb04a83f	-0.0020241884
79	0x3b77fdbd	0.0037840449
80	0xbc3a4c65	-0.011370753
81	0x3ca36f96	0.01995067
82	0xbc1bdd81	-0.00951326
83	0xbbaa986f	-0.00520616
84	0xbbe8098e	-0.007081217
85	0xbcb1ed60	-0.021719635
86	0xba21553c	-0.00061543635
87	0xbca44538	-0.020052537
88	0x3c045661	0.008077235
89	0x3b55ec33	0.0032642006
90	0xbcae2758	-0.021258995
91	0x3c370b0f	0.01117207
92	0xbcb890c7	-0.022529973
93	0x3c1bf922	0.009519847
94	0x3b736d95	0.0037144173
95	0x3c2cdea8	0.010551132
96	0xbcb291b7	-0.021797998
97	0xba532e0b	-0.0008055872
98	0xbaeecb73	-0.0018218592
99	0x3bdb5e62	0.006694601
100	0x3c21db12	0.009878891
101	0xbbc484ac	-0.005997261
102	0xbc1eca2d	-0.009691757
103	0x3bc079b5	0.0058738836
104	0xbb87f160	-0.004148647
105	0xbc5d0953	-0.013490993
106	0x3c5aa982	0.013346078
107	0x3b9dc5d0	0.004814841
108	0x3cae4487	0.02127291
109	0x3bb0b561	0.005392716
110	0xbbe0d7c9	-0.006861661
111	0x3ba80c15	0.0051283934
112	0xbbeedc4c	-0.007289445
113	0x3cb2e5a6	0.02183802
114	0x3ca8eb2b	0.02061995
115	0x3ca77b13	0.020444429
116	0xbcdd7fc9	-0.027038472
117	0x3b28697a	0.0025697635
118	0x3c044404	0.008072857
119	0xbccf71fd	-0.025322909
120	0xbbee08a8	-0.0072642155
121	0x38ed0da7	0.000113035836
122	0xbc475b8f	-0.012167825
123	0x3b9af0c5	0.004728409
124	0xbc9e52da	-0.019326616
125	0xbb93b403	-0.004507543
126	0x3c5cc10a	0.0134737585
127	0xbce3b95e	-0.02779835
128	0xbd086bba	-0.03330586
129	0xbccb7be7	-0.024839355
130	0x3bb1dbed	0.0054278285
131	0xbc28aed0	-0.010295585
132	0x3bcc33b1	0.006231748
133	0x3c9f6243	0.019456035
134	0xbca35e47	-0.019942416
135	0x3c42af0b	0.011882554
136	0xbc92fc3a	-0.017942537
137	0xbb986ef6	-0.0046518994
138	0xbc822e90	-0.015891343
139	0xbbb206fe	-0.0054329624
140	0x3c0abae8	0.0084674135
141	0x3c978c9d	0.018499667
142	0x3cafd066	0.021461677
143	0x3b93cd07	0.004510525
144	0x3b9bde85	0.004756751
145	0xbb0826cd	-0.002077508
146	0xbcc7c70d	-0.024386907
147	0xbc86afd5	-0.016441265
148	0x3a7f8d09	0.0009748494
149	0xbc31008c	-0.010803353
150	0xbd064b86	-0.03278687
151	0x3b950108	0.004547242
152	0xbb08ae1c	-0.002085573
153	0xbc777208	-0.015102871
154	0xbc3c2814	-0.011484165
155	0xbcc1bdfe	-0.023650166
156	0xbd305fca	-0.0430601
157	0xbc90f02c	-0.017692648
158	0xbd27a8c1	-0.04093242
159	0xbd1a78b5	-0.03771277
160	0xbcb386ab	-0.0219148
161	0xbd1b9d1c	-0.037991628
162	0xbcb997b0	-0.022655338
163	0xbc8ccdeb	-0.017188033
164	0x3a977efe	0.0011558232
165	0xbca736b9	-0.020411836
166	0x3b8e4b8e	0.004342503
167	0xbcde4d69	-0.027136521
168	0xbd020b2f	-0.031748947
169	0xbd164e49	-0.036695752
170	0xbc389098	-0.011264943
171	0xbc091455	-0.008366664
172	0xbd0b0ca1	-0.03394759
173	0xbd0cc573	-0.03436799
174	0x3b348b93	0.0027549013
175	0x3c9f3bd1	0.019437702
176	0x3bebce80	0.0071962476
177	0xbbc88781	-0.006119669
178	0xbcd43898	-0.025905892
179	0x3c573e7e	0.013137458
180	0xbcb8f5e2	-0.022578184
181	0xbca38d59	-0.01996486
182	0xbb845fd0	-0.004039742
183	0xbd0001bf	-0.031251665
184	0x3afc5a70	0.0019253027
185	0x3c6bf7c2	0.014402332
186	0x3c80e237	0.015732868
187	0x3c047f44	0.008086983
188	0xbca68fb1	-0.02033219
189	0x3a8b181e	0.0010612046
190	0xbb9d72eb	-0.004804959
191	0x3cad2932	0.021137808
192	0xbce76be2	-0.028249685
193	0xbc3001a0	-0.010742575
194	0xbccf6927	-0.025318695
195	0x3bf08ad1	0.007340767
196	0x3c793bfb	0.015212054
197	0x3beab692	0.0071628774
198	0x3b1a1898	0.0023513194
199	0x3ba96fe7	0.0051708105
200	0x3c075b98	0.008261584
201	0x3c3f59ca	0.011679122
202	0xbcabd4ac	-0.020975433
203	0xbc76dbc6	-0.0150670465
204	0xbc8d9388	-0.017282262
205	0xbb61ec69	-0.0034473187
206	0x3c3f6d64	0.011683796
207	0xbce51c71	-0.027967663
208	0x3c35e537	0.011102012
209	0xbbaf6270	-0.005352311
210	0x3cc414b1	0.023935648
211	0x3c6cc764	0.014451835
212	0xbbe1c80a	-0.0068903016
213	0xbc95a17c	-0.018265478
214	0xbc0926a5	-0.00837103
215	0x3c442b71	0.011973248
216	0x3c5fc589	0.013657936
217	0x3c4df14b	0.012569736
218	0x3b868573	0.004105264
219	0x3c8dbf79	0.017303215
220	0xbcafa9b1	-0.02144322
221	0xbc5a5912	-0.0133269
222	0xbb913f0c	-0.0044325646
223	0xbc8504e6	-0.016237687
224	0xbcbd64ef	-0.023119418
225	0x3a045532	0.00050480955
226	0xbc1d78c6	-0.009611314
227	0x3c4027c4	0.011728231
228	0x3ba83b9d	0.0051340596
229	0xbb58a0c6	-0.0033054813
230	0x39f1458a	0.00046018913
231	0xbc913d87	-0.017729534
232	0xba94c4fb	-0.0011350209
233	0xbc577332	-0.013150023
234	0xbbf202fd	-0.00738561
235	0x3cb07346	0.021539342
236	0xbc5f9478	-0.013646238
237	0x3b868e69	0.004106332
238	0xbc1d095d	-0.009584752
239	0x3a88257c	0.0010387148
240	0xbc77ea8c	-0.015131604
241	0xbb288f31	-0.0025720114
242	0xbb84f355	-0.0040573278
243	0xbc5107c5	-0.0127582
244	0x3ad38569	0.0016137782
245	0xbc4669ee	-0.012110217
246	0xb9c7f803	-0.0003814102
247	0x3c018efd	0.007907626
248	0xbbd125f9	-0.0063827005
249	0x3c3c7a34	0.011503745
250	0x3bcc5d32	0.0062366957
251	0x3c057528	0.008145608
252	0xbc0fdf3f	-0.008781253
253	0x3c257a89	0.010100015
254	0x39f67ef2	0.00047015358
255	0xbc3c9a3d	-0.011511383

fc.1.bias f4 [64]
0	0x3c4a0cc8	0.012332149
1	0x3dfad4c8	0.12247616
2	0xbd0a2c27	-0.033733513
3	0x3bfa8002	0.0076446543
4	0x3eec4fe6	0.46154708
5	0x3e780ec3	0.24224381
6	0xbd17fe9d	-0.037108053
7	0xbc68f799	-0.014219188
8	0x3c676cec	0.01412509
9	0x3ed0df97	0.40795586
10	0x3ed4aff8	0.41540504
11	0x3e877aa9	0.2646077
12	0x3d15c598	0.036565393
13	0x3dac2d8c	0.08407125
14	0x3e16a1c5	0.14710148
15	0x3f2e4a2e	0.6808194
16	0xb914a68c	-0.00014176423
17	0xbbc77a5e	-0.0060875854
18	0xbd24f157	-0.040269222
19	0xbcdea5f7	-0.027178748
20	0x39689706	0.00022181505
21	0x3b2bd5e4	0.0026220018
22	0xbcc8c3e7	-0.024507476
23	0x3e6acc6a	0.2292954
24	0x3c379a21	0.011206181
25	0xbcb584f9	-0.022158133
26	0xbcee3f2e	-0.02908286
27	0x3cec1f07	0.028823389
28	0x3df22ee4	0.1182535
29	0x3e104211	0.14087702
30	0x3b1cd922	0.0023933132
31	0xbce75bd8	-0.028242037
32	0x3caa3f68	0.020782188
33	0x3eefe29d	0.4685258
34	0xbc28aed7	-0.010295591
35	0x3ea40b0d	0.3203968
36	0xbc8c281c	-0.01710897
37	0x3f0451bd	0.5168722
38	0x3d344079	0.0440068
39	0x3d380456	0.04492601
40	0xbcef3564	-0.029200263
41	0x3e6b17d3	0.22958307
42	0x3b896235	0.0041926154
43	0x3e3b822c	0.18311375
44	0x3d97a3f5	0.07404319
45	0xbbbcfeff	-0.0057677026
46	0x3d8339c8	0.06407505
47	0xbb27414f	-0.0025521105
48	0xbc84741d	-0.016168648
49	0x3c83ce1a	0.016089488
50	0x3d14ac75	0.03629728
51	0xba61db60	-0.0008615758
52	0x3e9d217e	0.30689615
53	0x3eab3722	0.334405
54	0xbb0ab600	-0.002116561
55	0x3c33db2a	0.010977546
56	0xbc954373	-0.018220639
57	0xbd26672b	-0.040625732
58	0xbd4e18f5	-0.05031677
59	0x3eccb592	0.39982277
60	0xbba2e718	-0.004971396
61	0xbcb8b601	-0.022547724
62	0x3e47cb54	0.19511157
63	0x3e6da83d	0.23208709

fc.3.weight f4 [4, 64]
0	0x3c84019b	0.016114047
1	0x3e66573c	0.22494215
2	0x3c3d4cd0	0.011553958
3	0x3d9c1262	0.07620694
4	0xbe8237a6	-0.2543308
5	0x3e1a2391	0.1505263
6	0x3dbc15db	0.09183856
7	0xbdbe19fc	-0.092823
8	0x3dbf2dac	0.09334883
9	0x3d2f8140	0.04284787
10	0x3c3c5bce	0.011496497
11	0xbf748d4e	-0.95528114
12	0x3de05ec1	0.10955573
13	0x3cf4242e	0.029802408
14	0xbfc50a41	-1.5393754
15	0x3ed1ffbc	0.41015422
16	0x3d3c8f19	0.046034906
17	0xbe757d57	-0.23973595
18	0x3dcf9ffc	0.101379365
19	0x3cfe791e	0.031063613
20	0x3e28753c	0.16450971
21	0x3c94b5c1	0.018153073
22	0xbd7bee2e	-0.061506443
23	0xbf0db382	-0.5535203
24	0xbc7f9f80	-0.015601993
25	0xbc0f0584	-0.008729342
26	0xbdd58f12	-0.10427679
27	0xbd8146c3	-0.06312325
28	0xbbf3b702	-0.0074375877
29	0x3dafce18	0.08584231
30	0x3d884a27	0.066547684
31	0x3c583feb	0.013198833
32	0x3d11db07	0.03560927
33	0xbf2b0232	-0.66800225
34	0xbdc7cc05	-0.097557105
35	0x3dbdfacc	0.09276351
36	0x3d294c20	0.041332364
37	0xbe463874	-0.19357473
38	0xbd386bf6	-0.045024835
39	0x3da65d3e	0.08123253
40	0x3d1f0ec2	0.038832434
41	0xbd7d6951	-0.061868016
42	0xbd2b25ed	-0.041784216
43	0x3df663a4	0.12030724
44	0xbe1c06b8	-0.15236938
45	0xbeb7bebc	-0.35887706
46	0x3e884a65	0.2661926
47	0x3df0e45d	0.11762307
48	0x3d2b90ef	0.041886266
49	0x3e53fe69	0.20702519
50	0x3e89172a	0.26775485
51	0xbd35808d	-0.04431205
52	0xbf9cd4a5	-1.2252394
53	0xbd130665	-0.03589477
54	0xbcddaac8	-0.027058974
55	0x3dbe3ad6	0.09288566
56	0xbce40a25	-0.027836869
57	0x3d7e889f	0.06214201
58	0xbdaa99a0	-0.08330083
59	0xbd810095	-0.06298939
60	0x3cbb27a3	0.022846049
61	0xbd84b7b8	-0.06480354
62	0x3e1254de	0.14290187
63	0x3dca789a	0.09886284
64	0xbc2a252d	-0.01038484
65	0xbee5984d	-0.4484276
66	0x3dda7521	0.10666872
67	0xbda91c3c	-0.082573384
68	0xbf2cb04d	-0.67456514
69	0x3e43b029	0.19110169
70	0xbd4f2402	-0.05057145
71	0x3c90c925	0.017674038
72	0xbcdeb954	-0.02718798
73	0x3cb2f7bb	0.021846643
74	0xbf8b0d53	-1.0863441
75	0xbd5542f9	-0.052065823
76	0x3e4fb7dc	0.2028498
77	0xbf9215a9	-1.141286
78	0x3d6a246b	0.057163637
79	0x3eadc50b	0.33939394
80	0xbc806fb2	-0.01567826
81	0xbe0f11af	-0.1397159
82	0x3cdc46d7	0.026889248
83	0x3d60ccf8	0.054882973
84	0x3daa9740	0.0832963
85	0x3d92dac0	0.071706295
86	0x3dfedc61	0.12444378
87	0xbbbfb0f1	-0.0058499505
88	0x3d32e6c1	0.043677095
89	0xbdae5ac8	-0.08513409
90	0x3da99470	0.08280265
91	0xbca1eccf	-0.01976624
92	0xbfae72f8	-1.3628836
93	0xbe400f7d	-0.18755908
94	0x3dd2ae5b	0.10287162
95	0xbdbcb834	-0.092148215
96	0x3d10bf03	0.035338413
97	0x3bec60d3	0.007213691
98	0x3cea0134	0.028565027
99	0xbd46e212	-0.04855544
100	0xbd546af7	-0.051859822
101	0xbdd6c187	-0.10486131
102	0x3daa136b	0.08304485
103	0x3dbc423a	0.09192319
104	0xbdded9f9	-0.10881419
105	0xbd0aec0a	-0.03391651
106	0x3afaa372	0.0019122197
107	0x3d87a59b	0.066233836
108	0x3e51b631	0.20479657
109	0xbecdee16	-0.40220708
110	0xbf193c51	-0.5985766
111	0xbde42aa1	-0.11140943
112	0xbd815f5e	-0.06317018
113	0x3e9f541b	0.31118855
114	0x3e66079d	0.22463842
115	0xbd7fc460	-0.062443137
116	0x3d4d82fc	0.050173745
117	0xbdf89237	-0.12137263
118	0xbda8a312	-0.08234228
119	0xbb7f5a61	-0.0038963782
120	0xbcc44acb	-0.023961445
121	0xbbd60170	-0.006530933
122	0xbd58530f	-0.052813586
123	0x3d758d7e	0.05994939
124	0x3d3392bb	0.043841105
125	0x3dd6dabe	0.104909405
126	0x3e0ba225	0.13636072
127	0x3d1f2ca0	0.038860917
128	0xbcc7e181	-0.02439952
129	0xbe8c35a2	-0.2738467
130	0x3d8250ba	0.063630536
131	0x3d9f2388	0.07770449
132	0xbee0bdbd	-0.4389476
133	0x3ed6c029	0.41943482
134	0x3dafc26b	0.08582004
135	0x3c3573c7	0.011074967
136	0x3df20dcd	0.118190385
137	0xbf36b630	-0.71371746
138	0x3c72739e	0.014798073
139	0x3dbf2007	0.093322806
140	0x3e4c5740	0.19955158
141	0x3d869fe2	0.06573464
142	0x3cddc10f	0.027069597
143	0x3e9a193b	0.30097374
144	0x3d676a7e	0.056498043
145	0xbdd31fe2	-0.103088155
146	0x3dafd350	0.085852265
147	0x3dc80434	0.09766427
148	0xbd750496	-0.059818827
149	0x3c3bf2d9	0.011471474
150	0x3d8c360f	0.06846248
151	0x3ddeb428	0.10874206
152	0x3d86eda6	0.065882966
153	0x3c6b73be	0.014370857
154	0x3cd62b4b	0.02614369
155	0x401c0611	2.4378703
156	0xbc127979	-0.008940094
157	0x3e0616f5	0.13094695
158	0x3dc7f263	0.097630285
159	0xbda96e86	-0.08273034
160	0xbdd75bbe	-0.10515545
161	0x3cb3d16f	0.021950452
162	0x3d3dd28f	0.046343382
163	0xbfae6f58	-1.362773
164	0xbd728076	-0.05920454
165	0xbde759e8	-0.11296445
166	0x3dd9c9db	0.10634204
167	0xbf8cedc7	-1.1010064
168	0x3dc47ef0	0.09594524
169	0xbdb9c6e8	-0.090711415
170	0x3d366c67	0.044536974
171	0x3dffbb48	0.12486893
172	0x3d80d082	0.0628977
173	0x3e6f8656	0.23391089
174	0x3ea5ffbb	0.3242167
175	0x3da4e069	0.08050615
176	0xbc18188f	-0.009283199
177	0xbee083ca	-0.43850547
178	0x3e37feb1	0.17968251
179	0x3d3ff488	0.046864063
180	0xbd797cf0	-0.060910165
181	0xbdde2b77	-0.10848134
182	0xbcb81b48	-0.022473946
183	0x3c2ef9ae	0.010679645
184	0xbdc159a7	-0.09440928
185	0x3db8f0bf	0.09030294
186	0x3d36b483	0.044605743
187	0xbfa5313f	-1.2905654
188	0x3d457cd1	0.048214737
189	0x3c47d344	0.012196366
190	0x3e396ee5	0.18108709
191	0xbe9433fc	-0.2894591
192	0xbc1db1bc	-0.009624895
193	0xbd57275d	-0.052527774
194	0xbd210c65	-0.03931846
195	0xbd5c2cea	-0.05375377
196	0x3d890b35	0.06691591
197	0x3dd136a2	0.102154985
198	0xbd1ce7cb	-0.038306993
199	0x3d9d68e2	0.076860204
200	0xbdbb3482	-0.091408744
201	0xbdf6df8e	-0.120543584
202	0x3c63afa5	0.013896857
203	0xbdd0da7f	-0.10197925
204	0xbcb6a9f3	-0.022297835
205	0x3dbdbe0d	0.09264765
206	0x3d8f1dd6	0.06988113
207	0x3eb1ebae	0.34750122
208	0xbd43b44a	-0.04777936
209	0xbe98c86f	-0.2984042
210	0x3c111cd8	0.008856975
211	0xbde1cd5a	-0.11025496
212	0xbde871e7	-0.1134985
213	0xbd75f31c	-0.0600463
214	0xbd9ada14	-0.07561126
215	0xbebbb692	-0.36662728
216	0x3d149d32	0.036282726
217	0xbcecb788	-0.028896108
218	0xbd4f3205	-0.05058481
219	0xbbf8dfe1	-0.007595048
220	0xbc815158	-0.015785858
221	0x3e5d44de	0.21608302
222	0xbdd94d91	-0.10610498
223	0x3deaeb9e	0.11470722
224	0x3e0eab09	0.13932432
225	0xbc38545b	-0.011250581
226	0x3c3fdc41	0.0117102275
227	0xbd0e9792	-0.034812517
228	0xbd99742d	-0.07492862
229	0xbf394d01	-0.72383124
230	0x3a194008	0.0005846028
231	0x3dd9c35f	0.10632967
232	0xbd7c6630	-0.06162089
233	0xbfc04058	-1.5019636
234	0x3da32136	0.07965319
235	0xbfe88c4c	-1.8167815
236	0x3e662287	0.22474109
237	0x3ea89c1e	0.32931608
238	0x3e89dea3	0.2692767
239	0xbdf54001	-0.119750984
240	0x3df5da8f	0.12004577
241	0x3eafa042	0.34301955
242	0xbf1772ea	-0.5915972
243	0xbc9a7b0b	-0.0188575
244	0x3dbaafbb	0.09115549
245	0xbf825008	-1.0180674
246	0x3cf4dfa4	0.029891796
247	0xbbe2f0ba	-0.0069256695
248	0xbddc3502	-0.10752298
249	0x3ddf80ee	0.10913263
250	0x3ba663ea	0.0050778287
251	0x3cda0373	0.026612973
252	0x3ddf5075	0.10904018
253	0xbd1b6704	-0.03794004
254	0xbfa929ea	-1.3215916
255	0x3d8c5fa0	0.068541765

fc.3.bias f4 [4]
0	0x3ef0a97c	0.47004306
1	0x3ef6363b	0.4808825
2	0x3ef38057	0.47558853
3	0x3ef80448	0.48440766
