models/v17.1/model_178500_target.pt (torch, 729952 bytes, 10 tensors)

conv.0.weight f4 [16, 2, 3, 3]
000000 ef d4 34 3e c8 a4 01 3d 92 a3 92 bd 1e 18 a2 3c
       0.17659353 0.03165129 -0.07160105 0.01978689
000010 56 3b b3 3c 3b 34 d9 bd cf 3b fc 3a 36 83 79 bd
       0.02187888 -0.10605665 0.0019243899 -0.060916148
000020 17 dd af 3d b8 05 6d be 35 0b a2 3d 13 69 ac 3d
       0.085870914 -0.23146713 0.07912294 0.08418479
000030 a7 45 17 3d 99 af 62 bd 1b 52 48 3d d8 c4 7e 3d
       0.03693166 -0.055343244 0.048906427 0.062199444
000040 4a 64 a3 3d a9 13 b4 bd 3c 5a 02 3e 95 d2 89 3e
       0.07978113 -0.087928124 0.12729734 0.26918474
000050 fd 33 42 bd f7 e6 3f bd 4e 37 7e be 5a eb 10 3e
       -0.04741286 -0.046851125 -0.24825785 0.1415228
000060 dd b3 2b be a7 16 3c be a1 d9 08 be f6 6a e4 bc
       -0.16767831 -0.18368016 -0.13364269 -0.027883034
000070 25 a2 d6 bc 32 85 e5 3b b5 82 a3 3d 8e 8b a0 be
       -0.026200363 0.0070044035 0.07983915 -0.31356472
000080 b4 f6 cb 3c 2e 6a 54 3e e9 20 b8 3d 2f 6c 2b 3e
       0.02489791 0.2074363 0.08990652 0.16740488
000090 29 b3 7c 3d 14 cf 8e 3e 97 67 e4 bc 65 ee 8e 3b
       0.061694298 0.27892363 -0.027881427 0.004361915
0000a0 19 2c b9 3d 0c 43 4c 3e f8 98 22 3e ed ce d5 3e
       0.09041614 0.19947451 0.15878665 0.41759434
0000b0 fa cc 0c 3d 3d 49 6e bd d3 54 95 be c7 de 62 3c
       0.03437517 -0.058175314 -0.29166278 0.01384706
0000c0 09 e4 96 ba 39 b3 8a bd 66 70 80 be 5c 64 0e be
       -0.0011512052 -0.06772465 -0.25085753 -0.13905472
0000d0 41 8c 03 bf 96 ad ca bc da 65 8b 3c 75 88 88 bc
       -0.51385885 -0.024740975 0.01701634 -0.01666663
0000e0 c5 fa 90 3d f6 0c 26 bd 2a fb b3 3b e7 c8 9b bf
       0.070790805 -0.040539704 0.0054925876 -1.2170686
0000f0 67 12 a6 3c b3 26 78 bd cc c6 a7 3c c6 c0 11 bc
       0.020272447 -0.06058378 0.020480536 -0.008896058
000100 3b e8 fe 3b 7d 66 88 bd 95 7f 22 3d 06 d1 2c bc
       0.007779149 -0.06660173 0.039672453 -0.010547882
000110 9a f2 c8 3d 52 4b df bb 9c 8e 5f 3d dc d8 80 bc
       0.098118976 -0.006814399 0.054579362 -0.015728407
000120 60 a3 86 3b 21 b7 cb bd 82 24 06 be 3a a5 67 bd
       0.0041088313 -0.099470384 -0.13099864 -0.056554057
000130 74 11 17 be 83 3d 20 3f cb 46 8f bb db d0 b5 bc
       -0.14752752 0.6259386 -0.004372453 -0.022194317
000140 47 a9 15 be ea 50 a8 bc ff 54 95 3d 5e 57 09 3e
       -0.14615355 -0.020546395 0.07291602 0.13412234
000150 80 ae 37 3d d9 d4 01 3e fb 25 9c 3e 82 57 79 bc
       0.04484415 0.12678851 0.30497727 -0.015218617
000160 77 ec b4 3b 80 87 dc 3d 64 2e 3b 3c 0e c2 d6 bd
       0.005521353 0.10768032 0.011424635 -0.10486232
000170 7c d5 ea 3e 61 b3 b5 bc c8 aa 26 bf bf 90 b4 bc
       0.45866 -0.022180261 -0.6510434 -0.022041677
000180 15 8f eb 3b 2b 7d 04 be 6a 42 b6 bd bf b3 19 bd
       0.0071886876 -0.12938373 -0.08899386 -0.037524935
000190 ca 8f a1 3c 2d 38 cd bc b3 47 81 3d bf 90 57 bc
       0.019721884 -0.0250512 0.06312504 -0.013157069
0001a0 ed 30 dd 3b 6a db b8 bb e7 c1 02 3e a0 dd 78 3d
       0.006750217 -0.0056413906 0.1276928 0.060758233
0001b0 8a 63 7f be 2e b9 96 be d3 99 97 bc d4 6a de 3c
       -0.24940315 -0.29438156 -0.018505966 0.027150549
0001c0 cf f3 30 3c 8c cf 50 bf 2e 27 c7 be 4d cd ce be
       0.010800316 -0.8156669 -0.3889708 -0.40391007
0001d0 39 22 a7 bd ea 2f 5d 3e de fe a3 3e 39 f0 0f 3d
       -0.08160824 0.21600309 0.32030386 0.035141204
0001e0 1f 2b b3 bc 02 f1 01 3d 46 67 03 3f 06 36 56 3e
       -0.021871148 0.031723984 0.5132946 0.20919046
0001f0 5d 19 ac 3e 9b 02 fe 3c 18 e9 c3 be 70 13 18 bf
       0.336131 0.031007102 -0.38263774 -0.5940466
000200 30 bb 6d 3d 49 1e fe bd af 13 d4 3d 27 05 cf 3d
       0.058039844 -0.1240812 0.10355317 0.101084046
000210 08 7e 8a bf 96 45 19 bd 4c 26 1d bd b0 37 7f 3e
       -1.0819712 -0.037419878 -0.0383666 0.24923587
000220 f4 5d 4f 3e 29 7a 65 bd 1b 7c c8 3c ed f1 bd bc
       0.20250684 -0.056024704 0.02447324 -0.023186648
000230 9b 60 83 3d 8d 78 cf 3e bd 3c c6 3d 0a 3f 90 3d
       0.064149104 0.4052166 0.09679554 0.07043274
000240 b4 8b 79 3d 81 4d 02 3d e8 d6 2d bc c7 ba 9e 3d
       0.060924247 0.031812195 -0.01061032 0.07750469
000250 69 cc 6b 3e a4 99 90 3a 26 de a1 be ba 41 f9 be
       0.23027195 0.0011032117 -0.31614798 -0.48682958
000260 8d d9 05 bf b8 03 5a bd 4b 38 b2 3d ca d8 ef 3c
       -0.5228508 -0.053226203 0.08702143 0.029278178
000270 fd 2b 73 3d a6 bb 91 3d f3 df f2 3d 9b 8d aa bd
       0.059368122 0.07115869 0.11859121 -0.0832779
000280 25 a6 83 3e 2f a2 65 bd f1 62 35 3c 55 aa c7 bc
       0.25712696 -0.056062873 0.011070953 -0.024373213
000290 0c 9a a1 3c 98 fa 83 3c db d0 76 bd ec 6b e5 3e
       0.019726776 0.016110703 -0.060257774 0.448089
0002a0 f8 b1 1f bc f7 ec f3 bd cb bd 97 bd b0 6d 53 3b
       -0.009747021 -0.11910432 -0.07409247 0.0032261424
0002b0 a2 da 1e 3d ae 33 67 bc 92 19 b4 bc 9d 0f 98 3d
       0.038782723 -0.0141114425 -0.02198485 0.07424853
0002c0 a2 07 ef be 35 4f 80 3c 59 f7 e6 3d 5a 31 b7 3d
       -0.4668551 0.015662769 0.112776466 0.0894496
0002d0 49 bb 8c 3c 49 26 de bc 0f dd 62 bc 7a 48 81 bd
       0.017179148 -0.027117865 -0.01384665 -0.06312652
0002e0 0b 53 13 3f c1 30 95 bd 22 12 47 3c fd 2f 6b bd
       0.5754859 -0.0728469 0.012150319 -0.057418812
0002f0 e3 cc 37 3d 1a 6a c5 bb 02 83 0a 3d 15 65 e6 3a
       0.04487313 -0.006024611 0.033816345 0.0017577732
000300 52 16 ac 3d ef 29 c9 3e cb 7c a6 3d 44 d3 ae 38
       0.08402695 0.39289805 0.08129271 8.336318e-05
000310 45 50 7f 3d 47 6b 29 bd fe 5d 94 bc c7 94 47 3d
       0.06233241 -0.041362073 -0.018111225 0.04872587
000320 97 bf 89 bd db ae 70 3c e8 56 55 3f af 73 94 3b
       -0.06725996 0.014690126 0.83335733 0.004530392
000330 f5 b9 92 bd 32 23 fb 3c 9b 3c 97 bd 99 90 8d 3c
       -0.07164375 0.03065643 -0.073846065 0.017280864
000340 65 cd 5b bd 28 86 73 3d ea 84 0b bd a0 2e 98 bd
       -0.053662676 0.059454113 -0.034062304 -0.07430768
000350 93 7a 03 bd 13 ee 8f 3d 74 4c 4f bd bd 6d 81 3d
       -0.032099318 0.07027831 -0.05061002 0.06319759
000360 16 e9 92 bd 49 52 19 be cd 96 b8 bd a8 aa 64 bd
       -0.07173364 -0.14972796 -0.09013138 -0.055826813
000370 76 b6 31 c0 07 d7 68 3b b8 67 d5 bd 11 52 bd bd
       -2.7767615 0.0035528557 -0.104201734 -0.092441685
000380 67 47 06 be b3 14 d4 3d 24 a1 b0 3d c1 b5 ac 3d
       -0.13113175 0.103555106 0.08624485 0.08433104
000390 3a ff 4d 3d ec 97 37 3f 2e a2 8b bd 8e 2f 0b 3e
       0.05029223 0.7171619 -0.06818043 0.1359236
0003a0 89 ba 16 3d 08 fc 1d 3e 1d fd 54 bd 74 1a 2d bd
       0.036798988 0.15428174 -0.0519992 -0.042261556
0003b0 de 06 91 bd 16 52 80 bd 5b 60 9e be 21 ae 63 bf
       -0.07081388 -0.06265657 -0.30932888 -0.88937575
0003c0 ab f1 2f 3e ea e4 e6 bd f4 d2 ab bd 9e ee 4d 3c
       0.17182033 -0.11274131 -0.083898455 0.012569098
0003d0 ce cf 8a 3d 68 f3 1b 3d 33 c9 65 bd 28 fa 01 3e
       0.06777917 0.038073927 -0.05610008 0.12693083
0003e0 d8 c6 1d 3f 22 60 cd 3d 9d 97 1d 3e be e8 8b 3d
       0.61631536 0.100281015 0.15389867 0.068315014
0003f0 43 3b 0a bf 23 3b 12 bf 55 51 64 bf 9b d5 be bd
       -0.53996676 -0.57121485 -0.891866 -0.09318086

conv.0.bias f4 [16]
000000 45 14 dc bd a6 5c 92 be 5a a4 0f be b8 70 05 3f
       -0.107460536 -0.2858631 -0.14027539 0.5212512
000010 53 93 16 bf e6 69 8e be ae fc 02 bd ef c5 53 be
       -0.5881855 -0.2781517 -0.031979255 -0.20680974
000020 be 64 cd be 62 a7 a3 bd 73 f2 2f bf 16 e8 d5 be
       -0.40115923 -0.0799091 -0.68729323 -0.4177863
000030 d2 86 97 3e b4 87 81 be f7 48 c1 bc 66 8a 1a be
       0.29595047 -0.25298846 -0.023594363 -0.15091857

conv.2.weight f4 [32, 16, 3, 3]
000000 be e0 88 bd 31 ae 6b 3c 4d 59 1d bd 48 f5 88 bc
       -0.06683491 0.014384792 -0.038415242 -0.016718522
000010 86 b4 8f bd a7 b6 a7 bc 9d 04 a8 3d 40 32 ed bc
       -0.07016854 -0.020472838 0.08204005 -0.028954625
000020 d3 1f c6 bd 07 7e 8e 3d 45 d4 d1 3d 64 92 ad 3d
       -0.09674039 0.069576316 0.10245565 0.084751874
000030 78 57 10 3e 5a a2 de 3d 7e 92 fc 3c ac 40 48 3d
       0.14095867 0.1087081 0.030831572 0.0488898
000040 14 ee 20 bd 6d 16 2e bd f1 ba 33 3e a0 08 ef bc
       -0.03928955 -0.042501856 0.17551781 -0.029178917
000050 94 47 43 bd ff 2e 03 bd 40 c6 c5 bb 26 74 67 be
       -0.047675684 -0.03202724 -0.006035596 -0.22602901
000060 6b 4e fa bd 67 2f 79 be a4 f9 41 be f9 69 5c 3c
       -0.12221988 -0.24334489 -0.18942887 0.013453
000070 05 d1 1c bd 58 b4 09 be 80 84 e9 3b 46 c9 8f bd
       -0.038285274 -0.13447702 0.007126391 -0.07020812
000080 78 02 9d bd 3e 72 47 3d 76 30 f2 bd a0 c1 b3 be
       -0.076664865 0.048692934 -0.118256494 -0.35108662
000090 5c 8c 93 3d 37 f6 e7 3d 6d 08 91 be 70 c7 12 be
       0.07204506 0.11326259 -0.2832674 -0.14333892
0000a0 8e 95 25 be a6 41 ab be aa 7e eb 3d b7 93 f7 bd
       -0.16170332 -0.33448523 0.11498769 -0.12088721
0000b0 72 86 37 be 6f 45 2d 3d 25 70 d9 3c 4a c8 b5 bd
       -0.1792238 0.042302545 0.026542732 -0.08876093
0000c0 d6 5e 25 3e e9 30 b7 3d 77 e5 83 be 44 38 a3 3d
       0.16149458 0.08944876 -0.25761005 0.07969716
0000d0 6c b3 8f 3d f1 ce 02 be 0f 4b 35 3d 1b 6d 3a 3e
       0.07016644 -0.12774254 0.044261035 0.18205683
0000e0 87 5f 5e 3c 9a f6 1e 3e 80 65 3f 3d d1 a7 34 bd
       0.01357258 0.15523759 0.046727657 -0.044105355
0000f0 aa b1 8a 3d 53 f6 ab 3c 86 ed 34 be b9 9f 45 be
       0.06772168 0.02099148 -0.17668733 -0.1929921
000100 94 53 18 bd d8 04 98 3c 86 0e 89 bd 58 6d 8c bc
       -0.03718908 0.018556997 -0.06692223 -0.017141983
000110 73 e1 2a bd ec 03 a1 bd c9 dd a5 bd 52 2b 07 be
       -0.04171891 -0.07862076 -0.08098943 -0.13200119
000120 60 d6 b6 3d a7 1e 89 3d f5 d3 13 3d fa b0 91 bd
       0.089276075 0.066952996 0.03609081 -0.07113834
000130 76 ff 17 3e 64 60 04 be fd 2d ca 3d b4 f8 42 bd
       0.14843544 -0.12927395 0.09872053 -0.047600463
000140 35 74 1e be 7a cc c4 3d 16 5b 71 be 1f e3 2f 3d
       -0.15474017 0.09609313 -0.23569903 0.04294121
000150 e7 2c de 3d 5f 59 1d be d5 5a 21 bd 3e 46 2d be
       0.10848408 -0.15366124 -0.039393265 -0.16921327
000160 88 00 6a be 84 95 98 3c d1 68 4a 3d f4 dd a3 ba
       -0.22851765 0.018625982 0.049416367 -0.001250206
000170 73 97 02 be 58 a9 e5 bc a9 f3 de 39 83 3a 17 be
       -0.12753086 -0.028034851 0.0004252468 -0.14768414
000180 0d c3 9b bd a7 3b fd bc ea ce 92 bd a1 bd 12 3c
       -0.07605562 -0.030912234 -0.07168372 0.008956344
000190 29 df 03 bc d5 33 97 bd 4d e1 16 be ca ee 52 be
       -0.008048811 -0.07382933 -0.14734383 -0.20598903
0001a0 b4 dd 11 be e5 0d 00 be 23 e3 0d be 47 13 c4 3b
       -0.1424473 -0.125053 -0.13856177 0.0059837434
0001b0 9f 4f 53 3c bc 75 2e 3d 9b 06 f1 3c 4e cb 09 be
       0.012897401 0.04259275 0.029422095 -0.13456461
0001c0 d5 1e 11 bc 27 ff cb 3c 09 cf 09 be ef 88 19 be
       -0.008857449 0.02490194 -0.13457884 -0.14993642
0001d0 73 e3 e6 bc 5d 77 b6 bb 1d 24 5e 3c 6e 21 52 3d
       -0.028184628 -0.0055684284 0.013558415 0.051301412
0001e0 cf d4 85 3d ce 13 99 3c d1 0f b4 bc 80 1f 15 bd
       0.06534731 0.018686201 -0.021980198 -0.036406994
0001f0 30 c4 2e bd 0b 8d aa 3c db e8 a5 3c fa d6 df ba
       -0.042667568 0.020819208 0.020252636 -0.0017077618
000200 61 58 e9 bb 92 5c 02 bd 60 3f 34 be cc 00 c2 bd
       -0.0071211313 -0.031826563 -0.176023 -0.09472808
000210 ab 43 1b bd 7d 87 2c bd 6b 73 b2 3d 0b 6e 06 be
       -0.03790633 -0.0421214 0.087134205 -0.13127916
000220 81 da 5a bc 38 3e b5 bd 68 d0 d0 bd 05 40 da 3d
       -0.013357759 -0.08849758 -0.10196 0.10656742
000230 b6 f4 24 3c cf 0e b5 bd 17 85 1a be 78 81 8f bd
       0.010068109 -0.08840715 -0.15089832 -0.07007116
000240 8b f0 12 3e d1 d3 4e be 35 14 44 3e 35 d7 c3 3d
       0.14349572 -0.20197989 0.19148333 0.09562532
000250 16 fd cc 3d 61 51 f0 bd 1f 28 3e bd 21 3b 5e 3d
       0.1000921 -0.11734272 -0.04642498 0.05425561
000260 3c d6 77 bd d5 90 e6 3d 32 c7 fa 3b cf 0c 79 3e
       -0.060507044 0.11258093 0.0076531405 0.24321292
000270 ed b9 db bd 6b 45 31 3e 27 94 f7 3d 6a 67 87 3e
       -0.10728822 0.17311637 0.12088805 0.26446086
000280 06 a7 e2 3c 5f 16 b4 3d 33 e4 fc 3d bf 47 80 3e
       0.027667534 0.087933294 0.12348213 0.25054738
000290 a0 8a 18 3e 7c 96 9b 3e 79 83 65 be 30 dd 0f be
       0.14896631 0.30388248 -0.22413434 -0.1404922
0002a0 0f 27 bd 3e 8a d3 4e 3d 97 a3 6b 3d 0b 55 1b c0
       0.36943862 0.050494708 0.05752906 -2.4270656
0002b0 d5 87 07 3e d6 d4 9c bd 6b 78 7c 3c a4 55 18 bd
       0.1323541 -0.07657783 0.015409569 -0.03719105
0002c0 53 d8 d0 3c 81 99 02 bd 86 e0 5d bd 23 83 0c bd
       0.025493776 -0.031884674 -0.0541692 -0.03430475
0002d0 8f 3d 62 bf 21 9e a1 3e da cc 5c bd 00 55 8a 3b
       -0.8837518 0.31565955 -0.0539063 0.0042215586
0002e0 37 54 9e 3d 6f 48 94 3d 28 e0 c3 3c 64 a6 47 bd
       0.077309065 0.07240378 0.023910597 -0.048742667
0002f0 89 2e cc bb 80 e3 6e be 17 18 7f bf bf a8 77 bc
       -0.0062311334 -0.23328972 -0.99646133 -0.015115916
000300 ef e2 7f be 60 c9 e0 bc 71 b8 1c be e0 d6 2f bd
       -0.24988912 -0.027439773 -0.15304734 -0.04292953
000310 c0 45 da 3b 3d 08 32 3d 65 8d ea 3c a9 58 c6 3d
       0.006661147 0.043464888 0.028631875 0.09684879
000320 43 eb d2 bd ab 2d 26 3e 1f a8 c4 bb 9e e7 24 be
       -0.10298779 0.16228358 -0.006001487 -0.1610398
000330 ec 82 40 3e ed 07 6a bc f7 1e 88 ba 17 69 38 3d
       0.18799943 -0.014284116 -0.0010385205 0.045022096
000340 f3 02 b6 bd ea a5 6b be 50 b2 c8 3d 97 c2 b3 bd
       -0.08887281 -0.2301251 0.097996354 -0.087773494
000350 c3 b9 3b be 8d 5b ba 3e 4e d0 4c bd 88 ab 89 3d
       -0.18332581 0.36397973 -0.050003342 0.0672217
000360 4f de 55 3e 9a e2 53 be f4 6c 90 3e 54 43 a8 3d
       0.20885585 -0.2069191 0.28208125 0.08215967
000370 32 30 cf 3e b3 ac 9e 3d 70 08 54 3e a2 24 47 3e
       0.40466458 0.077477835 0.20706344 0.19447568
000380 b3 94 cb bd b6 43 e1 3b e7 70 0a bf b2 54 87 bd
       -0.099404715 0.006874527 -0.54078525 -0.06607951
000390 eb f7 6a 3e cf 8e 5d bc c1 f2 32 be 90 91 12 3f
       0.22946136 -0.013522818 -0.17475416 0.5725336
0003a0 45 3a 07 3e a1 74 ef bd 63 0f cf bd 7a 00 df be
       0.13205822 -0.11692167 -0.10110357 -0.4355505
0003b0 14 4e c6 3e 49 85 74 3d 9b 64 5c be 56 4c 55 bb
       0.38731444 0.059697423 -0.21522753 -0.003254672
0003c0 32 7e 7f 3b c3 95 55 bd c4 89 ce b9 25 7d f1 3d
       0.003898513 -0.052144777 -0.00039394025 0.117914476
0003d0 85 5a e1 be c3 fb 0d 3e a0 3a f8 3d da 96 d8 bd
       -0.44014373 0.1386557 0.12120557 -0.10575648
0003e0 ba 89 6e bd 8c 64 1d bd b9 8b ec 3c d4 5a 61 3a
       -0.058236815 -0.038425967 0.028875219 0.00085966033
0003f0 c1 0e 93 3d 91 b1 94 bf 73 92 2e bf 3c 01 4d 3e
       0.071805485 -1.1616689 -0.68192214 0.20020002

conv.2.bias f4 [32]
000000 42 56 8e 3c 81 3e 10 3c 59 dd 8f bd 64 52 b0 3d
       0.017375115 0.008803965 -0.070246406 0.08609465
000010 40 da 0d 3d db 9a 3f bd d1 0f 6d 3e 42 de 93 bd
       0.034631968 -0.04677854 0.23150565 -0.07220127
000020 50 78 79 be 1b 0a a5 be ad e1 22 3e d5 d2 84 3e
       -0.24362302 -0.32234272 0.15906401 0.25942102
000030 46 fb c6 bd 5d a7 a3 3c b3 e8 a0 3d 59 7b 39 be
       -0.09715895 0.019977266 0.07856884 -0.1811346
000040 38 4f 99 3b 58 5b 26 bd 91 56 44 3e 66 20 ea bd
       0.004678633 -0.040614456 0.19173647 -0.11431961
000050 14 c1 18 3e b6 4f 91 bd 54 9b 1c bc 84 ce 7e bd
       0.14917403 -0.07095282 -0.0095585175 -0.062208667
000060 69 ef 16 be ab 54 a4 3e 09 04 f8 3d 60 73 02 be
       -0.14739765 0.32095847 0.12110145 -0.12739325
000070 f6 2c 0f bd 50 b1 e3 3c 4a 59 c3 bd e2 cc 15 3e
       -0.034954987 0.02779451 -0.09538515 0.14628938

conv.4.weight f4 [64, 32, 6, 6]
000000 4d 01 49 bc 11 d1 6d bd d0 f9 88 3d 03 fd 7b bc
       -0.012268377 -0.05806071 0.06688273 -0.015380147
000010 4b c7 3e 3d 04 dc 7f bc 88 62 05 bd 7f 86 25 3d
       0.04657678 -0.015616421 -0.03256467 0.04041147
000020 28 2f ef 3c 53 65 b3 3c 33 70 88 bc c8 f4 1f 3d
       0.02919729 0.021898901 -0.016655063 0.0390518
000030 95 b5 5c bb ca c9 c5 3c 67 67 d1 bc ae 88 34 bd
       -0.0033677567 0.024144072 -0.025562001 -0.04407566
000040 ab 6e e2 bb 95 0b ec 3c 9c 3f 43 3c aa d9 96 3d
       -0.0069101653 0.028814116 0.011917021 0.07365735
000050 31 59 9f ba 74 f1 55 bd ef 35 44 bd 10 43 a3 3d
       -0.0012157318 -0.05223222 -0.047902998 0.079717755
000060 48 48 ca 3c 56 b0 df bb 2b 1f 80 bd 68 12 d6 3c
       0.02469267 -0.006826441 -0.06255945 0.026131824
000070 09 9e f1 ba cd 71 18 bb 07 c3 d8 3b 73 35 89 bc
       -0.0018433939 -0.002326119 0.006615046 -0.01674912
000080 d8 77 17 bd f9 1d 6a 3a ce 26 27 bd 78 85 b3 bb
       -0.036979526 0.0008930858 -0.04080849 -0.005478557
000090 0a 71 8d bd 79 14 39 3d 77 e5 c1 3e f7 75 49 bd
       -0.06906326 0.04518554 0.3787038 -0.049184766
0000a0 f8 94 99 be 3d 19 18 bd 6a 61 24 3c 1b 5f df 3d
       -0.29996467 -0.037133444 0.010032991 0.10906812
0000b0 8a 60 c2 3d e3 70 de be c0 18 82 be cc 6e ee 3e
       0.094910696 -0.434455 -0.25409508 0.46568906
0000c0 8f c6 25 bf ab c1 75 3e 42 49 77 bd ca 9a 0c 3e
       -0.647561 0.2399966 -0.0603726 0.13730922
0000d0 4e 55 94 3e 42 67 8f 3e 10 ae bd 3d 97 37 12 be
       0.28971332 0.28008467 0.092617154 -0.14279018
0000e0 56 1d 57 bd 51 8f b1 bd a2 ba 34 bd c4 20 79 3e
       -0.05251821 -0.086699136 -0.0441233 0.24328905
0000f0 5f 4f 1c 3e 8e f3 26 3e 13 4f 11 3e 05 71 82 3e
       0.15264653 0.16303846 0.1419032 0.25476852
000100 f3 08 ac 3d 0a eb 71 3e da 0d 80 be 4f fe d4 3e
       0.084001444 0.23624817 -0.25010568 0.41600272
000110 54 2b cd 3e d6 cd 6d 3e 37 5b b2 3e 0d 05 36 bf
       0.4007212 0.23223051 0.34835216 -0.71101457
000120 39 b5 28 bc 0f 61 35 bd d4 ab bb bc ea 75 46 bd
       -0.010297113 -0.044282015 -0.022909082 -0.048452295
000130 e1 cd 2b 3c 6f c6 cb bc 86 62 5a bc 38 a1 a1 3b
       0.010486097 -0.024874894 -0.013329154 0.004932549
000140 7d 03 dc ba 16 52 74 3c 3f d5 b5 3c c4 dc 2a 3c
       -0.0016785708 0.014912149 0.02219641 0.010428611
000150 e8 bd b0 3b 61 e4 62 bc 59 e3 e4 bc 84 cf c4 3c
       0.0053937323 -0.013848395 -0.027940439 0.024024732
000160 bd 76 6d 3c 79 06 2b bc c5 7d b3 bc 68 29 a1 3c
       0.014493641 -0.010438555 -0.021910558 0.019673064
000170 a8 69 ab bc 19 97 82 3c 99 6e 1d bd 4a d7 17 bc
       -0.020924404 0.01594119 -0.038435552 -0.0092676375
000180 2b 83 09 bb af 8f 19 3d de 8d 15 3b 93 9e b7 3c
       -0.0020982723 0.037490543 0.0022820155 0.022414481
000190 4e 3d 1f bc 7c b6 f9 3c f4 13 e4 3c 9e 44 07 3d
       -0.009719206 0.030482523 0.027841546 0.033024423
0001a0 c3 a9 2d 3d 7d 56 32 3c 4a b1 94 bb 33 81 70 3b
       0.042398226 0.010884878 -0.004537736 0.0036698102
0001b0 61 84 0c be da b0 55 3e 4b 5e 1e bd c9 d0 39 be
       -0.13722374 0.20868245 -0.038664144 -0.18146051
0001c0 b2 29 c4 be 23 c2 8b 3e 2a d8 4c 3d bc 5f 9b 3e
       -0.3831306 0.27296552 0.050010838 0.30346477
0001d0 f1 4f 07 3e 48 a6 5c 3d 6c 86 04 3f 25 0a cf be
       0.13214089 0.053869516 0.5176761 -0.40437427
0001e0 bb 1a c4 3e bb 64 64 3e 50 d3 14 3e 28 93 02 3e
       0.38301644 0.2230405 0.14533734 0.12751448
0001f0 a2 8d 29 3e 03 0e a7 3e b0 1f 9b 3e 48 e4 96 3e
       0.16557935 0.32627878 0.30297613 0.2947104
000200 e3 14 66 3e 1c 15 94 3d f1 9e b4 3e e8 12 ab 3e
       0.22468905 0.07230589 0.35277513 0.33412862
000210 f5 8e bb bb 36 68 c8 3e 06 5c b8 3e 19 59 90 3e
       -0.005723829 0.39142007 0.36007708 0.28192976
000220 ed 70 fb 3e fe 7f 0f bf fc 5e 1d 3c 94 3d 0a bf
       0.49109593 -0.56054676 0.009605166 -0.5400021
000230 ee a9 07 bf aa a4 1e be 0e b0 83 3e 55 65 d0 be
       -0.5299367 -0.15492502 0.25720257 -0.4070231
000240 f7 0e a2 3d 51 3e 1a 3e 56 64 94 bd 75 a8 8f 3e
       0.079130106 0.15062834 -0.072457 0.2805821
000250 c6 db d3 3e e8 1f 16 be 9e be d9 3e 08 67 b6 3e
       0.4137861 -0.14660609 0.42528242 0.35625482
000260 7c c3 da be 93 be e4 be c9 d8 2f bf 3e e3 9e ba
       -0.42727268 -0.44676647 -0.6869016 -0.0012122167
000270 22 2a fa be 1c 66 f5 3d c2 81 b9 be 19 ee 08 bc
       -0.4886027 0.119823664 -0.3623181 -0.008357548
000280 5a c7 56 3e 39 0f bc be c7 90 a7 3e 92 db 68 be
       0.20974484 -0.36730364 0.32727644 -0.2274001
000290 5b e9 ba be 4d 0b 7f be ae 4b a3 be d7 42 eb 3d
       -0.3650616 -0.24906655 -0.31893677 0.11487358
0002a0 fa a3 d7 3e 9b b6 ee 3c ee d0 7e bd 4c 12 b2 bd
       0.42117292 0.029139807 -0.06221097 -0.08694896
0002b0 5f a0 9f 3d ee 01 9e 3e 6e 70 0e be 9d 6b 55 3e
       0.0779426 0.30860847 -0.13910076 0.20841832
0002c0 ed 5d 2d 3d 3e 21 c1 bd 6f fd a2 3c 87 1a 43 bf
       0.042325903 -0.094301686 0.019896237 -0.7621235
0002d0 89 72 d8 3c 0d 2c f8 3b f7 73 17 3e 77 dd 81 3d
       0.026421802 0.0075736106 0.14790331 0.06341069
0002e0 ee 8c 16 3e 15 65 66 3d aa 2c f1 3e ec d5 6e 3e
       0.14702198 0.056248743 0.47104388 0.23323792
0002f0 25 dc 91 3e bb ca c0 3d 11 db 28 bc fa d7 c3 3d
       0.2848827 0.09413668 -0.010306136 0.09562679
000300 b9 7c 0b 3f 97 1a 9b 3e 52 d0 08 3e e9 10 93 3e
       0.54487187 0.30293724 0.13360718 0.2872384
000310 6c be 67 3d 78 1d 7b 3d ad 9a a5 3e 44 cd 4a 3e
       0.056578085 0.0613074 0.3234457 0.19804865
000320 97 0c 60 3e 2b c6 30 3e 3d 65 07 3d 3e 90 07 be
       0.21879803 0.17263095 0.033055533 -0.13238618
000330 88 32 28 3d b7 be b8 3e dd 2c c7 3e 55 8f 97 3d
       0.041063815 0.36083004 0.38901415 0.07400385
000340 5b 29 73 3d 78 ac 74 be d7 46 87 bd 7c 19 1b 3e
       0.05936561 -0.23893917 -0.066053085 0.1514644
000350 45 18 5a 3e 8d f0 e2 3d d8 84 ae 3d 31 dc a9 3d
       0.2129832 0.11081038 0.08521432 0.08293951
000360 85 39 77 3d f3 6f c5 3d ac fc 1b 3e a8 6a b1 3d
       0.06035759 0.09640493 0.15233105 0.08662921
000370 b7 74 0a 3e dd 78 9e 3b 82 5b 3e 3e 13 00 1f 3e
       0.13521086 0.0048361854 0.18589595 0.15527372
000380 0e 19 30 3e ff 7d 2a 3e 38 6c aa 3d 7b f1 a0 bc
       0.17197058 0.16649626 0.08321422 -0.019646397
000390 89 a5 39 3e 03 d3 e8 3c 43 a7 49 3e 69 ac 07 3e
       0.18129553 0.02842093 0.19692712 0.13249363
0003a0 71 4b d0 3d 7f dd 38 bc 68 83 18 3d 3f f5 9a bd
       0.10170639 -0.0112832775 0.037234694 -0.07566308
0003b0 fb ad 19 3d 9c f9 fc 3d 97 cc 0f 3e 20 c3 79 3c
       0.037519436 0.12352297 0.14042889 0.015244275
0003c0 7a 9b 3c 3e 6d 0c 28 3e 89 09 83 3d 58 cf 24 3e
       0.18418685 0.1641099 0.06398303 0.1609472
0003d0 60 38 9b 3d 12 39 43 3c 4e bf 21 3e 52 0e a2 bd
       0.07579112 0.011915462 0.15795633 -0.07912888
0003e0 11 bd c7 3c 12 04 f9 3d c5 04 76 bd 31 a2 d7 bd
       0.024382146 0.121589795 -0.060063142 -0.105289824
0003f0 5c 49 84 3c 73 f0 8a 3c d6 d8 67 bc b4 74 ba 3c
       0.016148262 0.016960358 -0.014150819 0.022760727

conv.4.bias f4 [64]
000000 a2 07 69 be d6 7e 2d be 1d 6d b8 be 7b 20 a8 be
       -0.22756818 -0.16942915 -0.36020747 -0.3283728
000010 5c 60 11 be dd 9e 88 be 54 85 c3 bd df 3b 23 be
       -0.14196914 -0.26683703 -0.09546915 -0.15940808
000020 a3 fe c9 be 48 f1 69 bd 49 08 27 be 15 bc 34 bd
       -0.39452085 -0.05711487 -0.16311754 -0.04412468
000030 c4 67 3d bd 33 28 f5 be e3 d0 ee be d8 cd d8 be
       -0.046241537 -0.47882232 -0.46643743 -0.42344546
000040 e8 e4 59 be 2f 15 05 3e 25 98 82 bd 55 27 96 be
       -0.21278727 0.12996362 -0.063766755 -0.29326883
000050 ee d5 b4 be f8 f1 2c be 6e d1 fe 3e 78 71 64 be
       -0.35319465 -0.16889179 0.49769157 -0.2230891
000060 6a ae a5 be 7c 72 94 be e1 39 c2 be 38 4a 6f be
       -0.3235963 -0.28993595 -0.37934783 -0.23368156
000070 46 41 a4 be 65 cf d4 be 92 1a d4 be 92 12 2f 3e
       -0.3208105 -0.4156448 -0.41426522 0.17096928
000080 ae f7 a8 be 13 47 ab 3e 7b c4 72 be 9e df ab be
       -0.33001465 0.33452663 -0.23707764 -0.33569044
000090 52 5e b5 be 87 94 88 3e ca 95 41 be 72 37 47 be
       -0.35423523 0.26675817 -0.18904796 -0.19454744
0000a0 46 3e b8 be 4d f3 27 bf 0d 6d 51 bd 2d e4 d6 be
       -0.3598501 -0.6560562 -0.05112939 -0.4197096
0000b0 88 91 95 bd 14 8b 19 bd ee 9c 89 3e 26 54 01 bf
       -0.073031485 -0.03748615 0.2687754 -0.50519025
0000c0 cf 63 10 be e2 a6 93 be 05 dd 91 be f2 58 82 be
       -0.14100574 -0.2883826 -0.28488937 -0.25458485
0000d0 70 93 bb 3b a0 28 b0 bd 43 fa 9b be 81 b9 02 bf
       0.005724363 -0.086014986 -0.30464372 -0.51064306
0000e0 37 e0 ab be e4 92 96 be ab f1 8c be b5 cb 4d 3e
       -0.335695 -0.29408944 -0.27528128 0.2009724
0000f0 03 26 db be f0 b7 3e 3b 44 ee b4 be 68 b2 35 be
       -0.42802438 0.0029101335 -0.35338032 -0.17743838

fc.1.weight f4 [64, 1600]
000000 3b fb b5 3b be ab f8 ba 67 ab 89 bc 75 9e 8f 3c
       0.0055536306 -0.0018972082 -0.016805364 0.017531613
000010 56 64 d7 3a 1a 45 c6 bc e9 19 09 bc 72 43 1d 3c
       0.0016433101 -0.024202872 -0.008367994 0.0095986
000020 50 29 a2 3c eb 63 30 bb cb 89 b3 bc 97 93 99 3c
       0.01979509 -0.0026915025 -0.02191629 0.018747134
000030 cc e3 11 bb f2 bc ae bc ea ab 7f bc b9 d5 c8 bc
       -0.0022261022 -0.02133033 -0.015604952 -0.024515973
000040 d3 79 45 bc 37 b6 a5 bb cd 5b a0 bc 2e f5 ca bb
       -0.012052971 -0.005057122 -0.019575024 -0.0061937785
000050 91 25 8a bc 40 a2 29 bc 50 f4 3b 3a e1 3d 57 bc
       -0.016863616 -0.010353625 0.0007169889 -0.013137312
000060 25 77 02 bc 96 d3 b2 bb bc 30 8e 3c c6 4b 43 3c
       -0.007962977 -0.005457352 0.017357223 0.011919921
000070 5f b1 89 3c ae 5b 22 3c 9f e8 ae 3c e1 56 39 bc
       0.01680821 0.009909553 0.021351157 -0.011312217
000080 c2 cf a8 3c 04 75 89 bc 7e fd 38 3c 46 4c dc 3b
       0.02060688 -0.01677943 0.011290906 0.0067229597
000090 f5 93 8e bc 8f ee be 3b 01 63 47 bc 5b 7f 26 3c
       -0.017404536 0.0058267782 -0.0121696 0.0101622
0000a0 ff 4e b0 bc d1 d5 f3 bb 53 80 b7 3c 05 03 bf bc
       -0.021522043 -0.0074412604 0.022400057 -0.02331687
0000b0 ce 4f 1c 3c 1b 53 59 bc ee 76 9d 3b ca 3e 0e bb
       0.009540511 -0.013264443 0.0048054373 -0.0021704906
0000c0 12 46 e6 bb f4 dc 94 3c 0e 10 a1 3c 04 db 9a 3c
       -0.007027396 0.018171765 0.019660976 0.018903263
0000d0 6c 25 65 bc 6e 54 d2 3c cf c8 44 3b 20 06 8b bc
       -0.013985973 0.025675025 0.0030026918 -0.016970694
0000e0 b9 ae c2 bc 78 a0 33 bc 8f 47 ea 3c 3e b8 9d bc
       -0.023764955 -0.010963552 0.028598575 -0.019252893
0000f0 5d b8 3e 3c b5 d7 1e bc fc 0a b6 3c c3 b0 f3 bb
       0.011640635 -0.009694983 0.022222035 -0.007436843
000100 1e cd 96 bc a5 f0 2a 3c ba f8 83 bc be 88 07 bc
       -0.018408354 0.010433351 -0.016109813 -0.008272348
000110 80 0f 8b bc ab 1c b2 bb ae 01 f2 3a 62 2e a4 3c
       -0.016975164 -0.0054355464 0.0018463635 0.020041648
000120 80 3f f2 bb fa 20 f7 3c 4e c0 b1 3c 4d a8 ed 3b
       -0.0073928237 0.030167092 0.021698143 0.007252729
000130 c1 4d 5f 3c 12 bb 4d 3b 3f a8 04 bb bd fd 77 3b
       0.013629378 0.003139202 -0.0020241884 0.0037840449
000140 65 4c 3a bc 96 6f a3 3c 81 dd 1b bc 6f 98 aa bb
       -0.011370753 0.01995067 -0.00951326 -0.00520616
000150 8e 09 e8 bb 60 ed b1 bc 3c 55 21 ba 38 45 a4 bc
       -0.007081217 -0.021719635 -0.00061543635 -0.020052537
000160 61 56 04 3c 33 ec 55 3b 58 27 ae bc 0f 0b 37 3c
       0.008077235 0.0032642006 -0.021258995 0.01117207
000170 c7 90 b8 bc 22 f9 1b 3c 95 6d 73 3b a8 de 2c 3c
       -0.022529973 0.009519847 0.0037144173 0.010551132
000180 b7 91 b2 bc 0b 2e 53 ba 73 cb ee ba 62 5e db 3b
       -0.021797998 -0.0008055872 -0.0018218592 0.006694601
000190 12 db 21 3c ac 84 c4 bb 2d ca 1e bc b5 79 c0 3b
       0.009878891 -0.005997261 -0.009691757 0.0058738836
0001a0 60 f1 87 bb 53 09 5d bc 82 a9 5a 3c d0 c5 9d 3b
       -0.004148647 -0.013490993 0.013346078 0.004814841
0001b0 87 44 ae 3c 61 b5 b0 3b c9 d7 e0 bb 15 0c a8 3b
       0.02127291 0.005392716 -0.006861661 0.0051283934
0001c0 4c dc ee bb a6 e5 b2 3c 2b eb a8 3c 13 7b a7 3c
       -0.007289445 0.02183802 0.02061995 0.020444429
0001d0 c9 7f dd bc 7a 69 28 3b 04 44 04 3c fd 71 cf bc
       -0.027038472 0.0025697635 0.008072857 -0.025322909
0001e0 a8 08 ee bb a7 0d ed 38 8f 5b 47 bc c5 f0 9a 3b
       -0.0072642155 0.000113035836 -0.012167825 0.004728409
0001f0 da 52 9e bc 03 b4 93 bb 0a c1 5c 3c 5e b9 e3 bc
       -0.019326616 -0.004507543 0.0134737585 -0.02779835
000200 ba 6b 08 bd e7 7b cb bc ed db b1 3b d0 ae 28 bc
       -0.03330586 -0.024839355 0.0054278285 -0.010295585
000210 b1 33 cc 3b 43 62 9f 3c 47 5e a3 bc 0b af 42 3c
       0.006231748 0.019456035 -0.019942416 0.011882554
000220 3a fc 92 bc f6 6e 98 bb 90 2e 82 bc fe 06 b2 bb
       -0.017942537 -0.0046518994 -0.015891343 -0.0054329624
000230 e8 ba 0a 3c 9d 8c 97 3c 66 d0 af 3c 07 cd 93 3b
       0.0084674135 0.018499667 0.021461677 0.004510525
000240 85 de 9b 3b cd 26 08 bb 0d c7 c7 bc d5 af 86 bc
       0.004756751 -0.002077508 -0.024386907 -0.016441265
000250 09 8d 7f 3a 8c 00 31 bc 86 4b 06 bd 08 01 95 3b
       0.0009748494 -0.010803353 -0.03278687 0.004547242
000260 1c ae 08 bb 08 72 77 bc 14 28 3c bc fe bd c1 bc
       -0.002085573 -0.015102871 -0.011484165 -0.023650166
000270 ca 5f 30 bd 2c f0 90 bc c1 a8 27 bd b5 78 1a bd
       -0.0430601 -0.017692648 -0.04093242 -0.03771277
000280 ab 86 b3 bc 1c 9d 1b bd b0 97 b9 bc eb cd 8c bc
       -0.0219148 -0.037991628 -0.022655338 -0.017188033
000290 fe 7e 97 3a b9 36 a7 bc 8e 4b 8e 3b 69 4d de bc
       0.0011558232 -0.020411836 0.004342503 -0.027136521
0002a0 2f 0b 02 bd 49 4e 16 bd 98 90 38 bc 55 14 09 bc
       -0.031748947 -0.036695752 -0.011264943 -0.008366664
0002b0 a1 0c 0b bd 73 c5 0c bd 93 8b 34 3b d1 3b 9f 3c
       -0.03394759 -0.03436799 0.0027549013 0.019437702
0002c0 80 ce eb 3b 81 87 c8 bb 98 38 d4 bc 7e 3e 57 3c
       0.0071962476 -0.006119669 -0.025905892 0.013137458
0002d0 e2 f5 b8 bc 59 8d a3 bc d0 5f 84 bb bf 01 00 bd
       -0.022578184 -0.01996486 -0.004039742 -0.031251665
0002e0 70 5a fc 3a c2 f7 6b 3c 37 e2 80 3c 44 7f 04 3c
       0.0019253027 0.014402332 0.015732868 0.008086983
0002f0 b1 8f a6 bc 1e 18 8b 3a eb 72 9d bb 32 29 ad 3c
       -0.02033219 0.0010612046 -0.004804959 0.021137808
000300 e2 6b e7 bc a0 01 30 bc 27 69 cf bc d1 8a f0 3b
       -0.028249685 -0.010742575 -0.025318695 0.007340767
000310 fb 3b 79 3c 92 b6 ea 3b 98 18 1a 3b e7 6f a9 3b
       0.015212054 0.0071628774 0.0023513194 0.0051708105
000320 98 5b 07 3c ca 59 3f 3c ac d4 ab bc c6 db 76 bc
       0.008261584 0.011679122 -0.020975433 -0.0150670465
000330 88 93 8d bc 69 ec 61 bb 64 6d 3f 3c 71 1c e5 bc
       -0.017282262 -0.0034473187 0.011683796 -0.027967663
000340 37 e5 35 3c 70 62 af bb b1 14 c4 3c 64 c7 6c 3c
       0.011102012 -0.005352311 0.023935648 0.014451835
000350 0a c8 e1 bb 7c a1 95 bc a5 26 09 bc 71 2b 44 3c
       -0.0068903016 -0.018265478 -0.00837103 0.011973248
000360 89 c5 5f 3c 4b f1 4d 3c 73 85 86 3b 79 bf 8d 3c
       0.013657936 0.012569736 0.004105264 0.017303215
000370 b1 a9 af bc 12 59 5a bc 0c 3f 91 bb e6 04 85 bc
       -0.02144322 -0.0133269 -0.0044325646 -0.016237687
000380 ef 64 bd bc 32 55 04 3a c6 78 1d bc c4 27 40 3c
       -0.023119418 0.00050480955 -0.009611314 0.011728231
000390 9d 3b a8 3b c6 a0 58 bb 8a 45 f1 39 87 3d 91 bc
       0.0051340596 -0.0033054813 0.00046018913 -0.017729534
0003a0 fb c4 94 ba 32 73 57 bc fd 02 f2 bb 46 73 b0 3c
       -0.0011350209 -0.013150023 -0.00738561 0.021539342
0003b0 78 94 5f bc 69 8e 86 3b 5d 09 1d bc 7c 25 88 3a
       -0.013646238 0.004106332 -0.009584752 0.0010387148
0003c0 8c ea 77 bc 31 8f 28 bb 55 f3 84 bb c5 07 51 bc
       -0.015131604 -0.0025720114 -0.0040573278 -0.0127582
0003d0 69 85 d3 3a ee 69 46 bc 03 f8 c7 b9 fd 8e 01 3c
       0.0016137782 -0.012110217 -0.0003814102 0.007907626
0003e0 f9 25 d1 bb 34 7a 3c 3c 32 5d cc 3b 28 75 05 3c
       -0.0063827005 0.011503745 0.0062366957 0.008145608
0003f0 3f df 0f bc 89 7a 25 3c f2 7e f6 39 3d 9a 3c bc
       -0.008781253 0.010100015 0.00047015358 -0.011511383

fc.1.bias f4 [64]
000000 c8 0c 4a 3c 29 3a 47 3e 27 2c 0a bd 02 80 fa 3b
       0.012332149 0.1945578 -0.033733513 0.0076446543
000010 f1 eb 08 3f de 0f 8a 3e 85 78 2c bd 99 f7 68 bc
       0.5348502 0.2696523 -0.042107124 -0.014219188
000020 f2 5e 63 3c 91 ed f9 3e 98 29 02 3f d9 db 8f 3e
       0.013877617 0.4881406 0.5084472 0.28097418
000030 b2 46 d0 3c 36 f1 c8 3d 05 33 31 3e 86 e8 2f 3f
       0.025424335 0.09811632 0.17304619 0.6871418
000040 5d 74 a8 bb a3 6e 4f 3c f0 67 39 bd f7 a5 de bc
       -0.0051408247 0.012660655 -0.04526514 -0.027178748
000050 f1 f3 90 3c e4 d5 2b 3b d7 23 ef bc b6 7c a5 3e
       0.017694445 0.0026220018 -0.029191894 0.3232171
000060 7d 78 e0 3b f9 84 b5 bc 2e 3f ee bc cd 4a a6 3d
       0.006850301 -0.022158133 -0.02908286 0.08119736
000070 cd f2 2f 3e e3 03 0f 3e 7a b7 ab bb d8 5b e7 bc
       0.17182465 0.13966326 -0.005240378 -0.028242037
000080 e3 35 18 3d 6a cf 0f 3f d7 ae 28 bc 25 02 a6 3e
       0.037160765 0.56175864 -0.010295591 0.3242351
000090 1c 28 8c bc b0 24 23 3f 89 d1 d0 3c 46 c3 75 3d
       -0.01710897 0.63727856 0.02549054 0.06000068
0000a0 64 35 ef bc ad f4 7c 3e f4 08 53 ba e2 0c 78 3e
       -0.029200263 0.24702711 -0.00080503454 0.24223664
0000b0 75 14 37 3d 87 56 41 3c 10 38 f3 3d 90 d6 a6 3b
       0.044697244 0.011800415 0.118759274 0.005091496
0000c0 19 68 ad bc e1 2a c4 3c 6b c3 67 3d 60 db 61 ba
       -0.021167802 0.023946228 0.05658285 -0.0008615758
0000d0 21 05 bb 3e bd 57 be 3e 00 b6 0a bb cf f8 61 bc
       0.3652735 0.37176314 -0.002116561 -0.013792231
0000e0 73 43 95 bc 75 d1 3a bd f5 18 4e bd 25 e5 d8 3e
       -0.018220639 -0.04560991 -0.05031677 0.42362323
0000f0 b0 ab b3 bb 01 b6 b8 bc 0e 4b 7b 3e da a5 9e 3e
       -0.005483113 -0.022547724 0.2454035 0.3098591

fc.3.weight f4 [4, 64]
000000 9b 01 84 3c 61 5d 1e 3e d0 4c 3d 3c 62 12 9c 3d
       0.016114047 0.15465309 0.011553958 0.07620694
000010 df ac a2 be 42 28 04 3e db 15 bc 3d fc 19 be bd
       -0.31772515 0.12905982 0.09183856 -0.092823
000020 69 f0 b4 3d 5a 54 1a 3d 0b a9 81 3a b3 e8 67 bf
       0.08834917 0.0376781 0.0009892298 -0.90589446
000030 7f fc 13 3e fd 60 10 3d 9c b7 cd bf 67 50 d0 3e
       0.14451788 0.035248745 -1.6071658 0.40686342
000040 19 8f 3c 3d 1a 01 65 be fc 9f cf 3d 1e 79 fe 3c
       0.046034906 -0.22363701 0.101379365 0.031063613
000050 82 de 1a 3e c1 b5 94 3c 2e ee 7b bd ca 60 2c bf
       0.15123942 0.018153073 -0.061506443 -0.6733519
000060 48 da 3d bc 84 05 0f bc 12 8f d5 bd 46 e7 58 bd
       -0.011587687 -0.008729342 -0.10427679 -0.052954935
000070 74 14 95 3b 8a f2 1d 3d c7 ed 7b 3d eb 3f 58 3c
       0.0045495573 0.03856138 0.06150606 0.013198833
000080 34 65 e3 3d 97 4e 16 bf 05 cc c7 bd d0 a1 69 3d
       0.11103287 -0.5871367 -0.097557105 0.057039082
000090 20 4c 29 3d 78 73 52 be b0 76 31 be 19 f1 99 3d
       0.041332364 -0.2055186 -0.17330432 0.07516689
0000a0 c2 0e 1f 3d e9 d1 11 bd ed 25 2b bd 6f 83 d7 3d
       0.038832434 -0.035600577 -0.041784216 0.10523116
0000b0 b4 59 0b be 87 0c d2 be 63 3f 71 3e ea f0 50 3e
       -0.13608438 -0.41025183 0.23559336 0.20404401
0000c0 ef 90 2b 3d fc 47 43 3e 87 22 87 3e 8d 80 35 bd
       0.041886266 0.19070429 0.2639353 -0.04431205
0000d0 8d f0 8c bf 2e 09 1c bd c8 aa dd bc 05 e9 68 3e
       -1.101091 -0.038094692 -0.027058974 0.2274514
0000e0 25 0a e4 bc 9f 88 7e 3d a0 99 aa bd 38 26 56 bd
       -0.027836869 0.06214201 -0.08330083 -0.052282542
0000f0 23 a0 cd 3c b8 b7 84 bd 0e d7 f3 3d a4 1f 9c 3d
       0.025100773 -0.06480354 0.11906253 0.076232225
000100 2d 25 2a bc 08 4c 1d bf 21 75 da 3d 3c 1c a9 bd
       -0.01038484 -0.6144414 0.10666872 -0.082573384
000110 a0 e8 3a bf 43 06 4d 3e 02 24 4f bd 25 c9 90 3c
       -0.7301121 0.2002192 -0.05057145 0.017674038
000120 bd ba 12 bd 7b 7e b1 3c ef da 70 bf 45 43 56 bd
       -0.03582262 0.021666756 -0.94084066 -0.052310247
000130 37 c7 74 3e e8 64 96 bf d0 ad 67 3d 9e d1 af 3e
       0.2390412 -1.1749544 0.056562245 0.34339613
000140 b2 6f 80 bc a8 65 e9 bd d7 46 dc 3c f8 cc 60 3d
       -0.01567826 -0.113963425 0.026889248 0.054882973
000150 85 5f bd 3d c0 da 92 3d a3 e5 f4 3d 81 fb 9d 3c
       0.092467345 0.071706295 0.11957862 0.019284965
000160 d8 5e 1f 3d c8 5a ae bd 70 94 a9 3d 5c 8b fc bc
       0.03890881 -0.08513409 0.08280265 -0.03082817
000170 5a 0b b0 bf 9f 5f 3f be 2b a0 d0 3d 34 b8 bc bd
       -1.3753464 -0.1868882 0.101867996 -0.092148215
000180 55 62 14 3d ca a5 c3 3c 34 01 ea 3c 1e 55 64 bd
       0.03622659 0.023882765 0.028565027 -0.055745237
000190 f7 6a 54 bd b8 e6 fe bd 6e 74 49 3e 96 68 d2 3d
       -0.051859822 -0.1244635 0.1967332 0.102738544
0001a0 f9 d9 de bd 21 d4 85 bc 72 a3 fa 3a 93 1e 9c 3d
       -0.10881419 -0.016336503 0.0019122197 0.07623019
0001b0 ba b1 2a 3e 85 e5 d1 be b2 19 46 bf a0 49 e6 bc
       0.1666936 -0.40995422 -0.7738296 -0.028111279
0001c0 06 4a 6e bd be 07 84 3e 04 d6 4f 3e 60 c4 7f bd
       -0.058176063 0.25787157 0.20296484 -0.062443137
0001d0 0a d3 5b 3d b8 1e 26 be 12 a3 a8 bd 7a 7b 12 3d
       0.05366806 -0.16222656 -0.08234228 0.035762288
0001e0 cb 4a c4 bc c4 2a ca ba 0f 53 58 bd 56 53 5c 3d
       -0.023961445 -0.0015424122 -0.052813586 0.053790413
0001f0 11 1a 1f 3d be da d6 3d f0 a2 d6 3d 87 74 26 3d
       0.03884322 0.104909405 0.104802966 0.040638473
000200 81 e1 c7 bc f0 a8 5f be ba 50 82 3d 88 23 9f 3d
       -0.02439952 -0.21841788 0.063630536 0.07770449
000210 40 67 d9 be a4 d9 d3 3e 4b 88 a5 3d c7 73 35 3c
       -0.42461586 0.41376984 0.080826364 0.011074967
000220 6c 7b e9 3d 04 86 2c bf 25 80 76 3c 26 ff 45 3d
       0.11400494 -0.6739199 0.0150452005 0.04833903
000230 26 47 8c 3e f6 5e 5a 3d fd 34 cb 3c 2d 48 99 3e
       0.27398032 0.053313218 0.02480554 0.29937878
000240 79 64 53 3d d3 6c 7f bd 50 d3 af 3d 34 04 c8 3d
       0.05160949 -0.062359642 0.085852265 0.09766427
000250 2e 04 b5 bd d9 f2 3b 3c 27 72 96 3d 12 59 dc 3d
       -0.08838688 0.011471474 0.073459916 0.10759176
000260 a6 ed 86 3d be 73 6b 3c 4b 2b d6 3c 08 1b 20 40
       0.065882966 0.014370857 0.02614369 2.5016499
000270 cf 95 42 bc d0 a5 bd 3d bd dd c4 3d 86 6e a9 bd
       -0.011876537 0.09260142 0.09612606 -0.08273034
000280 f8 7f 61 be e8 8e bd 3c 8f d2 3d 3d 35 29 ae bf
       -0.22021472 0.023139432 0.046343382 -1.3606325
000290 76 80 72 bd d5 c6 eb bd 8f f1 39 3e f3 2a 89 bf
       -0.05920454 -0.115125336 0.18158554 -1.0716232
0002a0 f0 7e c4 3d ba cb 5e bd 30 02 22 3d 36 18 e4 3d
       0.09594524 -0.054393508 0.039552867 0.1113743
0002b0 7b b9 56 3d f2 d9 7b 3e 18 22 9a 3e 84 e3 08 3e
       0.05242298 0.24594858 0.30104136 0.1336804
0002c0 8f 18 18 bc 29 eb c1 be d9 92 15 3e 88 f4 3f 3d
       -0.009283199 -0.37874725 0.14606799 0.046864063
0002d0 2c 79 17 bd 41 10 18 be 48 1b b8 bc d0 6b 0b 3e
       -0.036980793 -0.1484995 -0.022473946 0.13615346
0002e0 a7 59 c1 bd bf f0 b8 3d 83 b4 36 3d b3 b5 9f bf
       -0.09440928 0.09030294 0.044605743 -1.2477325
0002f0 8e 60 45 3d 44 d3 47 3c ed 52 28 3e b8 18 9a be
       0.048187785 0.012196366 0.16437884 -0.30096984
000300 bc b1 1d bc 51 62 e4 bc 65 0c 21 bd ea 2c 5c bd
       -0.009624895 -0.027878912 -0.03931846 -0.05375377
000310 b5 a6 71 3c 05 68 d5 3d cb e7 1c bd e2 68 9d 3d
       0.014749219 0.10420231 -0.038306993 0.076860204
000320 e6 15 a7 bd 16 81 05 be 89 bb 86 3c fa 12 93 bd
       -0.08158474 -0.13037524 0.016446846 -0.07181354
000330 69 83 19 3d ec 3a 96 3d b3 cf 9b 3d 13 62 b9 3e
       0.037478838 0.07335457 0.07607975 0.36207637
000340 4a b4 43 bd f5 8d 80 be ff fc 7c 3b 5a cd e1 bd
       -0.04777936 -0.25108305 0.0038602946 -0.11025496
000350 68 75 01 be 1c f3 75 bd e7 6c 86 bd 57 56 d4 be
       -0.12642443 -0.0600463 -0.0656374 -0.41472122
000360 32 9d 14 3d 88 b7 ec bc 05 32 4f bd 19 c2 b7 bc
       0.036282726 -0.028896108 -0.05058481 -0.02243142
000370 80 b8 cc ba 72 14 37 3e 91 4d d9 bd 9e eb ea 3d
       -0.001561895 0.17878893 -0.10610498 0.11470722
000380 f6 56 2f 3e 0e f5 d2 ba 41 dc 3f 3c c9 68 c7 bc
       0.17123017 -0.001609476 0.0117102275 -0.024341958
000390 2d 74 99 bd e9 17 1a bf 7e 99 40 3d 78 c8 d5 3d
       -0.07492862 -0.60192734 0.04702138 0.10438627
0003a0 30 66 7c bd 8f 92 b1 bf 36 21 a3 3d 12 74 e5 bf
       -0.06162089 -1.3872851 0.07965319 -1.7926047
0003b0 d8 2d 2c 3e b6 87 a8 3e 14 3e 64 3e c8 aa d6 bc
       0.16814363 0.3291604 0.22289306 -0.026204482
0003c0 8f da f5 3d a4 72 9f 3e d7 e9 15 bf 0b 7b 9a bc
       0.12004577 0.3114215 -0.58559936 -0.0188575
0003d0 84 e2 6e 3d ad 48 7d bf a4 df f4 3c ba 66 17 be
       0.05832149 -0.9893902 0.029891796 -0.14785281
0003e0 02 35 dc bd ee 80 df 3d ea 63 a6 3b ce cf f7 3c
       -0.10752298 0.10913263 0.0050778287 0.030250456
0003f0 75 50 df 3d 04 67 1b bd e9 87 ab bf 22 f5 35 3d
       0.10904018 -0.03794004 -1.3400851 0.04442323

fc.3.bias f4 [4]
000000 61 4d f8 3e 78 32 06 3f 3b 0b 00 3f c1 e1 fb 3e
       0.48496535 0.5242076 0.50017136 0.49195674
