models/v17.1/model_1500.pt (torch, 729826 bytes, 10 tensors)

conv.0.weight f4 [16, 2, 3, 3]
0.1636178 0.1800627 -0.07697973 0.20367046 -0.03267621 0.020810455 -0.11252551 0.108799554
0.17638655 -0.21977992 0.19365409 0.021558935 0.16263789 0.01210583 0.07765462 -0.06883959
0.14459676 -0.022241026 -0.05963601 0.08558686 -0.07992812 -0.04698055 -0.09743683 0.13940987
-0.24949257 -0.2777672 -0.10413692 -0.13490787 0.070757136 -0.2736117 0.20340939 -0.239202
0.17659163 -0.0074292673 -0.10594123 0.10235909 0.040941764 0.18557538 -0.0024776815 -0.11389447
0.07784095 -0.07293808 0.08980454 0.16332614 0.06866867 -0.12935418 0.11474435 -0.0011385247
0.1101507 -0.16362053 -0.2292059 -0.12260423 -0.24703315 0.11922188 0.081307076 0.07653552
0.08194272 -0.022748267 0.224604 -0.40122554 0.056740273 -0.18094094 0.041214887 -0.08087715
0.057089414 -0.046719488 0.1992425 -0.14040288 -0.2915756 -0.119385794 0.20435724 0.044422362
0.25091457 -0.16800539 -0.26143217 -0.20118338 -0.15816118 0.09069004 0.13695899 0.25546792
-0.1204434 -0.172854 0.16687064 -0.01282875 0.14014636 0.09229822 0.12957487 -0.15303984
-0.10610461 0.10132822 0.06178234 -0.054756783 0.17551903 0.17889254 -0.17790975 -0.09347903
0.22911318 -0.14690524 -0.21933801 -0.18067466 -0.11531107 0.09837595 -0.011686903 -0.13338669
0.024248881 -0.1651312 -0.21128643 -0.1648966 -0.4107263 -0.25042272 0.21245767 0.006939493
0.015860597 -0.30539152 -0.33484963 -0.2664378 0.058150187 -0.37116298 -0.1659407 -0.14731227
-0.024578277 -0.10906137 -0.13141625 -0.28468665 -0.22513215 -0.094214395 -0.2164013 -0.34574506
0.16472651 -0.075361654 0.1964324 0.08309251 -0.12102647 0.16850111 -0.008580128 -0.16719355
-0.23200954 -0.23007001 0.067081705 -0.07251416 0.10561897 -0.22005081 0.1899115 -0.22146367
-0.0031726302 0.059168387 0.12775303 0.18057229 0.2023762 -0.23520803 0.07092188 -0.13753884
-0.0826269 -0.20417175 0.22512566 -0.16203548 0.1251009 0.06544109 0.039695784 -0.11646542
0.18449427 0.019031586 0.030362597 -0.18520512 0.08991549 0.037300266 0.0071209255 0.24455725
0.04362341 -0.13726741 -0.10390332 -0.03064462 0.18525971 -0.09186722 -0.104589745 -0.06791353
-0.24788815 0.06884761 0.19002324 -0.059357423 0.015682222 0.13110706 0.025079329 -0.09330768
0.13251388 0.118548974 0.031766593 -0.048038017 -0.086989924 0.0072035394 -0.04002122 -0.067301884
0.119630806 0.20664951 -0.037112486 -0.090605885 -0.007603575 -0.014132732 -0.027584726 0.0875635
-0.21483618 -0.09636982 0.20918293 0.1062416 -0.061117057 -0.13903114 -0.14801453 -0.2076251
-0.07483614 0.124997586 0.108329274 0.11992513 -0.24788564 -0.1339377 -0.088870704 0.2553973
0.040211152 -0.060535178 0.09233367 -0.089484975 -0.20549463 0.19775346 -0.12198222 -0.07301899
-0.25979474 0.16101767 0.16296558 0.076990515 -0.14770041 -0.24047819 -0.18938358 0.16327764
0.08436125 0.17779244 0.09549647 0.054451555 0.0092904465 -0.091719605 -0.20983507 -0.48260114
0.11806893 -0.09763595 -0.16283762 -0.11371273 -0.03362826 -0.12900072 -0.25810006 0.08953862
-0.13065362 0.16945039 -0.10960427 -0.16177766 -0.06585718 -0.18128201 -0.1829231 -0.21535492
00000000: 6d8b 273e 5b62 383e 8ca7 9dbd fd8e 503e
00000010: 7dd7 05bd b07a aa3c c673 e6bd 4dd2 de3d
00000020: ad9e 343e fd0d 61be 424d 463e 5d9c b03c
00000030: 8c8a 263e 8857 463c 6309 9f3d c5fb 8cbd
00000040: 2c11 143e d032 b6bc e444 74bd 2a48 af3d
00000050: 5bb1 a3bd ad6e 40bd f68c c7bd 76c1 0e3e
00000060: fb7a 7fbe 8137 8ebe bd45 d5bd 4a25 0abe
00000070: 1ee9 903d d516 8cbe 8d4a 503e 5ef1 74be
00000080: 70d4 343e 3671 f3bb b7f7 d8bd a4a1 d13d
00000090: 8db2 273d 7907 3e3e 9960 22bb 8141 e9bd
000000a0: 136b 9f3d 8f60 95bd 71eb b73d f83e 273e
000000b0: 29a2 8c3d 6c75 04be 16ff ea3d 8d3a 95ba
000000c0: b196 e13d 248c 27be f4b4 6abe ed17 fbbd
000000d0: 42f6 7cbe 9a2a f43d 5384 a63d a8be 9c3d
000000e0: 96d1 a73d 935a babc 97fe 653e 6f6d cdbe
000000f0: 7d68 683d 9548 39be f1d0 283d eba2 a5bd
00000100: 97d6 693d ef5c 3fbd 3a06 4c3e c6c5 0fbe
00000110: 6649 95be 8a80 f4bd 0643 513e 39f4 353d
00000120: e077 803e 9b09 2cbe 70da 85be 0403 4ebe
00000130: 01f5 21be b3bb b93d fa3e 0c3e b1cc 823e
00000140: 08ab f6bd a400 31be 23e0 2a3e ad2f 52bc
00000150: 8782 0f3e d906 bd3d 46af 043e 7ab6 1cbe
00000160: 604d d9bd 2b85 cf3d 7b0f 7d3d a648 60bd
00000170: 43bb 333e 9b2f 373e f92d 36be ef71 bfbd
00000180: a59c 6a3e 546e 16be 259a 60be c702 39be
00000190: 3628 ecbd 5479 c93d 6d7a 3fbc 8596 08be
000001a0: 97a5 c63c 2718 29be 785b 58be a8da 28be
000001b0: b84a d2be 6837 80be 818e 593e b064 e33b
000001c0: 15ee 813c 475c 9cbe 6971 abbe 896a 88be
000001d0: e42e 6e3d 1309 bebe 5cec 29be 07d9 16be
000001e0: 6258 c9bc 915b dfbd fb91 06be 73c2 91be
000001f0: 0b89 66be 7af3 c0bd 4d98 5dbe 7f05 b1be
00000200: 11ae 283e 3657 9abd 9325 493e 682c aa3d
00000210: badc f7bd 8e8b 2c3e aa93 0cbc c934 2bbe
00000220: e993 6dbe 7997 6bbe 2262 893d 4e82 94bd
00000230: c24e d83d 0055 61be 2978 423e 5fc7 62be
00000240: e7eb 4fbb 8d5a 723d b1d1 023e f1e7 383e
00000250: b53b 4f3e 60da 70be 7e3f 913d fbd6 0cbe
00000260: 4b38 a9bd 6612 51be 5787 663e a1ec 25be
00000270: 731a 003e fa05 863d 0c98 223d 6c85 eebd
00000280: 11ec 3c3e 21e8 9b3c fbba f83c 69a6 3dbe
00000290: 9d25 b83d 2ac8 183d a756 e93b 376d 7a3e
000002a0: 76ae 323d d48f 0cbe 44cb d4bd 6d0a fbbc
000002b0: b9b4 3d3e e224 bcbd 2633 d6bd 4016 8bbd
000002c0: 64d6 7dbe faff 8c3d 7495 423e c520 73bd
000002d0: 0178 803c ee40 063e 2a73 cd3c 1918 bfbd
000002e0: b8b1 073e cec9 f23d b01d 023d 83c3 44bd
000002f0: c627 b2bd ab0b ec3b 4aed 23bd 92d5 89bd
00000300: ff00 f53d ee9b 533e 4303 18bd 948f b9bd
00000310: 6927 f9bb f98c 67bc 5df9 e1bc 7e54 b33d
00000320: 04fe 5bbe 8a5d c5bd 0d34 563e 3295 d93d
00000330: e155 7abd 2e5e 0ebe 1f91 17be ad9b 54be
00000340: b143 99bd bcfe ff3d bddb dd3d 4e9b f53d
00000350: bcd5 7dbe f726 09be d801 b6bd 6fc3 823e
00000360: 73b4 243d bcf3 77bd 6f19 bd3d e643 b7bd
00000370: 2f6d 52be e27f 4a3e d0d1 f9bd fb8a 95bd
00000380: d103 85be d1e1 243e 73e0 263e 34ad 9d3d
00000390: c73e 17be ea3f 76be c5ed 41be 4132 273e
000003a0: 97c5 ac3d 390f 363e a793 c33d 9808 5f3d
000003b0: f536 183c 7dd7 bbbd 01df 56be 7f17 f7be
000003c0: 20ce f13d 5bf5 c7bd e8be 26be 38e2 e8bd
000003d0: c9bd 09bd c418 04be b125 84be 0660 b73d
000003e0: 10ca 05be 6784 2d3e 3478 e0bd 0ba9 25be
000003f0: 21e0 86bd fea1 39be 3150 3bbe 0086 5cbe

conv.0.bias f4 [16]
0.15373358 -0.044103406 -0.0013141102 -0.088219665 -0.21093711 -0.20277444 0.13179381 -0.14131238
-0.16813554 -0.0014453847 -0.09382538 -0.07510475 -0.013197338 -0.06150518 -0.10713017 -0.123940326
00000000: 566c 1d3e c6a5 34bd 393e acba 83ac b4bd
00000010: e6ff 57be 1aa4 4fbe f5f4 063e 31b4 10be
00000020: b92b 2cbe 1073 bdba 8527 c0bd 85d0 99bd
00000030: a639 58bc dbec 7bbd 1067 dbbd 6dd4 fdbd

conv.2.weight f4 [32, 16, 3, 3]
-0.08609499 0.046117604 -0.048634697 -0.0056658387 -0.049083956 -0.017674197 0.06674798 0.027476268
-0.08326534 0.03528695 0.08407864 0.030854339 0.040015455 0.06213587 -0.010063439 -4.1269705e-05
-0.05584785 -0.023212489 0.043173596 0.028348707 -0.069286674 -0.088544205 -0.07349633 -0.12808365
-0.06844935 -0.03822236 0.03617596 -0.023567995 -0.057995725 -0.099489704 0.03767559 -0.08056247
-0.038672987 0.0320744 -0.036594976 -0.039056048 -0.006166902 -0.022605706 -0.11263129 -0.08716658
-0.10547244 -0.12115972 0.058671344 -0.0743727 -0.114486545 0.058172245 0.04026043 -0.015684739
0.07545839 0.05588466 -0.115178026 0.0064571397 0.077690385 -0.02622668 -0.027106613 0.103637636
0.003617139 -0.0011406413 -0.017626908 0.021605216 0.03540884 0.036813766 0.037530083 -0.06530064
-0.08384241 -0.0003280282 0.08199146 0.03221853 -0.045354873 -0.029557796 -0.038808003 -0.022202026
-0.0053827064 0.050625045 0.068868205 -0.08306478 0.04415754 -0.06528943 0.030544933 0.060281184
0.011512726 0.037570205 -0.11874828 -0.06754571 0.036145635 -0.067376815 -0.06050251 -0.0744628
-0.0003605943 0.002441191 -0.00024004489 -0.05792866 -0.10741577 -0.028381528 -0.00039107157 -0.06808032
-0.030817756 0.04676196 -0.010240723 -0.01951169 -0.03644114 -0.10943175 -0.13409874 -0.056987908
-0.06426267 0.024753967 -0.03656535 -0.04964727 0.07921608 0.027831376 0.051223785 -0.074534394
-0.06511724 0.013804582 -0.08278508 -0.104027264 -0.012552861 -0.031540643 -0.019426387 0.07246141
0.0841348 0.010395168 0.0055919182 -0.09645496 -0.0129234735 0.0028270776 0.023501238 -0.011661683
-0.0774637 0.066604115 -0.08209707 0.051147066 -0.058573104 -0.0042028567 -0.0036151665 0.007802596
-0.03046073 0.059647586 -0.0073012374 0.059876464 0.07767246 -0.053356607 -0.050620414 0.066758744
0.05366013 -0.0828811 -0.016166147 -0.10339117 -0.08014336 -0.0030759452 0.008546516 0.006114984
-0.026956545 0.100226104 -0.00069872517 -0.021804405 -0.044214554 0.051765505 0.033499137 -0.060725648
0.010280045 -0.061089184 -0.10742468 -0.084313355 0.05875483 0.029408287 0.06743831 0.025679542
0.060985032 -0.031680647 -0.04081744 0.07530247 -0.09853917 -0.05183091 -0.07835453 0.0059966817
0.0002997671 -0.051805217 -0.038161352 -0.029946353 -0.12740667 -0.05212496 -0.0096155 -0.074805975
0.09279475 0.037610017 -0.019837584 0.0023234268 -0.003967796 -0.008255603 -0.03055694 0.010344378
-0.007857691 0.07077068 -0.04868774 -0.07320851 -0.058202926 -0.009331133 0.031075394 0.09188388
0.08294397 0.056864254 -0.021086654 0.0173863 0.0073648007 0.028339501 0.014574177 -0.078834295
0.02218592 -0.065122366 -0.060016472 -0.12539618 0.08426684 -0.058890488 0.085681744 -0.019124456
-0.006468535 0.045315787 -0.007536946 0.013837136 0.060391244 -0.098430336 0.017844971 0.0054883026
-0.0073880805 -0.019196946 -0.05116579 -0.12826003 -0.020268284 0.06917538 -0.0029440646 -0.035570573
-0.10048164 -0.0012931057 -0.07088757 0.07045468 -0.056364857 -0.026663477 -0.05707892 0.0012449803
0.06350287 -0.033261742 0.012830275 0.039067883 0.098470144 -0.033257347 -0.028466195 0.0009664454
-0.12516473 0.042694695 -0.05506463 -0.075236864 0.03158919 -0.007674297 0.048084274 0.091289565
00000000: 9252 b0bd d0e5 3c3d 2d35 47bd 80a8 b9bb
00000010: 420c 49bd 7ac9 90bc 2ab3 883d e915 e13c
00000020: 0587 aabd 0d89 103d 6c31 ac3d 3dc2 fc3c
00000030: 3fe7 233d 2f82 7e3d 1fe1 24bc 0219 2db8
00000040: b7c0 64bd 1e28 bebc ccd6 303d 8c3b e83c
00000050: 2ce6 8dbd aa56 b5bd 3e85 96bd 5c28 03be
00000060: 2c2f 8cbd 0d8f 1cbd 3e2d 143d ab11 c1bc
00000070: ed8c 6dbd 42c1 cbbd b851 1a3d f0fd a4bd
00000080: 9167 1ebd 7260 033d 9de4 15bd 3cf9 1fbd
00000090: b913 cabb 9a2f b9bc 3cab e6bd 6484 b2bd
000000a0: ef01 d8bd 9622 f8bd 5d51 703d b750 98bd
000000b0: ec77 eabd 0546 6e3d 1fe8 243d 487d 80bc
000000c0: ee89 9a3d 50e7 643d 75e2 ebbd 6a96 d33b
000000d0: 231c 9f3d 56d9 d6bc b00e debc f83f d43d
000000e0: 860d 6d3b 9281 95ba 4e66 90bc 6cfd b03c
000000f0: dc08 113d 08ca 163d 25b9 193d 58bc 85bd
00000100: 92b5 abbd 33fb abb9 23eb a73d 94f7 033d
00000110: 08c6 39bd 3123 f2bc 24f5 1ebd 06e1 b5bc
00000120: 6a61 b0bb 355c 4f3d c60a 8d3d de1d aabd
00000130: 89de 343d 77b6 85bd 5e39 fa3c 67e9 763d
00000140: df9f 3c3c 37e3 193d 4c32 f3bd 6855 8abd
00000150: 720d 143d dbfc 89bd 7bd1 77bd f47f 98bd
00000160: 260e bdb9 64fc 1f3b 8fb4 7bb9 9a46 6dbd
00000170: cdfc dbbd 6180 e8bc bd08 cdb9 b26d 8bbd
00000180: 8575 fcbc 7889 3f3d b5c8 27bc fbd6 9fbc
00000190: 4e43 15bd c11d e0bd 2e51 09be 276c 69bd
000001a0: 269c 83bd d5c8 ca3c 8cc5 15bd f05a 4bbd
000001b0: 0a3c a23d a0fe e33c 08d0 513d 7da5 98bd
000001c0: 305c 85bd 9d2c 623c 398b a9bd 3f0c d5bd
000001d0: 84aa 4dbc c330 01bd 1624 9fbc a666 943d
000001e0: de4e ac3d 7f50 2a3c 693c b73b 2e8a c5bd
000001f0: fabc 53bc 7e46 393b ab85 c03c a510 3fbc
00000200: 4aa5 9ebd bd67 883d 8222 a8bd 967f 513d
00000210: 5aea 6fbd 1eb8 89bb 6eec 6cbb ebac ff3b
00000220: c888 f9bc 0751 743d 383f efbb 0641 753d
00000230: bd12 9f3d 758c 5abd 5a57 4fbd cfb8 883d
00000240: b9ca 5b3d 91bd a9bd de6e 84bc c0be d3bd
00000250: 3422 a4bd cc95 49bb b006 0c3c 3460 c83b
00000260: f9d3 dcbc 5843 cd3d a72a 37ba 279f b2bc
00000270: 521a 35bd 1108 543d 6436 093d 75bb 78bd
00000280: a26d 283c a738 7abd 7801 dcbd 7bac acbd
00000290: e8a8 703d a6e9 f03c 191d 8a3d e75d d23c
000002a0: 71cb 793d 91c3 01bd 3030 27bd 2e38 9a3d
000002b0: e8ce c9bd a64c 54bd 5778 a0bd d07f c43b
000002c0: 0f2a 9d39 b531 54bd 144f 1cbd 0e52 f5bc
000002d0: e576 02be fb80 55bd 558a 1dbc e033 99bd
000002e0: 2d0b be3d f60c 1a3d 6e82 a2bc a244 183b
000002f0: 4904 82bb 8242 07bc 8c52 fabc 777b 293c
00000300: 8bbd 00bc 38f0 903d cc6c 47bd 58ee 95bd
00000310: 3166 6ebd 9ce1 18bc d391 fe3c 9e2d bc3d
00000320: 87de a93d 7eea 683d ebbd acbc b76d 8e3c
00000330: 6d54 f13b 3e28 e83c 87c8 6e3c e073 a1bd
00000340: 3fbf b53c e05e 85bd d5d3 75bd db67 00be
00000350: 1894 ac3d 2737 71bd e979 af3d e4aa 9cbc
00000360: 01f6 d3bb 0c9d 393d 7cf8 f6bb 28b5 623c
00000370: cf5c 773d d895 c9bd 9e2f 923c 38d7 b33b
00000380: b617 f2bb ea42 9dbc 3893 51bd 9956 03be
00000390: ac09 a6bc d2ab 8d3d 35f1 40bb 73b2 11bd
000003a0: 51c9 cdbd 6d7d a9ba 812d 91bd 8b4a 903d
000003b0: d6de 66bd 5d6d dabc 96cb 69bd 9b2e a33a
000003c0: cb0d 823d 773d 08bd 1336 523c a505 203d
000003d0: b7aa c93d db38 08bd f031 e9bc 0e59 7d3a
000003e0: 2f2b 00be a2e0 2e3d 738b 61bd c915 9abd
000003f0: ab63 013d ab78 fbbb 04f4 443d 06f6 ba3d

conv.2.bias f4 [32]
0.01918449 0.00031773376 -0.04238592 -0.07631787 -0.07017122 -0.0882076 0.04269627 -0.03070585
-0.0043385774 -0.06670305 -0.026232887 0.07387246 0.003736473 0.0046578688 0.05480118 0.055984486
0.028249972 -0.07832541 0.013837241 -0.08128801 -0.052235756 0.05560335 -0.06468325 -0.045087975
0.025228964 0.05433642 -0.081988685 -0.049973626 -0.01590944 0.06653746 0.033487163 0.036535785
00000000: cb28 9d3c 8195 a639 dc9c 2dbd 8b4c 9cbd
00000010: eeb5 8fbd 30a6 b4bd 49e2 2e3d d68a fbbc
00000020: a02a 8ebb 9c9b 88bd 5ae6 d6bc 724a 973d
00000030: 9ddf 743b 09a1 983b 3477 603d fd4f 653d
00000040: 7c6c e73c 1369 a0bd 98b5 623c 547a a6bd
00000050: 29f5 55bd 57c0 633d a778 84bd 2bae 38bd
00000060: f9ac ce3c de8f 5e3d afe9 a7bd 25b1 4cbd
00000070: 8454 82bc cb44 883d d629 093d 8ca6 153d

conv.4.weight f4 [64, 32, 6, 6]
0.018865937 -0.007371916 0.011733607 -0.0008172412 0.002765538 -0.007815529 0.012506496 0.013157686
-0.0031048988 0.025934732 -0.0076140803 0.0074726576 0.026750024 0.006605751 -0.020719806 -0.02333922
0.0056805587 -0.0002252607 0.0020642148 0.018977558 0.00030891504 -0.016611138 -0.034045797 0.027852662
-0.003243676 -0.011607269 -0.021611145 0.028297544 0.014868321 -0.018677961 -0.025441302 0.025603779
0.0026925777 -0.0143199265 -0.024510272 0.01787497 -0.01998412 0.014549415 -0.027978664 -0.026273701
-0.028255131 0.02692883 0.016841944 -0.02517868 0.01283265 -0.027886365 -0.027347673 0.0042263763
0.016657416 0.0067215636 -0.004813074 0.018288705 -0.035328753 0.003636383 -0.019229552 0.0014897445
0.02035577 -0.021094566 0.0029301555 -0.005581781 0.019057466 -0.0007838412 0.004662705 0.018284634
-0.010513233 -0.039008018 0.027795263 -0.016201576 0.0067546945 0.018347977 -0.0045586033 0.013104931
0.01909357 -0.0059318286 0.0122711705 0.007059703 0.0320439 0.0154176485 -0.019733474 0.002882878
0.011567492 0.027319063 0.012829269 0.016637502 -0.0053277393 0.00071359286 -0.015663454 0.019463303
0.02320006 -0.012369836 -0.025592359 0.022443712 -0.03061242 0.01416772 -0.033040937 -0.013468934
-0.012513543 0.027350113 -0.0049700425 0.025439506 0.008560166 0.03315325 0.019246744 0.022103658
0.02561191 -0.00874546 -0.0081009185 0.004830679 0.016011821 -0.0107717505 -0.033101603 -0.03242446
-0.023561595 -0.004895879 -0.013312942 -0.017642474 -0.022255762 -0.0022778364 -0.024260763 0.019130988
-0.0145354895 0.0055395276 0.009669893 -0.011051053 0.023741063 0.00083212176 -0.0075681503 -0.028044108
-0.006292811 0.00023660444 0.0044335895 -0.0028406044 0.012320734 0.013311287 0.010850006 -0.014881987
0.0051644114 -0.030401953 -0.03199425 -0.0050355373 0.0039441916 -0.016834598 -0.024415452 0.013477342
0.010772336 -0.019458853 0.019610507 -0.022018066 0.022294585 0.015668351 -0.01995316 0.018053208
-0.026533784 -0.023450768 0.013486154 -0.017588437 -0.021890482 -0.0054355897 -0.014974867 0.018564269
0.014062497 0.013103897 -0.0036250567 0.0073995497 0.0007679356 0.0034587355 -0.009426162 0.020098109
0.016467152 -0.012959269 0.0011304691 -0.008365211 0.010415761 0.02418886 -0.020050656 0.0041740406
-0.006132159 -0.028798897 -0.038611516 -0.0038615891 0.02295005 -0.01750753 0.012855276 0.01917434
-0.018590502 0.015687548 0.006134822 -0.01878498 -0.008348654 -0.036168426 0.01770239 0.005484801
0.0111002615 0.021609783 0.014929399 0.029208647 0.014843897 -0.021404874 0.033823006 0.011291534
-0.008433365 -0.0100909285 0.030625472 0.010889663 0.015264934 -0.0072826995 0.019626303 -0.029686581
-0.0019790023 0.0075773727 -0.00021738587 0.018781232 -0.0017104056 0.0011984827 0.0201018 -0.012220681
-0.0118849445 -0.03428505 -0.00020189119 -0.013779846 0.007061747 0.015633866 -0.027483545 -0.017065931
0.028369332 -0.012568471 0.026208756 0.0290117 -0.0073989173 -0.023878215 0.004735307 0.0034735582
0.025604965 0.0042575547 0.016022922 -0.025264388 0.004051622 -0.0030588573 0.0084692985 -0.025768006
-0.003518687 -0.01756165 -0.019829199 0.012256028 0.004490653 0.011705121 -0.0006685675 -0.00071970694
-0.0011250296 0.015925143 -0.02038238 0.006353453 0.016148262 0.016960358 -0.014150819 0.022760727
00000000: bd8c 9a3c 1d90 f1bb 513e 403c 213c 56ba
00000010: 073e 353b b40c 00bc 0ce8 4c3c 5693 573c
00000020: 8f7b 4bbb 1375 d43c 897f f9bb 32dd f43b
00000030: de22 db3c 0e75 d83b 95bc a9bc e431 bfbc
00000040: fb23 ba3b f533 6cb9 c747 073b d376 9b3c
00000050: e0f5 a139 1514 88bc 9b73 0bbd 442b e43c
00000060: da93 54bb 6a2c 3ebc db09 b1bc 40d0 e73c
00000070: 429a 733c 8602 99bc 476a d0bc 04bf d13c
00000080: f575 303b 209e 6abc c4c9 c8bc 876e 923c
00000090: bdb5 a3bc ab60 6e3c 8333 e5bc f23b d7bc
000000a0: 4e77 e7bc da99 dc3c 1ef8 893c 8543 cebc
000000b0: 0940 523c f271 e4bc 3a08 e0bc 6a7d 8a3b
000000c0: 2275 883c 9040 dc3b feb6 9dbb 32d2 953c
000000d0: e2b4 10bd 6250 6e3b 4b87 9dbc 8843 c33a
000000e0: 25c1 a63c 83ce acbc da07 403b 5fe7 b6bb
000000f0: 671e 9c3c b17a 4dba 9bc9 983b a8c9 953c
00000100: b23f 2cbc dfc6 1fbd e4b2 e33c 2bb9 84bc
00000110: 7c56 dd3b 7f4e 963c 5660 95bb 11b6 563c
00000120: 1e6a 9c3c c95f c2bb 050d 493c 1555 e73b
00000130: 7740 033d 4e9a 7c3c 18a8 a1bc abee 3c3b
00000140: 9485 3d3c 3acc df3c db31 523c 5f4b 883c
00000150: 5194 aebb 6810 3b3a a550 80bc 8171 9f3c
00000160: 0d0e be3c daaa 4abc 11a7 d1bc e0db b73c
00000170: e6c6 fabc ba1f 683c ef55 07bd ceac 5cbc
00000180: 9a05 4dbc 580d e03c bddb a2bb 8366 d03c
00000190: f03f 0c3c b4cb 073d 59ab 9d3c bb12 b53c
000001a0: 11d0 d13c 1e49 0fbc b7b9 04bc ac4a 9e3b
000001b0: 392b 833c ff7b 30bc 8c95 07bd 83cf 04bd
000001c0: 3f04 c1bc 9c6d a0bb 871e 5abc f386 90bc
000001d0: b751 b6bc c147 15bb 82be c6bc 97b8 9c3c
000001e0: 4326 6ebc ed84 b53b 796e 1e3c 7a0f 35bc
000001f0: 9e7c c23c bf22 5a3a 3ffe f7bb c2bc e5bc
00000200: ed33 cebb 0519 7839 a547 913b 6f29 3abb
00000210: e7dc 493c 9617 5a3c 39c4 313c 94d3 73bc
00000220: 393a a93b 840d f9bc 670c 03bd 2601 a5bb
00000230: 473e 813b b6e8 89bc ea02 c8bc 12d0 5c3c
00000240: 747e 303c 2c68 9fbc 37a6 a03c 3b5f b4bc
00000250: 22a3 b63c ea5a 803c cf74 a3bc 52e4 933c
00000260: 615d d9bc d31b c0bc 08f5 5c3c a015 90bc
00000270: ab53 b3bc 081d b2bb 2559 75bc 1814 983c
00000280: 6366 663c bab1 563c 5c92 6dbb ec77 f23b
00000290: 494f 493a f4ab 623b 3070 1abc caa4 a43c
000002a0: 1fe6 863c 1d53 54bc 402c 943a 3d0e 09bc
000002b0: dea6 2a3c b727 c63c 4641 a4bc 64c6 883b
000002c0: 47f0 c8bb aaeb ebbc 1c27 1ebd b712 7dbb
000002d0: be01 bc3c f46b 8fbc f09e 523c 8113 9d3c
000002e0: 1c4b 98bc 2c83 803c 9e06 c93b f5e2 99bc
000002f0: cbc8 08bc 5825 14bd 9a04 913c d8b9 b33b
00000300: dfdd 353c 0007 b13c 709a 743c f946 ef3c
00000310: d133 733c 4659 afbc fe89 0a3d 2000 393c
00000320: 192c 0abc 6c54 25bc 45e2 fa3c 8f6a 323c
00000330: c619 7a3c b6a3 eebb 57c7 a03c 4631 f3bc
00000340: 26b2 01bb 9c4b f83b 13f2 63b9 19db 993c
00000350: b02f e0ba 6816 9d3a 88ac a43c 4039 48bc
00000360: 12b9 42bc 7b6e 0cbd c1b2 53b9 ddc4 61bc
00000370: 3a66 e73b 9812 803c 2c25 e1bc dacd 8bbc
00000380: cd66 e83c fdeb 4dbc bfb3 d63c f2a9 ed3c
00000390: 9e72 f2bb 3f9c c3bc a22a 9b3b a3a4 633b
000003a0: 81c1 d13c f582 8b3b 8142 833c 43f7 cebc
000003b0: 78c3 843b 1c77 48bb d0c2 0a3c 6d17 d3bc
000003c0: c699 66bb 73dd 8fbc d870 a2bc 82cd 483c
000003d0: 5426 933b d6c6 3f3c ce42 2fba b7aa 3cba
000003e0: bb75 93ba 7275 823c f3f8 a6bc a030 d03b
000003f0: 5c49 843c 73f0 8a3c d6d8 67bc b474 ba3c

conv.4.bias f4 [64]
-0.026952066 0.0007301033 -0.015348121 0.03747827 -0.0011689657 0.003611623 0.01330248 -0.0143574495
-0.01154009 0.005441466 -0.019822212 0.016799318 -0.018694244 -0.012675523 0.007359672 0.015992638
-0.0077412515 0.0321167 0.011215873 0.012555697 -0.01618034 -0.036379978 0.050619718 -0.0013198284
-0.031099303 0.02773961 -0.017981885 -0.032969527 0.022307035 -0.0027963985 0.018635835 -0.00060052413
0.01428644 0.044341683 -0.02948445 -0.007590781 -0.025757158 0.03758684 -0.02653023 0.031826008
-0.033705194 0.025941687 -0.01165746 -0.02610436 -0.038364246 0.0016559628 -0.0054580187 0.010280828
0.014867337 -0.01779537 -0.016091608 -0.034338493 -0.030297227 -0.025055395 -0.002492901 -0.03769224
0.00069085154 -0.030071652 -0.020557793 0.048562303 -0.021850945 -0.005728082 0.013813936 -0.017420698
00000000: 94ca dcbc 6764 3f3a af76 7bbc d082 193d
00000010: fb37 99ba fbb0 6c3b a5f2 593c 823b 6bbc
00000020: a512 3dbc 534e b23b 3162 a2bc b99e 893c
00000030: ac24 99bc ffac 4fbc 6729 f13b fe02 833c
00000040: 53aa fdbb cd8c 033d c8c2 373c 69b6 4d3c
00000050: a28c 84bc 2c03 15bd 9f56 4f3d 18fe acba
00000060: f7c3 febc 2e3e e33c bf4e 93bc 0e0b 07bd
00000070: 3ebd b63c c843 37bb 2eaa 983c 7e6c 1dba
00000080: ac11 6a3c a09f 353d 6089 f1bc 16bc f8bb
00000090: ad00 d3bc a9f4 193d ed55 d9bc fd5b 023d
000000a0: 750e 0abd a983 d43c eefe 3ebc d0d8 d5bc
000000b0: d423 1dbd e40c d93a 2ed9 b2bb eb70 283c
000000c0: 2296 733c 99c7 91bc 8cd2 83bc 85a6 0cbd
000000d0: e431 f8bc f940 cdbc f05f 23bb 2e63 1abd
000000e0: 431a 353a d358 f6bc d168 a8bc 44e9 463d
000000f0: c100 b3bc a2b2 bbbb d953 623c dab5 8ebc

fc.1.weight f4 [64, 1600]
0.0055536306 -0.0018972082 -0.016805364 0.017531613 0.0016433101 -0.024202872 -0.008367994 0.0095986
0.01979509 -0.0026915025 -0.02191629 0.018747134 -0.0022261022 -0.02133033 -0.015604952 -0.024515973
-0.012052971 -0.005057122 -0.019575024 -0.0061937785 -0.016863616 -0.010353625 0.0007169889 -0.013137312
-0.007962977 -0.011208962 0.018013434 0.017847672 0.012361261 0.014777819 0.02614198 -0.0066177538
0.024567634 -0.01575351 0.016558273 0.011564594 -0.012555348 0.010740557 -0.009543792 0.013518123
-0.016992308 -0.0031105126 0.024570243 -0.018976374 0.016967185 -0.011519013 0.007973314 0.001243462
-0.001859017 0.026201239 0.01949994 0.019092608 -0.009790817 0.024534805 0.007901813 -0.016970694
-0.019799791 -0.0068066334 0.022608742 -0.014368679 0.011640635 -0.00534665 0.018864373 -0.0011581159
-0.012252332 0.010433351 -0.016109813 -0.008272348 -0.015786124 -0.0012384142 0.0018463635 0.020041648
-0.00498123 0.028149458 0.018484583 0.007252729 0.013629378 0.0077956836 0.0025094699 0.00828571
-0.011370753 0.01995067 -0.00951326 -0.0033600219 -0.007081217 -0.013191447 0.0034957884 -0.015444646
0.008077235 0.0032642006 -0.011839353 0.015465562 -0.012154642 0.015359023 0.008949149 0.018189207
-0.011824876 0.008695218 0.0033429922 0.011819736 0.013168609 -0.005997261 -0.009691757 0.0056733233
-0.0018084161 -0.010443851 0.013346078 0.0042521786 0.021695161 0.0019978043 -0.006247306 0.009344427
-0.006325897 0.026325125 0.017683031 0.024921449 -0.02225539 0.0070721153 0.0044488665 -0.024297347
-0.0072642155 0.0045843367 -0.004986325 0.0074967984 -0.014635962 -0.0030505748 0.018506268 -0.017363016
-0.023602735 -0.015103847 0.010276383 -0.0070099137 0.016020166 0.024439778 -0.013998073 0.007398754
-0.02262557 0.00028377233 -0.010913669 -0.00052345474 0.0078891665 0.018499667 0.016885396 0.013598617
0.009679009 -0.0015895254 -0.024386907 -0.016441265 0.005697732 -0.010803353 -0.022973372 0.01430665
0.0033138103 -0.009339091 -0.001764313 -0.013568568 -0.03419191 -0.008139314 -0.03125504 -0.028905295
-0.011828168 -0.02905129 -0.01612885 -0.00852689 0.010649825 -0.010324187 0.013934122 -0.016500551
-0.020956093 -0.02722488 -0.0012389687 0.0018151503 -0.023549967 -0.025889406 0.008567121 0.01563238
0.015549756 -0.010318871 -0.021380667 0.01603718 -0.018893521 -0.023928054 0.004801613 -0.027023498
0.0050312025 0.0075770398 0.01640328 0.0077944333 -0.015398671 0.003618782 5.336949e-05 0.016895229
-0.023821365 -0.005502624 -0.021235522 0.008619391 0.019717019 0.012422561 0.007323134 0.010870046
0.008261584 0.011679122 -0.020975433 -0.0150670465 -0.017282262 -0.0034473187 0.011683796 -0.027967663
0.011102012 -0.005352311 0.023935648 0.014451835 -0.0068903016 -0.018265478 -0.00837103 0.011973248
0.013657936 0.012569736 0.004105264 0.017303215 -0.02144322 -0.0133269 -0.0044325646 -0.016237687
-0.023119418 0.00050480955 -0.009611314 0.011728231 0.0051340596 -0.0033054813 0.00046018913 -0.017729534
-0.0011350209 -0.013150023 -0.00738561 0.021539342 -0.013646238 0.004106332 -0.009584752 0.0010387148
-0.015131604 -0.0025720114 -0.0040573278 -0.0127582 0.0016137782 -0.012110217 -0.0003814102 0.007907626
-0.0063827005 0.011503745 0.0033269397 2.4028122e-06 -0.0020712893 0.018449444 0.0029728953 -0.0036095004
00000000: 3bfb b53b beab f8ba 67ab 89bc 759e 8f3c
00000010: 5664 d73a 1a45 c6bc e919 09bc 7243 1d3c
00000020: 5029 a23c eb63 30bb cb89 b3bc 9793 993c
00000030: cce3 11bb f2bc aebc eaab 7fbc b9d5 c8bc
00000040: d379 45bc 37b6 a5bb cd5b a0bc 2ef5 cabb
00000050: 9125 8abc 40a2 29bc 50f4 3b3a e13d 57bc
00000060: 2577 02bc cba5 37bc e990 933c 4835 923c
00000070: e386 4a3c aa1e 723c b527 d63c bed9 d8bb
00000080: 1042 c93c 810d 81bc 37a5 873c 6c79 3d3c
00000090: f2b4 4dbc 29f9 2f3c 915d 1cbc 1e7b 5d3c
000000a0: 7433 8bbc bed9 4bbb 8947 c93c 5774 9bbc
000000b0: c4fe 8a3c 3eba 3cbc 81a2 023c a9fb a23a
000000c0: 42aa f3ba fba3 d63c 57be 9f3c 1a68 9c3c
000000d0: aa69 20bc 37fd c83c 9b76 013c 2006 8bbc
000000e0: 2c33 a2bc 2e0a dfbb f835 b93c 9c6a 6bbc
000000f0: 5db8 3e3c f332 afbb 7589 9a3c eccb 97ba
00000100: 01be 48bc a5f0 2a3c baf8 83bc be88 07bc
00000110: e751 81bc 4952 a2ba ae01 f23a 622e a43c
00000120: 9639 a3bb b199 e63c fb6c 973c 4da8 ed3b
00000130: c14d 5f3c ef72 ff3b eb75 243b c9c0 073c
00000140: 654c 3abc 966f a33c 81dd 1bbc d033 5cbb
00000150: 8e09 e8bb f020 58bc 9919 653b 8a0b 7dbc
00000160: 6156 043c 33ec 553b d8f9 41bc 4563 7d3c
00000170: 4324 47bc 69a4 7b3c 749f 123c 8801 953c
00000180: 20bd 41bc 6376 0e3c 1a16 5b3b 91a7 413c
00000190: 26c1 573c ac84 c4bb 2dca 1ebc 49e7 b93b
000001a0: 6008 edba b01c 2bbc 82a9 5a3c dc55 8b3b
000001b0: 0dba b13c 98ed 023b 33b6 ccbb 5e19 193c
000001c0: 7849 cfbb caa7 d73c 01dc 903c 1128 cc3c
000001d0: f050 b6bc 34bd e73b ccc7 913b 3b0b c7bc
000001e0: a808 eebb 3438 963b 5364 a3bb b4a7 f53b
000001f0: adcb 6fbc 27ec 47bb 759a 973c e23c 8ebc
00000200: 865a c1bc 2076 77bc 465e 283c 6bb3 e5bb
00000210: b93c 833c ee35 c83c 2c58 65bc 3f71 f23b
00000220: 4259 b9bc 47c7 9439 3fcf 32bc 7438 09ba
00000230: 9041 013c 9d8c 973c 3e53 8a3c bccc 5e3c
00000240: b594 1e3c 9f57 d0ba 0dc7 c7bc d5af 86bc
00000250: 0ab4 ba3b 8c00 31bc a732 bcbc 7066 6a3c
00000260: 832c 593b fd02 19bc 8540 e7ba b34e 5ebc
00000270: d10c 0cbd c25a 05bc 4905 00bd ccca ecbc
00000280: efca 41bc f9fc edbc a620 84bc 5eb4 0bbc
00000290: 9b7c 2e3c c726 29bc f24b 643c 2a2c 87bc
000002a0: 1dac abbc b606 dfbc e464 a2ba 56ea ed3a
000002b0: dceb c0bc 0516 d4bc 1c5d 0c3c 7a0f 803c
000002c0: 67c4 7e3c 7b10 29bc 8226 afbc 6760 833c
000002d0: 96c6 9abc c404 c4bc d956 9d3b 6260 ddbc
000002e0: c9dc a43b d148 f83b 2c60 863c 7268 ff3b
000002f0: b54a 7cbc 1629 6d3b 0ed9 5f38 dd67 8a3c
00000300: 0625 c3bc 5b4f b4bb 1ef6 adbc 5938 0d3c
00000310: 9685 a13c ff87 4b3c e7f6 ef3b 4718 323c
00000320: 985b 073c ca59 3f3c acd4 abbc c6db 76bc
00000330: 8893 8dbc 69ec 61bb 646d 3f3c 711c e5bc
00000340: 37e5 353c 7062 afbb b114 c43c 64c7 6c3c
00000350: 0ac8 e1bb 7ca1 95bc a526 09bc 712b 443c
00000360: 89c5 5f3c 4bf1 4d3c 7385 863b 79bf 8d3c
00000370: b1a9 afbc 1259 5abc 0c3f 91bb e604 85bc
00000380: ef64 bdbc 3255 043a c678 1dbc c427 403c
00000390: 9d3b a83b c6a0 58bb 8a45 f139 873d 91bc
000003a0: fbc4 94ba 3273 57bc fd02 f2bb 4673 b03c
000003b0: 7894 5fbc 698e 863b 5d09 1dbc 7c25 883a
000003c0: 8cea 77bc 318f 28bb 55f3 84bb c507 51bc
000003d0: 6985 d33a ee69 46bc 03f8 c7b9 fd8e 013c
000003e0: f925 d1bb 347a 3c3c c908 5a3b 0040 2136
000003f0: 78be 07bb 4a23 973c e8d4 423b 5e8d 6cbb

fc.1.bias f4 [64]
0.022346722 -0.019790387 -0.023741484 0.012633071 0.06629613 -0.007689548 -0.019931216 0.011098951
0.019118462 0.048941903 0.0157776 0.03789748 0.012876585 -0.030260274 -0.012937001 -0.024055604
0.0048456322 0.044561554 -0.030288292 -0.014851639 -0.018391587 0.007621495 -0.01492469 0.03779654
0.018224401 -0.007523984 -0.024083283 -0.016945519 -0.012773863 -4.8188667e-05 0.007388923 -0.028242037
-0.00044084166 -0.017800933 0.0035453478 0.044376206 -0.007839754 0.060460355 0.013994238 -0.031208254
-0.024201112 0.007376224 0.009191467 -0.022936247 -0.02233547 0.0059390822 -0.015295957 0.0038584895
-0.016168648 0.006784162 0.0053119757 0.015744032 0.011436809 0.056892246 0.014891661 0.018383738
-0.008226295 -0.024864227 -0.02367403 0.04816963 2.01578e-05 -0.014497128 0.008949755 0.02670281
00000000: 7910 b73c 731f a2bc 807d c2bc f1fa 4e3c
00000010: 44c6 873d 9bf8 fbbb ca46 a3bc 60d8 353c
00000020: 529e 9c3c 4e77 483d 0740 813c 633a 1b3d
00000030: 50f8 523c 65e4 f7bc b7f5 53bc 4210 c5bc
00000040: 1cc8 9e3b 2d86 363d 271f f8bc 4a54 73bc
00000050: f4a9 96bc bcbd f93b b086 74bc 8bd0 1a3d
00000060: 574b 953c c18b f6bb 4e4a c5bc 54d1 8abc
00000070: 7749 51bc 301e 4ab8 c71e f23b d85b e7bc
00000080: c420 e7b9 43d3 91bc 1159 683b d3c3 353d
00000090: 5072 00bc 47a5 773d 1748 653c 74a8 ffbc
000000a0: 6941 c6bc 40b4 f13b cf97 163c cce4 bbbc
000000b0: e0f8 b6bc a29c c23b e59b 7abc b6de 7c3b
000000c0: 1d74 84bc ad4d de3b 1510 ae3b a1f9 803c
000000d0: 7461 3b3c d807 693d 27fc 733c 7e99 963c
000000e0: 95c7 06bc 10b0 cbbc 0af0 c1bc 854d 453d
000000f0: 8c18 a937 5d85 6dbc fea1 123c dabf da3c

fc.3.weight f4 [4, 64]
0.01608934 0.0703766 0.011553958 0.07620694 -0.11077731 0.048774287 0.07667301 -0.092040695
0.09334883 -0.11684603 -0.04913457 -0.11916973 0.07974906 0.011022023 -0.071540415 0.099206045
0.050775293 -0.108961634 0.10635145 0.031169891 0.05080048 0.018153073 -0.049487427 -0.048187785
-0.0056514153 -0.007919674 -0.10427679 0.11072624 0.038552187 0.10461445 0.066547684 0.013198833
0.08256826 -0.09936729 -0.103273556 0.030242192 0.049009383 -0.10364876 -0.02262313 0.13034983
0.0438143 -0.019915525 -0.046778373 0.084596455 -0.09599598 -0.040710725 0.10600744 0.10995574
0.041886266 0.06283319 0.044523377 -0.05302133 -0.060232207 -0.045177784 -0.035486504 0.09787137
-0.032440804 0.05436705 -0.08295013 -0.093352996 0.027579498 -0.06181947 0.053566523 -0.03180908
-0.015381412 -0.0327105 0.11166106 -0.082573384 -0.087789 -0.016485441 -0.06567161 0.035074804
-0.03210254 0.06824457 -0.103399545 -0.049388725 0.026220689 -0.007243961 -0.0656579 0.0346525
-0.01567826 -0.10098886 0.02405185 0.06014198 -0.068169266 0.076700196 0.1094054 -0.108956784
0.04960454 -0.08689153 0.08280265 -0.02190584 -0.051290892 -0.09228446 0.10287162 -0.092148215
0.019758688 0.009694323 0.036307056 -0.08138203 -0.053802475 -0.02251361 0.001330514 0.03147841
-0.10881419 0.05940729 0.0019122197 -0.02489713 -0.0033371942 -0.07902297 -0.03195356 -0.11245541
-0.06317018 0.041275844 0.11438298 -0.054940283 -0.0090020895 -0.118168026 -0.0869872 -0.013687369
-0.028949307 -0.004145518 -0.056456566 0.07252595 0.043841105 0.10878645 0.080840304 -0.06736425
-0.034299344 -0.061132934 0.063630536 0.07770449 -0.14975359 0.089559466 0.104808725 0.005986868
0.118190385 -0.11833142 0.031698998 0.0914923 0.082898274 0.013655233 0.07752906 0.04929708
0.056498043 -0.11840855 0.09584373 0.10018554 0.004159489 0.011471474 0.07621668 -0.041907527
0.070881486 0.021936746 0.02614369 0.0370899 0.07816271 -0.038749795 0.10258646 -0.08273034
-0.094342716 -0.001480937 0.048198994 -0.09493534 -0.060472026 -0.06585115 0.06336237 -0.011280305
0.09594524 0.02514118 0.044536974 0.05813009 -0.08900134 -0.06997119 0.09097184 0.086446226
-0.009283199 -0.08678973 0.0021246532 0.0507981 -0.036507864 -0.06093633 -0.029134093 0.0065060495
-0.09440928 0.1100591 0.011643618 -0.1094231 0.048214737 0.016433833 0.11775405 -0.055630773
-0.00523597 -0.09987167 -0.043459043 -0.058614973 0.00020279059 -0.05080232 -0.050903633 0.08242189
-0.091408744 -0.08339951 0.032009933 -0.121007994 -0.09707346 0.07063736 0.03833887 0.0004982054
-0.04777936 -0.115576915 0.003861225 -0.11105852 -0.07244037 -0.0600463 -0.09111724 -0.10841944
0.046198867 -0.048775952 -0.055562705 -0.03473212 0.11633065 0.12194113 -0.10610498 0.11470722
0.12507334 -0.08852367 0.007437101 -0.08425028 -0.07266937 -0.08646811 0.00038124644 0.034279425
-0.06162089 -0.098636635 0.07965319 -0.12842199 0.014100493 0.11050459 0.043891415 -0.11669286
0.12004577 -0.01226083 -0.039569754 -0.022943785 0.09986604 -0.11942985 0.033881627 -0.0069256695
-0.10752298 0.11911546 0.011059001 -0.005434059 0.10904018 -0.038363628 -0.048569717 -0.034788802
00000000: cbcd 833c 9b21 903d d04c 3d3c 6212 9c3d
00000010: 37df e2bd 8cc7 473d bd06 9d3d d57f bcbd
00000020: ac2d bf3d f94c efbd 5541 49bd 420f f4bd
00000030: 7a53 a33d b795 343c c883 92bd 8a2c cb3d
00000040: c1f9 4f3d 4727 dfbd cace d93d 0058 ff3c
00000050: 2a14 503d c1b5 943c 54b3 4abd 8e60 45bd
00000060: 822f b9bb 85c1 01bc 128f d5bd 70c4 e23d
00000070: e6e8 1d3d 1a40 d63d 274a 883d eb3f 583c
00000080: 8c19 a93d 1481 cbbd 1681 d3bd 79be f73c
00000090: 10be 483d cd45 d4bd 2454 b9bc 6d7a 053e
000000a0: a076 333d e225 a3bc ae9a 3fbd e840 ad3d
000000b0: 8a99 c4bd 4ac0 26bd 6e1a d93d 7a30 e13d
000000c0: ef90 2b3d b0ae 803d 255e 363d e52c 59bd
000000d0: 0cb6 76bd 570c 39bd 4c5a 11bd c970 c83d
000000e0: a6e0 04bd fcaf 5e3d c2e1 a9bd db2f bfbd
000000f0: 66ee e13c 6a36 7dbd 9268 5b3d 3d4a 02bd
00000100: 5102 7cbc 72fb 05bd 8eae e43d 3c1c a9bd
00000110: b8ca b3bd 7a0c 87bc d67e 86bd 99aa 0f3d
00000120: f47d 03bd cfc3 8b3d 24c3 d3bd d54b 4abd
00000130: c5cc d63c c05e edbb a677 86bd c8ef 0d3d
00000140: b26f 80bc 3fd3 cebd 6308 c53c 7057 763d
00000150: 549c 8bbd fe14 9d3d f00f e03d bc24 dfbd
00000160: 212e 4b3d 30f4 b1bd 7094 a93d e073 b3bc
00000170: 6616 52bd a3ff bcbd 5bae d23d 34b8 bcbd
00000180: f9dc a13c f0d4 1e3c b5b6 143d 9fab a6bd
00000190: fc5f 5cbd 766e b8bc a464 ae3a 81ef 003d
000001a0: f9d9 debd 0f55 733d 72a3 fa3a 11f5 cbbc
000001b0: d4b4 5abb cbd6 a1bd bce1 02bd 064f e6bd
000001c0: 5e5f 81bd dc10 293d a041 ea3d 1009 61bd
000001d0: 807d 13bc 1402 f2bd 5826 b2bd fd40 60bc
000001e0: 1927 edbc 20d7 87bb 003f 67bd 7c88 943d
000001f0: bb92 333d 6ecb de3d 9a8f a53d 45f6 89bd
00000200: 787d 0cbd 8766 7abd ba50 823d 8823 9f3d
00000210: 0159 19be f46a b73d f5a5 d63d 7d2d c43b
00000220: cd0d f23d be57 f2bd cfd6 013d 5160 bb3d
00000230: 92c6 a93d 33ba 5f3c 8ec7 9e3d bceb 493d
00000240: 7e6a 673d 2f80 f2bd b849 c43d 142e cd3d
00000250: 534c 883b d9f2 3b3c 7e17 9c3d 3aa7 2bbd
00000260: 502a 913d b1b4 b33c 4b2b d63c 94eb 173d
00000270: c513 a03d 1bb8 1ebd da18 d23d 866e a9bd
00000280: c136 c1bd 001c c2ba 4f6c 453d 766d c2bd
00000290: 84b1 77bd f8dc 86bd 21c4 813d 07d1 38bc
000002a0: f07e c43d e0f4 cd3c 676c 363d d119 6e3d
000002b0: 5646 b6bd 0e4d 8fbd 724f ba3d b80a b13d
000002c0: 8f18 18bc d0be b1bd c43d 0b3b ab11 503d
000002d0: 4589 15bd 6098 79bd 9faa eebc b330 d53b
000002e0: a759 c1bd aa66 e13d e0c4 3e3c 3819 e0bd
000002f0: d17c 453d 3fa0 863c 0929 f13d 18dd 63bd
00000300: 8092 abbb 8589 ccbd 1c02 32bd 4116 70bd
00000310: 2fa4 5439 1816 50bd 5480 50bd cfcc a83d
00000320: 8234 bbbd 5dcd aabd d91c 033d 0ad3 f7bd
00000330: 73ce c6bd 52aa 903d 3809 1d3d 009a 023a
00000340: 4ab4 43bd 97b3 ecbd 9b0c 7d3b a672 e3bd
00000350: 9e5b 94bd 1cf3 75bd ad9b babd 030b debd
00000360: 063b 3d3d 4bc9 47bd b895 63bd 4443 0ebd
00000370: c43e ee3d 45bc f93d 914d d9bd 9eeb ea3d
00000380: 3a13 003e e64b b5bd edb2 f33b 698b acbd
00000390: aed3 94bd 3116 b1bd 08e2 c739 9568 0c3d
000003a0: 3066 7cbd 0102 cabd 3621 a33d 0e81 03be
000003b0: c105 673c 3b50 e23d 7cc7 333d abfc eebd
000003c0: 8fda f53d a6e1 48bc e513 22bd 9bf4 bbbc
000003d0: 9186 cc3d a397 f4bd 76c7 0a3d baf0 e2bb
000003e0: 0235 dcbd cef2 f33d d030 353c 3110 b2bb
000003f0: 7550 df3d 2e23 1dbd 0af1 46bd b47e 0ebd

fc.3.bias f4 [4]
0.013878223 -0.0669147 0.026064713 0.00886032
00000000: 7c61 633c 930a 89bd aa85 d53c e02a 113c
