models/v17.1/model_133500_target.pt (torch, 729952 bytes, 10 tensors)

conv.0.weight f4 [16, 2, 3, 3]
00000000: 0f7a 483e 49ad 073c 0a32 8bbd c33d bb3c
00000010: 9adb f7bc eba4 1dbd c518 bbbc 02f4 4bbd
00000020: c1fd d63d fe88 44be 12ca 813d 4fb4 9b3d
00000030: 3cba d63c 2bc7 ccbc 1cb9 ae3d 8419 4a3d
00000040: 2b6e bb3d 23bd 8bbd 735f fa3d 3da5 853e
00000050: 5ba6 1ebd 5e2b e7bd 9ce3 73be 28f5 163e
00000060: 0bed 5bbe c92a 80be 6eb1 fdbd b15c 38bd
00000070: c441 82bc 08ef 4c3a 7ed4 493d 6ecb cfbe
00000080: 2430 6c3d d46b 4c3e 938d fd3d 7e84 2e3e
00000090: 3095 793d 5093 a23e 06ab 83bc 71d4 ebbc
000000a0: 4cc8 f53d 1752 983e 27ee 3b3e 6467 de3e
000000b0: 6e65 433d 9dcd bcbd 96e5 9fbe 5fc3 f53c
000000c0: d790 7c3c c78d 36bd 71e5 a1be 6e8a 25be
000000d0: 146d d6be b5c3 41bd eaa6 a23c 7a3c f7bb
000000e0: ee13 8d3d ebb0 01bd bc2f 9f3c f5f1 a4bf
000000f0: 5116 2d3a c6ab 57bd 2835 863c 1ef1 1fbd
00000100: 2254 213c 82f3 8ebd dc88 443d a3e2 f2bc
00000110: 1f1b a73d 311c d6bb f50d 733d 850b 92bc
00000120: f583 bd3c 848e bbbd 5ba9 0abe b978 94bd
00000130: bcb8 00be 208b 193f 81c4 c23b de9d 233b
00000140: 8778 0bbe 24ff d2bc 2cd9 ac3d 923f 083e
00000150: 71fd 803d 7e7b fe3d eba8 953e b3ba 923b
00000160: 767d 39bc 4d23 e83d 5b9a 2f3d 003d 92bd
00000170: 9be5 f13e ae4c 30bd e78e 14bf 65fd 15bd
00000180: 5083 1a3b 87cb 24be a255 c9bd 6aac 59bd
00000190: 575d 8f3c d943 a4bc 256c 663d ac19 d93a
000001a0: 9ae7 b3bc d779 57bd 0779 0f3e 9034 c53d
000001b0: 51da b4be ee4e d6be 48c0 76bc 9829 143c
000001c0: 9b71 333d d59f 25bf 86fc bebe 23c6 f1be
000001d0: aa57 9abd 2526 693e 0de5 813e 3d93 a93c
000001e0: a5ff b2bc 71b7 433c 524e db3e f7b6 343e
000001f0: a582 7b3e 348e 443d 8fc9 fbbe 4bc7 09bf
00000200: e084 953d ea86 00be 3778 d33d 43a1 043e
00000210: 1859 69bf 26b2 dfbd a834 31bd 63d4 823e
00000220: 7ac1 923e 4d53 1cbd c5dc bfbb 7149 05bd
00000230: d798 b13d 996f 953e 1382 8f3d 6d7e 2a3d
00000240: fb33 893d 99e7 623d cf2e ac3c 542c 9f3d
00000250: 8c9f 643e 6383 abbb 946d 65be a2cd dabe
00000260: 7d5e c9be 57c2 b8bd 3297 c63d 21c2 0b3b
00000270: 0f4e 493d 4eec 673d 21f3 073e fe49 ffbd
00000280: b31f 053e 4340 d0bc aa43 c439 1d8b 63bd
00000290: 0681 333d 44dc f43c 6baa 73bd fb2f 0b3f
000002a0: adad efbc 270d 2bbe b904 a8bd 22de 0f3c
000002b0: 3cef 583d a40e 33bd 7f91 95bc 02d9 703d
000002c0: df9a 0dbf 8402 88ba ab4a 133e 51a1 973d
000002d0: 045d 7e3c 54b0 5fbc efb1 1e3a 63b8 9dbd
000002e0: f008 0f3f f83e b8bd 87bb 9a3c 6bfc 83bd
000002f0: 812b 3b3d 1e71 acbc 0ac9 ad3c fb2c 58bb
00000300: 34ad aa3d b0c6 c13e a6a1 b33d f7e5 a63b
00000310: 5698 773d 88e2 8abd 7120 4bbc 74ae 563d
00000320: c469 97bd 22af 443c 8717 523f d5c7 f73c
00000330: a58c b9bd cd79 c53c c33f b5bd c697 ca3c
00000340: dc57 8dbd 9b54 8e3d a8cf e2bc 0d02 b0bd
00000350: 0d98 64bd ac2b a73d d72a 8abd 1abc b73d
00000360: 3cf1 c6bd 0cf3 3abe 0a4d a0bd a32b d2bd
00000370: 4c5c 04c0 0d13 b63c 721b f4bd 16bc 1fbe
00000380: ed3c 1cbe d216 f43d e8a0 fd3d 432a c13d
00000390: 1fcb 953d bb87 bf3e 7d65 cebd 1a9b 043e
000003a0: 4349 8d3d fcce 353e ad89 8cbd 99f7 59bd
000003b0: 3d5c 2ebd 2051 6abd 6693 e3be 93e9 5bbf
000003c0: f2b3 4b3e beba cebd 454e b4bd 8f5a 23bd
000003d0: ce7a a93d 3fab 063d ebba 9dba 391a 5a3c
000003e0: 78e4 ee3e 29f9 fd3d 84b5 183e f749 8c3d
000003f0: bb38 16bf 6496 0bbf e34a 6fbf f207 07be
0.19577812 0.0082810605 -0.067966536 0.022856599 -0.030256081 -0.038487356 -0.02283896 -0.04979325
0.104976185 -0.19192883 0.0633737 0.076027505 0.02621185 -0.024997314 0.085314006 0.04934074
0.09151872 -0.06823184 0.12225237 0.2610263 -0.038732868 -0.112875685 -0.23817295 0.14741957
-0.21477143 -0.25032642 -0.12387358 -0.045010272 -0.0159005 0.0007817601 0.049274914 -0.40584892
0.057663098 0.19963008 0.12380519 0.1704273 0.060933292 0.31753016 -0.016072761 -0.028787823
0.12001094 0.2975013 0.18352567 0.43438256 0.047704153 -0.09218905 -0.31229848 0.030000387
0.015415392 -0.044568803 -0.31620362 -0.16166088 -0.41880095 -0.04730578 0.019854981 -0.007545051
0.06888567 -0.031662863 0.019431941 -1.288634 0.00066027517 -0.05265405 0.016382769 -0.039048307
0.009846719 -0.06980039 0.04798208 -0.029649084 0.0815947 -0.0065341224 0.059339482 -0.017827759
0.023134211 -0.09158042 -0.13541166 -0.072495885 -0.1257047 0.5997791 0.0059438352 0.0024965922
-0.13620196 -0.025756426 0.0843986 0.133055 0.0629834 0.12425898 0.29230437 0.0044778227
-0.011321416 0.11334858 0.042871814 -0.07140541 0.47245488 -0.043041877 -0.5803055 -0.03661861
0.0023576804 -0.16093265 -0.09830786 -0.053142942 0.017500563 -0.020051884 0.05625548 0.0016563437
-0.021961022 -0.05260643 0.14011012 0.09629166 -0.35322812 -0.41857094 -0.015060492 0.00904312
0.043809514 -0.6469701 -0.37302035 -0.4722148 -0.07536252 0.22768457 0.25370064 0.020700091
-0.021850416 0.011945591 0.4283319 0.1764792 0.24561556 0.047987178 -0.49177215 -0.5381972
0.073007345 -0.12551466 0.103256635 0.12952141 -0.9115157 -0.10922651 -0.043263108 0.25552663
0.28663236 -0.03816538 -0.005855175 -0.032540742 0.0867173 0.29186705 0.070072316 0.041624475
0.066993676 0.05539665 0.021018414 0.07772127 0.22326487 -0.0052341684 -0.22405082 -0.4273501
-0.393299 -0.090214424 0.09696807 0.0021325427 0.049146708 0.056621842 0.1327634 -0.12465285
0.13000374 -0.025421267 0.00037434447 -0.05555259 0.04382422 0.029890187 -0.059488695 0.5437009
-0.02925762 -0.16704236 -0.08204026 0.008780988 0.052962527 -0.043715134 -0.018257855 0.058800705
-0.5531444 -0.0010376726 0.14383952 0.074038155 0.015525106 -0.01365288 0.0006053736 -0.077011846
0.5587301 -0.08996385 0.018888248 -0.06444629 0.045695785 -0.021050032 0.021214027 -0.0032985795
0.08333817 0.378469 0.08771066 0.005093332 0.060448013 -0.06781489 -0.012397871 0.052412465
-0.0739322 0.012004646 0.8206715 0.030246655 -0.09060029 0.02410593 -0.08850052 0.024730574
-0.069015235 0.06949731 -0.027686909 -0.08594141 -0.05580907 0.081626266 -0.06746452 0.089714244
-0.097139806 -0.18256778 -0.07827194 -0.10262229 -2.0681334 0.022225881 -0.11919297 -0.15599093
-0.15257616 0.11918415 0.12384206 0.09431889 0.07314133 0.37408242 -0.10077951 0.12949792
0.06898739 0.1775474 -0.06862197 -0.053214643 -0.042568434 -0.057206273 -0.44448394 -0.8590328
0.19892862 -0.10094212 -0.08803991 -0.039881285 0.08275376 0.032878157 -0.0012033855 0.013311916
0.46658683 0.12401039 0.14912993 0.06850045 -0.58680314 -0.5452635 -0.93473643 -0.13186625

conv.0.bias f4 [16]
00000000: 7be1 68bd dc3c 81be c144 e4bd dcc2 123f
00000010: 844e 11bf e111 80be 2118 273d 3b18 31be
00000020: 0718 c2be dee5 56bd aa3c 28bf c8ad cebe
00000030: bb4b 9d3e 73a8 6cbe bdf4 0cbc 0cec 6cbe
-0.05685566 -0.25241745 -0.11145926 0.5732858 -0.5676043 -0.2501364 0.040794495 -0.172944
-0.37908956 -0.052465312 -0.65717566 -0.4036696 0.3072184 -0.23111133 -0.008603272 -0.2313692

conv.2.weight f4 [32, 16, 3, 3]
00000000: 6b05 7fbd 31ae 6b3c 4d59 1dbd 48f5 88bc
00000010: 2dd6 85bd a7b6 a7bc fbb4 b13d a328 c7bc
00000020: 444b bcbd 077e 8e3d 45d4 d13d 6492 ad3d
00000030: 7857 103e 6ca9 e83d 7e92 fc3c ac40 483d
00000040: 14ee 20bd 6d16 2ebd f1ba 333e a008 efbc
00000050: 9447 43bd ff2e 03bd 40c6 c5bb 2674 67be
00000060: 6b4e fabd 672f 79be a4f9 41be f969 5c3c
00000070: c96e 08bd c4a1 04be 2050 463c 90a4 85bd
00000080: bcdd 92bd a5bd 5b3d e10a e8bd a0c1 b3be
00000090: dcb9 9d3d 37f6 e73d 6d08 91be 70c7 12be
000000a0: 8e95 25be a641 abbe aa7e eb3d b793 f7bd
000000b0: 3086 32be 6f45 2d3d 2570 d93c 4ac8 b5bd
000000c0: ba67 2a3e e930 b73d 77e5 83be 4438 a33d
000000d0: 6cb3 8f3d f1ce 02be 0f4b 353d 0d7c 3f3e
000000e0: 875f 5e3c 9af6 1e3e 8065 3f3d d1a7 34bd
000000f0: aab1 8a3d 53f6 ab3c 86ed 34be b99f 45be
00000100: 9453 18bd d804 983c 860e 89bd 586d 8cbc
00000110: 73e1 2abd ec03 a1bd c9dd a5bd 522b 07be
00000120: f772 c03d a71e 893d f5d3 133d fab0 91bd
00000130: 76ff 173e 6460 04be fd2d ca3d b4f8 42bd
00000140: 3574 1ebe 7acc c43d 165b 71be 1fe3 2f3d
00000150: e72c de3d 5f59 1dbe d55a 21bd 3e46 2dbe
00000160: 8800 6abe 8495 983c a6be 5e3d 3205 733b
00000170: 7397 02be 58a9 e5bc a9f3 de39 833a 17be
00000180: 0dc3 9bbd a73b fdbc eace 92bd a3f7 633c
00000190: 6e43 4abb d533 97bd 4de1 16be caee 52be
000001a0: b4dd 11be e50d 00be 23e3 0dbe 4713 c43b
000001b0: 9f4f 533c bc75 2e3d c8cf 0c3d 29b8 04be
000001c0: 37df 7fbb 27ff cb3c 09cf 09be ef88 19be
000001d0: 73e3 e6bc 5d77 b6bb 1d24 5e3c 6e21 523d
000001e0: cfd4 853d ce13 993c d10f b4bc 801f 15bd
000001f0: 30c4 2ebd 0b8d aa3c 73e7 bd3c 8c1a 503b
00000200: 6158 e9bb 925c 02bd 603f 34be cc00 c2bd
00000210: ab43 1bbd 7d87 2cbd 6b73 b23d 0b6e 06be
00000220: 81da 5abc 383e b5bd 68d0 d0bd 0540 da3d
00000230: b6f4 243c cf0e b5bd 1785 1abe 7881 8fbd
00000240: f6b5 843e e1e0 9bbd 714d 2e3e 7214 893d
00000250: 6a05 093e b21a cabc 597d bfbc 3267 d13c
00000260: cec3 94bd 72a2 e43d 8b05 d8bc 2887 853e
00000270: 6ff4 65be f3c2 383e 4be7 943d 5424 3e3e
00000280: 0481 2cbd 6cce 163d d03f e9bd 94fd 823e
00000290: 8cea 5b3e 0d15 723e becb 89be b817 bcbd
000002a0: afdc a33e 8fc2 bfbc 4d58 be3d 9a50 07c0
000002b0: 5551 bb3d afb9 cabd 8046 cfbc bc37 9bbc
000002c0: 451f bc3c a380 36bc 4d9b 4abd e26b f7bc
000002d0: 5382 81bf 3422 c73e 819f 8a3a 3865 2d3b
000002e0: e8d1 9e3d 578f cb3d 2f6f 373c 91b2 52bd
000002f0: 0ca6 5fbc daf7 47be 9166 33bf f384 bebd
00000300: 6377 9cbe bf17 c1bb 5fed 63be 74e4 03be
00000310: 28e4 043c accd 6cbc c6e3 fd3d 7547 37be
00000320: 55e5 06be 0772 353d f74d 29be 487c 14be
00000330: d551 103e b9eb 3c3d fbc6 aabc fa29 f73d
00000340: bbf3 3ebd 540b cdbd fb1c f73d c5ba 94bd
00000350: f198 37be b10c 943e 966e 063c 687e b63d
00000360: 7aa2 653e 5de0 a7bd ff9d 323e d2bc 3f3d
00000370: 3bbb 973e 24d0 683c c7f6 373e 56ff 053e
00000380: 9a81 23be d188 d63d 34c0 efbe 4d44 f0bd
00000390: 116b 613d a648 e139 31e1 48be c65b 093f
000003a0: 9020 513c ab1a d2bd 71d1 82bd 7ed0 f3be
000003b0: beb9 df3e 1987 213d 076e 25be afc5 a8bb
000003c0: 8adf dfbc 7c1f 6fbd 81c3 40bc a88f 1c3e
000003d0: d4e0 23bf 2a4f 4a3e 5d87 a03d b826 b7bd
000003e0: cd5c 53bd f18e 4ebd a9f0 b9bb 6fd4 4f3c
000003f0: 8adb 893d 760e 94bf 245b 29bf 3620 8a3e
-0.062261026 0.014384792 -0.038415242 -0.016718522 -0.065349914 -0.020472838 0.086770974 -0.02431137
-0.09194043 0.069576316 0.10245565 0.084751874 0.14095867 0.1136044 0.030831572 0.0488898
-0.03928955 -0.042501856 0.17551781 -0.029178917 -0.047675684 -0.03202724 -0.006035596 -0.22602901
-0.12221988 -0.24334489 -0.18942887 0.013453 -0.033308778 -0.12952334 0.012104064 -0.065255284
-0.07171199 0.053647656 -0.113302 -0.35108662 0.077014655 0.11326259 -0.2832674 -0.14333892
-0.16170332 -0.33448523 0.11498769 -0.12088721 -0.17434001 0.042302545 0.026542732 -0.08876093
0.16641131 0.08944876 -0.25761005 0.07969716 0.07016644 -0.12774254 0.044261035 0.18699665
0.01357258 0.15523759 0.046727657 -0.044105355 0.06772168 0.02099148 -0.17668733 -0.1929921
-0.03718908 0.018556997 -0.06692223 -0.017141983 -0.04171891 -0.07862076 -0.08098943 -0.13200119
0.09396928 0.066952996 0.03609081 -0.07113834 0.14843544 -0.12927395 0.09872053 -0.047600463
-0.15474017 0.09609313 -0.23569903 0.04294121 0.10848408 -0.15366124 -0.039393265 -0.16921327
-0.22851765 0.018625982 0.054381035 0.0037081954 -0.12753086 -0.028034851 0.0004252468 -0.14768414
-0.07605562 -0.030912234 -0.07168372 0.013914022 -0.0030862945 -0.07382933 -0.14734383 -0.20598903
-0.1424473 -0.125053 -0.13856177 0.0059837434 0.012897401 0.04259275 0.034377843 -0.12960877
-0.0039042959 0.02490194 -0.13457884 -0.14993642 -0.028184628 -0.0055684284 0.013558415 0.051301412
0.06534731 0.018686201 -0.021980198 -0.036406994 -0.042667568 0.020819208 0.023181653 0.0031754104
-0.0071211313 -0.031826563 -0.176023 -0.09472808 -0.03790633 -0.0421214 0.087134205 -0.13127916
-0.013357759 -0.08849758 -0.10196 0.10656742 0.010068109 -0.08840715 -0.15089832 -0.07007116
0.25920075 -0.076112516 0.17021729 0.06693353 0.13380972 -0.024670932 -0.0233752 0.025561903
-0.07263909 0.111637965 -0.02636983 0.2607968 -0.22456525 0.18043117 0.07270678 0.18568546
-0.042115226 0.036817953 -0.113891244 0.2558409 0.21476191 0.23640843 -0.26913255 -0.091842115
0.32004306 -0.023408202 0.09294186 -2.1142945 0.09146372 -0.098986976 -0.025302172 -0.018947475
0.02296413 -0.011139068 -0.049464513 -0.03020281 -1.0117897 0.38893282 0.00105761 0.0026458036
0.0775488 0.09939449 0.011195942 -0.051439825 -0.0136504285 -0.19528142 -0.7007838 -0.09302702
-0.30559835 -0.0058927233 -0.22258519 -0.12880117 0.008111037 -0.014453333 0.1239696 -0.17898352
-0.1317342 0.044298198 -0.16533647 -0.14500535 0.14093716 0.04612324 -0.020846834 0.12068553
-0.04661916 -0.10011926 0.120660745 -0.07262186 -0.17929436 0.28915933 0.008205077 0.08910829
0.22425261 -0.08197091 0.17443083 0.046810932 0.29635033 0.014209781 0.17965232 0.13085684
-0.15967408 0.104753144 -0.46826327 -0.11731777 0.055033747 0.00042969472 -0.19617154 0.5365566
0.012764111 -0.10258993 -0.06387604 -0.47620004 0.43696398 0.03943548 -0.16155253 -0.005150519
-0.027328271 -0.058379635 -0.011765362 0.15289176 -0.64014935 0.19756761 0.078383185 -0.08942932
-0.051602174 -0.05042929 -0.005674441 0.012684925 0.06731327 -1.1566913 -0.66154695 0.269777

conv.2.bias f4 [32]
00000000: fb32 b73c 9cf6 633d 9fa0 85bd 5ce3 713d
00000010: d2f8 0a3d 975e ccbc b297 513e 42de 93bd
00000020: f7e2 68be bbfa 9dbe bb3e 083e e54c 863e
00000030: 14f7 b3bd 5eae 523d e9b2 db3d ef58 fbbd
00000040: 4d45 993c 7f2a 853c b4fd 5f3e 33e3 dfbd
00000050: c575 703d e132 32bd 0b7d 823a 4a92 ddbd
00000060: 539f e2bd 2bd3 983e a0b3 e03d 6073 02be
00000070: f62c 0fbd 6953 063d 10e8 b0bd dffa f73d
0.022363177 0.055655107 -0.06524777 0.059054717 0.0339287 -0.024947448 0.20468023 -0.07220127
-0.2274283 -0.30855355 0.1330518 0.2623054 -0.08787361 0.05143582 0.10727484 -0.12272822
0.018709803 0.016255615 0.21874124 -0.10932007 0.058706064 -0.043505553 0.0009955479 -0.10818918
-0.11065545 0.29848608 0.10971761 -0.12739325 -0.034954987 0.03279439 -0.086380124 0.12108397

conv.4.weight f4 [64, 32, 6, 6]
00000000: 4c01 49bc 11d1 6dbd d0f9 883d 02fd 7bbc
00000010: 4bc7 3e3d 02dc 7fbc 8862 05bd 8086 253d
00000020: 282f ef3c 5265 b33c 3370 88bc c8f4 1f3d
00000030: 96b5 5cbb c9c9 c53c 6767 d1bc ae88 34bd
00000040: a96e e2bb 960b ec3c 9b3f 433c aad9 963d
00000050: 3559 9fba 6393 42bd ef35 44bd 1043 a33d
00000060: 4848 ca3c 2f0d 02bb e684 6cbd 5900 fc3c
00000070: e49d f1ba ae71 18bb 015f 3a3c 7235 89bc
00000080: a9b2 05bd be84 8d3b cd26 27bd 7c85 b3bb
00000090: aea4 b2bd f1f8 3dbe 6362 2a3e 4b0b 3abe
000000a0: c623 e6be cad1 0bbe 9f11 78bc e302 2e3d
000000b0: 20b3 1d3a 5a7c 83be 64ff 74be 1e6a 7a3e
000000c0: d16c f2be e0ee e73d b8ab 7fbd b050 1f3d
000000d0: aad5 ca3d 14b4 123e 4bc6 1d3d d957 24be
000000e0: e91d 373d 57ef 91bd 6588 7abc 766a 103e
000000f0: 9ce4 5e3b 52f6 c43c 71a8 b43c 53cf 073d
00000100: 715b 80bd 34c0 a53d 5ca7 51be ee4c 173e
00000110: 93a2 813e 9767 183e a4b9 403e 1a43 1ebf
00000120: 31b5 28bc 4b04 21bd d5ab bbbc e875 46bd
00000130: dacd 2b3c 6ec6 cbbc 391c 09bc 45a1 a13b
00000140: 8f02 dcba 0e52 743c 46d5 b53c b8dc 2a3c
00000150: 9534 273c a5e3 11bc 5de3 e4bc 8acf c43c
00000160: d276 6d3c 7906 2bbc bf7d b3bc 86d4 c93c
00000170: a369 abbc 1797 823c 9b6e 1dbd 50d7 17bc
00000180: 2683 09bb b08f 193d d28d 153b 959e b73c
00000190: 523d 1fbc 7bb6 f93c f713 e43c 9e44 073d
000001a0: c2a9 2d3d 7e56 323c 41b1 94bb 5481 703b
000001b0: 4df7 e3bd cffe ff3d bbf1 65bd 26bb 8bbe
000001c0: aef7 fdbe 0063 603e 2e1e e3bc b596 973e
000001d0: 7814 183d e566 07bd 3a23 af3e 56c1 dfbe
000001e0: f3be af3e db23 6c3e ab3e 4e3e 73f4 0f3e
000001f0: 72db 683e e1f3 a03e 97a0 923e 3a23 8b3e
00000200: 62c4 5b3e 033c 4dba 5ff5 8d3e cc38 873e
00000210: 43b6 cb3c 96d2 ad3e 6a46 a53e fb1f 793e
00000220: 885e c43e 854a 07bf a238 10bd e639 cbbe
00000230: 28fd fabe 590b 37be 5a9c 4c3e 5314 c0be
00000240: 5df1 5a3d da2d 15be 5a40 0ebe 2935 b23d
00000250: 062b 913e dfd8 193c fa9c b43e 9a74 a43e
00000260: 0853 b7be 1af8 92be 0a07 e0be e5fe e3bd
00000270: b454 4fbe f1d5 ce3d bfc9 b7be 72de afbd
00000280: 9132 373e c865 cabe cfd0 663e 0ba6 9abd
00000290: 23a5 67be d1a3 34be 8189 97be 654a da3c
000002a0: dbbb 8e3e 7632 aabd 8433 d0bb a31a e8bc
000002b0: 4ac5 463d 8f7b 413e 683c 0dbd 214c af3d
000002c0: 72dc 033d fd13 94bd 1f69 243d 0efa f6be
000002d0: 5cd1 333d 53af 02bb dc76 b23d bf11 b33d
000002e0: 72b2 82bd ca03 57bd f125 c63e b694 c53d
000002f0: 1644 4e3e dd22 263e 5995 a0bb b96a 643d
00000300: 306c 013f 6d43 f03d b138 5a3e fa3f 963e
00000310: 3e78 063e 6723 073d b69c b83e 0253 2d3e
00000320: a520 963e b5b4 843e dbbd 9e3d 3c31 4bbd
00000330: 4b87 04bd 8924 a73e a869 9a3e 7789 9f3d
00000340: 647e 6e3d a96f 4fbe da89 3ebd 112c f13d
00000350: 59cc 393e 3841 b23d 3962 4b3d 917f 6e3d
00000360: 0e4f 4ebd 0b6f d23c 895c 4c3e 42a3 7d3d
00000370: ebbd bd3d 6ecd 7fbc d2ff f73d ed76 ca3d
00000380: 63cb ca3d e137 113e 36a1 753d 0433 f6bb
00000390: 0733 543e c87e d339 6891 0e3e 9961 b43d
000003a0: 10ff af3d 08b2 023d 20c0 dd3c afc3 3bbd
000003b0: 8311 6a3d 5a28 0f3e ddf4 203e 4236 033c
000003c0: c39d f83d fe6f fa3d 3734 033d ea55 203e
000003d0: ce57 943d b947 803a 054f ca3c 776e eebd
000003e0: 7aca 17bc e4d7 183e 56aa 8abd 6511 68be
000003f0: 5c49 843c 73f0 8a3c d6d8 67bc b474 ba3c
-0.012268376 -0.05806071 0.06688273 -0.015380146 0.04657678 -0.015616419 -0.03256467 0.040411472
0.02919729 0.0218989 -0.016655063 0.0390518 -0.003367757 0.02414407 -0.025562001 -0.04407566
-0.0069101644 0.028814118 0.01191702 0.07365735 -0.0012157323 -0.04750384 -0.047902998 0.079717755
0.02469267 -0.0019844284 -0.05774393 0.030761885 -0.0018433896 -0.0023261118 0.01137519 -0.016749118
-0.032641087 0.0043188026 -0.040808488 -0.005478559 -0.087228164 -0.18551995 0.16639094 -0.1816837
-0.44949168 -0.13654247 -0.01514092 0.04248322 0.00060157664 -0.2568081 -0.23925549 0.24454543
-0.47348645 0.11324859 -0.062419623 0.03889531 0.099040344 0.14326507 0.038519185 -0.16049136
0.04470626 -0.071257286 -0.015291308 0.14103112 0.0034010774 0.024043236 0.022052975 0.033156704
-0.06267441 0.080933005 -0.20473999 0.1477544 0.25319347 0.14883266 0.18820816 -0.6182114
-0.010297106 -0.039310735 -0.022909084 -0.048452288 0.010486091 -0.024874892 -0.008368545 0.004932555
-0.001678543 0.0149121415 0.022196423 0.0104286 0.010205408 -0.008904372 -0.027940447 0.024024744
0.014493661 -0.010438555 -0.021910546 0.024637472 -0.020924395 0.015941186 -0.03843556 -0.009267643
-0.0020982712 0.037490547 0.0022820127 0.022414485 -0.00971921 0.030482521 0.027841551 0.033024423
0.04239822 0.010884879 -0.004537732 0.003669818 -0.11131153 0.12499773 -0.056138735 -0.2729122
-0.49603027 0.21912766 -0.027724352 0.29607168 0.037128896 -0.033057112 0.34206563 -0.4370219
0.3432537 0.23060553 0.20141093 0.14058094 0.22739962 0.31436065 0.28638145 0.27175313
0.21461633 -0.0007829072 0.27726266 0.2641052 0.024867183 0.33949727 0.32280284 0.24328606
0.38353372 -0.5284808 -0.03521026 -0.3969261 -0.49021268 -0.17875423 0.19981518 -0.37515506
0.05345284 -0.14568272 -0.13891736 0.08701546 0.28353137 0.009390085 0.35276014 0.3212021
-0.35805535 -0.2870491 -0.4375537 -0.11132602 -0.20247155 0.100994 -0.35896108 -0.0858735
0.17890383 -0.39530778 0.22540592 -0.075512014 -0.22621588 -0.17640616 -0.29597095 0.026646802
0.27877697 -0.08310406 -0.0063537974 -0.028333014 0.048527993 0.1889479 -0.034481436 0.08559442
0.032192655 -0.07230375 0.040139314 -0.48237652 0.043900833 -0.0019940927 0.08714077 0.08743619
-0.06381692 -0.052493848 0.38700822 0.09647505 0.2014316 0.16224237 -0.004900616 0.05576584
0.50555706 0.117316104 0.21310689 0.29345685 0.13131806 0.032992747 0.3605706 0.16926196
0.2932178 0.2591912 0.07751056 -0.0496075 -0.032355588 0.32645062 0.30158734 0.07789891
0.058226004 -0.20257439 -0.046518184 0.11775983 0.18144359 0.08703846 0.04965422 0.058227126
-0.05036836 0.025687715 0.19957174 0.061923273 0.092647396 -0.015612943 0.12109341 0.098859645
0.09902074 0.14181472 0.059968196 -0.0075134058 0.2072259 0.00040339516 0.13922656 0.08807678
0.08593571 0.031908065 0.027069151 -0.045840915 0.057145607 0.13980237 0.15718408 0.008008542
0.12139466 0.12228392 0.032032218 0.15657774 0.0724331 0.0009787 0.024695883 -0.11642163
-0.009264583 0.14926106 -0.0677077 -0.22662885 0.016148262 0.016960358 -0.014150819 0.022760727

conv.4.bias f4 [64]
00000000: 58c6 41be 8998 5abd a7e1 a4be 0523 69be
00000010: 2c8f c0bd 9acf 77be 05d4 9cbd acdf 0dbe
00000020: f0c1 99be c110 32bd 2712 e9bd 0017 53bd
00000030: c467 3dbd 7bbd cbbe c5dc bdbe 4708 94be
00000040: 1a4c 31be 6657 1d3e 2598 82bd 415d 3bbe
00000050: 75ff 95be 693d 1cbe 21ff e53e b536 43be
00000060: bd0f 82be 09f6 7dbe 51cf a3be e029 56be
00000070: 30fe 8abe f83c a3be 1f40 a3be 4e3e 2f3e
00000080: 5cea 89be ec1c ab3e 909d c8bd 1fbb 9cbe
00000090: fc78 8dbe 46d8 863e adc4 20be b51c 47be
000000a0: 3b79 a7be 02f8 f9be 0d6d 51bd ab2a b5be
000000b0: 8891 95bd 9fa0 ecbc 52b0 8c3e be06 c5be
000000c0: 3dcf ccbd 89bf 78be 32b1 50be 6006 4abe
000000d0: f888 8fbc d6c5 a4bd 209f 62be a915 d1be
000000e0: b741 a3be 1283 7abe fd23 59be 6b88 2a3e
000000f0: b9d5 b9be f2e9 033a 7bf4 88be 9c8a 21be
-0.18923318 -0.053368125 -0.3220341 -0.22767265 -0.09402308 -0.24200287 -0.07657627 -0.13854855
-0.30030775 -0.04347301 -0.113804154 -0.051535606 -0.046241537 -0.39793 -0.37082496 -0.28912565
-0.17314187 0.15365371 -0.063766755 -0.18297292 -0.2929646 -0.15257801 0.4492121 -0.19063838
-0.25402632 -0.24800886 -0.31994107 -0.20914412 -0.27147055 -0.31882453 -0.31884858 0.17113611
-0.26936615 0.33420503 -0.09795678 -0.30611512 -0.27631366 0.2633688 -0.15700026 -0.19444545
-0.3270968 -0.48822027 -0.05112939 -0.35384116 -0.073031485 -0.028885184 0.27478272 -0.38481706
-0.10000465 -0.24291815 -0.20380095 -0.19728994 -0.017521366 -0.08045547 -0.22131014 -0.40836838
-0.31886074 -0.24464062 -0.21205135 0.16653602 -0.3629587 0.0005032114 -0.26749024 -0.15775532

fc.1.weight f4 [64, 1600]
00000000: 3bfb b53b beab f8ba 67ab 89bc 759e 8f3c
00000010: 5664 d73a 1a45 c6bc e919 09bc 7243 1d3c
00000020: 5029 a23c eb63 30bb cb89 b3bc 9793 993c
00000030: cce3 11bb f2bc aebc eaab 7fbc b9d5 c8bc
00000040: d379 45bc 37b6 a5bb cd5b a0bc 2ef5 cabb
00000050: 9125 8abc 40a2 29bc 50f4 3b3a e13d 57bc
00000060: 2577 02bc 96d3 b2bb bc30 8e3c c64b 433c
00000070: 5fb1 893c ae5b 223c 9fe8 ae3c e156 39bc
00000080: c2cf a83c 0475 89bc 7efd 383c 464c dc3b
00000090: f593 8ebc 8fee be3b 0163 47bc 5b7f 263c
000000a0: ff4e b0bc d1d5 f3bb 5380 b73c 0503 bfbc
000000b0: ce4f 1c3c 1b53 59bc ee76 9d3b ca3e 0ebb
000000c0: 1246 e6bb f4dc 943c 0e10 a13c 04db 9a3c
000000d0: 6c25 65bc 6e54 d23c cfc8 443b 2006 8bbc
000000e0: b9ae c2bc 78a0 33bc 8f47 ea3c 3eb8 9dbc
000000f0: 5db8 3e3c b5d7 1ebc fc0a b63c c3b0 f3bb
00000100: 1ecd 96bc a5f0 2a3c baf8 83bc be88 07bc
00000110: 800f 8bbc ab1c b2bb ae01 f23a 622e a43c
00000120: 803f f2bb fa20 f73c 4ec0 b13c 4da8 ed3b
00000130: c14d 5f3c 12bb 4d3b 3fa8 04bb bdfd 773b
00000140: 654c 3abc 966f a33c 81dd 1bbc 6f98 aabb
00000150: 8e09 e8bb 60ed b1bc 3c55 21ba 3845 a4bc
00000160: 6156 043c 33ec 553b 5827 aebc 0f0b 373c
00000170: c790 b8bc 22f9 1b3c 956d 733b a8de 2c3c
00000180: b791 b2bc 0b2e 53ba 73cb eeba 625e db3b
00000190: 12db 213c ac84 c4bb 2dca 1ebc b579 c03b
000001a0: 60f1 87bb 5309 5dbc 82a9 5a3c d0c5 9d3b
000001b0: 8744 ae3c 61b5 b03b c9d7 e0bb 150c a83b
000001c0: 4cdc eebb a6e5 b23c 2beb a83c 137b a73c
000001d0: c97f ddbc 7a69 283b 0444 043c fd71 cfbc
000001e0: a808 eebb a70d ed38 8f5b 47bc c5f0 9a3b
000001f0: da52 9ebc 03b4 93bb 0ac1 5c3c 5eb9 e3bc
00000200: ba6b 08bd e77b cbbc eddb b13b d0ae 28bc
00000210: b133 cc3b 4362 9f3c 475e a3bc 0baf 423c
00000220: 3afc 92bc f66e 98bb 902e 82bc fe06 b2bb
00000230: e8ba 0a3c 9d8c 973c 66d0 af3c 07cd 933b
00000240: 85de 9b3b cd26 08bb 0dc7 c7bc d5af 86bc
00000250: 098d 7f3a 8c00 31bc 864b 06bd 0801 953b
00000260: 1cae 08bb 0872 77bc 1428 3cbc febd c1bc
00000270: ca5f 30bd 2cf0 90bc c1a8 27bd b578 1abd
00000280: ab86 b3bc 1c9d 1bbd b097 b9bc ebcd 8cbc
00000290: fe7e 973a b936 a7bc 8e4b 8e3b 694d debc
000002a0: 2f0b 02bd 494e 16bd 9890 38bc 5514 09bc
000002b0: a10c 0bbd 73c5 0cbd 938b 343b d13b 9f3c
000002c0: 80ce eb3b 8187 c8bb 9838 d4bc 7e3e 573c
000002d0: e2f5 b8bc 598d a3bc d05f 84bb bf01 00bd
000002e0: 705a fc3a c2f7 6b3c 37e2 803c 447f 043c
000002f0: b18f a6bc 1e18 8b3a eb72 9dbb 3229 ad3c
00000300: e26b e7bc a001 30bc 2769 cfbc d18a f03b
00000310: fb3b 793c 92b6 ea3b 9818 1a3b e76f a93b
00000320: 985b 073c ca59 3f3c acd4 abbc c6db 76bc
00000330: 8893 8dbc 69ec 61bb 646d 3f3c 711c e5bc
00000340: 37e5 353c 7062 afbb b114 c43c 64c7 6c3c
00000350: 0ac8 e1bb 7ca1 95bc a526 09bc 712b 443c
00000360: 89c5 5f3c 4bf1 4d3c 7385 863b 79bf 8d3c
00000370: b1a9 afbc 1259 5abc 0c3f 91bb e604 85bc
00000380: ef64 bdbc 3255 043a c678 1dbc c427 403c
00000390: 9d3b a83b c6a0 58bb 8a45 f139 873d 91bc
000003a0: fbc4 94ba 3273 57bc fd02 f2bb 4673 b03c
000003b0: 7894 5fbc 698e 863b 5d09 1dbc 7c25 883a
000003c0: 8cea 77bc 318f 28bb 55f3 84bb c507 51bc
000003d0: 6985 d33a ee69 46bc 03f8 c7b9 fd8e 013c
000003e0: f925 d1bb 347a 3c3c 325d cc3b 2875 053c
000003f0: 3fdf 0fbc 897a 253c f27e f639 3d9a 3cbc
0.0055536306 -0.0018972082 -0.016805364 0.017531613 0.0016433101 -0.024202872 -0.008367994 0.0095986
0.01979509 -0.0026915025 -0.02191629 0.018747134 -0.0022261022 -0.02133033 -0.015604952 -0.024515973
-0.012052971 -0.005057122 -0.019575024 -0.0061937785 -0.016863616 -0.010353625 0.0007169889 -0.013137312
-0.007962977 -0.005457352 0.017357223 0.011919921 0.01680821 0.009909553 0.021351157 -0.011312217
0.02060688 -0.01677943 0.011290906 0.0067229597 -0.017404536 0.0058267782 -0.0121696 0.0101622
-0.021522043 -0.0074412604 0.022400057 -0.02331687 0.009540511 -0.013264443 0.0048054373 -0.0021704906
-0.007027396 0.018171765 0.019660976 0.018903263 -0.013985973 0.025675025 0.0030026918 -0.016970694
-0.023764955 -0.010963552 0.028598575 -0.019252893 0.011640635 -0.009694983 0.022222035 -0.007436843
-0.018408354 0.010433351 -0.016109813 -0.008272348 -0.016975164 -0.0054355464 0.0018463635 0.020041648
-0.0073928237 0.030167092 0.021698143 0.007252729 0.013629378 0.003139202 -0.0020241884 0.0037840449
-0.011370753 0.01995067 -0.00951326 -0.00520616 -0.007081217 -0.021719635 -0.00061543635 -0.020052537
0.008077235 0.0032642006 -0.021258995 0.01117207 -0.022529973 0.009519847 0.0037144173 0.010551132
-0.021797998 -0.0008055872 -0.0018218592 0.006694601 0.009878891 -0.005997261 -0.009691757 0.0058738836
-0.004148647 -0.013490993 0.013346078 0.004814841 0.02127291 0.005392716 -0.006861661 0.0051283934
-0.007289445 0.02183802 0.02061995 0.020444429 -0.027038472 0.0025697635 0.008072857 -0.025322909
-0.0072642155 0.000113035836 -0.012167825 0.004728409 -0.019326616 -0.004507543 0.0134737585 -0.02779835
-0.03330586 -0.024839355 0.0054278285 -0.010295585 0.006231748 0.019456035 -0.019942416 0.011882554
-0.017942537 -0.0046518994 -0.015891343 -0.0054329624 0.0084674135 0.018499667 0.021461677 0.004510525
0.004756751 -0.002077508 -0.024386907 -0.016441265 0.0009748494 -0.010803353 -0.03278687 0.004547242
-0.002085573 -0.015102871 -0.011484165 -0.023650166 -0.0430601 -0.017692648 -0.04093242 -0.03771277
-0.0219148 -0.037991628 -0.022655338 -0.017188033 0.0011558232 -0.020411836 0.004342503 -0.027136521
-0.031748947 -0.036695752 -0.011264943 -0.008366664 -0.03394759 -0.03436799 0.0027549013 0.019437702
0.0071962476 -0.006119669 -0.025905892 0.013137458 -0.022578184 -0.01996486 -0.004039742 -0.031251665
0.0019253027 0.014402332 0.015732868 0.008086983 -0.02033219 0.0010612046 -0.004804959 0.021137808
-0.028249685 -0.010742575 -0.025318695 0.007340767 0.015212054 0.0071628774 0.0023513194 0.0051708105
0.008261584 0.011679122 -0.020975433 -0.0150670465 -0.017282262 -0.0034473187 0.011683796 -0.027967663
0.011102012 -0.005352311 0.023935648 0.014451835 -0.0068903016 -0.018265478 -0.00837103 0.011973248
0.013657936 0.012569736 0.004105264 0.017303215 -0.02144322 -0.0133269 -0.0044325646 -0.016237687
-0.023119418 0.00050480955 -0.009611314 0.011728231 0.0051340596 -0.0033054813 0.00046018913 -0.017729534
-0.0011350209 -0.013150023 -0.00738561 0.021539342 -0.013646238 0.004106332 -0.009584752 0.0010387148
-0.015131604 -0.0025720114 -0.0040573278 -0.0127582 0.0016137782 -0.012110217 -0.0003814102 0.007907626
-0.0063827005 0.011503745 0.0062366957 0.008145608 -0.008781253 0.010100015 0.00047015358 -0.011511383

fc.1.bias f4 [64]
00000000: c80c 4a3c 97ad fa3d 272c 0abd 0280 fa3b
00000010: 7aba e93e cbe7 7a3e 9dfe 17bd 99f7 68bc
00000020: ec6c 673c c487 d33e a8f8 ce3e af08 833e
00000030: e33f 1e3d 30cd a43d 067d 083e 1790 2e3f
00000040: 8ca6 14b9 be5e 1abc 57f1 24bd f7a5 debc
00000050: 496b 03bc e4d5 2b3b e7c3 c8bc 9b3c 753e
00000060: 219a 373c f984 b5bc 2e3f eebc c55b 863c
00000070: 9944 e23d eee5 143e 22d9 1c3b d85b e7bc
00000080: 4216 953c 3b60 ef3e d7ae 28bc 3bc2 9c3e
00000090: 1c28 8cbc c0ab ff3e b31c af3c b3ed e93c
000000a0: 6435 efbc 13d6 5e3e 3562 893b 1b52 343e
000000b0: b286 9b3d 84f7 bcbc 93c2 8f3d 4f41 27bb
000000c0: 1d74 84bc a0ce bf3c 5b89 053d 60db 61ba
000000d0: 7c11 9a3e 6ee2 ac3e 00b6 0abb 2adb 333c
000000e0: 7343 95bc 2b67 26bd f518 4ebd 2dfe cc3e
000000f0: 18e7 a2bb 01b6 b8bc 8f19 3e3e d140 6a3e
0.012332149 0.12240141 -0.033733513 0.0076446543 0.45650083 0.24502485 -0.037108053 -0.014219188
0.01412509 0.41314518 0.40424085 0.25592563 0.038635146 0.08046949 0.13328943 0.68188614
-0.00014176423 -0.009422002 -0.040269222 -0.027178748 -0.008021184 0.0026220018 -0.024507476 0.239489
0.011206181 -0.022158133 -0.02908286 0.016401181 0.1104824 0.14540836 0.0023933132 -0.028242037
0.01819909 0.46753106 -0.010295591 0.30616936 -0.01710897 0.49935722 0.02137599 0.028555727
-0.029200263 0.2176135 0.0041926154 0.17609446 0.075940505 -0.023067243 0.07019534 -0.0025521105
-0.016168648 0.023413956 0.032601696 -0.0008615758 0.30091465 0.33766502 -0.002116561 0.010977546
-0.018220639 -0.040625732 -0.05031677 0.4003767 -0.004971396 -0.022547724 0.18564437 0.22876288

fc.3.weight f4 [4, 64]
00000000: 9b01 843c 1435 643e d04c 3d3c 6212 9c3d
00000010: 0a5f 81be 4072 183e db15 bc3d fc19 bebd
00000020: ac2d bf3d 4c71 273d 442d 903c 790e 75bf
00000030: 01da 003e 1f94 1f3d 8e33 c4bf a5b0 d23e
00000040: 198f 3c3d 2623 70be fc9f cf3d 1e79 fe3c
00000050: 73ef 333e c1b5 943c 2eee 7bbd 3060 0cbf
00000060: 809f 7fbc 8405 0fbc 128f d5bd 53df 40bd
00000070: dcea 183c 6598 b73d 274a 883d eb3f 583c
00000080: 9a95 203d 395d 2cbf 05cc c7bd d947 c83d
00000090: 204c 293d 9ae1 3ebe a125 02bc 039e a73d
000000a0: c20e 1f3d 017e 81bd ed25 2bbd 0446 023e
000000b0: 4b8c 20be 77b3 b0be 364a 883e 5de4 f03d
000000c0: ef90 2b3d ace2 5a3e e65c 883e 8d80 35bd
000000d0: 9843 9dbf a4a4 33bd c8aa ddbc d63a be3d
000000e0: 250a e4bc 9f88 7e3d a099 aabd 3431 7dbd
000000f0: a327 bb3c b8b7 84bd 21ac 143e 89f8 da3d
00000100: 2d25 2abc 5854 dfbe 2175 da3d 3c1c a9bd
00000110: 6262 2cbf 2b11 413e 0224 4fbd 25c9 903c
00000120: 54b9 debc d60e d63c c32c 8dbf 302c 29bd
00000130: 8ed0 383e 8b54 93bf 5bd8 973d ceca ad3e
00000140: b26f 80bc d1ab 11be d746 dc3c f8cc 603d
00000150: 6f17 c03d c0da 923d 61dc fe3d a342 afbb
00000160: c1e6 323d c85a aebd 7094 a93d 6630 c5bc
00000170: 5e54 afbf 31c4 52be 5bae d23d 34b8 bcbd
00000180: 6a36 0d3c 449a e43b 3401 ea3c 33c5 20bd
00000190: f76a 54bd dbde ecbd d92b 21bc 0354 c53d
000001a0: f9d9 debd 5715 f1bc 72a3 fa3a 071e 933d
000001b0: 050a 513e 7916 d9be 181a 19bf a12a e4bd
000001c0: 5e5f 81bd ac00 963e 0fbc 7b3e 60c4 7fbd
000001d0: 42f2 803d e376 08be 12a3 a8bd 615a 7fbb
000001e0: cb4a c4bc 7001 d6bb 0f53 58bd e713 8a3d
000001f0: bb92 333d beda d63d fd36 183e 1311 393d
00000200: 81e1 c7bc 327f 73be ba50 823d 8823 9f3d
00000210: ab28 e2be 2534 d73e 6bc2 af3d c773 353c
00000220: cd0d f23d de73 3bbf 18f3 753b 6318 de3d
00000230: e174 573e ddcd 9b3d 2d38 4f3d 430f 9a3e
00000240: 7e6a 673d 6a59 f6bd 50d3 af3d 3404 c83d
00000250: 3b6a 62bd d9f2 3b3c 0f36 8c3d 9c70 cd3d
00000260: a6ed 863d be73 6b3c 4b2b d63c 5f02 1c40
00000270: 2407 14bc 954f 0f3e 63f2 c73d 866e a9bd
00000280: f158 a6bd f145 213c 8fd2 3d3d 3c79 abbf
00000290: 7680 72bd 6fcd 07be 3694 813d 5145 89bf
000002a0: f07e c43d a056 abbd 676c 363d 65c3 103e
000002b0: 3854 8a3d 1bb8 623e 7564 ad3e 69e0 a43d
000002c0: 8f18 18bc 4b57 e2be 990b 3b3e 88f4 3f3d
000002d0: c633 54bd 6ff6 efbd 481b b8bc aef9 2e3c
000002e0: a759 c1bd bff0 b83d 83b4 363d 9217 a3bf
000002f0: d17c 453d 44d3 473c cdb3 2b3e 69d7 93be
00000300: bcb1 1dbc e4a8 30bd 650c 21bd ea2c 5cbd
00000310: 1d1b 8a3d 6293 da3d cbe7 1cbd e268 9d3d
00000320: 8234 bbbd 3f78 06be 5101 3c3c 68d8 cabd
00000330: ad8a 1fbd 2f57 b43d 5fd6 983d 4d23 b13e
00000340: 4ab4 43bd 1e96 9dbe d81c 113c 5acd e1bd
00000350: 24b2 d7bd 1cf3 75bd 14da 9abd 9a9c b7be
00000360: 329d 143d 88b7 ecbc 0532 4fbd 27c8 50bc
00000370: 37db 75bc 5bcd 723e 914d d9bd 9eeb ea3d
00000380: 38ad 223e 6f39 04bd 41dc 3f3c f369 12bd
00000390: 2d74 99bd 2a6a 3dbf b66b 4abc 76f6 d63d
000003a0: 3066 7cbd 4c9e c2bf 3621 a33d 6268 e8bf
000003b0: 94f3 693e c271 953e fc6f 953e 0140 f5bd
000003c0: 8fda f53d 0e60 bd3e d08b 10bf 0b7b 9abc
000003d0: 0c2d d43d 5ede 81bf a4df f43c baf0 e2bb
000003e0: 0235 dcbd ee80 df3d ea63 a63b 1907 d73c
000003f0: 7550 df3d 0467 1bbd f6ea a3bf 7267 973d
0.016114047 0.22285873 0.011553958 0.07620694 -0.25267822 0.14887333 0.09183856 -0.092823
0.09334883 0.040879533 0.01759971 -0.9572521 0.12583162 0.03895962 -1.5328233 0.41150394
0.046034906 -0.23450908 0.101379365 0.031063613 0.17571811 0.018153073 -0.061506443 -0.5483427
-0.015601993 -0.008729342 -0.10427679 -0.04708798 0.009333339 0.08964614 0.066547684 0.013198833
0.03920517 -0.67329746 -0.097557105 0.09779329 0.041332364 -0.18640748 -0.007943542 0.08184435
0.038832434 -0.063228615 -0.041784216 0.12722021 -0.15678518 -0.3451192 0.26619118 0.11762307
0.041886266 0.21375531 0.26633376 -0.04431205 -1.2286253 -0.043858185 -0.027058974 0.09288566
-0.027836869 0.06214201 -0.08330083 -0.061814502 0.022846049 -0.06480354 0.14518787 0.106919356
-0.01038484 -0.43619037 0.10666872 -0.082573384 -0.6733762 0.18854205 -0.05057145 0.017674038
-0.02718798 0.026130121 -1.1029285 -0.041301906 0.18048307 -1.1510175 0.074143134 0.3394379
-0.01567826 -0.14225699 0.026889248 0.054882973 0.093794696 0.071706295 0.12444378 -0.00534852
0.043677095 -0.08513409 0.08280265 -0.02407093 -1.3697622 -0.20582654 0.10287162 -0.092148215
0.00861893 0.0069763977 0.028565027 -0.039250564 -0.051859822 -0.11565944 -0.009837114 0.096351646
-0.10881419 -0.029429121 0.0019122197 0.07183462 0.20413978 -0.42399958 -0.5980544 -0.11140943
-0.06317018 0.29297388 0.24583457 -0.062443137 0.06296207 -0.13326602 -0.08234228 -0.0038963782
-0.023961445 -0.006530933 -0.052813586 0.06742077 0.043841105 0.104909405 0.14864726 0.0451823
-0.02439952 -0.2377899 0.063630536 0.07770449 -0.44171652 0.4203197 0.08582004 0.011074967
0.118190385 -0.73223674 0.0037528928 0.10844495 0.2104068 0.07607625 0.050590683 0.3008977
0.056498043 -0.12028773 0.085852265 0.09766427 -0.05527709 0.011471474 0.06846248 0.10031244
0.065882966 0.014370857 0.02614369 2.4376447 -0.009034906 0.13995202 0.097630285 -0.08273034
-0.08122433 0.0098433355 0.046343382 -1.3396373 -0.05920454 -0.1326196 0.06327097 -1.0724279
0.09594524 -0.08366132 0.044536974 0.14137037 0.06754345 0.22140543 0.33865705 0.08050615
-0.009283199 -0.44207224 0.18266143 0.046864063 -0.051807187 -0.11716925 -0.022473946 0.010679645
-0.09440928 0.09030294 0.044605743 -1.2741568 0.048214737 0.012196366 0.16767807 -0.28875282
-0.009624895 -0.043129817 -0.03931846 -0.05375377 0.06743453 0.10672642 -0.038306993 0.076860204
-0.091408744 -0.13131808 0.011474923 -0.099045575 -0.03895061 0.088056915 0.07462763 0.34597245
-0.04777936 -0.30778593 0.008856975 -0.11025496 -0.105320245 -0.0600463 -0.07561126 -0.35861665
0.036282726 -0.028896108 -0.05058481 -0.012743033 -0.015005878 0.2371115 -0.10610498 0.11470722
0.1588639 -0.032281335 0.0117102275 -0.035745572 -0.07492862 -0.7399012 -0.012354782 0.104962274
-0.06162089 -1.5204558 0.07965319 -1.8156855 0.22846824 0.29188353 0.29187 -0.119750984
0.12004577 0.36987346 -0.56463337 -0.0188575 0.103601545 -1.0145986 0.029891796 -0.0069256695
-0.10752298 0.10913263 0.0050778287 0.026248502 0.10904018 -0.03794004 -1.2806079 0.073927775

fc.3.bias f4 [4]
00000000: 9dcc f03e 9cfc f33e 26e2 f23e 3e50 f83e
0.47031108 0.47653663 0.47438163 0.4849872
