models/v17.1/model_124000_target.pt (torch, 729952 bytes, 10 tensors)

conv.0.weight f4 [16, 2, 3, 3]
00000000: 4311 473e 6905 b83c 5151 8dbd 2f9a 903c
00000010: 7133 fdbc ca84 ddbc 9178 a3bc 62c8 2dbd
00000020: be36 f43d 5f6c 47be e967 943d 1b7d 993d
00000030: 76b4 a13c 35b9 dabc f873 ab3d ef0e 5c3d
00000040: cbb3 d43d 594b 6abd 163f 023e 4a47 803e
00000050: 94e8 0fbd add3 f0bd a248 5bbe afd9 ff3d
00000060: ee7a 4dbe 0d92 8dbe 12a7 f5bd ecd4 21bd
00000070: 8223 d5bc e1de d03b 126b b63d 11fe a8be
00000080: e6d6 083d 0fb4 623e d2a5 f53d 57bb 2c3e
00000090: b34c 8d3d f868 a13e ff2e c5bc a3c1 80bc
000000a0: 2c3f dd3d 6b9d 8f3e d597 493e 6c8c d53e
000000b0: 65d0 593d ae46 d0bd 8b57 93be fc88 283c
000000c0: 1f35 123d 4c5e 58bd 910b b4be 6626 2ebe
000000d0: 3818 e6be b5a9 4fbd c4cf 123d 8579 31bc
000000e0: ceff 873d bc57 08bd c9fc f03c fedb a6bf
000000f0: e049 783c 4cd2 78bd 5471 b13c 608e 18bd
00000100: 4271 93b9 31b7 89bd 22b4 323d bfdf 0cbd
00000110: 4801 943d d61f 4fba 39e7 733d 7365 b3bc
00000120: 8866 aa3c 8e26 b2bd 1191 09be c93c 81bd
00000130: 2346 09be c514 1a3f 56fe fd3b 205c 8b3c
00000140: ab6c 0bbe 9efe 06bd 718b b73d 08dc ff3d
00000150: 42fd 993d 06fa f23d 44ee 973e ddab a4bb
00000160: 642c ffbb f073 ea3d a743 273d 5bff 73bd
00000170: eab7 e93e 4d8f 5dbd 01d5 1abf 4a58 9fbc
00000180: 59d7 8438 9161 25be e1f0 ccbd e96e 8cbd
00000190: 952a 173d b232 11bd e992 023d 9525 3ebd
000001a0: 48d1 613c ef39 3abd 036d 1a3e d63a 9b3d
000001b0: 6939 a5be 8bc6 cabe 1832 d8bc d9d6 cf3c
000001c0: a639 273d b486 35bf d09b c3be cbb4 efbe
000001d0: d8cb 8fbd cea2 723e 324a 793e 333b 493c
000001e0: acb5 d9bb 0ad3 f93b 7322 c83e 19b5 453e
000001f0: 91af 783e f5cc 543d aa8e 08bf b865 09bf
00000200: 902c 6f3d fad6 d0bd 55c5 c23d 6165 073e
00000210: 14c8 66bf a6ae d4bd bd94 35bd 0531 763e
00000220: d664 8a3e f76f 86bd b3fa ab3b f3c5 21bd
00000230: 5364 c23d 17bd 603e 534a 823d 8786 4c3d
00000240: 5075 843d 480a ac3d 4050 883c 3e37 8a3d
00000250: 95b8 633e e807 25bb b279 47be 2a40 c2be
00000260: 455b b3be b411 c5bd 18c2 ee3d aede 5639
00000270: 6e30 2b3d 9858 663d 5160 113e e311 c8bd
00000280: b98f 023e 9ad6 923c 7b7a cf3b f769 79bd
00000290: 6c64 853d cf4a 923c 25d3 4dbd 7d53 143f
000002a0: 0765 7ebc 837a 25be 85ee aabd 9f2d 6d3c
000002b0: 1b01 553d 8540 66bd c65e eebc 1a9e 5c3d
000002c0: b585 19bf 200c 463c ac6a 153e e033 853d
000002d0: 3549 723c 8399 eabb 51fb c53b 09d8 a5bd
000002e0: 8dc9 0d3f 11d6 bcbd 42a8 db3b 63bf 8abd
000002f0: 662f 1f3d 95d0 acbc b480 363c e13d 07bc
00000300: 8e72 b53d 3f48 bf3e be2c ab3d 58a9 b3bc
00000310: f290 aa3d b552 87bd 6962 77bc f4fe 513d
00000320: 3ec2 88bd 5900 3c3b 727a 4f3f 0326 db3c
00000330: de10 adbd 4500 bd3c d837 d9bd 2494 d53c
00000340: 7b8a 90bd f8f7 9b3d bb26 1dbd 371c 95bd
00000350: 8179 71bd 255f d03d 264e 7abd 6dae ba3d
00000360: 6fdf c6bd 4fbc 48be edc4 9fbd eefa cebd
00000370: f00d efbf 1bb8 183d edb0 e6bd 8a94 1ebe
00000380: b315 29be 594e fa3d 7ef9 0e3e 5956 9f3d
00000390: 3c29 a73d 41a5 a03e 5585 c4bd 4855 093e
000003a0: ac2a a83d 88a5 373e ca5b 87bd f06f a6bd
000003b0: 8b4b b9bc 2ee7 84bd e05b d8be 38da 57bf
000003c0: 4bc1 4c3e b978 e3bd 08d0 b1bd 082e 1cbd
000003d0: 1033 273d 95c6 383d 3b61 b5ba f198 583c
000003e0: da71 b53e d4d3 fc3d 45ca 0a3e bc7a 923d
000003f0: dc82 12bf 7094 07bf a860 70bf e1ce ffbd
0.19440179 0.022463517 -0.069002755 0.017651645 -0.030908318 -0.027040858 -0.019954951 -0.042427428
0.11924504 -0.19474934 0.07246382 0.07494565 0.01973937 -0.026699642 0.08371729 0.05372518
0.10385855 -0.057200763 0.12719378 0.2505439 -0.035133913 -0.11759124 -0.21414426 0.12492692
-0.20066425 -0.2765049 -0.11994757 -0.0395097 -0.026017908 0.0063742255 0.08907141 -0.33006337
0.033408068 0.22139 0.11994518 0.1686834 0.06899395 0.31525397 -0.024070261 -0.015717333
0.10803065 0.28049788 0.19686826 0.41708696 0.053177256 -0.10169731 -0.28777727 0.010286566
0.03569519 -0.052824304 -0.35165074 -0.17006835 -0.44940352 -0.050698955 0.035842672 -0.010832195
0.06640588 -0.033286795 0.029417412 -1.3035886 0.015154332 -0.06074743 0.021660484 -0.037245154
-0.0002812241 -0.06724394 0.04362882 -0.03439307 0.07226807 -0.0007901167 0.059546683 -0.02189896
0.020800844 -0.0869876 -0.13434245 -0.06310422 -0.13405661 0.6018794 0.0077512665 0.017011702
-0.13615672 -0.032957666 0.08962143 0.124931395 0.07519008 0.118640944 0.2967397 -0.0050253705
-0.007787274 0.114478946 0.040836003 -0.059569698 0.45648128 -0.05409174 -0.6048127 -0.01945128
6.334362e-05 -0.161505 -0.100068815 -0.06857092 0.036905844 -0.035448737 0.031878386 -0.04642256
0.013782807 -0.045465406 0.15080647 0.075795814 -0.32270363 -0.396046 -0.026391074 0.025371002
0.040826462 -0.70908666 -0.38204813 -0.46817622 -0.07021302 0.23694918 0.2434471 0.012282181
-0.0066439714 0.007624035 0.39088783 0.19307365 0.24285723 0.051953275 -0.5334269 -0.53670835
0.058392107 -0.101972535 0.09510294 0.13222267 -0.90149045 -0.10384874 -0.0443313 0.24042137
0.27030057 -0.06564324 0.0052483915 -0.03949542 0.094917916 0.21947132 0.063618325 0.049932983
0.06467688 0.084003985 0.016639829 0.06748818 0.22238381 -0.0025181714 -0.19480017 -0.37939578
-0.3503057 -0.09622517 0.11658114 0.00020491585 0.041794233 0.056236833 0.14196898 -0.097690366
0.12750138 0.017924596 0.0063317395 -0.06089207 0.065132946 0.017857937 -0.05025019 0.57939893
-0.0155270165 -0.16160016 -0.08346275 0.014476209 0.052003007 -0.056213874 -0.029097926 0.053861715
-0.59969646 0.012087852 0.14591473 0.06504035 0.014787962 -0.0071594133 0.006041922 -0.08097846
0.5538567 -0.092205174 0.0067034075 -0.06774785 0.038863562 -0.021095553 0.011139084 -0.008254499
0.0885974 0.37359807 0.08358143 -0.021931335 0.083284274 -0.06607572 -0.015099146 0.051268533
-0.06677674 0.002868673 0.8104621 0.026751524 -0.08450483 0.023071418 -0.106063545 0.026071616
-0.07057663 0.07615656 -0.038367014 -0.07280772 -0.058953766 0.101743974 -0.061109684 0.091153
-0.09710585 -0.19603084 -0.078012325 -0.10106455 -1.8676128 0.03728495 -0.11264215 -0.1548635
-0.16512184 0.12221975 0.13962361 0.077801414 0.08162162 0.3137608 -0.095957436 0.13411438
0.08211264 0.17934239 -0.06609304 -0.08126819 -0.02261903 -0.064894065 -0.42257595 -0.8431735
0.1999561 -0.111070104 -0.08682257 -0.038129836 0.04082018 0.045111258 -0.0013838181 0.013220058
0.35438424 0.123450905 0.13553722 0.07152316 -0.57230926 -0.5296087 -0.93897486 -0.12490631

conv.0.bias f4 [16]
00000000: 0cb8 30bd 20eb 7dbe 5025 f5bd 7f88 143f
00000010: 0314 0fbf 9cb8 83be 8f0a 8b3d 0e39 2fbe
00000020: ca8a bfbe e844 59bd 8e6f 27bf 3851 cfbe
00000030: 03b2 9d3e 92db 6cbe a835 c8bb 143a 84be
-0.04314427 -0.24796724 -0.119700074 0.58020777 -0.5588991 -0.25726783 0.06789123 -0.17111608
-0.37410575 -0.05304423 -0.65404594 -0.40491652 0.30799875 -0.23130634 -0.006109912 -0.2582556

conv.2.weight f4 [32, 16, 3, 3]
00000000: 6b05 7fbd 31ae 6b3c 4d59 1dbd 48f5 88bc
00000010: 2dd6 85bd a7b6 a7bc fbb4 b13d a328 c7bc
00000020: 444b bcbd 077e 8e3d 45d4 d13d 6492 ad3d
00000030: 7857 103e 6ca9 e83d 7e92 fc3c ac40 483d
00000040: 14ee 20bd 6d16 2ebd f1ba 333e a008 efbc
00000050: 9447 43bd ff2e 03bd 40c6 c5bb 2674 67be
00000060: 6b4e fabd 672f 79be a4f9 41be f969 5c3c
00000070: c96e 08bd c4a1 04be 2050 463c 90a4 85bd
00000080: bcdd 92bd a5bd 5b3d e10a e8bd a0c1 b3be
00000090: dcb9 9d3d 37f6 e73d 6d08 91be 70c7 12be
000000a0: 8e95 25be a641 abbe aa7e eb3d b793 f7bd
000000b0: 3086 32be 6f45 2d3d 2570 d93c 4ac8 b5bd
000000c0: ba67 2a3e e930 b73d 77e5 83be 4438 a33d
000000d0: 6cb3 8f3d f1ce 02be 0f4b 353d 0d7c 3f3e
000000e0: 875f 5e3c 9af6 1e3e 8065 3f3d d1a7 34bd
000000f0: aab1 8a3d 53f6 ab3c 86ed 34be b99f 45be
00000100: 9453 18bd d804 983c 860e 89bd 586d 8cbc
00000110: 73e1 2abd ec03 a1bd c9dd a5bd 522b 07be
00000120: f772 c03d a71e 893d f5d3 133d fab0 91bd
00000130: 76ff 173e 6460 04be fd2d ca3d b4f8 42bd
00000140: 3574 1ebe 7acc c43d 165b 71be 1fe3 2f3d
00000150: e72c de3d 5f59 1dbe d55a 21bd 3e46 2dbe
00000160: 8800 6abe 8495 983c a6be 5e3d 3205 733b
00000170: 7397 02be 58a9 e5bc a9f3 de39 833a 17be
00000180: 0dc3 9bbd a73b fdbc eace 92bd a3f7 633c
00000190: 6e43 4abb d533 97bd 4de1 16be caee 52be
000001a0: b4dd 11be e50d 00be 23e3 0dbe 4713 c43b
000001b0: 9f4f 533c bc75 2e3d c8cf 0c3d 29b8 04be
000001c0: 37df 7fbb 27ff cb3c 09cf 09be ef88 19be
000001d0: 73e3 e6bc 5d77 b6bb 1d24 5e3c 6e21 523d
000001e0: cfd4 853d ce13 993c d10f b4bc 801f 15bd
000001f0: 30c4 2ebd 0b8d aa3c 73e7 bd3c 8c1a 503b
00000200: 6158 e9bb 925c 02bd 603f 34be cc00 c2bd
00000210: ab43 1bbd 7d87 2cbd 6b73 b23d 0b6e 06be
00000220: 81da 5abc 383e b5bd 68d0 d0bd 0540 da3d
00000230: b6f4 243c cf0e b5bd 1785 1abe 7881 8fbd
00000240: e6f3 833e 7444 79bd 3fcf 333e a02b 633d
00000250: 6810 263e 5e65 253b 03a9 42bc 5fd2 e73c
00000260: 57ed b2bd ee39 a13d 27eb 4abc 2e10 883e
00000270: 2542 20be 5132 493e 5ef6 b33d d3df fc3d
00000280: 6d97 efbd d0e8 f83c 37e0 0cbe 6a19 993e
00000290: 0834 7a3e 0c16 823e 6bc7 89be aef3 a7bd
000002a0: 3db8 9c3e b7b5 ca3c 9e96 713d 762a 09c0
000002b0: 8bef 973d 554e c1bd bae1 41bd 3f95 7fbb
000002c0: acae b33c 6e6c a4bc 1c22 41bd 465c 0fbd
000002d0: 93b1 84bf 269a cd3e 9a6c e7bc bb24 e33a
000002e0: 4243 ac3d 4660 ab3d 2140 0b3c 3070 20bd
000002f0: 52e2 cebc c769 71be 0e6c 22bf 3735 b2bd
00000300: f81c 9ebe fc0f 853c 6669 33be c279 34be
00000310: 9dda 2dba 2d74 593c 5aab 2a3e b975 49be
00000320: 1119 cfbd e62c 593d 41c1 05be fca5 2ebe
00000330: 4c18 c53d 8b78 88bc f29d ba3c 9d66 403e
00000340: f778 eabd dd31 00be 1917 bf3d b7f1 81bd
00000350: 90f3 47be 74e4 ae3e b387 dcbc f7da de3d
00000360: c170 4b3e ebe8 77bd 781a a03d af53 663d
00000370: b51d 973e 22d4 39bc b579 123e d0ba fb3d
00000380: 6bc9 0dbe b1f2 fa3d 0aea d5be bac7 b6bd
00000390: 38de b43d 664f cebd a9fc 61be 40a5 e13e
000003a0: 5e86 82bb d4b5 07be 0a9b 4abd 3f87 01bf
000003b0: b3a3 e23e bb3f 6e3d 083c 18be d696 f339
000003c0: ebeb bbbc 0a34 59bd 49fb debb 4f88 203e
000003d0: 5991 1bbf a4ae 593e d942 b93d 98b4 c3bd
000003e0: e3e4 2dbd 1119 36bd 4b61 3abb 98e7 dc3c
000003f0: d17c 153d 9c9e 94bf 86ee 20bf 93bf 6e3e
-0.062261026 0.014384792 -0.038415242 -0.016718522 -0.065349914 -0.020472838 0.086770974 -0.02431137
-0.09194043 0.069576316 0.10245565 0.084751874 0.14095867 0.1136044 0.030831572 0.0488898
-0.03928955 -0.042501856 0.17551781 -0.029178917 -0.047675684 -0.03202724 -0.006035596 -0.22602901
-0.12221988 -0.24334489 -0.18942887 0.013453 -0.033308778 -0.12952334 0.012104064 -0.065255284
-0.07171199 0.053647656 -0.113302 -0.35108662 0.077014655 0.11326259 -0.2832674 -0.14333892
-0.16170332 -0.33448523 0.11498769 -0.12088721 -0.17434001 0.042302545 0.026542732 -0.08876093
0.16641131 0.08944876 -0.25761005 0.07969716 0.07016644 -0.12774254 0.044261035 0.18699665
0.01357258 0.15523759 0.046727657 -0.044105355 0.06772168 0.02099148 -0.17668733 -0.1929921
-0.03718908 0.018556997 -0.06692223 -0.017141983 -0.04171891 -0.07862076 -0.08098943 -0.13200119
0.09396928 0.066952996 0.03609081 -0.07113834 0.14843544 -0.12927395 0.09872053 -0.047600463
-0.15474017 0.09609313 -0.23569903 0.04294121 0.10848408 -0.15366124 -0.039393265 -0.16921327
-0.22851765 0.018625982 0.054381035 0.0037081954 -0.12753086 -0.028034851 0.0004252468 -0.14768414
-0.07605562 -0.030912234 -0.07168372 0.013914022 -0.0030862945 -0.07382933 -0.14734383 -0.20598903
-0.1424473 -0.125053 -0.13856177 0.0059837434 0.012897401 0.04259275 0.034377843 -0.12960877
-0.0039042959 0.02490194 -0.13457884 -0.14993642 -0.028184628 -0.0055684284 0.013558415 0.051301412
0.06534731 0.018686201 -0.021980198 -0.036406994 -0.042667568 0.020819208 0.023181653 0.0031754104
-0.0071211313 -0.031826563 -0.176023 -0.09472808 -0.03790633 -0.0421214 0.087134205 -0.13127916
-0.013357759 -0.08849758 -0.10196 0.10656742 0.010068109 -0.08840715 -0.15089832 -0.07007116
0.25772017 -0.060856298 0.17559527 0.055461526 0.16217196 0.0025237422 -0.011881116 0.028298555
-0.08736675 0.07872377 -0.012385166 0.26574844 -0.15650232 0.196481 0.08787225 0.123473786
-0.11698804 0.030384451 -0.13757406 0.29902202 0.24433911 0.25407445 -0.26909956 -0.08200775
0.30609313 0.024744852 0.05898153 -2.1432166 0.07418736 -0.09438769 -0.04733441 -0.003899887
0.021933876 -0.020071235 -0.04715167 -0.03500011 -1.0366691 0.40156668 -0.028250027 0.0017329672
0.08411266 0.08367972 0.008499176 -0.03916949 -0.025254402 -0.23575507 -0.6344613 -0.08701556
-0.30881476 0.016242974 -0.17520675 -0.17624572 -0.0006632002 0.013272327 0.16666928 -0.19673814
-0.10112203 0.053021334 -0.13062002 -0.17055506 0.09623775 -0.016659042 0.022780392 0.18789144
-0.114488535 -0.12519021 0.093305774 -0.063449316 -0.19526505 0.3415867 -0.026920175 0.10881608
0.19867231 -0.060524862 0.078175485 0.05623215 0.29514852 -0.01134208 0.1430424 0.12291491
-0.13846366 0.12253321 -0.4178012 -0.089248136 0.08831447 -0.10073738 -0.22069038 0.44071388
-0.003983303 -0.13252956 -0.049464263 -0.50596994 0.44265518 0.058166247 -0.1486665 0.00046460953
-0.022939643 -0.053028144 -0.006804858 0.15676998 -0.6076866 0.21258026 0.09045953 -0.0955593
-0.04245461 -0.0444575 -0.0028439339 0.026965901 0.036495987 -1.1610904 -0.6286396 0.23315267

conv.2.bias f4 [32]
00000000: fb32 b73c 0283 673d 9fa0 85bd ac57 143d
00000010: 4351 d03c 1cd8 10bd b59c 493e 42de 93bd
00000020: 6bee 6abe 06cb 9fbe 1d1e 003e 431d 833e
00000030: 60e9 b0bd b468 463d 0450 d43d e6a2 ecbd
00000040: ad88 b63c 2fec 093d 8150 553e 33e3 dfbd
00000050: e6ba 073d 1b05 b1bc c726 ffbb 8ad0 fbbd
00000060: 820f d8bd 7170 923e 538b bc3d 6073 02be
00000070: f62c 0fbd facd 1a3d d2d4 8cbd 28ac ec3d
0.022363177 0.056521423 -0.06524777 0.036216423 0.025429374 -0.035362348 0.19688685 -0.07220127
-0.22942512 -0.31209582 0.12511487 0.25608262 -0.08638263 0.048439696 0.10366824 -0.11554508
0.022281969 0.033672508 0.20831491 -0.10932007 0.033137225 -0.02160888 -0.007786605 -0.12295635
-0.10549833 0.2860141 0.092062615 -0.12739325 -0.034954987 0.03779409 -0.0687653 0.11556274

conv.4.weight f4 [64, 32, 6, 6]
00000000: 4c01 49bc 11d1 6dbd d0f9 883d 02fd 7bbc
00000010: 4bc7 3e3d 02dc 7fbc 8862 05bd 8086 253d
00000020: 282f ef3c 5265 b33c 3370 88bc c8f4 1f3d
00000030: 96b5 5cbb c9c9 c53c 6767 d1bc ae88 34bd
00000040: a96e e2bb 960b ec3c 9b3f 433c aad9 963d
00000050: 3559 9fba 6393 42bd ef35 44bd 1043 a33d
00000060: 4848 ca3c 2f0d 02bb e684 6cbd 5900 fc3c
00000070: e49d f1ba ae71 18bb 015f 3a3c 7235 89bc
00000080: a9b2 05bd be84 8d3b cd26 27bd 7c85 b3bb
00000090: f9fb 27be 72f5 97be 9dec 183e e741 35be
000000a0: 19c2 f1be fae2 54be 087f 0fbd 8dfd 093d
000000b0: 7b8a a03c fc16 93be 96b5 85be bbb4 833e
000000c0: af1f dfbe 81a7 f13d d087 01bd 109a 203d
000000d0: 166c cf3d 0657 9a3d 53b4 bf3c f8dc dfbd
000000e0: 4935 993d 171c 75bd 0342 a53b ec21 b43d
000000f0: 81b9 d03b 49a7 01bc 2801 a13b 3a3f 843d
00000100: d985 4cbd 0b9d b33d 55cf 45be 5521 de3d
00000110: dddd 6d3e fbae fd3d 6cf2 fe3d d132 14bf
00000120: 31b5 28bc 4b04 21bd d5ab bbbc e875 46bd
00000130: dacd 2b3c 6ec6 cbbc 391c 09bc 45a1 a13b
00000140: 8f02 dcba 0e52 743c 46d5 b53c b8dc 2a3c
00000150: 9534 273c a5e3 11bc 5de3 e4bc 8acf c43c
00000160: d276 6d3c 7906 2bbc bf7d b3bc 86d4 c93c
00000170: a369 abbc 1797 823c 9b6e 1dbd 50d7 17bc
00000180: 2683 09bb b08f 193d d28d 153b 959e b73c
00000190: 523d 1fbc 7bb6 f93c f713 e43c 9e44 073d
000001a0: c2a9 2d3d 7e56 323c 41b1 94bb 5481 703b
000001b0: 228a c9bd 6425 6c3d e7d0 7e3c 5698 99be
000001c0: 7df9 dfbe 802c 693e 57eb 1ebd 01fc 7a3e
000001d0: e881 633d 0259 bebd 52bc a83e acf4 c3be
000001e0: eb78 923e f854 743e dc5c 673e b3fd f03d
000001f0: 6e15 7e3e a8e9 8d3e 4bd0 833e 990c 883e
00000200: 9bda 4d3e c580 853c ffa2 913e 89dc 973e
00000210: ce91 1bbc b686 9d3e 8cef 9c3e 8388 783e
00000220: cf87 b53e a3f1 01bf f455 a7bc ae81 9fbe
00000230: 1ddb ccbe ce53 0fbe 4ba6 6f3e e9a3 8cbe
00000240: f499 3ebc dd2e 63be cd21 0dbe f8b7 8e3d
00000250: 67fa 523e 599c 3bbc 935c 973e c7db 843e
00000260: c6a7 c8be 9f2e 92be 40a0 e5be 7faa 32be
00000270: 01cf 0dbe af6d 953d 57b6 b4be b53b 08be
00000280: 1ad2 093e 01b8 d0be 475c 763e 3a25 c2bd
00000290: ee86 75be c7a8 36be b259 85be 70f3 99bb
000002a0: 16a2 963e 0ff5 dbbd 384b 08bd e195 fbbc
000002b0: 8d6f 4c3d fbdc 343e 699a a23d c37c a33d
000002c0: 5c93 2f3c ba00 45bd d7f0 d33b 88b9 cdbe
000002d0: 2a38 aa3d 9ead 453d 87e6 a73d 2c56 503d
000002e0: a27f 32bd 08c1 65bc f108 a13e dd14 863d
000002f0: cd61 283e 7c9e 043e 7af5 0a3d b2a2 e63d
00000300: dffd c63e b341 4c3d 76e1 573e be66 833e
00000310: 4ae6 b13d 20de 853d 7012 873e bae9 253e
00000320: 2e09 7a3e 3da3 733e 1dc2 923d 02c4 07bd
00000330: 638b 50bd 3630 973e caab 853e 1c32 a73d
00000340: 421d 903d 7844 dbbd 1c28 9cbd 6ad3 d53d
00000350: 11f0 f83d 6136 e83d e295 ba3d 7742 883d
00000360: 37c8 ffbc ba76 ef3b dff4 3c3e 5407 3c3d
00000370: 1c79 7f3d 0d90 3ebc e156 103e cad0 c83d
00000380: 33d6 c23d 97db 063e 35c2 133d 3cf3 44bb
00000390: 0466 703e 7767 fdbb 85fb 003e 4a26 a43d
000003a0: 8455 7b3d 8171 363d c1ab 353d 0491 60bd
000003b0: 5a76 983d 5e37 223e f90a 2c3e 4e23 74bc
000003c0: db3e 253e fcdc 003e acf0 ad3c 3526 153e
000003d0: 1b88 403d a5fb 07bd 094b f03c 3d22 b9bd
000003e0: cc7f 203d 10b7 363e c834 2cbd 75f0 4cbe
000003f0: 5c49 843c 73f0 8a3c d6d8 67bc b474 ba3c
-0.012268376 -0.05806071 0.06688273 -0.015380146 0.04657678 -0.015616419 -0.03256467 0.040411472
0.02919729 0.0218989 -0.016655063 0.0390518 -0.003367757 0.02414407 -0.025562001 -0.04407566
-0.0069101644 0.028814118 0.01191702 0.07365735 -0.0012157323 -0.04750384 -0.047902998 0.079717755
0.02469267 -0.0019844284 -0.05774393 0.030761885 -0.0018433896 -0.0023261118 0.01137519 -0.016749118
-0.032641087 0.0043188026 -0.040808488 -0.005478559 -0.16404714 -0.29679447 0.14934011 -0.17700921
-0.47218397 -0.2078971 -0.035033256 0.03368907 0.019597283 -0.28728473 -0.26115102 0.25723824
-0.4357886 0.11799527 -0.03162366 0.039209425 0.10128038 0.0753613 0.023401415 -0.10930818
0.074808665 -0.05984124 0.0050432696 0.087955326 0.00636977 -0.007913419 0.004913468 0.06457372
-0.049932335 0.08770188 -0.19317372 0.10846201 0.23229165 0.123868905 0.12448582 -0.5789004
-0.010297106 -0.039310735 -0.022909084 -0.048452288 0.010486091 -0.024874892 -0.008368545 0.004932555
-0.001678543 0.0149121415 0.022196423 0.0104286 0.010205408 -0.008904372 -0.027940447 0.024024744
0.014493661 -0.010438555 -0.021910546 0.024637472 -0.020924395 0.015941186 -0.03843556 -0.009267643
-0.0020982712 0.037490547 0.0022820127 0.022414485 -0.00971921 0.030482521 0.027841551 0.033024423
0.04239822 0.010884879 -0.004537732 0.003669818 -0.098408 0.057652846 0.015552736 -0.29999036
-0.43745032 0.22770882 -0.038798656 0.24510194 0.05554381 -0.09294321 0.32956177 -0.38272607
0.28607878 0.23860538 0.22594017 0.11767139 0.24812862 0.27717328 0.25744852 0.2657211
0.20102923 0.016296754 0.2844467 0.29660442 -0.009495212 0.3076684 0.3065151 0.24270825
0.35455176 -0.50759333 -0.020426728 -0.31153625 -0.4001092 -0.13996813 0.2340328 -0.27468804
-0.011633385 -0.22185846 -0.13782425 0.06968683 0.20603333 -0.01145085 0.29562816 0.25948927
-0.391905 -0.28551194 -0.44848824 -0.17447852 -0.13848497 0.07296311 -0.35295364 -0.13304026
0.13459054 -0.40765384 0.24058639 -0.09479757 -0.23977253 -0.17837821 -0.26044995 -0.0046982095
0.29420537 -0.107401006 -0.03327486 -0.030711116 0.04991107 0.17662422 0.07939608 0.07982781
0.010716286 -0.048096396 0.0064679193 -0.40180612 0.08311494 0.048261277 0.081982665 0.05086343
-0.04357875 -0.014023073 0.31452134 0.06546948 0.16443558 0.12951082 0.03392551 0.112615004
0.38865563 0.049867343 0.210821 0.25664324 0.08686502 0.065365076 0.26381254 0.16202441
0.24417564 0.23792739 0.071659304 -0.033145912 -0.05091418 0.2952897 0.26107627 0.081638545
0.070368305 -0.10706419 -0.07624838 0.10440715 0.12155164 0.11338497 0.09110619 0.06653302
-0.0312234 0.0073078545 0.18452786 0.045905426 0.06237136 -0.011631024 0.14095642 0.09805448
0.095135115 0.13169704 0.036073882 -0.0030052206 0.23476416 -0.0077332812 0.12595947 0.080151156
0.06136085 0.04454184 0.04435325 -0.054825798 0.07444449 0.15841433 0.1680106 -0.014900995
0.16137259 0.12584299 0.021232925 0.14565356 0.0470048 -0.03319897 0.029332655 -0.090397336
0.039184377 0.1784327 -0.042042524 -0.20013602 0.016148262 0.016960358 -0.014150819 0.022760727

conv.4.bias f4 [64]
00000000: 6b3e 37be f8f5 d3bc bcd3 98be ad91 5cbe
00000010: a057 b0bd 5a8e 68be 7ca1 a6bd d789 04be
00000020: 0a39 8fbe c110 32bd f3d7 d4bd 5d97 93bd
00000030: c467 3dbd 38e3 b6be 9eb5 b2be 72d6 86be
00000040: 268d 1dbe 8df6 233e 2598 82bd 5ee3 18be
00000050: 7e5d 93be 2a1d 0dbe d714 e03e 51fe 3fbe
00000060: 9837 77be 2fc4 7fbe 09bf a0be ab37 32be
00000070: 016e 8cbe 3a3e 97be 298f 99be 03e3 313e
00000080: 22e9 83be 2eb0 a93e ed8d b5bd 9610 98be
00000090: 3b3d 83be c3a1 7f3e c4b1 28be 7457 35be
000000a0: 4cc3 a2be 8a15 e3be 0d6d 51bd b90e aebe
000000b0: 8891 95bd 9dfc 12bb db02 8e3e 5175 c4be
000000c0: d900 d5bd af64 4ebe 79ef 37be 11d7 44be
000000d0: 5e9e 0abc e777 94bd d31a 4dbe af88 bfbe
000000e0: 9bf2 a0be f243 75be 8897 4cbe 32a0 253e
000000f0: e377 afbe bcdc d6bb f0f9 70be febe 16be
-0.17894904 -0.025874123 -0.2984904 -0.21539946 -0.08610463 -0.22710553 -0.081362695 -0.12943207
-0.27973205 -0.04347301 -0.103927515 -0.07206605 -0.046241537 -0.3572023 -0.34904188 -0.26335484
-0.15385875 0.1601202 -0.063766755 -0.14930484 -0.28782266 -0.13780656 0.437659 -0.18749358
-0.24142301 -0.24977182 -0.31395748 -0.17404048 -0.27427676 -0.29539663 -0.29992035 0.17371754
-0.25763804 0.33142227 -0.08864961 -0.29700154 -0.25632653 0.24964051 -0.16474062 -0.17709142
-0.31789625 -0.4435237 -0.05112939 -0.33995607 -0.073031485 -0.0022428401 0.27736554 -0.38370755
-0.10400552 -0.20155595 -0.17962445 -0.19222666 -0.008460609 -0.07249432 -0.20029764 -0.3740897
-0.31435093 -0.239517 -0.1997968 0.16174391 -0.34271154 -0.0065570753 -0.23532844 -0.14721295

fc.1.weight f4 [64, 1600]
00000000: 3bfb b53b beab f8ba 67ab 89bc 759e 8f3c
00000010: 5664 d73a 1a45 c6bc e919 09bc 7243 1d3c
00000020: 5029 a23c eb63 30bb cb89 b3bc 9793 993c
00000030: cce3 11bb f2bc aebc eaab 7fbc b9d5 c8bc
00000040: d379 45bc 37b6 a5bb cd5b a0bc 2ef5 cabb
00000050: 9125 8abc 40a2 29bc 50f4 3b3a e13d 57bc
00000060: 2577 02bc 96d3 b2bb bc30 8e3c c64b 433c
00000070: 5fb1 893c ae5b 223c 9fe8 ae3c e156 39bc
00000080: c2cf a83c 0475 89bc 7efd 383c 464c dc3b
00000090: f593 8ebc 8fee be3b 0163 47bc 5b7f 263c
000000a0: ff4e b0bc d1d5 f3bb 5380 b73c 0503 bfbc
000000b0: ce4f 1c3c 1b53 59bc ee76 9d3b ca3e 0ebb
000000c0: 1246 e6bb f4dc 943c 0e10 a13c 04db 9a3c
000000d0: 6c25 65bc 6e54 d23c cfc8 443b 2006 8bbc
000000e0: b9ae c2bc 78a0 33bc 8f47 ea3c 3eb8 9dbc
000000f0: 5db8 3e3c b5d7 1ebc fc0a b63c c3b0 f3bb
00000100: 1ecd 96bc a5f0 2a3c baf8 83bc be88 07bc
00000110: 800f 8bbc ab1c b2bb ae01 f23a 622e a43c
00000120: 803f f2bb fa20 f73c 4ec0 b13c 4da8 ed3b
00000130: c14d 5f3c 12bb 4d3b 3fa8 04bb bdfd 773b
00000140: 654c 3abc 966f a33c 81dd 1bbc 6f98 aabb
00000150: 8e09 e8bb 60ed b1bc 3c55 21ba 3845 a4bc
00000160: 6156 043c 33ec 553b 5827 aebc 0f0b 373c
00000170: c790 b8bc 22f9 1b3c 956d 733b a8de 2c3c
00000180: b791 b2bc 0b2e 53ba 73cb eeba 625e db3b
00000190: 12db 213c ac84 c4bb 2dca 1ebc b579 c03b
000001a0: 60f1 87bb 5309 5dbc 82a9 5a3c d0c5 9d3b
000001b0: 8744 ae3c 61b5 b03b c9d7 e0bb 150c a83b
000001c0: 4cdc eebb a6e5 b23c 2beb a83c 137b a73c
000001d0: c97f ddbc 7a69 283b 0444 043c fd71 cfbc
000001e0: a808 eebb a70d ed38 8f5b 47bc c5f0 9a3b
000001f0: da52 9ebc 03b4 93bb 0ac1 5c3c 5eb9 e3bc
00000200: ba6b 08bd e77b cbbc eddb b13b d0ae 28bc
00000210: b133 cc3b 4362 9f3c 475e a3bc 0baf 423c
00000220: 3afc 92bc f66e 98bb 902e 82bc fe06 b2bb
00000230: e8ba 0a3c 9d8c 973c 66d0 af3c 07cd 933b
00000240: 85de 9b3b cd26 08bb 0dc7 c7bc d5af 86bc
00000250: 098d 7f3a 8c00 31bc 864b 06bd 0801 953b
00000260: 1cae 08bb 0872 77bc 1428 3cbc febd c1bc
00000270: ca5f 30bd 2cf0 90bc c1a8 27bd b578 1abd
00000280: ab86 b3bc 1c9d 1bbd b097 b9bc ebcd 8cbc
00000290: fe7e 973a b936 a7bc 8e4b 8e3b 694d debc
000002a0: 2f0b 02bd 494e 16bd 9890 38bc 5514 09bc
000002b0: a10c 0bbd 73c5 0cbd 938b 343b d13b 9f3c
000002c0: 80ce eb3b 8187 c8bb 9838 d4bc 7e3e 573c
000002d0: e2f5 b8bc 598d a3bc d05f 84bb bf01 00bd
000002e0: 705a fc3a c2f7 6b3c 37e2 803c 447f 043c
000002f0: b18f a6bc 1e18 8b3a eb72 9dbb 3229 ad3c
00000300: e26b e7bc a001 30bc 2769 cfbc d18a f03b
00000310: fb3b 793c 92b6 ea3b 9818 1a3b e76f a93b
00000320: 985b 073c ca59 3f3c acd4 abbc c6db 76bc
00000330: 8893 8dbc 69ec 61bb 646d 3f3c 711c e5bc
00000340: 37e5 353c 7062 afbb b114 c43c 64c7 6c3c
00000350: 0ac8 e1bb 7ca1 95bc a526 09bc 712b 443c
00000360: 89c5 5f3c 4bf1 4d3c 7385 863b 79bf 8d3c
00000370: b1a9 afbc 1259 5abc 0c3f 91bb e604 85bc
00000380: ef64 bdbc 3255 043a c678 1dbc c427 403c
00000390: 9d3b a83b c6a0 58bb 8a45 f139 873d 91bc
000003a0: fbc4 94ba 3273 57bc fd02 f2bb 4673 b03c
000003b0: 7894 5fbc 698e 863b 5d09 1dbc 7c25 883a
000003c0: 8cea 77bc 318f 28bb 55f3 84bb c507 51bc
000003d0: 6985 d33a ee69 46bc 03f8 c7b9 fd8e 013c
000003e0: f925 d1bb 347a 3c3c 325d cc3b 2875 053c
000003f0: 3fdf 0fbc 897a 253c f27e f639 3d9a 3cbc
0.0055536306 -0.0018972082 -0.016805364 0.017531613 0.0016433101 -0.024202872 -0.008367994 0.0095986
0.01979509 -0.0026915025 -0.02191629 0.018747134 -0.0022261022 -0.02133033 -0.015604952 -0.024515973
-0.012052971 -0.005057122 -0.019575024 -0.0061937785 -0.016863616 -0.010353625 0.0007169889 -0.013137312
-0.007962977 -0.005457352 0.017357223 0.011919921 0.01680821 0.009909553 0.021351157 -0.011312217
0.02060688 -0.01677943 0.011290906 0.0067229597 -0.017404536 0.0058267782 -0.0121696 0.0101622
-0.021522043 -0.0074412604 0.022400057 -0.02331687 0.009540511 -0.013264443 0.0048054373 -0.0021704906
-0.007027396 0.018171765 0.019660976 0.018903263 -0.013985973 0.025675025 0.0030026918 -0.016970694
-0.023764955 -0.010963552 0.028598575 -0.019252893 0.011640635 -0.009694983 0.022222035 -0.007436843
-0.018408354 0.010433351 -0.016109813 -0.008272348 -0.016975164 -0.0054355464 0.0018463635 0.020041648
-0.0073928237 0.030167092 0.021698143 0.007252729 0.013629378 0.003139202 -0.0020241884 0.0037840449
-0.011370753 0.01995067 -0.00951326 -0.00520616 -0.007081217 -0.021719635 -0.00061543635 -0.020052537
0.008077235 0.0032642006 -0.021258995 0.01117207 -0.022529973 0.009519847 0.0037144173 0.010551132
-0.021797998 -0.0008055872 -0.0018218592 0.006694601 0.009878891 -0.005997261 -0.009691757 0.0058738836
-0.004148647 -0.013490993 0.013346078 0.004814841 0.02127291 0.005392716 -0.006861661 0.0051283934
-0.007289445 0.02183802 0.02061995 0.020444429 -0.027038472 0.0025697635 0.008072857 -0.025322909
-0.0072642155 0.000113035836 -0.012167825 0.004728409 -0.019326616 -0.004507543 0.0134737585 -0.02779835
-0.03330586 -0.024839355 0.0054278285 -0.010295585 0.006231748 0.019456035 -0.019942416 0.011882554
-0.017942537 -0.0046518994 -0.015891343 -0.0054329624 0.0084674135 0.018499667 0.021461677 0.004510525
0.004756751 -0.002077508 -0.024386907 -0.016441265 0.0009748494 -0.010803353 -0.03278687 0.004547242
-0.002085573 -0.015102871 -0.011484165 -0.023650166 -0.0430601 -0.017692648 -0.04093242 -0.03771277
-0.0219148 -0.037991628 -0.022655338 -0.017188033 0.0011558232 -0.020411836 0.004342503 -0.027136521
-0.031748947 -0.036695752 -0.011264943 -0.008366664 -0.03394759 -0.03436799 0.0027549013 0.019437702
0.0071962476 -0.006119669 -0.025905892 0.013137458 -0.022578184 -0.01996486 -0.004039742 -0.031251665
0.0019253027 0.014402332 0.015732868 0.008086983 -0.02033219 0.0010612046 -0.004804959 0.021137808
-0.028249685 -0.010742575 -0.025318695 0.007340767 0.015212054 0.0071628774 0.0023513194 0.0051708105
0.008261584 0.011679122 -0.020975433 -0.0150670465 -0.017282262 -0.0034473187 0.011683796 -0.027967663
0.011102012 -0.005352311 0.023935648 0.014451835 -0.0068903016 -0.018265478 -0.00837103 0.011973248
0.013657936 0.012569736 0.004105264 0.017303215 -0.02144322 -0.0133269 -0.0044325646 -0.016237687
-0.023119418 0.00050480955 -0.009611314 0.011728231 0.0051340596 -0.0033054813 0.00046018913 -0.017729534
-0.0011350209 -0.013150023 -0.00738561 0.021539342 -0.013646238 0.004106332 -0.009584752 0.0010387148
-0.015131604 -0.0025720114 -0.0040573278 -0.0127582 0.0016137782 -0.012110217 -0.0003814102 0.007907626
-0.0063827005 0.011503745 0.0062366957 0.008145608 -0.008781253 0.010100015 0.00047015358 -0.011511383

fc.1.bias f4 [64]
00000000: c80c 4a3c 81f1 fd3d 272c 0abd 0280 fa3b
00000010: 9f92 e43e 8f14 723e 9dfe 17bd c611 17bc
00000020: ec6c 673c a7ea c53e 092a ca3e a2e3 763e
00000030: 0349 0e3d 30cd 6b3d 09d5 183e 8738 2a3f
00000040: 8ca6 14b9 c68e 45bb 57f1 24bd f7a5 debc
00000050: 56d6 0bbc e4d5 2b3b e7c3 c8bc 03b7 503e
00000060: 219a 373c f984 b5bc 2e3f eebc d4f7 32ba
00000070: 0a9f cf3d f8b4 123e 22d9 1c3b d85b e7bc
00000080: 3141 08bc af80 dd3e d999 adbb bfb6 983e
00000090: 1c28 8cbc 2b4c ef3e 5857 7a3c 11ec c73c
000000a0: 6435 efbc 59f8 513e 3562 893b fe13 2d3e
000000b0: 93f5 943d aacf a6ba 4207 763d 4f41 27bb
000000c0: 1d74 84bc 8aa8 683c 401b ef3c 60db 61ba
000000d0: fb3b 943e 1071 ac3e 00b6 0abb 2adb 333c
000000e0: 7343 95bc 52cb 0ebd f518 4ebd 72e2 c33e
000000f0: 18e7 a2bb 01b6 b8bc 78c9 2b3e 1aea 503e
0.012332149 0.12399579 -0.033733513 0.0076446543 0.44643113 0.23640655 -0.037108053 -0.009220546
0.01412509 0.38655588 0.39485195 0.24110273 0.0347376 0.05756873 0.14925016 0.66492504
-0.00014176423 -0.0030144914 -0.040269222 -0.027178748 -0.008534988 0.0026220018 -0.024507476 0.20382313
0.011206181 -0.022158133 -0.02908286 -0.00068270904 0.10137756 0.14326847 0.0023933132 -0.028242037
-0.008316324 0.4326224 -0.005297881 0.29826924 -0.01710897 0.467378 0.015279613 0.024404557
-0.029200263 0.20504893 0.0041926154 0.16902158 0.07273402 -0.0012726684 0.060065515 -0.0025521105
-0.016168648 0.014200339 0.029187799 -0.0008615758 0.2895201 0.3368001 -0.002116561 0.010977546
-0.018220639 -0.03486187 -0.05031677 0.38258702 -0.004971396 -0.022547724 0.16776073 0.20401803

fc.3.weight f4 [4, 64]
00000000: 9b01 843c 06c0 613e d04c 3d3c 6212 9c3d
00000010: e908 7cbe 5430 1f3e db15 bc3d fc19 bebd
00000020: ac2d bf3d efb3 ec3c 48f8 383c 0011 71bf
00000030: 3e96 eb3d 3a99 1d3d abf5 c0bf 4a54 d13e
00000040: 198f 3c3d 8d1c 6fbe fc9f cf3d 1e79 fe3c
00000050: 7b4c 3e3e c1b5 943c 2eee 7bbd 4130 f5be
00000060: 809f 7fbc 8405 0fbc 128f d5bd e719 66bd
00000070: 75a1 953b dbfd a03d 274a 883d eb3f 583c
00000080: bf79 a53d 5109 31bf e5f4 d1bd 4cf3 cc3d
00000090: 204c 293d 23c8 42be f2fe 16bc 35d4 cd3d
000000a0: c20e 1f3d dc84 98bd ed25 2bbd 30de 053e
000000b0: caab 23be ee7e a5be f618 813e 5de4 f03d
000000c0: ef90 2b3d 4abc 633e 3f91 923e 8d80 35bd
000000d0: cfe9 9ebf 20d1 47bd c8aa ddbc d63a be3d
000000e0: 250a e4bc fcaf 5e3d a099 aabd 9a2b a9bd
000000f0: a327 bb3c b8b7 84bd b0a4 243e a97c e03d
00000100: 2d25 2abc 3b76 bbbe 2175 da3d 3c1c a9bd
00000110: f715 26bf a27d 3d3e 0224 4fbd d4ba b93c
00000120: 54b9 debc 17ee c23c 7dbf 93bf e58d 48bd
00000130: d186 fe3d 48f1 91bf 9ed8 9e3d 85ed ac3e
00000140: b26f 80bc fce4 15be d746 dc3c f8cc 603d
00000150: 4469 a93d c0da 923d 61dc fe3d 1809 87bd
00000160: c1e6 323d c85a aebd 7094 a93d 6c8b 0cbd
00000170: 52f9 b1bf 99b3 64be 5bae d23d 34b8 bcbd
00000180: c7ce 2d3c feea ac3b 3401 ea3c 043c 37bd
00000190: f76a 54bd 393b 0ebe f6ba 09bc 13c0 c23d
000001a0: f9d9 debd 4e43 42bd 72a3 fa3a fc23 8d3d
000001b0: d52c 5d3e 2d63 d2be 0224 1abf a12a e4bd
000001c0: 5e5f 81bd 738b a23e 7770 843e 60c4 7fbd
000001d0: 1164 583d 6295 0cbe 12a3 a8bd 615a 7fbb
000001e0: cb4a c4bc 20d7 87bb 0f53 58bd 4126 823d
000001f0: bb92 333d beda d63d 0647 333e f35d 3f3d
00000200: 81e1 c7bc e296 84be ba50 823d 8823 9f3d
00000210: 2241 e9be 74a0 d83e 6bc2 af3d c773 353c
00000220: cd0d f23d e959 3cbf 03da b93b f909 ef3d
00000230: 859a 0e3e cba6 a63d 013f 0f3d a9f5 9a3e
00000240: 7e6a 673d 3ef4 f8bd 50d3 af3d 3404 c83d
00000250: 5aa6 b1bd d9f2 3b3c 0f36 8c3d 4ef6 083e
00000260: a6ed 863d be73 6b3c 4b2b d63c c6fb 1540
00000270: 49c4 e0bb bb1f 093e 63f2 c73d 866e a9bd
00000280: 615e b9bd 9c32 d23c 8fd2 3d3d 96cb a8bf
00000290: 7680 72bd aedc 05be 66a4 7d3d 37bf 86bf
000002a0: f07e c43d 401e bcbd 676c 363d d786 f83d
000002b0: c0aa 953d 9923 5b3e 1a95 913e 69e0 a43d
000002c0: 8f18 18bc bdf2 efbe 868f 363e 88f4 3f3d
000002d0: 83f0 8fbd 07d4 01be 481b b8bc aef9 2e3c
000002e0: a759 c1bd b841 cd3d 83b4 363d 844b a0bf
000002f0: d17c 453d 44d3 473c 4e41 3e3e 9410 99be
00000300: bcb1 1dbc 46a8 d0bc 650c 21bd ea2c 5cbd
00000310: ae43 743d 35e9 d33d cbe7 1cbd e268 9d3d
00000320: 8234 bbbd dbdb 0fbe 2646 6d3b 5937 d6bd
00000330: f3e9 44bd 9ad3 cf3d 0579 733d 3c30 ad3e
00000340: 4ab4 43bd f206 9fbe d81c 113c 5acd e1bd
00000350: 5864 f5bd 1cf3 75bd 14da 9abd b834 bbbe
00000360: 329d 143d 88b7 ecbc 0532 4fbd e65b bcbc
00000370: 0a81 60bc bfc0 7d3e 914d d9bd 9eeb ea3d
00000380: d4ef f53d 4f2a 1abd 41dc 3f3c d3de 38bd
00000390: 2d74 99bd cb17 3bbf 751d f1bb 55f3 cf3d
000003a0: 3066 7cbd 9f2f c3bf 3621 a33d 9e28 e7bf
000003b0: d2f8 6a3e 59fe 943e f901 8c3e 0140 f5bd
000003c0: 8fda f53d 3016 b13e 5458 0dbf 0b7b 9abc
000003d0: 94aa c83d 9704 83bf a4df f43c baf0 e2bb
000003e0: 0235 dcbd cef2 f33d ea63 a63b a92e e13c
000003f0: 7550 df3d 0467 1bbd 239f 9bbf 8fd8 8b3d
0.016114047 0.22045907 0.011553958 0.07620694 -0.24612774 0.1554578 0.09183856 -0.092823
0.09334883 0.028894393 0.011289664 -0.94166565 0.11503266 0.038476206 -1.5074972 0.4088462
0.046034906 -0.23350735 0.101379365 0.031063613 0.18583862 0.018153073 -0.061506443 -0.47888377
-0.015601993 -0.008729342 -0.10427679 -0.056177046 0.0045663663 0.07860919 0.066547684 0.013198833
0.08079862 -0.6915484 -0.10251788 0.10007343 0.041332364 -0.19021659 -0.009216057 0.10050241
0.038832434 -0.07447216 -0.041784216 0.13073039 -0.15983501 -0.32323402 0.25214356 0.11762307
0.041886266 0.22239795 0.2862644 -0.04431205 -1.2415103 -0.04878342 -0.027058974 0.09288566
-0.027836869 0.05436705 -0.08330083 -0.082602695 0.022846049 -0.06480354 0.16078448 0.10961277
-0.01038484 -0.3661364 0.10666872 -0.082573384 -0.64877266 0.18504956 -0.05057145 0.022672094
-0.02718798 0.02379517 -1.1542813 -0.048963446 0.12428058 -1.1401758 0.0775616 0.33774963
-0.01567826 -0.14638132 0.026889248 0.054882973 0.08272031 0.071706295 0.12444378 -0.06593531
0.043677095 -0.08513409 0.08280265 -0.03431265 -1.3904212 -0.22334136 0.10287162 -0.092148215
0.010608382 0.0052770367 0.028565027 -0.04473497 -0.051859822 -0.13889779 -0.008406391 0.095092915
-0.10881419 -0.047427468 0.0019122197 0.06891629 0.21599133 -0.4109129 -0.60211194 -0.11140943
-0.06317018 0.31747016 0.25867054 -0.062443137 0.052829806 -0.1372886 -0.08234228 -0.0038963782
-0.023961445 -0.004145518 -0.052813586 0.063549526 0.043841105 0.104909405 0.17507562 0.046720456
-0.02439952 -0.25896364 0.063630536 0.07770449 -0.45557505 0.42309916 0.08582004 0.011074967
0.118190385 -0.7357469 0.005671741 0.11671824 0.13926132 0.08137282 0.034972195 0.3026555
0.056498043 -0.121559605 0.085852265 0.09766427 -0.08674307 0.011471474 0.06846248 0.13375208
0.065882966 0.014370857 0.02614369 2.343492 -0.0068593365 0.1339101 0.097630285 -0.08273034
-0.090512045 0.025658898 0.046343382 -1.318713 -0.05920454 -0.13072464 0.06192436 -1.0527104
0.09594524 -0.09185457 0.044536974 0.12135094 0.073079586 0.21400298 0.28434068 0.08050615
-0.009283199 -0.46864882 0.17828187 0.046864063 -0.07028296 -0.12678538 -0.022473946 0.010679645
-0.09440928 0.100223005 0.044605743 -1.2523046 0.048214737 0.012196366 0.185796 -0.2989546
-0.009624895 -0.025470864 -0.03931846 -0.05375377 0.059634857 0.10347215 -0.038306993 0.076860204
-0.091408744 -0.14048712 0.0036205142 -0.104597755 -0.048074674 0.10147782 0.059441585 0.33825862
-0.04777936 -0.31059986 0.008856975 -0.11025496 -0.1198203 -0.0600463 -0.07561126 -0.3656366
0.036282726 -0.028896108 -0.05058481 -0.02299304 -0.01370264 0.24780558 -0.10610498 0.11470722
0.12008634 -0.037638005 0.0117102275 -0.045134377 -0.07492862 -0.7308318 -0.007358248 0.10153834
-0.06162089 -1.5248908 0.07965319 -1.805927 0.2294648 0.29100302 0.27345255 -0.119750984
0.12004577 0.3458724 -0.55212903 -0.0188575 0.0979816 -1.0235776 0.029891796 -0.0069256695
-0.10752298 0.11911546 0.0050778287 0.02748807 0.10904018 -0.03794004 -1.215794 0.06828415

fc.3.bias f4 [4]
00000000: bdf6 e73e 239c eb3e d4a9 f13e 6f3d ef3e
0.45305434 0.4601756 0.4719988 0.46726558
