models/v17.1/model_155000.pt (torch, 729854 bytes, 10 tensors)

conv.0.weight f4 [16, 2, 3, 3]
0.1974297 0.018342303 -0.071047015 0.036280844 0.009266937 -0.07752729 -0.025079323 -0.047525957
0.13277604 -0.20049594 0.07974319 0.08918547 0.03694154 -0.04238435 0.06477485 0.058692522
0.093815885 -0.04327517 0.12949759 0.26478323 -0.038951546 -0.053098936 -0.23684222 0.124933705
-0.186957 -0.23126379 -0.1346685 -0.039684556 -0.019396462 -0.00026536384 0.09812363 -0.32355645
0.03543726 0.21739516 0.090498134 0.1607977 0.058730472 0.316195 -0.026727209 -0.002188817
0.09944215 0.2603048 0.17010051 0.43164822 0.043245774 -0.09179563 -0.30171588 0.027674671
0.018152209 -0.05650626 -0.291611 -0.15511873 -0.440509 -0.037656203 0.017571094 -0.025063321
0.06565805 -0.031032993 0.018907432 -1.2554841 0.007481594 -0.05632808 0.014923408 -0.025810648
0.0070823813 -0.066628575 0.03413604 -0.022519907 0.08050481 0.00056005386 0.057691857 -0.012403565
0.02425664 -0.10672314 -0.13122156 -0.058177836 -0.1444578 0.6122382 0.005711863 0.008688267
-0.14598837 -0.024963493 0.06937181 0.122163 0.050593417 0.12147985 0.29547462 -0.0077032736
-0.003366526 0.11305689 0.031249247 -0.082293265 0.4667355 -0.035172228 -0.6064283 -0.016757807
0.014240555 -0.15027128 -0.10087861 -0.042924665 0.011134092 -0.006763477 0.056650687 -0.003415962
0.033031836 -0.024235137 0.13488594 0.06621112 -0.26739985 -0.343382 -0.017290436 0.023102468
0.020016558 -0.7311525 -0.35574564 -0.40660635 -0.09287143 0.25786415 0.31420156 0.006110305
-0.013651414 0.02658194 0.46838328 0.20755784 0.3223147 0.027976967 -0.48402953 -0.48555702
0.05750674 -0.12131507 0.09546301 0.1291063 -1.0307052 -0.090317264 -0.0677235 0.21719614
0.30478302 -0.051030584 0.004807529 -0.0484625 0.08989175 0.27719626 0.07720694 0.026292171
0.070161186 0.058257967 0.0024911792 0.053442936 0.22220926 -0.015412277 -0.24088617 -0.47268316
-0.45601785 -0.07073163 0.08459093 0.02645752 0.024998294 0.06091064 0.11683347 -0.107871614
0.19765885 -0.0055081155 0.0068372935 -0.04838263 0.015979258 0.02904643 -0.06351015 0.49380165
-0.0050071706 -0.14849626 -0.085706644 0.003542971 0.042621333 -0.036041074 -0.014697078 0.069426365
-0.4809365 0.022363082 0.13474329 0.0725634 0.01404971 -0.005516359 -0.0013468094 -0.07371725
0.5726442 -0.09904277 0.018264158 -0.06488995 0.03950275 -0.024644189 0.027970875 -0.004121087
0.0858187 0.38883236 0.07629365 -0.005341999 0.059637528 -0.060857233 -0.020916814 0.06720851
-0.061552033 0.012511599 0.83768314 0.023459194 -0.0679381 0.033164322 -0.08308222 0.017081363
-0.06313241 0.068235874 -0.025798976 -0.064424194 -0.043175515 0.077033624 -0.043635026 0.07954329
-0.083306685 -0.1778283 -0.08975901 -0.0839118 -2.440935 0.014817631 -0.105200924 -0.13067505
-0.14507854 0.11511379 0.103642054 0.087445885 0.054687947 0.520218 -0.079090625 0.13049223
0.05926193 0.16774249 -0.05255813 -0.07065604 -0.068780266 -0.065072685 -0.36829567 -0.92194164
0.20123541 -0.12655859 -0.05979373 -0.030845096 0.06880058 0.01749432 -0.007988851 0.08947618
0.4764151 0.12855254 0.12688738 0.10525743 -0.57413465 -0.5593434 -0.96271926 -0.11275182
00000000: 032b 4a3e 9942 963c 1981 91bd 399b 143d
00000010: 5ad4 173c a1c6 9ebd 2773 cdbc 94aa 42bd
00000020: 71f6 073e cf4e 4dbe 6650 a33d dfa6 b63d
00000030: 0350 173d 369b 2dbd ada8 843d 9267 703d
00000040: 8b22 c03d 4e41 31bd 049b 043e ab91 873e
00000050: a88b 1fbd 457e 59bd c486 72be 3edd ff3d
00000060: a871 3fbe 6ad0 6cbe 8ae6 09be 468c 22bd
00000070: 54e5 9ebc 8820 8bb9 0bf5 c83d 31a9 a5be
00000080: a926 113d d69c 5e3e 1657 b93d 27a8 243e
00000090: 5d8f 703d 50e4 a13e 05f3 dabc 4172 0fbb
000000a0: 53a8 cb3d ac46 853e d42e 2e3e ff00 dd3e
000000b0: 7b22 313d 59ff bbbd 817a 9abe feb5 e23c
000000c0: f1b3 943c 1c73 67bd 094e 95be 72d7 1ebe
000000d0: 658a e1be 643d 1abd 41f1 8f3c 9851 cdbc
000000e0: ba77 863d e738 febc c2e3 9a3c b4b3 a0bf
000000f0: 2928 f53b 46b8 66bd 4f81 743c da70 d3bc
00000100: 5213 e83b 9074 88bd 3bd2 0b3d ab7b b8bc
00000110: b5df a43d 94d0 123a 4c4e 6c3d 5338 4bbc
00000120: dcb5 c63c a991 dabd f25e 06be e24b 6ebd
00000130: bfec 13be a5bb 1c3f 942a bb3b 3c59 0e3c
00000140: fa7d 15be 3d80 ccbc cf12 8e3d 9830 fa3d
00000150: 0b3b 4f3d 6dca f83d 7348 973e be6b fcbb
00000160: efa0 5cbb 5f8a e73d 6cfe ff3c 5f89 a8bd
00000170: f5f7 ee3e c110 10bd e33e 1bbf ab47 89bc
00000180: 3851 693c b7e0 19be 7299 cebd c6d1 2fbd
00000190: c46b 363c 28a0 ddbb 8d0a 683d 55de 5fbb
000001a0: 644c 073d c488 c6bc 8a1f 0a3e b299 873d
000001b0: a2e8 88be c4cf afbe aca4 8dbc 6341 bd3c
000001c0: c4f9 a33c cf2c 3bbf 4b24 b6be b52e d0be
000001d0: 6033 bebd c506 843e 07df a03e f438 c83b
000001e0: 2eaa 5fbc 5ec2 d93c efcf ef3e 0b8a 543e
000001f0: 6f06 a53e f42f e53c b8d2 f7be ee9a f8be
00000200: 308c 6b3d 0974 f8bd 1c82 c33d 7134 043e
00000210: 26ee 83bf 42f8 b8bd 9eb2 8abd aa68 5e3e
00000220: 850c 9c3e 7205 51bd 7a88 9d3b 9d80 46bd
00000230: 2a19 b83d abec 8d3e ac1e 9e3d ae62 d73c
00000240: abb0 8f3d e89f 6e3d 0d43 233b fbe6 5a3d
00000250: d38a 633e c683 7cbc ddaa 76be 8703 f2be
00000260: 2c7b e9be bfdb 90bd 023e ad3d 71bd d83c
00000270: 39c9 cc3c 6f7d 793d 6346 ef3d cbeb dcbd
00000280: 1567 4a3e 6c7d b4bb 600b e03b dd2c 46bd
00000290: efe6 823c c7f2 ed3c 9c11 82bd 92d3 fc3e
000002a0: 3113 a4bb 670f 18be f786 afbd 3131 683b
000002b0: b593 2e3d ce9f 13bd 03cc 70bc 692f 8e3d
000002c0: 4f3d f6be c832 b73c 25fa 093e 1f9c 943d
000002d0: c130 663c 93c2 b4bb 6d87 b0ba 12f9 96bd
000002e0: cf98 123f f0d6 cabd b79e 953c 06e5 84bd
000002f0: a3cd 213d 9ce2 c9bc 2d23 e53c 2f0a 87bb
00000300: b7c1 af3d 0915 c73e d83f 9c3d f00b afbb
00000310: 7b46 743d 6f45 79bd bd59 abbc 9ea4 893d
00000320: fc1d 7cbd 73fd 4c3c 6772 563f 7f2d c03c
00000330: 2123 8bbd 50d7 073d 0327 aabd 37ee 8b3c
00000340: 914b 81bd 40bf 8b3d 6058 d3bc d5f0 83bd
00000350: cfd8 30bd cec3 9d3d a4ba 32bd 98e7 a23d
00000360: b29c aabd 9f18 36be 92d3 b7bd f3d9 abbd
00000370: 4738 1cc0 a6c5 723c 9573 d7bd aecf 05be
00000380: 788f 14be c7c0 eb3d 4942 d43d d416 b33d
00000390: 7800 603d 022d 053f 44fa a1bd c19f 053e
000003a0: a3bc 723d b0c4 2b3e 3247 57bd 1db4 90bd
000003b0: abdc 8cbd d444 85bd 4091 bcbe 5e04 6cbf
000003c0: a810 4e3e 9398 01be 45ea 74bd dbae fcbc
000003d0: 52e7 8c3d 4050 8f3c abe3 02bc 4a3f b73d
000003e0: aeec f33e 47a3 033e c4ee 013e 3591 d73d
000003f0: 7dfa 12bf 2131 0fbf c574 76bf 6dea e6bd

conv.0.bias f4 [16]
-0.06456523 -0.27823016 -0.11373738 0.55563647 -0.5769082 -0.26803672 0.014996416 -0.17916821
-0.39839092 -0.0611255 -0.6636968 -0.41085023 0.29716808 -0.22454138 -0.014597569 -0.17133369
00000000: c63a 84bd 2f74 8ebe 25ef e8bd 313e 0e3f
00000010: 41b0 13bf 1c3c 89be 87b3 753c df77 37be
00000020: e5f9 cbbe bb5e 7abd 09e8 29bf f65a d2be
00000030: 6a26 983e 2dee 65be a42a 6fbc 1972 2fbe

conv.2.weight f4 [32, 16, 3, 3]
-0.06683491 0.014384792 -0.038415242 -0.016718522 -0.07016854 -0.020472838 0.08204005 -0.028954625
-0.09674039 0.069576316 0.10245565 0.084751874 0.14095867 0.1087081 0.030831572 0.0488898
-0.03928955 -0.042501856 0.17551781 -0.029178917 -0.047675684 -0.03202724 -0.006035596 -0.22602901
-0.12221988 -0.24334489 -0.18942887 0.013453 -0.038285274 -0.13447702 0.007126391 -0.07020812
-0.076664865 0.048692934 -0.118256494 -0.35108662 0.07204506 0.11326259 -0.2832674 -0.14333892
-0.16170332 -0.33448523 0.11498769 -0.12088721 -0.1792238 0.042302545 0.026542732 -0.08876093
0.16149458 0.08944876 -0.25761005 0.07969716 0.07016644 -0.12774254 0.044261035 0.18205683
0.01357258 0.15523759 0.046727657 -0.044105355 0.06772168 0.02099148 -0.17668733 -0.1929921
-0.03718908 0.018556997 -0.06692223 -0.017141983 -0.04171891 -0.07862076 -0.08098943 -0.13200119
0.089276075 0.066952996 0.03609081 -0.07113834 0.14843544 -0.12927395 0.09872053 -0.047600463
-0.15474017 0.09609313 -0.23569903 0.04294121 0.10848408 -0.15366124 -0.039393265 -0.16921327
-0.22851765 0.018625982 0.049416367 -0.001250206 -0.12753086 -0.028034851 0.0004252468 -0.14768414
-0.07605562 -0.030912234 -0.07168372 0.008956344 -0.008048811 -0.07382933 -0.14734383 -0.20598903
-0.1424473 -0.125053 -0.13856177 0.0059837434 0.012897401 0.04259275 0.029422095 -0.13456461
-0.008857449 0.02490194 -0.13457884 -0.14993642 -0.028184628 -0.0055684284 0.013558415 0.051301412
0.06534731 0.018686201 -0.021980198 -0.036406994 -0.042667568 0.020819208 0.020252636 -0.0017077618
-0.0071211313 -0.031826563 -0.176023 -0.09472808 -0.03790633 -0.0421214 0.087134205 -0.13127916
-0.013357759 -0.08849758 -0.10196 0.10656742 0.010068109 -0.08840715 -0.15089832 -0.07007116
0.18499814 -0.08703683 0.17723785 0.046649367 0.09596419 -0.06608942 -0.030362522 0.0424084
-0.055265706 0.12900837 0.027471785 0.2539643 -0.18894902 0.1554577 0.070095696 0.25284877
-0.06944258 0.07603303 -0.0375424 0.27152252 0.19082212 0.29667762 -0.24784802 -0.17806323
0.29433158 0.01561575 0.06860183 -2.19319 0.12102514 -0.10412349 -0.01541577 -0.016537564
0.01841746 -0.023599764 -0.0440124 -0.026783418 -1.0253735 0.35262978 0.004964551 -0.018534953
0.080414675 0.088984415 0.021978568 -0.055039834 -0.01375905 -0.18944599 -0.83459604 -0.07290249
-0.29295737 -0.06985841 -0.18488705 -0.073882215 -0.054794185 -0.0103785535 0.09325506 -0.012443446
-0.04864725 0.12999836 -0.09104647 -0.12672475 0.1710907 -0.00032939774 0.060979523 0.084453024
-0.10433034 -0.16497487 0.10906222 -0.09016677 -0.18543108 0.3313888 0.0008871796 0.16223958
0.1909449 -0.21596025 0.17351705 0.04137422 0.3291634 0.025478927 0.1946972 0.14866729
-0.13328403 0.080556005 -0.5313865 -0.10368732 0.15936351 -0.02279616 -0.2080637 0.51672643
0.016097393 -0.119797766 -0.08630654 -0.44932082 0.41808048 0.05715715 -0.19564949 0.0017335776
-0.022576062 -0.051026493 -0.013823879 0.12695876 -0.5473388 0.17330272 0.104974 -0.098441176
-0.052197527 -0.046113234 0.019083781 0.0046177455 0.03558109 -1.1616689 -0.6667369 0.22002688
00000000: bee0 88bd 31ae 6b3c 4d59 1dbd 48f5 88bc
00000010: 86b4 8fbd a7b6 a7bc 9d04 a83d 4032 edbc
00000020: d31f c6bd 077e 8e3d 45d4 d13d 6492 ad3d
00000030: 7857 103e 5aa2 de3d 7e92 fc3c ac40 483d
00000040: 14ee 20bd 6d16 2ebd f1ba 333e a008 efbc
00000050: 9447 43bd ff2e 03bd 40c6 c5bb 2674 67be
00000060: 6b4e fabd 672f 79be a4f9 41be f969 5c3c
00000070: 05d1 1cbd 58b4 09be 8084 e93b 46c9 8fbd
00000080: 7802 9dbd 3e72 473d 7630 f2bd a0c1 b3be
00000090: 5c8c 933d 37f6 e73d 6d08 91be 70c7 12be
000000a0: 8e95 25be a641 abbe aa7e eb3d b793 f7bd
000000b0: 7286 37be 6f45 2d3d 2570 d93c 4ac8 b5bd
000000c0: d65e 253e e930 b73d 77e5 83be 4438 a33d
000000d0: 6cb3 8f3d f1ce 02be 0f4b 353d 1b6d 3a3e
000000e0: 875f 5e3c 9af6 1e3e 8065 3f3d d1a7 34bd
000000f0: aab1 8a3d 53f6 ab3c 86ed 34be b99f 45be
00000100: 9453 18bd d804 983c 860e 89bd 586d 8cbc
00000110: 73e1 2abd ec03 a1bd c9dd a5bd 522b 07be
00000120: 60d6 b63d a71e 893d f5d3 133d fab0 91bd
00000130: 76ff 173e 6460 04be fd2d ca3d b4f8 42bd
00000140: 3574 1ebe 7acc c43d 165b 71be 1fe3 2f3d
00000150: e72c de3d 5f59 1dbe d55a 21bd 3e46 2dbe
00000160: 8800 6abe 8495 983c d168 4a3d f4dd a3ba
00000170: 7397 02be 58a9 e5bc a9f3 de39 833a 17be
00000180: 0dc3 9bbd a73b fdbc eace 92bd a1bd 123c
00000190: 29df 03bc d533 97bd 4de1 16be caee 52be
000001a0: b4dd 11be e50d 00be 23e3 0dbe 4713 c43b
000001b0: 9f4f 533c bc75 2e3d 9b06 f13c 4ecb 09be
000001c0: d51e 11bc 27ff cb3c 09cf 09be ef88 19be
000001d0: 73e3 e6bc 5d77 b6bb 1d24 5e3c 6e21 523d
000001e0: cfd4 853d ce13 993c d10f b4bc 801f 15bd
000001f0: 30c4 2ebd 0b8d aa3c dbe8 a53c fad6 dfba
00000200: 6158 e9bb 925c 02bd 603f 34be cc00 c2bd
00000210: ab43 1bbd 7d87 2cbd 6b73 b23d 0b6e 06be
00000220: 81da 5abc 383e b5bd 68d0 d0bd 0540 da3d
00000230: b6f4 243c cf0e b5bd 1785 1abe 7881 8fbd
00000240: 2770 3d3e 5e40 b2bd d77d 353e 6813 3f3d
00000250: e088 c43d e459 87bd d3ba f8bc 6eb4 2d3d
00000260: 4b5e 62bd c51a 043e 820c e13c 9c07 823e
00000270: da7b 41be 4e30 1f3e 558e 8f3d 6575 813e
00000280: e937 8ebd 35b7 9b3d 0fc6 19bd 0005 8b3e
00000290: e066 433e 21e6 973e dfcb 7dbe 3556 36be
000002a0: a1b2 963e 34d9 7f3c 1e7f 8c3d 3a5d 0cc0
000002b0: 07dc f73d b23e d5bd 6d92 7cbc c979 87bc
000002c0: 37e0 963c 4b54 c1bc 5946 34bd e668 dbbc
000002d0: 703f 83bf e48b b43e acad a23b 9dd6 97bc
000002e0: 73b0 a43d 763d b63d 660c b43c 7371 61bd
000002f0: a36d 61bc 21fe 41be 16a8 55bf e74d 95bd
00000300: 82fe 95be ed11 8fbd 0853 3dbe 8f4f 97bd
00000310: de6f 60bd cf0a 2abc 82fc be3d 98df 4bbc
00000320: 5742 47bd 4a1e 053e 9276 babd 22c4 01be
00000330: 6732 2f3e 04b3 acb9 aac5 793d b5f5 ac3d
00000340: 25ab d5bd 2cef 28be 035c df3d 5ba9 b8bd
00000350: a5e1 3dbe cbab a93e 9d91 683a 2222 263e
00000360: 0f87 433e af24 5dbe 74ae 313e 0478 293d
00000370: 1b88 a83e 2fb9 d03c b45e 473e 3d3c 183e
00000380: 9c7b 08be 8cfa a43d f208 08bf 055a d4bd
00000390: 3030 233e 03bf babc a70e 55be 2f48 043f
000003a0: aede 833c 8858 f5bd 7cc1 b0bd 610d e6be
000003b0: a50e d63e 9e1d 6a3d 5758 48be 3639 e33a
000003c0: 6ff1 b8bc 2801 51bd 8d7d 62bc 7a01 023e
000003d0: 651e 0cbf 4576 313e 9cfc d63d 879b c9bd
000003e0: 13cd 55bd 3be1 3cbd 9755 9c3c 7550 973b
000003f0: 7abd 113d 91b1 94bf 45af 2abf ba4e 613e

conv.2.bias f4 [32]
0.017375115 0.04946251 -0.070246406 0.083534755 0.030755492 -0.052427687 0.22150214 -0.07220127
-0.22817606 -0.32187054 0.13889427 0.2685948 -0.089416586 0.025139822 0.08656396 -0.15158854
0.009821254 -0.0014697128 0.20713668 -0.11431961 0.1161704 -0.07256076 -0.009614126 -0.07776604
-0.13973828 0.31623903 0.1107659 -0.12739325 -0.034954987 0.02779451 -0.09936319 0.13832343
00000000: 4256 8e3c 3399 4a3d 59dd 8fbd 4514 ab3d
00000010: f1f2 fb3c 6abe 56bd 75d1 623e 42de 93bd
00000020: fca6 69be 37cc a4be 4d3a 0e3e 4285 893e
00000030: 0b20 b7bd 07f2 cd3c 7248 b13d 073a 1bbe
00000040: 53e9 203c 61a3 c0ba a31b 543e 6620 eabd
00000050: bfea ed3d bc9a 94bd 9184 1dbc cd43 9fbd
00000060: 8d17 0fbe 15ea a13e 3bd9 e23d 6073 02be
00000070: f62c 0fbd 50b1 e33c ee7e cbbd a8a4 0d3e

conv.4.weight f4 [64, 32, 6, 6]
-0.012268377 -0.05806071 0.06688273 -0.015380147 0.04657678 -0.015616421 -0.03256467 0.04041147
0.02919729 0.021898901 -0.016655063 0.0390518 -0.0033677567 0.024144072 -0.025562001 -0.04407566
-0.0069101653 0.028814116 0.011917021 0.07365735 -0.0012157318 -0.05223222 -0.047902998 0.079717755
0.02469267 -0.006826441 -0.06255945 0.026131824 -0.0018433939 -0.002326119 0.006615046 -0.01674912
-0.036979526 0.0008930858 -0.04080849 -0.005478557 -0.049462803 -0.026351701 0.33060148 -0.13324204
-0.37979913 -0.06943587 0.027845282 0.11550712 0.07578295 -0.32783437 -0.18042202 0.40574914
-0.56889236 0.118631594 -0.06455808 0.09736284 0.2426699 0.27205944 0.118653454 -0.12430936
-0.011475494 -0.09345368 0.019505354 0.19381088 0.07790127 0.07711417 0.086732455 0.14670175
0.02999204 0.17815737 -0.28590268 0.2625316 0.3421152 0.20111811 0.25997865 -0.5904702
-0.010297113 -0.044282015 -0.022909082 -0.048452295 0.010486097 -0.024874894 -0.013329154 0.004932549
-0.0016785708 0.014912149 0.02219641 0.010428611 0.0053937323 -0.013848395 -0.027940439 0.024024732
0.014493641 -0.010438555 -0.021910558 0.019673064 -0.020924404 0.01594119 -0.038435552 -0.0092676375
-0.0020982723 0.037490543 0.0022820155 0.022414481 -0.009719206 0.030482523 0.027841546 0.033024423
0.042398226 0.010884878 -0.004537736 0.0036698102 -0.10219992 0.20709585 0.0026230034 -0.2940728
-0.500632 0.23570076 0.020560874 0.26834208 0.102743946 0.007904773 0.45368576 -0.41487098
0.35426858 0.22980869 0.15895829 0.109912544 0.22123277 0.3199405 0.29459804 0.2717729
0.20063159 0.0050845835 0.34247175 0.3208746 -0.0098548215 0.3605192 0.36638445 0.2640946
0.41483748 -0.49066094 0.0075129317 -0.48385736 -0.5332111 -0.22792956 0.19385885 -0.43034983
0.0068364884 0.01720518 -0.07757774 0.16291602 0.27423364 -0.091702625 0.38239437 0.33764648
-0.4214944 -0.42965516 -0.6371064 -0.049345404 -0.29233536 0.09877045 -0.35941392 -0.02216877
0.15453954 -0.40525138 0.3091474 -0.17889108 -0.28663737 -0.23652221 -0.2863523 0.066681854
0.32047963 -0.040238254 -0.021427108 -0.04413259 0.04629059 0.21843354 -0.05749081 0.16313219
0.056476537 -0.082244776 -0.0078835 -0.7623174 0.089246765 0.020065743 0.108300805 0.057566
0.026356958 -0.04739771 0.46565259 0.1806628 0.2530731 0.17149769 0.092866465 0.17002591
0.53888196 0.19356072 0.15612277 0.26010767 0.0914856 0.09686586 0.32291 0.16208048
0.2866615 0.24824196 0.09440801 -0.08224216 -0.024098875 0.3533281 0.313508 0.059390273
0.08849028 -0.21668841 -0.130255 0.10603187 0.15159936 0.032410737 0.031805392 0.05539589
-0.024447637 0.05874746 0.18383344 0.08031175 0.1067717 -0.002848648 0.16760448 0.12988544
0.13840054 0.17941315 0.10877056 -0.03508362 0.1855857 -0.0019056409 0.15117659 0.1163606
0.11599215 0.04254076 0.048158996 -0.06923994 0.04492516 0.13183858 0.17984559 0.032014336
0.14737263 0.123789154 0.033471216 0.12891586 0.07141485 -0.0075774626 0.14782235 -0.08219187
-0.006822093 0.15980206 -0.0013356808 -0.067652084 0.016148262 0.016960358 -0.014150819 0.022760727
00000000: 4d01 49bc 11d1 6dbd d0f9 883d 03fd 7bbc
00000010: 4bc7 3e3d 04dc 7fbc 8862 05bd 7f86 253d
00000020: 282f ef3c 5365 b33c 3370 88bc c8f4 1f3d
00000030: 95b5 5cbb cac9 c53c 6767 d1bc ae88 34bd
00000040: ab6e e2bb 950b ec3c 9c3f 433c aad9 963d
00000050: 3159 9fba 74f1 55bd ef35 44bd 1043 a33d
00000060: 4848 ca3c 56b0 dfbb 2b1f 80bd 6812 d63c
00000070: 099e f1ba cd71 18bb 07c3 d83b 7335 89bc
00000080: d877 17bd f91d 6a3a ce26 27bd 7885 b3bb
00000090: 8299 4abd 86df d7bc 9944 a93e 9a70 08be
000000a0: 0875 c2be 6534 8ebd ca1b e43c ff8e ec3d
000000b0: 1734 9b3d e8d9 a7be 8dc0 38be 5abe cf3e
000000c0: eea2 11bf 1ff5 f23d 0737 84bd 2b66 c73d
000000d0: 757e 783e 604b 8b3e 9500 f33d e895 febd
000000e0: b603 3cbc a564 bfbd b1c9 9f3c 5c76 463e
000000f0: b38a 9f3d 09ee 9d3d c9a0 b13d fc38 163e
00000100: deb1 f53c e36e 363e d661 92be 8b6a 863e
00000110: b929 af3e e8f1 4d3e ec1b 853e 0e29 17bf
00000120: 39b5 28bc 0f61 35bd d4ab bbbc ea75 46bd
00000130: e1cd 2b3c 6fc6 cbbc 8662 5abc 38a1 a13b
00000140: 7d03 dcba 1652 743c 3fd5 b53c c4dc 2a3c
00000150: e8bd b03b 61e4 62bc 59e3 e4bc 84cf c43c
00000160: bd76 6d3c 7906 2bbc c57d b3bc 6829 a13c
00000170: a869 abbc 1997 823c 996e 1dbd 4ad7 17bc
00000180: 2b83 09bb af8f 193d de8d 153b 939e b73c
00000190: 4e3d 1fbc 7cb6 f93c f413 e43c 9e44 073d
000001a0: c3a9 2d3d 7d56 323c 4ab1 94bb 3381 703b
000001b0: 314e d1bd ef10 543e b2e6 2b3b b690 96be
000001c0: 6b29 00bf 8a5b 713e 476f a83c 2264 893e
000001d0: 6b6b d23d 0583 013c 8049 e83e f869 d4be
000001e0: b162 b53e f852 6b3e f6c5 223e d419 e13d
000001f0: d88a 623e 3ecf a33e 8ed5 963e d125 8b3e
00000200: 5e72 4d3e 949c a63b 7558 af3e ad49 a43e
00000210: 1e76 21bc f995 b83e be96 bb3e 6837 873e
00000220: 9465 d43e e937 fbbe 0a2f f63b 27bc f7be
00000230: 8680 08bf 5e66 69be ef82 463e d056 dcbe
00000240: 9f04 e03b e1f1 8c3c 14e1 9ebd 75d3 263e
00000250: 5a68 8c3e 96ce bbbd 32c9 c33e 00e0 ac3e
00000260: 1dce d7be c3fb dbbe 6819 23bf 681e 4abd
00000270: fbac 95be 2948 ca3d 1a05 b8be 489b b5bc
00000280: 9d3f 1e3e 1c7d cfbe 9148 9e3e 392f 37be
00000290: 22c2 92be e132 72be c59c 92be 7f90 883d
000002a0: e815 a43e ded0 24bd e787 afbc 60c4 34bd
000002b0: 349b 3d3d 0bad 5f3e 7c7b 6bbd 200c 273e
000002c0: f153 673d f36f a8bd cc29 01bc 3c27 43bf
000002d0: 02c7 b63d ea60 a43c d0cc dd3d 53ca 6b3d
000002e0: 8cea d73c 1a24 42bd 046a ee3e abff 383e
000002f0: cc92 813e 179d 2f3e c630 be3d 461b 2e3e
00000300: 2bf4 093f c834 463e a6de 1f3e d52c 853e
00000310: cd5c bb3d 9c61 c63d 7654 a53e 6df8 253e
00000320: 4cc5 923e 2433 7e3e fd58 c13d 946e a8bd
00000330: 016b c5bc 6ce7 b43e 1f84 a03e 3743 733d
00000340: 643a b53d 91e3 5dbe 9161 05be 3d27 d93d
00000350: dd3c 1b3e 1fc1 043d 5f46 023d cde6 623d
00000360: 6946 c8bc 2da1 703d d53e 3c3e 7d7a a43d
00000370: 1fab da3d 62b0 3abb 82a0 2b3e b000 053e
00000380: dfb8 0d3e 15b8 373e 19c3 de3d d8b3 0fbd
00000390: 2e0a 3e3e b3c6 f9ba 09ce 1a3e 774e ee3d
000003a0: 4b8d ed3d 383f 2e3d 5e42 453d abcd 8dbd
000003b0: 7203 383d b100 073e 7129 383e 7721 033d
000003c0: dae8 163e 2b85 fd3d 1d19 093d 8502 043e
000003d0: f341 923d 5d4c f8bb be5e 173e 3654 a8bd
000003e0: dd8b dfbb 27a3 233e 0312 afba 2d8d 8abd
000003f0: 5c49 843c 73f0 8a3c d6d8 67bc b474 ba3c

conv.4.bias f4 [64]
-0.20045508 -0.11623357 -0.33959264 -0.29765916 -0.11973329 -0.249705 -0.081912875 -0.14023687
-0.34466234 -0.008643531 -0.13644487 -0.05178891 -0.046241537 -0.43436405 -0.4107933 -0.3409548
-0.20328076 0.13169388 -0.063766755 -0.22309232 -0.31694716 -0.15606225 0.46988934 -0.2209269
-0.28207988 -0.27796337 -0.32943976 -0.22856863 -0.30106494 -0.37070653 -0.38218594 0.1676698
-0.30570766 0.33110687 -0.18697305 -0.3247541 -0.32137102 0.25962147 -0.17329967 -0.2085508
-0.35907057 -0.567476 -0.05112939 -0.38809997 -0.073031485 -0.0058739665 0.27063835 -0.43866456
-0.114884205 -0.28885037 -0.24285062 -0.2214842 -0.009407843 -0.07458484 -0.26698738 -0.45463505
-0.31764135 -0.26185018 -0.24625689 0.18452232 -0.3806877 -0.015254482 -0.30778915 -0.16136576
00000000: 1944 4dbe de0b eebd 16df adbe c866 98be
00000010: ba36 f5bd abb2 7fbe f0c1 a7bd 419a 0fbe
00000020: 9577 b0be 999d 0dbc 34b8 0bbe 9c20 54bd
00000030: c467 3dbd f764 debe 8053 d2be a191 aebe
00000040: d528 50be c3da 063e 2598 82bd 5072 64be
00000050: e646 a2be c8ce 1fbe 5695 f03e a93a 62be
00000060: c66c 90be 3751 8ebe 54ac a8be e50d 6abe
00000070: 2f25 9abe 3fcd bdbe e0ad c3be a2b1 2b3e
00000080: b785 9cbe d786 a93e dd75 3fbe 2b46 a6be
00000090: be8a a4be 1bed 843e 7875 31be 578e 55be
000000a0: 19d8 b7be 1b46 11bf 0d6d 51bd 0ab5 c6be
000000b0: 8891 95bd 677a c0bb 1c91 8a3e a498 e0be
000000c0: 6948 ebbd 32e4 93be d5ad 78be c1cc 62be
000000d0: 5b23 1abc f0bf 98bd 92b2 88be edc5 e8be
000000e0: e3a1 a2be 3a11 86be c42a 7cbe 6bf3 3c3e
000000f0: 80e9 c2be efed 79bc 8a96 9dbe 113d 25be

fc.1.weight f4 [64, 1600]
0.0055536306 -0.0018972082 -0.016805364 0.017531613 0.0016433101 -0.024202872 -0.008367994 0.0095986
0.01979509 -0.0026915025 -0.02191629 0.018747134 -0.0022261022 -0.02133033 -0.015604952 -0.024515973
-0.012052971 -0.005057122 -0.019575024 -0.0061937785 -0.016863616 -0.010353625 0.0007169889 -0.013137312
-0.007962977 -0.005457352 0.017357223 0.011919921 0.01680821 0.009909553 0.021351157 -0.011312217
0.02060688 -0.01677943 0.011290906 0.0067229597 -0.017404536 0.0058267782 -0.0121696 0.0101622
-0.021522043 -0.0074412604 0.022400057 -0.02331687 0.009540511 -0.013264443 0.0048054373 -0.0021704906
-0.007027396 0.018171765 0.019660976 0.018903263 -0.013985973 0.025675025 0.0030026918 -0.016970694
-0.023764955 -0.010963552 0.028598575 -0.019252893 0.011640635 -0.009694983 0.022222035 -0.007436843
-0.018408354 0.010433351 -0.016109813 -0.008272348 -0.016975164 -0.0054355464 0.0018463635 0.020041648
-0.0073928237 0.030167092 0.021698143 0.007252729 0.013629378 0.003139202 -0.0020241884 0.0037840449
-0.011370753 0.01995067 -0.00951326 -0.00520616 -0.007081217 -0.021719635 -0.00061543635 -0.020052537
0.008077235 0.0032642006 -0.021258995 0.01117207 -0.022529973 0.009519847 0.0037144173 0.010551132
-0.021797998 -0.0008055872 -0.0018218592 0.006694601 0.009878891 -0.005997261 -0.009691757 0.0058738836
-0.004148647 -0.013490993 0.013346078 0.004814841 0.02127291 0.005392716 -0.006861661 0.0051283934
-0.007289445 0.02183802 0.02061995 0.020444429 -0.027038472 0.0025697635 0.008072857 -0.025322909
-0.0072642155 0.000113035836 -0.012167825 0.004728409 -0.019326616 -0.004507543 0.0134737585 -0.02779835
-0.03330586 -0.024839355 0.0054278285 -0.010295585 0.006231748 0.019456035 -0.019942416 0.011882554
-0.017942537 -0.0046518994 -0.015891343 -0.0054329624 0.0084674135 0.018499667 0.021461677 0.004510525
0.004756751 -0.002077508 -0.024386907 -0.016441265 0.0009748494 -0.010803353 -0.03278687 0.004547242
-0.002085573 -0.015102871 -0.011484165 -0.023650166 -0.0430601 -0.017692648 -0.04093242 -0.03771277
-0.0219148 -0.037991628 -0.022655338 -0.017188033 0.0011558232 -0.020411836 0.004342503 -0.027136521
-0.031748947 -0.036695752 -0.011264943 -0.008366664 -0.03394759 -0.03436799 0.0027549013 0.019437702
0.0071962476 -0.006119669 -0.025905892 0.013137458 -0.022578184 -0.01996486 -0.004039742 -0.031251665
0.0019253027 0.014402332 0.015732868 0.008086983 -0.02033219 0.0010612046 -0.004804959 0.021137808
-0.028249685 -0.010742575 -0.025318695 0.007340767 0.015212054 0.0071628774 0.0023513194 0.0051708105
0.008261584 0.011679122 -0.020975433 -0.0150670465 -0.017282262 -0.0034473187 0.011683796 -0.027967663
0.011102012 -0.005352311 0.023935648 0.014451835 -0.0068903016 -0.018265478 -0.00837103 0.011973248
0.013657936 0.012569736 0.004105264 0.017303215 -0.02144322 -0.0133269 -0.0044325646 -0.016237687
-0.023119418 0.00050480955 -0.009611314 0.011728231 0.0051340596 -0.0033054813 0.00046018913 -0.017729534
-0.0011350209 -0.013150023 -0.00738561 0.021539342 -0.013646238 0.004106332 -0.009584752 0.0010387148
-0.015131604 -0.0025720114 -0.0040573278 -0.0127582 0.0016137782 -0.012110217 -0.0003814102 0.007907626
-0.0063827005 0.011503745 0.0062366957 0.008145608 -0.008781253 0.010100015 0.00047015358 -0.011511383
00000000: 3bfb b53b beab f8ba 67ab 89bc 759e 8f3c
00000010: 5664 d73a 1a45 c6bc e919 09bc 7243 1d3c
00000020: 5029 a23c eb63 30bb cb89 b3bc 9793 993c
00000030: cce3 11bb f2bc aebc eaab 7fbc b9d5 c8bc
00000040: d379 45bc 37b6 a5bb cd5b a0bc 2ef5 cabb
00000050: 9125 8abc 40a2 29bc 50f4 3b3a e13d 57bc
00000060: 2577 02bc 96d3 b2bb bc30 8e3c c64b 433c
00000070: 5fb1 893c ae5b 223c 9fe8 ae3c e156 39bc
00000080: c2cf a83c 0475 89bc 7efd 383c 464c dc3b
00000090: f593 8ebc 8fee be3b 0163 47bc 5b7f 263c
000000a0: ff4e b0bc d1d5 f3bb 5380 b73c 0503 bfbc
000000b0: ce4f 1c3c 1b53 59bc ee76 9d3b ca3e 0ebb
000000c0: 1246 e6bb f4dc 943c 0e10 a13c 04db 9a3c
000000d0: 6c25 65bc 6e54 d23c cfc8 443b 2006 8bbc
000000e0: b9ae c2bc 78a0 33bc 8f47 ea3c 3eb8 9dbc
000000f0: 5db8 3e3c b5d7 1ebc fc0a b63c c3b0 f3bb
00000100: 1ecd 96bc a5f0 2a3c baf8 83bc be88 07bc
00000110: 800f 8bbc ab1c b2bb ae01 f23a 622e a43c
00000120: 803f f2bb fa20 f73c 4ec0 b13c 4da8 ed3b
00000130: c14d 5f3c 12bb 4d3b 3fa8 04bb bdfd 773b
00000140: 654c 3abc 966f a33c 81dd 1bbc 6f98 aabb
00000150: 8e09 e8bb 60ed b1bc 3c55 21ba 3845 a4bc
00000160: 6156 043c 33ec 553b 5827 aebc 0f0b 373c
00000170: c790 b8bc 22f9 1b3c 956d 733b a8de 2c3c
00000180: b791 b2bc 0b2e 53ba 73cb eeba 625e db3b
00000190: 12db 213c ac84 c4bb 2dca 1ebc b579 c03b
000001a0: 60f1 87bb 5309 5dbc 82a9 5a3c d0c5 9d3b
000001b0: 8744 ae3c 61b5 b03b c9d7 e0bb 150c a83b
000001c0: 4cdc eebb a6e5 b23c 2beb a83c 137b a73c
000001d0: c97f ddbc 7a69 283b 0444 043c fd71 cfbc
000001e0: a808 eebb a70d ed38 8f5b 47bc c5f0 9a3b
000001f0: da52 9ebc 03b4 93bb 0ac1 5c3c 5eb9 e3bc
00000200: ba6b 08bd e77b cbbc eddb b13b d0ae 28bc
00000210: b133 cc3b 4362 9f3c 475e a3bc 0baf 423c
00000220: 3afc 92bc f66e 98bb 902e 82bc fe06 b2bb
00000230: e8ba 0a3c 9d8c 973c 66d0 af3c 07cd 933b
00000240: 85de 9b3b cd26 08bb 0dc7 c7bc d5af 86bc
00000250: 098d 7f3a 8c00 31bc 864b 06bd 0801 953b
00000260: 1cae 08bb 0872 77bc 1428 3cbc febd c1bc
00000270: ca5f 30bd 2cf0 90bc c1a8 27bd b578 1abd
00000280: ab86 b3bc 1c9d 1bbd b097 b9bc ebcd 8cbc
00000290: fe7e 973a b936 a7bc 8e4b 8e3b 694d debc
000002a0: 2f0b 02bd 494e 16bd 9890 38bc 5514 09bc
000002b0: a10c 0bbd 73c5 0cbd 938b 343b d13b 9f3c
000002c0: 80ce eb3b 8187 c8bb 9838 d4bc 7e3e 573c
000002d0: e2f5 b8bc 598d a3bc d05f 84bb bf01 00bd
000002e0: 705a fc3a c2f7 6b3c 37e2 803c 447f 043c
000002f0: b18f a6bc 1e18 8b3a eb72 9dbb 3229 ad3c
00000300: e26b e7bc a001 30bc 2769 cfbc d18a f03b
00000310: fb3b 793c 92b6 ea3b 9818 1a3b e76f a93b
00000320: 985b 073c ca59 3f3c acd4 abbc c6db 76bc
00000330: 8893 8dbc 69ec 61bb 646d 3f3c 711c e5bc
00000340: 37e5 353c 7062 afbb b114 c43c 64c7 6c3c
00000350: 0ac8 e1bb 7ca1 95bc a526 09bc 712b 443c
00000360: 89c5 5f3c 4bf1 4d3c 7385 863b 79bf 8d3c
00000370: b1a9 afbc 1259 5abc 0c3f 91bb e604 85bc
00000380: ef64 bdbc 3255 043a c678 1dbc c427 403c
00000390: 9d3b a83b c6a0 58bb 8a45 f139 873d 91bc
000003a0: fbc4 94ba 3273 57bc fd02 f2bb 4673 b03c
000003b0: 7894 5fbc 698e 863b 5d09 1dbc 7c25 883a
000003c0: 8cea 77bc 318f 28bb 55f3 84bb c507 51bc
000003d0: 6985 d33a ee69 46bc 03f8 c7b9 fd8e 013c
000003e0: f925 d1bb 347a 3c3c 325d cc3b 2875 053c
000003f0: 3fdf 0fbc 897a 253c f27e f639 3d9a 3cbc

fc.1.bias f4 [64]
0.012332149 0.15125431 -0.033733513 0.0076446543 0.4794852 0.2512879 -0.042107124 -0.014219188
0.013877617 0.43530947 0.46321437 0.28208554 0.027238568 0.08413117 0.15677267 0.67711645
-0.00014176423 0.005662314 -0.04526514 -0.027178748 0.0048604393 0.0026220018 -0.024192126 0.28535697
0.006850301 -0.022158133 -0.02908286 0.04978571 0.15183985 0.13649994 0.0023933132 -0.028242037
0.030561153 0.523361 -0.010295591 0.3068048 -0.01710897 0.58224994 0.03702481 0.03438307
-0.029200263 0.23989329 -0.00080503454 0.21525933 0.060828295 0.0003619452 0.07767685 0.05120735
-0.021167802 0.026577514 0.05075202 -0.0008615758 0.33842966 0.3402612 -0.002116561 0.02097008
-0.018220639 -0.040625732 -0.05031677 0.40012932 -0.005483113 -0.022547724 0.2161404 0.2479625
00000000: c80c 4a3c 69e2 1a3e 272c 0abd 0280 fa3b
00000010: 167f f53e cfa8 803e 8578 2cbd 99f7 68bc
00000020: f25e 633c e2e0 de3e 6f2a ed3e 846d 903e
00000030: 6b23 df3c f64c ac3d 0489 203e 8157 2d3f
00000040: 8ca6 14b9 ef8a b93b f067 39bd f7a5 debc
00000050: 5244 9f3b e4d5 2b3b 912e c6bc 4f1a 923e
00000060: 7d78 e03b f984 b5bc 2e3f eebc 1aec 4b3d
00000070: e87b 1b3e a4c6 0b3e 22d9 1c3b d85b e7bc
00000080: 625b fa3c fdfa 053f d7ae 28bc 8515 9d3e
00000090: 1c28 8cbc 550e 153f 54a7 173d 43d5 0c3d
000000a0: 6435 efbc 96a6 753e f408 53ba f16c 5c3e
000000b0: 1727 793d 76c3 bd39 0a15 9f3d ccbe 513d
000000c0: 1968 adbc 16b9 d93c 5ae1 4f3d 60db 61ba
000000d0: a746 ad3e b736 ae3e 00b6 0abb 72c9 ab3c
000000e0: 7343 95bc 2b67 26bd f518 4ebd c0dd cc3e
000000f0: b0ab b3bb 01b6 b8bc e953 5d3e e2e9 7d3e

fc.3.weight f4 [4, 64]
0.016114047 0.20437661 0.011553958 0.07620694 -0.2818924 0.1343505 0.09183856 -0.092823
0.08834917 0.031141846 0.011437334 -0.9227309 0.13700208 0.044478398 -1.5534294 0.4073897
0.046034906 -0.2397711 0.101379365 0.031063613 0.1452861 0.018153073 -0.061506443 -0.64867723
-0.011587687 -0.008729342 -0.10427679 -0.049451187 0.0051333033 0.06052257 0.066547684 0.013198833
0.0759842 -0.62596005 -0.097557105 0.07965956 0.041332364 -0.18117715 -0.11935865 0.07084055
0.038832434 -0.049871936 -0.041784216 0.11498197 -0.15586534 -0.3442788 0.24452272 0.13545585
0.041886266 0.18151553 0.27254263 -0.04431205 -1.1501955 -0.039455496 -0.027058974 0.20267609
-0.027836869 0.06214201 -0.08330083 -0.057827394 0.025100773 -0.06480354 0.12645128 0.092143916
-0.01038484 -0.5408012 0.10666872 -0.082573384 -0.69213253 0.19733404 -0.05057145 0.017674038
-0.03582262 0.029930612 -1.0031863 -0.053930406 0.22418025 -1.1409796 0.067066856 0.3358499
-0.01567826 -0.12343265 0.026889248 0.054882973 0.08601244 0.071706295 0.11957862 0.0055293255
0.03890881 -0.08513409 0.08280265 -0.018493375 -1.3272693 -0.18897127 0.10287162 -0.092148215
0.080313236 0.012223988 0.028565027 -0.052940592 -0.051859822 -0.092995174 0.19675311 0.10054252
-0.10881419 -0.024203753 0.0019122197 0.065266594 0.18868579 -0.45402968 -0.69172746 -0.07303313
-0.058176063 0.24346972 0.22951946 -0.062443137 0.0474834 -0.103302635 -0.08234228 -0.0031601985
-0.023961445 -0.006530933 -0.052813586 0.050584503 0.03884322 0.104909405 0.121948294 0.037087616
-0.02439952 -0.27226245 0.063630536 0.07770449 -0.42573377 0.41579422 0.080826364 0.011074967
0.11400494 -0.6786735 0.007036612 0.08486169 0.25731933 0.06885648 0.040607974 0.2960689
0.056498043 -0.091398224 0.085852265 0.09766427 -0.06334039 0.011471474 0.073459916 0.10536149
0.065882966 0.014370857 0.02614369 2.4744585 -0.008773344 0.11522413 0.097630285 -0.08273034
-0.10343443 0.013791188 0.046343382 -1.3304418 -0.05920454 -0.101821534 0.2004006 -1.0878209
0.09594524 -0.07601236 0.039552867 0.124990486 0.062872596 0.24448535 0.29864222 0.15489708
-0.009283199 -0.41495484 0.19593579 0.046864063 -0.048541076 -0.11130621 -0.022473946 0.092954576
-0.09440928 0.09030294 0.044605743 -1.2615467 0.048187785 0.012196366 0.17388244 -0.26965395
-0.009624895 -0.023752734 -0.03931846 -0.05375377 0.055425446 0.09950148 -0.038306993 0.076860204
-0.08158474 -0.12192983 0.028895797 -0.07961805 0.01243021 0.09213158 0.0584682 0.35213566
-0.04777936 -0.29106975 0.0038602946 -0.11025496 -0.15737991 -0.0600463 -0.07062889 -0.41401005
0.036282726 -0.028896108 -0.05058481 -0.021995686 -0.014218342 0.21095571 -0.10610498 0.11470722
0.20655182 -0.0033318836 0.0117102275 -0.033292856 -0.07492862 -0.6439001 0.010057257 0.09942271
-0.06162089 -1.4781108 0.07965319 -1.8485144 0.19613843 0.30793953 0.24471016 -0.14083119
0.12004577 0.3213616 -0.61751777 -0.0188575 0.08544298 -0.9709745 0.029891796 -0.12349131
-0.10752298 0.10913263 0.0050778287 0.023084167 0.10904018 -0.03794004 -1.3478215 0.056668755
00000000: 9b01 843c 1a48 513e d04c 3d3c 6212 9c3d
00000010: 3354 90be 2d93 093e db15 bc3d fc19 bebd
00000020: 69f0 b43d 2f1d ff3c a863 3b3c 1838 6cbf
00000030: 464a 0c3e fb2e 363d c6d6 c6bf 6295 d03e
00000040: 198f 3c3d 8e86 75be fc9f cf3d 1e79 fe3c
00000050: e1c5 143e c1b5 943c 2eee 7bbd b60f 26bf
00000060: 48da 3dbc 8405 0fbc 128f d5bd 548d 4abd
00000070: 4535 a83b 84e6 773d 274a 883d eb3f 583c
00000080: 9b9d 9b3d eb3e 20bf 05cc c7bd 8d24 a33d
00000090: 204c 293d 8186 39be 4f72 f4bd da14 913d
000000a0: c20e 1f3d 8446 4cbd ed25 2bbd ab7b eb3d
000000b0: 2a9b 1fbe 5045 b0be 2a64 7a3e f0b4 0a3e
000000c0: ef90 2b3d 35df 393e b58a 8b3e 8d80 35bd
000000d0: 9b39 93bf 169c 21bd c8aa ddbc 528a 4f3e
000000e0: 250a e4bc 9f88 7e3d a099 aabd 6bdc 6cbd
000000f0: 23a0 cd3c b8b7 84bd 727c 013e f3b5 bc3d
00000100: 2d25 2abc f371 0abf 2175 da3d 3c1c a9bd
00000110: 992f 31bf ef11 4a3e 0224 4fbd 25c9 903c
00000120: bdba 12bd 0b31 f53c 6968 80bf 21e6 5cbd
00000130: 828f 653e 9f0b 92bf 595a 893d 85f4 ab3e
00000140: b26f 80bc 42ca fcbd d746 dc3c f8cc 603d
00000150: 4a27 b03d c0da 923d a3e5 f43d 582f b53b
00000160: d85e 1f3d c85a aebd 7094 a93d 6b7f 97bc
00000170: f6e3 a9bf af81 41be 5bae d23d 34b8 bcbd
00000180: 447b a43d 1f47 483c 3401 ea3c 3cd8 58bd
00000190: f76a 54bd 4174 bebd a679 493e 3de9 cd3d
000001a0: f9d9 debd f346 c6bc 72a3 fa3a 7eaa 853d
000001b0: d936 413e 9476 e8be 0d15 31bf 6592 95bd
000001c0: 064a 6ebd 2050 793e 2607 6b3e 60c4 7fbd
000001d0: f47d 423d 5590 d3bd 12a3 a8bd 551b 4fbb
000001e0: cb4a c4bc 7001 d6bb 0f53 58bd b231 4f3d
000001f0: 111a 1f3d beda d63d 07c0 f93d 2fe9 173d
00000200: 81e1 c7bc fc65 8bbe ba50 823d 8823 9f3d
00000210: c7f9 d9be fbe2 d43e 4b88 a53d c773 353c
00000220: 6c7b e93d 8cbd 2dbf 6193 e63b f7cb ad3d
00000230: 5cbf 833e a004 8d3d 8c54 263d 5896 973e
00000240: 7e6a 673d fe2e bbbd 50d3 af3d 3404 c83d
00000250: 9bb8 81bd d9f2 3b3c 2772 963d c4c7 d73d
00000260: a6ed 863d be73 6b3c 4b2b d63c 875d 1e40
00000270: 12be 0fbc a1fa eb3d 63f2 c73d 866e a9bd
00000280: 6ed5 d3bd 6ff4 613c 8fd2 3d3d eb4b aabf
00000290: 7680 72bd cf87 d0bd d135 4d3e b73d 8bbf
000002a0: f07e c43d 5eac 9bbd 3002 223d 03fb ff3d
000002b0: 59c3 803d 5e5a 7a3e a2e7 983e 579d 1e3e
000002c0: 8f18 18bc f674 d4be 64a3 483e 88f4 3f3d
000002d0: 02d3 46bd 83f4 e3bd 481b b8bc f85e be3d
000002e0: a759 c1bd bff0 b83d 83b4 363d 5d7a a1bf
000002f0: 8e60 453d 44d3 473c 3d0e 323e 1510 8abe
00000300: bcb1 1dbc 1895 c2bc 650c 21bd ea2c 5cbd
00000310: cb05 633d 6fc7 cb3d cbe7 1cbd e268 9d3d
00000320: e615 a7bd 59b6 f9bd e1b6 ec3c ca0e a3bd
00000330: 14a8 4b3c 7baf bc3d 5a7c 6f3d 204b b43e
00000340: 4ab4 43bd 1807 95be fffc 7c3b 5acd e1bd
00000350: 3328 21be 1cf3 75bd e1a5 90bd 20f9 d3be
00000360: 329d 143d 88b7 ecbc 0532 4fbd 4c30 b4bc
00000370: 0cf4 68bc c604 583e 914d d9bd 9eeb ea3d
00000380: 5282 533e bb5b 5abb 41dc 3f3c 175e 08bd
00000390: 2d74 99bd a3d6 24bf 31c7 243c 229e cb3d
000003a0: 3066 7cbd bc32 bdbf 3621 a33d 1f9c ecbf
000003b0: 83d8 483e 40aa 9d3e 4d95 7a3e 0d36 10be
000003c0: 8fda f53d 8289 a43e a515 1ebf 0b7b 9abc
000003d0: bbfc ae3d c991 78bf a4df f43c 03e9 fcbd
000003e0: 0235 dcbd ee80 df3d ea63 a63b 021b bd3c
000003f0: 7550 df3d 0467 1bbd 6a85 acbf 7f1d 683d

fc.3.bias f4 [4]
0.4688813 0.49384105 0.48612654 0.48164865
00000000: 3611 f03e bcd8 fc3e 94e5 f83e a79a f63e
